ai_challenge/results/simulation_DoubleDQN_DuelingRecNN_2017-05-19T19:40:53.24/560009/target_model.npz (npz, 632680 bytes, 12 tensors)

model/hidden/input_layer/b f4 [256]
-0.04856796 -0.027999574 -0.05336399 -0.03971035 -0.021846158 -0.06778563 -0.05610067 -0.11999137
-0.03820011 -0.0027718896 0.019710118 -0.048200652 -0.0359054 -0.020324476 -0.07386298 -0.015152509
-0.038440477 -0.058988784 -0.05305824 -0.075039335 -0.07353349 -0.024719775 0.013861132 -0.039032698
-0.06463954 -0.05024245 -0.04909845 -0.011906429 -0.0450056 -0.04419755 -0.0849814 -0.038314916
-0.005429886 -0.03147948 0.04465269 -0.042824887 -0.06428525 -0.05474111 -0.069749825 -0.03784562
-0.021315468 -0.0628254 0.040126525 -0.05730484 -0.046025936 -0.04175513 -0.028932555 -0.060243074
0.011764933 -0.06702926 -0.09065626 -0.022589682 -0.036474314 -0.05054602 -0.037721444 -0.05028601
-0.049889408 -0.06391016 -0.05822503 -0.059937865 -0.060145512 -0.045870844 -0.0506953 -0.030345261
-0.023348492 -0.051606536 -0.047678664 -0.03867707 -0.05427117 -0.07582334 -0.061741237 -0.09898307
-0.054124 -0.025223745 -0.0030215387 -0.07037311 -0.04071903 -0.05423173 -0.022080833 -0.08265386
-0.0699906 -0.06673493 -0.07478774 -0.06705474 -0.06283148 -0.058976583 -0.091869175 -0.09892938
-0.027479537 -0.077026956 0.018374328 -0.0332587 -0.057501283 -0.04596606 -0.008396076 -0.026847523
-0.01479985 -0.011218757 -0.001722501 -0.01785723 -0.029795963 -0.059561767 -0.026492212 -0.0154565945
-0.016301146 -0.014174275 -0.018621076 -0.07408101 -0.019951621 -0.10910774 -0.07211017 -0.06540192
-0.05328988 -0.08951588 -0.07353167 -0.045830477 -0.074157365 -0.0690724 -0.08366757 -0.059053928
-0.08543094 -0.022780085 -0.055466037 -0.095551275 -0.078989916 -0.028420929 -0.08694273 0.02404876
-0.021634255 -0.038811807 -0.07582922 -0.032756742 -0.028646447 -0.027247902 -0.00884203 -0.053290367
-0.045151148 -0.04552752 -0.09487147 0.0036586868 -0.03372814 -0.024449904 -0.04378495 -0.011116702
-0.03115516 -0.01811326 -0.051673852 -0.06893677 -0.08459947 -0.07004603 -0.039050803 -0.08018662
-0.07417561 -0.045083605 -0.041038018 -0.020505624 -0.06584116 -0.039532036 0.0014045206 -0.028490406
-0.055740114 -0.07934211 -0.00057166524 -0.059874725 -0.050222617 -0.02892224 -0.06645978 0.009597532
0.012000583 -0.056387678 -0.002324628 0.021412125 -0.024829565 -0.02460572 -0.0050322213 -0.012696634
-0.0221261 -0.051694456 -0.039086625 -0.0749807 -0.040636368 -0.03878577 -0.04065138 -0.050759505
-0.0117609175 -0.06998664 -0.03489372 -0.09377499 -0.07589296 -0.06096146 -0.06270029 -0.09672692
-0.052516956 -0.07068178 -0.034476332 -0.060000055 -0.05603048 -0.04943977 -0.074030966 0.025187096
-0.031823225 -0.047356572 -0.05451487 -0.080688834 -0.070269294 -0.025910338 -0.04450207 -0.044688996
-0.04479794 -0.051765013 -0.029786848 -0.049901918 -0.06057323 -0.024695864 -0.0826754 -0.07973988
-0.034156825 -0.047031395 -0.026543973 -0.048315644 -0.036939994 0.009029812 0.0025052899 -0.0122275865
-0.03442514 0.0033218842 -0.06169198 -0.04472298 -0.044608377 -0.04620523 -0.054895695 -0.041413486
-0.052336216 0.008328947 -0.0056667244 -0.012940637 -0.06849318 -0.015720716 -0.046863828 -0.06581866
-0.043742742 -0.01840578 -0.059145343 -0.05884492 -0.016494252 0.044731017 -0.07709846 -0.061539497
-0.025683738 -0.055421762 0.019278603 -0.016763287 -0.0074093603 -0.08876469 -0.05857306 -0.058869887
00000000: 32ef 46bd 5d5f e5bc 3394 5abd 52a7 22bd
00000010: b7f6 b2bc 31d3 8abd d1c9 65bd 09be f5bd
00000020: b877 1cbd 97a8 35bb 1d77 a13c 0c6e 45bd
00000030: 8a11 13bd 847f a6bc 7945 97bd 3b42 78bc
00000040: c373 1dbd 399e 71bd 9953 59bd 39ae 99bd
00000050: ba98 96bd 2081 cabc cd19 633c c0e0 1fbd
00000060: bc61 84bd 07cb 4dbd 751b 49bd 2f13 43bc
00000070: cb57 38bd 7d08 35bd ba0a aebd 1af0 1cbd
00000080: 2fed b1bb a1f0 00bd bde5 363d 2669 2fbd
00000090: fca7 83bd 3738 60bd ffd8 8ebd 0204 1bbd
000000a0: c79d aebc 9aaa 80bd b65b 243d 7bb8 6abd
000000b0: b185 3cbd 6d07 2bbd f703 edbc 71c1 76bd
000000c0: b5c1 403c a346 89bd fda9 b9bd ff0d b9bc
000000d0: 1766 15bd 5809 4fbd cd81 1abd b4f8 4dbd
000000e0: d658 4cbd 54e3 82bd 5e7d 6ebd 6881 75bd
000000f0: 245b 76bd 11e3 3bbd e0a5 4fbd a096 f8bc
00000100: 5645 bfbc 6061 53bd b44a 43bd d96b 1ebd
00000110: 724b 5ebd 4449 9bbd 61e4 7cbd a3b7 cabd
00000120: 21b1 5dbd 07a2 cebc 0205 46bb c71f 90bd
00000130: ffc8 26bd 1722 5ebd dde2 b4bc 6d46 a9bd
00000140: 3b57 8fbd 53ac 88bd 512a 99bd ff53 89bd
00000150: caad 80bd 6e91 71bd e825 bcbd 7d9b cabd
00000160: c41c e1bc 4fc0 9dbd c285 963c 463a 08bd
00000170: 7786 6bbd e846 3cbd b28f 09bc 56ef dbbc
00000180: 127b 72bc e1ce 37bc 8bc5 e1ba 5349 92bc
00000190: aa16 f4bc 0af7 73bd 3206 d9bc a83d 7dbc
000001a0: fb89 85bc 383b 68bc 3a8b 98bc c9b7 97bd
000001b0: 9571 a3bc e173 dfbd 7fae 93bd 71f1 85bd
000001c0: 7d46 5abd 1a54 b7bd c697 96bd bdb8 3bbd
000001d0: d1df 97bd d575 8dbd e759 abbd 88e2 71bd
000001e0: 6bf6 aebd 4d9d babc 5b30 63bd 63b0 c3bd
000001f0: 77c5 a1bd 02d3 e8bc 080f b2bd e801 c53c
00000200: 523a b1bc 21f9 1ebd 5a4c 9bbd ef2b 06bd
00000210: f4ab eabc fe36 dfbc 29de 10bc 0047 5abd
00000220: 69f0 38bd 117b 3abd f94b c2bd 94c6 6f3b
00000230: 8526 0abd 2a4b c8bc d957 33bd d422 36bc
00000240: 1b39 ffbc 4262 94bc f6a7 53bd b92e 8dbd
00000250: 7d42 adbd 4b74 8fbd bcf3 1fbd e238 a4bd
00000260: 62e9 97bd 96a9 38bd 7b17 28bd 69fb a7bc
00000270: bbd7 86bd 58ec 21bd e417 b83a b664 e9bc
00000280: bf4f 64bd 1e7e a2bd cedb 15ba 333f 75bd
00000290: 3bb6 4dbd 55ee ecbc 111c 88bd f83e 1d3c
000002a0: 189e 443c c4f6 66bd c958 18bb 7b68 af3c
000002b0: 5f67 cbbc ef91 c9bc 55e5 a4bb 8b05 50bc
000002c0: cb41 b5bc 91bd 53bd 4c19 20bd 7b8f 99bd
000002d0: 5272 26bd d4dd 1ebd 1082 26bd 33e9 4fbd
000002e0: ddb0 40bc 2855 8fbd b8ec 0ebd 1a0d c0bd
000002f0: c56d 9bbd b9b2 79bd 0269 80bd c318 c6bd
00000300: 051c 57bd 9cc1 90bd 0e37 0dbd 9ec2 75bd
00000310: 3780 65bd 5b81 4abd 8c9d 97bd 2b55 ce3c
00000320: 1259 02bd f7f8 41bd fc4a 5fbd 3040 a5bd
00000330: 59e9 8fbd eb41 d4bc cd47 36bd cf0b 37bd
00000340: 0b7e 37bd 8d07 54bd 8c03 f4bc f465 4cbd
00000350: a31b 78bd fb4e cabc b851 a9bd aa4e a3bd
00000360: 07e8 0bbd fea3 40bd bf72 d9bc a0e6 45bd
00000370: 644e 17bd c7f1 133c ca2f 243b 3756 48bc
00000380: 6001 0dbd f8b3 593b bbb0 7cbd 722f 37bd
00000390: 46b7 36bd b241 3dbd 4fda 60bd 30a1 29bd
000003a0: 805e 56bd 2376 083c eeaf b9bb f704 54bc
000003b0: 2746 8cbd bbc8 80bc 49f4 3fbd efcb 86bd
000003c0: 972b 33bd b8c7 96bc 6342 72bd 5f07 71bd
000003d0: f41e 87bc df37 373d cce5 9dbd d710 7cbd
000003e0: b466 d2bc ee01 63bd 29ee 9d3c 2953 89bc
000003f0: 38ca f2bb 43ca b5bd 4eea 6fbd 8d21 71bd

model/hidden/output_layer/b f4 [256]
0.02335526 -0.0130750835 -4.7746813e-05 -0.01423305 0.009580619 0.009334056 0.0063687516 0.015724035
-0.008213971 0.013780304 -0.022223046 0.0018714148 0.018872771 -0.004429951 0.022962207 0.013127612
-0.0011590266 -0.0022397842 -0.02138665 0.012864181 -0.008296575 -0.013874923 0.008669261 -0.0006408359
-0.00853303 0.0020139161 -0.018508162 -0.0011306717 -0.0011031287 0.024589367 -0.023211429 -0.012474488
-0.0033358408 -0.011698098 0.01615892 -0.0075983265 -0.011397589 0.00083119934 0.016834993 0.0001326993
0.0131445145 0.00136762 0.0029335215 0.021446036 0.0025560136 -0.0123121645 -0.020017892 0.0068441476
-0.016053502 0.00935319 -0.011378613 -0.013053108 -0.022113057 0.0047441577 -0.005155617 0.004257399
-0.019150408 -0.010424645 0.005560324 -0.0063334317 -0.0016812157 0.01727541 0.014263461 -0.007835709
0.013959042 0.015726946 -0.01697198 -0.009536888 -0.0150259 -0.014632591 -0.015827022 0.015551186
-0.009873767 -0.024562698 -0.0073594274 -0.00509602 -0.010999756 0.00097185536 -0.004086866 0.0068882816
-0.0062680943 0.00082997466 -0.007545018 0.010868644 0.00710219 -0.022339633 0.0048224004 0.010935563
-0.020937307 -0.019462137 0.0027581668 0.008862036 0.013791093 -0.0012741531 -0.015087982 0.017283903
-0.009897231 -0.0036850965 0.011032467 -0.0103681255 0.010532009 -0.005272182 -0.022578243 0.0052593
-0.0053551327 0.021155786 -0.016667442 0.007335619 0.0028356088 0.00077919185 0.023571238 0.0048555145
-0.026106097 0.006636653 -0.011032625 -0.010319707 -0.021075636 -0.012158596 0.00068013935 0.01063943
-0.00093758316 -0.0011730716 0.017966582 0.006439122 -0.015853144 0.009904745 0.011277246 0.006099993
-0.004284287 -0.022040145 6.505596e-05 -0.011522691 0.01729244 -0.006964981 -0.005684824 -0.013804633
-0.01022882 0.0068697017 0.013770338 0.014971878 0.016876634 -0.0100156 0.003953889 -0.0018835975
-0.011171329 0.019839983 0.015694257 -0.011953167 0.008095358 -0.020449463 -0.0126511725 0.0007345632
-0.007304652 -0.012580369 0.008751751 0.0020676316 -0.011535167 0.0030944785 0.0052225017 0.013154513
0.0042672055 0.011579322 -0.006846704 0.0059858738 -0.012704155 -0.019330388 -0.017668229 -0.0053163525
0.0070003998 0.0043756017 0.011038509 -0.010855475 -0.0014167286 0.017041098 0.014177969 0.006483007
0.0035359638 -0.0017346732 -0.0031253335 -0.0054640397 0.021889232 0.0098789055 -0.018407354 -0.015948331
0.020025337 -0.01673788 0.015676787 -0.0057424465 -0.017211294 -0.009530278 0.014617658 -0.018387347
0.0016589157 0.0058131814 0.0036074559 -0.016904118 0.020102352 -0.013432779 0.019446803 -0.0110607
0.00096176524 0.014472925 0.011169157 -0.020687394 0.002773682 -0.014436534 0.01592385 0.00719099
-0.013240185 -0.009997096 -0.00014546441 -0.0017385952 -0.014782766 -0.012761367 0.004043476 0.013159384
0.012697783 -0.0018657906 -0.013195921 0.021085277 0.0021202685 0.015816536 0.02589309 -0.0013586667
0.011588812 -0.0026418935 0.011167258 -0.016000532 -0.023905033 0.01581181 -0.017011337 0.017891277
0.015566299 -0.0022875227 0.0052997028 -0.015127732 -0.017060142 -0.014978562 0.02348454 0.010434802
0.016776728 -0.00789698 0.0072118244 -0.01315298 -0.0058033154 0.011075542 0.003498176 0.0054799505
0.0023124532 -0.013674417 0.017081365 0.008962153 -0.00035061667 0.0072554285 -0.002646287 0.0045789424
00000000: 8853 bf3c e038 56bc c043 48b8 bd31 69bc
00000010: 07f8 1c3c deed 183c f6b0 d03b b1cf 803c
00000020: e493 06bc c9c6 613c 1b0d b6bc 434a f53a
00000030: 129b 9a3c 1f29 91bb 3d1b bc3c 3215 573c
00000040: 7bea 97ba 58c9 12bb 0e33 afbc 49c4 523c
00000050: 5cee 07bc a553 63bc 8409 0e3c c5fd 27ba
00000060: 1fce 0bbc e8fb 033b 6e9e 97bc 0c33 94ba
00000070: db96 90ba a46f c93c e525 bebc cb61 4cbc
00000080: 1f9e 5abb 61a9 3fbc b65f 843c 62fb f8bb
00000090: f4bc 3abc d8e4 593a 8ae9 893c 3225 0b39
000000a0: 175c 573c b641 b33a 5340 403b 99af af3c
000000b0: cb82 273b f6b8 49bc 90fc a3bc df44 e03b
000000c0: a282 83bc 1f3e 193c 5d6d 3abc b4dc 55bc
000000d0: 7126 b5bc e174 9b3b 73f0 a8bb a781 8b3b
000000e0: 51e1 9cbc 21cc 2abc 6133 b63b ad88 cfbb
000000f0: 3d5c dcba 2985 8d3c 4bb1 693c 5861 00bc
00000100: 77b4 643c ccd5 803c d208 8bbc 9c40 1cbc
00000110: 312f 76bc 89bd 6fbc aca7 81bc 67ca 7e3c
00000120: 95c5 21bc b637 c9bc 5a27 f1bb 84fc a6bb
00000130: 5238 34bc 1cc4 7e3a 1eeb 85bb 18b7 e13b
00000140: 9664 cdbb a892 593a 333c f7bb 6612 323c
00000150: 7db9 e83b 9b01 b7bc 3a05 9e3b 132b 333c
00000160: b784 abbc 0f6f 9fbc 5cc2 343b 1332 113c
00000170: 09f4 613c 7c01 a7ba 9533 77bc f996 8d3c
00000180: ff27 22bc a981 71bb 85c1 343c 12df 29bc
00000190: 738e 2c3c 45c2 acbb 02f6 b8bc 3556 ac3b
000001a0: 1c7a afbb e64e ad3c 298a 88bc a25f f03b
000001b0: 9fd5 393b ae42 4c3a 7818 c13c 021b 9f3b
000001c0: 74dc d5bc 4878 d93b 2fc2 34bc fd13 29bc
000001d0: d0a6 acbc d934 47bc 614b 323a 0151 2e3c
000001e0: 24c8 75ba c0c1 99ba a72e 933c 45ff d23b
000001f0: 74de 81bc 8347 223c 33c4 383c 73e2 c73b
00000200: 3463 8cbb 898d b4bc a76e 8838 abc9 3cbc
00000210: e0a8 8d3c 7f3a e4bb c347 babb d42c 62bc
00000220: c896 27bc 3c1b e13b fc9c 613c 9c4c 753c
00000230: de40 8a3c 7918 24bc a08f 813b 0be3 f6ba
00000240: f307 37bc 7687 a23c 3e91 803c 37d7 43bc
00000250: 64a2 043c a285 a7bc dd46 4fbc b48f 403a
00000260: dd5b efbb e41d 4ebc 8163 0f3c 1a81 073b
00000270: fffd 3cbc bccc 4a3b 8521 ab3b 0786 573c
00000280: ead3 8b3b 32b7 3d3c 515a e0bb 2625 c43b
00000290: 1725 50bc c35a 9ebc f6bc 90bc cc34 aebb
000002a0: 9c63 e53b 3561 8f3b ddda 343c 2adb 31bc
000002b0: 86b1 b9ba c699 8b3c b64a 683c 686f d43b
000002c0: a1bb 673b f95d e3ba 65d2 4cbb b00b b3bb
000002d0: 0c51 b33c 22db 213c 05cb 96bc 13a6 82bc
000002e0: 2d0c a43c e11d 89bc 9b6c 803c 222b bcbb
000002f0: b3fe 8cbc e224 1cbc e77e 6f3c 10a1 96bc
00000300: f96f d93a 807c be3b 116b 6c3b 817a 8abc
00000310: b0ad a43c 2915 5cbc e74e 9f3c f037 35bc
00000320: f91e 7c3a d91f 6d3c d7fe 363c 9c78 a9bc
00000330: a9c6 353b 3687 6cbc bc72 823c 65a2 eb3b
00000340: 5ced 58bc dcca 23bc ce87 18b9 93e1 e3ba
00000350: 6a33 72bc 0d15 51bc 237f 843b 759a 573c
00000360: 5d0a 503c 8b8d f4ba b433 58bc 08bb ac3c
00000370: 34f4 0a3b ae91 813c bf1d d43c 4a15 b2ba
00000380: 00df 3d3c 9e23 2dbb e0f6 363c 8c13 83bc
00000390: 7dd4 c3bc c587 813c 5c5b 8bbc ba90 923c
000003a0: ca09 7f3c 43ea 15bb 21a9 ad3b 4fda 77bc
000003b0: b6c1 8bbc a468 75bc a662 c03c bbf6 2a3c
000003c0: 596f 893c 5662 01bc 2b51 ec3b 997f 57bc
000003d0: bd29 bebb 3176 353c a841 653b 2891 b33b
000003e0: 878c 173b a90a 60bc 38ee 8b3c ffd5 123c
000003f0: f9d2 b7b9 f2be ed3b 546d 2dbb f40a 963b

model/a_stream/W f4 [3, 256]
-0.0138215395 0.0134741785 -0.04087475 0.015112118 -0.0067316247 -0.025726112 0.010358608 -0.012605189
0.011265809 -0.0071927416 0.009694018 -0.0054249642 -0.013262938 -0.04013811 -0.008576769 -0.0037706082
0.0015179095 -0.03099565 0.010978815 -0.008395627 0.004308793 0.005368991 -0.0025512648 0.01720288
0.035876963 -0.041723125 0.017997738 -0.047018602 0.04675373 -0.018782314 0.010428767 0.009831417
-0.044790234 0.005689135 -0.018172171 -0.0047845757 0.02414616 -0.01838977 0.0022734897 -0.025267335
-0.014559247 0.022082018 0.033543803 -0.0030173683 0.03227932 0.0135101 0.012851679 0.03774125
0.02245566 -0.017065197 0.008631578 0.006840363 0.008714903 0.0328547 -0.013074257 0.001758843
0.023271145 0.012560625 0.033305008 0.0018127415 -0.008496082 0.014779587 -0.0058149085 -0.010317477
-0.018071812 -0.02576356 0.0057127797 -0.0006561065 -0.0013485809 0.009497243 0.0129659325 -0.0064572473
0.013576241 0.0029388182 -0.041213408 -0.035680477 0.024699952 -0.014169415 -0.042269718 0.015728526
0.025963733 0.04303484 -0.023357883 -0.019722123 0.02580435 -0.0006343698 0.029554836 0.01936914
0.012843117 0.009257909 0.035742536 -0.002098573 -0.002462421 -0.031942733 0.0018618241 -0.00832941
0.011190575 0.006448616 -0.0049758707 -0.0033854262 0.0011343576 -0.01366646 0.019434346 0.015687648
-0.034971077 -0.0234131 0.009157881 0.020059377 -0.012773569 0.00021578878 -0.017252697 0.021570317
0.0028040824 0.023537267 3.698308e-05 0.010594545 0.015669134 0.0058388812 -0.021796167 -0.0011207327
-0.023871727 -0.028098742 -0.023963714 -0.0008678215 0.021239307 0.005722567 -0.00040121682 0.016320433
-0.037296016 0.01480413 -0.026435431 -0.011731665 -0.004000449 -0.009626654 0.022540942 0.0023555178
0.008383618 0.014699951 0.00720159 -0.004727236 -0.0020087645 0.012480683 -0.009375671 0.015170153
0.0052016615 -0.019796578 -0.01624894 0.013582453 0.020094264 0.009076026 0.0031488987 -0.00087126374
-0.037273783 0.01648857 0.02183306 -0.01253671 0.01795889 0.034148745 0.045834012 -0.02285303
0.03627632 -0.024920652 -0.007882892 0.010281086 0.021088656 0.008894808 0.0053128814 -0.01394076
-0.007044294 0.031068131 0.007834615 0.014908374 0.010647815 -0.005717915 -0.0023183865 -0.003058172
0.04311518 -0.0008396894 -0.029869433 -0.0052007306 -0.018806772 -0.0051977015 0.0072703916 0.015442801
0.00096899725 0.008535879 0.0020326595 -0.042266387 0.020906016 -0.0046877535 -0.017636674 -0.0011388648
0.04252579 0.01599204 0.030913342 -0.07528881 -0.020767799 0.014565 -0.026533987 0.0051409854
-0.021520192 -0.0053014355 -0.017280381 0.022106348 0.056059577 -0.00074726663 -0.025878513 0.01410871
0.016246779 -0.017478345 0.04721679 -0.013777253 0.0057362244 0.0032234057 0.027012693 -0.013026952
-0.0057569155 -0.03319436 -0.0006436937 -0.009352129 0.029259829 -0.011932473 -0.00621818 0.035080593
-0.010001334 -0.047050163 0.012239742 0.01805343 0.008240132 -0.015063972 0.011256433 -0.006830222
-0.005570004 0.008126443 0.057650637 -0.006173953 0.022040399 0.0008350398 -0.01096623 0.014224386
-0.012009403 -0.0093562575 -0.0122361425 0.028211327 -0.03063663 -0.0113383075 0.047936887 0.051227506
-0.0061595836 0.0054510515 -0.027430298 0.0113026 -0.021022154 0.023275848 -0.041473225 0.016314529
00000000: bd73 62bc cdc2 5c3c 486c 27bd d198 773c
00000010: f694 dcbb 91bf d2bc 27b7 293c ff85 4ebc
00000020: 3a94 383c 17b1 ebbb a9d3 1e3c e6c3 b1bb
00000030: cb4c 59bc dc67 24bd 9485 0cbc 4f1c 77bb
00000040: 97f4 c63a 97ea fdbc 7de0 333c d08d 09bc
00000050: c730 8d3b 5cee af3b 1f33 27bb 0eed 8c3c
00000060: b9f3 123d dee5 2abd fe6f 933c 9496 40bd
00000070: d780 3f3d 5edd 99bc 6bdd 2a3c f413 213c
00000080: f775 37bd ec6b ba3b cedd 94bc eec7 9cbb
00000090: 2bce c53c 25a6 96bc d4fe 143b 71fd cebc
000000a0: e889 6ebc 59e5 b43c 3a65 093d 0abf 45bb
000000b0: 5237 043d 7759 5d3c d98f 523c 9296 1a3d
000000c0: eff4 b73c 50cc 8bbc 766b 0d3c 2025 e03b
000000d0: f4c8 0e3c a692 063d 6935 56bc fa88 e63a
000000e0: 21a3 be3c 14cb 4d3c d56a 083d 8399 ed3a
000000f0: 2733 0bbc 1526 723c fd8a bebb a30a 29bc
00000100: 560b 94bc 1a0e d3bc 4532 bb3b 90fe 2bba
00000110: dec2 b0ba 539a 1b3c 106f 543c 5197 d3bb
00000120: e26e 5e3c 3099 403b 64cf 28bd b125 12bd
00000130: 8e57 ca3c d626 68bc 0323 2dbd 1cd9 803c
00000140: e5b1 d43c 4d45 303d 0859 bfbc 4a90 a1bc
00000150: a563 d33c d64b 26ba fc1c f23c 08ac 9e3c
00000160: f06b 523c 7cae 173c c466 123d 3688 09bb
00000170: 9260 21bb 62d6 02bd 7308 f43a 1478 08bc
00000180: ac58 373c e94e d33b a10c a3bb 07de 5dbb
00000190: baae 943a 4ae9 5fbc c734 9f3c 6283 803c
000001a0: d53d 0fbd d4cc bfbc f00a 163c 9053 a43c
000001b0: 3b48 51bc 5c45 6239 8755 8dbc 3cb4 b03c
000001c0: b2c4 373b 3ad1 c03c 481e 1b38 be94 2d3c
000001d0: 8e5c 803c 1654 bf3b e08d b2bc 8de5 92ba
000001e0: a48e c3bc 552f e6bc 8d4f c4bc 847e 63ba
000001f0: 0efe ad3c 5f84 bb3b 695a d2b9 6eb2 853c
00000200: b5c3 18bd 068d 723c 1e8f d8bc 2b36 40bc
00000210: 3316 83bb 1db9 1dbc c8a7 b83c 085f 1a3b
00000220: 715b 093c 10d8 703c 51fb eb3b eee6 9abb
00000230: 7aa5 03bb c77b 4c3c 6a9c 19bc 3c8c 783c
00000240: b372 aa3b 6f2c a2bc 7f1c 85bc f088 5e3c
00000250: ba9c a43c 9db3 143c c15d 4e3b 8565 64ba
00000260: 65ac 18bd 0a13 873c 3fdb b23c c666 4dbc
00000270: 861e 933c 8edf 0b3d 72bc 3b3d 4736 bbbc
00000280: 7b96 143d 6526 ccbc 3f27 01bc 0072 283c
00000290: 1ec2 ac3c 87bb 113c ae17 ae3b c967 64bc
000002a0: d2d3 e6bb 9882 fe3c c25c 003c 4142 743c
000002b0: 2c74 2e3c 595d bbbb 12f0 17bb 9d6b 48bb
000002c0: 8b99 303d 9a1e 5cba beb0 f4bc e46a aabb
000002d0: a910 9abc 7b51 aabb 773c ee3b cd03 7d3c
000002e0: 4e04 7e3a 12da 0b3c 5e36 053b 851f 2dbd
000002f0: 1843 ab3c ba9b 99bb c97a 90bc f645 95ba
00000300: 862f 2e3d bd01 833c fa3d fd3c 0531 9abd
00000310: 3b21 aabc 0aa2 6e3c ce5d d9bc b675 a83b
00000320: 1d4b b0bc aab7 adbb 968f 8dbc 5f18 b53c
00000330: ba9e 653d 37e4 43ba 2dff d3bc 3828 673c
00000340: f717 853c bf2e 8fbc 6566 413d fdb9 61bc
00000350: f0f6 bb3b c63f 533b b949 dd3c ff6e 55bc
00000360: 82a4 bcbb cff6 07bd 8ebd 28ba ac39 19bc
00000370: 4fb2 ef3c 6b80 43bc e0c1 cbbb abb0 0f3d
00000380: a3dc 23bc acb7 40bd 3389 483c c9e4 933c
00000390: 9e01 073c e1ce 76bc e76c 383c 0ed0 dfbb
000003a0: 9584 b6bb c624 053c 1323 6c3d df4e cabb
000003b0: 118e b43c 93e6 5a3a b4ab 33bc 660d 693c
000003c0: 16c3 44bc fd4a 19bc 1a7a 48bc 711b e73c
000003d0: abf9 fabc 4fc4 39bc 7859 443d efd3 513d
000003e0: 55d6 c9bb bc9e b23b 81b5 e0bc 8a2e 393c
000003f0: a736 acbc feac be3c d4df 29bd 0ca6 853c

model/hidden/mid_rec_layer/upward/W f4 [80, 86]
0.026381511 0.0053771455 -0.03727695 0.012228154 0.0005848002 0.042134497 0.011156396 -0.016416281
0.042812083 0.01 -0.026888933 0.01 0.21674484 0.016118735 0.01 0.18209423
0.08791563 0.01 -0.05436922 -0.01360998 0.01 0.07834411 0.07492362 0.01
-0.13099332 0.047329206 0.01 0.12955141 0.06973949 0.01 0.0089288745 0.05739257
0.01 -0.07294228 -0.04991245 0.01 0.13483836 0.003000922 0.01 -0.12508754
-0.0034190726 0.01 -0.1906571 0.010984573 0.01 -0.08431713 -0.05038797 0.14871922
-0.0015055236 -0.018043831 -0.06168592 -0.008184043 -0.04758667 0.17322564 -0.0018424185 -0.019774048
0.01 0.08366992 0.06556568 0.01 0.20678426 -0.063569486 -0.014510415 -0.0551406
0.01644603 0.13742234 0.16240299 -0.053817663 -0.005153044 0.052233256 -0.024944019 0.01
-0.05468794 -0.0541061 0.01 -0.09494605 -0.045149487 0.1417995 0.06563474 -0.04932504
-0.06831589 0.022613123 -0.015701728 -0.034073666 0.032476053 0.0018976101 0.013941184 -0.041843012
-0.1972221 -0.1971675 0.03390065 -0.16392697 -0.20643905 -0.103631124 -0.59474355 0.01
-0.046603043 0.01 0.018952327 -0.031749435 0.01 0.044738535 -0.02886054 0.01
0.028481485 0.020844098 0.01 -0.19845927 -0.100227945 0.01 0.12139442 -0.06265521
0.01 0.00712428 -0.057161067 0.01 0.010204088 -0.11234458 0.01 0.09692521
0.020010522 0.01 -0.070770465 -0.006628068 0.01 0.172253 -0.12796386 0.01
0.180217 0.021050816 0.01 0.11183754 -0.024975393 -0.10368096 -0.08421505 -0.15593587
-0.023255832 -0.2572875 -0.1340835 -0.16232201 0.03699121 -0.034505 0.01 -0.0060962923
0.034638584 0.01 0.11322221 0.13609624 -0.07156208 0.072849415 -0.15434131 -0.22113524
-0.0926345 0.022406578 -0.009233261 -0.101880364 -0.04418416 0.01 0.054443356 0.05286029
0.01 0.1746943 0.010205913 -0.2538383 -0.18493234 0.05691656 0.05872095 -0.30014956
-0.047982514 0.030936517 -0.17444733 -0.005503574 -0.3956283 -0.16080625 0.087323286 -0.31798914
-0.1416816 -0.175649 -0.16175297 -0.26698917 -0.5800579 0.01 -0.10981279 0.01
-0.046800632 -0.047248796 0.01 0.1478269 -0.06270964 0.01 0.011568189 0.008075558
0.01 -0.15545984 -0.057368394 0.01 0.10629507 -0.10743917 0.01 -0.06292987
-0.1579081 0.01 -0.08467462 -0.15916963 0.01 0.033405077 -0.16496287 0.01
-0.20498207 -0.15670376 0.01 0.058846213 -0.14286517 0.01 -0.008524735 -0.07767359
0.01 0.118337534 -0.09878154 -0.14706987 -0.2332483 -0.16848819 -0.06635007 -0.081267186
-0.09522946 -0.12459815 -0.24060853 -0.020447373 0.01 -0.24339487 -0.037850037 0.01
-0.1007535 0.033891812 -0.11199406 0.17084262 -0.22711933 -0.23648646 -0.19362654 -0.2920919
-0.08646949 -0.22001027 -0.057611927 0.01 0.15772113 0.0019705382 0.01 0.3368924
-0.018647894 -0.22594725 -0.34116292 -0.031214735 -0.026398515 -0.33320767 0.0029671742 0.02332299
00000000: 0a1e d83c c432 b03b b7af 18bd 9858 483c
00000010: 474d 193a 3995 2c3d 51c9 363c 707b 86bc
00000020: b95b 2f3d 0ad7 233c 2e46 dcbc 0ad7 233c
00000030: 5cf2 5d3e 700b 843c 0ad7 233c e976 3a3e
00000040: 1c0d b43d 0ad7 233c 42b2 5ebd 65fc 5ebc
00000050: 0ad7 233c e072 a03d 8e71 993d 0ad7 233c
00000060: 1d23 06be 45dc 413d 0ad7 233c 20a9 043e
00000070: 94d3 8e3d 0ad7 233c 6a4a 123c 7914 6b3d
00000080: 0ad7 233c c362 95bd ff70 4cbd 0ad7 233c
00000090: 1113 0a3e 1eab 443b 0ad7 233c f316 00be
000000a0: 8512 60bb 0ad7 233c 9d3b 43be a3f8 333c
000000b0: 0ad7 233c 76ae acbd 9e63 4ebd da49 183e
000000c0: fd54 c5ba a8d0 93bc 60aa 7cbd 5d16 06bc
000000d0: 3dea 42bd 1062 313e 4e7d f1ba 2ffd a1bc
000000e0: 0ad7 233c 235b ab3d 4d47 863d 0ad7 233c
000000f0: 41bf 533e b830 82bd 17bd 6dbc 1cdb 61bd
00000100: d3b9 863c 71b8 0c3e f84c 263e e96f 5cbd
00000110: deda a8bb 8af2 553d 6657 ccbc 0ad7 233c
00000120: 7600 60bd 5c9e 5dbd 0ad7 233c 1373 c2bd
00000130: abee 38bd e333 113e 826b 863d 0e09 4abd
00000140: 34e9 8bbd 283f b93c e9a0 80bc d490 0bbd
00000150: 9c05 053d 3bb9 f83a 9069 643c 9463 2bbd
00000160: 97f4 49be 47e6 49be 68db 0a3d 79dc 27be
00000170: c264 53be 8e3c d4bd 1d41 18bf 0ad7 233c
00000180: d5e2 3ebd 0ad7 233c e941 9b3c b20b 02bd
00000190: 0ad7 233c c13f 373d f06c ecbc 0ad7 233c
000001a0: 0152 e93c 3ec1 aa3c 0ad7 233c e838 4bbe
000001b0: 4f44 cdbd 0ad7 233c a39d f83d 6051 80bd
000001c0: 0ad7 233c cb72 e93b b921 6abd 0ad7 233c
000001d0: 0c2f 273c ea14 e6bd 0ad7 233c b980 c63d
000001e0: 1bed a33c 0ad7 233c 1bf0 90bd 4430 d9bb
000001f0: 0ad7 233c 1763 303e f508 03be 0ad7 233c
00000200: ce8a 383e c372 ac3c 0ad7 233c 150b e53d
00000210: 3299 ccbc af56 d4bd f178 acbd a7ad 1fbe
00000220: 0483 bebc 30bb 83be 2f4d 09be be37 26be
00000230: 1884 173d 1d55 0dbd 0ad7 233c 68c3 c7bb
00000240: 30e1 0d3d 0ad7 233c 0ce1 e73d d05c 0b3e
00000250: 248f 92bd 1332 953d a60b 1ebe 4771 62be
00000260: 28b7 bdbd 008e b73c 1b47 17bc a7a6 d0bd
00000270: 73fa 34bd 0ad7 233c ffff 5e3d 0884 583d
00000280: 0ad7 233c 10e3 323e b436 273c 18f7 81be
00000290: e75e 3dbe 5721 693d 6185 703d 34ad 99be
000002a0: 5089 44bd 946e fd3c 52a2 32be 5357 b4bb
000002b0: cb8f cabe 65aa 24be 8dd6 b23d 79cf a2be
000002c0: fb14 11be 55dd 33be 92a2 25be ceb2 88be
000002d0: ad7e 14bf 0ad7 233c 87e5 e0bd 0ad7 233c
000002e0: 05b2 3fbd f487 41bd 0ad7 233c ef5f 173e
000002f0: e96d 80bd 0ad7 233c 8088 3d3c 584f 043c
00000300: 0ad7 233c dd30 1fbe 1ffb 6abd 0ad7 233c
00000310: 3bb1 d93d 1109 dcbd 0ad7 233c 60e1 80bd
00000320: a9b2 21be 0ad7 233c e369 adbd 5dfd 22be
00000330: 0ad7 233c c3d3 083d 07ec 28be 0ad7 233c
00000340: d2e6 51be f376 20be 0ad7 233c ba08 713d
00000350: 3f4b 12be 0ad7 233c 55ab 0bbc 5513 9fbd
00000360: 0ad7 233c f35a f23d fa4d cabd 7c99 16be
00000370: a4d8 6ebe 2b88 2cbe 8ce2 87bd 696f a6bd
00000380: aa07 c3bd 512d ffbd 1562 76be 4081 a7bc
00000390: 0ad7 233c 813c 79be a408 1bbd 0ad7 233c
000003a0: da57 cebd 24d2 0a3d 245d e5bd 5ef1 2e3e
000003b0: f891 68be 8229 72be 0946 46be 128d 95be
000003c0: ea16 b1bd 5f4a 61be 7cfa 6bbd 0ad7 233c
000003d0: a681 213e 2524 013b 0ad7 233c 297d ac3e
000003e0: 78c3 98bc b75e 67be e8ac aebe 0bb6 ffbc
000003f0: b341 d8bc 329a aabe ec74 423b db0f bf3c

model/hidden/mid_layer/W f4 [256, 256]
0.014190911 -0.0006005894 -2.191733e-05 -0.0100909555 -0.025643848 -0.041838374 -0.0121600805 -0.007885683
-0.003039024 0.00893497 0.006716206 -0.00081849983 -0.050762974 -0.0152256135 -0.018002197 -0.020451834
-0.018304517 -0.017865943 -0.022726145 0.012017212 -0.04441581 -0.006759589 -0.049217742 -0.013291925
-0.034507006 -0.010674996 0.002467709 0.00014805677 0.010131639 0.021614416 -0.018434873 -0.024929926
-0.01065514 -0.00207116 0.007895349 -0.053328123 -0.013906991 -0.0010205628 -0.012542183 -0.057918776
-0.050353266 -0.0102443425 -0.023182048 -0.013794553 0.0014017767 -0.00023497574 -0.0091720745 -0.010079906
0.08329905 0.004424811 -0.012533183 0.002870803 -0.006776725 -0.021003477 -0.017314883 -0.052622415
0.013715807 -0.00953624 -0.018982138 -0.00093253364 -0.0024783867 0.00488422 -0.01916247 -0.048897613
-0.024308749 -0.05373022 -0.0067036394 0.0077745845 -0.009281804 -0.0069688233 -0.0008958595 -0.010046722
0.0013564085 -0.023666834 -0.015431561 -0.029931147 -0.0054651243 0.031865995 -0.006670602 -0.011891602
0.0022533024 -0.04519108 -0.001901241 -0.031040948 -0.010372796 -0.03258524 -0.009179297 -0.0058997436
-0.01279249 -0.01835437 -0.01755731 -0.0019576282 0.0044719023 -0.019756772 -0.025194682 0.019760756
-0.0022297716 -0.042603653 -0.017126644 -0.051675733 -0.015176293 -0.043371525 -0.004653234 0.020179957
0.01970848 -0.041300155 0.020026002 -0.03457459 -0.028774807 -0.022923505 0.0018531944 -0.018069984
-0.010917696 -0.012190065 0.019985287 -0.003885002 -0.0070351386 -0.02609746 -0.0007759963 -0.003249009
0.02232046 0.005620688 -0.009653364 -0.013888208 -0.010381599 -0.035948735 -0.0035171018 -0.03378389
-0.01465034 -0.043773923 -0.013423303 0.015535651 -0.01968372 -0.026244769 -0.025748882 -0.030379476
-0.031246293 -0.014039852 -0.018430497 -0.0150329685 0.0059724506 -0.009958427 0.014123959 -0.017619258
-0.010858198 -0.014164824 -0.014210747 -0.0021185197 -0.0032593368 -0.0003972793 -0.01040672 -0.005467437
-0.0049992413 -0.03244303 -0.0005219379 -0.029922754 -0.046457782 0.0013321767 0.0012029135 -0.0030019218
-0.00081875955 -0.015897792 -0.012251895 -0.0018940002 0.036702767 -0.024402676 0.010459312 -0.003094625
-0.017883327 -0.01287145 -0.00079409743 -0.013130227 -0.019377258 0.00041441008 -0.013550145 -0.0009754372
-0.010916979 -0.0018820256 0.00030102703 -0.06826664 -0.01052618 -0.021485232 -0.023308992 -0.023828119
-0.023991806 -0.028117511 -0.009488003 -0.018066823 -0.035176333 -0.024805257 -0.028629094 0.0037276535
-0.02780563 0.003174297 -0.0003900995 -0.011012631 -0.009546079 0.022054572 -0.048856158 0.0037470325
0.0044273394 -0.011932024 -0.003018288 -0.035692755 -0.0056204107 -0.014813808 -0.011859354 -0.020434847
-0.02967274 -0.010964404 -0.01739568 -0.027124045 -0.018766772 -0.0030299136 -0.024630671 -0.023964088
-0.06709571 -0.011094449 -0.01295824 -0.027903296 -0.006279103 -0.0035670393 -0.016343817 0.009371561
0.0060517523 -0.0064585744 -0.023355419 -0.035071768 0.0011904346 -0.014062523 -0.000810944 -0.003689595
-0.0023665077 -0.032976255 -0.045080695 -0.012193095 -0.0015515172 -0.033662826 -0.00181364 -0.029848466
-0.07131985 -0.02058872 0.0012712923 -0.047530632 -0.015332169 -0.00511899 -0.0046716337 -0.061505653
-0.04464246 -0.0092708105 0.0049836836 -0.025095357 -0.0052338606 -0.016059898 -0.026056426 0.015935011
00000000: ff80 683c df70 1dba 1cdb b7b7 8954 25bc
00000010: 0c13 d2bc b75e 2bbd 133b 47bc f432 01bc
00000020: 5d2a 47bb fb63 123c 9f13 dc3b 9890 56ba
00000030: d6ec 4fbd da74 79bc 5879 93bc 9b8a a7bc
00000040: 5bf3 95bc 995b 92bc 2e2c babc d7e3 443c
00000050: 5aed 35bd 8b7f ddbb 8b98 49bd 60c6 59bc
00000060: 3857 0dbd 2ee6 2ebc 49b9 213b b03f 1b39
00000070: 2dff 253c b710 b13c bb04 97bc d839 ccbc
00000080: e592 2ebc 4cbc 07bb 7e5b 013c 976e 5abd
00000090: 26da 63bc 68c4 85ba ba7d 4dbc 3d3c 6dbd
000000a0: 3a3f 4ebd e3d7 27bc 47e8 bdbc 8c02 62bc
000000b0: d2bb b73a d263 76b9 7846 16bc 3126 25bc
000000c0: b198 aa3d 01fe 903b fb57 4dbc 1524 3c3b
000000d0: 4a0f debb 7c0f acbc f1d7 8dbc 9a8a 57bd
000000e0: 44b8 603c e43d 1cbc 6e80 9bbc 4675 74ba
000000f0: 6e6c 22bb cf0b a03b 9dfa 9cbc dd48 48bd
00000100: 2423 c7bc 3814 5cbd 34aa dbbb f1c1 fe3b
00000110: b512 18bc ba5a e4bb 1dd8 6aba 029b 24bc
00000120: 84c9 b13a f3e0 c1bc a8d4 7cbc 2a32 f5bc
00000130: c914 b3bb eb85 023d 1195 dabb fed4 42bc
00000140: 24ac 133b 481a 39bd 1033 f9ba 9649 febc
00000150: a9f2 29bc 1a78 05bd c364 16bc a352 c1bb
00000160: 9897 51bc e75b 96bc 59d4 8fbc 8d4b 00bb
00000170: 0989 923b f4d8 a1bc 1465 cebc 4fe1 a13c
00000180: 5c21 12bb 2b81 2ebd 2d4d 8cbc efa9 53bd
00000190: fda5 78bc 57a6 31bd 287a 98bb 7050 a53c
000001a0: ae73 a13c 5a2a 29bd 920d a43c 169e 0dbd
000001b0: 25b9 ebbc 13ca bbbc e3e6 f23a 8107 94bc
000001c0: 23e0 32bc d7b8 47bc 2fb8 a33c 859b 7ebb
000001d0: 0587 e6bb 57ca d5bc 3b6c 4bba 53ed 54bb
000001e0: 66d9 b63c c02d b83b 2529 1ebc 5e8b 63bc
000001f0: 9517 2abc fb3e 13bd 2d7f 66bb fa60 0abd
00000200: fb07 70bc 494c 33bd 6aed 5bbc 3e89 7e3c
00000210: c13f a1bc 45ff d6bc 52ef d2bc 61de f8bc
00000220: 3af8 ffbc 6807 66bc 8efb 96bc d74c 76bc
00000230: 8cb4 c33b ac28 23bc 2d68 673c 4356 90bc
00000240: 95e6 31bc 9413 68bc 31d4 68bc ddd6 0abb
00000250: 999a 55bb ed49 d0b9 f380 2abc 3028 b3bb
00000260: add0 a3bb fce2 04bd a9d2 08ba 9020 f5bc
00000270: 844a 3ebd 6f9c ae3a 14ab 9d3a e4bb 44bb
00000280: 06a2 56ba 163c 82bc 2cbc 48bc 1a40 f8ba
00000290: a455 163d 1fe8 c7bc 895d 2b3c 31cf 4abb
000002a0: 0e80 92bc c6e2 52bc fa2a 50ba 2a20 57bc
000002b0: 0ebd 9ebc 2e45 d939 6d01 5ebc 7bb4 7fba
000002c0: 21dd 32bc 4dae f6ba 2ad3 9d39 61cf 8bbd
000002d0: 0076 2cbc cc01 b0bc 80f2 bebc 3033 c3bc
000002e0: 778a c4bc b256 e6bc 9273 1bbc e000 94bc
000002f0: 0f15 10bd 6534 cbbc 9087 eabc a64b 743b
00000300: a2c8 e3bc de07 503b 4586 ccb9 526e 34bc
00000310: 2867 1cbc caab b43c 651d 48bd c690 753b
00000320: 3713 913b 897e 43bc 78ce 45bb 9132 12bd
00000330: 6c2b b8bb 9db5 72bc bc4d 42bc fb66 a7bc
00000340: 3f14 f3bc 0ba4 33bc 6381 8ebc 3f33 debc
00000350: c6bc 99bc 8491 46bb 43c6 c9bc 5650 c4bc
00000360: 7a69 89bd 7ec5 35bc cc4e 54bc 7495 e4bc
00000370: efc0 cdbb fdc4 69bb 78e3 85bc 2d8b 193c
00000380: c74d c63b 73a2 d3bb dd53 bfbc 6aa7 0fbd
00000390: 5b08 9c3a 7f66 66bc 8895 54ba 22cd 71bb
000003a0: 6917 1bbb 1c12 07bd 89a6 38bd 8cc5 47bc
000003b0: 475c cbba 08e2 09bd a9b7 edba c584 f4bc
000003c0: 2410 92bd ada9 a8bc 7ea1 a63a 7baf 42bd
000003d0: c733 7bbc 33bd a7bb 8114 99bb 5aed 7bbd
000003e0: 03db 36bd 99e4 17bc 2b4e a33b c794 cdbc
000003f0: ce80 abbb 0c90 83bc 4974 d5bc 248a 823c

model/a_stream/b f4 [3]
0.01863125 -0.0038954262 -0.0045116534
00000000: 90a0 983c 684a 7fbb 7ed6 93bb

model/hidden/mid_rec_layer/upward/b f4 [80]
-0.0057072155 -0.14016944 0.74769485 -0.16814277 -0.021834157 0.00910047 0.9143642 -0.001942268
0.007003118 -0.17171003 0.86682856 -0.1776655 -0.0030822798 -0.17543696 0.7299824 -0.18202473
-0.005790682 -0.1284152 0.81261 -0.14284056 -0.0016045796 -0.16220842 0.75921947 -0.17003182
0.0055389917 -0.14556761 0.7812656 -0.14556147 0.0068415683 -0.1744607 0.86096936 -0.17992978
-0.010986108 -0.22481745 0.8082661 -0.23310897 -0.01990184 -0.20928133 0.71706206 -0.23537625
-0.0060129873 -0.13428098 0.80752146 -0.14977254 -0.014254425 -0.06663562 0.85417974 -0.079717904
-0.019818207 -0.1750911 0.75558305 -0.1896051 -0.01626566 -0.04727356 0.85181296 -0.06854381
-0.003121827 -0.20390786 0.7645693 -0.21261077 -0.0011758617 -0.16044609 0.7538132 -0.16430332
-0.012525997 -0.17836697 0.86265606 -0.16510834 0.0028301992 -0.14063361 0.7116011 -0.15211357
-0.0122061735 -0.1382508 0.7595979 -0.1614962 -0.020813983 -0.028167356 0.89583343 -0.035856213
00000000: 9803 bbbb 9488 0fbe ee68 3f3f 9e2d 2cbe
00000010: 8cdd b2bc 231a 153c c613 6a3f b393 feba
00000020: 697a e53b c1d4 2fbe 7ae8 5d3f f2ed 35be
00000030: 1300 4abb bfa5 33be 20e0 3a3f b164 3abe
00000040: c3bf bdbb 467f 03be 3507 503f cc44 12be
00000050: c250 d2ba f719 26be 355c 423f d21c 2ebe
00000060: 6e80 b53b ad0f 15be 0601 483f 110e 15be
00000070: 3c2f e03b d3a5 32be 7d68 5c3f 833f 38be
00000080: 14ff 33bc 8c36 66be 87ea 4e3f 1eb4 6ebe
00000090: 2f09 a3bc d84d 56be 6191 373f 7906 71be
000000a0: 9808 c5bb f480 09be bab9 4e3f f95d 19be
000000b0: 648b 69bc 4278 88bd 86ab 5a3f 2443 a3bd
000000c0: cb59 a2bc 154b 33be e46d 413f d727 42be
000000d0: 903f 85bc eca1 41bd 6a10 5a3f b260 8cbd
000000e0: 9197 4cbb 39cd 50be d0ba 433f a3b6 59be
000000f0: 5f1f 9aba fb4b 24be e7f9 403f 213f 28be
00000100: d739 4dbc d5a5 36be 07d7 5c3f 2912 29be
00000110: dd7a 393b 4202 10be 7d2b 363f a9c3 1bbe
00000120: 67fc 47bc 9e91 0dbe 0275 423f 435f 25be
00000130: 1682 aabc 3abf e6bc 5755 653f f7dd 12bd

model/hidden/input_layer/W f4 [256, 86]
0.03387059 -0.06800203 -0.012190341 -0.11175724 -0.0380134 -0.019687528 0.056972507 0.0173639
-0.13326566 8.190248e-05 -0.13109006 0.014166198 -0.1018238 -0.078395315 -0.010991663 0.116586566
0.046201766 -0.006627273 -0.02482744 -0.15220414 0.005135362 0.10257148 0.082590565 -0.011829387
-0.075650774 0.031395458 0.0051539177 0.05430096 -0.10626097 0.018995447 -0.14477606 -0.002821923
0.027475143 -0.044258513 -0.004996156 -0.0027270517 -0.029410005 0.041037146 0.0016487414 -0.030581549
-0.006963844 -0.010188899 0.057485186 0.13770968 0.0077699013 0.13439026 0.09412652 -0.1114122
0.019015403 0.046294596 0.08308568 -0.11317734 0.053971935 -0.18068607 0.07400365 0.01996206
-0.00035942733 -0.048118096 -0.061202556 0.0012099606 0.0030273993 0.033076808 -0.048507653 0.03837875
-0.009629378 -0.113543145 -0.12335767 -0.008935232 0.0010944555 -0.10170274 -0.040152606 -0.0103506595
0.04831655 -0.05334018 0.0067355926 -0.020507136 -0.112407774 -0.069980435 -0.06806319 -0.014472641
0.0146505255 -0.016589284 -0.05310883 -0.034455378 0.0005511809 0.0059075006 -0.02052686 -0.019013442
-0.0033152106 -0.019527333 -0.019959988 -0.013581703 -0.02143745 -0.0371625 -0.009129573 -0.003498866
-0.031451005 0.006368161 -0.012337685 -0.0142547535 -0.012464417 -0.0034957447 -0.01957237 0.008605945
-0.0062712156 0.016651701 -0.0016981554 -0.00720109 -0.019491943 0.004136337 -0.008233212 -0.04144765
-0.0052018454 -0.0036706151 0.015529189 -0.0059059258 -0.017577508 -0.0063085184 -0.007351405 -0.006265678
-0.026250973 -0.0061941845 -0.01321158 0.008379917 0.0072386567 0.0035277014 -0.023329627 -0.0054451353
0.003484912 -0.02067262 0.0035269933 -0.0120451385 -0.018614411 -0.028996702 0.007546893 -0.024883484
-0.020664973 0.01678674 -0.0057784556 -0.006239039 -0.011981409 -0.024425551 0.015943239 0.011707544
-0.02370302 0.014790792 0.0076964106 0.013067894 -0.018510215 0.0070696007 -0.017871153 0.008665866
0.009902064 0.0020337133 -0.013631342 -0.015564572 -0.007775041 -0.00422417 -0.0086316075 -0.020805927
0.0028877654 -0.019407466 0.0008562622 0.01144454 -0.026451312 -0.028017715 -0.028145323 0.010643627
-0.016587619 -0.029870253 -0.016075363 -0.030258251 -0.044626795 -0.03798647 -0.004941071 -0.016474662
-0.05288592 0.019404532 -0.101091765 0.0064780004 -0.18208782 0.0022413484 -0.0015505657 -0.012870155
0.095637076 0.07317738 0.0094359005 -0.042230982 0.072805665 0.020757526 0.009515697 -0.023468236
-0.0016162957 0.013766562 0.01568109 -0.010146331 0.034688633 0.118638396 -0.0018390701 0.081352934
-0.16329864 -0.018155117 -0.02181942 -0.043845847 0.0031910301 0.01517554 0.011551989 0.009538693
-0.09586225 -0.03609122 0.015969293 0.011642386 0.02986703 -0.0004006788 0.0818631 0.039392125
-0.005034875 0.038746905 0.016694484 -0.019715179 -0.0656455 -0.13058943 0.11068034 -0.14124198
-0.037275255 -0.020639133 -0.10913912 -0.12858902 -0.0028239002 0.08608584 -0.16214256 0.011575697
0.13284181 -0.004446527 0.0072362972 -0.0069258376 -0.049305346 -0.102525644 -0.08577187 -0.031571053
-0.14112397 0.12593581 0.08994712 0.009241431 0.089280464 0.050343234 -0.006984622 -0.03427381
-0.00028886172 -0.08440987 -0.06364484 -0.011045253 0.076022856 -0.08136922 0.07818635 -0.057705782
00000000: e3bb 0a3d a644 8bbd ffb9 47bc fbe0 e4bd
00000010: f0b3 1bbd bd47 a1bc 015c 693d bd3e 8e3c
00000020: cb76 08be 0fc3 ab38 793c 06be 5719 683c
00000030: ff88 d0bd b98d a0bd 6016 34bc f0c4 ee3d
00000040: 103e 3d3d 9829 d9bb ea62 cbbc 67db 1bbe
00000050: 8a46 a83b ff10 d23d 3e25 a93d 0cd0 41bc
00000060: cbee 9abd 8698 003d 32e2 a83b af6a 5e3d
00000070: 5a9f d9bd 579c 9b3c 2d40 14be 03f0 38bb
00000080: 8d13 e13c 6a48 35bd cbb6 a3bb 56b8 32bb
00000090: 40ed f0bc 9116 283d 951a d83a 2886 fabc
000000a0: f530 e4bb 57ef 26bc 9675 6b3d c403 0d3e
000000b0: a89a fe3b 9a9d 093e 68c5 c03d 142c e4bd
000000c0: 31c6 9b3c 679f 3d3d d328 aa3d 85c9 e7bd
000000d0: ad11 5d3d c505 39be 3a8f 973d 7987 a33c
000000e0: 8571 bcb9 7b17 45bd 88af 7abd 8a97 9e3a
000000f0: 5567 463b 8c7b 073d f6af 46bd 0933 1d3d
00000100: 8ac4 1dbc 4f89 e8bd f2a2 fcbd 1465 12bc
00000110: d573 8f3a 8749 d0bd 0f77 24bd d095 29bc
00000120: 93e7 453d 3c7b 5abd 3fb6 dc3b 95fe a7bc
00000130: 0c36 e6bd e751 8fbd b764 8bbd a81e 6dbc
00000140: c208 703c 40e6 87bc a588 59bd 1521 0dbd
00000150: 207d 103a b593 c13b f227 a8bc 14c2 9bbc
00000160: 0144 59bb c9f7 9fbc 2183 a3bc cb85 5ebc
00000170: 979d afbc b537 18bd 3494 15bc 3b4d 65bb
00000180: c5d2 00bd 02ac d03b 0024 4abc c58c 69bc
00000190: 8e37 4cbc dd18 65bb 3c56 a0bc f3ff 0c3c
000001a0: c57e cdbb 2669 883c a494 deba 1ff7 ebbb
000001b0: 91ad 9fbc 1c8a 873b 98e4 06bc 03c5 29bd
000001c0: 3e74 aabb b48e 70bb 246e 7e3c 7f86 c1bb
000001d0: b5fe 8fbc b0b7 cebb 0ee4 f0bb 5150 cdbb
000001e0: 480c d7bc 96f8 cabb 6275 58bc eb4b 093c
000001f0: 4132 ed3b 0231 673b c61d bfbc 1b6d b2bb
00000200: 1f63 643b a059 a9bc 2125 673b f958 45bc
00000210: 407d 98bc 7e8a edbc ed4b f73b 73d8 cbbc
00000220: 9749 a9bc 5884 893c 3359 bdbb da70 ccbb
00000230: ac4d 44bc 1818 c8bc 659b 823c 00d1 3f3c
00000240: d62c c2bc 1455 723c 2c32 fc3b b81a 563c
00000250: bca2 97bc 1ca8 e73b 8666 92bc 47fb 0d3c
00000260: 443c 223c 0c48 053b fe55 5fbc 8c02 7fbc
00000270: c5c5 febb e86a 8abb 966b 0dbc 3171 aabc
00000280: aa40 3d3b 68fc 9ebc c976 603a e181 3b3c
00000290: 6cb0 d8bc 6885 e5bc 0591 e6bc 9b62 2e3c
000002a0: c2e2 87bc 76b2 f4bc 7bb0 83bc 27e0 f7bc
000002b0: 96ca 36bd b397 1bbd b5e8 a1bb dff5 86bc
000002c0: e89e 58bd 41f6 9e3c 3309 cfbd 6845 d43b
000002d0: 3b75 3abe 96e3 123b 5a3c cbba 58dd 52bc
000002e0: 5fdd c33d 06de 953d 0999 1a3c 65fa 2cbd
000002f0: 231b 953d b00b aa3c bae7 1b3c 7540 c0bc
00000300: e2d9 d3ba 258d 613c a175 803c cc3c 26bc
00000310: ab15 0e3d b0f8 f23d f40c f1ba 5e9c a63d
00000320: c237 27be 0aba 94bc a4be b2bc b497 33bd
00000330: 9a20 513b d4a2 783c 8e44 3d3c 2e48 1c3c
00000340: 6d53 c4bd 63d4 13bd 09d2 823c b5bf 3e3c
00000350: b4ab f43c 3312 d2b9 d7a7 a73d a359 213d
00000360: 98fb a4bb 13b5 1e3d dfc2 883c ba81 a1bc
00000370: 2671 86bd 3cb9 05be 60ac e23d bda1 10be
00000380: f0ad 18bd 6613 a9bc 5584 dfbd d7ac 03be
00000390: 2f11 39bb c64d b03d b308 26be fea7 3d3c
000003a0: af07 083e 2cb4 91bb 761e ed3b 23f2 e2bb
000003b0: 67f4 49bd f7f8 d1bd 2aa9 afbd a650 01bd
000003c0: cd82 10be 51f5 003e 3236 b83d 5f69 173c
000003d0: add8 b63d b534 4e3d 42df e4bb b262 0cbd
000003e0: 5d72 97b9 15df acbd 3a58 82bd 26f7 34bc
000003f0: dfb1 9b3d e8a4 a6bd 2a20 a03d e65c 6cbd

model/v_stream/W f4 [1, 256]
-0.02097094 0.053013626 0.02998446 0.00012169237 -0.00049072294 -0.06150893 -0.005843042 -0.050103545
0.0019405788 -0.008227166 0.003879807 0.00910286 -0.010700885 0.02309925 -0.020767981 -0.06415274
-0.0009069455 0.06920049 0.011156804 -0.06578062 0.0016845865 0.064021654 -0.0026610608 0.013313479
-0.07867613 0.030746778 0.034569785 0.07289444 -0.030099198 -0.012026402 0.036014304 0.02019833
0.06407745 0.002889804 -0.043355357 0.0013187344 0.06726023 0.004125615 -0.045050133 0.012862912
-0.06353926 -0.008048936 -0.034685757 -0.03766078 -0.010160427 0.065207005 0.034464795 -0.026161142
-0.0004348529 0.00030834993 0.07167497 0.0012234166 0.0066715865 -0.024902273 0.010932513 -0.00014123152
0.00024315921 0.003937611 -0.012313527 0.0015326713 0.0079981815 -0.027077327 -0.0007212293 0.07532448
-0.055393998 -0.031468708 0.053935334 0.07411412 0.06047865 0.0020084446 0.050478578 -0.06615559
0.0004124548 0.027450394 0.027469264 0.022510255 0.028968228 -0.00017064033 0.0328417 -0.0070930826
-0.06093382 -0.009333423 0.013607035 -0.0009867675 -0.012255149 0.040292464 -0.022817502 -0.071018144
0.006040725 0.043554436 -0.012051512 -0.08516995 -0.06339988 0.014774549 0.03507182 -0.042344213
0.07476911 0.0003647507 -0.07741358 0.060476273 -0.002011055 0.0076329946 0.021264236 -0.0019401207
0.04417054 -0.016186686 0.054038025 -0.005560028 -0.0006883852 0.00034360244 -0.020069564 -0.010033089
0.023222689 -0.008858352 0.07339205 0.07520644 0.042273566 0.036360256 0.007612732 -0.0019126739
0.047804035 0.013811426 -0.032493 -0.0009947583 0.003715056 -0.0749417 -0.07189548 -0.012519166
0.027134692 0.026501896 0.013036941 0.06703225 -0.051333874 0.04656955 -0.0013815649 0.06875464
0.07779156 -0.07762265 -0.06726283 -0.02664378 -0.057291087 0.07145368 -0.0009957786 -0.0052476344
0.0027197956 -0.034737464 -0.049828112 0.052917697 -0.015431526 0.022729402 0.06467822 -0.00060305273
0.016766362 0.06827687 -0.04315914 -0.00085389125 0.05961961 -0.069205366 -0.04928247 0.000159263
-0.02662324 -0.056226872 0.06849611 -0.00058906915 0.057784963 0.005477917 0.0075575593 0.0066643427
-0.0010699227 -0.008083482 -0.080709144 0.0050596227 0.0009311866 -0.055075724 -0.0036265133 -0.0020193565
-0.06753546 0.0010356016 0.04347208 0.00053117983 -0.009649038 -0.002846792 0.049338773 0.030063763
-0.050952416 0.018400047 -0.0007098091 0.03142937 0.030818073 0.07686169 -0.047252476 0.010163982
-0.063662566 -0.005538843 -0.06709414 -0.018897586 -0.028593203 0.023094613 -0.022961734 0.075134225
0.007895117 -0.044365972 0.0015256668 0.0006579183 -0.0105527565 0.0657479 -0.031420358 -0.015433224
-0.00096355606 0.045831267 -0.044710353 0.00513821 0.06314333 0.06844003 -0.009801417 -0.034505017
-0.0665896 0.01904373 0.06809459 -0.025166053 -0.068848826 -0.05516281 -0.016869187 -0.011128536
-0.07364498 0.06408002 -0.054412123 0.038526747 0.012861983 -0.040831625 0.055277456 -0.056429546
-0.05313971 -0.0030236053 -0.009850965 0.04119086 0.026740037 0.017238187 -0.024944153 -0.049220517
-0.057157125 0.0668825 -0.00063846307 0.041089304 0.012851484 -0.07114762 -0.05344652 -0.051045105
0.0047969245 0.059366725 -0.03244644 -0.0023929435 0.053258125 -0.06666162 0.030885698 -0.004566251
00000000: 40cb abbc d124 593d f8a1 f53c 1835 ff38
00000010: dca3 00ba caf0 7bbd fd76 bfbb 6039 4dbd
00000020: 055b fe3a 3ccb 06bc 5c44 7e3b 2a24 153c
00000030: c452 2fbc a33a bd3c 9d21 aabc 8362 83bd
00000040: 15c0 6dba fdb8 8d3d 07cb 363c fdb7 86bd
00000050: 58cd dc3a c91d 833d 3165 2ebb c720 5a3c
00000060: f320 a1bd abe0 fb3c 0c99 0d3d ae49 953d
00000070: 9892 f6bc 630a 45bc bc83 133d f876 a53c
00000080: 0a3b 833d de62 3d3b 6395 31bd 62d9 ac3a
00000090: bbbf 893d 2b30 873b 7d86 38bd f7be 523c
000000a0: df20 82bd afdf 03bc a712 0ebd 3142 1abd
000000b0: eb77 26bc 408b 853d f52a 0d3d e44f d6bc
000000c0: f8fc e3b9 07aa a139 54ca 923d 0d5b a03a
000000d0: 539d da3b daff cbbc 481e 333c 8c17 14b9
000000e0: 8ef8 7e39 1307 813b adbe 49bc eae3 c83a
000000f0: ce0a 033c 45d1 ddbc e110 3dba b943 9a3d
00000100: d1e4 62bd 55e5 00bd 4ceb 5c3d 25c9 973d
00000110: 76b8 773d 1ca0 033b a0c2 4e3d 957c 87bd
00000120: bf3e d839 a6df e03c 3907 e13c 6d67 b83c
00000130: c74e ed3c eaed 32b9 0585 063d 176d e8bb
00000140: be95 79bd 37eb 18bc 0bf0 5e3c 6c56 81ba
00000150: d2c9 48bc b609 253d c5eb babc f671 91bd
00000160: 46f1 c53b 2366 323d b473 45bc 956d aebd
00000170: ccd7 81bd f310 723c 78a7 0f3d 2071 2dbd
00000180: 8c20 993d 033c bf39 038b 9ebd f8b5 773d
00000190: e7cb 03bb 331e fa3b 5632 ae3c a64b feba
000001a0: 2bec 343d f199 84bc fa56 5d3d e530 b6bb
000001b0: c074 34ba 8a25 b439 ed68 a4bc d361 24bc
000001c0: 823d be3c 9f22 11bc 924e 963d d605 9a3d
000001d0: 0c27 2d3d 7eee 143d 3974 f93b b0b2 faba
000001e0: 2ace 433d 5249 623c 6117 05bd 8d62 82ba
000001f0: 4c78 733b 097b 99bd f03d 93bd 301d 4dbc
00000200: 9349 de3c 811a d93c e598 553c 3448 893d
00000210: 7843 52bd b6bf 3e3d a015 b5ba 3ccf 8c3d
00000220: 2e51 9f3d a0f8 9ebd 18c1 89bd 0e44 dabc
00000230: 0faa 6abd 4f56 923d c984 82ba 59f4 abbb
00000240: 993e 323b df48 0ebd 9018 4cbd 3ac0 583d
00000250: 83d4 7cbc 0333 ba3c 0476 843d 2f16 1eba
00000260: 9c59 893c bed4 8b3d a3c7 30bd acd7 5fba
00000270: b133 743d 8bbb 8dbd 6adc 49bd d6ff 2639
00000280: fb18 dabc 264e 66bd b047 8c3d c36b 1aba
00000290: edaf 6c3d 1980 b33b 67a5 f73b 8f60 da3b
000002a0: a63c 8cba 9570 04bc d64a a5bd 31cb a53b
000002b0: e01a 743a 1597 61bd ccaa 6dbb 2e57 04bb
000002c0: 0850 8abd 06bd 873a c80f 323d e03e 0b3a
000002d0: 0017 1ebc 3f91 3abb 7417 4a3d 4848 f63c
000002e0: 7bb3 50bd b2bb 963c 7b12 3aba 15bc 003d
000002f0: 2f76 fc3c a969 9d3d d08b 41bd d586 263c
00000300: 8561 82bd 2f7f b5bb a768 89bd 1ccf 9abc
00000310: 4b3c eabc ea30 bd3c 3f1a bcbc f9df 993d
00000320: 855a 013c 18b9 35bd e2f8 c73a 2678 2c3a
00000330: 78e5 2cbc d6a6 863d a2b2 00bd a2db 7cbc
00000340: 2797 7cba 91b9 3b3d 3422 37bd 6e5e a83b
00000350: 4a51 813d 492a 8c3d 1f96 20bc 2255 0dbd
00000360: 2160 88bd 9901 9c3c 2d75 8b3d 0a29 cebc
00000370: 9d00 8dbd 66f2 61bd 4031 8abc 7754 36bc
00000380: 2ed3 96bd 633c 833d 3fdf 5ebd 39ce 1d3d
00000390: 11bb 523c 103f 27bd 9d6a 623d ab22 67bd
000003a0: 06a9 59bd ae27 46bb f165 21bc bfb7 283d
000003b0: ec0d db3c 1937 8d3c ae57 ccbc 749b 49bd
000003c0: 971d 6abd b1f9 883d 885e 27ba 424d 283d
000003d0: 088f 523c d8b5 91bd bdea 5abd ac14 51bd
000003e0: 852f 9d3b 862a 733d 8fe6 04bd eed2 1cbb
000003f0: 3125 5a3d e385 88bd 0104 fd3c 7da0 95bb
