ai_challenge/results/simulation_DoubleDQN_DuelingRecNN_2017-05-19T19:40:53.24/220002/model.npz (npz, 631878 bytes, 12 tensors)

model/hidden/input_layer/b f4 [256]
0	0xbd20cf28	-0.03926006
1	0xbce55f5d	-0.027999574
2	0xbcfe6de1	-0.031058254
3	0xbc82c79c	-0.015964322
4	0x3b849e4c	0.004047191
5	0xbce5c062	-0.028045837
6	0xbd457ae1	-0.04821289
7	0xbd8bfe25	-0.068355836
8	0xbcdfaf87	-0.027305378
9	0xbcfb7ea9	-0.030700045
10	0x3cd7cda2	0.02634317
11	0xbd1e19a3	-0.038598668
12	0xbcb70897	-0.022342963
13	0xbd02422f	-0.0318014
14	0xbd2bc8fe	-0.041939728
15	0xbccd8213	-0.025086438
16	0xbd351fa7	-0.04421964
17	0xbd51196e	-0.051049642
18	0xbc954ca2	-0.018225018
19	0xbd481418	-0.048847288
20	0xbd091313	-0.033465456
21	0xbc8208a4	-0.01587326
22	0x3cc0edae	0.023550835
23	0xbc861f83	-0.016372448
24	0xbd44c357	-0.048037853
25	0xbd1581ee	-0.036500864
26	0xbc903dc0	-0.01760757
27	0xbc43132f	-0.011906429
28	0xbd00a835	-0.031410415
29	0xbd07a64e	-0.033117585
30	0xbd8412ef	-0.06448924
31	0xbbdabf39	-0.0066756275
32	0xbc2ad595	-0.0104268985
33	0xbd00f0a1	-0.03147948
34	0x3d127696	0.035757624
35	0xbce31a40	-0.027722478
36	0xbd5b6b9f	-0.053569432
37	0xbcff16b1	-0.03113875
38	0xbd7892a0	-0.060686707
39	0xbcb19b1c	-0.021680407
40	0xbb4fac83	-0.0031688518
41	0xbd1d3ba8	-0.03838697
42	0x3d0e57d7	0.03475174
43	0xbd220f7e	-0.039565556
44	0xbd44be1e	-0.048032872
45	0xbc86a8ea	-0.016437966
46	0xbced03f7	-0.028932555
47	0xbd489b2e	-0.048976116
48	0x3b9c1925	0.0047637396
49	0xbd1faec3	-0.038985025
50	0xbd87b820	-0.06626916
51	0xbcb90dff	-0.022589682
52	0xbc95359d	-0.018214041
53	0xbcf2d1de	-0.029641088
54	0xbd077d7a	-0.03307865
55	0xbd00728e	-0.031359248
56	0xbd09424b	-0.033510488
57	0xbd1c5cd4	-0.038174465
58	0xbcc1c549	-0.023653643
59	0xbcb94627	-0.022616459
60	0xbd2af39c	-0.04173623
61	0xbcd5939b	-0.02607136
62	0xbd119549	-0.03554276
63	0xbc1eeb11	-0.009699599
64	0xb9f74d1a	-0.00047168956
65	0xbd1d4f56	-0.03840574
66	0xbd49e355	-0.049289066
67	0xbd020b97	-0.031749334
68	0xbd1ce32d	-0.03830259
69	0xbd6e4df5	-0.058179814
70	0xbd4c6279	-0.0498986
71	0xbd874ed9	-0.06606836
72	0xbcc88a59	-0.024480032
73	0xbd0609d3	-0.032724213
74	0xbcd0fb34	-0.025510408
75	0xbd19af25	-0.037520546
76	0xbc541a10	-0.012945667
77	0xbd2c7807	-0.042106654
78	0xbc873e36	-0.016509157
79	0xbd569f10	-0.052397788
80	0xbd7d11b5	-0.061784465
81	0xbd1f2dec	-0.038862154
82	0xbd49eb0a	-0.049296416
83	0xbd2ac050	-0.04168731
84	0xbd2c97ce	-0.04213696
85	0xbd301ae6	-0.042994402
86	0xbd4d0f72	-0.050063558
87	0xbd2cd1aa	-0.04219214
88	0xbcf7a559	-0.030230211
89	0xbd97b6f0	-0.074079394
90	0x3ccd45d9	0.02505772
91	0xbac2f732	-0.0014874695
92	0xbd641147	-0.05568054
93	0xbd2a5186	-0.041581653
94	0xbbce3c01	-0.006293774
95	0xbc4589aa	-0.012056747
96	0xbb9063e4	-0.004406439
97	0x3c167071	0.009182082
98	0x3cc0363a	0.023463357
99	0x3bf4e5aa	0.007473667
100	0xbd2aa902	-0.041665085
101	0xbd333959	-0.043755863
102	0x3c40624c	0.011742186
103	0xbc20c9ee	-0.009813769
104	0x3c0e68ba	0.008691961
105	0xbc04e501	-0.008111239
106	0xbc9f1251	-0.019417914
107	0xbd61085d	-0.054939616
108	0xbd2bbd17	-0.041928377
109	0xbd70db9c	-0.058803186
110	0xbd935522	-0.07193972
111	0xbd454ec5	-0.048170824
112	0xbcbbe9d4	-0.022938646
113	0xbcff9726	-0.031200003
114	0xbd4a462f	-0.04938334
115	0xbcb40699	-0.021975802
116	0xbd699338	-0.057025164
117	0xbd3c903d	-0.046035994
118	0xbd87a81b	-0.066238604
119	0xbd34ea58	-0.0441688
120	0xbd827660	-0.063702345
121	0xbc09f3af	-0.008419915
122	0xbd2f3986	-0.042779468
123	0xbd919789	-0.07108981
124	0xbd33bfff	-0.043884274
125	0xbc5022ec	-0.0127036385
126	0xbd474d86	-0.048657916
127	0x3cafc68f	0.021456985
128	0xbbcb8f26	-0.006212133
129	0xbd319b5f	-0.043361064
130	0xbd1bf47a	-0.038074948
131	0xbcb40d60	-0.021979034
132	0xbbd7a090	-0.00658042
133	0xbcc1b9e3	-0.023648208
134	0xb9eea754	-0.00045519567
135	0xbd54d038	-0.051956385
136	0xbca41b84	-0.020032652
137	0xbd0c5b32	-0.034266658
138	0xbd0c015a	-0.034180976
139	0x3c9db6c9	0.019252198
140	0xbd01e121	-0.03170884
141	0xbc6d19e4	-0.014471505
142	0xbd0da9ca	-0.03458575
143	0xbc067b20	-0.008208066
144	0xbd2316f9	-0.03981683
145	0xbc3499c7	-0.0110229915
146	0xbd5ec22f	-0.054384407
147	0xbd71bed0	-0.059019864
148	0xbd80bb8d	-0.062857725
149	0xbd73c784	-0.059516445
150	0xbc62968c	-0.0138298385
151	0xbd725326	-0.059161328
152	0xbd07e8e4	-0.033181086
153	0xbd0d2b9c	-0.034465417
154	0xbcecda77	-0.028912766
155	0xbcbcf179	-0.023064362
156	0xbd6e739b	-0.05821572
157	0xbc9fe1e6	-0.019516896
158	0xbb7b3312	-0.003833
159	0xbcb9e27c	-0.022691004
160	0xbc57c4ff	-0.013169526
161	0xbd87d55a	-0.066324905
162	0x3c4ed4e6	0.012624001
163	0xbd1c7451	-0.038196865
164	0xbd1179c0	-0.0355165
165	0xbbeab57f	-0.0071627493
166	0xbd669762	-0.056296714
167	0x3c2689b1	0.010164664
168	0xbb13598a	-0.002248379
169	0xbcd5d5aa	-0.02610286
170	0x3b736596	0.0037139407
171	0x3c26dfac	0.0101851635
172	0xbcd44dcc	-0.025916003
173	0xbcbde195	-0.023178855
174	0xbb1406dd	-0.0022587099
175	0xbc643bb4	-0.01393025
176	0xbc9bacee	-0.019003358
177	0xbd3938ee	-0.045220308
178	0xbd1c885c	-0.03821598
179	0xbd1bdeae	-0.03805416
180	0xbd21f487	-0.03953984
181	0xbc5c1699	-0.013433122
182	0xbc644144	-0.013931576
183	0xbd04ae6e	-0.03239291
184	0xbbe493ee	-0.0069756424
185	0xbd3cdb12	-0.04610736
186	0xbd18ac5e	-0.037273757
187	0xbd849b52	-0.064749375
188	0xbcff2212	-0.031144176
189	0xbc98786d	-0.018612111
190	0xbd3461bd	-0.044038523
191	0xbd5d54a8	-0.054035813
192	0xbd21475f	-0.039374705
193	0xbd27c425	-0.040958542
194	0xbcfaec4d	-0.030630255
195	0xbd8624be	-0.06549977
196	0xbcf72d4a	-0.030172963
197	0xbd1daec3	-0.038496744
198	0xbd31d2cf	-0.043413933
199	0x3c8897b4	0.0166739
200	0x3c366f86	0.011134988
201	0xbd2e0c72	-0.042492338
202	0xbd0f8515	-0.035039026
203	0xbd9d1dd3	-0.07671704
204	0xbd59eb9c	-0.05320321
205	0xbb1b4840	-0.0023694187
206	0xbd384415	-0.044986803
207	0xbd78ae6b	-0.060713213
208	0xbcee2934	-0.029072382
209	0xbcb6b3f3	-0.022302603
210	0xbd18b5ae	-0.03728264
211	0xbd2a9d2a	-0.04165379
212	0xbcf02ee9	-0.029319244
213	0xbcca4efb	-0.024695864
214	0xbd86353c	-0.065531224
215	0xbd5e1c80	-0.0542264
216	0xbcaac6f3	-0.02084682
217	0xbd11c25e	-0.035585754
218	0xbcf585e3	-0.029971069
219	0xbd170e6f	-0.036879
220	0xbca4a44a	-0.02009787
221	0x3c946248	0.01811327
222	0xbcc8a604	-0.024493225
223	0xbc00d83d	-0.007864055
224	0xbcd9e2d8	-0.026597425
225	0x3cf39270	0.029732913
226	0xbd3aa975	-0.045571763
227	0xbd3b913c	-0.045792803
228	0xbce644b8	-0.02810894
229	0xbca70c87	-0.020391716
230	0xbd6bc637	-0.05756208
231	0xbcc69b9a	-0.024244118
232	0xbd523ab1	-0.051325504
233	0x3c5b588c	0.01338781
234	0xbb9ae656	-0.004727165
235	0xbc8a7eb5	-0.016906122
236	0xbd7d9741	-0.061911825
237	0xbd0b70e0	-0.034043193
238	0xbd03dbf9	-0.032192204
239	0xbd523fda	-0.051330425
240	0xbd0b5c6a	-0.03402368
241	0xbab05924	-0.00134543
242	0xbd1933a7	-0.037402775
243	0xbd82c2e7	-0.06384831
244	0xbcf8477b	-0.030307522
245	0x3a8cd37e	0.0010744182
246	0xbd338ed6	-0.04383739
247	0xbd4866f4	-0.04892631
248	0xbd20aeb8	-0.039229125
249	0xbd453d1e	-0.04815399
250	0xbc4d25bd	-0.012521205
251	0xbc747998	-0.014921568
252	0x3c0432fc	0.008068796
253	0xbd842574	-0.06452456
254	0xbd57e20f	-0.05270582
255	0xbd21f46f	-0.03953975

model/hidden/output_layer/b f4 [256]
0	0x3c850510	0.016237766
1	0xbc345e33	-0.011008787
2	0x3ac4a8d0	0.0015003923
3	0xbc5ce0a1	-0.01348129
4	0x3c070227	0.008240259
5	0x3c191efd	0.009345767
6	0x3c05ab90	0.0081585795
7	0x3c54314a	0.012951205
8	0xbc2e359f	-0.010632901
9	0x3c7eba41	0.015547336
10	0xbc99e2a9	-0.018784838
11	0x3b1180c5	0.0022201997
12	0x3c2623dd	0.010140386
13	0xbb792ac2	-0.003801987
14	0x3c78b30e	0.015179409
15	0x3c5791b3	0.013157296
16	0xbb8a8722	-0.004227535
17	0xbb8ac848	-0.004235301
18	0xbc584fcd	-0.01320262
19	0x3c5c4407	0.013443953
20	0xbc290064	-0.010315035
21	0xbc67e44c	-0.014153551
22	0x3c0c0b68	0.008547641
23	0xbbbdba3b	-0.0057900227
24	0xbb9dd9e8	-0.004817236
25	0x3b97cef2	0.004632824
26	0xbc539b72	-0.012915479
27	0xbb704ab4	-0.003666562
28	0xbb012735	-0.0019707207
29	0x3c9adbfa	0.018903721
30	0xbc8f12d1	-0.017465027
31	0xbc5460c3	-0.012962523
32	0xbba189ae	-0.004929743
33	0xbc7d9df3	-0.015479553
34	0x3c4b6a12	0.012415426
35	0xbc0360fe	-0.00801873
36	0xbc4c0a44	-0.012453619
37	0x3b6c4a64	0.0036055082
38	0x3c43059a	0.011903191
39	0x38f64a33	0.00011744015
40	0x3c59e1bb	0.013298447
41	0x3b807439	0.003920105
42	0x3a5b177d	0.0008357687
43	0x3c87a1b8	0.016556606
44	0x3c248641	0.010041774
45	0xbc58a81d	-0.013223675
46	0xbc6e961f	-0.014562159
47	0x3c1b413e	0.009476004
48	0xbc7e4e4e	-0.015521599
49	0x3b6ac680	0.0035823882
50	0xbc5c5130	-0.013447091
51	0xbc681ee2	-0.014167519
52	0xbc955b8a	-0.018232126
53	0x3be4cb89	0.006982271
54	0xbbdfc3af	-0.006828747
55	0x3ba77816	0.005110751
56	0xbc826bd8	-0.015920565
57	0xbc232a70	-0.009958848
58	0x3bcc3383	0.0062317266
59	0xbbaf0ee5	-0.0053423517
60	0xbb669103	-0.0035181649
61	0x3c2b98ec	0.010473471
62	0x3c7413e3	0.0148973195
63	0xbc2d7365	-0.010586594
64	0x3c4bac38	0.012431197
65	0x3c1b3527	0.009473122
66	0xbc774741	-0.015092672
67	0xbc455c57	-0.012045941
68	0xbc6e8f17	-0.014560482
69	0xbc466570	-0.0121091455
70	0xbc538616	-0.012910387
71	0x3c83ae1b	0.01607423
72	0xbc05b097	-0.008159778
73	0xbc943705	-0.018092642
74	0xbc18f339	-0.009335333
75	0xbba3ce79	-0.0049989787
76	0xbb6a4735	-0.003574801
77	0x3ba06ad2	0.0048955465
78	0xbb6ea1d9	-0.0036412387
79	0x3c18382e	0.009290738
80	0xbbc6d264	-0.006067561
81	0xbbe59f9a	-0.0070075514
82	0xbbdf0dde	-0.006807073
83	0x3b528cb5	0.0032127325
84	0x3c11c381	0.008896709
85	0xbc8d92c9	-0.017281907
86	0x3b5e877c	0.0033955267
87	0x3c4d83f6	0.012543669
88	0xbca00957	-0.019535704
89	0xbc73daa5	-0.014883672
90	0x3c08f4fd	0.008359191
91	0x3c5f6cc2	0.01363677
92	0x3c636174	0.013878215
93	0xb84cba28	-4.881076e-05
94	0xbc0e98fa	-0.008703465
95	0x3c3ecac5	0.011645024
96	0xbc4f56a6	-0.012654936
97	0xbbc7f6d0	-0.0061024204
98	0x3c6ab2b7	0.0143248355
99	0xbc45e4d4	-0.012078483
100	0x3c3b4e6d	0.011432272
101	0xbbc132aa	-0.005895932
102	0xbc87b095	-0.016563693
103	0x3bcdeb75	0.006284172
104	0xbb8c6542	-0.004284532
105	0x3c69417b	0.014236803
106	0xbc7387bb	-0.014863904
107	0x3bafd600	0.005366087
108	0x3be2d37e	0.0069221845
109	0x3ac5a760	0.0015079789
110	0x3c85741a	0.016290713
111	0x3be6a544	0.007038744
112	0xbc9dd460	-0.019266307
113	0x3c0e384a	0.008680413
114	0xbc588817	-0.01321604
115	0xbc52d960	-0.012869209
116	0xbc875e70	-0.016524523
117	0xbbbb13f7	-0.005709167
118	0x3a2e98db	0.00066603505
119	0x3c592041	0.013252319
120	0x390d931b	0.00013501609
121	0x395113e5	0.00019939205
122	0x3c3b6d49	0.01143963
123	0x3ba51f88	0.005039159
124	0xbbfdaedc	-0.007741792
125	0x3c48ddfe	0.012259958
126	0x3c586603	0.013207915
127	0x3bb4baf9	0.005515453
128	0xbb36da51	-0.0027901123
129	0xbc7dd5c5	-0.015492861
130	0x3b4ebce0	0.0031545684
131	0xbc500b9b	-0.012698079
132	0x3c677c20	0.014128715
133	0xbbb95d50	-0.0056568757
134	0x38bfea0c	9.151184e-05
135	0xbc74ad32	-0.014933871
136	0xbc5d4de2	-0.013507338
137	0x3c22eab7	0.009943656
138	0x3c7177d4	0.014738042
139	0x3bd19be2	0.0063967565
140	0x3c8357de	0.01603311
141	0xbc49db80	-0.012320399
142	0x3bba8493	0.0056920736
143	0xbb61f7bc	-0.0034479937
144	0xbc595ba8	-0.013266481
145	0x3c7a8665	0.015290831
146	0x3c556b21	0.01302603
147	0xbc21e74a	-0.009881804
148	0x3c1d8367	0.009613848
149	0xbc54db33	-0.012991714
150	0xbc529556	-0.012852987
151	0xba427117	-0.00074173644
152	0xbc0b4bac	-0.008501928
153	0xbc660352	-0.014038878
154	0x3bd0226c	0.0063517597
155	0x3b370400	0.0027925968
156	0xbc36ce58	-0.011157595
157	0x3b9909a9	0.004670341
158	0x3bc6bb1a	0.0060647847
159	0x3c0ab11e	0.00846508
160	0x3b54f91a	0.003249711
161	0x3c30fddc	0.010802712
162	0xbc115d16	-0.008872291
163	0x3bf8ae6d	0.0075891525
164	0xbc435808	-0.011922844
165	0xbc8e616f	-0.017380444
166	0xbc7ad183	-0.015308741
167	0xbbd93636	-0.006628777
168	0x3b631fcc	0.0034656404
169	0x3c3985dd	0.011323419
170	0x3c70d518	0.014699243
171	0xbc49f0bc	-0.012325462
172	0xbadf89c8	-0.0017054612
173	0x3c82c8c1	0.015964868
174	0x3c8f1210	0.017464668
175	0x3b9f3601	0.0048587327
176	0x3bb8f6d1	0.005644657
177	0x3a52f196	0.00080468634
178	0xbaf6af8c	-0.0018820628
179	0xbba2c7e6	-0.0049676774
180	0x3c740984	0.014894847
181	0x3c5812a0	0.013188034
182	0xbc815cd1	-0.015791329
183	0xbc095007	-0.008380896
184	0x3c8d07a2	0.017215554
185	0xbc81121d	-0.015755707
186	0x3c737bd7	0.014861069
187	0xbbafeee8	-0.005369056
188	0xbc2f4267	-0.010696984
189	0xbc4c4087	-0.012466556
190	0x3c3765b4	0.0111936815
191	0xbc81561d	-0.015788132
192	0x3b59d108	0.0033236165
193	0x3bdf5d8c	0.0068165716
194	0x3ba1cf4b	0.0049380413
195	0xbcd00a85	-0.025395641
196	0x3c663917	0.014051697
197	0xbba45091	-0.005014487
198	0x3c4bf16d	0.012447697
199	0xbc6044e6	-0.013688302
200	0x3b4eec9c	0.0031574136
201	0x3c184dce	0.009295894
202	0x3bf9acb9	0.007619467
203	0xbc7e8b7a	-0.0155361835
204	0x3c528922	0.012850078
205	0xbc73c9a0	-0.014879614
206	0x3c213050	0.009838179
207	0x3b9035de	0.0044009527
208	0xbc098f4d	-0.008395982
209	0xbbed6928	-0.0072452016
210	0x3a3a0743	0.0007096419
211	0xba481cf6	-0.000763371
212	0xbc7547b0	-0.014970705
213	0xbc652939	-0.013986879
214	0x3beae0ca	0.00716791
215	0x3bc2a1db	0.005939705
216	0x3c5eb781	0.013593555
217	0xbb5efba9	-0.0034024513
218	0xbc6c332c	-0.014416497
219	0x3c5c023a	0.013428265
220	0x3b84838c	0.004044002
221	0x3c726868	0.0147954
222	0x3ca62e21	0.020285668
223	0xbb83ffb8	-0.004028287
224	0x3c64b9f9	0.013960355
225	0xbb789401	-0.0037930014
226	0x3c264538	0.010148339
227	0xbc37051a	-0.01117065
228	0xbcaaadf0	-0.020834893
229	0x3c335782	0.010946156
230	0xbc806782	-0.015674356
231	0x3c86f70b	0.016475221
232	0x3c61e65b	0.013787831
233	0xbbaa38fb	-0.005194781
234	0x3c8244e3	0.015901988
235	0xbc202921	-0.009775431
236	0xbc238e6f	-0.009982689
237	0xbbe6c30a	-0.0070422934
238	0x3c8a4079	0.016876446
239	0x3c1e07c9	0.009645411
240	0x3c7c53ae	0.01540081
241	0xbc1f67a8	-0.009729303
242	0x3c540334	0.012940217
243	0xbc0ef0bf	-0.0087243905
244	0xbb9a7c4b	-0.004714524
245	0x3c57af1b	0.013164307
246	0x3b8551b4	0.0040685777
247	0x3bcddfb2	0.00628277
248	0x3b2d9f46	0.002649264
249	0xbc5c063c	-0.013429221
250	0x3c3fe0e0	0.011711329
251	0x3c1ce1be	0.0095753055
252	0xb903ec80	-0.00012581237
253	0x3c033909	0.008009204
254	0xbb76b2f0	-0.0037643276
255	0x3bc0c2b0	0.0058825836

model/a_stream/W f4 [3, 256]
0	0xbc9d0405	-0.019166956
1	0x3c69a45b	0.014260377
2	0xbd519c5b	-0.051174503
3	0x3cd6bcc8	0.026213065
4	0xbc821549	-0.01587929
5	0xbccd8afe	-0.02509069
6	0x3d0c28c7	0.034218576
7	0xbc5f06d4	-0.013612468
8	0x3d09d34a	0.033648767
9	0xbc443493	-0.011975425
10	0x3c938649	0.018008368
11	0xbc61184f	-0.013738706
12	0xbc82cc03	-0.015966421
13	0xbd59a330	-0.053134143
14	0xbc3fd83e	-0.011709271
15	0xbb827740	-0.003981501
16	0x3cbc096f	0.022953717
17	0xbcca9f0e	-0.024734046
18	0x3c87251b	0.016497185
19	0xbc157310	-0.009121671
20	0x3c9a0aee	0.01880404
21	0x3bb8a6bf	0.005635112
22	0x3a654d83	0.0008747207
23	0x3cc69f80	0.024245977
24	0x3d0f06a1	0.03491843
25	0xbd6086f4	-0.0548162
26	0x3cacbc49	0.021085875
27	0xbd243e78	-0.040098637
28	0x3d7e2845	0.062050123
29	0xbcc7689e	-0.024341878
30	0x3c703b37	0.014662555
31	0x3c4429c7	0.011972851
32	0xbd175360	-0.036944747
33	0x3c8d127f	0.017220734
34	0xbc9935c2	-0.018702392
35	0xbce680fe	-0.02813768
36	0x3cba3226	0.02272899
37	0xbd34fb28	-0.044184834
38	0x3ad0fe42	0.0015944915
39	0xbd45b1f4	-0.048265412
40	0xbc754095	-0.014969011
41	0x3d255f31	0.040373985
42	0x3d200241	0.03906465
43	0xbbd0c459	-0.0063710627
44	0x3d498b2a	0.049204983
45	0x3c5de3e9	0.013543108
46	0x3c7d9e67	0.015479661
47	0x3d2799e4	0.040918246
48	0x3d1404fd	0.03613757
49	0xbcd00880	-0.025394678
50	0x3c03bb46	0.008040255
51	0x3cbbb6cd	0.022914315
52	0x3bd46601	0.0064818864
53	0x3d16f34c	0.03685312
54	0xbcd91916	-0.02650122
55	0x3cbdbf3b	0.023162475
56	0x3d0b2bbb	0.03397725
57	0x3ca75b6a	0.020429332
58	0x3d5dfc4c	0.054195687
59	0xbc9bba53	-0.019009745
60	0xbc9ec0ff	-0.019379137
61	0x3ca53ce0	0.020170629
62	0xbc791355	-0.015202363
63	0xbc12fb66	-0.008971071
64	0xbc9b03df	-0.018922744
65	0xbcd70342	-0.02624667
66	0x3c0a350d	0.0084355
67	0x398f1130	0.0002728789
68	0x3a0bb179	0.00053288747
69	0x3c7a7963	0.01528773
70	0x3c695d81	0.0142434845
71	0xbbf52ef0	-0.007482402
72	0x3ce3557f	0.027750729
73	0x3bf17fb5	0.00736996
74	0xbd36f718	-0.04466924
75	0xbd4151d8	-0.047197193
76	0x3cc8b5c9	0.024500744
77	0xbd0b4ed3	-0.03401072
78	0xbd50e266	-0.05099716
79	0x3d082213	0.03323562
80	0x3ce38fbd	0.0277785
81	0x3d7102f6	0.058840714
82	0xbd210286	-0.039309047
83	0xbcd15796	-0.02555446
84	0x3d38e6b5	0.045141894
85	0x3b81620e	0.0039484566
86	0x3d2b70ad	0.041855503
87	0x3c8f4b80	0.017492056
88	0x3c624e90	0.013812676
89	0x3c43c339	0.0119484
90	0x3d5a6a90	0.053324282
91	0xbaa450d6	-0.0012536298
92	0xbb82959b	-0.0039851195
93	0xbd59e1bb	-0.05319379
94	0x3b05797c	0.00203666
95	0xbc1f2a84	-0.009714726
96	0x3c2fdb85	0.01073349
97	0x3d1619c5	0.03664567
98	0xbbae97b0	-0.005328141
99	0xbbb687e3	-0.005570398
100	0xbc39e8cb	-0.011347006
101	0xbce705ed	-0.028201068
102	0x3cc29aef	0.023755519
103	0x3d208495	0.03918894
104	0xbd00e776	-0.03147074
105	0xbcd7061d	-0.026248032
106	0x3c417c35	0.011809398
107	0x3d23bc83	0.0399747
108	0xbd1d7132	-0.03843803
109	0x3c9bbe0b	0.019011518
110	0xbcaddea5	-0.02122433
111	0x3d302380	0.043002605
112	0x3c196973	0.00936352
113	0x3d287dd6	0.04113563
114	0x3a8e589c	0.0010860148
115	0x3c3c1145	0.011478727
116	0x3c9a961f	0.018870411
117	0x3bdf99d2	0.0068237567
118	0xbd4db168	-0.050218016
119	0xbca5aa65	-0.020222852
120	0xbcdd3cf8	-0.027006611
121	0xbd3f2bd8	-0.046672672
122	0xbcd8605e	-0.026413139
123	0x3c395f47	0.01131422
124	0x3ce58d4c	0.028021477
125	0x3bc906ef	0.0061348598
126	0xb8d13bdb	-9.9770456e-05
127	0x3ccdb642	0.025111321
128	0xbd4d1ead	-0.050078083
129	0x3c999f48	0.018752709
130	0xbd592c52	-0.053020783
131	0xbc239cf8	-0.009986155
132	0xbbae5ee7	-0.005321372
133	0xbbf77f8a	-0.0075530456
134	0x3cffc4f0	0.031221837
135	0x3b617d56	0.0034406981
136	0x3be1543c	0.0068764966
137	0x3c697082	0.014248015
138	0x3beff2b5	0.007322634
139	0xbb90268d	-0.004399127
140	0xbb9839e5	-0.0046455734
141	0x3c41d5b9	0.011830741
142	0xbd0a9eda	-0.0338429
143	0x3d2ca31f	0.042147752
144	0x3ca5b5a4	0.020228215
145	0xbcb894a9	-0.022531824
146	0xbc8fede0	-0.017569482
147	0x3c663921	0.0140517065
148	0x3cfa56d1	0.030558975
149	0x3c4eba72	0.012617694
150	0x3b80f8af	0.0039358954
151	0xbc8baa05	-0.017048845
152	0xbd5d2984	-0.05399467
153	0x3c83e4cd	0.016100312
154	0x3c8aca9a	0.016942311
155	0xbd14692f	-0.036233123
156	0x3c95b238	0.018273458
157	0x3ce0a5db	0.027422836
158	0x3d205c63	0.039150607
159	0xbd051d44	-0.032498613
160	0x3d44ea7a	0.048075177
161	0xbccf63bf	-0.025316117
162	0xbbef5ad4	-0.0073045287
163	0x3cbdcc0f	0.023168592
164	0x3cacd120	0.021095812
165	0x3c81075e	0.015750583
166	0x3b6afd6e	0.0035856622
167	0xbcf665b1	-0.030077787
168	0xbc89d490	-0.01682499
169	0x3d4523bd	0.048129786
170	0x3be23308	0.006903056
171	0x3c8c4b36	0.017125707
172	0x3d0bf552	0.034169503
173	0xbc0eef6a	-0.008724073
174	0xbc761082	-0.015018584
175	0xbc8c550d	-0.0171304
176	0x3d16b851	0.03679687
177	0xbcce03ab	-0.025148233
178	0xbd06ab44	-0.032878175
179	0xbce3108e	-0.027717855
180	0xbccf88f1	-0.025333853
181	0xbcb58673	-0.022158837
182	0x3c1c3f9e	0.009536652
183	0x3c8b94d7	0.017038746
184	0xbb41aaf2	-0.0029551354
185	0x3c17befb	0.009261842
186	0xbbe7dd8a	-0.00707597
187	0xbd2f2208	-0.042757064
188	0x3cc22f1f	0.02370411
189	0xbb9abafe	-0.0047219982
190	0xbc957c20	-0.018247664
191	0xba9a6765	-0.0011780082
192	0x3d17ecb6	0.03709098
193	0x3d0dcc97	0.03461894
194	0x3cd15f2e	0.02555808
195	0xbd9d88e4	-0.076921254
196	0xbcc3a230	-0.023881048
197	0x3c714166	0.014725065
198	0xbced7940	-0.02898848
199	0x3bae5540	0.005320221
200	0xbd472de0	-0.048627734
201	0xbbc11365	-0.0058922046
202	0xbce995ef	-0.028513877
203	0x3d04536c	0.03230612
204	0x3d8e8b85	0.06960205
205	0x38cc9e37	9.756948e-05
206	0xbcd4bc68	-0.025968745
207	0x3ce349c8	0.027745143
208	0x3ce30158	0.027710602
209	0xbc8b75c2	-0.017023925
210	0x3d489dbd	0.048978556
211	0xbd217dc8	-0.039426595
212	0x3be1ca54	0.0068905745
213	0x3b56ad9a	0.0032757283
214	0x3d3585c1	0.04431701
215	0xbc5ca577	-0.013467184
216	0xbb9cd84f	-0.004786528
217	0xbd47db93	-0.048793387
218	0x3a7991eb	0.00095203397
219	0xbc55d76b	-0.013051848
220	0x3cc7b0e6	0.024376344
221	0xbc54c3b5	-0.012986113
222	0xbc4a0df8	-0.012332432
223	0x3d83e695	0.064404644
224	0xbc191b74	-0.009344924
225	0xbd2af9bc	-0.04174207
226	0x3be4fd3e	0.0069881966
227	0x3ca94150	0.020661026
228	0x3c394c17	0.011309645
229	0xbc786622	-0.015161069
230	0x3c4569be	0.012049137
231	0xbc10f52d	-0.008847517
232	0xbbde84be	-0.0067907264
233	0x3cec57e1	0.028850498
234	0x3d8abe82	0.06774618
235	0xbbac862a	-0.005265017
236	0x3cc84052	0.024444733
237	0xb98ddd78	-0.00027058623
238	0xbc8d809b	-0.017273238
239	0x3c467b7f	0.012114405
240	0xbc3ea91d	-0.011636999
241	0xbc149950	-0.009069756
242	0xbcd33245	-0.025780806
243	0x3ce59f29	0.028029995
244	0xbd4f55dd	-0.050618995
245	0xbc42758f	-0.011868848
246	0x3d34d5af	0.044149097
247	0x3d355e5e	0.04427945
248	0xbc1febf3	-0.0097608445
249	0x3bcb4065	0.006202745
250	0xbceccec4	-0.028907187
251	0x3d044e41	0.03230119
252	0xbca4e670	-0.020129412
253	0x3c9f8773	0.019473767
254	0xbd34fea1	-0.044188146
255	0x3d038b99	0.032115553

model/hidden/mid_rec_layer/upward/W f4 [80, 86]
0	0x3b6736bc	0.0035280427
1	0x3c0ec07a	0.008712882
2	0x3ae18b60	0.0017207675
3	0x3b1f6392	0.0024320823
4	0x3cc56627	0.024096562
5	0xbc02121b	-0.007938887
6	0xbbabebe1	-0.005246625
7	0x3ad6d0c3	0.001638912
8	0xbc358c37	-0.011080793
9	0x3c23d70a	0.01
10	0x3c8cd89f	0.017193137
11	0x3c23d70a	0.01
12	0x3c8b3e47	0.01699747
13	0x3d70eb3a	0.05881808
14	0x3c23d70a	0.01
15	0xbd191298	-0.037371248
16	0x3da71c77	0.08159726
17	0x3c23d70a	0.01
18	0xbd857615	-0.06516663
19	0x3d4e4dfe	0.050367348
20	0x3c23d70a	0.01
21	0xbcbaecf9	-0.022818075
22	0x3d888ee5	0.0666788
23	0x3c23d70a	0.01
24	0xbd8158e9	-0.063157864
25	0x3b80a3d5	0.0039257803
26	0x3c23d70a	0.01
27	0xbcb6f0dd	-0.02233165
28	0x3dbd8e15	0.092556156
29	0x3c23d70a	0.01
30	0xbccc3fe9	-0.024932818
31	0x3d1dbc49	0.03850964
32	0x3c23d70a	0.01
33	0xbb2ebf91	-0.0026664475
34	0xbcaa535b	-0.0207917
35	0x3c23d70a	0.01
36	0xbc9a76a8	-0.018855408
37	0x3c41e2cd	0.011833859
38	0x3c23d70a	0.01
39	0xbd13fb95	-0.0361286
40	0xbb9bc00a	-0.0047531174
41	0x3c23d70a	0.01
42	0xbd2277ec	-0.039665148
43	0x3cc4ec0f	0.024038343
44	0x3c23d70a	0.01
45	0xbb96738a	-0.00459141
46	0xbb15a7d0	-0.002283562
47	0x3d9cf7cf	0.07664453
48	0xbc954fa8	-0.01822646
49	0xbc78e465	-0.015191172
50	0xbb76b4db	-0.003764442
51	0x3d303cde	0.043026797
52	0x3bb1e679	0.005429086
53	0x3d85cb02	0.06532861
54	0xbc76c839	-0.015062385
55	0xbc3b268b	-0.011422764
56	0x3c23d70a	0.01
57	0x3b9ee849	0.004849468
58	0x3d3804ae	0.044926338
59	0x3c23d70a	0.01
60	0x3d4f5a20	0.05062306
61	0xbbc56c23	-0.006024854
62	0xbc3c7aa9	-0.011503854
63	0x3d1a37c4	0.03765084
64	0xbd7695a2	-0.060201295
65	0x3dbbcf1d	0.09170363
66	0x3dc70e5e	0.09719537
67	0xbcc51925	-0.024059841
68	0xbcce4911	-0.025181325
69	0x3c71c865	0.01475725
70	0xbcae8f14	-0.02130846
71	0x3c23d70a	0.01
72	0xbd8cbb73	-0.068716906
73	0x3c01d3ab	0.007924001
74	0x3c23d70a	0.01
75	0xbc0d2944	-0.0086157955
76	0xbd3efe92	-0.046629496
77	0x3d9ba0e4	0.07599047
78	0x3c6e749e	0.014554171
79	0xbd366e57	-0.044538822
80	0xbd1f7eca	-0.038939275
81	0x3c9fbe12	0.019499812
82	0xbd11ee48	-0.035627633
83	0xbca7aa43	-0.02046693
84	0x3ba0f733	0.004912281
85	0xbcd67c6a	-0.026182372
86	0xbd0cd626	-0.034383915
87	0xbe35d5cb	-0.17757337
88	0xbe1cbb94	-0.1530593
89	0xbd904366	-0.07044105
90	0xbdb9f55e	-0.09080003
91	0xbd9401d2	-0.0722691
92	0xbdbfb43a	-0.09360547
93	0xbdc334b0	-0.09531534
94	0xbecfc76e	-0.4058184
95	0x3c23d70a	0.01
96	0xbdca7f6a	-0.098875836
97	0x3c23d70a	0.01
98	0xbdd07d72	-0.10180177
99	0xbd4d0a78	-0.050058812
100	0x3c23d70a	0.01
101	0x3d8e5504	0.06949809
102	0xbcf9d8fa	-0.03049897
103	0x3c23d70a	0.01
104	0x3de7773c	0.11302039
105	0xbd64d705	-0.05586912
106	0x3c23d70a	0.01
107	0x3d1d0a51	0.038339917
108	0xbdc1bb17	-0.09459513
109	0x3c23d70a	0.01
110	0x3e1f883c	0.15579313
111	0xbd08532b	-0.03328244
112	0x3c23d70a	0.01
113	0xbbc184ed	-0.0059057386
114	0xbd3f3157	-0.046677914
115	0x3c23d70a	0.01
116	0xba4880cc	-0.0007648587
117	0xbe057486	-0.13032731
118	0x3c23d70a	0.01
119	0x3c536d87	0.012904531
120	0xbe0182c7	-0.12647544
121	0x3c23d70a	0.01
122	0x3d0526e5	0.032507796
123	0xbb1c6a7a	-0.0023867176
124	0x3c23d70a	0.01
125	0x3d9a91ce	0.07547341
126	0xbc3d24c3	-0.011544409
127	0x3c23d70a	0.01
128	0x3ceac180	0.028656721
129	0xbdca7a6b	-0.098866306
130	0x3c23d70a	0.01
131	0x3cee8bb1	0.029119344
132	0xbe42c24c	-0.19019431
133	0xbdc0bfb7	-0.09411567
134	0x3d9fab85	0.07796387
135	0xbe7ffac6	-0.24998006
136	0xbe00f615	-0.12593873
137	0xbe23d68a	-0.15999809
138	0xbe3e70f2	-0.18597773
139	0xbd837b38	-0.064199865
140	0x3d9b9b8c	0.075980276
141	0xbd0ad90a	-0.03389839
142	0x3c23d70a	0.01
143	0xbbdbd1af	-0.006708346
144	0xbc54824c	-0.012970518
145	0x3c23d70a	0.01
146	0xbd88d819	-0.06681842
147	0x3bc20d25	0.005921977
148	0xbc7882c2	-0.015167894
149	0xbe0f5ebf	-0.14000987
150	0xbd9e2083	-0.07721045
151	0xbe18ddaa	-0.14928308
152	0xbe53674b	-0.20644872
153	0x3d8e366b	0.06943973
154	0x3be00893	0.0068369596
155	0x3c58b3ea	0.013226489
156	0x3cf04f6a	0.029334743
157	0x3c23d70a	0.01
158	0x3ddb1a9d	0.106984355
159	0xbbd6a992	-0.006550976
160	0x3c23d70a	0.01
161	0xbd913069	-0.07089312
162	0x3d671952	0.05642063
163	0xbe0d6418	-0.13807714
164	0xbd916137	-0.070986204
165	0x3c41c077	0.011825672
166	0x3c15e192	0.009148018
167	0xbe5dcf11	-0.21661021
168	0x3d1e258b	0.038610023
169	0xbcb36311	-0.021897824
170	0xbe10be1c	-0.14135021
171	0x3d486c82	0.048931606
172	0xbdf8e3ce	-0.12152825
173	0xbe4524a6	-0.19252262
174	0xbe46e9ab	-0.19425075
175	0xbd5d97d1	-0.05409986
176	0xbe0d5f40	-0.13805866
177	0xbda450d6	-0.08023231
178	0xbdcb395c	-0.0992305
179	0xbe208857	-0.1567701
180	0xbeb83201	-0.3597565
181	0x3c23d70a	0.01
182	0xbdcacb88	-0.09902102
183	0x3c23d70a	0.01
184	0xbd8e2c81	-0.06942082
185	0xbd5b44c3	-0.053532373
186	0x3c23d70a	0.01
187	0xbd9d9ccf	-0.076959245
188	0xbd43aee4	-0.04777421
189	0x3c23d70a	0.01
190	0x3d62f1a1	0.055406217
191	0xbd51b0f4	-0.051194146
192	0x3c23d70a	0.01
193	0x3cb23131	0.021751972
194	0xbd9004eb	-0.07032188
195	0x3c23d70a	0.01
196	0x3e155841	0.14584447
197	0xbd588f9b	-0.052871328
198	0x3c23d70a	0.01
199	0xbe2139a0	-0.15744638
200	0xbd9ba227	-0.075992875
201	0x3c23d70a	0.01
202	0xbd0671bb	-0.032823306
203	0xbe04d833	-0.12973098
204	0x3c23d70a	0.01
205	0xbd5d4a32	-0.054025836
206	0xbe4ae20a	-0.1981279
207	0x3c23d70a	0.01
208	0xbd0c59f3	-0.03426547
209	0xbd0d5fc5	-0.03451516
210	0x3c23d70a	0.01
211	0x3d11bee2	0.03558243
212	0xbd2b9d94	-0.041898325
213	0x3c23d70a	0.01
214	0xbc318e85	-0.010837202
215	0xbdd683fd	-0.104743935
216	0x3c23d70a	0.01
217	0xbcb615ca	-0.022227187
218	0xbe28f6b7	-0.16500364
219	0xbddfcb1d	-0.10927413
220	0x3d2539d7	0.040338363
221	0xbe741b9b	-0.23838656
222	0xbe13f178	-0.14447582
223	0xbe025245	-0.12726696
224	0xbe093cc1	-0.13402082
225	0xbdbceb99	-0.09224624
226	0x3d913adf	0.07091307
227	0xbcf31e28	-0.029677466
228	0x3c23d70a	0.01
229	0xbd28ebca	-0.04124049
230	0xbcf6018e	-0.030030038
231	0x3c23d70a	0.01
232	0xbcfd4e21	-0.030921044
233	0xbc2b5316	-0.010456821
234	0xbd0b58a7	-0.034020092
235	0xbdbedcb9	-0.09319443
236	0xbde5cfc4	-0.11221269
237	0xbe3c6744	-0.18398768
238	0xbe3b0e83	-0.18267255
239	0x3c67d9e1	0.0141510675
240	0xbb45720d	-0.0030127794
241	0xbc9a70a8	-0.018852547
242	0xbc3bea4c	-0.011469435
243	0x3c23d70a	0.01
244	0x3d8af0c1	0.067842014
245	0xbd4ffb75	-0.050776917
246	0x3c23d70a	0.01
247	0xbcb9fefa	-0.02270459
248	0x3c91f82c	0.017818533
249	0xbe184b67	-0.14872514
250	0xbdb13bfb	-0.086540185
251	0xbd9219be	-0.07133816
252	0x3b821bef	0.003970615
253	0xbe467427	-0.19380246
254	0x3c965d10	0.018354923
255	0xbd033bec	-0.032039568

model/hidden/mid_layer/W f4 [256, 256]
0	0x3c63bcc4	0.013899986
1	0xba1d70df	-0.0006005894
2	0x3a69b8a6	0.00089157594
3	0xbc255489	-0.0100909555
4	0xbbd5be2c	-0.0065229144
5	0xbc81b590	-0.015833646
6	0xbc473b13	-0.0121600805
7	0xbc27ecd7	-0.010249338
8	0x3accb98d	0.0015619263
9	0xbb6855d9	-0.003545156
10	0xbc3e2da4	-0.011607561
11	0xbc6be475	-0.01439773
12	0xbcd5970c	-0.026073001
13	0xbc79a761	-0.01523766
14	0xbc93db83	-0.018049007
15	0xbcadfb97	-0.021238131
16	0xbcb5bfc8	-0.022186175
17	0xbc9c687a	-0.019092787
18	0xbcb8f298	-0.022576615
19	0x3bf69529	0.0075251055
20	0xbd13464b	-0.03595571
21	0xbb273633	-0.0025514483
22	0xbbde834f	-0.0067905555
23	0xbc6c9bdf	-0.014441459
24	0xbd0d5738	-0.034507006
25	0xbc09440c	-0.00837804
26	0x3c3cd2bf	0.011524855
27	0x391b3fb0	0.00014805677
28	0xbbc84865	-0.0061121457
29	0xbb9a2f16	-0.00470532
30	0xbc9704bb	-0.018434873
31	0x3ba6b6e1	0.005087719
32	0xbc30ff2d	-0.010803026
33	0xbb07bc4c	-0.00207116
34	0x3bb27c4f	0.0054469476
35	0xbcf64cdf	-0.030065952
36	0xbc0efef7	-0.008727781
37	0xbb269338	-0.002541734
38	0xbb94c350	-0.0045398846
39	0xbc9e9658	-0.019358799
40	0xbc9e555e	-0.019327816
41	0xbcabb9cc	-0.020962618
42	0xbbac1d5a	-0.0052525224
43	0xbc9e7f32	-0.01934776
44	0x3c18631e	0.009300975
45	0xba298dd6	-0.00064679736
46	0xbc164678	-0.0091720745
47	0x3c266ffc	0.010158535
48	0x3c2a3ea3	0.01039091
49	0x3b90fe01	0.004424811
50	0xbc470192	-0.0121463705
51	0x3b3c2415	0.002870803
52	0xbc146d78	-0.0090593025
53	0xbab7312b	-0.0013976445
54	0xbbded84b	-0.0068006865
55	0xbcda806d	-0.026672566
56	0x3b10a201	0.0022069218
57	0xbc1ae5c9	-0.009454199
58	0xbc8dd4da	-0.01731341
59	0x3c3d4d2e	0.011554046
60	0xbc697892	-0.014249938
61	0x3b779681	0.0037778916
62	0xbc40272e	-0.011728091
63	0xbc752053	-0.01496132
64	0xbc0b740b	-0.0085115535
65	0xbc7876c1	-0.015165032
66	0xbc1edb29	-0.009695807
67	0x3bb2e266	0.0054591177
68	0xbc0bcb84	-0.008532409
69	0xbbff44a7	-0.0077901664
70	0xbc9440c1	-0.018097283
71	0xbc378f84	-0.01120365
72	0x3b13c6b0	0.0022548847
73	0xbc87bbb0	-0.016568989
74	0xbc5c0e83	-0.013431194
75	0xbcf531b1	-0.029930921
76	0xbc60896c	-0.013704639
77	0xbb2d81d9	-0.00264751
78	0xbcb113b2	-0.021615837
79	0xbc379a2f	-0.011206194
80	0x3b13ac24	0.0022533024
81	0xbb8bc8de	-0.0042658886
82	0xbadbe2a2	-0.0016775916
83	0xbb438865	-0.0029835936
84	0xbc2ec728	-0.0106676
85	0xbb77532e	-0.0037738788
86	0xbc067486	-0.008206492
87	0xbb9722ed	-0.004612318
88	0xbc470cfa	-0.01214909
89	0xbc5f53d3	-0.013630825
90	0xbcc40ee2	-0.023932878
91	0xbb6567e3	-0.0035004548
92	0x38e5956f	0.00010947405
93	0xbc8e5f2a	-0.017379362
94	0xbc8cf5af	-0.017206995
95	0x3cb19759	0.021678613
96	0xbb476d49	-0.003043013
97	0xbd2e812b	-0.042603653
98	0xbc3b6fa1	-0.011440189
99	0xbc907553	-0.01763407
100	0xbc72e785	-0.014825706
101	0xbcfa114e	-0.03052583
102	0xba31c8af	-0.00067819183
103	0xbc0686b6	-0.0082108285
104	0xbc884202	-0.016633037
105	0xbd3956f9	-0.04524896
106	0x3cb7d891	0.022442134
107	0xbd0ecf53	-0.03486569
108	0xbcac0ce4	-0.02100224
109	0xbce92ff9	-0.028465258
110	0x3ad99560	0.0016600303
111	0xbc54bb79	-0.01298415
112	0xbcc1e9ac	-0.023670994
113	0xbc3d161f	-0.011540919
114	0x3ca3ffe7	0.020019485
115	0xbc4e7666	-0.012601471
116	0xbbb7168d	-0.005587405
117	0xbc923d21	-0.017851414
118	0xb9bf75eb	-0.00036518215
119	0xbb008a71	-0.0019613768
120	0x3b73eb21	0.0037219005
121	0x3abb34d4	0.0014282712
122	0xbc1e5d37	-0.009665779
123	0xbc6994a4	-0.01425663
124	0xbc2a1795	-0.010381599
125	0xbd1e0552	-0.038579293
126	0xb84184e5	-4.6138553e-05
127	0xbbae2a52	-0.0053151036
128	0xbc4a168d	-0.012334478
129	0xbc5807ff	-0.0131855
130	0xbc5a125c	-0.013310041
131	0x3be265ff	0.0069091315
132	0xbcdf0e58	-0.02722852
133	0xbc6960c6	-0.014244264
134	0xbcb3b552	-0.021937046
135	0xba9687d3	-0.001148457
136	0xbcaeb853	-0.021328127
137	0xbb92d0a4	-0.0044804383
138	0x3b2a797f	0.0026012359
139	0xbbbf17ea	-0.005831708
140	0x3ae714d7	0.0017630112
141	0xbc1edf60	-0.009696811
142	0x3c24fb53	0.010069686
143	0x3be3b943	0.006949575
144	0xbc58ec22	-0.013239892
145	0xbc647776	-0.013944497
146	0xbc5c6e3c	-0.013454016
147	0xbaef0108	-0.001823456
148	0xbb5fca3f	-0.0034147648
149	0xbae7e5a8	-0.0017692344
150	0xbc2471b9	-0.010036879
151	0xbb6ce4d5	-0.0036147137
152	0xbbc4a8d1	-0.00600157
153	0xbcd97c67	-0.026548577
154	0x3c9554cc	0.01822891
155	0xbd008b21	-0.031382684
156	0xbcd62bdb	-0.026143959
157	0x3c19e026	0.00939182
158	0xbb25546d	-0.0025227324
159	0xbc0d9e0a	-0.0086436365
160	0x3a7c9d40	0.0009636469
161	0xbc7a57df	-0.015279739
162	0x3b9c33be	0.0047669103
163	0x3c65c063	0.014022919
164	0x39c78072	0.00038051937
165	0xbbd2945c	-0.006426377
166	0x3c380d3e	0.011233626
167	0x3c9695c7	0.018381966
168	0xbc1b850c	-0.00949217
169	0xbcc3fd14	-0.023924388
170	0x3c9c6317	0.019090218
171	0xbc129860	-0.008947462
172	0x3b502d9e	0.0031765471
173	0x39d9452e	0.00041441008
174	0xbc77bdb5	-0.015120913
175	0x3c03414d	0.008011174
176	0xbc3f1f24	-0.011665139
177	0xbaa44311	-0.0012532194
178	0x39e3db10	0.00043460028
179	0xbd04dfbe	-0.03243994
180	0xbb9389ff	-0.0045025344
181	0xbcb2a02e	-0.021804895
182	0xbc1a33be	-0.00941175
183	0xbc5dc073	-0.013534653
184	0xbbaf7db2	-0.00535556
185	0xbca959c8	-0.020672694
186	0xbc014ce6	-0.007891869
187	0xbc9400e0	-0.018066823
188	0xbd1067f1	-0.035255376
189	0xbcd2e85f	-0.025745569
190	0xbcc88e83	-0.024482017
191	0x3b8bfeb6	0.0042723073
192	0x3c75ac9e	0.014994768
193	0x3b5007ec	0.0031743003
194	0xba383b31	-0.0007027863
195	0xbc346e52	-0.011012631
196	0xbc1c6728	-0.009546079
197	0x3c10f5f2	0.0088477
198	0xbd21232f	-0.039340194
199	0x3c87f980	0.016598463
200	0xbbd1cb97	-0.0064024436
201	0xbbecf4ea	-0.0072313445
202	0xbc39e614	-0.011346359
203	0xbd146feb	-0.036239546
204	0x3c486144	0.012230221
205	0xba2defd2	-0.0006635162
206	0xbca78600	-0.020449638
207	0xbc4c6310	-0.01247479
208	0xbb6cfd37	-0.003616167
209	0xbc21c3e9	-0.009873369
210	0xbc8e80f6	-0.017395478
211	0xbcbc5eb5	-0.022994379
212	0xbc961c8e	-0.018324163
213	0xbb469184	-0.0030299136
214	0xbcc9c643	-0.024630671
215	0xbccd56ac	-0.025065742
216	0xbcaab725	-0.020839283
217	0xbc4698ae	-0.012121363
218	0xbc04a2e9	-0.008095481
219	0xbcb55035	-0.022132972
220	0xbbbb5870	-0.0057173297
221	0xbb92228b	-0.0044596842
222	0xbd01a0d9	-0.031647537
223	0xbababc47	-0.0014246785
224	0x3bdb5044	0.006692918
225	0xbc11ad4d	-0.008891416
226	0xbc8d0211	-0.0172129
227	0x3abc4a9a	0.0014365495
228	0x3ab65ef7	0.00139138
229	0xbc1ef46b	-0.0097018285
230	0xbb864534	-0.004097605
231	0xbb71cd22	-0.003689595
232	0xbb1b1769	-0.0023665077
233	0xbd030ca6	-0.031994484
234	0xbc88cf95	-0.016700545
235	0xbbb03361	-0.0053772186
236	0x3aa72080	0.0012750775
237	0xbc2ad50b	-0.01042677
238	0x3babf1ab	0.005247315
239	0xbcf31bde	-0.029676374
240	0xbc50098e	-0.0126975905
241	0xbc80ddee	-0.015730824
242	0x3abf59a0	0.0014598854
243	0xbd0f778d	-0.035026122
244	0xbc7ec1a7	-0.0155491
245	0xbb83d546	-0.004023227
246	0xbc6506d2	-0.013978677
247	0xbd0bde9b	-0.03414784
248	0xbca1c80a	-0.019748706
249	0xbc09b4ed	-0.0084049525
250	0xbb288892	-0.0025716168
251	0xbc730fdf	-0.014835327
252	0xbc6bdb47	-0.0143955415
253	0xbbfa3861	-0.0076361154
254	0xbcd57449	-0.026056426
255	0x3bfc9cbf	0.0077091153

model/a_stream/b f4 [3]
0	0x3c941b31	0.018079372
1	0xbbdbc1a0	-0.0067064315
2	0xba83d48a	-0.0010057848

model/hidden/mid_rec_layer/upward/b f4 [80]
0	0xbbb5020c	-0.0055239256
1	0xbe037c5a	-0.12840405
2	0x3f5779ef	0.8417043
3	0xbe016d96	-0.1263946
4	0xbbb37a93	-0.0054772585
5	0xbde7817b	-0.11303993
6	0x3f5d2134	0.8637879
7	0xbde7649b	-0.11298486
8	0x3bef5daf	0.007304869
9	0xbde01149	-0.10940797
10	0x3f6e7c46	0.93158376
11	0xbde11db6	-0.10991995
12	0xbb91565b	-0.004435343
13	0xbe00d30b	-0.12580507
14	0x3f57ced9	0.843
15	0xbdfe021a	-0.124027446
16	0xbbb734bf	-0.0055910046
17	0xbe00db85	-0.1258374
18	0x3f5d58c6	0.8646358
19	0xbe001be1	-0.12510635
20	0xbba8ecb0	-0.0051551685
21	0xbdf2acfb	-0.118494
22	0x3f5b6e4d	0.8571518
23	0xbdf16047	-0.117859416
24	0xbbebb12e	-0.0071927523
25	0xbe1a77c8	-0.15084755
26	0x3f5968cc	0.8492553
27	0xbe18a0f5	-0.1490515
28	0x3bdb4cb4	0.0066924933
29	0xbdec452b	-0.1153663
30	0x3f6e0fad	0.9299267
31	0xbdee1ccf	-0.116265886
32	0xba6d8dc1	-0.00090619555
33	0xbe11cd04	-0.14238364
34	0x3f644303	0.8916475
35	0xbe11a328	-0.14222395
36	0xbba2d511	-0.004969247
37	0xbe17b88d	-0.14816494
38	0x3f5d0047	0.8632855
39	0xbe155bb9	-0.1458577
40	0xbbc7b81d	-0.006094946
41	0xbe089847	-0.13339339
42	0x3f5a74e6	0.8533462
43	0xbe076add	-0.13224359
44	0xbbc86200	-0.006115198
45	0xbdf1e018	-0.118103206
46	0x3f5b8ae9	0.85758835
47	0xbdf0c8ca	-0.117570475
48	0xba55068d	-0.00081262813
49	0xbdcc050e	-0.099619016
50	0x3f5f7873	0.87293166
51	0xbdcb3e98	-0.09924048
52	0xbbc584ab	-0.006027778
53	0xbdd89fb2	-0.105773345
54	0x3f5ccb40	0.86247635
55	0xbdda0944	-0.106462985
56	0xbbc44b48	-0.0059904195
57	0xbdebb8a7	-0.11509829
58	0x3f5bb492	0.85822403
59	0xbdeb0bda	-0.1147687
60	0xbbcdd1fd	-0.006281136
61	0xbdea2429	-0.11432678
62	0x3f5dcbfd	0.86639386
63	0xbde9af2b	-0.11410364
64	0xbc0b881e	-0.00851634
65	0xbde33f39	-0.11096043
66	0x3f69da1e	0.91348445
67	0xbde09674	-0.10966197
68	0xbbba598b	-0.005686944
69	0xbe07ca85	-0.13260849
70	0x3f56304c	0.83667445
71	0xbe04eced	-0.12981005
72	0xbb9b5eb8	-0.004741516
73	0xbded4d3f	-0.11586999
74	0x3f569393	0.8381893
75	0xbdeb5131	-0.114900954
76	0xbbc1422e	-0.005897782
77	0xbde0363f	-0.109478466
78	0x3f608533	0.87703246
79	0xbde0e278	-0.109806955

model/hidden/input_layer/W f4 [256, 86]
0	0x3ce32bf8	0.027730927
1	0xbd66f539	-0.056386206
2	0xbc8d06c0	-0.017215133
3	0xbd9dc4e8	-0.077035725
4	0xbd33babd	-0.04387926
5	0x3cb8605d	0.022506887
6	0xbc07334c	-0.008251976
7	0x3ca3c9f2	0.019993756
8	0xbdd4824e	-0.10376416
9	0x38abc30f	8.190248e-05
10	0xbe035b3f	-0.12827776
11	0x3c681957	0.014166198
12	0xbd276602	-0.040868767
13	0xbded006d	-0.11572347
14	0xbc341660	-0.010991663
15	0x3dacdabd	0.084401585
16	0xbc329a06	-0.01090098
17	0xbbd92998	-0.006627273
18	0x3c9be62c	0.019030653
19	0xbe15984f	-0.14608882
20	0x3ba8468a	0.005135362
21	0x3dd6f26e	0.104954585
22	0x3d0b89d7	0.034067
23	0xbc41d00c	-0.011829387
24	0xbd0fb0a7	-0.03508058
25	0xbcc1cd56	-0.023657482
26	0x3ba8e232	0.0051539177
27	0xbc00d5ea	-0.007863501
28	0xbe26d528	-0.1629225
29	0x3c9b9c57	0.018995447
30	0xbde9fa03	-0.11424639
31	0xbd99d739	-0.075117536
32	0x3ce1138d	0.027475143
33	0xbcee4aae	-0.029088344
34	0xbd5873da	-0.05284486
35	0xbb32b856	-0.0027270517
36	0xbcb5c480	-0.022188425
37	0x3decea24	0.11568096
38	0x3ad81a95	0.0016487414
39	0xbd46b6aa	-0.048514046
40	0x3cc7fc7f	0.024412392
41	0xbc26ef57	-0.010188899
42	0x3d814d66	0.06313591
43	0x3e0e1081	0.13873483
44	0x3bfe9aa8	0.0077699013
45	0x3dc5b437	0.09653514
46	0x3dbe68e9	0.09297354
47	0xbd8e2ac8	-0.069417536
48	0x3c28d139	0.010303789
49	0x3d17597d	0.036950577
50	0x3d935095	0.07193104
51	0xbdd5826a	-0.10425265
52	0x3d06113d	0.032731283
53	0xbdc564c0	-0.09638357
54	0x3d6368da	0.055519916
55	0x3d3ff7e2	0.04686726
56	0xb9bc7185	-0.00035942733
57	0xbb2948f4	-0.0025830837
58	0xbde14ec2	-0.1100135
59	0x3a9e978a	0.0012099606
60	0x3bbf5043	0.0058384254
61	0xbc847143	-0.016167289
62	0xbd33ba14	-0.04387863
63	0x3c7c5a41	0.015402378
64	0x3b90ba67	0.004416752
65	0xbdb97211	-0.090549596
66	0xbdd01d10	-0.10161793
67	0xbcb816e3	-0.02247185
68	0x3b16328f	0.002291832
69	0xbdb01199	-0.085971065
70	0xbd376949	-0.044778142
71	0xbc2995d0	-0.0103506595
72	0x3d92e387	0.07172304
73	0xbd384e9b	-0.04499684
74	0x3bdcb63f	0.0067355926
75	0xbc133980	-0.008985877
76	0xbdf9d969	-0.12199671
77	0xbdc343a2	-0.09534384
78	0xbca808df	-0.020512043
79	0xbd17f845	-0.037102003
80	0x39e02b96	0.00042757083
81	0xbc9122a7	-0.017716719
82	0xbd6619b1	-0.056176845
83	0x3b627bc6	0.0034558638
84	0xbd04a69a	-0.032385446
85	0xba109e89	-0.00055167876
86	0xbca827f2	-0.02052686
87	0xbc9bc214	-0.019013442
88	0xbb594401	-0.0033152106
89	0xbc9ff7c9	-0.019527333
90	0xbca38321	-0.019959988
91	0xbc5e85cb	-0.013581703
92	0xbcaf9d97	-0.02143745
93	0xbd1837b5	-0.0371625
94	0xbc159434	-0.009129573
95	0xbb654d3b	-0.003498866
96	0xbd00d2c5	-0.031451005
97	0x3bd0ac02	0.006368161
98	0xbc4a2400	-0.012337685
99	0xbc698cc5	-0.0142547535
100	0xbc4c378e	-0.012464417
101	0xbb6518dd	-0.0034957447
102	0xbca0563c	-0.01957237
103	0x3c0cfff3	0.008605945
104	0xbbcd7ec5	-0.0062712156
105	0x3c886926	0.016651701
106	0xbade94a4	-0.0016981554
107	0xbbebf71f	-0.00720109
108	0xbc9fad91	-0.019491943
109	0x3b878a1c	0.004136337
110	0xbc06e498	-0.008233212
111	0xbd29c503	-0.04144765
112	0xbbaa743e	-0.0052018454
113	0xbb708eb4	-0.0036706151
114	0x3c7e6e24	0.015529189
115	0xbbc1867f	-0.0059059258
116	0xbc8ffeb5	-0.017577508
117	0xbbceb7b0	-0.0063085184
118	0xbbf0e40e	-0.007351405
119	0xbbcd5051	-0.006265678
120	0xbcd70c48	-0.026250973
121	0xbbcaf896	-0.0061941845
122	0xbc587562	-0.01321158
123	0x3c094beb	0.008379917
124	0x3bed3241	0.0072386567
125	0x3b673102	0.0035277014
126	0xbcbf1dc6	-0.023329627
127	0xbbb26d1b	-0.0054451353
128	0x3b64631f	0.003484912
129	0xbca959a0	-0.02067262
130	0x3b672521	0.0035269933
131	0xbc4558f9	-0.0120451385
132	0xbc987d40	-0.018614411
133	0xbced8a7e	-0.028996702
134	0x3bf74bed	0.007546893
135	0xbccbd873	-0.024883484
136	0xbca94997	-0.020664973
137	0x3c898458	0.01678674
138	0xbbbd5933	-0.0057784556
139	0xbbcc70da	-0.006239039
140	0xbc444dac	-0.011981409
141	0xbcc81818	-0.024425551
142	0x3c829b65	0.015943239
143	0x3c3fd100	0.011707544
144	0xbcc22cd6	-0.02370302
145	0x3c725514	0.014790792
146	0x3bfc322c	0.0076964106
147	0x3c561ab8	0.013067894
148	0xbc97a2bc	-0.018510215
149	0x3be7a81c	0.0070696007
150	0xbc926686	-0.017871153
151	0x3c0dfb47	0.008665866
152	0x3c223c44	0.009902064
153	0x3b05480c	0.0020337133
154	0xbc5f55fe	-0.013631342
155	0xbc7f028c	-0.015564572
156	0xbbfec5c5	-0.007775041
157	0xbb8a6ae8	-0.00422417
158	0xbc0d6b96	-0.0086316075
159	0xbcaa7131	-0.020805927
160	0x3b3d40aa	0.0028877654
161	0xbc9efc68	-0.019407466
162	0x3a6076c9	0.0008562622
163	0x3c3b81e1	0.01144454
164	0xbcd8b06c	-0.026451312
165	0xbce58568	-0.028017715
166	0xbce69105	-0.028145323
167	0x3c2e629b	0.010643627
168	0xbc87e2c2	-0.016587619
169	0xbcf4b276	-0.029870253
170	0xbc83b07b	-0.016075363
171	0xbcf7e027	-0.030258251
172	0xbc9102fd	-0.01770162
173	0x3be72e4e	0.0070550805
174	0xbd28b776	-0.041190587
175	0xbb9a43ee	-0.004707805
176	0xbc526fe7	-0.012844062
177	0xbca4a73a	-0.020099271
178	0xbdb84075	-0.08996669
179	0x3c603b70	0.013686046
180	0xbdd856de	-0.105634436
181	0x3b12e396	0.0022413484
182	0xbc803c63	-0.015653795
183	0xbc52dd58	-0.012870155
184	0x3db86303	0.0900326
185	0x3ca5e104	0.020248897
186	0x3c1a9909	0.0094359005
187	0xbd834078	-0.06408781
188	0x3c2dc62d	0.010606331
189	0x3caa0bb0	0.020757526
190	0xbd92a6d1	-0.07160724
191	0xbd11ebb0	-0.03562516
192	0xbad3d9e2	-0.0016162957
193	0xbd999365	-0.074988164
194	0x3cd52cdf	0.026022373
195	0xbc263ccc	-0.010146331
196	0x3cce7079	0.025200116
197	0xbde20e35	-0.11037866
198	0xbaf10cf4	-0.0018390701
199	0x3dcc96ad	0.099896766
200	0xbe115cbe	-0.14195535
201	0xbc94ba0a	-0.018155117
202	0xbdb22daa	-0.08700116
203	0xbdd0527f	-0.10171985
204	0x3b51209a	0.0031910301
205	0x3d830e4e	0.06399213
206	0x3b197bcd	0.0023419738
207	0x3c1c482e	0.009538693
208	0xbdc2f1ac	-0.095187515
209	0x3a38c0b2	0.0007047757
210	0x3c82d209	0.015969293
211	0xbd688ec3	-0.056776773
212	0x3cb16df9	0.021658884
213	0xb9d21233	-0.0004006788
214	0xbd0b4deb	-0.034009855
215	0x3bc5fc12	0.006042012
216	0xbba4fb98	-0.005034875
217	0xbd1ff745	-0.039054174
218	0xbc9d7df9	-0.019225108
219	0x3c4c620a	0.012474546
220	0xbcb122ab	-0.021622976
221	0xbdff74c2	-0.12473442
222	0xbb2a27ce	-0.0025963667
223	0xbd65f3c1	-0.056140665
224	0x3cf165ee	0.02946755
225	0xbb6a87d7	-0.0035786533
226	0xbd7047fe	-0.058662407
227	0xbe20e3d7	-0.15711914
228	0xbb39112f	-0.0028239002
229	0x3d8f3d4c	0.06994113
230	0xbdfff333	-0.124975584
231	0x3c3da7fe	0.011575697
232	0x3d3da6b0	0.046301544
233	0xbc622d48	-0.013804741
234	0xbb80714b	-0.0039197556
235	0x3cd48715	0.025943318
236	0x3c44fff4	0.012023915
237	0xbd31985a	-0.043358184
238	0xbda01202	-0.07815935
239	0x3c35fc0b	0.011107455
240	0xbdcae383	-0.09906676
241	0x3dfde955	0.1239802
242	0x3c6de953	0.014520961
243	0x3c17695f	0.009241431
244	0x3dcf10e3	0.10110643
245	0x3d6ed3e6	0.05830755
246	0xbbe4df42	-0.006984622
247	0x3b25d9d4	0.0025306838
248	0x3cf27e35	0.029601196
249	0xbd3ebe58	-0.046568245
250	0xbd1fe460	-0.039036155
251	0x3a6afefc	0.0008964387
252	0x3d663766	0.056205176
253	0xbd97a021	-0.07403589
254	0xbd124e54	-0.03571923
255	0xbca4423f	-0.02005112
