ai_challenge/results/simulation_DoubleDQN_DuelingRecNN_2017-05-19T19:40:53.24/60016/model.npz (npz, 629239 bytes, 12 tensors)

model/hidden/input_layer/b f4 [256]
00000000: 744d 1ebc 5d5f e5bc 5644 9fbc b450 78ba
00000010: 9a57 e0bb 9fa8 5bbc 8d7f 54bc 2e62 2abd
00000020: 63cb 713b a615 0ebc 5967 153c 9d08 aebc
00000030: a94c 36bb 8e7e 84bc ba00 d1bb 82d5 f8bb
00000040: e2db e5bc dacd c6bc 163c 78bc 7c1c 1ebc
00000050: f7be 16bd d889 a7bb 445e 023c d722 5fbc
00000060: 40d6 c8bc 0fc4 81bc 5e3b 2fbc 2f13 43bc
00000070: e2ea 87bc a2b3 12bc 4502 78bc 407d 30bc
00000080: 1454 4239 a1f0 00bd c651 ec3b 01b2 43bc
00000090: ece0 3cbd 57ea e8bb b10a cdbc a2a7 57bc
000000a0: dc01 55bc 9502 acbc 2737 513b a2c6 6fbc
000000b0: 570b c9bc e81b 78bc e835 ecbc ad49 c8bc
000000c0: c2ca c5bc 99fd fcbc fa9a 95bc ff0d b9bc
000000d0: 4806 56bb 6e85 cbbb d3f3 e4bb f7b6 86bc
000000e0: e05c 4ebc 5ea0 97bc ce7f dcbb bcc3 1abc
000000f0: 02b6 95bc 2e23 22bc 729a 3fbc 59f7 cdbb
00000100: f7db a6bc 7865 32bc d9b1 50bc 7dc5 6cbc
00000110: 0022 55bc 66a0 80bc 0e2f dcbc 7222 cfbc
00000120: 9612 053b e7c3 73bc eadb e0bc d311 a7bc
00000130: 40e2 bbbc 4fd9 95bc 10f4 d4bb 5b89 0cbd
00000140: 6c74 15bd 44b8 cabc 1565 5dbc 488c c8bc
00000150: 7a38 7ebc 9780 ffbc 378a 20bd d752 00bd
00000160: b7e0 a3bc 9b14 bbbc 66be 87bb 63e7 60ba
00000170: ea06 cebc 6993 96bc 5232 e7bc 1506 f5bb
00000180: 836c 6ebb 5f37 96bb 0bd2 223b bb9c c43a
00000190: a54a 65bc afd1 88bc 2935 493b 6c26 95bb
000001a0: 3444 10bc 91df 44bb 8998 24bc f425 71bc
000001b0: a9c5 063b 1452 ecbc bcea 18bd 5229 ccbc
000001c0: 20e5 a6bc 71b4 50bc 9c2a b2bc e9f8 84bb
000001d0: 6559 edbc 67d0 0bbd a82f 1dbd 52a1 a2bc
000001e0: 64ba 2cbd c230 82bb eb5f 1dbc 92d7 fdbc
000001f0: bd1e 6bbc 57e4 08bc 7355 bebc 67ce 0ebc
00000200: 13e6 8cba fc40 07bd f9f1 98bc 8c58 b8bb
00000210: dc70 88ba 8b2a d6bb 0172 00bc eb9a 0ebc
00000220: 645f 08ba ee99 85bc 3532 71bc fb39 233b
00000230: 58e6 90bc 5804 b4bc 9288 bebc 5939 15bc
00000240: 5f69 1b3a 4b82 023c ecc0 bebb f4a3 4ebd
00000250: 2134 1dbd 9eba 2abc d2e6 07bb 718c d6bc
00000260: f4e2 99bc 88b0 4fbc 43d3 fabc d1fb 01bc
00000270: dc4e 0cbd bedc c3bb 5c48 56bc 010c 59bc
00000280: 5d10 84bb 89b7 4abc c488 2fba b07c e8bb
00000290: aa2e 0abd 22e2 043b a34c e5bc 19a9 2fbb
000002a0: b91f 53bc 40ae 54bb 7cef 0c3c 125c d6bb
000002b0: 379a 50bc 8a24 83bc 300d 19bc 77ec dbbb
000002c0: 7e8f 82bc dbfd 1ebd 1ced 90bb ad95 94bc
000002d0: 9efc 07bc bb70 8cbb 8066 d7b9 d73e b0bb
000002e0: 74b4 7f3a fc82 73bc 13a4 20bd 0084 5ebd
000002f0: 1c9f e3ba 0804 28bc 4e0c bcbb cc1d b2bc
00000300: 1a52 9fbc d6b5 bebc 6421 983b 45b2 8abc
00000310: 7489 43bc 1dd5 25bc ae82 b6bc 1db0 77bb
00000320: 08b9 71bc 5fb3 81bc 827d 84bc 51df 89bc
00000330: 2949 36bd 92d7 11bc b7e5 71bc 11f6 1cbd
00000340: e02a 2fbc ca94 c0b9 39a9 1ebc aa26 2bbb
00000350: 88c6 94bc f322 89bc 971d 34bd cd5f 73bc
00000360: 837e 70bc 8c9d 83bc 0572 87bc 9e68 82bc
00000370: d6ae 6abc ceeb 2b3c 77f6 99bc 7b16 a6bc
00000380: 9844 30bc 3626 433c 5b15 90bc 90b0 99bc
00000390: 9503 62bc 338b 22bc 2e26 89bc ba67 37bc
000003a0: 1980 efbc 468b 513c c859 f0bc a331 493b
000003b0: d382 3ebc fd1c 0dba bc17 32bd 1b55 eabc
000003c0: b812 02bc 8e72 3cbc fd0f 1fbb 251d d6bc
000003d0: 1981 81bc 689d 42bc 50b1 87bc 3e9b 0dbd
000003e0: 3899 f6bc b677 47bc e425 a6bc f3d4 bdbb
000003f0: 7907 d83b d9c5 10bd 4c95 4dbd 005b d0bc
-0.009662021 -0.027999574 -0.019441765 -0.0009472475 -0.0068463804 -0.013406902 -0.012969864 -0.041597538
0.003689491 -0.008672154 0.009118878 -0.021244342 -0.002781669 -0.016173627 -0.0063782604 -0.0075938115
-0.02805895 -0.02426808 -0.015151044 -0.009650346 -0.036803212 -0.005112868 0.007957045 -0.013619146
-0.024516225 -0.015840558 -0.010695307 -0.011906429 -0.016591493 -0.008953961 -0.01513726 -0.010772049
0.00018532603 -0.03147948 0.0072118966 -0.011944295 -0.04611294 -0.0071080136 -0.025029512 -0.013162525
-0.013000932 -0.020997325 0.0031923742 -0.01463476 -0.02454154 -0.015143372 -0.028834298 -0.024449194
-0.024144534 -0.030882644 -0.018262375 -0.022589682 -0.0032657553 -0.0062109744 -0.006987074 -0.016444666
-0.012595385 -0.018509086 -0.0067291027 -0.009446081 -0.018275265 -0.009896083 -0.0116945375 -0.0062855897
-0.02036856 -0.01088845 -0.012737715 -0.014451382 -0.0130085945 -0.015701484 -0.026877906 -0.02528498
0.0020305268 -0.01487825 -0.027448613 -0.020394241 -0.022935033 -0.018292097 -0.006498821 -0.03431068
-0.03648798 -0.024746068 -0.013512869 -0.024480954 -0.015516395 -0.031189246 -0.039194312 -0.031329002
-0.020004613 -0.022836974 -0.0041425703 -0.0008579401 -0.025149781 -0.018380838 -0.028222237 -0.0074775317
-0.0036380596 -0.0045842375 0.0024844434 0.0015000323 -0.013994847 -0.016701547 0.0030701852 -0.0045516994
-0.008805323 -0.0030040483 -0.010046133 -0.014718521 0.0020564592 -0.028847732 -0.037333235 -0.024922047
-0.020372927 -0.012738333 -0.021748833 -0.0040579927 -0.02897329 -0.034134295 -0.038375527 -0.019852314
-0.042169943 -0.0039730975 -0.009605388 -0.030986581 -0.01435059 -0.008355222 -0.023234105 -0.008716202
-0.001074972 -0.03302096 -0.018670069 -0.00562579 -0.0010409611 -0.0065358332 -0.007839681 -0.0087039275
-0.00052022026 -0.016308751 -0.014721443 0.0024906385 -0.017687961 -0.021974728 -0.023258481 -0.009107911
0.0005928482 0.007965635 -0.005821338 -0.050449327 -0.038379792 -0.01042047 -0.0020736945 -0.026190015
-0.018784977 -0.012676366 -0.030618316 -0.007933573 -0.034254894 -0.0059772423 -0.013078775 -0.013247491
-0.004030271 -0.01237286 -0.00066961 -0.007094942 -0.03373591 0.0020276387 -0.027990645 -0.002680367
-0.012885981 -0.0032452494 0.008602019 -0.0065417374 -0.01273208 -0.016008634 -0.009341523 -0.0067115384
-0.015937563 -0.038816314 -0.004422797 -0.018137777 -0.008299975 -0.0042858995 -0.00041084364 -0.005378585
0.00097543676 -0.014862772 -0.039218973 -0.054325104 -0.0017366144 -0.010254867 -0.0057387715 -0.021742724
-0.019448329 -0.023280066 0.0046426523 -0.016930709 -0.011934627 -0.010121611 -0.02227911 -0.003779418
-0.014753588 -0.015832601 -0.016173128 -0.016830118 -0.044503365 -0.008901494 -0.014764241 -0.038320605
-0.010691375 -0.0003673195 -0.0096839005 -0.0026115575 -0.018161073 -0.016740298 -0.04397353 -0.014854384
-0.0146786 -0.016066335 -0.016533861 -0.015919026 -0.014323911 0.010493232 -0.018794281 -0.020274391
-0.0107585415 0.011910966 -0.017588308 -0.01876095 -0.013794799 -0.009920883 -0.016741838 -0.011194164
-0.029235886 0.012789553 -0.029339686 0.0030699752 -0.011627871 -0.0005383043 -0.043479666 -0.028605035
-0.007939033 -0.011501921 -0.0024271004 -0.026136944 -0.015808629 -0.011878349 -0.016564041 -0.03457188
-0.030102357 -0.012174537 -0.02028174 -0.005793208 0.0065926877 -0.035344932 -0.05019121 -0.025434017

model/hidden/output_layer/b f4 [256]
00000000: 42af 573c cea4 40bc ed24 003c 3294 e8bb
00000010: c9d8 17bb b3bc 123c 9602 463c 3735 313c
00000020: a93c ffbb 21fa f43b 6438 4cbc 9fb0 333c
00000030: 9edd 4e3b 18f3 6bba e175 333c dc2f 553c
00000040: df70 53bc daf8 ebba b0f7 0ebc 0177 6e3c
00000050: da03 19bc 9cb2 6abc c687 1e39 f159 593b
00000060: 2b62 22bc 1b5d 573c bc53 0fbc 5a1c 82bb
00000070: 85ab dfbb b34f 493c a21c 67bc 75d5 95bb
00000080: a94b 7bbb e6ef 4abc fed7 133c a428 75bb
00000090: 9301 29bc 3507 ba3b fd85 373c 590e 0dbb
000000a0: 6e7f 503c 171a 7e3c dfaf aebb 8425 483c
000000b0: ef7d b63c 1135 16bc 5b88 33bc 06e3 823c
000000c0: 659f 09bc fcf5 41bb 46be 41bc a2c7 f3bb
000000d0: 6189 e9bb 14c4 433c c828 ffbb 695a cb3a
000000e0: 1747 0cbc 6d92 47bb 848e 103c 87a2 e83a
000000f0: 0f12 22bc fdff 2f3c 2532 ed3b 3643 d0bb
00000100: e72c 2e3c a46b c83b 5a8d 4ebc 46f1 1abc
00000110: 4693 26bc a0bd e6bb 0a83 39bc 7aeb 683c
00000120: d6cd 03ba dbd9 6bbc 9140 48bc 819e 4abb
00000130: ea34 f6ba 0a2b d13b 2ed3 f739 33d3 7f3c
00000140: 5cc2 62bc 1f56 273b f6f9 42bb 3744 82bb
00000150: 72bc 413c 20d6 6abc ddbf 07bb b779 2c3c
00000160: 5303 27bc cf7a 43bc 4dbe 9d3c 2008 6d3c
00000170: 3c2a 7c3c 7e14 993b beb7 0cbc 213a 203c
00000180: e646 67bc 3ca0 1fbc 8f16 7e3c 6988 8dbb
00000190: 1c8a 153c 41fe c1bb 5074 2abc acfa 2f3c
000001a0: cb75 25ba 071b 1e3c 5d5a 5dbc 5951 f3b9
000001b0: f4a9 cd3b e0bd 62ba 97bf 423c 4229 723c
000001c0: 1cb8 81bc 4d4a 813c 2284 3cbc 4f9a 32bc
000001d0: b072 53bc e0df d0bb a7a4 5fbb 166a 083c
000001e0: d464 f93b 6d38 9b3b e099 173c 8aee 2dbb
000001f0: d84f 20bb 949b 2b3c 3e99 2d3c 837f 043b
00000200: 1323 f13a e718 2bbc 0fb3 3b3c 4656 ffbb
00000210: e90c 573c de2c 013b 7e66 113c 0890 5dbc
00000220: d223 5dbc 1c65 003c f28d 993c 10e4 4f3b
00000230: f532 373c f44e 5ebc 1d52 2e3c 35ef 87ba
00000240: 7e7e 26bc 4278 083c 1fc8 2c3c d748 3cbc
00000250: b78e 3f3c 3114 0ebc 4bca 81bc 5ab4 a3ba
00000260: c130 24bc 1312 6bbc e063 24b9 211d 3f3b
00000270: 0d15 3fbc 7e40 253b 66d8 dd3b f6ea 033b
00000280: 9dbd 08bb 4a96 283c e473 32bb 2ad4 283c
00000290: 5993 3bbc 0c76 5cbc 5c6a 39bc e7b9 09bc
000002a0: 31a4 a3bb d814 cd3c 6033 883c 737f 2bbc
000002b0: 2e56 f53a b7da 513c 574b 5c3c 6073 6bbb
000002c0: b53a b63b 35a0 143c c631 9a3b c129 85ba
000002d0: ce30 1e3c 43c1 153c 1379 4ebc 395f ebbb
000002e0: 0664 623c 9cdc d6bb 3352 d13b ea7d 4ebb
000002f0: 0796 03bc 2286 48bc e907 183c 1e2d 51bc
00000300: ceaf ef3a 1961 103c 6b8e 633b 61b1 0cbd
00000310: 2c8c 1e3c 5d29 13bb b0f3 fd3b 1ea5 5fbc
00000320: 9e5a 913b 082c 153c d01f fb3a 6ee6 12bc
00000330: 0cb5 bd3c cef2 83bc 9010 c33b ff34 30bb
00000340: c980 ddba 58e3 47b9 14bd 86ba b644 0dbb
00000350: c623 72bc e2f3 51bc 48c9 9c3c 92cc 8e3b
00000360: dce9 4f3c f642 ebbb 8b6c 2ebc 0114 193c
00000370: 51e0 8cba bdcd 4f3c f193 5e3c 753a 33bc
00000380: 9f10 623c b0e7 64b8 f0ab 8a3b 683f 00bc
00000390: e484 39bc e251 f73b fa0a 4cbc eda0 673c
000003a0: d586 3d3c 3a04 1cbb f7d3 e33c 2182 45bc
000003b0: 6fbf c0bb 69f7 62bb 19b0 563c cdd1 053b
000003c0: cd97 663c 8761 44bb 99c8 183c f4dc c0bb
000003d0: e8b3 4c3a 654e 543c cb1c aa3a 70bc ac3b
000003e0: 29aa 393c 0374 58bc 2b7d d33b e0d5 183c
000003f0: 84b3 d33b 3cfc 8a3b e20b 84bb 07e0 173c
0.013164343 -0.0117580425 0.007821304 -0.0070977444 -0.0023169986 0.008956122 0.0120855775 0.01081591
-0.0077892137 0.0074761068 -0.012464616 0.010967403 0.00315652 -0.00090007624 0.0109533975 0.013011899
-0.012905329 -0.0018003241 -0.0087260455 0.01455474 -0.009339297 -0.01432481 0.00015118634 0.0033165182
-0.0099111 0.013144757 -0.008747991 -0.003970665 -0.0068258666 0.012287068 -0.014105948 -0.004572565
-0.0038344658 -0.012386298 0.0090236645 -0.0037408257 -0.010315317 0.0056771287 0.011201379 -0.0021523444
0.012725694 0.01550915 -0.005331024 0.012215976 0.022276847 -0.009167925 -0.010957803 0.015977394
-0.008399819 -0.002959608 -0.01182515 -0.0074395696 -0.0071269725 0.011948604 -0.007786844 0.0015514615
-0.008561871 -0.0030452267 0.008823041 0.0017748632 -0.009892001 0.010742185 0.0072386437 -0.0063556684
0.010630823 0.0061163474 -0.012606943 -0.009456938 -0.010166949 -0.007041648 -0.011322746 0.014216298
-0.00050279254 -0.0143952025 -0.012222425 -0.003091723 -0.001878408 0.0063833045 0.00047268852 0.015614319
-0.013840284 0.002553351 -0.002975104 -0.003975417 0.011824714 -0.014333278 -0.0020713725 0.010527066
-0.010193664 -0.011931135 0.019255782 0.014467269 0.015390929 0.0046716323 -0.008588729 0.009779484
-0.014116025 -0.009742793 0.015508308 -0.00431924 0.009127166 -0.005920202 -0.010403708 0.010740917
-0.0006311803 0.0096499985 -0.013510314 -0.0004640918 0.0062763635 -0.00086495094 0.011886499 0.014780344
-0.01583486 0.0157825 -0.011506112 -0.010901048 -0.012905762 -0.006374344 -0.003412524 0.008326074
0.0076108966 0.004736951 0.009252995 -0.0026539885 -0.0024461653 0.010474104 0.010595618 0.0020217604
0.0018397294 -0.010442949 0.011456265 -0.007792267 0.013125637 0.001971058 0.008874534 -0.013523109
-0.01349731 0.007836606 0.018744443 0.003172163 0.011181583 -0.013568629 0.0106396945 -0.0010370972
-0.010161994 0.008329453 0.010545759 -0.011491976 0.011691741 -0.008671806 -0.015843531 -0.0012489662
-0.010021389 -0.014347571 -0.00015677465 0.002916165 -0.011662734 0.0025215442 0.0067701815 0.0020129061
-0.0020864971 0.010289738 -0.002722972 0.01030449 -0.011448705 -0.013455879 -0.011316862 -0.008406139
-0.0049939384 0.025034353 0.01662606 -0.010467398 0.00187177 0.012808493 0.013445697 -0.0035926923
0.0055611976 0.009071399 0.0047056405 -0.0010159538 0.009655191 0.009140315 -0.0126021085 -0.0071829823
0.013817793 -0.0065570604 0.0063879727 -0.0031508156 -0.008031375 -0.012239011 0.00927923 -0.012767104
0.0018286647 0.008812212 0.003472234 -0.03434885 0.009676974 -0.0022455074 0.007749997 -0.013650207
0.0044358512 0.009104736 0.0019159261 -0.0089660715 0.023157619 -0.01610699 0.005952902 -0.0026887057
-0.0016899343 -0.00019062811 -0.0010279738 -0.0021555847 -0.014779037 -0.012814494 0.019138947 0.004357883
0.012690034 -0.007179613 -0.010645996 0.009343148 -0.0010748004 0.012683329 0.013585077 -0.01093923
0.013797908 -5.4575212e-05 0.0042319223 -0.007827617 -0.0113231875 0.007547603 -0.012453789 0.014137489
0.011567791 -0.002380623 0.027811034 -0.012054951 -0.0058821957 -0.0034632331 0.013103508 0.002041924
0.014074278 -0.0029965357 0.00932517 -0.0058857147 0.00078087905 0.012958144 0.0012978552 0.005271487
0.011332073 -0.013211253 0.00645413 0.0093283355 0.006460609 0.0042414945 -0.004029737 0.009269721

model/a_stream/W f4 [3, 256]
00000000: 4df5 a8bc 2810 4f3c 4fce 7cbd 8e2a 153d
00000010: b7bb e1bc f891 c4bc c615 873d 63b8 3ebc
00000020: 267e 553d 9acc cd3a 0742 8e3c ea28 d1bc
00000030: 9a85 95bc 39a2 91bd 1c08 49bc 6b26 0dba
00000040: b768 0b3d 0eb4 12bd 6f93 b43c 1ffe ebbb
00000050: d0af f13c fecb fa3a 24b1 753c deac 183b
00000060: 2940 453d fd52 81bd 6c1d b33c 7dbb 53bd
00000070: cb34 953d d856 94bc 9ad8 353c c595 dbba
00000080: 349b 55bd ca43 cf3c c7fd 84bc 9eba 3cbd
00000090: 48f2 9e3c 1f0c 8bbd e643 983a b38e a2bd
000000a0: 4258 34bc 51d7 843d 568f 593d 3885 09bb
000000b0: 5bd9 923d 43e4 023c cd6c 723c 5afd 833d
000000c0: 6738 363d 18fb 07bd 0fdf 5d3b 0aae f53c
000000d0: 9cd1 8d3b 394e 803d 895e 4fbd 72b4 2b3d
000000e0: dc08 193d 5647 dc3c caec ae3d de67 13bd
000000f0: f47a 5ebd 91c3 143b 67e5 99bc 59d6 9ebc
00000100: 5cc2 8cbc f9eb e1bc 16da 273b 034a 0ebc
00000110: f256 e1bb c9ba bf3c f34f 2b3c 647d cfba
00000120: 2a6b 1b3d 5b05 4f3b d57a 88bd 27f3 8ebd
00000130: 82d1 d33c 9862 7abd 7c61 82bd ebf8 803d
00000140: 822e 2b3d 14ff cf3c 48ff 73bd 2173 08bd
00000150: 9ac1 9b3d 191d 143a d441 6e3d 1ceb cf3c
00000160: 7bd6 053c 877e 173c 3194 a03d 0383 943b
00000170: 1975 3cbb d350 92bd e94f 363b a8bb fabb
00000180: 2b31 e93b d293 553d 6c75 02bb 0c3b 88bc
00000190: a697 aebc 15da 67bd 5ef0 a63c 2488 903d
000001a0: 7d49 40bd d018 f4bc c6c6 f43b 7788 673d
000001b0: 50dc 72bd ee8f 093d 12ed cabc 62b6 913d
000001c0: 4c6e b33b e85e 953d 911b d3bb e61b 623b
000001d0: 5d03 813c 3216 013c b7d0 a1bd da33 15bd
000001e0: e152 2dbd 5370 83bd 06ac debc f0de de3c
000001f0: eee6 0c3d bb54 5a3c de15 123c 5eeb 393d
00000200: a01c 8dbd cfab 883c e7f3 82bd fedd a1bc
00000210: c3ab b2bb 2f91 cebc b707 2f3d 3ba5 4fbb
00000220: c4a3 0b3a 688f bc3c 52af 213c f604 d4bb
00000230: 6607 8a3b 95d5 3a3c 1bb2 36bd 4549 a43d
00000240: cd6f 083d f340 9ebc 8921 70bc 4e9a 563c
00000250: 14f8 5a3d 165b 543c f0fe 2b3b 9d7e 0dbd
00000260: 7bd0 a0bd 8c4c 613c 476f 003d 0e77 58bd
00000270: deb3 823c f612 293d 425b 563d d7cf 23bd
00000280: 45a4 7b3d 0384 bcbc 76de a1bc 8f5e 4e3d
00000290: d126 a13c 72b5 843c 5f53 3a3c b2ec 65bd
000002a0: 57ba dfbc b9aa 8f3d 5c91 3e3c ccc6 cf3c
000002b0: 6b7f 7e3d 86b4 8cba 9432 a4bc 0465 01bd
000002c0: 72be 493d 4e15 26bd 2c59 40bd 229c 39bd
000002d0: 4a6f c7bc 53ed 23bd 2925 aa3b 6abd 9c3c
000002e0: 70d3 063c b37f 44bb ec89 49bc 8e99 6fbd
000002f0: 2692 cc3c d75b 52bc 2737 90bc 5589 b23b
00000300: 5242 523d 56ac 853d 1ba3 1f3d d244 adbd
00000310: 92aa cfbc 30e3 913c b774 00bd 7c7c 503a
00000320: 8293 95bd 75f6 f1bb 7726 1ebd ade1 103d
00000330: b1f0 b33d a240 dbba 3556 e8bc d85c 273d
00000340: 6423 133d e5fd d4bc 11f3 833d f188 91bd
00000350: 13c8 f23a 440a e5ba d76f 923d 8e5a 6abc
00000360: 8642 3fba 109c a4bd e2a9 12bc 7366 6bbc
00000370: 80b5 213d d234 e6bb c01c 2dbb 4dd7 973d
00000380: f486 a0bb fa38 67bd c74a ab3c 317e 963c
00000390: 773d b03b d5f5 5fbc 6361 bd3b 280c 8abb
000003a0: 1fe2 84bb 02e1 813d e46b a63d e5f6 1cbb
000003b0: 5a4c dd3c 5a32 a93b 3882 6dbc c736 ce3c
000003c0: 16f6 e1bb 1674 b6bc bb5f 4ebd 83f2 e13c
000003d0: b157 86bd ecae 03bc c313 6d3d 3aac 723d
000003e0: 8f58 dfbc 3e21 153b e9e4 e8bc 8e45 743d
000003f0: 545b 16bd ae6e fc3c c3ef 81bd de88 863d
-0.020624781 0.012638129 -0.06172019 0.036417536 -0.02755533 -0.023995385 0.0659595 -0.011640641
0.052122258 0.0015701235 0.017365469 -0.025532205 -0.018252183 -0.0711102 -0.01227 -0.0005384448
0.03403541 -0.035816245 0.022042958 -0.0072019245 0.02950278 0.0019134281 0.014995847 0.0023296396
0.04815689 -0.06314657 0.021864615 -0.051692475 0.0728546 -0.018107817 0.011099005 -0.0016753009
-0.052149966 0.025300879 -0.016234292 -0.04607641 0.019402638 -0.06789421 0.0011616915 -0.07937374
-0.01100737 0.06486381 0.05311521 -0.0020983946 0.071703635 0.007988992 0.014796448 0.06444807
0.044487383 -0.033198446 0.0033854877 0.029990215 0.004327966 0.0626492 -0.050627265 0.041920133
0.037361965 0.026889484 0.08541258 -0.035987727 -0.054316476 0.0022699574 -0.018786145 -0.019389318
-0.017182522 -0.02757834 0.0025612167 -0.008684638 -0.0068768198 0.023404496 0.010456073 -0.0015830216
0.037943996 0.0031588885 -0.06664053 -0.069799714 0.025856737 -0.061129183 -0.0636625 0.06297477
0.0417924 0.025390185 -0.059569627 -0.03331292 0.07605286 0.0005650088 0.058168247 0.025380664
0.008168812 0.009246475 0.07840765 0.0045322194 -0.002875632 -0.07144322 0.0027818626 -0.007651765
0.007116457 0.052142926 -0.0019906415 -0.016629718 -0.021312546 -0.056604464 0.020378288 0.07057217
-0.046945084 -0.029796988 0.0074699847 0.056526627 -0.059292138 0.033584528 -0.024771247 0.07114865
0.005475795 0.072934926 -0.006442495 0.0034501492 0.015748674 0.007878827 -0.07901137 -0.036426403
-0.042315368 -0.064179085 -0.027181637 0.027205914 0.03439992 0.013325865 0.008916346 0.04539048
-0.068902254 0.016683487 -0.06394177 -0.019759174 -0.0054526045 -0.025215713 0.042731967 -0.0031684178
0.0005326832 0.0230176 0.00986846 -0.006470318 0.0042123077 0.011403461 -0.04460345 0.080217876
0.033309747 -0.01931808 -0.014656433 0.013098313 0.053459242 0.01296117 0.0026244484 -0.034544576
-0.078522645 0.01375116 0.031356122 -0.052847914 0.015954908 0.04127785 0.052333124 -0.039993133
0.061435957 -0.023012167 -0.019759398 0.050383147 0.01967183 0.016199801 0.011372416 -0.056133933
-0.027310533 0.07014985 0.011631336 0.025363348 0.062133234 -0.0010734953 -0.020043649 -0.031590477
0.04925389 -0.04054766 -0.04696004 -0.045314915 -0.024345059 -0.040021252 0.005192418 0.019133288
0.008229122 -0.0029983341 -0.01230095 -0.05849605 0.024972033 -0.012839279 -0.017604424 0.0054485
0.05133278 0.06527011 0.03897391 -0.08460392 -0.025349889 0.017808527 -0.031361308 0.000795312
-0.073035255 -0.0073841163 -0.0386109 0.03537147 0.087861426 -0.0016727636 -0.02836142 0.040860027
0.035922423 -0.025999973 0.064428456 -0.071061976 0.0018522762 -0.0017474373 0.07150238 -0.0143038165
-0.00072959845 -0.08037579 -0.008951636 -0.0143676875 0.039479733 -0.0070253396 -0.0026414841 0.07414112
-0.0048989 -0.05645082 0.02090968 0.01837072 0.005378421 -0.013669451 0.0057794317 -0.004212875
-0.004055276 0.06341745 0.08126047 -0.0023950872 0.027013946 0.005163473 -0.014496379 0.025172604
-0.006895791 -0.022272151 -0.050384264 0.027581459 -0.065596946 -0.00803731 0.057880174 0.05924628
-0.027263908 0.002275541 -0.028429465 0.059636645 -0.03670819 0.030814495 -0.06344559 0.06569074

model/hidden/mid_rec_layer/upward/W f4 [80, 86]
00000000: a643 a1ba 1929 a03c 2920 583c 6a79 98bb
00000010: 8e6a a93c 5f54 28bb 203e 993b 2692 76ba
00000020: d223 1fbd 0ad7 233c dcba 043c 0ad7 233c
00000030: 20d8 383d 6a0a 1f3d 0ad7 233c 17b9 083c
00000040: fefd 653d 0ad7 233c 2a00 c1bc 985d 1a3d
00000050: 0ad7 233c aa23 49bb d709 433d 0ad7 233c
00000060: d8de 3bbd 8201 fc3c 0ad7 233c 2dd5 803c
00000070: 7919 733d 0ad7 233c 66ed 563b 1dcb 5d3d
00000080: 0ad7 233c 8f5a cbbb f0d1 433c 0ad7 233c
00000090: f8bd 1e3c 6c58 2c3d 0ad7 233c 3c80 05bd
000000a0: ea84 eabb 0ad7 233c 4893 22bd b15c 1d3d
000000b0: 0ad7 233c 3148 31bc 8880 863c 3853 293d
000000c0: 3a31 16bc a2ba 373a e777 783c 4057 a03c
000000d0: ead0 da3c a6f1 293d 7a78 e2bb 0d24 14bc
000000e0: 0ad7 233c b97a b8bc ab33 5d3d 0ad7 233c
000000f0: c091 a53c baf0 3e3d 2c02 a1bb 6f50 903c
00000100: fe46 15bd 5400 503d 5aaa 353d 8b21 103d
00000110: 3f7a 89bc 8606 b53b 4a11 02bd 0ad7 233c
00000120: b48d 34bd 92de d73c 0ad7 233c 79fe a63b
00000130: 42f0 b9bc bf01 243d 69d7 353c fb0d 84bd
00000140: c335 28bc 0068 973c 9138 43bd 9865 abbc
00000150: 26fe f43c b6b5 57bd 8ecf 37bb fd07 7abd
00000160: e92b aabd 65da 903c f37c 07bd 8836 1cbc
00000170: 6938 5ebd da2b 39bc 5562 05be 0ad7 233c
00000180: 279e 80bd 0ad7 233c 4557 37bd 3fb9 d8bc
00000190: 0ad7 233c a66a eebc 8579 e8bc 0ad7 233c
000001a0: 18e2 7039 5c08 3ebd 0ad7 233c a831 6f3d
000001b0: 5afc 1ebd 0ad7 233c 306b 213e 83f9 17bd
000001c0: 0ad7 233c 544d 94bc 1e04 7fbd 0ad7 233c
000001d0: 44ce 73bb 5ee8 3dbd 0ad7 233c ef5c ce3c
000001e0: a7af cbbd 0ad7 233c 7489 04bd 4a46 e7bc
000001f0: 0ad7 233c cf26 d63d 1615 a7bc 0ad7 233c
00000200: a5bd 5a3d 1c35 53bd 0ad7 233c 7488 0e3d
00000210: 364e 95bd 4984 80bd 9705 873d 6599 e0bd
00000220: 8a63 90bd 13d0 c7bd 7483 d9bd 8f1c afbd
00000230: b71f 9e3d 002b a93b 0ad7 233c ed73 1b3d
00000240: 1684 9cbc 0ad7 233c 9876 c4bb 4b43 80bb
00000250: 6dc2 053d 7321 a3bd dfed 12bd 0fef 02be
00000260: a612 e5bd 3cb8 483c ed92 083d cc4e 4a3d
00000270: 7429 e93c 0ad7 233c 1cd0 9b3d b0a1 a2bc
00000280: 0ad7 233c 9117 d7bc 854b 1b3d 24f8 d3bd
00000290: e7f5 97bb 5ca8 423d d502 7e3d 276a 15be
000002a0: d75a 6c3d da53 3f3d 43d4 b8bd 0245 013e
000002b0: d038 5bbd ecac 98bd b5da ccbd 0528 aebc
000002c0: 39df aebd 4f5a f6b9 0236 8cbd ffb5 8dbd
000002d0: 11b6 09be 0ad7 233c 04ac a3bd 0ad7 233c
000002e0: 3e67 e7bc c998 dfbc 0ad7 233c 82fa 2238
000002f0: 53c1 0abd 0ad7 233c ce14 b3bc b9a3 bfbc
00000300: 0ad7 233c 20c9 543c 5b52 33bd 0ad7 233c
00000310: 8255 fb3d c949 14bd 0ad7 233c dd1b 1fbd
00000320: 4f5f 93bd 0ad7 233c fadb 19b8 4f27 57bd
00000330: 0ad7 233c ac06 62bd 67cc 94bd 0ad7 233c
00000340: add5 f7bc f2f7 e5bc 0ad7 233c 1914 be3d
00000350: 55d9 50bd 0ad7 233c 985e e63c 793c 40bd
00000360: 0ad7 233c 05f2 8d3c 0eef 66bd 3697 8dbd
00000370: 3849 403d d580 ccbd 2f60 85bd e7a9 cebd
00000380: 226f adbd 72b3 b1bd fc35 a33d 67f9 acbc
00000390: 0ad7 233c 009c 203b e29c 00bd 0ad7 233c
000003a0: 42d5 81bc 1184 51bc 4a82 933b f1e2 a5bd
000003b0: ed1e 84bd 9a1a 07be fe2c e2bd 99f7 f63b
000003c0: 442f dc3c 8c01 e53b 02a8 3f3b 0ad7 233c
000003d0: acb9 9a3d afcb 23bd 0ad7 233c eddf 5cbc
000003e0: f70e 2b3b 4e17 d0bd e250 b0bc 3986 18bd
000003f0: 9a0d eb3c d633 0fbe d72c 2b3d be96 cd3b
-0.0012303486 0.019550847 0.013191261 -0.0046531456 0.020680692 -0.0025685055 0.0046765953 -0.0009405933
-0.03885252 0.01 0.008101191 0.01 0.045127988 0.03882829 0.01 0.00834491
0.05615043 0.01 -0.023559649 0.037686914 0.01 -0.0030691423 0.047616806 0.01
-0.045866817 0.030762438 0.01 0.01572665 0.059350464 0.01 0.003279531 0.054148782
0.01 -0.006205864 0.0119519085 0.01 0.009688847 0.042076513 0.01 -0.032592997
-0.007156958 0.01 -0.03969124 0.038418476 0.01 -0.010820434 0.01641871 0.04133913
-0.00916701 0.00070087065 0.015165306 0.019572854 0.026710946 0.04149022 -0.0069113346 -0.009041798
0.01 -0.022519456 0.054004353 0.01 0.0202111 0.046616293 -0.004913589 0.017616479
-0.036444657 0.050781563 0.044351913 0.03518824 -0.016781924 0.0055244593 -0.03175477 0.01
-0.04408045 0.026351247 0.01 0.0050962535 -0.022697572 0.040040728 0.011098721 -0.06447979
-0.010266724 0.018482208 -0.047661368 -0.020922467 0.029906344 -0.052663527 -0.0028047296 -0.061042774
-0.083091564 0.017682264 -0.033078145 -0.009534486 -0.054253016 -0.011301959 -0.13025792 0.01
-0.06280165 0.01 -0.04476096 -0.02645552 0.01 -0.029103588 -0.028378258 0.01
0.0002297241 -0.04639469 0.01 0.058396965 -0.03881488 0.01 0.15763545 -0.037103187
0.01 -0.01810328 -0.062259786 0.01 -0.0037201801 -0.04636418 0.01 0.025190799
-0.099456124 0.01 -0.032357648 -0.028231759 0.01 0.10456621 -0.020395797 0.01
0.053403515 -0.05156432 0.01 0.0347981 -0.07290308 -0.062752314 0.06592863 -0.10966758
-0.070502356 -0.09756484 -0.10620776 -0.08550369 0.07720893 0.0051625967 0.01 0.037952352
-0.019105952 0.01 -0.005995583 -0.003914272 0.032656122 -0.07965364 -0.035871383 -0.12786506
-0.111851975 0.012250956 0.033343244 0.049391553 0.02846215 0.01 0.07608053 -0.01985249
0.01 -0.026256355 0.037913818 -0.103500634 -0.004637468 0.04752384 0.06201442 -0.14591275
0.05770382 0.046710826 -0.09024861 0.1262398 -0.053520977 -0.07454857 -0.100026526 -0.021259317
-0.0853867 -0.00046988062 -0.06846239 -0.069194786 -0.13448359 0.01 -0.07991794 0.01
-0.028247472 -0.027294533 0.01 3.8857113e-05 -0.033875775 0.01 -0.021860506 -0.023393499
0.01 0.012987405 -0.043779712 0.01 0.12272169 -0.03620318 0.01 -0.038844932
-0.07195913 0.01 -3.668291e-05 -0.052527722 0.01 -0.055182144 -0.07265549 0.01
-0.030253256 -0.028072331 0.01 0.09281177 -0.050988514 0.01 0.028121278 -0.04693267
0.01 0.017327318 -0.056380324 -0.06913607 0.046944827 -0.0998551 -0.06512486 -0.10091
-0.084684625 -0.086768046 0.07969281 -0.021115018 0.01 0.0024507046 -0.031399615 0.01
-0.01584876 -0.012787835 0.0045016157 -0.08099926 -0.06451211 -0.13193741 -0.11043738 0.00753684
0.026878007 0.00698871 0.0029244428 0.01 0.07554945 -0.03998917 0.01 -0.013481122
0.002610145 -0.10160695 -0.021522943 -0.03723738 0.02869301 -0.13984618 0.04179081 0.0062740734

model/hidden/mid_layer/W f4 [256, 256]
00000000: e973 86bb df70 1dba e22f 4cbb 0222 f4ba
00000010: baba 2abb 91ed 8ebc 1d2a 38bc c656 25bc
00000020: d20a 553c b4db 2abb dc0f 8dbc 83a1 5cbc
00000030: 42ad afbc 294b 97bb 79fd 93bc 31bf eebc
00000040: 26b0 a6bc 9277 3bbc c229 aabc ebbd 3f3c
00000050: 6ba3 efbc e459 8a3b ed0a e0bb cf3f 9dbb
00000060: 2585 d8bc 7ccc ddbb c6b9 5d3c b03f 1b39
00000070: 19d3 82bb e843 d8bb e892 81bc ec6c 533b
00000080: 888d 74bc 4cbc 07bb 0c85 d83a 302b 88bc
00000090: fde8 ebbb ce8f a83b d279 3bbb cfa5 89bc
000000a0: 5417 20bc 3462 21bc 8fcb 90bc cf6c 83bc
000000b0: 3144 67bb ac4f 033b 7846 16bc 4dc9 893b
000000c0: acf5 2b3c 6321 c73b cd19 adbb 1524 3c3b
000000d0: 4680 20bc 5cc9 54bb f731 68bb a207 d4bc
000000e0: 94ed 09bb 779a 22bc c200 45bc a989 e03a
000000f0: 24d5 61bc d615 cd3b cedb 14bc 8016 3dbc
00000100: 6564 79ba 8639 76bc 05b8 89bb 3b23 2e3b
00000110: 760c 5cbc de5f 8cb8 6eca 0c3a 3a8a 3abc
00000120: 0419 b13b 050d 8fbc 10b3 4abc 2a51 2abc
00000130: 3abf deba 9685 9b3a 0c08 88bc 632b 3cbc
00000140: 24ac 133b dec8 8bbb a87b ee3b 772e 45bb
00000150: dfb3 38bc d67c 3abb c1c4 1bbc 16a4 95bb
00000160: 6842 41bc 6760 0bbc 8a31 07bc ba51 43bb
00000170: 6eee 583b 9eac 54bc 41d4 49bc 4c2a 843c
00000180: bdd4 a63a 63e5 3cbd 0d20 4a3b f9f4 86bc
00000190: ef0d 48ba f790 b5bc 54cd 143c 80c2 3dbb
000001a0: 753e 6cbc 1423 5abd b8c1 8a3c 07a6 9abc
000001b0: 2695 d6bb 2c0b b3bc b7ba aaba 1aec 99bb
000001c0: 1368 bebc 8943 38bc fca4 873c 4e33 27bc
000001d0: f356 b5bb 3b46 bebb e5cc 2bbb 2a16 cf3a
000001e0: 21eb 733b 1654 fe3b 4e0e d0bb de1c bdbb
000001f0: b769 d0ba ac62 16bd e7e5 49bc 670a 35bc
00000200: 5c57 b4bb a10a 0abc 2979 1dbc c6e4 543b
00000210: 23a1 eebc bc11 5fbc 2e8f 36bc 9925 083c
00000220: 6311 54bc 636a 203a 6b91 983b 7221 4cbc
00000230: cb98 3cbb a474 d9bb 51c1 023c ae5b 183c
00000240: c4da 39bc 0c19 39bc af0b 77bb 0801 efba
00000250: 7c3a 38bb 4a9c a63b 5689 26bb 419e 65bb
00000260: 668c ebbb 1659 c1bc 05d6 c6ba f866 b2bc
00000270: 1481 78bc 4c0e 243c 562d 783b 3174 9abc
00000280: 5769 e43b df99 ba3a 991c b23a e471 4d3c
00000290: 8e0f 1d39 cc8d 13bc 5e79 293c 5de2 f5ba
000002a0: a6e0 4ebc a701 32bc 1625 a03c 02fd 98bb
000002b0: eb92 603b b4ea aa39 fc2f 5cbc f824 fb3b
000002c0: 4997 06bc 1143 a4ba e5ef 463b 79ed 273b
000002d0: 63e5 c4ba 538c 90bc 9413 63bb 34da e2bb
000002e0: 9456 f8bb 9662 84bc 2220 02bc cc7e 96bc
000002f0: 6f14 febc 81c2 a7bc e6dd c5bb 9cf5 11ba
00000300: d3a2 6b3c ce8a 3f3b 2374 183c 6a1d 8fbb
00000310: 9f57 21bc c27c 743a f96b cbbc 311b 633c
00000320: a83e cbbb b93c bfbb 9775 e5bb a9f3 09bd
00000330: 94b7 47bb a6ed 99bb 161e bbbc 2eba 47bc
00000340: bb11 6b3b 34d4 88bb 23e6 45bc 60a1 99bc
00000350: 8e10 70bc 8491 46bb 2ecb b3bc 1ee3 61bc
00000360: f763 b3bc 03f0 08bc 971b 84ba d3f0 52bc
00000370: 20a5 babb ed5c 883a e8df f4bc 8e3c 9bbb
00000380: 010b 683b 744b 6dbc f348 93bc 7278 b83a
00000390: 1787 403b d363 9abb 1d02 90bb 2b96 01ba
000003a0: fbdf 10bb 22bb 1fbd 30c2 8cbc 0e8e c7ba
000003b0: 268b 763b 3d03 a3bb abf1 ab3b c4e4 81bc
000003c0: ad7a 3bbb b9af 22bc 4e7b 17bb 436e e0bc
000003d0: 6905 5abc c118 87bb b0a8 c5bb 60da 3cbd
000003e0: 66b8 7ebc 30cd bbbb a970 983b f0c4 96bc
000003f0: 6408 10bc 2ee7 febb 4974 d5bc 0b83 113b
-0.004103173 -0.0006005894 -0.003115647 -0.0018625858 -0.002605124 -0.017447265 -0.011240509 -0.010091489
0.013003068 -0.0026070895 -0.017219476 -0.013466242 -0.02144492 -0.004617114 -0.018065201 -0.029143902
-0.020347666 -0.011442082 -0.020771865 0.011702995 -0.029252728 0.0042221416 -0.00683724 -0.0047988663
-0.026430676 -0.006768761 0.013533061 0.00014805677 -0.00399245 -0.006599892 -0.01581712 0.0032260967
-0.014926322 -0.00207116 0.0016519143 -0.016622156 -0.007199405 0.005144096 -0.0028606546 -0.016802697
-0.009771187 -0.009850074 -0.01767519 -0.016043095 -0.0035288448 0.0020036502 -0.0091720745 0.004204905
0.010495584 0.006076978 -0.0052826167 0.002870803 -0.009796208 -0.0032468652 -0.0035430172 -0.025882546
-0.0021046149 -0.009924523 -0.012024106 0.001713087 -0.013783727 0.0062587066 -0.009085609 -0.011541009
-0.0009513556 -0.015028363 -0.004202845 0.0026571292 -0.013430705 -6.693577e-05 0.00053707405 -0.011385495
0.0054045934 -0.017462263 -0.012371793 -0.010395328 -0.0016994246 0.0011865373 -0.0166054 -0.011484954
0.0022533024 -0.0042658886 0.0072779246 -0.003008751 -0.011273353 -0.0028455756 -0.009507359 -0.0045666797
-0.011795618 -0.008506871 -0.008251557 -0.0029803351 0.00331011 -0.012980608 -0.012318672 0.01613345
0.0012728196 -0.046117198 0.0030841858 -0.016474234 -0.0007631471 -0.022163851 0.009082157 -0.0028955042
-0.014419188 -0.05325611 0.016938075 -0.018877996 -0.0065485416 -0.021855913 -0.0013025616 -0.004697335
-0.023242986 -0.01124657 0.016558163 -0.010205103 -0.005534047 -0.005806712 -0.0026214656 0.0015799452
0.0037219005 0.0077614887 -0.0063493615 -0.0057712635 -0.0015900646 -0.036715195 -0.012322879 -0.011049843
-0.005503578 -0.008425386 -0.009611406 0.0032484992 -0.02912957 -0.013615068 -0.011142535 0.008309745
-0.012943598 0.00061193685 0.004656007 -0.012459146 -0.0028777595 -0.006636219 0.007980661 0.009299202
-0.011343662 -0.011297476 -0.0037696173 -0.001823456 -0.0028111031 0.005084549 -0.0025411448 -0.0035036954
-0.0071883677 -0.02360205 -0.0015169984 -0.021777615 -0.015167493 0.010013174 0.003786882 -0.018854233
0.0069705653 0.0014236531 0.0013588845 0.012539361 0.00014978481 -0.009005975 0.010343878 -0.0018759478
-0.012626803 -0.010864652 0.019548934 -0.0046688328 0.0034267257 0.00032599794 -0.013439175 0.007664319
-0.00821478 -0.0012532194 0.003035539 0.0025623722 -0.0015021976 -0.017645037 -0.003464912 -0.0069229845
-0.0075786803 -0.01616029 -0.007942231 -0.018371008 -0.031015603 -0.020478489 -0.0060384152 -0.00055679097
0.014382082 0.002922702 0.009305033 -0.00436752 -0.009847551 0.00093264517 -0.024831759 0.013861463
-0.0062025376 -0.005836096 -0.007002543 -0.033679638 -0.0030474411 -0.0046975194 -0.022841495 -0.012190385
0.0035868722 -0.004175687 -0.012078795 -0.018753707 -0.014652384 -0.0030299136 -0.02194747 -0.013787059
-0.021898253 -0.0083580045 -0.0010079023 -0.0128748 -0.005695954 0.0010403671 -0.029891923 -0.0047374433
0.003540695 -0.014483321 -0.01797912 0.0014073981 0.0029377395 -0.004711607 -0.004394783 -0.0004943336
-0.002210616 -0.038996823 -0.01718244 -0.0015224831 0.003761956 -0.0049747513 0.005247315 -0.015856154
-0.0028607056 -0.009929591 -0.0023114267 -0.027396327 -0.013306954 -0.004122824 -0.006032072 -0.046106696
-0.015546894 -0.0057312474 0.004652102 -0.018404454 -0.008791063 -0.0077790236 -0.026056426 0.0022203352

model/a_stream/b f4 [3]
00000000: c2c4 a83c 18a4 3fbb 7802 0dbc
0.020601634 -0.0029242095 -0.008606546

model/hidden/mid_rec_layer/upward/b f4 [80]
00000000: 922f 84bb 85a0 33bd 6dc4 6c3f 21ee 31bd
00000010: 3e38 84bb dd43 25bd 40ff 6d3f 6af7 24bd
00000020: c7fb 5cbb 3286 58bd dcf3 6e3f 33de 5abd
00000030: 1a32 8abb c665 2abd 91ec 6b3f 57a8 29bd
00000040: 7b2b 86bb 970c 33bd 871c 6d3f d084 31bd
00000050: 38d4 87bb 06cf 1cbd f751 6d3f dd0b 1dbd
00000060: 16aa 8ebb d2d6 4fbd 60ee 6d3f 1ce2 4dbd
00000070: b697 5fbb 410f 65bd 5c20 6e3f 63b7 66bd
00000080: 041f 7cbb ae45 60bd f589 6e3f c060 60bd
00000090: d62d 90bb 9d5f 56bd c770 6c3f 8986 53bd
000000a0: cf67 8ebb 8daf 3bbd dd67 6c3f f647 39bd
000000b0: 25df 8dbb 2e13 2bbd 0bde 6d3f 4c90 2abd
000000c0: e006 b0bb a1b5 11bd 877b 693f bb09 13bd
000000d0: 636d 95bb d8d8 13bd 7bfe 6c3f 4c2d 14bd
000000e0: b74e 99bb 576b 16bd afaf 6c3f 00e8 16bd
000000f0: 3b93 85bb 3454 1bbd f1c8 6e3f c1af 1bbd
00000100: 120b 81bb 7681 19bd be48 703f a437 1abd
00000110: e210 88bb d743 33bd dd03 6d3f c6d9 30bd
00000120: 1e2d 9abb a545 1fbd 7e12 6b3f ecf6 1ebd
00000130: 385f 89bb 6176 1ebd f2ce 6e3f d786 1ebd
-0.004033991 -0.043854255 0.9248722 -0.043439988 -0.004035025 -0.040347923 0.92967606 -0.040275015
-0.0033719407 -0.052862354 0.9334085 -0.053434562 -0.0042173984 -0.041600965 0.92157847 -0.041420307
-0.0040945387 -0.04371318 0.92621654 -0.04333955 -0.0041451715 -0.03828337 0.92703193 -0.03834139
-0.004353772 -0.050741978 0.92941856 -0.050264463 -0.0034117526 -0.05592275 0.93018126 -0.056327235
-0.0038470635 -0.05475395 0.93179256 -0.054779768 -0.0043999953 -0.052337278 0.92359585 -0.051641975
-0.004345871 -0.045821715 0.9234598 -0.045234643 -0.0043295794 -0.041766338 0.92916936 -0.04164152
-0.0053719133 -0.035573605 0.9120411 -0.03589795 -0.004560159 -0.03609547 0.92575806 -0.03617601
-0.004678573 -0.03672346 0.9245557 -0.036842346 -0.004076389 -0.0379221 0.9327536 -0.03800941
-0.0039380873 -0.03747698 0.93860996 -0.03765072 -0.004152403 -0.04376587 0.9258402 -0.043176435
-0.0047050854 -0.038884778 0.9182509 -0.0388097 -0.004192259 -0.038687114 0.93284523 -0.038702812

model/hidden/input_layer/W f4 [256, 86]
00000000: a869 d33c 0b20 2dbc 7413 103b e5c3 30bd
00000010: 3c70 933c 316c 013d 1fd5 d7bc 71a6 a5bd
00000020: 321a 9ebb 0fc3 ab38 f247 babd 5719 683c
00000030: 28f5 d5bc 8c7f 0dbd 6016 34bc 34fe bf3c
00000040: edf8 94bc 9829 d9bb ac8f 77bd 112e 61bd
00000050: 8a46 a83b 66e0 4a3d 502d 4bbd 0cd0 41bc
00000060: 15bd 21bc e1e3 95bc 32e2 a83b 3a3a ef3c
00000070: 81b7 4dbd 579c 9b3c 7745 d03c 942d b7bc
00000080: 8d13 e13c 0893 51bd 6ea4 97bd 56b8 32bb
00000090: e4ff bbbb 598b f8bb 951a d83a 6e03 50bd
000000a0: a331 133d 57ef 26bc 1a37 403d e121 55bc
000000b0: a89a fe3b ff55 b93d 7a17 823b 2985 5ebd
000000c0: 3775 1c3d bf70 693d 9640 11b9 0252 59bd
000000d0: 8f7e 9fbc 2d79 eebc fb68 2e3b 02fa 833d
000000e0: 8571 bcb9 12a1 dfbb 3a0b 93bd 8a97 9e3a
000000f0: bfb9 47bb 9c40 85bc 9216 113b 85d8 adbc
00000100: 229b 9c3c bd5a a6bc 52cf ef3a a12e b1bc
00000110: a371 e6bc 1e7f edbd 41e7 45bd d095 29bc
00000120: c5a9 a63a ad34 61bd 3fb6 dc3b c9e6 393c
00000130: 264c b7bd dd50 83bd 6c62 febb 68f5 f73c
00000140: 5964 a2bb a6d5 e33c 8c81 26bd 6f4c 7b3d
00000150: 0e91 1bbd 4503 7d3b f227 a8bc 14c2 9bbc
00000160: 0144 59bb c9f7 9fbc 2183 a3bc cb85 5ebc
00000170: 979d afbc b537 18bd 3494 15bc 3b4d 65bb
00000180: c5d2 00bd 02ac d03b 0024 4abc c58c 69bc
00000190: 8e37 4cbc dd18 65bb 3c56 a0bc f3ff 0c3c
000001a0: c57e cdbb 2669 883c a494 deba 1ff7 ebbb
000001b0: 91ad 9fbc 1c8a 873b 98e4 06bc 03c5 29bd
000001c0: 3e74 aabb b48e 70bb 246e 7e3c 7f86 c1bb
000001d0: b5fe 8fbc b0b7 cebb 0ee4 f0bb 5150 cdbb
000001e0: 480c d7bc 96f8 cabb 6275 58bc eb4b 093c
000001f0: 4132 ed3b 0231 673b c61d bfbc 1b6d b2bb
00000200: 1f63 643b a059 a9bc 2125 673b f958 45bc
00000210: 407d 98bc 7e8a edbc ed4b f73b 73d8 cbbc
00000220: 9749 a9bc 5884 893c 3359 bdbb da70 ccbb
00000230: ac4d 44bc 1818 c8bc 659b 823c 00d1 3f3c
00000240: d62c c2bc 1455 723c 2c32 fc3b b81a 563c
00000250: bca2 97bc 1ca8 e73b 8666 92bc 47fb 0d3c
00000260: 443c 223c 0c48 053b fe55 5fbc 8c02 7fbc
00000270: c5c5 febb e86a 8abb 966b 0dbc 3171 aabc
00000280: aa40 3d3b 68fc 9ebc c976 603a e181 3b3c
00000290: 6cb0 d8bc 6885 e5bc 0591 e6bc 9b62 2e3c
000002a0: c2e2 87bc 76b2 f4bc 7bb0 83bc 27e0 f7bc
000002b0: 68a2 84bc 2f9f 56bc 1e4b a5bb 88e9 b43b
000002c0: 343b 01bd 47e1 51bc 95fd 0cbd 17e3 8e3b
000002d0: 2e00 59bd 96e3 123b 3d30 e93c 58dd 52bc
000002e0: cd00 953a a247 98bc 0999 1a3c 2671 313c
000002f0: 3bf9 bc3c b00b aa3c 03f5 3bbd 8e93 b5ba
00000300: e2d9 d3ba b3fb 0fbd 1990 f0bb cc3c 26bc
00000310: 34a7 e73b 06cf d4bc f40c f1ba a8f0 4d3b
00000320: beda 71bd 0aba 94bc 8381 14bd 5aec 0d3c
00000330: 9a20 513b 1111 7b3d 2645 0dbd 2e48 1c3c
00000340: 744d 2bbd 2a19 13bd 09d2 823c e2cf 05bd
00000350: fc5e a6bc 3312 d2b9 3729 84bd 7dea 023d
00000360: 98fb a4bb b445 c4bc e9f0 5a3c fc70 b8bc
00000370: 1f9a 8cbc 361c 8dbd c3f2 623b 38d1 a2bc
00000380: 3194 363c 3581 80bb a645 2bbd 2e12 9fbd
00000390: 2f11 39bb 5870 0dbd 455e 05bd fea7 3d3c
000003a0: cd92 343d e289 a8bc 4cde 50bc cd30 653a
000003b0: 6f3e 81bd f01b fbbc c3ab 17bd 51ac 6bbc
000003c0: 8685 f8bc 016c 79bc 20b1 4cbd 5f69 173c
000003d0: 5548 8a3d b404 e33b 42df e4bb de4c 823d
000003e0: c124 593c bee5 9bba 4048 2cbc 3b13 273c
000003f0: ce9f 433d 9fd0 2bbc 2e47 79bc 55a3 09bd
0.025807217 -0.010566722 0.0021984251 -0.04315557 0.017997853 0.03159732 -0.026346741 -0.08088387
-0.0048249 8.190248e-05 -0.09095754 0.014166198 -0.026117876 -0.034545466 -0.010991663 0.023436643
-0.018185103 -0.006627273 -0.06043975 -0.054975573 0.005135362 0.04953041 -0.04960376 -0.011829387
-0.009871741 -0.018297138 0.0051539177 0.02920257 -0.05022383 0.018995447 0.025423748 -0.0223606
0.027475143 -0.05116561 -0.07404409 -0.0027270517 -0.0057372916 -0.007584971 0.0016487414 -0.05078452
0.03593601 -0.010188899 0.04692755 -0.013008566 0.0077699013 0.090496056 0.003970084 -0.05432621
0.038197722 0.05699229 -0.00013852338 -0.053056724 -0.019469528 -0.029110515 0.0026612866 0.064441696
-0.00035942733 -0.006824621 -0.07179876 0.0012099606 -0.0030475704 -0.01626616 0.0022138697 -0.021221409
0.019116942 -0.02030694 0.0018296039 -0.02162868 -0.028130358 -0.11596511 -0.048316244 -0.0103506595
0.001271539 -0.054981876 0.0067355926 0.011346527 -0.08950071 -0.06411908 -0.0077631976 0.030268386
-0.00495581 0.027811836 -0.04065089 0.06135219 -0.03798013 0.0038606685 -0.02052686 -0.019013442
-0.0033152106 -0.019527333 -0.019959988 -0.013581703 -0.02143745 -0.0371625 -0.009129573 -0.003498866
-0.031451005 0.006368161 -0.012337685 -0.0142547535 -0.012464417 -0.0034957447 -0.01957237 0.008605945
-0.0062712156 0.016651701 -0.0016981554 -0.00720109 -0.019491943 0.004136337 -0.008233212 -0.04144765
-0.0052018454 -0.0036706151 0.015529189 -0.0059059258 -0.017577508 -0.0063085184 -0.007351405 -0.006265678
-0.026250973 -0.0061941845 -0.01321158 0.008379917 0.0072386567 0.0035277014 -0.023329627 -0.0054451353
0.003484912 -0.02067262 0.0035269933 -0.0120451385 -0.018614411 -0.028996702 0.007546893 -0.024883484
-0.020664973 0.01678674 -0.0057784556 -0.006239039 -0.011981409 -0.024425551 0.015943239 0.011707544
-0.02370302 0.014790792 0.0076964106 0.013067894 -0.018510215 0.0070696007 -0.017871153 0.008665866
0.009902064 0.0020337133 -0.013631342 -0.015564572 -0.007775041 -0.00422417 -0.0086316075 -0.020805927
0.0028877654 -0.019407466 0.0008562622 0.01144454 -0.026451312 -0.028017715 -0.028145323 0.010643627
-0.016587619 -0.029870253 -0.016075363 -0.030258251 -0.016190723 -0.013099476 -0.005044355 0.005521003
-0.0315506 -0.012810058 -0.034421522 0.0043605673 -0.052978687 0.0022413484 0.028465385 -0.012870155
0.0011368037 -0.018588845 0.0094359005 0.010830199 0.023068061 0.020757526 -0.04588796 -0.0013853179
-0.0016162957 -0.03515215 -0.0073413965 -0.010146331 0.0070694927 -0.025977623 -0.0018390701 0.003142396
-0.0590465 -0.018155117 -0.036256324 0.008662308 0.0031910301 0.061295573 -0.034489773 0.009538693
-0.041821912 -0.03591267 0.015969293 -0.032668956 -0.020308964 -0.0004006788 -0.064531736 0.031961907
-0.005034875 -0.023959018 0.0133631015 -0.022514813 -0.017163334 -0.068901464 0.003462956 -0.019875154
0.01114373 -0.0039216527 -0.04181447 -0.077671394 -0.0028239002 -0.034530967 -0.032560606 0.011575697
0.044085313 -0.02057356 -0.012748312 0.00087429286 -0.063107364 -0.03065297 -0.03702904 -0.014384345
-0.030337106 -0.015223504 -0.049973607 0.009241431 0.067520775 0.006928051 -0.006984622 0.063623175
0.013253392 -0.001189403 -0.010515273 0.010197456 0.047759824 -0.010486751 -0.0152147245 -0.03360303

model/v_stream/W f4 [1, 256]
00000000: b9f0 19bd 3bac 423d 62ad 0e3d 54d4 e93c
00000010: 1c95 cabc a23b 52bd 3087 acbc 8f9a 3abd
00000020: a054 463c 5dd6 8fbc 4f91 0a3d 15c5 393c
00000030: 344d 0bbd 4aa7 073d 5d6c 1abd 7c90 49bd
00000040: 296b 31bc 613b 393d 18cc 1a3d 4d6d 56bd
00000050: a9a7 103c ac05 533d 21ab c4bc 1059 caba
00000060: 7cc0 52bd e5a3 023d 100b 2c3d 280d 3d3d
00000070: 8009 04bd 3e84 15bd f725 223d 6c3d ad3c
00000080: 107b 3e3d 36bd 613c 311f 38bd f623 c53c
00000090: fe3d 583d 4c1f 6f3c ae87 1fbd 62d8 433c
000000a0: efac 4fbd 0a6e 1f3b 4b68 27bd 6209 28bd
000000b0: fb3a 2c3c fc9c 4e3d 348a 2d3d 3298 d5bc
000000c0: 2895 f03c b1b1 e7bc 588b 583d 67ad cc3c
000000d0: aa8f ee3c 14ae d2bc 81c7 f43c a66e 89bc
000000e0: 6a7d 013d 41fc a03c 62bb afbc 2451 f03c
000000f0: 5d60 593c 786d c0bc 4930 e1bc 2747 473d
00000100: 7f70 46bd 7d81 27bd 1d71 3d3d 3c08 4c3d
00000110: f2b2 353d 1f9a f03c 34f6 393d cb1c 49bd
00000120: f61a c93c e3f5 1e3d c5ed 013d efc4 043d
00000130: 71a1 193d d695 353b 78eb 173d b732 84bc
00000140: f77a 27bd 5e6d 5ebc 8254 0f3d 59b9 f1bc
00000150: 320d bebc 29dd 2a3d 4089 12bd ba75 43bd
00000160: 33c1 d53c 1ae7 303d ecec c23b 6334 7cbd
00000170: dd6b 4ebd 0de0 d43c fa56 1d3d 46cc 1ebd
00000180: 6bbe 6a3d 2ce1 65bb 4aac 6dbd fab5 233d
00000190: fd41 88bc 81d5 d73c 628b 213d cebc 72bc
000001a0: ccc5 2e3d 3fe9 20bd 1a8a 423d f7f5 03bd
000001b0: 6de8 ccba ec08 23bc df30 21bd 1064 f2bb
000001c0: 8b78 193d 4c43 6cbc dc5a 5a3d 7641 5b3d
000001d0: afd0 303d 1e3a 223d e819 a93b 7cf0 91bc
000001e0: c143 243d bfde df3c 646a 25bd 652f f7bc
000001f0: 06a1 103d 9f3b 50bd e1cf 51bd 395c 0fbd
00000200: 2500 143d ad75 263d d014 d23c 06cc 363d
00000210: 915e 34bd f778 223d 7236 cb3c 27f1 503d
00000220: cfe5 643d 4717 4abd e155 53bd 1594 0abd
00000230: 4463 3abd 51db 6d3d 6ec0 943b 3af9 91bb
00000240: 43ee 893c 18ea 26bd 594e 45bd f909 403d
00000250: dbe6 edbc 17f2 1d3d 15e4 4d3d 6a23 b03a
00000260: 0ba2 f33c b09f 5a3d 23c3 23bd 4aee 8b39
00000270: 40c7 523d 234d 3bbd 5999 22bd 58e6 e7bc
00000280: c298 17bd 8ecf 55bd b862 343d d4b6 11bc
00000290: e553 4a3d d744 f33c 45b2 cc3c be88 d33c
000002a0: 4452 b9bc 2a0f d33b 2938 69bd 1aa1 e83b
000002b0: 8b8a 353a 315e 3bbd 3de9 a7bc 7efe 79bc
000002c0: 1b3f 36bd bf5f b93c 2ba1 283d c059 8f3c
000002d0: 25f0 13bd 906f 85bc 3547 3a3d f98d 243d
000002e0: c206 24bd 35f8 cf3c 5a92 edbc eaa3 1d3d
000002f0: 8b75 273d 7ae0 563d 8226 3cbd 1843 b73c
00000300: 2113 3cbd 9b53 bebc de63 33bd 2e7f febc
00000310: 9921 2abd 3409 123d 9d8c 1dbd 8485 613d
00000320: e4b7 983c 8981 20bd b727 dbbc 4f60 0d3d
00000330: 6db8 9b3c 9907 4c3d 3e9e 29bd 3b70 16bd
00000340: 796d f93c 739c 163d 8fad 10bd b10e 7c3c
00000350: ac1c 493d dbec 4d3d 14c6 edba c994 15bd
00000360: b756 55bd b9e6 993c 10c6 3f3d 0018 1ebd
00000370: 7d5c 38bd 6468 45bd 6e78 0dbd 842b a2bc
00000380: a3dc 60bd add9 3e3d db3b 27bd 9fcf 2d3d
00000390: 6ed5 ea3c ac46 2ebd cf5c 393d 6763 3fbd
000003a0: 7c22 41bd 4b54 a6bb af03 853c 2222 283d
000003b0: c8c4 243d 16c6 ef3c b365 28bd f747 1cbd
000003c0: 8568 43bd 19a1 303d 0c7c 30bc e917 323d
000003d0: 9789 043d 43b3 61bd 080f 32bd 2027 2fbd
000003e0: 7d9e 0c3c 33b5 4b3d 1bc0 2bbd 8d01 b7bc
000003f0: 08e0 323d 4f02 30bd 6f30 083d f7d1 aebc
-0.037583087 0.047527533 0.03483332 0.028543629 -0.024729304 -0.0513264 -0.021060556 -0.045557555
0.012105137 -0.017558271 0.033829983 0.011338492 -0.034009174 0.033118524 -0.037701 -0.049210057
-0.010828772 0.045222644 0.037792295 -0.05235033 0.008829036 0.05151908 -0.024007382 -0.001543792
-0.0514531 0.031894583 0.042002738 0.046155125 -0.032235622 -0.03650307 0.039586987 0.021147452
0.04650408 0.013778022 -0.04495162 0.024065 0.052793495 0.014594864 -0.038947754 0.011953445
-0.05070203 0.0024327063 -0.040870946 -0.041024573 0.010512109 0.05044268 0.04236813 -0.026073549
0.029367998 -0.028282972 0.052867264 0.024985028 0.029121239 -0.025717773 0.029880287 -0.016776394
0.031613745 0.019651534 -0.021451656 0.029335566 0.013267604 -0.023489699 -0.027488844 0.04865184
-0.04844713 -0.040894974 0.04625045 0.04981254 0.04436011 0.029370366 0.045400813 -0.049099725
0.024548989 0.038808715 0.031720895 0.032414373 0.03750748 0.0027707717 0.037089795 -0.016137464
-0.040888753 -0.01357588 0.034992702 -0.029507326 -0.023199651 0.04171482 -0.035775423 -0.047719695
0.026093101 0.043189146 0.0059486534 -0.061573397 -0.050395835 0.025985742 0.038413025 -0.03876903
0.057310503 -0.003507684 -0.058025636 0.03996847 -0.016633028 0.026346924 0.039439566 -0.014815522
0.042669103 -0.03928494 0.047494985 -0.032216992 -0.0015633233 -0.009950858 -0.039353248 -0.0073971823
0.037468474 -0.014420342 0.053309307 0.053529225 0.043167766 0.039606206 0.005160559 -0.017814867
0.040103678 0.027327893 -0.040384665 -0.030173967 0.035309814 -0.05083811 -0.05122364 -0.03500006
0.03613295 0.040639568 0.02564469 0.044628166 -0.044035498 0.039666142 0.024806235 0.05101123
0.055883225 -0.049338605 -0.051595572 -0.03383263 -0.045504823 0.058070485 0.004539541 -0.004454759
0.016837245 -0.040750593 -0.04817042 0.04688451 -0.029040745 0.038560953 0.050266344 0.0013438289
0.029740354 0.053374946 -0.03998102 0.00026689685 0.05145955 -0.04572786 -0.039697025 -0.028308079
-0.037010916 -0.052199893 0.044039458 -0.008893687 0.049396414 0.029695911 0.02498735 0.02582204
-0.022622235 0.0064410167 -0.056938324 0.007099283 0.00069252466 -0.045744125 -0.020496959 -0.01525843
-0.044493776 0.022628663 0.041169327 0.01749885 -0.03611769 -0.016288549 0.045478065 0.04017446
-0.040045507 0.025386909 -0.02900045 0.0384864 0.040883582 0.05246017 -0.04593516 0.02237086
-0.04591668 -0.023233226 -0.043796413 -0.031066503 -0.041535947 0.035653308 -0.038464177 0.05505897
0.018642373 -0.039186034 -0.026752336 0.034515675 0.01900884 0.049811933 -0.041410677 -0.036728125
0.030447708 0.036770295 -0.03532177 0.015384362 0.04909961 0.05027471 -0.0018140697 -0.036518846
-0.05208465 0.018786775 0.046819746 -0.038597107 -0.04501008 -0.048195258 -0.03453868 -0.01979614
-0.054897916 0.04659431 -0.040828567 0.04243433 0.028666224 -0.042547867 0.045254525 -0.046725657
-0.047152027 -0.0050759665 0.016237108 0.041048177 0.040226728 0.02926926 -0.041112613 -0.03815457
-0.0477071 0.043122385 -0.010771763 0.043479834 0.03235778 -0.055102598 -0.043471366 -0.042761922
0.008582708 0.049733352 -0.041931253 -0.022339607 0.043670684 -0.04297095 0.033249315 -0.021340353
