ai_challenge/results/simulation_DoubleDQN_DuelingRecNN_2017-05-19T19:40:53.24/60016/target_model.npz (npz, 629294 bytes, 12 tensors)

model/hidden/input_layer/b f4 [256]
0	0xbc1527bd	-0.009103713
1	0xbce55f5d	-0.027999574
2	0xbc9b5150	-0.018959671
3	0xbacbfdb1	-0.0015563277
4	0xbbeb10f6	-0.0071736528
5	0xbc5836d9	-0.01319667
6	0xbc4e3797	-0.012586496
7	0xbd2a6335	-0.041598517
8	0x3b62b98b	0.0034595456
9	0xbc10c746	-0.008836573
10	0x3c1b349e	0.009472994
11	0xbcb53afb	-0.02212285
12	0xbb374d49	-0.002796965
13	0xbc88a84a	-0.016681809
14	0xbbd6202e	-0.006534598
15	0xbbfbeba9	-0.007688005
16	0xbce64296	-0.028107923
17	0xbccac4e3	-0.024752086
18	0xbc78eda6	-0.015193379
19	0xbc1c0362	-0.009522291
20	0xbd17247b	-0.036900025
21	0xbb9fe930	-0.004880093
22	0x3c0b1a80	0.008490205
23	0xbc6ab797	-0.014325998
24	0xbcc8bb5a	-0.024503399
25	0xbc887427	-0.016656948
26	0xbc2a6d93	-0.010402101
27	0xbc43132f	-0.011906429
28	0xbc87f568	-0.016596511
29	0xbc178bcc	-0.009249639
30	0xbc7b11e2	-0.015324088
31	0xbc3a1794	-0.0113581605
32	0x3781a4e8	1.5454789e-05
33	0xbd00f0a1	-0.03147948
34	0x3bdbd726	0.0067089973
35	0xbc3ec1ff	-0.011642932
36	0xbd3e0f54	-0.046401337
37	0xbbf4b69f	-0.007468059
38	0xbccb02a9	-0.024781542
39	0xbc5901d6	-0.013245067
40	0xbc57a8bc	-0.013162788
41	0xbcb0ed6e	-0.02159759
42	0x3b8230da	0.0039731087
43	0xbc761688	-0.01502002
44	0xbcc41077	-0.023933632
45	0xbc7ab08d	-0.015300882
46	0xbcec1f47	-0.028823508
47	0xbcca479d	-0.024692351
48	0xbcc7e650	-0.024401814
49	0xbcfea5cc	-0.031084917
50	0xbc9517fd	-0.018199915
51	0xbcb90dff	-0.022589682
52	0xbb31225a	-0.0027028532
53	0xbbe0a1a9	-0.006855209
54	0xbbf3aa06	-0.00743604
55	0xbc876082	-0.01652551
56	0xbc5f696a	-0.0136359725
57	0xbc9f65cb	-0.019457718
58	0xbbd4fb72	-0.006499701
59	0xbc2620e9	-0.010139682
60	0xbc982075	-0.018570164
61	0xbc24b50e	-0.010052932
62	0xbc472190	-0.012153998
63	0xbbe07bcb	-0.006850695
64	0xbcaaf36b	-0.020868024
65	0xbc35e6f6	-0.011102429
66	0xbc504edd	-0.012714115
67	0xbc70aa74	-0.014689077
68	0xbc5faf2a	-0.013652602
69	0xbc7d9493	-0.015477317
70	0xbcdfbf45	-0.027312884
71	0xbccb3639	-0.024806129
72	0x3acedf85	0.0015783167
73	0xbc70fce5	-0.014708732
74	0xbce400da	-0.027832437
75	0xbca7dd6a	-0.02049132
76	0xbcb8fab8	-0.02258049
77	0xbc986f80	-0.018607855
78	0xbbe16634	-0.0068786386
79	0xbd0c5ddb	-0.034269195
80	0xbd1573e0	-0.03648746
81	0xbcc9aafc	-0.024617665
82	0xbc5f3a8e	-0.0136248
83	0xbcc6420e	-0.02420142
84	0xbc828c28	-0.015935972
85	0xbd01768c	-0.031607196
86	0xbd214713	-0.039374422
87	0xbd01595e	-0.031579368
88	0xbca1b99c	-0.019741826
89	0xbcbdd8fd	-0.023174757
90	0xbb6e602c	-0.003637324
91	0xba765371	-0.0009396589
92	0xbcd04e79	-0.025428044
93	0xbc9911ba	-0.01868521
94	0xbce954c9	-0.028482812
95	0xbbf31b72	-0.007419043
96	0xbb84cb10	-0.0040525272
97	0xbb8a4489	-0.004219596
98	0x3b33390f	0.0027347242
99	0x3ab33919	0.0013673633
100	0xbc682a0e	-0.014170183
101	0xbc8c572a	-0.017131407
102	0x3b288de3	0.0025719337
103	0xbbabe018	-0.00524522
104	0xbc06bf0e	-0.008224262
105	0xbb28e77e	-0.0025772746
106	0xbc1ce95e	-0.009577123
107	0xbc733ca9	-0.0148460055
108	0x3aeab728	0.0017907368
109	0xbcef4b1c	-0.02921062
110	0xbd18f97f	-0.037347313
111	0xbccd412c	-0.02505549
112	0xbca556d5	-0.020183006
113	0xbc4eb7bc	-0.012617048
114	0xbcb4544c	-0.022012852
115	0xbb934f0c	-0.004495507
116	0xbcef0608	-0.02917768
117	0xbd0e785b	-0.03478275
118	0xbd1d3f3c	-0.038390383
119	0xbca5f71c	-0.020259432
120	0xbd2cbd9e	-0.04217302
121	0xbb8733bb	-0.00412604
122	0xbc2e3e88	-0.010635026
123	0xbd018aac	-0.03162639
124	0xbc682890	-0.014169827
125	0xbbf85ca2	-0.007579402
126	0xbcc468c9	-0.023975747
127	0xbc083263	-0.008312794
128	0xba8ec772	-0.001089318
129	0xbd069d2e	-0.032864742
130	0xbc9a5a8d	-0.018842006
131	0xbbc0df16	-0.005885969
132	0xba17f2bc	-0.0005796363
133	0xbbbc5b28	-0.0057481714
134	0xbc09c10a	-0.0084078405
135	0xbc1b4afb	-0.009478326
136	0xba325806	-0.00068032776
137	0xbc84d443	-0.016214496
138	0xbc6cdcda	-0.014456952
139	0x3b30b39c	0.0026962524
140	0xbc8e4e03	-0.017371183
141	0xbcaecbf9	-0.021337496
142	0xbcc03cc8	-0.023466483
143	0xbc13b63f	-0.009015619
144	0xb91fbc98	-0.00015233678
145	0x3be7083c	0.007050542
146	0xbbd88d4e	-0.0066086417
147	0xbd4ea06a	-0.05044595
148	0xbd1d70b2	-0.038437553
149	0xbc2b595e	-0.0104583185
150	0xbb4590c5	-0.0030146104
151	0xbcd96460	-0.02653712
152	0xbc978711	-0.018497022
153	0xbc4e1974	-0.012579311
154	0xbcf55b1f	-0.029950676
155	0xbbf87834	-0.0075826887
156	0xbd099e02	-0.033597954
157	0xbbc9fa2c	-0.006163856
158	0xbc515767	-0.012777186
159	0xbc530120	-0.012878686
160	0xbb87ef2f	-0.004148386
161	0xbc4ac1cc	-0.012375306
162	0x396c5bdc	0.00022540934
163	0xbbe537b8	-0.0069951676
164	0xbd0b2f47	-0.033980634
165	0x3b09da58	0.0021034684
166	0xbcee296b	-0.029072484
167	0xbb26f95f	-0.0025478227
168	0xbc4e85fb	-0.012605186
169	0xbb6dd756	-0.003629168
170	0x3c03f342	0.008053603
171	0xbbceb1a0	-0.0063077956
172	0xbc509a37	-0.01273208
173	0xbc82c96e	-0.01596519
174	0xbc1743f5	-0.009232511
175	0xbbe36a3c	-0.0069401544
176	0xbc7d1076	-0.015445819
177	0xbd1f01d3	-0.0388201
178	0xbb8d4707	-0.0043114456
179	0xbc9383af	-0.018007128
180	0xbc09414a	-0.0083773825
181	0xbb971a23	-0.00461127
182	0xba94ac4f	-0.0011342856
183	0xbbb5c4a4	-0.005547123
184	0x3ab970fa	0.001414805
185	0xbc79f73f	-0.015256702
186	0xbd20f620	-0.039297223
187	0xbd5d3e3c	-0.05401443
188	0xbb2ac2f6	-0.0026056147
189	0xbc137305	-0.008999591
190	0xbbc955ee	-0.006144277
191	0xbcb556f3	-0.022136187
192	0xbca35b7d	-0.019941086
193	0xbcc10864	-0.023563571
194	0x3b8e1ae3	0.0043367012
195	0xbc8d5375	-0.01725171
196	0xbc3c8704	-0.0115068
197	0xbc1d3286	-0.009594565
198	0xbcb797ac	-0.02241119
199	0xbb7585c6	-0.0037463768
200	0xbc71b908	-0.014753588
201	0xbc7875d0	-0.015164807
202	0xbc84d356	-0.016214054
203	0xbc8c3650	-0.017115742
204	0xbd375a57	-0.04476389
205	0xbc053476	-0.008130183
206	0xbc7b9c04	-0.015357021
207	0xbd1c7013	-0.03819282
208	0xbc2d7f95	-0.0105895
209	0xba7cc064	-0.00096417055
210	0xbc215e9f	-0.00984922
211	0xbb730d78	-0.0037086885
212	0xbc920830	-0.01782617
213	0xbc88fde3	-0.016722625
214	0xbd3319ad	-0.04372566
215	0xbc7b9d12	-0.015357273
216	0xbc81b4ef	-0.015833346
217	0xbc77d97f	-0.015127539
218	0xbc8b0f7f	-0.016975163
219	0xbc847843	-0.016170627
220	0xbc6de985	-0.014521007
221	0x3c3feacb	0.011713694
222	0xbc9f44a5	-0.019441912
223	0xbca5704e	-0.020195153
224	0xbc348fe9	-0.011020639
225	0x3c45fa98	0.012083672
226	0xbc921ae3	-0.017835086
227	0xbc964a40	-0.018345952
228	0xbc618132	-0.013763713
229	0xbc26ec72	-0.010188209
230	0xbc8ca900	-0.01717043
231	0xbc44ae89	-0.012004503
232	0xbcecd0d9	-0.02890818
233	0x3c5b8494	0.013398308
234	0xbcf143f3	-0.029451346
235	0x3b14b245	0.0022689265
236	0xbc49cfa0	-0.012317568
237	0xba884e5f	-0.0010399333
238	0xbd31c471	-0.04340023
239	0xbced5f8b	-0.028976223
240	0xbc05e5b5	-0.008172442
241	0xbc3be5a7	-0.011468328
242	0xbb046fc6	-0.0020208224
243	0xbcd83bb2	-0.026395652
244	0xbc7d6efb	-0.015468354
245	0xbc3b9e9f	-0.011451392
246	0xbc84e357	-0.016221685
247	0xbd0df4c1	-0.034657244
248	0xbcf7b3b2	-0.030237053
249	0xbc512599	-0.012765312
250	0xbca1f49f	-0.019769965
251	0xbbb568fd	-0.005536197
252	0x3bcc4422	0.006233708
253	0xbd10c930	-0.035348117
254	0xbd4d94e7	-0.050190832
255	0xbcd27e5c	-0.025695018

model/hidden/output_layer/b f4 [256]
0	0x3c50bf37	0.012740902
1	0xbc393561	-0.01130423
2	0x3c07ee54	0.008296568
3	0xbbdfcda7	-0.0068299356
4	0xbb29a8b3	-0.0025887906
5	0x3c0bc2b7	0.00853031
6	0x3c413f99	0.011794948
7	0x3c29d6b9	0.010366135
8	0xbbfce336	-0.0077175153
9	0x3beb5f04	0.0071829576
10	0xbc45d0f9	-0.012073749
11	0x3c372962	0.0111793
12	0x3b35f470	0.0027764104
13	0xb9f49da7	-0.00046656767
14	0x3c2c69fe	0.010523317
15	0x3c4d0168	0.012512542
16	0xbc575c06	-0.013144499
17	0xba9957f6	-0.0011699188
18	0xbc08eaa4	-0.008356724
19	0x3c666d06	0.014064079
20	0xbc17d6aa	-0.0092674885
21	0xbc62c01b	-0.013839747
22	0xb96e95ca	-0.0002275325
23	0x3b5b8dd6	0.003350129
24	0xbc2a8eb1	-0.010409997
25	0x3c5e0b36	0.013552478
26	0xbc08e4fa	-0.0083553735
27	0xbb5b9638	-0.0033506285
28	0xbbecfe34	-0.007232452
29	0x3c426e30	0.011867091
30	0xbc5e90b2	-0.013584303
31	0xbb8bbebc	-0.0042646807
32	0xbb517e91	-0.0031966309
33	0xbc47dd61	-0.012198777
34	0x3c0cb98d	0.008589161
35	0xbb5a7762	-0.0033335318
36	0xbc219e1c	-0.009864356
37	0x3bc2508b	0.0059300116
38	0x3c2eac73	0.010661232
39	0xbb016dea	-0.0019749352
40	0x3c4886ff	0.012239217
41	0x3c7dc456	0.015488705
42	0xbbbebfd2	-0.0058212066
43	0x3c403acd	0.011732769
44	0x3cb6c9f0	0.022313088
45	0xbc0e95e5	-0.00870273
46	0xbc2c88ea	-0.01053069
47	0x3c7f2809	0.01557351
48	0xbc051793	-0.008123296
49	0xbb543158	-0.0032378044
50	0xbc39baa3	-0.011336002
51	0xbbeb093b	-0.007172731
52	0xbbda566f	-0.0066631357
53	0x3c3d3680	0.011548638
54	0xbbef4ac7	-0.0073026153
55	0x3aa27a30	0.0012396034
56	0xbc072427	-0.0082483655
57	0xbb33e498	-0.0027449485
58	0x3c0bea07	0.008539683
59	0x3b101248	0.0021983553
60	0xbc1e75e9	-0.009671667
61	0x3c2687d0	0.010164216
62	0x3be1eaae	0.006894431
63	0xbbbe8b49	-0.005814944
64	0x3c26f36b	0.010189871
65	0x3bbbba05	0.0057289624
66	0xbc468ddb	-0.012118782
67	0xbc1212ca	-0.0089156125
68	0xbc1d9fab	-0.009620587
69	0xbbdb9268	-0.0067008026
70	0xbc31f677	-0.010861984
71	0x3c60326c	0.0136838965
72	0xb983bcc8	-0.0002512692
73	0xbc63be16	-0.0139003005
74	0xbc405d44	-0.011740986
75	0xbb2f088e	-0.002670798
76	0xbac1414d	-0.0014744193
77	0x3bd4b928	0.006491799
78	0x3a783466	0.0009468257
79	0x3c7bb97d	0.015364048
80	0xbc6a9a62	-0.014319034
81	0x3b1b2b2c	0.0023676855
82	0xbb2522d8	-0.002519777
83	0xbb8bc568	-0.004265476
84	0x3c3cbf6f	0.011520251
85	0xbc62696b	-0.013819079
86	0xbb25cf95	-0.002530073
87	0x3c231520	0.009953767
88	0xbc20f298	-0.009823464
89	0xbc3bcbed	-0.011462194
90	0x3c9dad90	0.0192478
91	0x3c64d0cc	0.013965797
92	0x3c73e0e2	0.014885159
93	0x3ba4de4f	0.005031384
94	0xbc04f8ba	-0.008115942
95	0x3c17b9e7	0.009260631
96	0xbc5f82f8	-0.013642065
97	0xbc21cbde	-0.009875266
98	0x3c75ef3f	0.015010654
99	0xbb7de206	-0.0038739457
100	0x3c12c49d	0.008958009
101	0xbbb42591	-0.0054976423
102	0xbc23c9c2	-0.009996833
103	0x3c2c3578	0.010510795
104	0xb835dd90	-4.336011e-05
105	0x3c184e50	0.009296015
106	0xbc5565eb	-0.013024787
107	0xba7128be	-0.00091994915
108	0x3bcf7e3a	0.006332186
109	0xba91911e	-0.001110587
110	0x3c3c3bd9	0.011488878
111	0x3c700d3c	0.014651593
112	0xbc7b5328	-0.01533965
113	0x3c7f23a2	0.01557246
114	0xbc343bdd	-0.011000601
115	0xbc2a9f9a	-0.010414029
116	0xbc4bab3b	-0.012430961
117	0xbbc258e3	-0.0059310063
118	0xbb57d569	-0.00329336
119	0x3c060648	0.0081802085
120	0x3c045070	0.008075818
121	0x3ba934b6	0.0051637543
122	0x3c1094b1	0.008824513
123	0xbb4a65f8	-0.0030883532
124	0xbb0abd7c	-0.002117007
125	0x3c22d758	0.009939037
126	0x3c252fd4	0.010082204
127	0x3ac18e26	0.0014767095
128	0x3b15d2f7	0.002286134
129	0xbc2443c6	-0.010025924
130	0x3c41a2b2	0.011818575
131	0xbbed3cbb	-0.0072399057
132	0x3c4eccbb	0.012622054
133	0x3b1fe906	0.0024400367
134	0x3c1567ee	0.009119017
135	0xbc550ac2	-0.013003053
136	0xbc54dafe	-0.012991665
137	0x3bee68c3	0.007275672
138	0x3c9543d7	0.018220825
139	0x3b30cdba	0.0026978091
140	0x3c2ec46d	0.010666949
141	0xbc56f464	-0.013119791
142	0x3c30f42e	0.0108004045
143	0xba96c03f	-0.0011501386
144	0xbc23d53d	-0.00999957
145	0x3c01cd3a	0.007922465
146	0x3c25ab64	0.0101116635
147	0xbc34c7c7	-0.011033959
148	0x3c380b69	0.011233189
149	0xbc077d5a	-0.008269632
150	0xbc7b1600	-0.015325069
151	0xba97a66e	-0.0011569986
152	0xbc1de59a	-0.009637261
153	0xbc632941	-0.013864816
154	0xba385bb4	-0.0007032708
155	0x3b44c99a	0.003002739
156	0xbc37c82f	-0.011217161
157	0x3af8d32e	0.0018983835
158	0x3bc85128	0.00611319
159	0x3ae5dc35	0.001753694
160	0xbb271dcb	-0.0025499936
161	0x3c21ea3e	0.009882508
162	0xbb10c602	-0.0022090678
163	0x3c259a82	0.010107638
164	0xbc346c31	-0.011012123
165	0xbc558472	-0.013032066
166	0xbc32e76b	-0.010919432
167	0xbc0306e7	-0.007997251
168	0xbbac6167	-0.0052606347
169	0x3ccd2da1	0.025046172
170	0x3c83c0e3	0.016083186
171	0xbc2a0d2e	-0.010379119
172	0x3aecce3c	0.0018066834
173	0x3c497ea7	0.012298263
174	0x3c57c33b	0.013169105
175	0xbb75dc6e	-0.003751542
176	0x3ba0ee31	0.004911207
177	0x3c1a4952	0.009416895
178	0x3baa62b4	0.0051997546
179	0xba33b890	-0.000685581
180	0x3c178042	0.009246888
181	0x3c136840	0.008997023
182	0xbc466153	-0.012108165
183	0xbbdd5690	-0.006754704
184	0x3c58d134	0.013233472
185	0xbbcb268c	-0.0061996635
186	0x3bc60a75	0.006043727
187	0xbb28907e	-0.002572089
188	0xbbf9f80d	-0.007628447
189	0xbc3fa4b8	-0.011696987
190	0x3c10f43d	0.008847293
191	0xbc4a2905	-0.012338881
192	0x3aa05f10	0.0012235362
193	0x3c0add92	0.008475678
194	0x3b3a0a89	0.0028387627
195	0xbd0d4f5b	-0.034499507
196	0x3c183be6	0.009291625
197	0xbaf279b4	-0.0018499405
198	0x3bf1b775	0.007376606
199	0xbc576812	-0.013147371
200	0x3b9a705f	0.0047131027
201	0x3c0c8469	0.008576491
202	0x3addcc94	0.0016921931
203	0xbc0d955f	-0.00864157
204	0x3cbe44ab	0.023226103
205	0xbc7f6125	-0.015587126
206	0x3bb704aa	0.005585273
207	0xbb4eaa21	-0.003153451
208	0xbabb8a02	-0.0014308097
209	0x39cb05e8	0.00038723578
210	0xbac6ca2e	-0.0015166455
211	0xbafc6f59	-0.0019259258
212	0xbc699bd8	-0.014258347
213	0xbc4994f2	-0.012303578
214	0x3c9c4388	0.01907517
215	0x3b7fe75a	0.0039047808
216	0x3c482e6d	0.0122181
217	0xbbe29e07	-0.006915811
218	0xbc258a9f	-0.010103851
219	0x3c12333a	0.008923346
220	0xbad5249e	-0.0016261523
221	0x3c480bed	0.012209875
222	0x3c562e39	0.013072544
223	0xbc3844a9	-0.011246839
224	0x3c59dfe4	0.013298009
225	0x3a09d11e	0.0005257296
226	0x3b71040b	0.0036776091
227	0xbbf3442a	-0.0074238973
228	0xbc32dc49	-0.010916778
229	0x3be939d8	0.007117491
230	0xbc43cb1b	-0.01195028
231	0x3c5f53c1	0.013630808
232	0x3c3602f2	0.011109101
233	0xbb23dada	-0.0025002272
234	0x3ce47b18	0.027890727
235	0xbc3d4434	-0.011551905
236	0xbbb49cdb	-0.0055118627
237	0xbb43b4fe	-0.0029862518
238	0x3c4f8f94	0.012668509
239	0x3acbab05	0.0015538639
240	0x3c5e89d7	0.013582668
241	0xbb235f09	-0.0024928472
242	0x3c1757c8	0.009237237
243	0xbbb3d1d6	-0.005487661
244	0x3a9fe6f6	0.0012199569
245	0x3c4c7e17	0.012481234
246	0x3a3d89d9	0.0007230319
247	0x3b98aa2e	0.004658959
248	0x3c3cd579	0.011525505
249	0xbc50d2fa	-0.012745613
250	0x3bc75623	0.0060832663
251	0x3c12def7	0.008964292
252	0x3be3856f	0.0069433968
253	0x3b6f19e6	0.0036483943
254	0xbb62f4dd	-0.0034630813
255	0x3c128541	0.008942903

model/a_stream/W f4 [3, 256]
0	0xbcad913c	-0.021187417
1	0x3c56112c	0.0130656175
2	0xbd8008b6	-0.062516615
3	0x3d188dca	0.037244596
4	0xbce7b3b1	-0.028283926
5	0xbcc7e68e	-0.02440193
6	0x3d89510f	0.06704914
7	0xbc463578	-0.012097709
8	0x3d59ca36	0.05317136
9	0x3ae3a61c	0.001736823
10	0x3c92e915	0.017933408
11	0xbcd48a6a	-0.025944907
12	0xbc9a27d2	-0.018817816
13	0xbd93b154	-0.07211557
14	0xbc5198c6	-0.012792772
15	0xba6c1200	-0.0009005368
16	0x3d0e8aac	0.034800217
17	0xbd14d8ce	-0.036339574
18	0x3cb99007	0.022651685
19	0xbbf85cb2	-0.0075794095
20	0x3cfa11f5	0.03052614
21	0x3b159f43	0.0022830523
22	0x3c7bed4b	0.015376399
23	0x3b0c98f6	0.0021453477
24	0x3d477b65	0.048701663
25	0xbd82e60d	-0.06391535
26	0x3cb7b0e4	0.022423215
27	0xbd55b2b5	-0.05217238
28	0x3d97207b	0.07379242
29	0xbc97d3c7	-0.0185336
30	0x3c3bd778	0.011464946
31	0xbaf40fc4	-0.0018620421
32	0xbd585aa1	-0.052820805
33	0x3cd6a3b9	0.026201116
34	0xbc88a616	-0.016680758
35	0xbd40e305	-0.047091503
36	0x3ca20a2e	0.019780245
37	0xbd8d3dae	-0.0689653
38	0x3a515129	0.0007984811
39	0xbda4c9c7	-0.080462985
40	0xbc3a692c	-0.011377614
41	0x3d86b3de	0.06577276
42	0x3d5cb58b	0.05388407
43	0xbb228a32	-0.002480161
44	0x3d9485c1	0.07252074
45	0x3c0844c0	0.0083171725
46	0x3c7a9279	0.015293711
47	0x3d85eedc	0.065396994
48	0x3d394863	0.04523505
49	0xbd0b0bab	-0.033946674
50	0x3b718825	0.003685483
51	0x3cfc34f4	0.030786969
52	0x3b998b13	0.0046857684
53	0x3d826aaa	0.06368001
54	0xbd53a888	-0.051674396
55	0x3d3018fe	0.042992584
56	0x3d1bcbd3	0.03803618
57	0x3ce32e91	0.027732166
58	0x3db114d5	0.086465515
59	0xbd16dae3	-0.03682984
60	0xbd63019c	-0.055421457
61	0x3adee086	0.0017004169
62	0xbc9f8185	-0.01947094
63	0xbc9ef964	-0.019406028
64	0xbc90631e	-0.017625388
65	0xbce699ce	-0.028149512
66	0x3b400717	0.00293011
67	0xbc0be144	-0.008537594
68	0xbbdc6419	-0.0067257998
69	0x3cc5ba99	0.024136828
70	0x3c326849	0.010889121
71	0xbaf1f6bb	-0.0018460372
72	0x3d1ec117	0.038758364
73	0x3b685491	0.0035450796
74	0xbd8a95ac	-0.06766829
75	0xbd910727	-0.07081442
76	0x3cd7c390	0.026338369
77	0xbd7ef94b	-0.062249463
78	0xbd844816	-0.06459062
79	0x3d830fef	0.063995235
80	0x3d2d1160	0.0422529
81	0x3cceaa61	0.025227727
82	0xbd77dc19	-0.060512636
83	0xbd0b67b2	-0.03403444
84	0x3d9de740	0.07710123
85	0x3a6d06d6	0.0009041851
86	0x3d71e5f2	0.059057184
87	0x3ccf57bb	0.025310388
88	0x3c083388	0.008313067
89	0x3c1ecabe	0.009691892
90	0x3da27a09	0.079334326
91	0x3b8bcbf5	0.004266257
92	0xbb52e920	-0.003218241
93	0xbd946722	-0.072462335
94	0x3b5268c1	0.0032105895
95	0xbc03f0d2	-0.0080530215
96	0x3bf42063	0.00745015
97	0x3d59f29f	0.053209897
98	0xbb180c4d	-0.0023200691
99	0xbc88b76f	-0.01668903
100	0xbcb6a14f	-0.022293715
101	0xbd6c52a8	-0.057696015
102	0x3caa9cca	0.020826716
103	0x3d92d3cc	0.07169303
104	0xbd431ab9	-0.047632907
105	0xbcf951e1	-0.03043455
106	0x3c002b72	0.007822858
107	0x3d6b5038	0.05744955
108	0xbd776934	-0.060403064
109	0x3d0e13f3	0.034686994
110	0xbccf9f03	-0.025344377
111	0x3d93af0a	0.072111204
112	0x3bc04d60	0.005868599
113	0x3d976873	0.07392969
114	0xbbcb0448	-0.0061955787
115	0x3b75dbbf	0.0037515012
116	0x3c846ae2	0.016164247
117	0x3c082b0f	0.008311047
118	0xbda41265	-0.08011321
119	0xbd192d54	-0.037396744
120	0xbd2f4559	-0.042790744
121	0xbd857603	-0.065166496
122	0xbce2dc4e	-0.02769294
123	0x3ce3fc68	0.027830318
124	0x3d0f7b1a	0.03502951
125	0x3c57d92f	0.013174339
126	0x3c0ee953	0.008722621
127	0x3d3d97ed	0.046287466
128	0xbd8f106c	-0.06985554
129	0x3c8cc186	0.017182123
130	0xbd84b7ad	-0.06480346
131	0xbca1c7a5	-0.019748518
132	0xbbc041a5	-0.0058672004
133	0xbcd16542	-0.025560979
134	0x3d321fc6	0.043487333
135	0xbb3e520a	-0.0029040598
136	0x3a4ef12d	0.00078942144
137	0x3cbc8dba	0.0230168
138	0x3c1cc09d	0.009567407
139	0xbbe383e5	-0.0069432133
140	0x3b82eb72	0.0039953524
141	0x3c414773	0.01179682
142	0xbd3aaa70	-0.045572698
143	0x3da69fb3	0.08135929
144	0x3d0c77c5	0.03429391
145	0xbca197c4	-0.019725688
146	0xbc776829	-0.015100517
147	0x3c5d17f3	0.0134944795
148	0x3d5f4759	0.0545114
149	0x3c5d4009	0.013504037
150	0x3b427535	0.0029671912
151	0xbd11f837	-0.035637107
152	0xbda2f188	-0.07956225
153	0x3c671fb9	0.014106684
154	0x3d0220a5	0.031769414
155	0xbd5d0c6c	-0.053966925
156	0x3c862521	0.016375126
157	0x3d2ac711	0.04169375
158	0x3d59bfee	0.053161554
159	0xbd271dac	-0.04079978
160	0x3d7f36ee	0.062308244
161	0xbcc0569b	-0.023478797
162	0xbca2fbbc	-0.019895427
163	0x3d52d087	0.0514684
164	0x3ca4d211	0.020119699
165	0x3c8995f1	0.01679513
166	0x3c463fa5	0.012100135
167	0xbd6a7ab3	-0.05724592
168	0xbce64840	-0.028110623
169	0x3d914c32	0.07094611
170	0x3c3a9b08	0.011389501
171	0x3cd81a33	0.02637968
172	0x3d818484	0.063241035
173	0xbab03671	-0.0013443959
174	0xbcaaef57	-0.02086608
175	0xbd05367e	-0.03252267
176	0x3d4bdac9	0.049769197
177	0xbd2944bf	-0.041325327
178	0xbd42e1ca	-0.04757861
179	0xbd3dee5a	-0.046369888
180	0xbccbfd7c	-0.024901144
181	0xbd27e40c	-0.040988967
182	0x3bb4bffd	0.005516051
183	0x3ca0afed	0.019615138
184	0x3c03e8b2	0.008051084
185	0xbb4b29aa	-0.0031000176
186	0xbc54ab4d	-0.012980294
187	0xbd731219	-0.05934343
188	0x3cd0ee21	0.025504174
189	0xbc4f22ac	-0.012642544
190	0xbc9414ab	-0.018076262
191	0x3bc98998	0.0061504357
192	0x3d54bc28	0.051937252
193	0x3d87d502	0.06632425
194	0x3d214840	0.039375544
195	0xbdaea734	-0.08527985
196	0xbcd47abc	-0.02593743
197	0x3c966f2e	0.018363561
198	0xbd02f228	-0.03196922
199	0x3a936542	0.0011245387
200	0xbd97c6d3	-0.074109696
201	0xbbff37e3	-0.0077886446
202	0xbd21bd9f	-0.039487477
203	0x3d138ad3	0.036021065
204	0x3db5982a	0.088669136
205	0xbaafbb11	-0.001340719
206	0xbced1994	-0.02894286
207	0x3d2a46c0	0.04157138
208	0x3d166c7e	0.03672456
209	0xbcd6855d	-0.02618664
210	0x3d859070	0.0652169
211	0xbd93d02f	-0.07217442
212	0x3b0cf0a5	0.002150574
213	0xbabe26eb	-0.0014507448
214	0x3d9439de	0.072376
215	0xbc724328	-0.014786519
216	0xba925bc3	-0.0011166263
217	0xbda6d2ee	-0.081457004
218	0xbc106c8a	-0.00881494
219	0xbc7470be	-0.014919458
220	0x3d2336a5	0.039847035
221	0xbbf2339c	-0.007391406
222	0xbb3e5ee4	-0.0029048258
223	0x3d99dc12	0.07512678
224	0xbbaa92e1	-0.0052054976
225	0xbd69604c	-0.0569766
226	0x3cace645	0.021105895
227	0x3c9ad155	0.018898645
228	0x3bb5f3f5	0.0055527636
229	0xbc67b7de	-0.014142958
230	0x3bc86326	0.006115335
231	0xbb943c17	-0.004523765
232	0xbb91f21e	-0.0044539114
233	0x3d8419a6	0.064502046
234	0x3da7f65f	0.082012884
235	0xbb039b42	-0.0020081555
236	0x3ce200a2	0.027588192
237	0x3bbb2f63	0.005712436
238	0xbc751396	-0.014958283
239	0x3ccfe2ae	0.025376644
240	0xbbee32cd	-0.0072692395
241	0xbcb763dd	-0.022386486
242	0xbd526d29	-0.051373634
243	0x3ce644d0	0.028108984
244	0xbd884275	-0.06653301
245	0xbc09aabc	-0.008402523
246	0x3d6fb953	0.05852635
247	0x3d75fcf6	0.060055695
248	0xbce37150	-0.027763993
249	0x3b2f0537	0.002670599
250	0xbced48ef	-0.028965442
251	0x3d78bf5f	0.06072938
252	0xbd184c9d	-0.03718244
253	0x3cfdff32	0.031005476
254	0xbd83f2bb	-0.064427815
255	0x3d88cf6c	0.066801876

model/hidden/mid_rec_layer/upward/W f4 [80, 86]
0	0xbaf1005c	-0.0018386948
1	0x3c998d80	0.01874423
2	0x3c4ca7e5	0.012491201
3	0xbbb9bd59	-0.005668324
4	0x3ca3637a	0.019944895
5	0xbb4c3fb9	-0.0031165911
6	0x3b70ecc4	0.0036762217
7	0xbace2b3e	-0.001572944
8	0xbd222257	-0.03958353
9	0x3c23d70a	0.01
10	0x3bfac99a	0.0076534273
11	0x3c23d70a	0.01
12	0x3d38cf88	0.045119792
13	0x3d1eaca4	0.03873886
14	0x3c23d70a	0.01
15	0x3c0c254f	0.008553817
16	0x3d657a29	0.056024704
17	0x3c23d70a	0.01
18	0xbcc4d8f3	-0.02402923
19	0x3d17d141	0.037064794
20	0x3c23d70a	0.01
21	0xbb5b77c2	-0.003348813
22	0x3d40a9d4	0.04703696
23	0x3c23d70a	0.01
24	0xbd3c8622	-0.046026357
25	0x3cfafd30	0.030638307
26	0x3c23d70a	0.01
27	0x3c82676e	0.01591846
28	0x3d6ece85	0.05830242
29	0x3c23d70a	0.01
30	0x3b52ae82	0.0032147472
31	0x3d5b2015	0.053497393
32	0x3c23d70a	0.01
33	0xbc009311	-0.007847563
34	0x3c3cde67	0.011527634
35	0x3c23d70a	0.01
36	0x3c1865b4	0.009301592
37	0x3d2b66fb	0.041846257
38	0x3c23d70a	0.01
39	0xbd07b777	-0.03313395
40	0xbc01fae3	-0.007933351
41	0x3c23d70a	0.01
42	0xbd248cf0	-0.04017347
43	0x3d1c9fa4	0.038238183
44	0x3c23d70a	0.01
45	0xbc32c002	-0.010910036
46	0x3c836dcf	0.016043572
47	0x3d270f96	0.04078635
48	0xbc2b95a6	-0.010472691
49	0x3a2dc6bb	0.00066290394
50	0x3c71cf90	0.014758959
51	0x3c9ff86d	0.019527638
52	0x3cdd9947	0.027050627
53	0x3d2ac3f4	0.04169078
54	0xbbe7f05a	-0.0070782127
55	0xbc206bed	-0.0097913565
56	0x3c23d70a	0.01
57	0xbcb7f429	-0.022455292
58	0x3d597dc6	0.053098463
59	0x3c23d70a	0.01
60	0x3c977f52	0.018493328
61	0x3d403fd3	0.046935868
62	0xbbce5b36	-0.0062974943
63	0x3c8f84a3	0.0175193
64	0xbd14b841	-0.03630853
65	0x3d4dfaf3	0.050288152
66	0x3d35a1a0	0.04434359
67	0x3d0ef673	0.034903
68	0xbc8c3481	-0.01711488
69	0x3bb68081	0.005569518
70	0xbd04569f	-0.03230917
71	0x3c23d70a	0.01
72	0xbd3371e5	-0.04380979
73	0x3cd5b4a9	0.026087122
74	0x3c23d70a	0.01
75	0x3ba0e783	0.004910411
76	0xbcb754c6	-0.02237929
77	0x3d22db0b	0.039759677
78	0x3c3196c6	0.01083917
79	0xbd85d674	-0.06535044
80	0xbc352fdc	-0.011058774
81	0x3c96425b	0.018342188
82	0xbd44ba4b	-0.048029225
83	0xbca97571	-0.020685883
84	0x3ceee94d	0.02916398
85	0xbd5890ff	-0.052872654
86	0xbb171eba	-0.0023059086
87	0xbd78f11a	-0.060776807
88	0xbda9a3e8	-0.08283216
89	0x3c94e3dd	0.01817506
90	0xbd06df35	-0.03292771
91	0xbc164e7d	-0.0091739865
92	0xbd5c102c	-0.05372636
93	0xbc3224e7	-0.010873056
94	0xbe049e48	-0.12951005
95	0x3c23d70a	0.01
96	0xbd7fb0ff	-0.062424656
97	0x3c23d70a	0.01
98	0xbd376289	-0.044771705
99	0xbcd6ece1	-0.026236
100	0x3c23d70a	0.01
101	0xbcef2a63	-0.029195016
102	0xbce6534a	-0.028115887
103	0x3c23d70a	0.01
104	0x39ba7954	0.0003556708
105	0xbd3e5a47	-0.046472814
106	0x3c23d70a	0.01
107	0x3d6ea9bc	0.05826734
108	0xbd1e089c	-0.03858243
109	0x3c23d70a	0.01
110	0x3e216c28	0.15763915
111	0xbd18956d	-0.03725188
112	0x3c23d70a	0.01
113	0xbc92dfbc	-0.01792895
114	0xbd826ea5	-0.0636876
115	0x3c23d70a	0.01
116	0xbb77b264	-0.0037795538
117	0xbd3e87d4	-0.046516255
118	0x3c23d70a	0.01
119	0x3cd77260	0.026299655
120	0xbdcaf587	-0.09910112
121	0x3c23d70a	0.01
122	0xbd049c43	-0.032375585
123	0xbce8852f	-0.02838382
124	0x3c23d70a	0.01
125	0x3dd7213c	0.10504386
126	0xbca2232a	-0.019792158
127	0x3c23d70a	0.01
128	0x3d5c5f69	0.053801928
129	0xbd52eff4	-0.05149837
130	0x3c23d70a	0.01
131	0x3d0e634b	0.034762662
132	0xbd964e06	-0.073391005
133	0xbd810eed	-0.06301675
134	0x3d888b88	0.066672385
135	0xbde00074	-0.109375864
136	0xbd8fb84e	-0.07017575
137	0xbdc81861	-0.09770275
138	0xbdd8b15f	-0.10580706
139	0xbdaedd30	-0.08538282
140	0x3d9debb1	0.0771097
141	0x3bc7cda2	0.0060975114
142	0x3c23d70a	0.01
143	0x3d1a23c6	0.037631772
144	0xbca022d3	-0.019547855
145	0x3c23d70a	0.01
146	0xbba0dd86	-0.00490922
147	0xbb7465af	-0.0037292053
148	0x3d09c6dd	0.033636916
149	0xbda3afb7	-0.07992499
150	0xbd12647a	-0.035740353
151	0xbe02caa0	-0.12772608
152	0xbde49166	-0.11160545
153	0x3c450a15	0.0120263295
154	0x3d09062a	0.033453144
155	0x3d4b1522	0.0495807
156	0x3ceded9d	0.029043967
157	0x3c23d70a	0.01
158	0x3d9aac1b	0.07552358
159	0xbca7285c	-0.020404987
160	0x3c23d70a	0.01
161	0xbcd92871	-0.026508542
162	0x3d19356c	0.037404463
163	0xbdd479b9	-0.10374779
164	0xbb981cae	-0.0046420908
165	0x3d44f03d	0.04808067
166	0x3d801ebe	0.062558636
167	0xbe157366	-0.14594802
168	0x3d6db0d7	0.058029976
169	0x3d3ec442	0.046573885
170	0xbdb78083	-0.089600585
171	0x3e0179f2	0.12644175
172	0xbd59b135	-0.053147513
173	0xbd977b77	-0.07396596
174	0xbdcc38c8	-0.09971768
175	0xbcac2e78	-0.021018252
176	0xbdae182c	-0.08500704
177	0xb98fcaec	-0.00027426274
178	0xbd8b06a3	-0.06788375
179	0xbd8d42be	-0.06897496
180	0xbe091908	-0.13388455
181	0x3c23d70a	0.01
182	0xbda30ba0	-0.07961202
183	0x3c23d70a	0.01
184	0xbce72cb3	-0.028219556
185	0xbcde18ed	-0.027111495
186	0x3c23d70a	0.01
187	0x37c30414	2.324771e-05
188	0xbd09ea56	-0.033670746
189	0x3c23d70a	0.01
190	0xbcb4855e	-0.02203625
191	0xbcc10a6d	-0.023564542
192	0x3c23d70a	0.01
193	0x3c54e54d	0.012994123
194	0xbd334649	-0.0437682
195	0x3c23d70a	0.01
196	0x3dfb237e	0.12262629
197	0xbd14c4b5	-0.036320407
198	0x3c23d70a	0.01
199	0xbd1cbb00	-0.038264275
200	0xbd963122	-0.0733359
201	0x3c23d70a	0.01
202	0x37016cec	7.7143595e-06
203	0xbd584c54	-0.052807167
204	0x3c23d70a	0.01
205	0xbd5d5cc2	-0.05404354
206	0xbd94e063	-0.07269361
207	0x3c23d70a	0.01
208	0xbcf72fce	-0.030174162
209	0xbce66f0e	-0.028129127
210	0x3c23d70a	0.01
211	0x3dbdacf8	0.09261507
212	0xbd4fc70f	-0.050726946
213	0x3c23d70a	0.01
214	0x3ce83854	0.028347172
215	0xbd3ff12f	-0.04686087
216	0x3c23d70a	0.01
217	0x3c8c4c44	0.01712621
218	0xbd686f36	-0.056746684
219	0xbd8df2d8	-0.069310844
220	0x3d4381bd	0.04773115
221	0xbdcc7053	-0.09982362
222	0xbd84c40e	-0.06482707
223	0xbdcf4824	-0.101211816
224	0xbdac26fb	-0.084058724
225	0xbdb15225	-0.08658246
226	0x3da2bf7f	0.07946681
227	0xbca58b62	-0.020208064
228	0x3c23d70a	0.01
229	0x3b25d27f	0.0025302467
230	0xbd024f1d	-0.03181373
231	0x3c23d70a	0.01
232	0xbc703d54	-0.014663059
233	0xbc4f7431	-0.0126619795
234	0x3badc090	0.0053024963
235	0xbda6258e	-0.08112632
236	0xbd84bddc	-0.06481525
237	0xbe070187	-0.13184176
238	0xbde1adff	-0.11019515
239	0x3bf279b4	0.007399762
240	0x3cdb2985	0.026753196
241	0x3becc153	0.0072251945
242	0x3b6d4845	0.0036206406
243	0x3c23d70a	0.01
244	0x3d99eb94	0.07515636
245	0xbd24626b	-0.04013292
246	0x3c23d70a	0.01
247	0xbc5d5ce4	-0.013510916
248	0x3b142b6a	0.0022608885
249	0xbdd07b3b	-0.10179754
250	0xbcafec01	-0.02147484
251	0xbd168478	-0.036747426
252	0x3cf0d94a	0.029400486
253	0xbe0f3da4	-0.13988358
254	0x3d2c57a3	0.042075764
255	0x3bcaa420	0.006184116

model/hidden/mid_layer/W f4 [256, 256]
0	0xbb8673f7	-0.0041031796
1	0xba1d70df	-0.0006005894
2	0xbb4d60e4	-0.003133827
3	0xbaf429b9	-0.0018628157
4	0xbb2b115d	-0.0026102879
5	0xbc8ef5eb	-0.017451247
6	0xbc382a45	-0.011240547
7	0xbc2556c6	-0.010091489
8	0x3c54fe35	0.013000061
9	0xbb29552a	-0.0025838115
10	0xbc8d0fdc	-0.017219476
11	0xbc5ca0b5	-0.01346605
12	0xbcb01d24	-0.02149827
13	0xbb9676eb	-0.004591813
14	0xbc93fd90	-0.018065244
15	0xbceebf31	-0.029143902
16	0xbca6b026	-0.020347666
17	0xbc3ad660	-0.01140365
18	0xbcaa46a0	-0.02078563
19	0x3c3fe8ca	0.011713216
20	0xbcefa58a	-0.02925374
21	0x3b8a59e7	0.004222143
22	0xbbe0090c	-0.006837016
23	0xbb9d3fef	-0.0047988812
24	0xbcd88444	-0.026430257
25	0xbbddcc7b	-0.0067687607
26	0x3c5db357	0.0135315275
27	0x391b3fb0	0.00014805677
28	0xbb82d316	-0.0039924486
29	0xbbd79de8	-0.006580103
30	0xbc8192ea	-0.015817124
31	0x3b5364de	0.0032256166
32	0xbc748ded	-0.014926416
33	0xbb07bc4c	-0.00207116
34	0x3ad86ec3	0.0016512502
35	0xbc88458e	-0.016634729
36	0xbbebe8fd	-0.007199405
37	0x3ba88f92	0.005144068
38	0xbb3bdaa5	-0.0028664258
39	0xbc89b08f	-0.016807823
40	0xbc201712	-0.009771125
41	0xbc2142b7	-0.009842566
42	0xbc90cb8f	-0.01767519
43	0xbc836ad5	-0.016042152
44	0xbb674431	-0.0035288448
45	0x3b034fad	0.0020036504
46	0xbc164678	-0.0091720745
47	0x3b89cdde	0.0042054495
48	0x3c2bf5ac	0.010495584
49	0x3bc772ac	0.006086668
50	0xbbad23dd	-0.0052838163
51	0x3b3c2415	0.002870803
52	0xbc20804a	-0.0097962115
53	0xbb54c295	-0.0032464613
54	0xbb682e1c	-0.0035427874
55	0xbcd407a2	-0.025882546
56	0xbb09edc7	-0.0021046267
57	0xbc22fae7	-0.009947515
58	0xbc4509aa	-0.01202623
59	0x3ae0e156	0.0017156999
60	0xbc61d522	-0.013783725
61	0x3bcd0fad	0.006257972
62	0xbc14daa7	-0.009085334
63	0xbc3d18ad	-0.011541528
64	0xba7968cd	-0.0009514213
65	0xbc7631c0	-0.01502651
66	0xbb89b97b	-0.004203019
67	0x3b2e7fa1	0.0026626366
68	0xbc5c0997	-0.013430021
69	0xb89c7e08	-7.462135e-05
70	0x3a0cca81	0.00053707516
71	0xbc3a8ac8	-0.011385627
72	0x3bb114e8	0.0054041035
73	0xbc8f0d05	-0.017462263
74	0xbc4ab310	-0.012371793
75	0xbc2aef10	-0.0104329735
76	0xbadc6d96	-0.0016817327
77	0x3a9b8596	0.0011865373
78	0xbc880488	-0.016603723
79	0xbc3c2b64	-0.0114849545
80	0x3b13ac24	0.0022533024
81	0xbb8bc8de	-0.0042658886
82	0x3bee1117	0.007265221
83	0xbb4525e6	-0.0030082404
84	0xbc38a918	-0.011270784
85	0xbb3a7cd5	-0.0028455753
86	0xbc1bc4bd	-0.009507355
87	0xbb95a44e	-0.004566706
88	0xbc414266	-0.011795616
89	0xbc0b6067	-0.008506871
90	0xbc07318f	-0.008251562
91	0xbb4522e0	-0.0030080602
92	0x3b59ecb4	0.0033252658
93	0xbc5479e3	-0.012968513
94	0xbc49d443	-0.012318674
95	0x3c842a4d	0.016133452
96	0x3aa6d1b9	0.0012727297
97	0xbd3ce3fa	-0.046115853
98	0x3b49fb5b	0.0030819986
99	0xbc86f4f9	-0.016474234
100	0xba5d63d0	-0.0008445354
101	0xbcb5912c	-0.02216395
102	0x3c14cb8c	0.0090817325
103	0xbb3dc27d	-0.0028955035
104	0xbc6c842d	-0.01443581
105	0xbd5a2314	-0.05325611
106	0x3c8adf88	0.016952291
107	0xbc9a9454	-0.018869556
108	0xbbd68fcb	-0.006547903
109	0xbcb30b2f	-0.021855919
110	0xbaaac54e	-0.0013028772
111	0xbb99f354	-0.0046981964
112	0xbcbe6801	-0.023242952
113	0xbc3843df	-0.0112466505
114	0x3c87a482	0.016557936
115	0xbc2733d3	-0.010205227
116	0xbbb556f4	-0.0055340473
117	0xbbbe463b	-0.005806712
118	0xbb2bcb82	-0.002621383
119	0x3acf18b2	0.0015800206
120	0x3b73eb21	0.0037219005
121	0x3bfe43e7	0.0077595594
122	0xbbd00e4e	-0.0063493615
123	0xbbbd1cdf	-0.005771264
124	0xbad080f6	-0.0015907574
125	0xbd1662ac	-0.036715195
126	0xbc49e255	-0.012322028
127	0xbc350a67	-0.011049843
128	0xbbb4576a	-0.0055035846
129	0xbc0a0aa0	-0.008425385
130	0xbc1d792b	-0.009611408
131	0x3b54f6fc	0.0032495847
132	0xbceea123	-0.02912957
133	0xbc5f11f0	-0.0136151165
134	0xbc36912c	-0.01114301
135	0x3c07c69e	0.0082871
136	0xbc541162	-0.0129435975
137	0x3a206a63	0.00061193685
138	0x3b987bce	0.0046534305
139	0xbc4c2172	-0.012459146
140	0xbb3c98cb	-0.0028777595
141	0xbbd974a4	-0.006636219
142	0x3c02bfae	0.00798027
143	0x3c185bae	0.009299202
144	0xbc39d7e3	-0.011342975
145	0xbc391a6d	-0.011297804
146	0xbb76f382	-0.0037681763
147	0xbaef0108	-0.001823456
148	0xbb383a7c	-0.0028111031
149	0x3ba54169	0.005043198
150	0xbb268955	-0.0025411446
151	0xbb659e41	-0.0035036954
152	0xbbeb8c66	-0.0071883677
153	0xbcc13840	-0.023586392
154	0xbac6d605	-0.0015169984
155	0xbcb266fc	-0.021777622
156	0xbc785c5f	-0.015158742
157	0x3c243c5f	0.010024159
158	0x3b78a9db	0.0037943039
159	0xbc9a7431	-0.018854233
160	0x3be40476	0.0069585396
161	0x3aba99df	0.0014236531
162	0x3ab21c9c	0.0013588849
163	0x3c4b9911	0.012426631
164	0x391d0f8f	0.00014978483
165	0xbc138dcc	-0.009005975
166	0x3c297c2f	0.010344549
167	0xbaf5e25c	-0.0018759477
168	0xbc4ee0a5	-0.012626802
169	0xbc32021f	-0.0108647635
170	0x3c9f1ce9	0.019422965
171	0xbb9a3097	-0.0047054994
172	0x3b6092eb	0.0034267257
173	0x39ab1400	0.00032630563
174	0xbc5c3663	-0.013440701
175	0x3bfb128b	0.0076621226
176	0xbc06974c	-0.008214783
177	0xbaa44311	-0.0012532194
178	0x3b46efe6	0.0030355393
179	0x3b292dcd	0.0025814653
180	0xbac7b1cf	-0.0015235486
181	0xbc908bc2	-0.017644767
182	0xbb623fab	-0.0034522812
183	0xbbe3434a	-0.0069355117
184	0xbbf84e88	-0.007577721
185	0xbc84599d	-0.016156012
186	0xbc022022	-0.007942231
187	0xbc967ecc	-0.018371008
188	0xbcfe146f	-0.031015603
189	0xbca7c281	-0.020478489
190	0xbbc5e051	-0.0060387035
191	0xba11f6a1	-0.00055680616
192	0x3c6b6902	0.0143682975
193	0x3b3f8ace	0.002922702
194	0x3c186a05	0.009302621
195	0xbb8f1d69	-0.0043675196
196	0xbc21579f	-0.009847551
197	0x3a7464ff	0.0009322911
198	0xbccb6ebd	-0.024833078
199	0x3c631b33	0.013861465
200	0xbbcb3ea8	-0.0062025376
201	0xbbc2ac7a	-0.005940971
202	0xbbe5755c	-0.0070025157
203	0xbd09f3a9	-0.033679638
204	0xbb47b79a	-0.0030474425
205	0xbb99eda6	-0.0046975194
206	0xbcbb1ded	-0.022841418
207	0xbc47ba2e	-0.012190385
208	0x3b664e3c	0.0035141846
209	0xbb88d432	-0.0041756863
210	0xbc45e61c	-0.012078788
211	0xbc99a161	-0.01875371
212	0xbc70108e	-0.014652384
213	0xbb469184	-0.0030299136
214	0xbcb3cb2e	-0.02194747
215	0xbc61e31e	-0.013787059
216	0xbcb363f7	-0.021898253
217	0xbc08f003	-0.0083580045
218	0xba82ceb2	-0.0009979813
219	0xbc52f279	-0.012875193
220	0xbbbaa520	-0.005695954
221	0x3a876867	0.0010330797
222	0xbcf4dfd2	-0.029891882
223	0xbb9b3c91	-0.0047374447
224	0x3b67f45e	0.0035393457
225	0xbc6d4f4a	-0.014484236
226	0xbc9348f3	-0.01797912
227	0x3ab87823	0.001407389
228	0x3b406e95	0.0029362787
229	0xbb9a2c5f	-0.0047049965
230	0xbb8ff337	-0.004393007
231	0xba019628	-0.00049433345
232	0xbb10dffb	-0.002210616
233	0xbd1fbb22	-0.038996823
234	0xbc8cc22f	-0.017182438
235	0xbac78e0e	-0.0015224831
236	0x3b775d5b	0.0037744853
237	0xbba3355b	-0.0049807257
238	0x3babf1ab	0.005247315
239	0xbc81da3a	-0.015851129
240	0xbb41a96a	-0.0029550442
241	0xbc22afb9	-0.009929591
242	0xbb171c69	-0.0023057705
243	0xbce06e42	-0.027396325
244	0xbc59b410	-0.013287559
245	0xbb85fd7c	-0.0040890556
246	0xbbc5969e	-0.006029918
247	0xbd3cda60	-0.046106696
248	0xbc7eb864	-0.015546892
249	0xbbbbcd9f	-0.005731299
250	0x3b9870b0	0.0046521053
251	0xbc96c500	-0.018404484
252	0xbc100864	-0.008791063
253	0xbbfee731	-0.007779025
254	0xbcd57449	-0.026056426
255	0x3b0f638a	0.0021879398

model/a_stream/b f4 [3]
0	0x3ca81430	0.020517439
1	0xbb3a49d8	-0.0028425362
2	0xbc0cbf4d	-0.008590532

model/hidden/mid_rec_layer/upward/b f4 [80]
0	0xbb9f3b30	-0.0048593506
1	0xbd31bfff	-0.043395992
2	0x3f6cdef5	0.92527705
3	0xbd3003bf	-0.042972323
4	0xbb9bf4e9	-0.00475942
5	0xbd23f7da	-0.04003129
6	0x3f6e0f33	0.9299194
7	0xbd23a02c	-0.039947674
8	0xbb827bc3	-0.0039820387
9	0xbd5a12b8	-0.053240508
10	0x3f6edd17	0.93306106
11	0xbd5c6332	-0.053805538
12	0xbba23a4a	-0.0049507963
13	0xbd28e050	-0.041229546
14	0x3f6c01dd	0.92190343
15	0xbd28170f	-0.041037615
16	0xbba0f525	-0.004912036
17	0xbd313296	-0.043261133
18	0x3f6d3602	0.92660534
19	0xbd2fa12a	-0.042878307
20	0xbb9d2cfc	-0.0047966223
21	0xbd1bec9b	-0.03806744
22	0x3f6d5c6d	0.92719156
23	0xbd1c1d3a	-0.03811381
24	0xbbac47e3	-0.005257593
25	0xbd4ddc57	-0.05025896
26	0x3f6e09b9	0.92983586
27	0xbd4be416	-0.049778067
28	0xbb84f58c	-0.004057592
29	0xbd662c4e	-0.056194596
30	0x3f6e1070	0.9299383
31	0xbd67cf60	-0.056594253
32	0xbb977d52	-0.0046230936
33	0xbd60077d	-0.05469464
34	0x3f6e8cb5	0.9318345
35	0xbd6020a2	-0.05471862
36	0xbbb0d43d	-0.0053963945
37	0xbd532b3b	-0.0515549
38	0x3f6ca01a	0.92431796
39	0xbd5050d7	-0.050858345
40	0xbbaccb5d	-0.005273266
41	0xbd38f4a9	-0.0451552
42	0x3f6c8e74	0.92404866
43	0xbd368584	-0.044560924
44	0xbba53e07	-0.0050427946
45	0xbd2a039f	-0.04150736
46	0x3f6deba9	0.92937714
47	0xbd2975f1	-0.041372243
48	0xbbc46a71	-0.005994134
49	0xbd1077d9	-0.035270546
50	0x3f698cc8	0.9123044
51	0xbd11be8e	-0.035582118
52	0xbbabd95e	-0.005244418
53	0xbd125422	-0.035724767
54	0x3f6d117f	0.9260482
55	0xbd129c80	-0.03579378
56	0xbbad999e	-0.0052978536
57	0xbd158f2a	-0.036513485
58	0x3f6cb915	0.9246991
59	0xbd15ff71	-0.03662056
60	0xbb9aca08	-0.004723791
61	0xbd1ab113	-0.037766527
62	0x3f6ecfc9	0.93285805
63	0xbd1b00ba	-0.03784249
64	0xbb971bb0	-0.004611455
65	0xbd18c2a8	-0.037295014
66	0x3f705121	0.9387379
67	0xbd196da7	-0.03745809
68	0xbba68b1c	-0.005082501
69	0xbd30af02	-0.04313565
70	0x3f6d288e	0.92640007
71	0xbd2e3c5f	-0.042538043
72	0xbbb1fa3d	-0.005431442
73	0xbd1d66d4	-0.038428143
74	0x3f6b2c71	0.9186469
75	0xbd1d0ba3	-0.038341176
76	0xbb9f9594	-0.004870126
77	0xbd1d8019	-0.03845224
78	0x3f6ed9c0	0.9330101
79	0xbd1d8524	-0.03845705

model/hidden/input_layer/W f4 [256, 86]
0	0x3cd68147	0.026184691
1	0xbc2a29fb	-0.0103859855
2	0x3b11b403	0.002223254
3	0xbd2c793f	-0.042107817
4	0x3c9959a4	0.018719502
5	0x3cff2d92	0.03114966
6	0xbcd60270	-0.02612421
7	0xbda60ab4	-0.0810751
8	0xbb9a188a	-0.0047026323
9	0x38abc30f	8.190248e-05
10	0xbdba1e4b	-0.09087809
11	0x3c681957	0.014166198
12	0xbcd5bcfd	-0.026091093
13	0xbd0d3905	-0.034478206
14	0xbc341660	-0.010991663
15	0x3cbaa6c1	0.022784593
16	0xbc9580e1	-0.01824993
17	0xbbd92998	-0.006627273
18	0xbd77497c	-0.060372815
19	0xbd60edf1	-0.05491442
20	0x3ba8468a	0.005135362
21	0x3d4aec14	0.049541548
22	0xbd4baa23	-0.049722802
23	0xbc41d00c	-0.011829387
24	0xbc1ca633	-0.009561109
25	0xbc94b476	-0.018152457
26	0x3ba8e232	0.0051539177
27	0x3ced5cad	0.028974855
28	0xbd4d8ae4	-0.050181285
29	0x3c9b9c57	0.018995447
30	0x3cd033a7	0.025415255
31	0xbcb37eed	-0.021911109
32	0x3ce1138d	0.027475143
33	0xbd520fa3	-0.051284444
34	0xbd9866ed	-0.074415065
35	0xbb32b856	-0.0027270517
36	0xbbbc1529	-0.005739827
37	0xbbebde52	-0.0071981335
38	0x3ad81a95	0.0016487414
39	0xbd4eb12d	-0.050461937
40	0x3d1647ac	0.036689445
41	0xbc26ef57	-0.010188899
42	0x3d43b2ae	0.047777824
43	0xbc50b8fd	-0.012739417
44	0x3bfe9aa8	0.0077699013
45	0x3db8a728	0.090162575
46	0x3b839ccd	0.004016495
47	0xbd5e4023	-0.054260384
48	0x3d2002ea	0.03906528
49	0x3d6dac9b	0.058025938
50	0x39374f52	0.00017481789
51	0xbd59bef2	-0.053160615
52	0xbca04766	-0.019565295
53	0xbcebe9e2	-0.028798047
54	0x3b2a0c62	0.0025947322
55	0x3d83063b	0.06397673
56	0xb9bc7185	-0.00035942733
57	0xbbe08113	-0.0068513243
58	0xbd933134	-0.07187119
59	0x3a9e978a	0.0012099606
60	0xbb5946ba	-0.0033153729
61	0xbc84cd09	-0.01621105
62	0x3b481b7e	0.0030533965
63	0xbcb005a5	-0.021487067
64	0x3ca25c8f	0.019819526
65	0xbca32ab3	-0.019917822
66	0x3af4c6aa	0.0018674929
67	0xbcb1b18d	-0.021691108
68	0xbcea833d	-0.028627032
69	0xbded97e6	-0.11601238
70	0xbd43225f	-0.0476402
71	0xbc2995d0	-0.0103506595
72	0x3ad6849d	0.0016366426
73	0xbd611eff	-0.0549612
74	0x3bdcb63f	0.0067355926
75	0x3c39c08c	0.011337411
76	0xbdb7039d	-0.08936236
77	0xbd82ef36	-0.06393282
78	0xbbfd8cd2	-0.0077377344
79	0x3cfc6aac	0.030812584
80	0xbb9eb268	-0.004843045
81	0x3ce68651	0.028140219
82	0xbd24fe6e	-0.040281706
83	0x3d7c85f2	0.061651178
84	0xbd1b7bdc	-0.03795992
85	0x3b66be74	0.0035208734
86	0xbca827f2	-0.02052686
87	0xbc9bc214	-0.019013442
88	0xbb594401	-0.0033152106
89	0xbc9ff7c9	-0.019527333
90	0xbca38321	-0.019959988
91	0xbc5e85cb	-0.013581703
92	0xbcaf9d97	-0.02143745
93	0xbd1837b5	-0.0371625
94	0xbc159434	-0.009129573
95	0xbb654d3b	-0.003498866
96	0xbd00d2c5	-0.031451005
97	0x3bd0ac02	0.006368161
98	0xbc4a2400	-0.012337685
99	0xbc698cc5	-0.0142547535
100	0xbc4c378e	-0.012464417
101	0xbb6518dd	-0.0034957447
102	0xbca0563c	-0.01957237
103	0x3c0cfff3	0.008605945
104	0xbbcd7ec5	-0.0062712156
105	0x3c886926	0.016651701
106	0xbade94a4	-0.0016981554
107	0xbbebf71f	-0.00720109
108	0xbc9fad91	-0.019491943
109	0x3b878a1c	0.004136337
110	0xbc06e498	-0.008233212
111	0xbd29c503	-0.04144765
112	0xbbaa743e	-0.0052018454
113	0xbb708eb4	-0.0036706151
114	0x3c7e6e24	0.015529189
115	0xbbc1867f	-0.0059059258
116	0xbc8ffeb5	-0.017577508
117	0xbbceb7b0	-0.0063085184
118	0xbbf0e40e	-0.007351405
119	0xbbcd5051	-0.006265678
120	0xbcd70c48	-0.026250973
121	0xbbcaf896	-0.0061941845
122	0xbc587562	-0.01321158
123	0x3c094beb	0.008379917
124	0x3bed3241	0.0072386567
125	0x3b673102	0.0035277014
126	0xbcbf1dc6	-0.023329627
127	0xbbb26d1b	-0.0054451353
128	0x3b64631f	0.003484912
129	0xbca959a0	-0.02067262
130	0x3b672521	0.0035269933
131	0xbc4558f9	-0.0120451385
132	0xbc987d40	-0.018614411
133	0xbced8a7e	-0.028996702
134	0x3bf74bed	0.007546893
135	0xbccbd873	-0.024883484
136	0xbca94997	-0.020664973
137	0x3c898458	0.01678674
138	0xbbbd5933	-0.0057784556
139	0xbbcc70da	-0.006239039
140	0xbc444dac	-0.011981409
141	0xbcc81818	-0.024425551
142	0x3c829b65	0.015943239
143	0x3c3fd100	0.011707544
144	0xbcc22cd6	-0.02370302
145	0x3c725514	0.014790792
146	0x3bfc322c	0.0076964106
147	0x3c561ab8	0.013067894
148	0xbc97a2bc	-0.018510215
149	0x3be7a81c	0.0070696007
150	0xbc926686	-0.017871153
151	0x3c0dfb47	0.008665866
152	0x3c223c44	0.009902064
153	0x3b05480c	0.0020337133
154	0xbc5f55fe	-0.013631342
155	0xbc7f028c	-0.015564572
156	0xbbfec5c5	-0.007775041
157	0xbb8a6ae8	-0.00422417
158	0xbc0d6b96	-0.0086316075
159	0xbcaa7131	-0.020805927
160	0x3b3d40aa	0.0028877654
161	0xbc9efc68	-0.019407466
162	0x3a6076c9	0.0008562622
163	0x3c3b81e1	0.01144454
164	0xbcd8b06c	-0.026451312
165	0xbce58568	-0.028017715
166	0xbce69105	-0.028145323
167	0x3c2e629b	0.010643627
168	0xbc87e2c2	-0.016587619
169	0xbcf4b276	-0.029870253
170	0xbc83b07b	-0.016075363
171	0xbcf7e027	-0.030258251
172	0xbc8532a4	-0.016259499
173	0xbc4d9520	-0.012547761
174	0xbb979b6b	-0.0046266816
175	0x3bc1444d	0.0058980347
176	0xbcfcb51f	-0.030848084
177	0xbc5803a4	-0.013184462
178	0xbd068183	-0.032838356
179	0x3b8bc62f	0.0042655687
180	0xbd5533e0	-0.052051425
181	0x3b12e396	0.0022413484
182	0x3ceeb865	0.02914066
183	0xbc52dd58	-0.012870155
184	0x3a95355a	0.0011383698
185	0xbc97c9e0	-0.018528879
186	0x3c1a9909	0.0094359005
187	0x3c3231d0	0.010876134
188	0x3cbd15e5	0.02308173
189	0x3caa0bb0	0.020757526
190	0xbd3bf3d5	-0.045886833
191	0xba94fd34	-0.0011366964
192	0xbad3d9e2	-0.0016162957
193	0xbd0ffca0	-0.03515303
194	0xbbedbf1d	-0.0072554485
195	0xbc263ccc	-0.010146331
196	0x3beb86ee	0.0071877157
197	0xbcd4a2ae	-0.025956478
198	0xbaf10cf4	-0.0018390701
199	0x3b523187	0.0032072978
200	0xbd71aae6	-0.059000872
201	0xbc94ba0a	-0.018155117
202	0xbd14816a	-0.03625623
203	0x3c0e6a70	0.008692369
204	0x3b51209a	0.0031910301
205	0x3d8071fe	0.06271742
206	0xbd0c2d6f	-0.034223016
207	0x3c1c482e	0.009538693
208	0xbd2b2c10	-0.04179007
209	0xbd130b9c	-0.035899743
210	0x3c82d209	0.015969293
211	0xbd05c845	-0.032661695
212	0xbca61f83	-0.020278698
213	0xb9d21233	-0.0004006788
214	0xbd842937	-0.064531736
215	0x3cfef63f	0.031123279
216	0xbba4fb98	-0.005034875
217	0xbcc446d7	-0.02395956
218	0x3c5ad269	0.01335583
219	0xbcb82e57	-0.022483034
220	0xbc8ddb52	-0.017316494
221	0xbd8d1029	-0.06887848
222	0x3b6309e7	0.0034643353
223	0xbca25369	-0.019815164
224	0x3c388e79	0.011264437
225	0xbb81d494	-0.003962109
226	0xbd2af6d2	-0.041739292
227	0xbd9ed881	-0.077561386
228	0xbb39112f	-0.0028239002
229	0xbd0da696	-0.034582697
230	0xbd047812	-0.03234107
231	0x3c3da7fe	0.011575697
232	0x3d34ea2a	0.04416863
233	0xbca03283	-0.019555336
234	0xbc522837	-0.012826971
235	0xb91aa7d4	-0.00014749105
236	0xbd80dc67	-0.062920384
237	0xbcf7e265	-0.03025932
238	0xbd15cc46	-0.036571763
239	0xbc6af3fc	-0.014340397
240	0xbcfa779a	-0.030574609
241	0xbc74ea64	-0.014948461
242	0xbd4c667a	-0.049902417
243	0x3c17695f	0.009241431
244	0x3d88cc02	0.066795364
245	0x3c0840e4	0.008316252
246	0xbbe4df42	-0.006984622
247	0x3d820ba5	0.06349877
248	0x3c4f33d3	0.012646633
249	0xbaba6db3	-0.0014223367
250	0xbc2f7042	-0.010707917
251	0x3c2b869a	0.010469103
252	0x3d46fb16	0.048579298
253	0xbc2bde10	-0.010489956
254	0xbc7e1f22	-0.015510352
255	0xbd0a16de	-0.033713214
