ai_challenge/results/simulation_DoubleDQN_DuelingRecNN_2017-05-19T19:40:53.24/280005/target_model.npz (npz, 631980 bytes, 12 tensors)

model/hidden/input_layer/b f4 [256]
00000000: 1222 24bd 5d5f e5bc f5f5 13bd f5e2 bbbc
00000010: d7f6 e8bb 6970 5dbd 6391 66bd 8f8d a6bd
00000020: 3fc4 ebbc 760a 51bc 2fe3 d73c 1bb1 1abd
00000030: 9888 14bd 7192 0abd 7595 9dbd b13a b4bc
00000040: 8d08 1cbd 9d6b 19bd e1cc d7bc 7d53 62bd
00000050: c56f 34bd 5e37 debc 75ee b93c f4ac a1bc
00000060: 1da6 65bd 61dd 13bd e1e0 10bd 2f13 43bc
00000070: a946 18bd d31d 07bd 38be 8bbd 76ca 71bc
00000080: 038b 2cbc a1f0 00bd 6072 213d b37a d4bc
00000090: 3a59 89bd 18c4 11bd eb63 72bd 5b97 e4bc
000000a0: 7ae4 5abc 5ea2 4abd f9b0 133d 0c84 46bd
000000b0: fb6c 82bd 3332 c5bc f703 edbc bb4b 36bd
000000c0: 6284 e03b db3d 39bd 54bc 90bd ff0d b9bc
000000d0: 05d0 f3bc aef3 03bd 1b6e 04bd 89ae 14bd
000000e0: 20eb 1abd f611 4bbd 020b e0bc 2f38 febc
000000f0: 42ba 46bd 4a5b 0ebd 0087 3abd 6417 26bc
00000100: 0614 c8bb d4da 32bd 5b8f 4cbd 8889 dcbc
00000110: c3b3 17bd 87b0 80bd 9541 4ebd 1bc5 a0bd
00000120: bda6 d9bc 1654 07bd 78b1 fcbb 5191 50bd
00000130: 6c49 81bc 0ac3 1cbd 01de 9cbc 6be4 58bd
00000140: 47f8 7abd 9873 46bd 3a2f 4bbd f1cc 52bd
00000150: 7c08 4bbd 6a6c 5ebd 73c5 57bd 37b1 68bd
00000160: ce88 22bd 4c8c a9bd 5b1e ad3c 4588 7cbc
00000170: 4800 56bd 37bb 16bd c570 1ebc 8f4a 38bc
00000180: eaad f8bb 2cd8 fbbb 15a9 a53c c523 ceba
00000190: 1afb bcbc 9ef0 51bd 4f15 0b3c b3f3 8cbc
000001a0: 29a7 a03b a5ca b0bb 6806 46bc eb84 66bd
000001b0: 0115 35bd 02bc b6bd 41fe 83bd 803f 4fbd
000001c0: 0469 f8bc cbbc 65bd c989 52bd 51ef f1bc
000001d0: 478e 40bd 1851 5cbd b0fe 55bd b01b 29bd
000001e0: f0cd 9ebd 0253 64bc 6ad6 fbbc 8f4e 97bd
000001f0: 65b5 3bbd af7d 98bc 85a5 63bd e20b b43c
00000200: 011d 1bbc ebbd 52bd 090c 61bd 9da2 f3bc
00000210: 239f b0bc 325c e2bc 6861 d0bb e13d 51bd
00000220: 283e 0abd 62bb 55bd 58fc 51bd 979e 643c
00000230: 4cfb 0fbd 05e6 42bc 3696 21bd d68b 7ebb
00000240: 1d7b 10bd 0fa0 a3bc efb0 54bd 8b2c 63bd
00000250: ee9e 90bd ed64 69bd dadc acbc 73ff 85bd
00000260: fb60 42bd d674 1fbd c623 c3bc 9b0c 7dbc
00000270: f44c 76bd 30cc 81bc 2fdb 0fbc d2f1 c0bc
00000280: a1fb c4bc e82a 98bd 676c e33b 6283 13bd
00000290: f441 1bbd 206b e4bb 0f07 6bbd 4157 7d3c
000002a0: af31 273b 0639 02bd b750 75bb 17e4 e83b
000002b0: b52e a7bc deed bcbc 0de1 9f38 e5e0 b9bc
000002c0: 7f24 c4bc 2d82 57bd 36ae 24bd 981d 63bd
000002d0: e882 41bd 81f3 e2bc 34ad e3bc a85c 1ebd
000002e0: 5fc9 80bc 9432 5fbd a30d 17bd 5b03 8fbd
000002f0: 4805 11bd 30a6 a7bc d9ad 41bd 53b9 47bd
00000300: a4c7 2abd f8ac 4fbd 4aac 0dbd 5322 6ebd
00000310: c32e 1ebd 1bd5 23bd 74d5 34bd 3741 723c
00000320: ffcc 80ba 889b 18bd fa10 13bd 33a3 a8bd
00000330: 7486 45bd 1cf6 a6bb 298c 30bd 27cc 5dbd
00000340: ac79 10bd 6464 ecbc 17d3 2dbd 0a62 19bd
00000350: a0de b5bc fb4e cabc 28d5 87bd 0bd9 7ebd
00000360: c540 9abc 904b 4bbd ba38 2dbc 693d 14bd
00000370: 9d04 c2bc 282e 863c 9dee 7abc 3ea5 30bc
00000380: 949b d8bc b210 c03c 3927 37bd 7f8c 60bd
00000390: a9a9 01bd e6da 95bc cf43 78bd 7658 64bd
000003a0: 7d1b 53bd 8213 483c 7256 4cbc bb9b b1bc
000003b0: 6fd4 81bd f5e1 20bd 84a3 26bd 327b 3dbd
000003c0: 42ea 10bd 2efa 52bb 8ddc 30bd b31b 70bd
000003d0: e256 93bc 5f48 6e3c 9a97 60bd b565 5cbd
000003e0: f73a 0abd 802e 6dbd 821b 1ebc c5a3 88bc
000003f0: 96f9 efba c5ee 61bd 35a6 5cbd bc29 44bd
-0.040071554 -0.027999574 -0.036123235 -0.02293537 -0.0071095037 -0.05406228 -0.056290995 -0.08132469
-0.0287801 -0.012758842 0.026353447 -0.037766557 -0.03626308 -0.033831064 -0.07694522 -0.022000642
-0.038094092 -0.037456144 -0.026342811 -0.055255402 -0.044051904 -0.02712601 0.022696713 -0.01973579
-0.05606662 -0.036099795 -0.03537071 -0.011906429 -0.03717676 -0.032987427 -0.06823391 -0.014757743
-0.01053119 -0.03147948 0.039415717 -0.025937414 -0.06706472 -0.0355874 -0.05917732 -0.027904203
-0.013360137 -0.04947125 0.036057446 -0.048465773 -0.063684426 -0.024071788 -0.028932555 -0.044505816
0.0068517188 -0.045225006 -0.07067171 -0.022589682 -0.029762277 -0.032214813 -0.032331567 -0.036299262
-0.03782189 -0.049577676 -0.027348999 -0.03103265 -0.048517473 -0.03475503 -0.045538902 -0.010137413
-0.0061059026 -0.043665722 -0.049941402 -0.026921049 -0.03703667 -0.0628367 -0.050355513 -0.07850095
-0.026568765 -0.033039175 -0.0077115856 -0.050919835 -0.01578208 -0.03827194 -0.019148828 -0.05295221
-0.061271932 -0.048450083 -0.049605586 -0.05146498 -0.04956864 -0.05430261 -0.052678537 -0.05680963
-0.03968125 -0.08278713 0.021132639 -0.015413349 -0.052246362 -0.036799636 -0.009670441 -0.011248245
-0.0075890915 -0.007685682 0.020222226 -0.0015727213 -0.023068953 -0.05125486 0.008488967 -0.017206049
0.0049027395 -0.005395251 -0.012086488 -0.056279104 -0.044209484 -0.089225784 -0.064449795 -0.050597668
-0.030323513 -0.05608825 -0.051400933 -0.02953306 -0.047010686 -0.053788275 -0.052244842 -0.04128617
-0.07754123 -0.013935806 -0.030741889 -0.07388031 -0.04582729 -0.018614618 -0.055577774 0.021978322
-0.009467364 -0.05145065 -0.05494312 -0.029740626 -0.021560257 -0.027631853 -0.006359268 -0.051084403
-0.033750683 -0.052180655 -0.051266044 0.013953826 -0.035151765 -0.011895661 -0.039449893 -0.0038840673
-0.03527366 -0.019973783 -0.05192655 -0.0554624 -0.070615634 -0.056981016 -0.021101404 -0.06542864
-0.04745577 -0.038929783 -0.023820769 -0.0154449 -0.060131982 -0.015844434 -0.008780285 -0.023552809
-0.024045767 -0.07430059 0.006940413 -0.03601397 -0.037904695 -0.006970778 -0.05737978 0.0154626975
0.0025511791 -0.031792663 -0.0037432143 0.0071072686 -0.020408014 -0.023062643 7.62363e-05 -0.022690246
-0.023943184 -0.05261438 -0.040205203 -0.055448145 -0.047243983 -0.027704002 -0.02779255 -0.038662583
-0.015721021 -0.054491594 -0.03687824 -0.06983062 -0.035405427 -0.020464987 -0.047284935 -0.048760723
-0.0416943 -0.050702065 -0.034588136 -0.058138203 -0.038618814 -0.039998155 -0.044148877 0.014786056
-0.0009826719 -0.0372577 -0.035904862 -0.08234253 -0.048223928 -0.0050952565 -0.043102417 -0.054149773
-0.035272285 -0.028856464 -0.04243764 -0.037447013 -0.022200882 -0.024695864 -0.06632453 -0.062218707
-0.018829713 -0.04963261 -0.010572607 -0.036191378 -0.02368384 0.01637943 -0.015315679 -0.010781584
-0.026441373 0.023445461 -0.04471514 -0.054821488 -0.03165594 -0.018292855 -0.060611542 -0.055748425
-0.051539887 0.012211682 -0.012471782 -0.021680703 -0.063393466 -0.03927799 -0.040683284 -0.046260066
-0.035379656 -0.0032192576 -0.043179084 -0.058620166 -0.017985765 0.014543622 -0.05483208 -0.053807933
-0.03374764 -0.057905674 -0.009650113 -0.016679654 -0.0018308635 -0.05515935 -0.053869445 -0.047891364

model/hidden/output_layer/b f4 [256]
00000000: 92c6 963c 2a04 39bc ea74 303a 2c11 8dbc
00000010: ad15 593c 3140 173c 8cbd f43b e873 613c
00000020: 7d47 32bc b52d 893c a96e b6bc 1270 c33a
00000030: 72c2 613c fc1c 86bb 3295 913c 2fa1 543c
00000040: 8933 2fbb f148 5fbb 6a76 84bc 6491 533c
00000050: 0747 21bc 25c8 62bc cbc0 283c d0f0 abbb
00000060: 2756 bcbb 3653 5b3b 8255 6fbc 7189 1cbb
00000070: 5056 cfba 551f b43c fd5a 9dbc 4766 69bc
00000080: 285d 84bb ffa0 76bc 36b0 5f3c db7e ffbb
00000090: e5e7 48bc b22b 4f3b 32db 563c 5fc4 5f3a
000000a0: 3748 573c ab79 663a b2cf da3a a31a 953c
000000b0: 69d5 b13b 7f37 5abc d35a 85bc 020a 093c
000000c0: 907e a0bc 358b 043c c413 53bc 93de 90bc
000000d0: 7a39 b4bc 49a5 be3b d7b6 d3bb 108c 913b
000000e0: 2f31 a2bc 0316 54bc 28e8 b93b 3f8b d7bb
000000f0: 8e48 12bb 8908 483c ac6e 9b3c 41bd 25bc
00000100: 0382 523c a1fb 3a3c c374 80bc 0d7a 3bbc
00000110: cc29 75bc 0fb6 83bc e1a2 5fbc 877f 823c
00000120: 61e2 4dbc 2d84 a5bc d40e 0bbc b4fc a6bb
00000130: ad2c babb 2a45 9c3b adbe 7fbb a1cd 053c
00000140: 5fce b7bb ac7b c8bb a925 f7bb 3503 ff3b
00000150: bbc0 063c c675 99bc 91d6 893b 77eb 453c
00000160: c0bb b3bc a822 84bc aa89 953b 1ab5 443c
00000170: 0b67 5c3c 0081 3aba dbf7 28bc 3129 593c
00000180: 0485 3dbc 64a8 b4bb 9993 553c ffa2 4dbc
00000190: fc07 543c 4dc8 b9bb a2d7 9bbc abbb b23b
000001a0: 69ad 94bb ce7b 893c deae 7abc 5e2e d33b
000001b0: df6e c93b 36d3 403a 6442 993c 9b8d b33b
000001c0: c457 b0bc ef3f f93b 4ae2 4ebc 2aa9 48bc
000001d0: c78f 92bc 5361 edbb b41a df3a 304b 6f3c
000001e0: 48b3 22ba 12b1 efb8 49d4 583c 39bf df3b
000001f0: 3766 3dbc c1c6 3d3c 4ca5 523c 47e9 c43b
00000200: 57c0 58bb d6c4 91bc 5943 d33a aab9 50bc
00000210: 7914 723c 54d8 dfbb 6bc9 a1bb 17ce 6ebc
00000220: 60fc 4bbc b3c3 143c c1a8 623c adef 133c
00000230: 9ae7 883c ac60 39bc cf88 a03b b17f 8abb
00000240: e2ab 60bc e90a 8e3c 2c04 633c ac3b 25bc
00000250: 2365 163c d415 7dbc f0a3 48bc c55d 07ba
00000260: 0238 04bc c46a 5bbc fc54 f13b c684 2e3b
00000270: d3cc 34bc 8d85 823b 7a57 b33b 3194 493c
00000280: 1c27 823b 2e7d 333c 2dab 10bc 4d04 c63b
00000290: 5866 44bc 42a5 a6bc 35c4 92bc 5a34 c5bb
000002a0: 42f8 fb3b 4a0c e53b 4436 583c 4570 50bc
000002b0: c3cc 05bb 5cb0 863c 76c9 953c 0812 ce3b
000002c0: b441 983b a398 65ba 7181 24bb 768e 93bb
000002d0: 5a9e 943c 07eb 533c c6dc 88bc 2eae 2abc
000002e0: e5b5 943c e1ab 90bc f7f6 9e3c 03bf b5bb
000002f0: bf07 4cbc 5a5a 3cbc 2ea4 463c aab7 93bc
00000300: 797e 233b afaa d23b d694 8d3b 4a38 b6bc
00000310: 9016 833c 931a f8bb ad5c 703c 368b 50bc
00000320: 836f 443b a1e5 293c 666c 383c fac1 9ebc
00000330: 2876 0b3c 59d8 6bbc c007 413c c947 c03b
00000340: 073d 4fbc 46cf 0cbc a2c6 fc39 b12e fdb9
00000350: 4242 71bc e70c 5fbc 4c63 943b 7a32 013c
00000360: 2ca6 593c 5353 0ebb 4a3e 6abc 31a8 813c
00000370: d02a 743b 58cc 783c cd4b bd3c e9a3 3abb
00000380: 7b5e 573c 7e9e 60bb 6df4 313c 9fd8 4fbc
00000390: 9d31 c0bc 738d 4c3c cf0b 85bc ada2 8a3c
000003a0: 201b 6b3c 7f3d b1bb 9a58 343c 8c81 30bc
000003b0: b633 47bc f2a4 21bc 71ac 9b3c 45a5 2e3c
000003c0: 2eea 803c 9993 22bc 57d4 453c 575e 25bc
000003d0: 55fe b7bb 474c 4b3c 7fdb 733b 8c5b b93b
000003e0: 0cd4 f43a a798 5abc 7724 613c d952 183c
000003f0: 7c5f 23ba 9794 003c cfe8 61bb 5f7a ad3b
0.018405233 -0.011292497 0.0006731289 -0.017220102 0.013249797 0.009231613 0.007468885 0.013760544
-0.010881302 0.016745428 -0.022269564 0.0014910719 0.0137792695 -0.0040928107 0.017771337 0.012977882
-0.0026733598 -0.0034070576 -0.016169745 0.012913082 -0.009843594 -0.0138416635 0.010299872 -0.005247213
-0.005747575 0.0033466346 -0.014607789 -0.0023885632 -0.001581857 0.021987597 -0.019208426 -0.014245576
-0.0040394254 -0.015053033 0.013652852 -0.007797105 -0.012262319 0.0031611738 0.013113784 0.00085360365
0.013139776 0.00087919337 0.0016693978 0.018201178 0.005427052 -0.013318895 -0.01627866 0.008364202
-0.0195916 0.00808983 -0.01288313 -0.017684257 -0.022000063 0.0058180434 -0.006461005 0.0044417456
-0.019798843 -0.012944701 0.005673427 -0.0065778787 -0.0022321078 0.012209066 0.01897367 -0.010115922
0.01284838 0.011412532 -0.015680676 -0.011442673 -0.014963578 -0.016078023 -0.013649673 0.01592995
-0.01256618 -0.020204628 -0.008487422 -0.0050960425 -0.0056815953 0.004768987 -0.0039023564 0.0081667015
-0.005609318 -0.0061182585 -0.0075423312 0.0077823647 0.008224661 -0.018732917 0.0042064865 0.012080065
-0.021940112 -0.016129807 0.00456353 0.012006069 0.013452302 -0.00071145594 -0.010313 0.01325445
-0.011567358 -0.005513238 0.013035678 -0.012551068 0.012941357 -0.0056696297 -0.01902372 0.0054545007
-0.0045372737 0.016782667 -0.015300481 0.0064447364 0.00614725 0.00073556916 0.018708415 0.005479527
-0.021526225 0.0076064984 -0.012627194 -0.012247363 -0.017890824 -0.007244268 0.0017021508 0.014605328
-0.00062065246 -0.0001142939 0.0132342065 0.0068282154 -0.011560014 0.011583031 0.012856793 0.006009254
-0.0033073628 -0.017794054 0.0016118094 -0.012739578 0.014775389 -0.0068312082 -0.004937341 -0.014575503
-0.012450308 0.009079861 0.013834179 0.009029311 0.016711999 -0.011314552 0.0048991214 -0.004226648
-0.013712855 0.017339187 0.013855975 -0.010085028 0.009179386 -0.015447099 -0.012246117 -0.0005163814
-0.008069994 -0.013392154 0.0073648673 0.0026629432 -0.011035162 0.0039832057 0.0054730745 0.012303398
0.0039719474 0.010955138 -0.008829874 0.006042993 -0.011987291 -0.020342473 -0.017915824 -0.0060182037
0.0076895067 0.0069899904 0.013196532 -0.01272208 -0.0020416237 0.016441517 0.01828454 0.0062887706
0.0046465043 -0.00087584014 -0.0025101567 -0.0045030667 0.018141914 0.012934453 -0.016706835 -0.010417504
0.01815314 -0.017660083 0.019404871 -0.005546452 -0.012453019 -0.011496151 0.012124104 -0.018031914
0.002494721 0.0064290385 0.004320721 -0.022243638 0.01600197 -0.0075715273 0.014670533 -0.012728503
0.0029973693 0.010369689 0.011256313 -0.019379605 0.008512057 -0.014394843 0.011781633 0.0058679325
-0.012648827 -0.00859434 0.00048213179 -0.00048290708 -0.01472527 -0.013613916 0.0045284387 0.00788557
0.013284247 -0.0021717146 -0.014297077 0.01582727 0.0037256964 0.015185438 0.023107434 -0.0028479046
0.0131450845 -0.0034274156 0.010861498 -0.012685924 -0.023461157 0.012484896 -0.016240982 0.016923273
0.014349729 -0.0054089422 0.011007452 -0.010773074 -0.012158325 -0.009865986 0.019003125 0.0106595205
0.015736666 -0.009922885 0.012074552 -0.010093293 -0.0056150355 0.012408323 0.0037209687 0.005656665
0.0018678918 -0.013342059 0.013741604 0.009297096 -0.0006232185 0.007847927 -0.003447104 0.005294129

model/a_stream/W f4 [3, 256]
00000000: 77df 83bc 886d 4d3c 04fb 35bd 7c4c aa3c
00000010: 9fd2 2dbc 2354 c3bc c393 b73c ba7c 41bc
00000020: 9176 b53c 5860 0ebc 875d 633c 4b76 59bc
00000030: ab6e 4ebc e2cc 39bd c78b 12bc 61f8 48bb
00000040: 156f 843c 42a5 cbbc 1138 543c eb84 03bc
00000050: 856e 5d3c 1611 943b 0d8d a03b b559 cc3c
00000060: a579 093d c8b4 41bd 6237 983c dc9f 24bd
00000070: e51a 553d cc0f abbc 5578 453c 5f4b 2e3c
00000080: c73d 1abd 4424 5f3c 650e 8bbc 3ea3 89bc
00000090: 21f9 b43c b9db 07bd c3d8 2f3b 51c4 1cbd
000000a0: 4b04 65bc aa21 033d c5fc 0e3d 183d 8ebb
000000b0: c3d9 243d c20c 4a3c 2c78 543c 7aed 193d
000000c0: 2fdd f23c 4f4f a6bc 0f4b f43b 05f3 813c
000000d0: 6656 a43b a5f2 0b3d 5c28 aebc de7d 383c
000000e0: bc60 e83c de04 8d3c a14b 333d a29f 46bc
000000f0: 2a04 86bc ac0c 973c 0781 2cbc 624b 18bc
00000100: 69d3 8dbc d6c6 c3bc 54f2 d63b 11b7 d4b9
00000110: 6940 0eba a081 473c f435 4c3c 629f d9bb
00000120: 9daf a73c 62be 9a3b dbd7 2bbd ce78 24bd
00000130: dcc6 b53c c3c9 c8bc ba52 35bd 7b73 cc3c
00000140: 78c0 d63c 65eb 713d dec2 01bd e9e3 abbc
00000150: 2107 0e3d 8d68 ca3a c8f5 0c3d 42e1 923c
00000160: ebe6 413c 9fcf 1e3c 14e6 343d 946b 8dba
00000170: 9be3 27bb c460 30bd 5e59 9039 5d53 05bc
00000180: 4635 223c 0a29 b03c 068d 8fbb 635d b0bb
00000190: 7d28 dfbb f210 babc 37a4 a53c d8a0 e13c
000001a0: 1abf fabc 13af c0bc de8f 1d3c 00d4 003d
000001b0: a07b d0bc 58dc 023c 101b 95bc a347 043d
000001c0: 516d cf3b 9c21 0a3d a9cf 1e39 c3af 2a3c
000001d0: da3a 8a3c bd24 983b 79ea 14bd 2e83 3dbc
000001e0: 9954 dcbc b268 22bd 9403 c7bc d5f5 2b3c
000001f0: 502d c43c d05b cf3b 0a00 223a 8f4a b53c
00000200: c08c 2dbd 45a9 7f3c 0e6c 26bd 3271 2dbc
00000210: bcbc 86bb 19e7 0bbc 7bad d03c 33c2 1d3b
00000220: 6184 d93b de1c 693c 37c1 023c a263 40bb
00000230: 26e2 4cbb 6b07 333c 2137 b6bc 8618 003d
00000240: 6c1f 7a3c 42c7 a2bc 8f66 80bc 0625 4c3c
00000250: d017 d33c 6f6d 233c 6ea5 343b 200c e5bb
00000260: 2a04 39bd 6351 7a3c 92f8 933c ae78 c4bc
00000270: 0009 883c d1c5 e93c 7ac0 1e3d 158a dabc
00000280: 4e68 253d 7c3f bfbc 7179 f9bb 6874 813c
00000290: b15f a03c b35c 493c 2a3f 493b cdb9 c0bc
000002a0: 7bfe 46bc cac1 1e3d 6cc6 fa3b 7c98 823c
000002b0: 5215 b63c 62bf dbbb 9fab 2fbc caec 28bc
000002c0: 47e4 163d afaf 85bc 8f34 fbbc 3a52 83bc
000002d0: 62b9 adbc 7074 5dbc eebd ff3b 5f6a 783c
000002e0: 1a81 42ba 5a8c e43b e0ba e0ba 578b 22bd
000002f0: 7f00 ae3c 0466 b0bb 1c0f 87bc f461 e4ba
00000300: 271c 163d 6083 df3c db1a d43c 6516 92bd
00000310: dac8 a7bc ce1a 4f3c b76e d8bc adbe 8e3b
00000320: 6770 19bd 9588 93bb 3b9c b6bc 50ea dd3c
00000330: 108b 783d 83f7 35ba e965 c0bc 3833 b63c
00000340: f76b ae3c 1148 8abc 2e11 363d 963e eebc
00000350: c97c b93b ee59 1c3b d872 113d f040 3ebc
00000360: 19e5 7abb cf3b 2abd 9c72 bab9 ee0a 2cbc
00000370: e9a5 cf3c 95ce 36bc 2db6 0dbc 3576 503d
00000380: f353 10bc b84d 2abd bca8 0d3c c638 943c
00000390: 8148 063c d1fe 58bc f035 333c 59bb efbb
000003a0: 8281 a8bb e09f aa3c c273 743d d251 d4bb
000003b0: 5924 af3c 156b c1ba aa13 65bc 94bf 5e3c
000003c0: 4a2c 2bbc bde4 1cbc c08b 9abc 5ebf d33c
000003d0: 8840 27bd 2df1 2ebc b23e 2f3d 02ee 333d
000003e0: 22ac 41bc 9ade 943b 724d d6bc 2f48 b53c
000003f0: f7f5 a4bc 94f0 a63c 7527 2cbd bd44 d43c
-0.016097767 0.012538321 -0.04442884 0.020788424 -0.010609298 -0.02384383 0.022409325 -0.011809522
0.022151263 -0.008689962 0.013877279 -0.013272832 -0.0125996275 -0.045361407 -0.008944458 -0.0030665623
0.01616625 -0.024859075 0.01295282 -0.008027296 0.013515119 0.0045186384 0.004899627 0.02494512
0.033563275 -0.047291547 0.018581096 -0.040191516 0.0520276 -0.020881556 0.012052615 0.010638087
-0.03765657 0.013619486 -0.016974637 -0.016801473 0.02209145 -0.03316853 0.002683208 -0.03827316
-0.013978074 0.032014526 0.03490903 -0.004340779 0.040246736 0.012332143 0.012968104 0.03757999
0.029646484 -0.02030149 0.0074552367 0.015862951 0.0050151823 0.03416695 -0.02125948 0.011260478
0.028366439 0.017214235 0.043773297 -0.01212302 -0.016359407 0.01843866 -0.010528809 -0.009295316
-0.017312722 -0.023898523 0.0065596495 -0.00040572186 -0.0005426468 0.012176901 0.012464035 -0.0066413144
0.020469481 0.0047224024 -0.041953903 -0.04015427 0.02218955 -0.02451027 -0.044268347 0.02495741
0.026214823 0.05906238 -0.03167998 -0.0209827 0.034674767 0.0015442536 0.034414083 0.017929677
0.01183484 0.009693055 0.044164732 -0.0010789507 -0.0025617841 -0.043061033 0.00027532404 -0.008137551
0.009900397 0.021503944 -0.004380825 -0.0053822263 -0.0068102465 -0.022713158 0.020219905 0.027542517
-0.030608702 -0.023520982 0.00961682 0.03145218 -0.025449574 0.007987104 -0.018201381 0.03229488
0.00633017 0.03372346 0.00015145414 0.010417881 0.016873766 0.0046430514 -0.036356423 -0.01156692
-0.026895808 -0.039650626 -0.024293698 0.010495623 0.023947388 0.0063280836 0.00061798154 0.022130279
-0.042370558 0.015604322 -0.040630393 -0.01058607 -0.0041118544 -0.008538985 0.025473347 0.002407205
0.0066380952 0.014228074 0.007980636 -0.002935626 -0.0031262725 0.010927062 -0.022243084 0.031273387
0.015266281 -0.019870404 -0.015673904 0.012459999 0.02576819 0.0099748215 0.0027564424 -0.006989971
-0.045169987 0.015278193 0.018062863 -0.023983326 0.016605854 0.028536709 0.03875778 -0.02667717
0.040382676 -0.023345701 -0.007613354 0.015802577 0.01957688 0.012290168 0.0030707815 -0.023526097
-0.012145634 0.03875903 0.0076530483 0.01594185 0.022226963 -0.006706164 -0.01072207 -0.010310361
0.036838796 -0.016319124 -0.03066471 -0.01603042 -0.021206561 -0.01351653 0.007804624 0.01516208
-0.00074197503 0.006974739 -0.0017145537 -0.039683666 0.02124047 -0.005383255 -0.016486697 -0.0017424212
0.036647942 0.027284324 0.025891712 -0.07133178 -0.020481516 0.012640668 -0.02641998 0.0043562264
-0.03746071 -0.004502366 -0.022291293 0.027089268 0.060679495 -0.0006941484 -0.023486095 0.02224122
0.021291716 -0.016880067 0.044449978 -0.029082578 0.0056606275 0.0023857313 0.035509914 -0.011612162
-0.0038283526 -0.041560944 -0.00035562075 -0.010500653 0.025347667 -0.011157651 -0.008649391 0.05089398
-0.008809078 -0.041578025 0.008646186 0.018093478 0.008195997 -0.013244347 0.010938153 -0.0073160348
-0.0051423917 0.020828187 0.059680708 -0.0064794803 0.021379637 -0.0014756644 -0.013981739 0.0135954805
-0.010447571 -0.00957602 -0.018865466 0.025848087 -0.040833026 -0.010677618 0.0427844 0.043928154
-0.011820825 0.0045431377 -0.026159976 0.022129146 -0.020136816 0.020378388 -0.042029817 0.025911683

model/hidden/mid_rec_layer/upward/W f4 [80, 86]
00000000: 45f8 5a3c 1257 363c 261c 5cbc cbb3 7e3b
00000010: 03f1 e33c 8291 8ebb e9b7 84bc 6815 873b
00000020: 0cfa 9dbb 0ad7 233c ec18 2a3c 0ad7 233c
00000030: a1cd 673d 94c3 883d 0ad7 233c e87f 6fbc
00000040: f2c4 ad3d 0ad7 233c 8a1c 38bd adfb 413d
00000050: 0ad7 233c 32df 4e3c 011a 843d 0ad7 233c
00000060: 8a83 a2bd 0753 ea38 0ad7 233c ad14 bd3c
00000070: 386e ce3d 0ad7 233c 600d 73bc d079 923c
00000080: 0ad7 233c 49ec 02bd b709 25bd 0ad7 233c
00000090: 7464 7cba e891 91bb 0ad7 233c b311 a5bd
000000a0: 431b 60bc 0ad7 233c b215 76bc 98d7 cf3c
000000b0: 0ad7 233c 73e0 5ebc fab3 aabb 79fd 9a3d
000000c0: ea65 87bc 4419 02bd 5d4f fcbb 5569 a13c
000000d0: 289e 40bc b87d 563d a66b 0fbc 15d5 71bc
000000e0: 0ad7 233c e660 063d eeee 4f3d 0ad7 233c
000000f0: 83eb 403d 18d0 42bc 966b 12bc 7437 f53c
00000100: 9c80 91bd ce7f a53d bbd5 e43d c405 3bbd
00000110: 9d43 9ebc c096 6e3c 129d 66bc 0ad7 233c
00000120: 9fb7 b0bd b063 443c 0ad7 233c 18b4 25bd
00000130: d425 24bd e84e 893d dce0 a83c 051f 21bd
00000140: d6e6 13bd c87c 8c3c 9792 24bd 1be6 8fbc
00000150: 4b1e 223c 6523 0b3b efcd 88bd ce5e 33be
00000160: 970f 12be 960b acbd 3c7b d8bd e098 b7bd
00000170: 512c a3bd d251 d8bd e518 d9be 0ad7 233c
00000180: facc ddbd 0ad7 233c 8126 e3bd b242 45bd
00000190: 0ad7 233c 059c 2f3d 7eb6 dabc 0ad7 233c
000001a0: 0d0f a53d 6fdb 95bd 0ad7 233c ac71 7e3c
000001b0: c387 cebd 0ad7 233c caab 213e c6be fabc
000001c0: 0ad7 233c 68c1 27bd 698d 1ebd 0ad7 233c
000001d0: 5ce3 3f3c 19f1 fabd 0ad7 233c a6b2 213d
000001e0: b9d4 b1bd 0ad7 233c 6ec3 9a3c 8f02 f1bb
000001f0: 0ad7 233c b692 003e fe73 8ebc 0ad7 233c
00000200: 53bb 353c 2b52 ccbd 0ad7 233c 3c62 ad3c
00000210: 7eca 47be 367a c1bd cc44 983d 4b8f 60be
00000220: c62b fabd 8f67 2abe ba80 45be bbb2 6fbd
00000230: b4ec 8e3d 67ab 40bd 0ad7 233c f29c 7abc
00000240: 08ca 2ebc 0ad7 233c 6b88 52bd 93ac 683c
00000250: 2e28 88bc a6c5 19be 1b4f 88bd 1eac 23be
00000260: deb0 37be e73f 893d 155a 103c 957f 49bb
00000270: d18e 803c 0ad7 233c dd25 ff3d b772 e539
00000280: 0ad7 233c 002a 19bd 3577 173d a52d 19be
00000290: 9080 aabd 9e12 f63b 6e4e 893b 0cd6 64be
000002a0: 607d fd3c e5ca 17bd e511 23be a421 803c
000002b0: b264 0abe 4a6b 43be fcfa 3ebe a8ae 3ebd
000002c0: 0e0c 13be 9c52 b4bd 6438 a4bd d74d 1fbe
000002d0: 3270 bebe 0ad7 233c e085 c2bd 0ad7 233c
000002e0: 4f75 abbd 2dd0 54bd 0ad7 233c 6657 74bd
000002f0: 34dd 4bbd 0ad7 233c b36a 053d 6ed3 65bd
00000300: 0ad7 233c 3fe8 0f3c da0b 9dbd 0ad7 233c
00000310: 5da5 213e e36d 4dbd 0ad7 233c ff26 37be
00000320: e35d 95bd 0ad7 233c 495e c0bc 8db6 08be
00000330: 0ad7 233c 4359 14bd f06b 2ebe 0ad7 233c
00000340: 0c7c 3cbd 98ea 0fbd 0ad7 233c 354c ae3d
00000350: ea1f 2ebd 0ad7 233c 880c c2bc f307 debd
00000360: 0ad7 233c d4f8 0ebd d0e2 2ebe 9395 ebbd
00000370: 9447 063d a1e1 58be ee68 19be bf79 fabd
00000380: 1462 04be e4f3 b8bd 1bb9 8a3d d4cb b0bc
00000390: 0ad7 233c ecee 54bd e8d3 ebbc 0ad7 233c
000003a0: 667c 07bd 09c3 a1bc 727c 03bd a4b5 ccbd
000003b0: 791a e2bd 3793 49be 7344 34be 9c7a b6bb
000003c0: ce0d bfba e243 e4bc a6e4 18bc 0ad7 233c
000003d0: b3dc df3d f1ca 48bd 0ad7 233c b16e b03c
000003e0: 4692 173c 751b 24be 0565 bbbd 67a1 8bbd
000003f0: 7998 933c 0ee2 4dbe cdf7 803c a282 d3bc
0.013364856 0.011129158 -0.0134344455 0.003886449 0.027824884 -0.004350842 -0.016200976 0.004122425
-0.0048210677 0.01 0.010381918 0.01 0.056592587 0.066779286 0.01 -0.014617898
0.0848483 0.01 -0.044949092 0.047359157 0.01 0.012626456 0.06450272 0.01
-0.07935245 0.000111734545 0.01 0.023081148 0.10079616 0.01 -0.014834732 0.01788035
0.01 -0.03196362 -0.040292468 0.01 -0.0009628006 -0.004442442 0.01 -0.080600165
-0.013678375 0.01 -0.015019821 0.025371358 0.01 -0.013603318 -0.005209443 0.07567877
-0.016528089 -0.031762376 -0.0076998905 0.019703547 -0.011756457 0.05236599 -0.008753693 -0.014760275
0.01 0.032807253 0.05076497 0.01 0.0470996 -0.011890434 -0.008936783 0.029933669
-0.071046084 0.080810174 0.11173578 -0.045659795 -0.01931935 0.014562309 -0.014075534 0.01
-0.08628773 0.011986658 0.01 -0.040454954 -0.04007514 0.06704503 0.020615034 -0.039336223
-0.036108814 0.017149344 -0.04017886 -0.017565778 0.009894918 0.0021230814 -0.06679904 -0.17516634
-0.1426376 -0.08400647 -0.1057038 -0.089647055 -0.07967437 -0.10562481 -0.42401806 0.01
-0.10830112 0.01 -0.110913284 -0.04815931 0.01 0.0428734 -0.026698347 0.01
0.08059511 -0.07317244 0.01 0.015530031 -0.10084488 0.01 0.15788189 -0.030608546
0.01 -0.04095593 -0.038709078 0.01 0.011711922 -0.12253017 0.01 0.039477013
-0.08683152 0.01 0.018892016 -0.0073550413 0.01 0.12555966 -0.017389294 0.01
0.011092025 -0.0997661 0.01 0.021165006 -0.19510838 -0.09447138 0.07434997 -0.21929662
-0.1221538 -0.16641067 -0.19287387 -0.05852006 0.06978741 -0.047038462 0.01 -0.015296208
-0.010668285 0.01 -0.05139963 0.014201301 -0.016620722 -0.15016803 -0.06655713 -0.15983626
-0.17938563 0.067016415 0.00881054 -0.003074621 0.0156931 0.01 0.12458394 0.00043763753
0.01 -0.03739357 0.03697892 -0.14958818 -0.083253026 0.0075095436 0.0041902578 -0.22347277
0.030943573 -0.03705873 -0.15924795 0.015641041 -0.13514975 -0.19083896 -0.1865043 -0.046553284
-0.14360067 -0.08804819 -0.08018568 -0.15557037 -0.37194973 0.01 -0.09498191 0.01
-0.08371984 -0.051956344 0.01 -0.059653662 -0.049771503 0.01 0.03257246 -0.05610984
0.01 0.008783399 -0.07668276 0.01 0.15785737 -0.050153624 0.01 -0.1788597
-0.07293298 0.01 -0.023482459 -0.13350888 0.01 -0.03621794 -0.17033362 0.01
-0.046016738 -0.035135835 0.01 0.08510629 -0.042510904 0.01 -0.023687616 -0.1084136
0.01 -0.03490527 -0.1707871 -0.115031384 0.032783106 -0.2117982 -0.14981434 -0.122302525
-0.12928039 -0.090308934 0.06773587 -0.021581568 0.01 -0.051985666 -0.028787568 0.01
-0.03307762 -0.01974632 -0.032101102 -0.09995583 -0.110402055 -0.19685064 -0.17604236 -0.0055688154
-0.0014576258 -0.0278644 -0.009331858 0.01 0.10930767 -0.049021665 0.01 0.021537157
0.009251183 -0.16026099 -0.09150127 -0.068178944 0.01801704 -0.20105764 0.01574316 -0.025819127

model/hidden/mid_layer/W f4 [256, 256]
00000000: c4bc 633c df70 1dba a6b8 693a 8954 25bc
00000010: 55be d5bb 90b5 81bc 133b 47bc d7ec 27bc
00000020: 8db9 cc3a d955 68bb a42d 3ebc 538f 6abc
00000030: 0c97 d5bc 61a7 79bc 83db 93bc 97fb adbc
00000040: 5c09 b0bc 7a68 9cbc 98f2 b8bc 2995 f63b
00000050: 4b46 13bd 3336 27bb 6d8f debb 339c 6cbc
00000060: 3857 0dbd c529 09bc bfd2 3c3c b03f 1b39
00000070: 6548 c8bb 162f 9abb bb04 97bc d0b4 a63b
00000080: 2dff 30bc 4cbc 07bb 7fbd d53b df4c f6bc
00000090: f7fe 0ebc 3893 26bb 50c3 94bb 5896 9ebc
000000a0: e455 9ebc ceb9 abbc 45dd a5bb 327f 9ebc
000000b0: 1e63 183c e88d 29ba 7846 16bc fc6f 263c
000000c0: 2702 db3c 01fe 903b 9201 47bc 1524 3c3b
000000d0: 786d 14bc 0852 abba 4bd8 debb ec55 d8bc
000000e0: 01a2 103b c9e5 1abc dad4 8dbc 2e4d 3d3c
000000f0: 9278 69bc 8196 773b 2e27 40bc 5320 75bc
00000100: f319 08bc c176 78bc d30f d4bb 66e2 b23b
00000110: 84cb 0bbc a744 ffbb c140 94bc 848f 37bc
00000120: 2bc5 133b b0bb 87bc a00f 5cbc 2a32 f5bc
00000130: 6c89 60bc d981 2dbb 2c7d afbc 79d8 35bc
00000140: 24ac 133b dec8 8bbb a2e2 dbba 6588 43bb
00000150: 28c7 2ebc 4b5f 77bb 8674 06bc ed22 97bb
00000160: fa0c 47bc d353 5fbc e20e c4bc a769 65bb
00000170: 6f95 e538 effe 85bc aff5 8cbc 5997 b13c
00000180: 496d 47bb 2b81 2ebd a16f 3bbc 5375 90bc
00000190: 85e7 72bc 4e11 fabc 16cd 31ba b686 06bc
000001a0: 0242 88bc f956 39bd 91d8 b73c 53cf 0ebd
000001b0: e40c acbc f92f e9bc 6095 d93a 79bb 54bc
000001c0: ace9 c1bc 7316 3dbc e7ff a33c 6676 4ebc
000001d0: 8d16 b7bb 213d 92bc eb75 bfb9 718a 00bb
000001e0: c96c 313c 8fe1 0b3b 375d 1ebc a494 69bc
000001f0: 9517 2abc 5205 1ebd e584 41b8 1d31 aebb
00000200: 8d16 4abc ff07 58bc 5c12 5abc ff65 e23b
00000210: 800e dfbc c660 69bc 6a81 b3bc d387 96ba
00000220: 53b8 aebc a4d0 92bb 7f79 2a3b 8420 bfbb
00000230: d714 e73a 60df 1ebc 53ef 2b3c 43b9 e33b
00000240: 22ec 58bc 7677 64bc 3c6e 5cbc 0801 efba
00000250: 3fca 5fbb 15fd 1dba b971 24bc d5e4 6cbb
00000260: d1a8 c4bb 677c d9bc af53 953c 218b 00bd
00000270: db2b d6bc 4883 1e3c 1112 f1ba 0a9e 0dbc
00000280: 409d 7c3a df57 7abc 6018 a13b bad8 7c3c
00000290: 7280 c739 5c94 d2bb 3e0d 383c c795 963c
000002a0: f502 12bc 14fd c3bc 6cf1 9e3c 6098 12bc
000002b0: 962c 503b 2e45 d939 b5bd 77bc 4d41 033c
000002c0: 241f 3fbc 1143 a4ba 10db e339 bedf 04bd
000002d0: ff89 93bb 2ea0 b2bc be33 1abc 73c0 5dbc
000002e0: b27d afbb c859 a9bc e64c 01bc e000 94bc
000002f0: c14b 10bd 5fe8 d2bc 8c99 c6bc b6fe 8b3b
00000300: cfa7 8b3c de07 503b 313b 38ba 526e 34bc
00000310: 2867 1cbc f2f5 103c 2f23 21bd cdbe 923c
00000320: 00cc d1bb 488c e5bb 4f73 39bc eb6f 14bd
00000330: 4461 483c 3cf8 2dba 0086 a7bc 1063 4cbc
00000340: 37fd 6cbb e9c3 21bc 6381 8ebc b55e bcbc
00000350: 8e1c 96bc 8491 46bb 43c6 c9bc ac56 cdbc
00000360: 25b7 aabc ae98 46bc e9a2 04bc 3550 b5bc
00000370: 7058 bbbb 8923 92bb d9a0 01bd 47bc baba
00000380: 4450 db3b 2eb0 11bc 1102 8dbc 9a4a bc3a
00000390: f75e b63a 6bf4 1ebc 3445 86bb 22cd 71bb
000003a0: 6917 1bbb a60c 03bd 38ed 85bc 6133 b0bb
000003b0: 8020 a73a 3a3b 2abc abf1 ab3b de1b f3bc
000003c0: 8e09 50bc eedd 80bc a059 bf3a 8d77 0fbd
000003d0: a7c1 7ebc 46d5 83bb d206 65bc 9bde 0bbd
000003e0: 0ac8 a1bc edb4 09bc 9288 28bb df0f 73bc
000003f0: 47db 6bbc 6138 fabb 4974 d5bc 999c fc3b
0.013899986 -0.0006005894 0.00089157594 -0.0100909555 -0.0065229335 -0.015833646 -0.0121600805 -0.010249338
0.0015619263 -0.003545156 -0.011607561 -0.014316398 -0.026073001 -0.01523766 -0.018049007 -0.021238131
-0.021488838 -0.019092787 -0.022576615 0.0075251055 -0.03595571 -0.0025514483 -0.006792 -0.014441538
-0.034507006 -0.008371775 0.011524855 0.00014805677 -0.0061121457 -0.00470532 -0.018434873 0.0050874725
-0.010803026 -0.00207116 0.006522834 -0.030065952 -0.008727781 -0.002541734 -0.0045398846 -0.019358799
-0.019328065 -0.020962622 -0.005061778 -0.01934776 0.009300975 -0.0006467984 -0.0091720745 0.010158535
0.026734425 0.004424811 -0.0121463705 0.002870803 -0.0090593025 -0.0013070712 -0.0068006865 -0.026408158
0.0022069218 -0.009454199 -0.01731341 0.011554046 -0.014249938 0.0037778916 -0.011728091 -0.01496132
-0.008306968 -0.015165032 -0.006471613 0.0054591177 -0.008532409 -0.0077901664 -0.018097283 -0.01120365
0.0022547941 -0.016568989 -0.01343146 -0.029931147 -0.013704639 -0.00264751 -0.021421991 -0.011098974
0.0022533024 -0.0042658886 -0.0016775916 -0.0029835936 -0.0106676 -0.0037746008 -0.008206492 -0.004612318
-0.01214909 -0.013630825 -0.023932878 -0.00350056 0.00010947405 -0.016356913 -0.017206995 0.021678613
-0.003043013 -0.042603653 -0.011440189 -0.01763407 -0.014825706 -0.03052583 -0.00067825743 -0.0082108285
-0.016633037 -0.04524896 0.022442134 -0.03486569 -0.02100224 -0.028465258 0.0016600303 -0.01298415
-0.023670994 -0.011540997 0.020019485 -0.012601471 -0.005587405 -0.017851414 -0.00036518215 -0.0019613768
0.010829159 0.002134416 -0.009665779 -0.01425663 -0.010381599 -0.038579293 -4.6138553e-05 -0.0053159134
-0.012334478 -0.0131855 -0.013310041 0.0069091315 -0.027228594 -0.014244264 -0.021912295 -0.001148457
-0.021328127 -0.0044804383 0.0026012359 -0.0058327336 0.0017630112 -0.009696811 0.010494071 0.006949575
-0.013239892 -0.013944497 -0.013454016 -0.001823456 -0.0034147648 -0.0006026787 -0.010036879 -0.0036147137
-0.00600157 -0.026548577 0.01822838 -0.031382684 -0.026143959 0.009674855 -0.0018392225 -0.0086436365
0.0009636469 -0.015279739 0.004916236 0.015432531 0.00038051937 -0.006426377 0.011233626 0.018381966
-0.008911838 -0.023924388 0.019402228 -0.008947462 0.0031764857 0.00041441008 -0.015120913 0.008011174
-0.011665139 -0.0012532194 0.00043460028 -0.03243994 -0.0045025344 -0.021804895 -0.00941175 -0.013534653
-0.00535556 -0.020672694 -0.007891869 -0.018066823 -0.035228495 -0.025745569 -0.024243139 0.0042723073
0.01704779 0.003174297 -0.0007027863 -0.011012631 -0.009546079 0.0088477 -0.039340194 0.017913247
-0.0064024925 -0.007005248 -0.011318996 -0.036239546 0.012230221 -0.0006636416 -0.020449638 -0.01247479
-0.003616167 -0.009873369 -0.01739568 -0.022994379 -0.018324163 -0.0030299136 -0.024630671 -0.025065742
-0.020839283 -0.012121363 -0.008095481 -0.022132972 -0.0057173297 -0.0044598025 -0.031647537 -0.0014246785
0.006692918 -0.008892102 -0.0172129 0.0014365495 0.00139138 -0.0097018285 -0.004097605 -0.003689595
-0.0023665077 -0.031994484 -0.016348466 -0.0053772186 0.0012750775 -0.010390097 0.005247315 -0.029676374
-0.0126975905 -0.015730824 0.0014598854 -0.035026122 -0.0155491 -0.004023227 -0.013978677 -0.03414784
-0.019748706 -0.0084049525 -0.0025716168 -0.014835327 -0.0143955415 -0.0076361154 -0.026056426 0.0077090976

model/a_stream/b f4 [3]
00000000: 932f 8a3c ca7f ddbb 111e f139
0.016868388 -0.0067596184 0.00045989503

model/hidden/mid_rec_layer/upward/b f4 [80]
00000000: 7117 9fbb 9d3d 0fbe 3cae 573f 31b6 0ebe
00000010: 6b48 03bc cd77 ddbd 4bc7 613f 47b3 e0bd
00000020: 31d9 713c a92d f8bd 6aff 703f fc10 fdbd
00000030: 5c90 45bb c5de 18be 03b2 543f d00f 18be
00000040: 9d1c 26bc 2542 0abe bc3c 613f e13a 09be
00000050: a9db 8ebb ace7 16be 1837 583f 0bf9 16be
00000060: ac85 e5bb df4c 35be ec26 563f 87f4 33be
00000070: 55ce 703c 08c9 ffbd 32d4 703f 610d 03be
00000080: cd74 203b 137c 2abe fe4f 623f b1a8 2bbe
00000090: 2c49 c2ba e784 33be 99f8 593f 4082 32be
000000a0: c3f6 2ebc ccdd 0fbe 49fb 5e3f c99b 0ebe
000000b0: d622 e5bb 6e73 00be e85b 5d3f cac3 01be
000000c0: 64bd 143b fbdb f2bd 485c 5e3f 4c03 f4bd
000000d0: a20f fcbb 05c3 dcbd 4675 5f3f 67e2 e0bd
000000e0: 6cfd a7bb 3b51 18be bec0 573f 635a 18be
000000f0: 7eff c1bb e514 12be e841 5b3f aaaf 12be
00000100: c2a9 a4bc 2fd0 00be ba12 6f3f cc58 febd
00000110: f521 91bb 09b0 15be 46a0 553f 5ef2 13be
00000120: d123 6cbb a070 05be 6bf4 543f 4abf 05be
00000130: 2fc3 21bc c436 dcbd 9602 653f e8bc debd
-0.0048550894 -0.13988347 0.84250236 -0.13936688 -0.008012871 -0.10813866 0.8819472 -0.109716944
0.014761255 -0.12118084 0.9413973 -0.12356755 -0.003014586 -0.1492873 0.83084124 -0.14849782
-0.010138658 -0.13501795 0.879833 -0.13401367 -0.0043596816 -0.14736813 0.84459066 -0.1474344
-0.0070044603 -0.17705105 0.8365314 -0.17573749 0.014697631 -0.124895155 0.94073784 -0.12798072
0.0024483681 -0.16648893 0.8840331 -0.1676357 -0.0014822832 -0.17531167 0.85144955 -0.17432499
-0.01067895 -0.14049453 0.8710218 -0.13926615 -0.006992678 -0.12544033 0.8646836 -0.12672344
0.0022695893 -0.11858364 0.8685956 -0.11914691 -0.0076922933 -0.107793845 0.8728832 -0.10980683
-0.005126646 -0.14874737 0.84278476 -0.1487823 -0.0059203496 -0.14265783 0.8564744 -0.14324823
-0.020100478 -0.12579416 0.9338795 -0.124192804 -0.004429097 -0.14617933 0.8344768 -0.14447924
-0.003603209 -0.13031244 0.8318545 -0.13061252 -0.009873196 -0.10752633 0.8945707 -0.10875875

model/hidden/input_layer/W f4 [256, 86]
00000000: 57fc b03c e078 8dbd a459 e73b e72d a9bd
00000010: 2e8d 12bd 8419 5f3c 9e3a 263b 0d46 5b3c
00000020: dc44 e7bd 0fc3 ab38 1c50 00be 5719 683c
00000030: 3c24 63bd c704 ecbd 6016 34bc a162 043e
00000040: 2f6b 093c 9829 d9bb 4000 d13c 82a0 12be
00000050: 8a46 a83b 6466 063e 141d 163d 0cd0 41bc
00000060: e8a7 4fbd 4f91 f6bc 32e2 a83b 52f4 e8bc
00000070: 840a 2cbe 579c 9b3c 83c6 04be 5245 27bd
00000080: 8d13 e13c efbb 30bd 996e 3dbd 56b8 32bb
00000090: b834 71bd 139f f73d 951a d83a 4c9b afbc
000000a0: 53e1 713c 57ef 26bc 7ef2 fc3c ba6f eb3d
000000b0: a89a fe3b 2218 9b3d 7534 d93d 5159 91bd
000000c0: 24d1 c23c 9e14 043d ab28 913d 4662 c1bd
000000d0: 1b19 053d beaa eebd 9daf 413d 1b0f 003d
000000e0: 8571 bcb9 e1c9 8bbc 3e87 04bd 8a97 9e3a
000000f0: f89e 8fbb 8b90 de3b 355f 32bd 3efd 0c3d
00000100: 3090 a13b 38ec 95bd 5693 e5bd 09dd 08bc
00000110: 6d1d 0cbc e90b a6bd c379 413b d095 29bc
00000120: 4a7f 333d 6d45 88bd 3fb6 dc3b a855 7a3c
00000130: 71b7 d0bd 51aa cdbd 733f 36bd 3a7a 0cbd
00000140: b6d8 783c 35d8 68bc d50a 47bd 530c 843b
00000150: 8457 f8bc 6b3b 24ba f227 a8bc 14c2 9bbc
00000160: 0144 59bb c9f7 9fbc 2183 a3bc cb85 5ebc
00000170: 979d afbc b537 18bd 3494 15bc 3b4d 65bb
00000180: c5d2 00bd 02ac d03b 0024 4abc c58c 69bc
00000190: 8e37 4cbc dd18 65bb 3c56 a0bc f3ff 0c3c
000001a0: c57e cdbb 2669 883c a494 deba 1ff7 ebbb
000001b0: 91ad 9fbc 1c8a 873b 98e4 06bc 03c5 29bd
000001c0: 3e74 aabb b48e 70bb 246e 7e3c 7f86 c1bb
000001d0: b5fe 8fbc b0b7 cebb 0ee4 f0bb 5150 cdbb
000001e0: 480c d7bc 96f8 cabb 6275 58bc eb4b 093c
000001f0: 4132 ed3b 0231 673b c61d bfbc 1b6d b2bb
00000200: 1f63 643b a059 a9bc 2125 673b f958 45bc
00000210: 407d 98bc 7e8a edbc ed4b f73b 73d8 cbbc
00000220: 9749 a9bc 5884 893c 3359 bdbb da70 ccbb
00000230: ac4d 44bc 1818 c8bc 659b 823c 00d1 3f3c
00000240: d62c c2bc 1455 723c 2c32 fc3b b81a 563c
00000250: bca2 97bc 1ca8 e73b 8666 92bc 47fb 0d3c
00000260: 443c 223c 0c48 053b fe55 5fbc 8c02 7fbc
00000270: c5c5 febb e86a 8abb 966b 0dbc 3171 aabc
00000280: aa40 3d3b 68fc 9ebc c976 603a e181 3b3c
00000290: 6cb0 d8bc 6885 e5bc 0591 e6bc 9b62 2e3c
000002a0: c2e2 87bc 76b2 f4bc 7bb0 83bc 27e0 f7bc
000002b0: a41c 32bb 7a6d 9ebc d361 09bd c957 2ebc
000002c0: f0ac 91bc 2b4d dcbc a189 a4bd 9407 803c
000002d0: 6f59 f2bd 96e3 123b 7016 41bc 58dd 52bc
000002e0: b6cb b43d ec63 2f3d 0999 1a3c 358e 91bd
000002f0: fbb9 7b3d b00b aa3c d670 8bbd 7393 81bd
00000300: e2d9 d3ba 927d bdbd 180c d53c cc3c 26bc
00000310: 7192 d33c 15a0 c0bd f40c f1ba db6c b83d
00000320: 2c15 31be 0aba 94bc 2338 2cbd 21ac 54bd
00000330: 9a20 513b a809 013d e089 9dbc 2e48 1c3c
00000340: 9722 b7bd 9b42 06bd 09d2 823c 0187 cabc
00000350: e927 0dbc 3312 d2b9 e8da 74bc 4ce1 e63c
00000360: 98fb a4bb 8982 2fbd bd63 79bd bd70 84bc
00000370: 29f2 29bc 3831 13be ea46 3b3d 4809 52bd
00000380: 610e aebb b429 f6ba e2c3 b1bc 81fa e9bd
00000390: 2f11 39bb be18 b23d 2917 17be fea7 3d3c
000003a0: f869 f93c d2b2 87bc 74a2 86bc 02d8 6e3c
000003b0: 8028 d33b 0156 98bd e9ef aabd 0580 01bb
000003c0: b30c e6bd c87d 043e 1968 0e3c 5f69 173c
000003d0: 27e4 9a3d 4536 a23d 42df e4bb b157 c8bc
000003e0: b974 3f3d 2a99 4abd b858 78bd 94d5 8a3c
000003f0: 526b 803d 056d acbd 95d1 89bc 6df7 b4bc
0.0216047 -0.06907821 0.0070602465 -0.08260708 -0.03577917 0.013616923 0.0025364528 0.013383401
-0.11292431 8.190248e-05 -0.1253056 0.014166198 -0.055454478 -0.11524349 -0.010991663 0.12928249
0.008387371 -0.006627273 0.025512815 -0.14319041 0.005135362 0.13124996 0.036648825 -0.011829387
-0.050697237 -0.030098585 0.0051539177 -0.028436814 -0.16800886 0.018995447 -0.12966351 -0.040837593
0.027475143 -0.043147977 -0.046248052 -0.0027270517 -0.058888167 0.12090888 0.0016487414 -0.021436356
0.014763194 -0.010188899 0.030877348 0.114959195 0.0077699013 0.07572962 0.106057085 -0.07097114
0.023781367 0.032246225 0.07087835 -0.09442572 0.032494646 -0.1165366 0.04728662 0.031264406
-0.00035942733 -0.017064037 -0.03235554 0.0012099606 -0.004382964 0.006792133 -0.043547828 0.034421198
0.0049305186 -0.07320446 -0.11209743 -0.00835348 -0.0085519375 -0.081077404 0.0029522039 -0.0103506595
0.043822564 -0.06653867 0.0067355926 0.015279211 -0.10191239 -0.10042251 -0.044494104 -0.03429625
0.015188387 -0.014211704 -0.048594315 0.0040297895 -0.030315168 -0.00062649575 -0.02052686 -0.019013442
-0.0033152106 -0.019527333 -0.019959988 -0.013581703 -0.02143745 -0.0371625 -0.009129573 -0.003498866
-0.031451005 0.006368161 -0.012337685 -0.0142547535 -0.012464417 -0.0034957447 -0.01957237 0.008605945
-0.0062712156 0.016651701 -0.0016981554 -0.00720109 -0.019491943 0.004136337 -0.008233212 -0.04144765
-0.0052018454 -0.0036706151 0.015529189 -0.0059059258 -0.017577508 -0.0063085184 -0.007351405 -0.006265678
-0.026250973 -0.0061941845 -0.01321158 0.008379917 0.0072386567 0.0035277014 -0.023329627 -0.0054451353
0.003484912 -0.02067262 0.0035269933 -0.0120451385 -0.018614411 -0.028996702 0.007546893 -0.024883484
-0.020664973 0.01678674 -0.0057784556 -0.006239039 -0.011981409 -0.024425551 0.015943239 0.011707544
-0.02370302 0.014790792 0.0076964106 0.013067894 -0.018510215 0.0070696007 -0.017871153 0.008665866
0.009902064 0.0020337133 -0.013631342 -0.015564572 -0.007775041 -0.00422417 -0.0086316075 -0.020805927
0.0028877654 -0.019407466 0.0008562622 0.01144454 -0.026451312 -0.028017715 -0.028145323 0.010643627
-0.016587619 -0.029870253 -0.016075363 -0.030258251 -0.0027177716 -0.019339312 -0.033540558 -0.010641047
-0.017782658 -0.026892265 -0.08034063 0.015628614 -0.11833464 0.0022413484 -0.011785135 -0.012870155
0.08827917 0.042819902 0.0094359005 -0.07107202 0.06145666 0.020757526 -0.06808631 -0.06326952
-0.0016162957 -0.09252466 0.026006743 -0.010146331 0.025826665 -0.09405533 -0.0018390701 0.090051375
-0.17293233 -0.018155117 -0.042045724 -0.051921967 0.0031910301 0.03150335 -0.019230783 0.009538693
-0.08942144 -0.032778364 0.015969293 -0.024722578 -0.008615472 -0.0004006788 -0.014944769 0.028183602
-0.005034875 -0.042849097 -0.060886133 -0.016167039 -0.010372677 -0.14374244 0.045721926 -0.051278383
-0.0053117727 -0.0018780739 -0.02169985 -0.11424733 -0.0028239002 0.086961254 -0.14754929 0.011575697
0.030446038 -0.01656476 -0.016434886 0.014577867 0.006444037 -0.07438279 -0.083465405 -0.0019760143
-0.11232891 0.12938607 0.008691811 0.009241431 0.07563048 0.07920507 -0.006984622 -0.024455877
0.046742175 -0.049462475 -0.060631484 0.016947545 0.0627047 -0.08419231 -0.01682357 -0.022090638

model/v_stream/W f4 [1, 256]
00000000: 999c 1fbd d2c6 603d 626f 2b3d b5c6 893c
00000010: b2e9 d3bb 5d50 77bd 2f65 a9bc 65a6 58bd
00000020: 6111 82bb 55b2 bebc 3ca6 d63c dc70 a73c
00000030: d66f 02bd 68c7 173d 5962 1bbd a5bd 78bd
00000040: bb84 54bc 8cad 7f3d 5bb3 083d ccec 80bd
00000050: 2248 873b 3e3c 7d3d 2299 b9bc 6082 133c
00000060: 55ea 8fbd 16df 273d 852e 393d ee92 843d
00000070: 0254 29bd a26e 01bd bfd1 373d a854 fa3c
00000080: 5428 753d 769a e03b 698a 48bd 168b 4b3c
00000090: e200 833d 9b2c a43c f186 46bd dbb8 d33c
000000a0: 65be 7abd e4d4 5dbc b775 36bd a1b6 3bbd
000000b0: 2747 b3bb 2acd 7e3d e7df 363d dc9d 0abd
000000c0: cd07 483c eba2 97bc 6afc 873d 362f 223c
000000d0: 0bd6 ee3c 2935 0abd 7384 d03c 6ab0 aabb
000000e0: 5762 a83c f974 633c 9136 e2bc ae81 9d3c
000000f0: 2bfe 963c 5548 2abd 217a 84bc 0422 8a3d
00000100: d268 67bd fefa 2fbd 049d 613d b91f 893d
00000110: ecd4 6c3d 15cb b33c f71e 5a3d ed1e 7ebd
00000120: 2897 093c 6db0 273d 4e77 1a3d d00c 163d
00000130: 4f16 273d 87c9 f43b 3e73 303d 85eb b1bc
00000140: 96d5 6abd dbd5 9fbc 7b42 043d 643d b6bc
00000150: cca4 dabc 279f 423d 02a2 1bbd 706a 83bd
00000160: f97f cc3c c28a 4b3d 2fa4 3cbc c9ea 9cbd
00000170: bee4 79bd 61ba f53c c3a1 333d 3b2f 41bd
00000180: d0ad 8d3d 0304 2abc fc36 92bd 09dd 693d
00000190: 0094 f7bb 337b b83c 741b 183d 1ab9 64bc
000001a0: 9872 483d 6530 11bd 2d8c 623d 5a2f cebc
000001b0: 9597 eb3b 1739 59bb 6b88 1cbd 3ac8 b1bc
000001c0: 9284 203d b607 aebc 27c5 8a3d e0c0 8c3d
000001d0: 0ba3 483d 8281 363d 41cf a53c ea2e a7ba
000001e0: 156c 533d c48b 063d c480 32bd 1b8b a2bc
000001f0: 125b d63c 3a54 8abd ca2c 86bd ba7f f1bc
00000200: 7546 283d 099b 243d d294 fd3c d65d 7b3d
00000210: ecf2 5bbd 9e86 4a3d af02 573c d9d7 823d
00000220: c728 903d 39fe 8bbd 14e1 80bd 0c66 22bd
00000230: 84f3 65bd 4048 8c3d dce7 963b e2f2 92bc
00000240: 30ec bd3b b559 31bd 1250 5abd 7e60 5f3d
00000250: 365f f5bc 33c0 1d3d ea5e 7c3d 6dff 883a
00000260: 32a4 023d c28f 843d 85f9 47bd c9b3 843b
00000270: b26f 733d 6402 80bd c023 4dbd d987 a1bc
00000280: 12c6 21bd a557 6ebd 6a7d 803d 9e81 89bb
00000290: acef 6e3d ae70 dc3c e9ba ea3c facd b13c
000002a0: c279 2abc 200b ffbb f9eb 94bd f12a 7b3c
000002b0: 62ac 05bc af2a 63bd 6674 19bc c846 96ba
000002c0: f9b2 78bd 866e 893c bd27 493d 34dd d33b
000002d0: fc98 fdbc f00d 743a 6567 553d d199 2b3d
000002e0: 61d6 53bd 70a8 053d 777a 8dbc 87f7 293d
000002f0: 6d5c 303d a3d0 8c3d 0066 54bd 6cc4 f53c
00000300: 8c04 75bd ec3f aabc 495c 77bd ccb1 febc
00000310: 56cd 2cbd c20e 1c3d 2dba 20bd e9de 8d3d
00000320: f087 c83c 83a8 48bd 2afd 71bc ab9a ba3c
00000330: 7989 d83b df9a 7e3d 9574 30bd 32de 0bbd
00000340: 9447 943c acd7 483d a3c3 44bd a09d a93c
00000350: 7438 773d d94c 823d 9c69 90bc 8836 33bd
00000360: 3482 81bd 3dbf 003d 8999 803d 8142 24bd
00000370: 2932 80bd 5224 64bd 4396 0ebd 3a6f dfbc
00000380: 849a 8abd 89f8 743d 30fd 5cbd bf48 3f3d
00000390: 0951 f83c c96a 42bd 0ab2 623d 2ccc 66bd
000003a0: d047 60bd 3a0c 82bc 90f2 9e3b 21f4 413d
000003b0: 88c6 263d 1c03 123d 4b42 23bd f8a9 50bd
000003c0: 6fde 68bd c550 793d 9542 913b dc3a 443d
000003d0: f4cb 033d 4363 89bd 0138 5ebd 115b 58bd
000003e0: cc8a 693c 55af 713d 7bc9 2ebd 3441 6bbc
000003f0: bb25 5c3d b030 78bd 2d59 1e3d ebb7 8ebc
-0.038967703 0.05487711 0.04185427 0.016818384 -0.0064670676 -0.060379375 -0.02067813 -0.05289306
-0.003969357 -0.023278395 0.026202314 0.020439558 -0.031844936 0.037055403 -0.03793559 -0.060727734
-0.012971099 0.062421367 0.03337417 -0.062951654 0.004128472 0.06182503 -0.022656027 0.009003252
-0.07027117 0.040984236 0.04521038 0.06473337 -0.04133988 -0.03159965 0.044877764 0.030557945
0.059852913 0.0068543507 -0.048960123 0.012423297 0.06396653 0.0200408 -0.048468534 0.025844982
-0.06121673 -0.013539527 -0.044545855 -0.045828465 -0.0054711285 0.06220738 0.044647124 -0.033841953
0.012208891 -0.018510303 0.06639941 0.009898951 0.029154798 -0.033742104 0.025453782 -0.0052090185
0.020554705 0.013882869 -0.02761391 0.019226875 0.018431744 -0.041572887 -0.016171517 0.06744769
-0.05649645 -0.042963974 0.055081382 0.06695504 0.057820246 0.021947423 0.053252187 -0.062041212
0.008397855 0.040939737 0.037711434 0.036633313 0.04079276 0.007470313 0.043078654 -0.02171875
-0.057332598 -0.019511154 0.032289963 -0.02224607 -0.02668991 0.04751506 -0.0379963 -0.06416786
0.024963366 0.049692877 -0.011513754 -0.07661969 -0.06100916 0.029996099 0.04385544 -0.047164183
0.06917918 -0.010376933 -0.07139394 0.05709556 -0.007555485 0.022519683 0.037135556 -0.013960147
0.04893741 -0.035446543 0.055309463 -0.025169063 0.007189701 -0.00331456 -0.038216036 -0.02170192
0.03918893 -0.021243911 0.06775885 0.068727255 0.048983615 0.044557102 0.020240428 -0.001275507
0.051616747 0.032848135 -0.04357983 -0.019841721 0.026166473 -0.06754346 -0.065515116 -0.02947985
0.041082818 0.040186916 0.030954752 0.061368786 -0.053698465 0.049444787 0.013123198 0.06388826
0.07039028 -0.068355985 -0.0629293 -0.0396481 -0.056140438 0.06849718 0.0046052765 -0.017938081
0.005795978 -0.043298442 -0.053299017 0.05453538 -0.029952627 0.038513374 0.061613955 0.0010452099
0.03189487 0.06472732 -0.048821945 0.0040497524 0.059432693 -0.06250456 -0.050082922 -0.019718098
-0.039495535 -0.058189053 0.06273921 -0.00419636 0.058334038 0.026909199 0.028653579 0.021704663
-0.010405006 -0.0077833086 -0.07271571 0.015330062 -0.008158775 -0.055460628 -0.00936613 -0.0011465186
-0.060717557 0.016776334 0.049110163 0.0064655785 -0.030956738 0.0009309938 0.052100558 0.041894738
-0.05171812 0.032631338 -0.01727031 0.041495826 0.043056894 0.06875732 -0.051855087 0.030000888
-0.05981879 -0.020782433 -0.060390744 -0.03109064 -0.04218801 0.03810001 -0.03924005 0.06927282
0.024478883 -0.04898883 -0.014769832 0.02277883 0.006608185 0.062159415 -0.04307993 -0.03414745
0.018100537 0.049033806 -0.048038136 0.020705044 0.060356572 0.06362314 -0.017628483 -0.043753177
-0.063236624 0.03143238 0.062792845 -0.040102486 -0.06259567 -0.0556987 -0.03481127 -0.027274717
-0.06767753 0.059807334 -0.053952396 0.046700235 0.030312078 -0.04746512 0.055345573 -0.056347057
-0.054755986 -0.01587497 0.004850693 0.04735196 0.040716678 0.035647497 -0.039858144 -0.050943345
-0.056852754 0.060868043 0.004432986 0.047907695 0.032176927 -0.06708386 -0.05425263 -0.052821223
0.014254283 0.0590051 -0.042672615 -0.014358807 0.05374692 -0.060593307 0.038659263 -0.017421683
