ai_challenge/results/simulation_DoubleDQN_DuelingRecNN_2017-05-19T19:40:53.24/20007/model.npz (npz, 626840 bytes, 12 tensors)

model/hidden/input_layer/b f4 [256]
0	0xbc02d53a	-0.0079854075
1	0xbc32bfaa	-0.010909954
2	0x3bd4babe	0.006491988
3	0x3a6bed5e	0.0008999909
4	0x3bb17f2a	0.0054167705
5	0xbbb48950	-0.005509533
6	0xbc099a0d	-0.008398545
7	0xbc219ded	-0.009864313
8	0x3a98131f	0.0011602378
9	0xbb110522	-0.0022128304
10	0x3bd59360	0.0065178126
11	0xbb12f9b2	-0.0022426662
12	0x3b99efdc	0.004697783
13	0xbb531f0e	-0.0032214555
14	0xba0212b2	-0.0004961892
15	0xbc0613dd	-0.008183447
16	0xbbd3636b	-0.0064510605
17	0xbba1db1a	-0.004939449
18	0xba30f9f2	-0.0006751112
19	0xbc679f61	-0.01413712
20	0xbc65e4fe	-0.014031647
21	0xbbc0288c	-0.0058642086
22	0xbba96fb9	-0.005170789
23	0xbac50c4b	-0.0015033571
24	0xbc810e43	-0.01575387
25	0xbbd2b1e8	-0.0064298995
26	0xbc96c966	-0.018406581
27	0xbc031c38	-0.008002333
28	0xba9ed90a	-0.0012119126
29	0xbc328d05	-0.0108978795
30	0xbc01af15	-0.007915278
31	0xb9a3d82c	-0.00031250843
32	0x3c03b14f	0.008037879
33	0xbcd3e1ba	-0.02586447
34	0xbafc3c0f	-0.0019243973
35	0xbb9ef2a2	-0.0048507014
36	0xbc87ef9a	-0.016593743
37	0xbb3f6b59	-0.0029208271
38	0xbc2e32e4	-0.01063225
39	0xba642c72	-0.00087041326
40	0xbc42df2a	-0.011894027
41	0xbc58c5e7	-0.013230777
42	0x3bbdaec5	0.0057886564
43	0x3a0003b6	0.00048833655
44	0xbbecab0d	-0.0072225393
45	0x3bba4a8c	0.005685156
46	0xbc005e45	-0.007834976
47	0xbc42d99a	-0.011892701
48	0xbb1eb414	-0.0024216222
49	0xbc6f3cf7	-0.0146019375
50	0xb65a1c00	-3.250083e-06
51	0xbc3362df	-0.010948866
52	0x3c259358	0.01010593
53	0xbb43b36e	-0.0029861587
54	0x3ace8174	0.0015755133
55	0xbb708e79	-0.0036706014
56	0xbbf9ff9f	-0.0076293494
57	0xbb092344	-0.002092556
58	0x3b8f506b	0.0043736002
59	0xbb25f2e7	-0.0025321783
60	0xbc384fd7	-0.011249504
61	0x3b24089b	0.0025029543
62	0x380e7810	3.3967255e-05
63	0xbace2724	-0.0015728218
64	0xbbbdbce7	-0.005790341
65	0xbbd9abba	-0.006642786
66	0xb81579c0	-3.5637757e-05
67	0x3b5509e7	0.0032507123
68	0xbc2ea4c8	-0.010659404
69	0x361e2200	2.3563625e-06
70	0xbc4e3d94	-0.012587924
71	0xbbffb2f7	-0.0078033167
72	0x3ac46f0e	0.001498671
73	0xbb0086b9	-0.001961155
74	0xbabacd84	-0.0014251922
75	0xbc6996c7	-0.0142571395
76	0xbc20f7c7	-0.0098247
77	0xbba5531f	-0.005045309
78	0xbabd658d	-0.001444982
79	0xbb806067	-0.003917742
80	0xbb6bd69a	-0.0035986067
81	0xbc12cd98	-0.00896015
82	0xbba6b2d7	-0.0050872373
83	0xbc7bcd05	-0.015368705
84	0xbb60fea2	-0.003433146
85	0xbc5de03e	-0.013542233
86	0xbc758f12	-0.014987724
87	0xbb8b3a5d	-0.004248901
88	0x3a1feb02	0.00061003875
89	0xbb98bca9	-0.004661162
90	0xbafc5f18	-0.0019254414
91	0xbbacd428	-0.0052743144
92	0xbbc8d376	-0.0061287237
93	0xbb5a91b6	-0.003335101
94	0xbc952d9a	-0.018210221
95	0xbb8c0745	-0.0042733275
96	0xbab1527b	-0.0013528609
97	0xbc4849c6	-0.01222462
98	0x3b5c6244	0.0033627907
99	0x3ba0c028	0.0049057193
100	0xbbeff3c0	-0.0073227584
101	0xbaf0b47b	-0.0018364334
102	0xbac5dca0	-0.0015095659
103	0xbc361630	-0.011113688
104	0xbbc37d8d	-0.0059658946
105	0xbb6bcd5d	-0.003598056
106	0xbc28d423	-0.010304484
107	0xbc152188	-0.009102233
108	0xbc107de0	-0.008819073
109	0xbc5cd9ae	-0.013479633
110	0xbb926b9e	-0.0044683954
111	0xbbe8ca80	-0.007104218
112	0xbba75459	-0.0051064906
113	0xbac6076a	-0.0015108411
114	0xbb13ff33	-0.002258253
115	0xba879b3e	-0.0010345948
116	0xbbaefb52	-0.0053400183
117	0xbbf789d9	-0.0075542745
118	0xbc7d328b	-0.015453945
119	0xbc17b115	-0.009258528
120	0xbc80ab4f	-0.015706686
121	0xbc01839d	-0.007904914
122	0xba628cd9	-0.0008642204
123	0xbbc52ec4	-0.006017538
124	0x38bb5859	8.933311e-05
125	0xbbf19f18	-0.007373702
126	0xbc254160	-0.010086387
127	0xb8356680	-4.3249223e-05
128	0x3b8fb146	0.0043851463
129	0xbbc17286	-0.005903545
130	0x3aaaf2f0	0.0013042372
131	0xb99e21a8	-0.00030161184
132	0xba593105	-0.00082851975
133	0x3bf9fc8a	0.007628982
134	0xbb67e5b1	-0.003538471
135	0x3a2429f0	0.00062623527
136	0xbb874fb3	-0.004129374
137	0xbc2b7788	-0.01046551
138	0xbb76fb5a	-0.0037686438
139	0xbbdaeef6	-0.0066813184
140	0xbc505ed1	-0.0127179185
141	0x3b903707	0.004401091
142	0xbbc02e10	-0.005864866
143	0xbbd7d315	-0.0065864422
144	0x3b5b926f	0.003350403
145	0x3bc7dc65	0.006099271
146	0xbc13ed44	-0.0090287365
147	0xbc143d1b	-0.009047772
148	0x3b3a3bc4	0.002841697
149	0xbb97367b	-0.004614649
150	0x3ae4cf3f	0.0017456784
151	0xbbb8d2ae	-0.0056403494
152	0xbb7bbcf3	-0.0038412183
153	0xbab1b79d	-0.0013558749
154	0xbc69196d	-0.014227253
155	0x3bd71bbb	0.006564585
156	0xbbdaedc9	-0.006681178
157	0xbb4415a2	-0.002992012
158	0xbaf7f64a	-0.0018918004
159	0xbbb834b4	-0.005621517
160	0x3b9dca5f	0.0048153843
161	0xbbdf2aaa	-0.006810506
162	0xbb7e11cc	-0.0038767932
163	0xb9b8a1e5	-0.00035215836
164	0xbc0ebccc	-0.008712005
165	0xbbcab034	-0.006185556
166	0xbbf35156	-0.0074254675
167	0x3b588798	0.0033039805
168	0x3b86da48	0.0041153766
169	0xbb871ec1	-0.004123539
170	0xbb12a54f	-0.0022376364
171	0xbc025a41	-0.0079560885
172	0xbc509a28	-0.012732066
173	0xb81f9ac0	-3.8052676e-05
174	0xbb8ed948	-0.004359398
175	0xbadc68c7	-0.0016815894
176	0x35875580	1.0083168e-06
177	0xbba6bbb4	-0.005088294
178	0xbb20847f	-0.0024493036
179	0xbc494e58	-0.012286745
180	0xbab71f77	-0.0013971169
181	0xbb1335c6	-0.0022462471
182	0xbc90e7b4	-0.01768861
183	0xbbde2098	-0.006778788
184	0xbba58eb7	-0.0050524133
185	0xbbfcc281	-0.0077136164
186	0xba13232f	-0.0005612848
187	0xbbfc466f	-0.007698826
188	0xb91c2658	-0.00014891603
189	0x3b9e0a69	0.0048230183
190	0xbb2b0b95	-0.0026099433
191	0xbae01fbc	-0.0017099301
192	0xbb737243	-0.0037146963
193	0xbc077518	-0.008267663
194	0x3b4c37d4	0.0031161206
195	0xbbde8b66	-0.00679152
196	0xbc480199	-0.012207412
197	0xbbf9c819	-0.0076227305
198	0xbc60a719	-0.013711714
199	0xb921d2b0	-0.00015432644
200	0xbc0857db	-0.008321728
201	0xbb295fb4	-0.0025844397
202	0xbaabbf6f	-0.0013103316
203	0xbb845cbf	-0.0040393765
204	0xbc829a8b	-0.015942832
205	0xbae96b1e	-0.0017808413
206	0xba039666	-0.00050196645
207	0xbb2d9abe	-0.0026489939
208	0xbb6b3c24	-0.0035894
209	0xbb19ea8e	-0.0023485753
210	0xbbf9f0ed	-0.0076275975
211	0xbb9ec7a8	-0.004845578
212	0xbc76ee54	-0.01507147
213	0xbc4d9353	-0.012547332
214	0xbbbb701a	-0.0057201507
215	0xbb95fa92	-0.0045769894
216	0xbc636514	-0.013879079
217	0xbc3d2586	-0.011544591
218	0xbc8d0254	-0.017213024
219	0xbb984ede	-0.0046480736
220	0xbc1d82a8	-0.00961367
221	0xbbb6d226	-0.005579251
222	0xbbd8b35d	-0.0066131786
223	0xbc03d6c6	-0.008046811
224	0xbc064ea9	-0.008197465
225	0xbbdec82d	-0.006798765
226	0xbbec2e48	-0.0072076656
227	0xbb7641c1	-0.0037575813
228	0xbbd78b7a	-0.006577906
229	0x3a416086	0.0007376749
230	0xbae5350d	-0.0017487124
231	0x3be2bcf4	0.0069194976
232	0xbc2f9c3a	-0.0107184
233	0x3b4c2809	0.0031151793
234	0x3ae55666	0.0017497062
235	0x3b8d3cbd	0.004310219
236	0x3aaf12ea	0.0013357077
237	0x3bd3a4cd	0.006458855
238	0xbbe8129d	-0.007082297
239	0xbc2b3da4	-0.010451708
240	0xbbfbd6e0	-0.007685527
241	0xbc178e37	-0.009250215
242	0xbb66f91e	-0.00352437
243	0xbc9712bd	-0.018441552
244	0x3aa63252	0.0012679792
245	0xbc5faa40	-0.013651431
246	0xbb75490e	-0.0037427577
247	0xbc7e2641	-0.01551205
248	0xbc230993	-0.009951013
249	0x3a8c05e0	0.0010682903
250	0xbbbcdd32	-0.005763673
251	0x3a86165c	0.0010230052
252	0x3b784f3a	0.003788902
253	0xbb99294c	-0.0046741124
254	0xbc26d668	-0.010182954
255	0xbb79e3c0	-0.0038130134

model/hidden/output_layer/b f4 [256]
0	0x3b8d8d52	0.004319825
1	0xbb927f2b	-0.004470726
2	0xbb47f2e3	-0.0030509762
3	0x3acce924	0.0015633446
4	0xbc06e76e	-0.008233888
5	0x3b561a2e	0.0032669413
6	0x3cadbce0	0.021208227
7	0x3b4a4e4e	0.0030869427
8	0x3b0ecf82	0.0021791165
9	0x3bcfc7e8	0.0063409694
10	0xbb4ce15d	-0.0031262257
11	0x3b470abc	0.0030371388
12	0xbb3c230f	-0.002870742
13	0xbc315493	-0.010823387
14	0x3b5bdd70	0.0033548735
15	0x3bca1b7f	0.0061678286
16	0xbb79e669	-0.003813172
17	0xbc219c06	-0.009863859
18	0xba480bf6	-0.0007631177
19	0x3bec36b5	0.00720867
20	0xb9f4a0a4	-0.00046658993
21	0xbbe10694	-0.0068672393
22	0x3bd75994	0.006571958
23	0xba9dd8cd	-0.0012042761
24	0x3b6ce5a5	0.003614762
25	0xb90e4444	-0.00013567606
26	0xba812bf2	-0.0009855016
27	0xbc3bafbe	-0.011455474
28	0x3b500ae1	0.0031744766
29	0x3b94eccd	0.0045448304
30	0xbbda2de8	-0.0066583045
31	0xbbc27436	-0.0059342636
32	0xbc3bd777	-0.011464945
33	0xbb4dd743	-0.0031408824
34	0x3b2af715	0.0026087214
35	0xbc4cb2be	-0.012493787
36	0xbbae14d8	-0.0053125434
37	0xbbbf32ce	-0.005834914
38	0x3b77ca41	0.0037809762
39	0xbc55f0aa	-0.013057867
40	0x3be302f8	0.006927844
41	0x3cc39ddb	0.023878982
42	0x3bacbcf7	0.00527155
43	0x3ba980c5	0.005172821
44	0x3cf8233d	0.03029024
45	0xbba29667	-0.004961777
46	0xbb65e14c	-0.0035076914
47	0x3cc0606e	0.023483481
48	0xb9a52edc	-0.00031506165
49	0xbc112c20	-0.008860618
50	0xbbea9bff	-0.0071597095
51	0x39f4c0ab	0.00046682855
52	0xbae9480f	-0.0017797964
53	0x3c9f6bc4	0.019460566
54	0xbc86e82a	-0.016468126
55	0x3c1d5dc0	0.009604871
56	0x39a3bf4c	0.0003123231
57	0x3ba801c7	0.005127165
58	0x3c9a2122	0.018814627
59	0xbbd442c0	-0.006477684
60	0xbc927e34	-0.017882444
61	0x3b573168	0.0032835845
62	0x39c0a6d6	0.00036745396
63	0xbc0299c1	-0.007971228
64	0x3b8239ad	0.0039741606
65	0xb7173b60	-9.014126e-06
66	0xbbb887f4	-0.0056314413
67	0xbc02b719	-0.007978224
68	0xbbeceaa0	-0.007230118
69	0x3ad77d02	0.0016440453
70	0xbb97258f	-0.0046126316
71	0x3c09e996	0.008417508
72	0x3bd94927	0.006631035
73	0xbbcaf036	-0.006193186
74	0xbca16ecd	-0.019706154
75	0xbc564bbe	-0.013079582
76	0x3b5c3afa	0.0033604489
77	0xbb30117e	-0.0026865895
78	0xbc12097e	-0.008913396
79	0x3cd231bc	0.02565848
80	0xbb2a7e4d	-0.0026015223
81	0x3b1209ac	0.0022283597
82	0xbc3c9c09	-0.011511811
83	0xbc14e8b0	-0.00908868
84	0x3caf2019	0.02137761
85	0xbbe7e1f6	-0.007076497
86	0x3bed6906	0.007245186
87	0x3c217cb5	0.009856393
88	0xbb87ce33	-0.004144454
89	0xbb750cf6	-0.0037391759
90	0x3cd873d7	0.026422424
91	0x3c15a45a	0.009133423
92	0x3bfd755f	0.007734939
93	0xbbeb9706	-0.0071896343
94	0xbaf2c00a	-0.0018520367
95	0x3b21ef98	0.002470946
96	0xbbfa47d6	-0.007637958
97	0x3a0d692a	0.0005394394
98	0x3c0e03e7	0.008667923
99	0xbbab8835	-0.005234743
100	0xb9aa3f3c	-0.0003247204
101	0xbc677a5e	-0.014128296
102	0xbb661170	-0.0035105608
103	0x3caaf62a	0.020869333
104	0xbc1fabc8	-0.009745546
105	0x3aa5657e	0.0012618748
106	0xbbd11291	-0.006380387
107	0x3c05172f	0.008123203
108	0xbb75475c	-0.0037426567
109	0x3bb645b2	0.0055625075
110	0x3b4347af	0.0029797365
111	0x3cd041ba	0.025421966
112	0xbbf1cb4f	-0.0073789726
113	0x3cd2d447	0.025735987
114	0xbc03dd62	-0.008048387
115	0xbbdac2b6	-0.0066760434
116	0xbb9e04fa	-0.0048223706
117	0xb98a42a1	-0.00026371054
118	0xbc58ae06	-0.013225084
119	0xbad8b914	-0.001653465
120	0xbb85d11c	-0.0040837657
121	0xbbbcda8f	-0.005763359
122	0x3b095ce7	0.0020959915
123	0x3bc2f631	0.0059497585
124	0x3b634807	0.0034680383
125	0x3c19db8b	0.009390722
126	0x3c029f7a	0.0079725925
127	0x3c2d49a1	0.0105766365
128	0xbc079fea	-0.008277873
129	0xbb38e44a	-0.0028212243
130	0x3933a548	0.00017132342
131	0xbc01cebf	-0.007922827
132	0x3bb51b4f	0.005526937
133	0xbbb6c8d9	-0.005578142
134	0x3c7221dc	0.0147785805
135	0xbc00bf05	-0.007858043
136	0xbc0c3551	-0.0085576335
137	0x3c20a559	0.009805047
138	0x3c2beb42	0.010493102
139	0xbb4ac269	-0.0030938631
140	0x3bd4d3c0	0.006494969
141	0xbbdaecdc	-0.006681068
142	0x3ab1cdba	0.001356534
143	0x3c0fcce6	0.008776879
144	0xba209579	-0.0006125789
145	0x3b023718	0.0019869264
146	0x3b715824	0.0036826218
147	0xbb8fc3ac	-0.0043873396
148	0x3c9ff912	0.019527946
149	0xbacfa4d1	-0.0015841966
150	0xbc0267dd	-0.007959333
151	0xbbfbd554	-0.007685343
152	0xbca1fa64	-0.019772716
153	0xbbfc456e	-0.0076987064
154	0x3c04a8f9	0.008096927
155	0xbbd2d412	-0.006433972
156	0xbb9a35ef	-0.0047061364
157	0x3c2982ef	0.010346158
158	0x3c576070	0.013145551
159	0xbbc7436d	-0.006081036
160	0x3be310d5	0.006929497
161	0x3b83f087	0.004026476
162	0xbbdce5dc	-0.0067412686
163	0x3c9bf96b	0.01903983
164	0xbb8afc63	-0.0042415126
165	0xbb8b9626	-0.0042598424
166	0xbb1df64c	-0.0024103103
167	0xbc8e3abf	-0.017361997
168	0xbc3ea501	-0.01163602
169	0x3d0a164b	0.033712666
170	0x3c2d040a	0.010560045
171	0xbb54aee0	-0.0032452866
172	0x3c44c62c	0.0120101385
173	0x3bf6854a	0.0075232135
174	0x3b8121c0	0.003940791
175	0xbc3cb0f9	-0.011516803
176	0x3c4c05f2	0.012452589
177	0xb8c1d6d0	-9.242969e-05
178	0xbbaff358	-0.005369585
179	0xbc0fc0ee	-0.008774025
180	0x3a8696d8	0.0010268344
181	0xba250407	-0.00062948506
182	0xbbdebea4	-0.0067976285
183	0xba84bd59	-0.0010127231
184	0x3c06eb8b	0.008234869
185	0xbbb4e684	-0.0055206437
186	0xba2b0c89	-0.0006525
187	0xbc26c76e	-0.010179384
188	0xba806d2c	-0.0009798161
189	0xbc1e9416	-0.009678861
190	0x3b1aa480	0.0023596585
191	0xbb9ee697	-0.004849266
192	0x3c290bbf	0.010317742
193	0x3c909688	0.017649904
194	0x3c34e374	0.011040557
195	0xbd25001a	-0.0402833
196	0x3abbe7bb	0.0014336029
197	0x3b6da31a	0.0036260546
198	0x398b7ee8	0.00026606699
199	0xbc01891e	-0.007906226
200	0xbbf0875a	-0.007340354
201	0x3aa60cdc	0.0012668627
202	0xbbd09ab7	-0.0063660997
203	0xbad1d6fe	-0.0016009507
204	0x3d03a51c	0.032139882
205	0xbc0bd8eb	-0.008535604
206	0xbaa3425e	-0.0012455692
207	0x3bceffa3	0.0063170954
208	0x3bd1632b	0.0063899956
209	0xbbb61db2	-0.005557739
210	0x3c225433	0.00990777
211	0xbc3b23de	-0.011422126
212	0xbc0c47f0	-0.008562073
213	0xbbe94630	-0.0071189627
214	0x3ce3b9b5	0.027798513
215	0xbacc21d2	-0.0015574044
216	0x3bc523dd	0.006016238
217	0xbc7eb251	-0.015545444
218	0xbc050a99	-0.008120202
219	0x3af48dde	0.0018658002
220	0x3bec2b21	0.00720729
221	0x3bd32013	0.0064430325
222	0x3be433f5	0.0069642016
223	0x3a501caa	0.00079388416
224	0x3c040847	0.008058614
225	0xbc125098	-0.008930348
226	0x3c02fb52	0.00799449
227	0xbadf889b	-0.0017054261
228	0xbba89b63	-0.0051454767
229	0x3a9f7ea6	0.0012168481
230	0xbbbedd35	-0.00582471
231	0x3bf2d7d6	0.0074109836
232	0x3b9ab302	0.0047210464
233	0x3c04a219	0.008095288
234	0x3d0df6b5	0.034659106
235	0xbb934060	-0.004493758
236	0x3a724f3c	0.0009243374
237	0x3b65713a	0.0035010115
238	0x3b976c8d	0.0046210946
239	0x3bd1529a	0.0063880207
240	0x3bd5b5bc	0.0065219086
241	0xbbbd70f0	-0.0057812855
242	0xba5d6342	-0.00084452715
243	0x39ae6f59	0.00033270827
244	0xbbfad87e	-0.0076552024
245	0x3be4cf6e	0.0069827354
246	0x3c28f928	0.01031331
247	0x3c52dfba	0.012870723
248	0x3b93c559	0.0045096097
249	0xbbc68916	-0.0060588224
250	0xb9d6154e	-0.00040833134
251	0x3c96822d	0.01837262
252	0xbb9259a0	-0.0044662505
253	0x3c17d9c6	0.00926823
254	0xbc310cb8	-0.010806255
255	0x3c93302f	0.017967312

model/a_stream/W f4 [3, 256]
0	0xbbffc19a	-0.0078050615
1	0x3c34f17f	0.011043905
2	0xbc9f4599	-0.019442366
3	0x3c82f36e	0.015985217
4	0xbca05f1a	-0.019576598
5	0xbcc29209	-0.023751276
6	0x3d18f8f8	0.03734681
7	0xbb942c8c	-0.004521912
8	0x3c8c9d24	0.017164774
9	0x3c0c63b0	0.008568689
10	0x3a0ec666	0.0005446434
11	0xbb22c3f1	-0.0024836028
12	0xbc3ff724	-0.011716638
13	0xbce155e5	-0.027506778
14	0xbb0fc78f	-0.0021939015
15	0x3928533c	0.00016052736
16	0xbb8478fe	-0.0040427437
17	0xbbe4ba0a	-0.0069801854
18	0x3c2019ee	0.009771807
19	0xbbbbf9cb	-0.0057365648
20	0x3bd96de2	0.0066354135
21	0xbaad44f0	-0.0013219398
22	0x3c2116e5	0.009832119
23	0xbc046a1a	-0.008081937
24	0xbbd36c36	-0.0064521087
25	0xbbc69efb	-0.0060614324
26	0x3c2621dc	0.010139909
27	0xbcb5bfeb	-0.02218624
28	0x3c947576	0.018122416
29	0xbb0b06f2	-0.0021213857
30	0x3b8d3ef6	0.004310484
31	0xbb9e00d5	-0.0048218765
32	0xbca7b316	-0.020471137
33	0x3b84012e	0.004028461
34	0xbc1b0ca0	-0.009463459
35	0xbca8aeb8	-0.020591125
36	0x3c7e9ba2	0.015540035
37	0xbcb56276	-0.022141676
38	0xba9990f2	-0.0011716171
39	0xbd100a21	-0.03516591
40	0xbc0fd26d	-0.008778197
41	0x3d3fd4fc	0.046833977
42	0x3c117691	0.008878366
43	0x3bc003cc	0.0058598276
44	0x3d618042	0.055053957
45	0x3b926dc4	0.0044686515
46	0x3ba6803e	0.0050812056
47	0x3d225946	0.03963592
48	0x3cb2391c	0.021755747
49	0xbcd130dd	-0.025535995
50	0x3aef33e9	0.0018249723
51	0x3c43069b	0.01190343
52	0x3a9c67d8	0.0011932803
53	0x3d15a92c	0.036538288
54	0xbcc8cdb5	-0.024512151
55	0x3c9893b0	0.01862511
56	0x3c77369e	0.015088705
57	0x3ca46c80	0.020071268
58	0x3d4e6209	0.050386462
59	0xbbb7e192	-0.005611607
60	0xbd003b79	-0.031306718
61	0xba5473a6	-0.0008104391
62	0xbbd96d4b	-0.006635343
63	0xbc148653	-0.0090652285
64	0xbc397cb1	-0.011321233
65	0xbca96453	-0.020677721
66	0xbb8f51b6	-0.0043737544
67	0xbb6d6c9e	-0.003622807
68	0xbba281a4	-0.004959302
69	0x3c3e364c	0.011609625
70	0x3bbe7c1a	0.005813134
71	0x3a29c501	0.0006476194
72	0x3ccad137	0.024757965
73	0xbbc33025	-0.005956667
74	0xbd252099	-0.04031429
75	0xbce64f80	-0.02811408
76	0x3cdd7db8	0.027037486
77	0xbcc749f6	-0.02432726
78	0xbca94794	-0.020664014
79	0x3d2b4a77	0.041819062
80	0xbbcf2f7b	-0.006322799
81	0x3b99b473	0.0046907007
82	0xbcd5b1f6	-0.026085835
83	0xbce9f957	-0.028561277
84	0x3d3610e1	0.04444969
85	0xbbc1e348	-0.0059169866
86	0x3c5d6fed	0.013515455
87	0x3c9aadea	0.018881757
88	0x39f34f39	0.00046407597
89	0x3af745f2	0.001886545
90	0x3d65dcfb	0.056118947
91	0x3b5df928	0.0033870433
92	0xbb1cd186	-0.0023928597
93	0xbc828fd2	-0.01593772
94	0x3b636fda	0.003470412
95	0xbbec798a	-0.007216637
96	0x3be91ed2	0.00711427
97	0x3bfc02f4	0.0076907817
98	0xba05a64c	-0.00050983275
99	0xbb81f929	-0.00396647
100	0xb9f69bec	-0.00047036947
101	0xbcd89d6f	-0.026442258
102	0x3b95024e	0.004547394
103	0x3d3171de	0.043321483
104	0xbc59ceda	-0.013293946
105	0xbc51fa1a	-0.0128159765
106	0x399cdeb2	0.0002992056
107	0x3cb1cea2	0.021704976
108	0xbcab470b	-0.0209079
109	0x3c647f52	0.013946371
110	0xbc127918	-0.008940004
111	0x3d37f2d8	0.04490933
112	0xbbaf431a	-0.0053485753
113	0x3d4c8943	0.04993559
114	0xbbe1061f	-0.006867185
115	0x3abd53fd	0.0014444586
116	0x3be54264	0.00699644
117	0x3c2b45cd	0.0104536535
118	0xbd19d4c5	-0.03755643
119	0xbbb4c6aa	-0.0055168467
120	0xbbcff26e	-0.0063460385
121	0xbcb313d6	-0.021860044
122	0xbcb55edb	-0.022139957
123	0x3bee8ed8	0.007280212
124	0x3cd85d10	0.026411563
125	0x3c149056	0.0090676155
126	0x3c08b92e	0.0083449315
127	0x3c85228f	0.01625183
128	0xbcaa6edc	-0.020804815
129	0x3b88ec41	0.0041785543
130	0xbba785a8	-0.0051123686
131	0xbc41ff0b	-0.011840592
132	0xbb519ae3	-0.0031983189
133	0xbb9bb9c4	-0.0047523696
134	0x3d138557	0.036015835
135	0xbbaacc7f	-0.005212366
136	0x3ab9f5fa	0.0014187687
137	0x3c312d5d	0.010814038
138	0x3be74c22	0.0070586363
139	0xbc1509c7	-0.009096569
140	0x3beb0884	0.007172646
141	0x3c1f6615	0.009728928
142	0xbbe7d207	-0.0070745978
143	0x3d081dbc	0.033231482
144	0x3c140d90	0.009036437
145	0xbbd631e2	-0.006536708
146	0xbbdde00a	-0.0067710923
147	0x3c5bd921	0.013418467
148	0x3cf9c2e9	0.030488448
149	0x3b53dbf8	0.0032327157
150	0x3b944c52	0.0045256997
151	0xbc96dc67	-0.018415643
152	0xbd38c994	-0.045114115
153	0x3c372f6f	0.011180743
154	0x3c259a2a	0.010107556
155	0xbcb5cb4d	-0.022191668
156	0x3c5b9478	0.013402097
157	0x3c8c6376	0.01713727
158	0x3cb92802	0.022602085
159	0xbcbc3d73	-0.02297852
160	0x3c9f8ce9	0.01947637
161	0xbc8a7543	-0.016901618
162	0xbb9de14e	-0.004818118
163	0x3d10d0b4	0.035355285
164	0x3c6eed15	0.014582892
165	0x3b8a1eb6	0.004215087
166	0x3b6858ed	0.0035453395
167	0xbcf0037c	-0.029298536
168	0xbcb40ef7	-0.021979792
169	0x3d683bd5	0.056697685
170	0x3c138cf8	0.009005778
171	0x3c099e98	0.008399628
172	0x3cf41824	0.029796667
173	0x3ba5fad3	0.005065301
174	0xb89299e0	-6.990484e-05
175	0xbc9b6506	-0.01896907
176	0x3cc4b12f	0.024010269
177	0xbae1a97b	-0.0017216647
178	0xbc112daf	-0.0088609895
179	0xbca68c3d	-0.020330543
180	0xbc484bec	-0.012225132
181	0xbc338bdc	-0.010958638
182	0xba5a7d74	-0.0008334734
183	0x3c94ad45	0.018149028
184	0x3c24e39d	0.010064033
185	0xbb9aa09b	-0.0047188527
186	0xb8ccf508	-9.773119e-05
187	0xbcd6bd57	-0.026213331
188	0x3c936778	0.017993674
189	0xbc0a303f	-0.008434354
190	0xbc4f7a0b	-0.012663375
191	0xbabb1da6	-0.0014275804
192	0x3c9d4cbb	0.019201627
193	0x3d238c7a	0.03992889
194	0x3c844fdd	0.016151363
195	0xbda10df8	-0.078639925
196	0xbc2650ae	-0.0101510715
197	0x3c86f0ba	0.01647221
198	0xbca6c017	-0.020355267
199	0xba01c8af	-0.00049508637
200	0xbcd00404	-0.02539254
201	0xbc242109	-0.010017642
202	0xbc9c9fb9	-0.01911913
203	0x3c752133	0.014961529
204	0x3d86f271	0.06589211
205	0xbb0ef9da	-0.0021816404
206	0xbc96213d	-0.018326396
207	0x3bc0f1fd	0.0058882223
208	0x3c9b1934	0.018932916
209	0xbc3fcf91	-0.0117072025
210	0x3cc9b127	0.024620606
211	0xbd05ca94	-0.032663897
212	0xb99d0f42	-0.00029956741
213	0xbb410c46	-0.0029456778
214	0x3d5e4d66	0.05427303
215	0xbc865d18	-0.016401812
216	0x3b4df7c3	0.0031428195
217	0xbd2b885d	-0.041878093
218	0xbbf325cc	-0.007420277
219	0xbbc1e546	-0.005917224
220	0x3c763450	0.015027121
221	0x3a06091e	0.0005113053
222	0x3bac776c	0.0052632596
223	0x3c5c6a53	0.013453084
224	0xbb6d4429	-0.0036203957
225	0xbccc1176	-0.02491067
226	0x3c0ea955	0.008707364
227	0x3c34c136	0.011032393
228	0xbb4ccd1b	-0.0031250182
229	0xbc0dbb0b	-0.008650552
230	0x38d9e270	0.000103895436
231	0x3af090c6	0.0018353693
232	0x3b1d498d	0.0024000139
233	0x3cb4777a	0.022029627
234	0x3d8c5e3f	0.068539135
235	0x39fb3142	0.0004791115
236	0x3c8ea2a3	0.017411536
237	0x3c0c1d30	0.008551881
238	0xb9aab510	-0.0003255983
239	0x3c6630df	0.014049738
240	0xb9c390f8	-0.00037301308
241	0xbc009b50	-0.007849529
242	0xbc816f09	-0.015800016
243	0x3cb73232	0.022362802
244	0xbce669a2	-0.028126542
245	0xbba7035c	-0.005096836
246	0x3cce9644	0.025218137
247	0x3ce36584	0.027758367
248	0xbbaa24a2	-0.0051923553
249	0xbb2fec83	-0.0026843853
250	0xbc70649c	-0.014672425
251	0x3d046aaf	0.032328304
252	0xba15466e	-0.0005694394
253	0x3c797c6d	0.015227419
254	0xbcf59712	-0.029979263
255	0x3d285141	0.041093115

model/hidden/mid_rec_layer/upward/W f4 [80, 86]
0	0xbb8660b6	-0.0041008843
1	0x3c413bed	0.011794073
2	0x3be1546c	0.006876519
3	0xbb56e23c	-0.0032788655
4	0xbc7356d3	-0.0148522435
5	0x3c3dd788	0.011587031
6	0x3c859366	0.016305637
7	0xbb090b0a	-0.002091112
8	0xbb4725e8	-0.0030387584
9	0x3c23d70a	0.01
10	0x3af59152	0.0018735325
11	0x3c23d70a	0.01
12	0x3bdd9606	0.006762269
13	0x3cb3a2a3	0.021928137
14	0x3c23d70a	0.01
15	0x3c91a651	0.017779501
16	0x3ccb6631	0.024829002
17	0x3c23d70a	0.01
18	0x3ce943ca	0.028474707
19	0x3d117bb6	0.03551837
20	0x3c23d70a	0.01
21	0xb8f51484	-0.00011686332
22	0x3cb31dc8	0.021864787
23	0x3c23d70a	0.01
24	0x3beed017	0.00728799
25	0x3c6ac755	0.014329751
26	0x3c23d70a	0.01
27	0xbb907b27	-0.004409212
28	0x3ca39d39	0.01997243
29	0x3c23d70a	0.01
30	0x3c50921a	0.012730146
31	0x3ca4e649	0.02012934
32	0x3c23d70a	0.01
33	0x39889e72	0.00026057992
34	0x3c4d5c91	0.012534277
35	0x3c23d70a	0.01
36	0x3c0b1dea	0.008491019
37	0x3ca59f9a	0.020217706
38	0x3c23d70a	0.01
39	0xbcbd6194	-0.023117818
40	0xbb109444	-0.002206103
41	0x3c23d70a	0.01
42	0xbd13e171	-0.03610367
43	0x3cd0e152	0.025498066
44	0x3c23d70a	0.01
45	0x3b1d323e	0.0023986246
46	0x3bf5be4b	0.0074994913
47	0x3cea7ff4	0.028625466
48	0x3ba7935c	0.005114002
49	0xbc6a7814	-0.014310855
50	0x3bd67d98	0.0065457337
51	0x3c6e75b2	0.014554428
52	0x3c7e792f	0.015531822
53	0x3ca110a6	0.019661259
54	0xbb9e6233	-0.0048334836
55	0x3bcb7901	0.006209493
56	0x3c23d70a	0.01
57	0xbc36ec67	-0.011164761
58	0x3c9c15f8	0.019053444
59	0x3c23d70a	0.01
60	0x3a8b90ed	0.001064805
61	0x3cd40eab	0.0258859
62	0x3b8987a6	0.0041970788
63	0x3c974ae1	0.018468322
64	0xbc89ee0a	-0.016837139
65	0x3cb39a48	0.021924153
66	0x3cd55d1c	0.026045375
67	0x3cfd4687	0.03091742
68	0xbb4cf695	-0.0031274904
69	0x3a58b1dc	0.0008266249
70	0xbc0a6809	-0.0084476555
71	0x3c23d70a	0.01
72	0xbce30638	-0.027712926
73	0x3a2b5839	0.00065362785
74	0x3c23d70a	0.01
75	0x3b87076e	0.0041207587
76	0x3a9c8ef3	0.0011944458
77	0x3cc5b48b	0.024133941
78	0xbc1ab3e8	-0.009442307
79	0xbd3d13a5	-0.046161313
80	0xbc861369	-0.016366677
81	0x3c319784	0.010839347
82	0xbc9ec17b	-0.019379368
83	0xbc37f7c0	-0.011228502
84	0x3c91a496	0.017778676
85	0xbccd2c4d	-0.025045538
86	0x3b8ba12f	0.004261158
87	0x3b79c6cc	0.0038112877
88	0x3b5b7584	0.0033486793
89	0x3bcb365c	0.0062015485
90	0x3c28d552	0.010304766
91	0x3ba4d8c7	0.0050307247
92	0x3bef51f2	0.00730347
93	0xbb84c804	-0.004052164
94	0xbbc97f57	-0.0061492133
95	0x3c23d70a	0.01
96	0xbb1b0b39	-0.0023657812
97	0x3c23d70a	0.01
98	0x3b932600	0.004490614
99	0x3c221baf	0.009894296
100	0x3c23d70a	0.01
101	0x3c3ae528	0.011407174
102	0x3c4b8c71	0.012423621
103	0x3c23d70a	0.01
104	0x3c847dbe	0.01617324
105	0x3c377b3f	0.011198818
106	0x3c23d70a	0.01
107	0x3c1ad503	0.0094502
108	0x3c0aa687	0.008462555
109	0x3c23d70a	0.01
110	0x3ca2122a	0.019784052
111	0x3bdff620	0.0068347603
112	0x3c23d70a	0.01
113	0x3c23593b	0.009970005
114	0x3be238c3	0.006903739
115	0x3c23d70a	0.01
116	0x3c0103c9	0.007874438
117	0x3c0b7e7a	0.008514041
118	0x3c23d70a	0.01
119	0x3bdce192	0.0067407573
120	0x3b47ee51	0.0030507038
121	0x3c23d70a	0.01
122	0x3b8ed5a6	0.004358965
123	0x3c4037e5	0.011732076
124	0x3c23d70a	0.01
125	0x3c36f831	0.011167572
126	0x3b199efb	0.0023440707
127	0x3c23d70a	0.01
128	0x3cece283	0.028916603
129	0x3c1c3ef6	0.009536495
130	0x3c23d70a	0.01
131	0x3c724bec	0.014788609
132	0x3c123247	0.00892312
133	0x3c39fda4	0.011351977
134	0x3baf0881	0.00534159
135	0xba78ea5b	-0.0009495371
136	0x3b6a2ce2	0.0035732319
137	0x3c17cb05	0.009264712
138	0x3b4898d9	0.0030608682
139	0x3b07e1d7	0.0020733976
140	0x3bf65e7e	0.0075185886
141	0xba8851ee	-0.0010400394
142	0x3c23d70a	0.01
143	0x3ac743fd	0.0015202757
144	0x3bee234a	0.0072673904
145	0x3c23d70a	0.01
146	0x3c2a1d66	0.010382986
147	0x3c606218	0.013695262
148	0x3bb3af7c	0.005483566
149	0xba1393a6	-0.00056296063
150	0xbc2518ae	-0.010076685
151	0x3b2c5e5c	0.002630136
152	0x3bdf9d42	0.0068241665
153	0x3c90f28b	0.017693778
154	0x3bb4c0eb	0.0055161617
155	0x3c4b455d	0.012406674
156	0x3b739cbf	0.0037172285
157	0x3c23d70a	0.01
158	0x3c069f3d	0.008216676
159	0x3bfedbf3	0.007777685
160	0x3c23d70a	0.01
161	0x3bd92e84	0.0066278595
162	0x3c0ebde6	0.0087122675
163	0x3b95bb65	0.0045694583
164	0x3bc6c2c2	0.0060656974
165	0x3b0d0b21	0.0021521526
166	0x3c8e1c30	0.017347425
167	0xbc198438	-0.009369902
168	0x3c57beaf	0.013168021
169	0x38d0f76f	9.964301e-05
170	0x3c01cc36	0.007922223
171	0x3d04ca71	0.032419626
172	0xb9f5235c	-0.00046756386
173	0xbacd17fb	-0.0015647406
174	0xbb47fa1d	-0.003051407
175	0xb8a66d2e	-7.935833e-05
176	0xb929aef5	-0.00016182273
177	0x3b480a32	0.0030523655
178	0x3b985d96	0.004649828
179	0xbc3a5717	-0.011373303
180	0xbc2223ea	-0.009896258
181	0x3c23d70a	0.01
182	0xbbe76bfb	-0.007062433
183	0x3c23d70a	0.01
184	0x3be063a7	0.006847817
185	0x3bfd4841	0.0077295606
186	0x3c23d70a	0.01
187	0x3c01868b	0.007905613
188	0x3c0e2a6c	0.008677106
189	0x3c23d70a	0.01
190	0x3c21e1f5	0.0098805325
191	0x3c327e3d	0.010894355
192	0x3c23d70a	0.01
193	0x3b3142b9	0.0027047826
194	0x3b9b2009	0.0047340435
195	0x3c23d70a	0.01
196	0x3c287216	0.010281106
197	0x3b931ac8	0.0044892766
198	0x3c23d70a	0.01
199	0x3befd16a	0.0073186653
200	0x3b1610ea	0.0022898265
201	0x3c23d70a	0.01
202	0x3c1f11a1	0.009708793
203	0x3b1c66a8	0.0023864899
204	0x3c23d70a	0.01
205	0x3b9c376b	0.0047673485
206	0x3ae896d9	0.0017745151
207	0x3c23d70a	0.01
208	0x3bfb9b64	0.007678436
209	0x3bf338ed	0.0074225576
210	0x3c23d70a	0.01
211	0x3bcd3bed	0.006263247
212	0xbae503dc	-0.0017472464
213	0x3c23d70a	0.01
214	0x3c8bb6b8	0.0170549
215	0x3c1c3df1	0.009536252
216	0x3c23d70a	0.01
217	0x3c39b429	0.011334457
218	0x3c370143	0.011169734
219	0x3c137af7	0.009001485
220	0x3b4cd132	0.003125262
221	0x3971e364	0.0002306826
222	0x3c1d1327	0.009587086
223	0x3bb0cf8d	0.0053958357
224	0x3b57dc1d	0.0032937594
225	0x39e85ef1	0.00044321225
226	0xbac72669	-0.0015193942
227	0x390f8ffe	0.00013691184
228	0x3c23d70a	0.01
229	0x3b373076	0.002795247
230	0x3b3bdcd4	0.002866556
231	0x3c23d70a	0.01
232	0x3c3ac90d	0.011400473
233	0x3c16d209	0.00920535
234	0x3be28c49	0.006913696
235	0xb9f665f5	-0.0004699674
236	0xbc3bb861	-0.011457534
237	0xb9b8862f	-0.0003519519
238	0x3ba7a166	0.0051156757
239	0x3c5cb6f2	0.013471352
240	0xbb341c7e	-0.0027482803
241	0x3b8a6b7b	0.0042242385
242	0x3b5b2a34	0.0033441903
243	0x3c23d70a	0.01
244	0x3c38cc2c	0.011279147
245	0x3b2eaf2b	0.0026654701
246	0x3c23d70a	0.01
247	0x3c1274bf	0.008938967
248	0x3bf68372	0.0075229937
249	0x3abc47f6	0.0014364708
250	0xbbb6f19a	-0.0055830004
251	0xbd0be9fe	-0.0341587
252	0x3b89b610	0.0042026117
253	0xbc473f82	-0.012161138
254	0xbbb4f61b	-0.005522502
255	0xbbbcf05f	-0.005765959

model/hidden/mid_layer/W f4 [256, 256]
0	0x3c0a1e5e	0.008430092
1	0x38e2a9bf	0.000108081374
2	0x3affb8f6	0.0019510079
3	0x3bc57118	0.0060254447
4	0x3c4da239	0.012550884
5	0xbc767ce0	-0.015044421
6	0xbb80ed9c	-0.0039345752
7	0xbbaa02e1	-0.0051883315
8	0x3c96589b	0.018352797
9	0x3bf3d366	0.007440972
10	0xbc35ed44	-0.011103932
11	0xbba4ff7a	-0.005035338
12	0xbbffd880	-0.0078077912
13	0x3b0b988e	0.0021300646
14	0xbc40fae9	-0.011778572
15	0xbc999c76	-0.018751364
16	0xbbe3cfdc	-0.006952269
17	0x3b1f33fa	0.0024292455
18	0xbbf655f7	-0.007517572
19	0x3c9794b4	0.018503524
20	0xbc57a273	-0.0131612895
21	0x3c9d12af	0.019173948
22	0xbbc40212	-0.005981692
23	0x3b0900a6	0.0020904928
24	0xbc623ef0	-0.013808951
25	0xbadaa507	-0.0016681262
26	0xb96e5006	-0.0002272726
27	0x396817ed	0.00022134157
28	0x3c4e9370	0.012608394
29	0xbbb5b0eb	-0.005544772
30	0xbb102cba	-0.0021999315
31	0x3c30beb8	0.010787658
32	0xbc7a216b	-0.0152667565
33	0xbb1e84c1	-0.0024188014
34	0xba57b498	-0.00082285097
35	0x3ae93901	0.0017793478
36	0xbb908c0f	-0.0044112275
37	0x3c488dc8	0.0122408345
38	0x3b5d7174	0.0033789547
39	0xbb05cdfd	-0.0020416968
40	0x3c3d2f4d	0.011546922
41	0xbbee4dd1	-0.00727246
42	0xbc710ce2	-0.014712544
43	0x3b5982a7	0.0033189447
44	0x3aebe385	0.0017996883
45	0x3c1e77c4	0.009672109
46	0xbc15979b	-0.009130384
47	0x3ca29588	0.019846693
48	0xb8085af0	-3.250962e-05
49	0xbb8b555e	-0.00425212
50	0x3bba60a5	0.0056877905
51	0x3b369944	0.002786235
52	0xbbf0ea78	-0.0073521696
53	0x3aa5a726	0.0012638315
54	0xba5171b6	-0.00079896615
55	0xbccffb68	-0.025388435
56	0x3c4134f4	0.01179241
57	0x3b2ba508	0.0026190896
58	0xba894d49	-0.0010475303
59	0x3c55be41	0.013045848
60	0xbbe39a70	-0.0069459006
61	0x3c92344f	0.017847208
62	0xbb21bdab	-0.0024679701
63	0x3ac33a8a	0.0014894765
64	0x3af0f6f2	0.0018384142
65	0xbab8b280	-0.0014091283
66	0x3bbf5d8c	0.005840009
67	0x3c3e18e7	0.011602617
68	0xbb7ce5a4	-0.0038589025
69	0x3bd30b42	0.006440551
70	0x3bb0c632	0.0053947205
71	0x3aae931a	0.0013318986
72	0x3c306465	0.010766123
73	0xbb13e3d0	-0.0022566207
74	0xbb2c3ab2	-0.0026280102
75	0xbbd9333a	-0.006628421
76	0xbab34b26	-0.0013679012
77	0x3c5eb622	0.0135932285
78	0xbbf3115b	-0.0074178404
79	0xbacdfc0b	-0.0015715373
80	0x3c5deb87	0.013544924
81	0xbbd94bb0	-0.006631337
82	0x3c3f0ca2	0.011660727
83	0x3c0c4417	0.008561156
84	0xbae4e16d	-0.0017462202
85	0xba3668e8	-0.0006958381
86	0xbbed7f84	-0.007247867
87	0x3bb49063	0.0055103763
88	0x3b908180	0.004409969
89	0xbb5799b7	-0.0032898018
90	0xbc17529c	-0.009236004
91	0x3b112193	0.0022145256
92	0x3c92bded	0.01791283
93	0xbbe2780a	-0.0069112824
94	0xbc30de62	-0.010795208
95	0x3c17793f	0.009245216
96	0x3c69b65c	0.014264669
97	0xbc263399	-0.010144138
98	0xbb9b9d8a	-0.0047490047
99	0xbc63c920	-0.013902932
100	0x3af577b6	0.0018727693
101	0xbb7afe12	-0.003829841
102	0x3ca98ad5	0.020696083
103	0x3c12e8c1	0.008966626
104	0xbbcccbc3	-0.006249876
105	0xbd251543	-0.04030348
106	0x3bd82df4	0.006597275
107	0x3b2d097c	0.0026403358
108	0x3b635c6a	0.0034692534
109	0xbc0df5fe	-0.008664606
110	0x3c82cd63	0.015967077
111	0x3c2d1fb1	0.010566638
112	0xbbd11b25	-0.0063814097
113	0x3b323230	0.0027190559
114	0x3ca4724b	0.02007403
115	0x3bcc5811	0.0062360843
116	0x3a5f46aa	0.00085173047
117	0xbb49956a	-0.0030759224
118	0x3bfa0bb7	0.007630791
119	0x3c7847ea	0.015153864
120	0x3b708973	0.003670302
121	0x3c6aa40c	0.014321338
122	0x3abae6dc	0.0014259475
123	0xbaf9d00c	-0.0019059195
124	0x3ba7e67c	0.0051239114
125	0xbd05a778	-0.032630414
126	0xbb0c34af	-0.0021393707
127	0xbc3ab197	-0.01139488
128	0xbc2122e9	-0.009834983
129	0x3b86abd4	0.004109839
130	0x3c15c45d	0.009141055
131	0x3ca84399	0.020540046
132	0xbc8f85aa	-0.01751979
133	0xbb8cec74	-0.0043006483
134	0xbbc6413f	-0.0060502584
135	0x3c77443d	0.015091953
136	0x3ac2d13e	0.0014863384
137	0x39497e81	0.0001921598
138	0x3cd0a5e2	0.025469724
139	0xbc63edea	-0.013911704
140	0xbb7bcb1d	-0.0038420625
141	0xba919ace	-0.0011108757
142	0x3c775809	0.015096673
143	0x3bed7f1e	0.0072478196
144	0x3b9bcbb4	0.004754508
145	0x39e738c6	0.00044102053
146	0x3c0335a9	0.008008399
147	0xbb06918c	-0.002053353
148	0x3b80c2f5	0.0039294907
149	0x3c50d9fa	0.012747282
150	0x3aa1e8be	0.0012352688
151	0x3c32ec08	0.010920532
152	0x3c589891	0.013219968
153	0xbb91a0d5	-0.0044442215
154	0xbb9227c9	-0.004460309
155	0xbc8aeb61	-0.01695794
156	0xbbb612cb	-0.0055564395
157	0x3cb1040d	0.021608377
158	0x3c4779aa	0.012175003
159	0xbc0a60d8	-0.008445941
160	0x3c8a4c94	0.016882218
161	0x3abce5b8	0.0014411723
162	0x3c4e9366	0.012608385
163	0x3b3cab36	0.0028788573
164	0x3c15e443	0.00914866
165	0xbc196ff8	-0.009365074
166	0x3bfe03dd	0.0077519254
167	0xbb788d4f	-0.0037926023
168	0xbba0bec1	-0.004905552
169	0xb9e904b4	-0.00044444727
170	0x3cc00bf2	0.023443196
171	0xbbd259f7	-0.006419416
172	0x3b6092e5	0.0034267243
173	0xbbd13e60	-0.0063856095
174	0xbbbeb335	-0.005819703
175	0x3cb8f95b	0.02257984
176	0x3bb4f665	0.0055225366
177	0xbc2e1556	-0.010625204
178	0x3c559867	0.013036824
179	0x3c0eb5da	0.008710349
180	0x3c19419d	0.009354022
181	0xbb3aa80e	-0.0028481516
182	0xbc0e12a9	-0.008671441
183	0x3b543dca	0.0032385462
184	0xbbd3cf86	-0.0064639477
185	0xbc29b0db	-0.010357107
186	0xbaea3ff3	-0.0017871842
187	0xbc3911c7	-0.011295742
188	0xbca6802e	-0.020324793
189	0xbc3ca33a	-0.011513526
190	0x3b8c86e2	0.00428854
191	0x3c287bd6	0.010283431
192	0x3cabb054	0.020958103
193	0x3a6551fd	0.0008747874
194	0x3c894cd9	0.016760277
195	0x3bf684ac	0.00752314
196	0xbc36b272	-0.011150943
197	0xbbf02192	-0.0073282206
198	0xba9eaa28	-0.0012105154
199	0x3c8a9897	0.016918464
200	0xbbc6958a	-0.006060307
201	0x3bf20f14	0.0073870514
202	0x3b0f7fb4	0.0021896185
203	0xbca7bd62	-0.020476047
204	0x3b31cb8e	0.0027129385
205	0xbb598041	-0.0033188018
206	0xbc815a2a	-0.015790064
207	0x3a1a67a0	0.0005890075
208	0x3c95b425	0.018274376
209	0x3c7a5797	0.015279672
210	0x3b4b6476	0.0031035221
211	0xbb1bfab3	-0.0023800551
212	0xbc8c2e0a	-0.017111797
213	0xbb0a00cb	-0.0021057602
214	0xbc5300c9	-0.012878605
215	0xbb677d5c	-0.0035322523
216	0xbc8c00b2	-0.017090175
217	0xba968adf	-0.0011485479
218	0x3bd37fec	0.0064544585
219	0xba8f6919	-0.0010941356
220	0xbb8a0dd3	-0.0042130738
221	0xbbdc70ee	-0.0067273295
222	0xbccf7dd9	-0.025328564
223	0x3b8fae6d	0.004384807
224	0x3cdbef33	0.026847458
225	0xbc2a1589	-0.010381111
226	0xbbd18eed	-0.006395212
227	0x3c8df294	0.017327584
228	0x3c4f7402	0.012661936
229	0x3c0bfd9b	0.008544351
230	0x3c0fde3a	0.00878101
231	0x3c0fb6fa	0.008771652
232	0xbbbfc1e0	-0.005851969
233	0xbd0b3918	-0.033989996
234	0xbb45efe5	-0.0030202803
235	0x3bf47af9	0.0074609485
236	0x3c97a450	0.018510967
237	0x3b64d5da	0.0034917505
238	0x3bfb1581	0.0076624756
239	0x3bf8a211	0.007587679
240	0x3c84d474	0.016214587
241	0x3b460f0c	0.003022137
242	0x3c29f4b7	0.010373286
243	0xbc17b864	-0.009260271
244	0x3b59065d	0.0033115365
245	0xb97f229a	-0.00024331585
246	0x3be028dd	0.006840809
247	0xbc852db9	-0.016257154
248	0xbbb7a3a6	-0.005604225
249	0x3add9c10	0.0016907472
250	0x3a36f3dd	0.00069790875
251	0xbc84a189	-0.016190307
252	0x38facc56	0.000119589895
253	0x3b1eb984	0.0024219463
254	0xbc9b1805	-0.018932352
255	0x3b01e30e	0.0019819173

model/a_stream/b f4 [3]
0	0x3cc02f48	0.023460045
1	0xbc47475b	-0.012163009
2	0xba3a0398	-0.00070958724

model/hidden/mid_rec_layer/upward/b f4 [80]
0	0xbc01281a	-0.007883096
1	0xbbc21307	-0.0059226784
2	0x3f7d03e7	0.9883408
3	0xbbca0ad3	-0.006165841
4	0xbbae9840	-0.005328208
5	0xbb99927a	-0.004686651
6	0x3f7dc05b	0.99121636
7	0xbba3d6f4	-0.0049999896
8	0xbc3f2401	-0.011666299
9	0xbbd6f5aa	-0.006560047
10	0x3f7bf7f6	0.98425233
11	0xbbde5618	-0.0067851655
12	0xbbec3c76	-0.007209356
13	0xbbb7b7cd	-0.0056066276
14	0x3f7d3511	0.989091
15	0xbbc00fbd	-0.005861251
16	0xbbf690fe	-0.0075246086
17	0xbbb790c5	-0.0056019747
18	0x3f7d30c5	0.9890254
19	0xbbbff9cf	-0.005858637
20	0xbb9d8faa	-0.004808386
21	0xbb94c432	-0.00453999
22	0x3f7dd4e9	0.99153
23	0xbb9f46bd	-0.0048607276
24	0xbc213676	-0.009839645
25	0xbbc6fdb2	-0.0060727233
26	0x3f7cbb20	0.9872303
27	0xbbce4b6c	-0.006295612
28	0xbc46ce90	-0.012134209
29	0xbbe9abc0	-0.00713107
30	0x3f7b9dbf	0.98287576
31	0xbbf0cba0	-0.0073484927
32	0xbc349ca6	-0.011023676
33	0xbbd8dce5	-0.0066181296
34	0x3f7c45c0	0.9854393
35	0xbbdfc577	-0.0068289596
36	0xbc335e40	-0.010947764
37	0xbbf3e8b0	-0.00744351
38	0x3f7bfa30	0.9842863
39	0xbbfa1b88	-0.0076326765
40	0xbc0f9486	-0.008763438
41	0xbbcd6810	-0.0062685087
42	0x3f7ce035	0.9877961
43	0xbbd4c0af	-0.0064926962
44	0xbbda92ce	-0.0066703325
45	0xbb9a4114	-0.004707465
46	0x3f7d97ea	0.9905993
47	0xbba3f673	-0.0050037443
48	0xbbf740f3	-0.0075455843
49	0xbbc83bb1	-0.0061106314
50	0x3f7d1412	0.9885875
51	0xbbcfbcc0	-0.0063396394
52	0xbb8adc70	-0.004237704
53	0xbb965860	-0.004588172
54	0x3f7de2c5	0.9917415
55	0xbba0ce1f	-0.004907384
56	0xbb958016	-0.004562388
57	0xbb943733	-0.004523182
58	0x3f7de4f3	0.99177474
59	0xbb9e701b	-0.0048351414
60	0xbb8fc9e3	-0.0043880804
61	0xbb831cd7	-0.0040012407
62	0x3f7e05bb	0.99227494
63	0xbb8e5bbf	-0.004344433
64	0xbb76ecc9	-0.0037677756
65	0xbb690211	-0.003555421
66	0x3f7e2f19	0.99290615
67	0xbb8065ce	-0.003918386
68	0xbc0b86d1	-0.008516029
69	0xbbbf7b5e	-0.005843564
70	0x3f7cef10	0.9880228
71	0xbbc7678d	-0.0060853423
72	0xbbe40561	-0.006958649
73	0xbbbcc1bc	-0.0057603996
74	0x3f7d3a8c	0.9891746
75	0xbbc50971	-0.0060130884
76	0xbb90c089	-0.004417483
77	0xbb84e32c	-0.0040554013
78	0x3f7e03be	0.9922446
79	0xbb90152b	-0.0043970547

model/hidden/input_layer/W f4 [256, 86]
0	0xbc2a1d7e	-0.010383008
1	0x3b03dbb8	0.0020119976
2	0xbc6c1de1	-0.014411421
3	0xbc171cec	-0.009223204
4	0x3a1c162e	0.0005954233
5	0x3b3a5c36	0.002843631
6	0x3c5c949d	0.013463167
7	0xbcd9b3d0	-0.026575
8	0x3b718c03	0.0036857135
9	0x38abc30f	8.190248e-05
10	0xbcba3b92	-0.022733483
11	0x3c681957	0.014166198
12	0xbb21a4e3	-0.002466493
13	0x3c99ec48	0.018789425
14	0xbc341660	-0.010991663
15	0x3ccda65f	0.025103746
16	0x3c50f769	0.0127543
17	0xbbd92998	-0.006627273
18	0xbc81e481	-0.01585603
19	0xbcacfbca	-0.021116156
20	0x3ba8468a	0.005135362
21	0x3ade468a	0.0016958278
22	0xba1b3211	-0.0005920241
23	0xbc41d00c	-0.011829387
24	0xbbf86083	-0.0075798645
25	0xbcadb249	-0.021203177
26	0x3ba8e232	0.0051539177
27	0x3b66722d	0.003516327
28	0x3bdbf135	0.0067121037
29	0x3c9b9c57	0.018995447
30	0xbc389ca3	-0.011267814
31	0xbc48852d	-0.012238783
32	0x3ce1138d	0.027475143
33	0x3bcc777b	0.006239829
34	0xbc21fa94	-0.009886403
35	0xbb32b856	-0.0027270517
36	0x3cc7ef23	0.024406021
37	0x3be39292	0.006944963
38	0x3ad81a95	0.0016487414
39	0xbc045c35	-0.0080786245
40	0x3ab4a167	0.0013781012
41	0xbc26ef57	-0.010188899
42	0xbc2e0858	-0.0106221065
43	0x3c8fd913	0.017559564
44	0x3bfe9aa8	0.0077699013
45	0xbbf2c8b9	-0.007409182
46	0xbc50d7a2	-0.012746723
47	0xbbf2b06a	-0.007406284
48	0xbc107864	-0.008817766
49	0x3b82453f	0.00397554
50	0xbc169d5a	-0.009192789
51	0x3aa7da77	0.0012806196
52	0x3b33b588	0.0027421433
53	0xbc958403	-0.018251425
54	0x3a4e3a38	0.00078669516
55	0x3c9ccedf	0.019141613
56	0xb9bc7185	-0.00035942733
57	0x3b9d4135	0.004799033
58	0xbc49e1a4	-0.012321863
59	0x3a9e978a	0.0012099606
60	0x3c810e48	0.01575388
61	0x3c62239c	0.013802435
62	0x3cacea62	0.021107856
63	0xbc06fa67	-0.0082384115
64	0x3bf312d6	0.007418017
65	0xbc00b2bc	-0.007855114
66	0x3a343689	0.00068745814
67	0x3c00fd44	0.007872883
68	0x3c996e21	0.018729271
69	0xbcd8dd8c	-0.02647283
70	0xbc2af12e	-0.010433478
71	0xbc2995d0	-0.0103506595
72	0x3c485cf9	0.012229198
73	0xbc43455b	-0.011918391
74	0x3bdcb63f	0.0067355926
75	0xbc15aaba	-0.009134943
76	0xbca4f110	-0.020134479
77	0x3bdec5be	0.006798475
78	0x3bb84f85	0.005624714
79	0x3ccede0a	0.02525236
80	0xbc2121a1	-0.009834678
81	0xbc2c6c41	-0.010523857
82	0xbc8fdbcb	-0.01756086
83	0x3c95c065	0.018280217
84	0xbcc0e657	-0.023547335
85	0xbc09f4b1	-0.008420155
86	0xb9e124f2	-0.0004294287
87	0xbc5cfed7	-0.013488493
88	0xbb2d396c	-0.0026431931
89	0xbb95658c	-0.0045592245
90	0xbc2acd95	-0.010424991
91	0xbb9961e1	-0.0046808575
92	0xbbe3a41f	-0.006947055
93	0xbccc9149	-0.024971621
94	0x3ad6467d	0.0016347911
95	0xbb654d3b	-0.003498866
96	0xbc4bfae8	-0.012449957
97	0x3bd0ac02	0.006368161
98	0xbc4824be	-0.012215791
99	0xbc21dd8b	-0.00987948
100	0xbc4c378e	-0.012464417
101	0x3c0857c2	0.008321704
102	0xbc9f408b	-0.019439956
103	0x3c0cfff3	0.008605945
104	0xbbc714a6	-0.0060754595
105	0x3c943d3c	0.018095605
106	0xbade94a4	-0.0016981554
107	0x3af739ae	0.0018861794
108	0xbc18dcae	-0.009329958
109	0x3b878a1c	0.004136337
110	0x3c1de120	0.0096361935
111	0xbd03b7a4	-0.032157555
112	0xbbaa743e	-0.0052018454
113	0x3b5a7ef0	0.003333982
114	0x3c0e0e54	0.008670408
115	0xbbc1867f	-0.0059059258
116	0xbc8abb16	-0.016934913
117	0xbb6699c3	-0.0035186864
118	0xbbf0e40e	-0.007351405
119	0xbbbc8f0e	-0.005754358
120	0xbd09d6de	-0.03365218
121	0xbbcaf896	-0.0061941845
122	0xbc5868e2	-0.0132086
123	0xbb3ad4b8	-0.0028508138
124	0x3bed3241	0.0072386567
125	0x3c9cc83b	0.019138446
126	0xbc918097	-0.017761512
127	0xbbb26d1b	-0.0054451353
128	0x3c3f2a52	0.011667805
129	0xbc80a635	-0.015704254
130	0x3b672521	0.0035269933
131	0xbbb24fc5	-0.005441638
132	0xbc9f75ca	-0.019465346
133	0xbc8f346f	-0.017481057
134	0x3abb9d10	0.0014313776
135	0xbcca199f	-0.02467042
136	0xbc0d7baf	-0.0086354455
137	0x3c8ceec0	0.017203689
138	0x3b5a0690	0.0033268072
139	0x3a5b8d03	0.00083751994
140	0xbc30b37a	-0.010784978
141	0xbce53b8e	-0.0279825
142	0x3c829b65	0.015943239
143	0x3c9c2b2a	0.019063551
144	0xbc29be8e	-0.010360373
145	0x3c725514	0.014790792
146	0x3c92e79b	0.017932704
147	0x3ce3c59a	0.027804185
148	0x3a118dba	0.000555243
149	0xbb4bc05b	-0.0031089995
150	0xbc8bb9c6	-0.017056357
151	0xbbd7f625	-0.006590622
152	0x3c54c4e5	0.012986396
153	0x3c5ee2f2	0.013603913
154	0xbb90c894	-0.004418442
155	0x3b621ec0	0.0034503192
156	0xbba8f5e2	-0.0051562646
157	0xbb8a6ae8	-0.00422417
158	0xbbc5eb64	-0.0060400236
159	0xb9048518	-0.00012638082
160	0x3b3d40aa	0.0028877654
161	0xbb9287e3	-0.0044717654
162	0xbb9f6848	-0.004864726
163	0x3c75316a	0.0149653945
164	0xbcd8b007	-0.026451124
165	0xbc3cb2ca	-0.011517236
166	0xbc17ce96	-0.0092655625
167	0x3bb56c89	0.00553662
168	0xbc8735d1	-0.016505154
169	0xbc317a65	-0.010832404
170	0xbc3cbfd0	-0.011520341
171	0xbcb74bfd	-0.022375101
172	0x3bc66266	0.0060542105
173	0x3c3fd7fc	0.0117092095
174	0x3c42ef3b	0.011897857
175	0x3c553b8c	0.013014685
176	0xbcff48bd	-0.031162614
177	0xbb8f861c	-0.0043800008
178	0xbc06abba	-0.008219654
179	0x3cee8ed8	0.029120848
180	0xbbcba0e8	-0.00621425
181	0x3b12e396	0.0022413484
182	0x3d0e6b6a	0.034770407
183	0xbc52dd58	-0.012870155
184	0x3b54502a	0.0032396414
185	0xbba551c4	-0.0050451476
186	0x3c1a9909	0.0094359005
187	0x3cadf9a5	0.021237204
188	0x3cdaec32	0.026723955
189	0x3caa0bb0	0.020757526
190	0x3c15da23	0.009146246
191	0xbb07a8be	-0.0020699943
192	0xbad3d9e2	-0.0016162957
193	0x3af8b1d2	0.0018973893
194	0xbb9d1836	-0.004794146
195	0xbc263ccc	-0.010146331
196	0x3b7b1306	0.00383109
197	0x3b8a0d6a	0.004213025
198	0xbaf10cf4	-0.0018390701
199	0x3d250b57	0.040294018
200	0xbce972ec	-0.028497182
201	0xbc94ba0a	-0.018155117
202	0x3c94e730	0.018176645
203	0x3c7d8718	0.015474103
204	0x3b51209a	0.0031910301
205	0x3c3f02c6	0.011658376
206	0x3cacb29c	0.021081261
207	0x3c1c482e	0.009538693
208	0xb9ac1df4	-0.00032828713
209	0xba889b22	-0.001042221
210	0x3c82d209	0.015969293
211	0x3b8dbaaa	0.0043252306
212	0xbc1c02bc	-0.009522136
213	0xb9d21233	-0.0004006788
214	0x3cb18c75	0.02167342
215	0x3bfffc49	0.007812057
216	0xbba4fb98	-0.005034875
217	0xbbcf7838	-0.00633147
218	0x3c456329	0.012047567
219	0xbc7149b2	-0.014727043
220	0x3c52793b	0.012846286
221	0x3b9dacd4	0.0048118625
222	0x3c2a676d	0.010400635
223	0x3c3aab51	0.011393384
224	0x3cba4712	0.022738967
225	0xbc34462d	-0.011003059
226	0xbcce7e5d	-0.02520674
227	0xbd686ab3	-0.05674238
228	0xbb39112f	-0.0028239002
229	0x3d2516f3	0.04030509
230	0xbc114096	-0.008865496
231	0x3c3da7fe	0.011575697
232	0x3ca6241e	0.020280894
233	0x3be3a0cc	0.0069466587
234	0x3bd7afb8	0.0065822266
235	0x3c2eca47	0.010668344
236	0xbd069c3e	-0.032863848
237	0xbc1fe5ec	-0.0097594075
238	0xbabbcb56	-0.0014327567
239	0x3c2b66f3	0.010461557
240	0xb8d159d4	-9.9826284e-05
241	0xbac3b2bb	-0.0014930585
242	0xbcd4325c	-0.02590292
243	0x3c17695f	0.009241431
244	0x3c3b73e6	0.011441207
245	0x3c5ee6ec	0.013604861
246	0xbbe4df42	-0.006984622
247	0x3cb49c4a	0.02204718
248	0xbc171653	-0.009221631
249	0x3c77c0f9	0.015121692
250	0x3cf12d3d	0.029440517
251	0x3bc73445	0.006079229
252	0x3c89b6a6	0.016810726
253	0x3c8da904	0.017292507
254	0x3c3fcfe7	0.011707283
255	0x3c299d03	0.010352376
