ai_challenge/results/simulation_DoubleDQN_DuelingRecNN_2017-05-19T19:40:53.24/20007/target_model.npz (npz, 626850 bytes, 12 tensors)

model/hidden/input_layer/b f4 [256]
00000000: c3c1 11bc d6a8 30bc c7d0 be3b 0772 2b3a
00000010: f142 843b 30fa a5bb 545d 0bbc 2ce1 0ebc
00000020: 08cb 89b9 a4e7 1cbb f3d3 c53b b784 ecba
00000030: 6d54 783b dde5 5fbb 38cb 23ba 48bc 00bc
00000040: 1d5d d3bb 014e b7bb 3814 b1ba 4fdf 63bc
00000050: 17e1 61bc d0f8 c1bb f50d 99bb ff58 1dbb
00000060: ed37 79bc 9b57 d7bb 9b58 92bc dd14 03bc
00000070: 21d0 b2ba 3d3c 2ebc ea0d 05bc 8786 36ba
00000080: 5f08 133c 5d17 d2bc 56fd 12bb c3ab b8bb
00000090: 902d 84bc 5663 37bb 87ab 21bc 66d5 5cba
000000a0: 73a6 46bc 7a02 5fbc 6742 a93b 36ad d4b9
000000b0: 3659 cebb 02f7 a33b 3543 00bc 2427 41bc
000000c0: a0df d2ba a365 66bc 7e23 f4ba 160f 2cbc
000000d0: 2db4 243c 0fea 6fbb c0ca 293b d29d 67bb
000000e0: 728d f8bb a53a 35bb 6e26 793b d352 31bb
000000f0: 6bb1 37bc 5a30 da3a 6f0a 7c39 8952 f8ba
00000100: d4d9 bdbb cfcd c2bb a2be 8bba 8e1b 683b
00000110: e839 2fbc 1cc2 2fba 34e9 3cbc dc78 fbbb
00000120: eca1 853a 2dc2 01bb 036a dbba 68b5 64bc
00000130: ab3d 1fbc 96cd c5bb 360f 29bb 8c2d 8dbb
00000140: 503a 50bb d18d 00bc 103c bebb f77f 79bc
00000150: f07e 82bb 02d4 60bc 9842 71bc 162c 98bb
00000160: d889 8039 4d34 aebb 48cc f7ba 9b5e b8bb
00000170: f583 bebb e420 3fbb 7524 8cbc f830 80bb
00000180: 0647 c1ba 1211 3bbc ec9a 833b fc3f a93b
00000190: aa57 0cbc bb86 c5ba 7c56 e0ba 9ecc 3cbc
000001a0: b738 d4bb 1d13 6ebb bc70 1abc 293c 1dbc
000001b0: 954d 0dbc df6b 48bc 0c73 88bb db2c f9bb
000001c0: a746 adbb c89f 14bb 2233 52bb 9163 dbba
000001d0: da8a 9bbb 53f9 dbbb fcde 7cbc bb5b 2abc
000001e0: a503 81bc bb72 ffbb 6fc9 acba 03a8 d5bb
000001f0: 1efb f138 506b ebbb 02a3 1bbc 1f8f 75ba
00000200: 3c8f 823b 9a02 debb 140c 713a 5d3d ddba
00000210: e4c9 e9ba b74b d33b d7bb 1ebb 60a0 2639
00000220: ebde 7dbb c178 21bc 52be 8abb dcf8 ccbb
00000230: 183c 4fbc 9e89 553b 10c2 d9bb 5b13 d1bb
00000240: 65ad 4e3b cbde a03b e954 22bc 7602 05bc
00000250: 3630 803b 462b c0bb fe11 f53a 5f6c bbbb
00000260: ee45 86bb 761d b7ba eb47 68bc 35eb f13b
00000270: e04d bebb 08f2 5ebb c9db 34bb a4a9 87bb
00000280: b043 7d3b fed1 debb f04a 7abb 07bd 44ba
00000290: 34dd 0abc c0ac b3bb 180d e0bb 6c62 533b
000002a0: a0b2 353b 6e8f 8ebb 87d3 63bb ceba e7bb
000002b0: 269a 50bc df11 723a 2efb 83bb cc35 f3ba
000002c0: 9a6a 4039 8db3 83bb c4bf 2cbb f62c 4fbc
000002d0: b35e edba f27b 26bb 96de 88bc 3766 eebb
000002e0: b783 acbb 391b fbbb d190 f8b9 3abd f9bb
000002f0: 64f7 a3ba 85dc a43b 137b 37bb 152f 08bb
00000300: 9942 7bbb 399a 0ebc c930 163b 6063 efbb
00000310: 37c8 3ebc ddab eebb 8758 59bc e83a 3bba
00000320: a038 08bc 740f 6dbb 1f62 e9ba fed3 9bbb
00000330: 5112 85bc 51c0 f1ba 6080 1839 5820 4dbb
00000340: 26a1 9bbb f090 31bb 4844 08bc db53 a3bb
00000350: cf1a 6dbc c066 4dbc edb9 b3bb 1891 b2bb
00000360: 3826 59bc d652 3ebc 7891 8cbc d7bf 84bb
00000370: 7468 2cbc b920 aabb d5ee c5bb e51b 0fbc
00000380: 9a3d 16bc 0db7 c3bb 4ce6 cebb 7230 8abb
00000390: 2429 e2bb 8662 a239 eda4 3fbb 78fc d53b
000003a0: ee02 31bc b592 493b 8820 ff3a bdb8 953b
000003b0: ec22 d8b9 1e13 c53b 5835 ddbb 2176 25bc
000003c0: 1291 0dbc 770a 0ebc 93b6 6fbb 16f1 94bc
000003d0: 23d4 8c3a dc21 58bc aec8 a0bb 21b9 7ebc
000003e0: a6c9 14bc 3a58 613a 66d8 b2bb c0ee 64b8
000003f0: fc7f 6d3b bf37 91bb fe4e 19bc 6d59 84bb
-0.008896294 -0.010782441 0.005823228 0.0006540124 0.0040363003 -0.005065225 -0.008506138 -0.008720677
-0.00026281946 -0.002394178 0.006037229 -0.0018044923 0.0037892119 -0.0034164109 -0.00062482385 -0.00785739
-0.006450309 -0.0055940156 -0.0013510054 -0.013908221 -0.013786576 -0.0059195533 -0.0046708533 -0.0024009345
-0.015211088 -0.0065717227 -0.017864516 -0.00800058 -0.001364235 -0.010634479 -0.008120993 -0.0006962795
0.008974164 -0.025645906 -0.0022428832 -0.00563571 -0.016135007 -0.0027982793 -0.009867555 -0.0008424133
-0.0121246455 -0.01361143 0.0051653865 -0.00040564843 -0.006297256 0.005003811 -0.007828523 -0.011789117
-0.0016088374 -0.014062318 -0.00186263 -0.010501644 0.010052723 -0.0036608016 0.0025908202 -0.003534187
-0.007585221 -0.0027653363 0.003801729 -0.0027057424 -0.011211733 0.001664649 0.0002403648 -0.0018945496
-0.0057937894 -0.0059449445 -0.0010661671 0.0035416814 -0.010694958 -0.0006704645 -0.011530209 -0.0076743197
0.0010195351 -0.0019799576 -0.0016739968 -0.013959266 -0.009719293 -0.0060364706 -0.002579642 -0.004308408
-0.0031773038 -0.007846312 -0.0058055 -0.015228263 -0.0039824173 -0.013722422 -0.01472535 -0.0046439273
0.00024516764 -0.0053162933 -0.0018905485 -0.005626512 -0.0058140703 -0.0029163891 -0.017107228 -0.0039120875
-0.0014745898 -0.011417644 0.004016271 0.0051650982 -0.008565823 -0.001507006 -0.0017115618 -0.011523394
-0.0064764875 -0.003632731 -0.009426292 -0.009596863 -0.008624454 -0.01223275 -0.0041641053 -0.007604224
-0.0052879634 -0.0022678245 -0.0032073935 -0.0016738047 -0.004746777 -0.0067130714 -0.015434023 -0.010397847
-0.015748808 -0.0077956594 -0.001318259 -0.0065202727 0.0001153855 -0.0071844235 -0.009499313 -0.0009367335
0.00398436 -0.0067752125 0.000919522 -0.001687925 -0.0017836657 0.006448235 -0.0024220848 0.00015890738
-0.0038737606 -0.00985545 -0.0042341137 -0.0062552523 -0.012648605 0.0032583247 -0.0066454485 -0.006380481
0.0031536457 0.0049093715 -0.0099079395 -0.0081182625 0.003911997 -0.0058645336 0.0018697379 -0.005719706
-0.0040976917 -0.0013970572 -0.014177303 0.007382775 -0.0058076233 -0.0034018774 -0.0027596822 -0.004140096
0.0038645081 -0.0067999354 -0.003819164 -0.0007504974 -0.0084755905 -0.00548324 -0.0068374984 0.003225471
0.0027724877 -0.0043505942 -0.0034763531 -0.0070718294 -0.012732064 0.00092342304 -0.0040277457 -0.0018555461
0.00018350259 -0.004019207 -0.0026359418 -0.012644997 -0.0018109888 -0.0025403467 -0.0167077 -0.0072753686
-0.005264725 -0.0076631573 -0.00047410143 -0.0076214345 -0.0012509641 0.005031171 -0.0027996942 -0.0020780016
-0.0038339256 -0.008703762 0.0022917262 -0.0073055476 -0.011644415 -0.0072836713 -0.0132657355 -0.00071422616
-0.008314282 -0.003617254 -0.0017805732 -0.004755496 -0.016244086 -0.0018444156 0.00014543673 -0.0031299796
-0.004749435 -0.0027094446 -0.008317061 -0.0049843616 -0.014471724 -0.012536705 -0.0054848106 -0.0054494254
-0.013253741 -0.011616429 -0.017159209 -0.0040511894 -0.01052295 -0.005191889 -0.006040434 -0.008734678
-0.00916996 -0.005972749 -0.0063140746 -0.004217201 -0.006901877 0.00030972454 -0.002924259 0.0065303408
-0.010803921 0.003075761 0.0019464651 0.0045691417 -0.0004122475 0.006014242 -0.006750744 -0.010098965
-0.0086405445 -0.008669487 -0.0036577329 -0.018181365 0.0010744374 -0.013191666 -0.0049067354 -0.015547068
-0.00908128 0.00085962156 -0.0054579256 -5.458179e-05 0.0036239615 -0.0044316943 -0.009357212 -0.0040389807

model/hidden/output_layer/b f4 [256]
00000000: d497 7d3b e871 83bb 925c 5fbb c472 073b
00000010: 5cf5 0ebc 098b 3b3b fbce b23c 4d44 2b3b
00000020: bb39 353b 0a36 c83b 24c9 30bb fccc 393b
00000030: f080 5bbb 4931 3bbc 0d4d 413b 98eb bc3b
00000040: 3432 5abb eb22 20bc 5dc0 98b9 57d1 df3b
00000050: 1008 acb7 df84 d3bb 6ff9 cf3b 1315 97ba
00000060: b002 853b b832 4dba 000e 09ba 3193 3abc
00000070: eed7 6c3b f603 8b3b e8a1 cebb af63 babb
00000080: 98f4 3cbc 8db6 34bb aa8d 123b a75b 56bc
00000090: de9b a3bb 501c d2bb 464a 543b 0735 61bc
000000a0: dda5 d83b 8b6f c83c 3637 bb3b c074 9e3b
000000b0: 96eb fc3c fe7d 9abb 2924 4cbb 2631 c43c
000000c0: 3e98 a838 5997 19bc 09e5 e0bb 7083 633a
000000d0: 8b70 beba 8e78 a33c c28b 8bbc 8c0d 273c
000000e0: 56a6 413a 819c bd3b 3f44 9f3c af0d e5bb
000000f0: 4983 97bc cae8 303b 58a5 e4b8 d449 ffbb
00000100: 805f 6a3b 7851 dab9 5468 acbb 7cd6 fdbb
00000110: 244d e4bb d766 133b d647 8abb 8898 043c
00000120: a80e ea3b adac bdbb c754 a5bc c2d8 60bc
00000130: c7e5 7b3b 3784 4cbb 05c8 1abc 064f d73c
00000140: 74bb 04bb aa47 073b 0c9e 42bc bca9 1cbc
00000150: ed11 b43c a680 dbbb cf93 003c de8a 1d3c
00000160: 3510 82bb af71 58bb 46fa dc3c 9ea5 103c
00000170: 3804 ef3b 44e7 01bc ce09 b1ba ffe1 fb3a
00000180: 4109 eebb c2c6 913a 6d33 083c 9de6 a7bb
00000190: 7b92 75ba dd7e 71bc a1bb 53bb fc83 b03c
000001a0: 25ae 22bc cc3f 543a 3aa8 c4bb bc51 0b3c
000001b0: c336 8cbb 48b1 c63b f53e 253b b1a6 d53c
000001c0: 85bf e4bb 32ed d73c 42ef febb 0e6d d1bb
000001d0: cc91 90bb c2eb 6839 ba60 63bc 3e22 10bb
000001e0: cc88 92bb 3871 cdbb a43a d83a 1929 c53b
000001f0: 9ef5 7f3b 0f1a 163c 9547 fd3b 8e54 333c
00000200: 05ec 11bc 02d6 20bb c4ef b5b9 4920 fcbb
00000210: 16cd a73b 9a79 b3bb d1f0 7a3c bff8 f6bb
00000220: 8e09 07bc 7b73 1d3c 5b72 243c 9b24 6ebb
00000230: 6f4b cc3b ae79 cebb bbff 673a d8fb 1a3c
00000240: f859 a4b8 9496 de3a 4c89 583b e78f 80bb
00000250: 7e5b a43c 8872 9bba 771a f6bb bac3 06bc
00000260: 9f07 a7bc 1a10 f0bb 55b3 023c 248e e8bb
00000270: 6028 8cbb 4555 273c ad20 5a3c bea6 d9bb
00000280: 4005 f23b a3f4 6f3b d520 d8bb 99db a03c
00000290: 0e8c 79bb 7498 77bb ed49 f7ba a9a1 93bc
000002a0: 7d12 48bc 918b 0c3d a69b 273c 1747 40bb
000002b0: 6e53 4f3c 82d9 ec3b af1c 653b e1af 46bc
000002c0: 0493 4a3c 7add cab9 2ca1 b1bb baf5 19bc
000002d0: d6ed 113a d635 94ba 0ebd d4bb 1d72 19ba
000002e0: 4465 013c 9448 aebb c055 90ba 91b7 29bc
000002f0: a1db 07ba 7651 1abc 465d fc3a 6f19 91bb
00000300: 023c 293c 03ba 943c 64ab 323c 283f 27bd
00000310: 9dbc 813a f559 873b 9c07 41b9 8b5e f8bb
00000320: 3a05 04bc 7cc4 3d3a 3ba3 e3bb dca1 a6ba
00000330: a22c 063d f0c4 04bc 2c87 e1ba 84d1 db3b
00000340: 57b0 e33b b6a2 adbb c7c5 253c 8a9a 45bc
00000350: ca52 06bc 90e2 ddbb 3069 e83c f726 08bb
00000360: db27 b83b 03dc 83bc bffb 00bc bb24 bd3a
00000370: 73b5 e53b 9046 c83b f4f8 d93b 031c bb3a
00000380: 2e42 fd3b a9ab 11bc 6948 fe3b 7665 afba
00000390: 2dd9 a0bb 1b87 4f3a 04b2 b3bb 1625 e73b
000003a0: 1c84 8d3b 63af 0d3c d83a 103d b1d8 82bb
000003b0: 786b b53a 0c3e 853b a6ca 893b 98aa ca3b
000003c0: d5d1 c83b a675 b8bb ad75 a9ba 68da 4a3a
000003d0: 5f49 03bc 9714 da3b 76a1 293c cbef 563c
000003e0: f91f 873b afe6 b8bb 6c4d 54ba 6be2 9b3c
000003f0: 52ad 95bb e0fa 143c 4430 36bc 8e2f 983c
0.0038695233 -0.0040113814 -0.0034082276 0.002066777 -0.00872549 0.0028616807 0.021827212 0.002613324
0.0027652818 0.0061099576 -0.0026975358 0.002835094 -0.00334936 -0.011425325 0.0029495389 0.0057653897
-0.0033294084 -0.00977395 -0.0002913502 0.006830375 -2.0507752e-05 -0.0064550485 0.0063468735 -0.0011526666
0.0040591583 -0.0007827687 -0.00052282214 -0.011387632 0.0036139446 0.0042424155 -0.006305922 -0.0056881527
-0.011532925 -0.002757463 0.002236227 -0.013083375 -0.004992946 -0.0064120665 0.0032392903 -0.013745553
0.0066115693 0.02446725 0.0057133688 0.004835695 0.030874055 -0.0047147265 -0.0031149483 0.023949217
8.0392216e-05 -0.009374463 -0.0068632406 0.00086789485 -0.001452939 0.019954946 -0.017034415 0.010196101
0.00073871517 0.005786479 0.019441722 -0.0069901566 -0.018495219 0.0026994222 -0.00010902685 -0.0077907834
0.003576249 -0.000416409 -0.0052614603 -0.007746516 -0.0069672037 0.0022491717 -0.0042199893 0.008093007
0.0071428604 -0.005788407 -0.020182027 -0.013723554 0.0038436519 -0.0031206736 -0.009447102 0.026282798
-0.0020253332 0.002064208 -0.011878502 -0.009561952 0.021981204 -0.0066986857 0.00784774 0.009615628
-0.003969217 -0.0033026745 0.026974808 0.008828549 0.007294204 -0.007928673 -0.001350695 0.0019217132
-0.0072642867 0.0011121857 0.008313042 -0.005123927 -0.00093678356 -0.014739719 -0.003230788 0.02154731
-0.009929215 0.00080966647 -0.0060014995 0.008503374 -0.004278989 0.006063614 0.0025214527 0.026080461
-0.0069808387 0.02635822 -0.0077799866 -0.006391174 -0.0044119116 0.00022213071 -0.013878042 -0.0021993066
-0.004471874 -0.0062696002 0.0016496968 0.006016862 0.0039056311 0.009161486 0.0077294805 0.010945452
-0.008906369 -0.002454162 -0.0003470165 -0.0076942784 0.0051208837 -0.0054771425 0.015316204 -0.007536977
-0.008242024 0.009610052 0.01003703 -0.0036337737 0.0062345783 -0.0063011264 0.00088500575 0.009459458
-7.8368874e-05 0.0016982132 0.003304082 -0.0039234045 0.020063158 -0.0011859694 -0.007510479 -0.008225376
-0.020389376 -0.007326138 0.007977326 -0.0070970226 -0.004277274 0.010213201 0.013313455 -0.0066421917
0.0073858798 0.003661432 -0.0065957108 0.019635962 -0.0038077864 -0.0037780078 -0.0018866636 -0.018021422
-0.012211439 0.03431279 0.010229981 -0.0029339248 0.0126541685 0.0072280774 0.0034959724 -0.012126894
0.012364153 -0.00038693455 -0.0054208245 -0.009396965 0.00055667514 -0.0011307548 -0.0064922636 -0.0005853491
0.007897679 -0.0053187106 -0.0011011884 -0.010358707 -0.00051825686 -0.009418836 0.0019253872 -0.0044280807
0.010329248 0.018155104 0.0109051205 -0.040831715 0.000989813 0.0041305968 -0.00018408749 -0.00757963
-0.008057887 0.0007239056 -0.006946949 -0.0012713033 0.03275741 -0.008103594 -0.0017206422 0.006708326
0.0069485116 -0.0052989377 0.010117955 -0.012060771 -0.008198449 -0.006771393 0.02837047 -0.0020775178
0.0056199855 -0.01609612 -0.007872521 0.0014430502 0.007010156 0.0061119273 0.006651992 0.0014275316
0.0077288365 -0.008891025 0.007760097 -0.0013381678 -0.004908702 0.00079165556 -0.0054838676 0.0070539815
0.004318727 0.0086477725 0.035212368 -0.003993117 0.0013841232 0.0040662345 0.004205066 0.006184887
0.0061285296 -0.005629259 -0.0012928747 0.00077382335 -0.0080130985 0.0066552865 0.010353437 0.013118695
0.0041236845 -0.005642734 -0.0008098695 0.019028863 -0.0045677805 0.009093016 -0.011119906 0.018577363

model/a_stream/W f4 [3, 256]
00000000: 2199 e4bb a1e7 273c 8a9e 9cbc e6da 753c
00000010: eea3 98bc 9e0e bcbc d73e 153d 430a 71bb
00000020: 4eb0 843c ae81 0d3c f89a 6cb9 ed44 1bbb
00000030: d488 31bc 9829 dbbc fbc1 b4ba 6bd3 6b3a
00000040: f1c0 8fbb 72f8 e0bb 4620 113c 3a6a a3bb
00000050: 8aac bf3b 3446 09bb 4c27 1d3c 486e 06bc
00000060: fed9 dabb 2ae7 c7bb 8728 173c d6df b5bc
00000070: d239 8c3c 42e9 b9ba 8906 6f3b 66bb 9cbb
00000080: c814 a5bc d56c 5b3b eb83 0dbc 5ac7 a2bc
00000090: 67bf 713c a7bd afbc 04a8 01ba 2258 0cbd
000000a0: f2a8 03bc 2cdf 3b3d c0da 073c 9a43 d73b
000000b0: 1132 5d3d 5e3c 743b e296 8a3b b1a9 1e3d
000000c0: 343b aa3c bc76 c9bc 5c7f 923a 1da9 333c
000000d0: e933 103a d2a9 113d 6385 c2bc 589b 913c
000000e0: 56bc 683c baf9 9d3c 50a4 4a3d 1ec5 a2bb
000000f0: 255f f8bc b560 9bb9 1cf2 bbbb 2bf7 1bbc
00000100: 26bf 2bbc 101c a2bc 51d0 a7bb 6229 89bb
00000110: bc0a b4bb 23a3 2f3c 06a3 a43b 8088 a93a
00000120: cedf c23c 9b60 d9bb c4ba 21bd c3b0 dfbc
00000130: feec d63c 4d48 bfbc bf64 a2bc 414b 283d
00000140: ea8f c5bb fd5b a23b 71f9 cfbc fc69 e2bc
00000150: 3366 323d 828e d8bb 652b 513c b2eb 9e3c
00000160: 9829 a438 861c 903a 611e 613d b4c7 843b
00000170: 51da d9ba 7d78 7abc 5b06 333b 1958 d5bb
00000180: d939 d13b 1b19 e13b 0808 7439 b23a 8fbb
00000190: 6244 d639 163e d1bc 01b0 763b 8edf 2d3d
000001a0: a6bd 54bc dc4a 42bc 688a e9b9 3afc ac3c
000001b0: 76e8 a3bc 57c5 553c ea69 04bc 98d5 343d
000001c0: a7eb c4bb a213 493d 9d05 f7bb e24a 3e3a
000001d0: b7d2 cc3b 1f33 1f3c 151f 15bd a738 95bb
000001e0: c997 c7bb 9a28 afbc 869d aebc 9d61 e03b
000001f0: 2bc2 d03c 3a3a 1e3c 7afc 123c a9ab 803c
00000200: f28e a4bc 5e5a 5b3b 56bc 9cbb 9d43 49bc
00000210: 5abf 20bb f9fa 9dbb 6393 0f3d e4ef c0bb
00000220: 6265 463a 7bca 383c ce69 fd3b 5258 09bc
00000230: 6e48 fe3b a396 123c 0070 d3bb e43b 033d
00000240: 282c 053c 01e6 bdbb 8972 c2bb 3578 4f3c
00000250: 19fd f23c 40d8 1b3b 5289 7a3b 9ed4 8ebc
00000260: 5375 35bd dbc6 2a3c 0eda 253c 0fde adbc
00000270: 8963 4e3c a9f2 8c3c 782e b43c 6ae8 b3bc
00000280: cf7d 983c 1f88 83bc 62d7 a9bb 3918 0d3d
00000290: fd2b 613c 00d3 653b 80d2 393b 2566 e9bc
000002a0: c4c1 acbc b070 643d fafb 1d3c 324a ff3b
000002b0: ed61 eb3c 5311 bc3b 965e 273a 339b 93bc
000002c0: 1b69 c43c f449 87ba 26fe 0dbc e7fc 9fbc
000002d0: 32eb 3abc fe16 24bc 766c caba 4050 8e3c
000002e0: 5a64 2d3c e400 a1bb 81c7 5c3a bc67 d1bc
000002f0: 7b41 8c3c 9e36 14bc 1892 41bc 8669 04bb
00000300: ddc9 9b3c ff21 203d 9694 853c b4dd 9ebd
00000310: 884b 17bc 0135 803c ff23 9fbc 9090 a1ba
00000320: 6dd6 cabc be79 18bc 70ec 93bc ace3 653c
00000330: 44ce 843d e5e9 3dbb 6f56 8ebc 8143 ae3b
00000340: 1043 923c 4b3a 45bc f660 c73c 6b4c 01bd
00000350: e0cf 82ba 124d 6ebb 7e9d 5a3d 111a 80bc
00000360: 1a6b 813b 02f5 26bd a5db 02bc 355a a6bb
00000370: ad81 753c 9f9a a73a 5ab1 be3b 479c 543c
00000380: 8d8b 3ebb de31 cbbc 1d92 123c 119c 263c
00000390: c762 63bb f729 00bc 4c1a 1eba 408d 263b
000003a0: 398e 513b e909 ad3c dc1d 8a3d 8ce4 63b9
000003b0: 3218 873c f898 003c dc4b f439 ff78 693c
000003c0: 18b6 ca39 bb39 06bc 6615 75bc 01f5 af3c
000003d0: ed84 e0bc 4abc 8dbb 4f6e cd3c 6e02 df3c
000003e0: de3c a6bb 46d6 63bb 0168 61bc 32f6 003d
000003f0: 6a78 acb9 dce6 7e3c 3fa3 eebc fab9 243d
-0.006976262 0.010248096 -0.019118566 0.015005803 -0.018632855 -0.022956189 0.036436882 -0.0036779798
0.01619735 0.008636875 -0.00022564444 -0.0023692206 -0.010835845 -0.026753232 -0.0013790721 0.00089960423
-0.004387014 -0.0068655545 0.008857792 -0.0049870284 0.0058494257 -0.0020946385 0.009591889 -0.008205004
-0.0066788187 -0.006100555 0.009225971 -0.02220146 0.017117415 -0.0014183896 0.00364724 -0.004783082
-0.02015151 0.0033481617 -0.008637409 -0.019870449 0.0147551065 -0.021452738 -0.0004945996 -0.034263737
-0.008035885 0.04586713 0.0082919 0.006569338 0.054002825 0.0037267427 0.0042294124 0.03873605
0.020780183 -0.02459275 0.0011176872 0.010965613 0.0005500899 0.035562344 -0.023745244 0.017774269
0.014205059 0.019284118 0.049473107 -0.004967346 -0.030318806 -0.00029635956 -0.005735649 -0.009519379
-0.010482585 -0.019788772 -0.005121269 -0.0041858414 -0.0054944437 0.010720047 0.0050243167 0.0012934357
0.023788359 -0.0066338307 -0.039484754 -0.027305966 0.026236054 -0.023349905 -0.01982343 0.041087393
-0.006029119 0.0049548135 -0.025387498 -0.027638428 0.043554496 -0.006608785 0.012766694 0.019399498
7.827877e-05 0.0010994829 0.054960612 0.004052127 -0.001662085 -0.015287516 0.002731702 -0.006510746
0.00638507 0.006869448 0.00023272645 -0.0043710107 0.0004086821 -0.0255423 0.0037641528 0.042449526
-0.012984669 -0.011858668 -0.00044544344 0.021116365 -0.020008307 0.013047538 -0.0080818925 0.04414901
-0.0060095373 0.04909099 -0.007538511 0.0007259083 0.006250705 0.009716778 -0.036406595 -0.0045538726
-0.0060910922 -0.021381665 -0.021315347 0.006847574 0.025483212 0.009657437 0.008971328 0.015706854
-0.020087693 0.003347061 -0.0047831936 -0.012284187 -0.0024528117 -0.004821178 0.03505267 -0.005887972
0.0007568208 0.011278744 0.00773356 -0.008382874 0.007760099 0.008947047 -0.0064525604 0.032039538
0.008128203 -0.005795241 -0.005934064 0.012662937 0.029661702 0.0023780018 0.0038228822 -0.017435368
-0.044301342 0.010423387 0.010122789 -0.02122405 0.012596973 0.017205553 0.021994814 -0.02196141
0.018614678 -0.016056119 -0.0051831463 0.03444693 0.013743398 0.0035068393 0.0028354228 -0.02849109
-0.021088488 0.05577153 0.009642595 0.007790827 0.028733218 0.00573937 0.0006384639 -0.01801834
0.0239759 -0.0010321722 -0.008666551 -0.019529773 -0.011408614 -0.010015247 -0.0015443701 0.01737225
0.010583008 -0.0049134362 0.00084220624 -0.02556216 0.017121067 -0.009046225 -0.011814617 -0.0020204498
0.019017154 0.03909492 0.016306203 -0.0775713 -0.009234317 0.015650274 -0.019426344 -0.0012326408
-0.02476045 -0.009306369 -0.018057078 0.014031332 0.064846545 -0.0028978523 -0.0173752 0.0053181057
0.017854244 -0.012037824 0.024338227 -0.03156702 -0.0009980164 -0.0036361855 0.053372853 -0.01563743
0.003949535 -0.040761 -0.007986938 -0.0050766715 0.01498453 0.001278717 0.005819482 0.012976713
-0.0029074878 -0.024804052 0.008945969 0.010169045 -0.0034696327 -0.007822505 -0.000603114 0.0025413781
0.003197564 0.02112289 0.067439765 -0.00021733547 0.01649103 0.007848971 0.00046595826 0.014250039
0.00038664113 -0.008192475 -0.014958715 0.021479132 -0.027407134 -0.0043254243 0.025077013 0.027222838
-0.005073174 -0.0034765168 -0.013757707 0.03148479 -0.00032896112 0.015557971 -0.029130576 0.040216424

model/hidden/mid_rec_layer/upward/W f4 [80, 86]
00000000: 6dfa 94bb 381e 393c 7e9a d53b 6150 70bb
00000010: 4875 72bc f425 333c fd80 803c b2d8 1ebb
00000020: c63c 5dbb 0ad7 233c a938 cc3a 0ad7 233c
00000030: 1f8e e53b b655 ae3c 0ad7 233c 5d85 8f3c
00000040: 9076 c73c 0ad7 233c 3c75 e73c 7ad4 0d3d
00000050: 0ad7 233c e77a aab9 b947 ae3c 0ad7 233c
00000060: 4cd6 d03b 0536 6a3c 0ad7 233c 18ef 8fbb
00000070: c8cd a03c 0ad7 233c 5fa9 493c da7e a03c
00000080: 0ad7 233c 26b0 fa39 8f09 4d3c 0ad7 233c
00000090: 6843 033c ba3e a53c 0ad7 233c a0a5 bfbc
000000a0: 9621 16bb 0ad7 233c 83dd 13bd 8e36 ca3c
000000b0: 0ad7 233c 15d4 2e3b a181 e33b 1d57 eb3c
000000c0: a784 a73b b7f2 67bc a265 c63b 2442 633c
000000d0: 0fdc 763c d304 a03c 1ef6 a6bb 9c0c d23b
000000e0: 0ad7 233c bcc5 3bbc 39ec 943c 0ad7 233c
000000f0: 50e0 743a ebe6 d23c 39f9 8c3b de84 913c
00000100: 94f4 88bc fef4 ac3c 08a1 d03c 3220 fc3c
00000110: 4a6f 52bb 6914 b739 a647 08bc 0ad7 233c
00000120: a1a1 e4bc 4f7d 3f3a 0ad7 233c bcff 513b
00000130: 00fa 863a db67 be3c 2c1c 1fbc f580 3ebd
00000140: c80c 88bc 5f6b 383c ef0f a1bc 85a2 39bc
00000150: 0bd1 923c 3460 c8bc 2bb1 883b f75f 6a3b
00000160: ec88 4b3b a9f0 c43b 4a45 283c 8efc 9a3b
00000170: cf89 e23b 9143 84bb f6f0 cdbb 0ad7 233c
00000180: df07 1bbb 0ad7 233c 3ee0 933b c1ad 1c3c
00000190: 0ad7 233c 07fe 3d3c dc3a 493c 0ad7 233c
000001a0: be83 853c 0473 323c 0ad7 233c a946 1c3c
000001b0: a541 0b3c 0ad7 233c f570 a03c b76c dc3b
000001c0: 0ad7 233c a2cc 233c d781 e03b 0ad7 233c
000001d0: 840d 013c 85f9 063c 0ad7 233c 5008 d83b
000001e0: 3615 4c3b 0ad7 233c 0e6a 903b 604d 403c
000001f0: 0ad7 233c 6f45 393c b5b4 1a3b 0ad7 233c
00000200: 768a eb3c fd8e 133c 0ad7 233c 61fd 723c
00000210: ccaf 0f3c 44ef 3a3c 4c94 a63b 66e1 84ba
00000220: c889 543b 973a 133c e496 403b 2b31 0c3b
00000230: c539 f63b 407e 5dba 0ad7 233c 946c d73a
00000240: a35c ed3b 0ad7 233c d864 2a3c a350 603c
00000250: b729 b23b 54a9 83ba 77cb 20bc 9e05 193b
00000260: cced f13b 939d 903c ed99 b53b f161 453c
00000270: 650f 6a3b 0ad7 233c 1fe7 073c 9eda fe3b
00000280: 0ad7 233c dc89 cb3b db2c 0c3c 76e5 853b
00000290: 6ede c93b 06d3 1f3b b0a8 8c3c 71d9 17bc
000002a0: 2465 553c 28d3 3438 4ee4 ff3b f424 013d
000002b0: 23e9 1aba 9f50 daba bbad 52bb 2d9f 85b9
000002c0: b8ee 02b9 353d 363b 6ddd 8a3b 6b97 38bc
000002d0: 9523 24bc 0ad7 233c 735e e5bb 0ad7 233c
000002e0: fe6f e33b 7c55 f23b 0ad7 233c 8b92 033c
000002f0: 0e44 0c3c 0ad7 233c d1c0 233c 7b66 2d3c
00000300: 0ad7 233c 3201 323b cdfe 9b3b 0ad7 233c
00000310: da71 233c 6fa1 903b 0ad7 233c 8e67 f43b
00000320: c9df 153b 0ad7 233c 6abe 1e3c 1046 0f3b
00000330: 0ad7 233c eaa3 9c3b a714 ec3a 0ad7 233c
00000340: 3556 fb3b 7776 f33b 0ad7 233c 41f7 ce3b
00000350: 4c6c dcba 0ad7 233c 5a75 8a3c bc83 123c
00000360: 0ad7 233c 98dc 393c 1152 343c 4d4d 143c
00000370: ad92 3d3b 5afa 9839 1696 153c 28b5 a73b
00000380: 970a 4b3b def3 033a b4c5 b0ba 6eb6 c839
00000390: 0ad7 233c 8c0e 403b 5dcf 3a3b 0ad7 233c
000003a0: cddf 3a3c 8364 173c 997d e03b fccb 70ba
000003b0: 1aed 36bc 2e0d 2eba 81b8 b73b 2a56 5d3c
000003c0: 7cfb 2cbb 3015 843b 2e86 4c3b 0ad7 233c
000003d0: 57a2 3a3c 33a9 343b 0ad7 233c 14da 0a3c
000003e0: e492 f13b d1db 723a fe1d afbb 227e 09bd
000003f0: 0e41 8a3b 7323 46bc d22f b6bb ac7e bcbb
-0.0045464546 0.011298709 0.006518661 -0.0036669003 -0.01479847 0.010934342 0.015686506 -0.0024238047
-0.0033758148 0.01 0.0015580851 0.01 0.0070054675 0.021281105 0.01 0.017519647
0.024348527 0.01 0.028254144 0.03462646 0.01 -0.00032516496 0.021274434 0.01
0.0063732024 0.014295106 0.01 -0.004392516 0.019629374 0.01 0.012308448 0.019591738
0.01 0.00047814957 0.012514486 0.01 0.008011676 0.020171512 0.01 -0.023394406
-0.0022908202 0.01 -0.036099922 0.024684217 0.01 0.0026676704 0.006942943 0.028728062
0.005112249 -0.014156989 0.006054596 0.01387075 0.0150671145 0.01953355 -0.0050952574 0.0064101946
0.01 -0.011460718 0.018179046 0.01 0.00093412865 0.025744876 0.0043021706 0.017763551
-0.016718186 0.021112915 0.02546741 0.03077707 -0.003210979 0.00034919687 -0.008317864 0.01
-0.027909102 0.0007304744 0.01 0.0032043299 0.0010297894 0.023242882 -0.009711307 -0.0465097
-0.016607657 0.011256068 -0.019660918 -0.011330252 0.017921945 -0.024459936 0.0041715107 0.0035762766
0.0031056954 0.0060101342 0.010270426 0.004729814 0.0069134007 -0.004036375 -0.0062848283 0.01
-0.0023655815 0.01 0.0045128157 0.009562911 0.01 0.011596209 0.0122821 0.01
0.016298171 0.01089168 0.01 0.009538331 0.008499538 0.01 0.019585112 0.006726827
0.01 0.009997519 0.0068514156 0.01 0.0078767575 0.008238201 0.01 0.006592788
0.0031140572 0.01 0.004407174 0.011737198 0.01 0.011308058 0.0023606245 0.01
0.028752547 0.009006259 0.01 0.014830918 0.008769941 0.011409584 0.0050835963 -0.0010137975
0.0032430757 0.008986137 0.0029386813 0.002139161 0.007514211 -0.00084492937 0.01 0.0016435557
0.007243709 0.01 0.01040002 0.0136911 0.0054371017 -0.001004497 -0.009814135 0.0023349295
0.007383084 0.017653262 0.005542031 0.012047277 0.0035714742 0.01 0.00829485 0.007777526
0.01 0.0062115025 0.008555616 0.0040861918 0.006160549 0.0024387254 0.01717028 -0.009268151
0.013024602 4.3112e-05 0.0078091985 0.031529382 -0.0005909374 -0.0016656107 -0.0032147008 -0.00025486332
-0.00012486696 0.0027807478 0.004237822 -0.01126657 -0.010018249 0.01 -0.0069997846 0.01
0.0069408407 0.0073954444 0.01 0.008030544 0.008561147 0.01 0.0099947015 0.010583515
0.01 0.0027161357 0.004760599 0.01 0.009975875 0.0044137756 0.01 0.0074586337
0.0022868982 0.01 0.009688953 0.002186183 0.01 0.0047802823 0.0018011526 0.01
0.007670189 0.0074298936 0.01 0.006316096 -0.0016816943 0.01 0.01690166 0.008942541
0.01 0.011344098 0.011005894 0.009051633 0.0028926537 0.00029178226 0.009130022 0.005118031
0.0030981654 0.00050335925 -0.0013486654 0.00038282893 0.01 0.0029305546 0.0028504946 0.01
0.011405897 0.009240272 0.00685091 -0.00091856695 -0.011164928 -0.0006639537 0.0056067114 0.013509313
-0.0026395014 0.004030846 0.0031207907 0.01 0.011391244 0.002756667 0.01 0.008474845
0.007372247 0.00092643226 -0.0053441515 -0.033567555 0.004219181 -0.012093413 -0.0055599 -0.005752405

model/hidden/mid_layer/W f4 [256, 256]
00000000: 40bb 053c 08eb f238 930a ca3a e66d b03b
00000010: 5ea5 303c 4b96 7fbc 8141 6fbb c6a1 9abb
00000020: c824 8b3c 859f e73b 5abd 3fbc 9f12 a7bb
00000030: 5638 0bbc 7485 c63a eb92 46bc e1aa 95bc
00000040: 3841 e7bb b859 0b3b 9c82 01bc 00b4 963c
00000050: f48b 58bc fc74 9f3c 1409 b8bb e7df 843a
00000060: efee 60bc 20f5 06bb 04a7 b438 7d08 6739
00000070: 1c80 493c 46e3 b6bb e875 1cbb 8cd7 223c
00000080: 87c1 7cbc 30a1 21bb 87e4 bbba 1b66 b63a
00000090: 4a46 8dbb 990a 463c d213 443b d403 17bb
000000a0: 30de 353c 0be6 febb 3624 70bc 5c26 313b
000000b0: ea8c f83a c6b4 183c cea3 15bc 022e a43c
000000c0: 1ab5 a2b9 da7a 8bbb 078a 883b 0503 3b3b
000000d0: 6771 f3bb 5162 093a 50aa 98ba f521 d0bc
000000e0: 7599 343c 842b f73a 1cb0 15bb efbb 4a3c
000000f0: dc28 e2bb 3d81 8b3c 5531 41bb e4ea b23a
00000100: 781a 9e3a d5da 16bb 6967 ac3b 9b3c 3b3c
00000110: d39b 70bb 1704 bf3b df44 a73b 7ab3 9e3a
00000120: b569 293c 412a 31bb f834 63bb 7d61 d3bb
00000130: 993a ccba bf0c 523c 861b 0cbc 88e1 0ebb
00000140: 2b11 633c dc5a e3bb 01c9 323c e007 083c
00000150: 8bdb 21bb 37b3 8dba 7a54 ecbb ce96 b73b
00000160: 75a8 8a3b 32ef 59bb 3188 1ebc 2caf e43a
00000170: 6864 933c 083d 01bc 0298 37bc 10bf 133c
00000180: 4019 6c3c 2523 26bc 4cc6 acbb 557b 5fbc
00000190: 1a73 073a 156b 88bb 35f4 a13c 71c7 123c
000001a0: 7824 c1bb 1d8b 23bd 12d3 cb3b 6b70 163b
000001b0: 34f5 5e3b d0d3 0ebc c9c9 7c3c 632e 213c
000001c0: a4bc d0bb 2aac d33a dde4 9f3c 584d c73b
000001d0: f7a1 563a 4ce1 6bbb a195 f93b 2691 623c
000001e0: 9fc9 6f3b cc4c 603c 5a84 5f3a 188e 27bb
000001f0: b9a1 9e3b 4841 04bd b6ed 1fbb 7c28 2ebc
00000200: c22d 26bc 522e 5d3b 637d 113c b068 9e3c
00000210: 2d11 88bc 778d acbb 6211 cdbb 0481 693c
00000220: 0d47 a53a dad5 7239 7e28 cf3c 9562 6bbc
00000230: 3318 70bb 36c8 caba fcaf 6e3c 3302 e43b
00000240: 4623 933b c8c7 cdb9 c807 ee3b ee08 e8ba
00000250: cd2b 8d3b 8063 373c 7803 063a d981 2c3c
00000260: 2311 523c bad8 9cbb dd1c 96bb bf4e 8fbc
00000270: 5e3a afbb b473 a33c 10da 313c 73e5 02bc
00000280: 729f 813c 095c bc3a a50f 473c 7b50 ea3a
00000290: c633 093c 8ff4 15bc bebf ee3b fc36 88bb
000002a0: 190e b5bb 9377 5cba dcca b23c cf0b dfbb
000002b0: e492 603b 6a7e e8bb 2cbd ccbb 5987 b63c
000002c0: cc6a bf3b fe25 3bbc bf5c 583c 7e32 043c
000002d0: 16b4 143c 5665 7ebb 650d 17bc 3cfd 313b
000002e0: 5567 bebb da22 38bc 8959 f3ba 69ad 38bc
000002f0: d13b abbc 1365 39bc 2e99 723b 410e 233c
00000300: c663 a23c 70b2 563a 88d5 823c 1f01 e03b
00000310: e2a3 34bc 31a4 01bc 8357 b9ba d729 8b3c
00000320: d3b0 c6bb cfcf e93b 3379 033b f79d aebc
00000330: 26d1 143b be53 64bb faeb 85bc 33ea 043a
00000340: f6b5 8a3c efea 7a3c 8a59 233b efc2 42bb
00000350: b6ba 8bbc b9e1 08bb 79d5 51bc e15d 84bb
00000360: 798b 8abc e914 adba 70c3 cb3b c76a b7ba
00000370: 4263 83bb 4f6d f4bb d998 d2bc 6034 813b
00000380: 59c2 e03c 0d8b 2abc 3d71 d9bb 11a3 903c
00000390: 9827 473c 29bb 083c e51d ff3b 5204 073c
000003a0: e8ca babb 213c 0bbd 4b62 3bbb 3fcb f63b
000003b0: 304d 8b3c 634f 563b 7b10 f63b 4c6c e43b
000003c0: 312b 793c be34 493b 9abb 1f3c 4f9a 13bc
000003d0: 42c0 313b 4ad3 36b9 9e46 c33b 68b4 89bc
000003e0: ed2b acbb 77d0 ce3a 91fd 823a d07f 7bbc
000003f0: 8cf5 c037 e026 003b 77a7 94bc fa9d 513a
0.00816232 0.00011583237 0.0015414528 0.0053841947 0.010781614 -0.0155997975 -0.003650755 -0.004718992
0.016985312 0.0070685768 -0.01170286 -0.0050986554 -0.008497318 0.0015145973 -0.012119989 -0.018269958
-0.007057335 0.0021263193 -0.007904675 0.018396378 -0.013216961 0.019464962 -0.0056163166 0.0010137529
-0.013728841 -0.0020592883 8.614178e-05 0.00022033039 0.01229861 -0.0055812923 -0.0023873989 0.009939086
-0.015427 -0.0024662726 -0.0014335074 0.0013915928 -0.0043113576 0.012087488 0.002991904 -0.0023043053
0.011100337 -0.007778888 -0.014657071 0.002703092 0.0018962894 0.0093204435 -0.009133292 0.02004147
-0.0003103398 -0.0042565884 0.0041668448 0.0028535735 -0.00742929 0.00052407855 -0.0011647437 -0.025406817
0.011022915 0.0018857573 -0.0022840565 0.012373908 -0.0069018435 0.017029399 -0.0029478867 0.0013650325
0.0012062332 -0.0023018618 0.005261351 0.011428024 -0.0036713972 0.005829345 0.0051046456 0.0012107932
0.010340144 -0.0027033242 -0.0034669023 -0.0064508305 -0.0015581428 0.012820422 -0.008551484 -0.0021801908
0.013859074 -0.0069383215 0.010912181 0.008302659 -0.0024697508 -0.0010810856 -0.007212219 0.005602694
0.0042315074 -0.0033254144 -0.009676025 0.0017447225 0.017992213 -0.007888086 -0.011205675 0.009017721
0.014410317 -0.010140215 -0.0052726623 -0.0136402445 0.0005166993 -0.004163156 0.019769767 0.008958683
-0.00589424 -0.03992759 0.00622023 0.002295519 0.0034020664 -0.008717492 0.015428969 0.00983772
-0.006370144 0.0016149331 0.01951831 0.006082218 0.0008187587 -0.0035992442 0.007616714 0.013828551
0.0036588681 0.013690185 0.0008526497 -0.0025566872 0.004841056 -0.03228882 -0.0024403161 -0.010629769
-0.010142745 0.0033749533 0.008879992 0.019337028 -0.016609753 -0.0052658874 -0.0062581757 0.014251951
0.0012609676 0.00023158584 0.025287863 -0.0143667655 -0.0036635518 -0.0015471044 0.014568325 0.00695827
0.004490289 -0.00039249496 0.007264111 -0.0017702857 0.0043082 0.011193156 0.0005112211 0.010529005
0.0128214685 -0.004786578 -0.0045810775 -0.017493604 -0.005347534 0.019952632 0.010855213 -0.007989275
0.0158231 0.001437069 0.012149726 0.0017876768 0.00837416 -0.009152546 0.007286041 -0.0041569453
-0.005525362 -0.0008410152 0.021825247 -0.0068068276 0.003426724 -0.007095148 -0.006248137 0.022281336
0.0058415886 -0.011422632 0.013205706 0.008068679 0.009076139 -0.0038817725 -0.009219502 0.0027158996
-0.005810658 -0.011238778 -0.0018566112 -0.011271813 -0.020902546 -0.011315602 0.0037017572 0.009952129
0.019822966 0.00081900414 0.01597096 0.006836071 -0.011025401 -0.007912681 -0.001414046 0.016987724
-0.0060635596 0.0071353684 0.0020061254 -0.021315558 0.002270767 -0.0034839953 -0.016347874 0.0005070299
0.016932469 0.015314802 0.0024925196 -0.002971824 -0.017056804 -0.0020886494 -0.0128072435 -0.0040395116
-0.016912209 -0.0013205084 0.0062183663 -0.0013993614 -0.004009635 -0.0074593197 -0.025707649 0.003943011
0.027436422 -0.010409129 -0.0066358135 0.017655881 0.012155436 0.008345404 0.007785546 0.008240776
-0.005700458 -0.03399289 -0.0028592523 0.007531553 0.01700458 0.0032701127 0.007509289 0.006970918
0.015208052 0.0030701603 0.009749318 -0.009008958 0.0027122651 -0.00017435584 0.005959346 -0.016809657
-0.00525426 0.001577868 0.0009993782 -0.015350297 2.3002525e-05 0.0019554421 -0.01814626 0.00079962576

model/a_stream/b f4 [3]
00000000: 8028 c13c 38a2 47bc 0918 53ba
0.023578882 -0.012184672 -0.0008052593

model/hidden/mid_rec_layer/upward/b f4 [80]
00000000: e733 08bc e174 c8bb 6bfa 7c3f f159 d0bb
00000010: c058 b9bb 4f21 9fbb 36b7 7d3f ea4c a9bb
00000020: d175 48bc 61db dabb 3cf6 7b3f ac22 e2bb
00000030: c71b f9bb 4fc2 bdbb d02b 7d3f 3507 c6bb
00000040: d5fe 01bc fcd6 bdbb 3027 7d3f ef2b c6bb
00000050: a9ba a7bb 8c18 9abb 05cc 7d3f ad82 a4bb
00000060: 556b 29bc bd69 cdbb 89b2 7c3f 37a5 d4bb
00000070: 6153 50bc 5c29 ebbb 52a1 7b3f e42a f2bb
00000080: f296 3dbc 9885 ddbb a241 7c3f 1d5a e4bb
00000090: 6c4d 3cbc db0d f7bb 44f9 7b3f da2c fdbb
000000a0: cd26 17bc 477f d3bb 97d7 7c3f 27c6 dabb
000000b0: d48d e6bb fb6a a0bb 018e 7d3f 9c08 aabb
000000c0: 03f0 01bc 5b88 cdbb 3f0c 7d3f abf9 d4bb
000000d0: 95ea 93bb 8dc3 9abb 5cdb 7d3f db23 a5bb
000000e0: 74f2 9ebb 95f7 98bb fbdc 7d3f 4c1a a3bb
000000f0: 54b3 99bb 6c5f 88bb cdfc 7d3f 2a84 93bb
00000100: 53d9 84bb 2c22 73bb 5e26 7e3f 005b 85bb
00000110: 99cd 12bc 11cf c5bb 0de6 7c3f d2a7 cdbb
00000120: ce2b f0bb 7415 c2bb 6d32 7d3f 4c4b cabb
00000130: c976 9abb 4eed 89bb 36fb 7d3f dc05 95bb
-0.008313156 -0.0061174487 0.9881961 -0.006358378 -0.005656332 -0.0048562656 0.9910768 -0.0051666396
-0.012235121 -0.006678984 0.984226 -0.006901106 -0.0076021883 -0.0057909857 0.9889498 -0.0060433396
-0.007934292 -0.0057934504 0.9888792 -0.0060477178 -0.005118687 -0.0047026332 0.99139434 -0.0050204606
-0.010340531 -0.0062687085 0.98709923 -0.0064894217 -0.012715192 -0.0071765613 0.9829303 -0.007390367
-0.011571633 -0.0067603104 0.9853765 -0.00696875 -0.011493068 -0.0075394935 0.98427224 -0.007726294
-0.009225559 -0.0064543816 0.98766464 -0.0066764536 -0.00703595 -0.0048955656 0.99044806 -0.0051890146
-0.007930758 -0.0062723584 0.9884681 -0.0064994893 -0.0045140483 -0.0047230185 0.9916284 -0.0050396747
-0.00485068 -0.004668186 0.99165314 -0.0049775 -0.004690567 -0.004161766 0.9921387 -0.004501839
-0.0040542274 -0.0037099225 0.99277294 -0.004069686 -0.008960151 -0.006036647 0.9878853 -0.0062761093
-0.0073294407 -0.0059229676 0.9890507 -0.006173527 -0.0047138673 -0.004209197 0.9921144 -0.0045478176

model/hidden/input_layer/W f4 [256, 86]
00000000: 9c9c 1fbc 34b9 ca39 115e 71bc 85f9 1fbc
00000010: d049 823a 585d d03a 1027 433c af6d d5bc
00000020: 54e6 313b 0fc3 ab38 e638 babc 5719 683c
00000030: ffad 20bb 0759 8e3c 6016 34bc 66b7 c53c
00000040: baae 443c 9829 d9bb 82e4 81bc d3fb acbc
00000050: 8a46 a83b 4f42 b53a a933 2cba 0cd0 41bc
00000060: 4c7f 03bc e6f5 aabc 32e2 a83b 1294 783b
00000070: 6819 cb3b 579c 9b3c 25f7 4ebc c785 48bc
00000080: 8d13 e13c 54c1 b83b e23b 21bc 56b8 32bb
00000090: cfe0 c33c 80be df3b 951a d83a a32a 09bc
000000a0: e0e3 593a 57ef 26bc b669 2ebc e1a0 853c
000000b0: a89a fe3b 51d6 eebb 200b 59bc 1426 00bc
000000c0: 0c1f 1bbc 5c7c 593b b2f2 15bc c465 433a
000000d0: 2bc3 673b 0384 95bc eae4 bc39 7228 993c
000000e0: 8571 bcb9 611b 853b 0bf0 47bc 8a97 9e3a
000000f0: 3875 753c be03 4c3c 1328 ad3c f680 1bbc
00000100: 738b c83b 809c 06bc 406b 15b8 e942 fb3b
00000110: 6a7f 993c 8bdd d8bc 3a98 2dbc d095 29bc
00000120: df8b 413c fc16 3abc 3fb6 dc3b b109 27bc
00000130: 19c7 a3bc ca4b b13b baea c13b b9ab cc3c
00000140: 7432 25bc 982e 1fbc 4bfd 92bc aa2d 8a3c
00000150: 8a44 b9bc 1241 0cbc 9eb2 abb9 e0d7 5abc
00000160: b796 1ebb 83dd 94bb 43e7 29bc b551 95bb
00000170: 478b dcbb bf84 ccbc 6835 e83a 3b4d 65bb
00000180: 2838 47bc 02ac d03b c7ed 47bc 0c72 20bc
00000190: 8e37 4cbc b338 083c c922 9fbc f3ff 0c3c
000001a0: 3c64 c6bb 8ce0 943c a494 deba 606d f93a
000001b0: 18a9 18bc 1c8a 873b 2479 263c 21b6 03bd
000001c0: 3e74 aabb 7563 583b 36c8 0d3c 7f86 c1bb
000001d0: 5d2a 8abc 63f0 65bb 0ee4 f0bb a8c2 babb
000001e0: a3cb 09bd 96f8 cabb 8a67 58bc 9c9d 3abb
000001f0: 4132 ed3b 0d91 9a3c b171 91bc 1b6d b2bb
00000200: 60c4 3e3c 0459 80bc 2125 673b ff46 b2bb
00000210: 0973 9fbc 8143 8fbc 6021 de3a 7111 cabc
00000220: e048 0dbc 8543 8b3c cd3f 773b 2f52 5f3a
00000230: eeae 2fbc fe2c e5bc 659b 823c 2ba3 9b3c
00000240: 6186 26bc 1455 723c 646c 943c cd06 e43c
00000250: 4cb6 f439 2e20 4abb 6834 8bbc e639 d6bb
00000260: aea1 543c 809d 623c 1007 95bb 29ca 6f3b
00000270: 1b67 a7bb e86a 8abb de27 c5bb 2e4e 9d38
00000280: aa40 3d3b 8e4f 9cbb 9626 9fbb dae1 753c
00000290: fcaf d8bc 724e 3cbc 09d5 11bc 3b7b b83b
000002a0: 060b 87bc 33b0 2dbc 9586 3cbc 9d1b b7bc
000002b0: 41c6 bb3b 1c75 323c 3adc 3a3c 66bb 4c3c
000002c0: fa49 febc b0c6 b6bb 51dc 0cbc f3bd eb3c
000002d0: 5ae5 e2bb 96e3 123b 0820 0d3d 58dd 52bc
000002e0: cd54 fd3a 465b bdbb 0999 1a3c 6ba5 a93c
000002f0: e911 d43c b00b aa3c 13fd 133c d2f1 46bb
00000300: e2d9 d3ba 1007 033b 51ca bcbb cc3c 26bc
00000310: 576a 4e3b 0eb6 863b f40c f1ba e273 263d
00000320: 7c4d edbc 0aba 94bc 2ca4 8e3c c729 703c
00000330: 9a20 513b fe65 253c 7763 ac3c 2e48 1c3c
00000340: 009d abb8 c2e9 b0ba 09d2 823c db64 833b
00000350: 9e2a 29bc 3312 d2b9 4778 ab3c c417 ee3b
00000360: 98fb a4bb d314 bdbb 3821 333c 7682 71bc
00000370: f9c4 553c 486f 9d3b b38a 1d3c d78a 243c
00000380: 063b b53c fbec 31bc c572 cfbc ddf3 63bd
00000390: 2f11 39bb b751 1f3d 926a 1bbc fea7 3d3c
000003a0: b7ea 9f3c 76d3 ce3b f533 e23b 81c7 273c
000003b0: a328 05bd e188 2dbc d494 05bb 209e 1e3c
000003c0: 697d c8b9 ce28 39bb fe19 d0bc 5f69 173c
000003d0: 9f93 333c f513 5e3c 42df e4bb 5a4d ab3c
000003e0: aac3 1fbc f2b3 5f3c 4a69 ed3c 9c2d bc3b
000003f0: 97b1 863c dd5c 943c 2f81 3e3c 48f1 2a3c
-0.009741928 0.0003866643 -0.0147319 -0.00976408 0.0009940211 0.0015896959 0.011911169 -0.026053278
0.0027145343 8.190248e-05 -0.02273221 0.014166198 -0.0024517772 0.017376436 -0.010991663 0.024135303
0.012004549 -0.006627273 -0.015856031 -0.021116173 0.005135362 0.0013828966 -0.0006568977 -0.011829387
-0.008025955 -0.020869207 0.0051539177 0.0037930054 0.006198097 0.018995447 -0.012632166 -0.012238926
0.027475143 0.005638281 -0.009840937 -0.0027270517 0.023910908 0.0068281293 0.0016487414 -0.008371982
0.0008311849 -0.010188899 -0.010645321 0.016312065 0.0077699013 -0.007288732 -0.013247281 -0.0078215785
-0.009467851 0.0033185696 -0.009152101 0.0007453824 0.0035364132 -0.018251425 0.0003602871 0.018696044
-0.00035942733 0.0040621017 -0.012203227 0.0012099606 0.01498156 0.012452064 0.021137273 -0.009491196
0.0061201393 -0.008216023 -3.5624253e-05 0.0076678884 0.018737514 -0.026472827 -0.010595376 -0.0103506595
0.011813133 -0.011358019 0.0067355926 -0.010195182 -0.019992398 0.005410646 0.005917874 0.024984227
-0.01008283 -0.009715699 -0.017943045 0.016867477 -0.02261569 -0.008560436 -0.00032748742 -0.013357133
-0.002419872 -0.004543008 -0.0103700785 -0.0045568594 -0.0067304703 -0.024965642 0.0017716112 -0.003498866
-0.012159385 0.006368161 -0.012202687 -0.009792816 -0.012464417 0.008314299 -0.019425767 0.008605945
-0.0060544293 0.018173479 -0.0016981554 0.0019029789 -0.009317659 0.004136337 0.010160718 -0.032156114
-0.0052018454 0.0033018265 0.008653691 -0.0059059258 -0.016865904 -0.0035085909 -0.007351405 -0.0056994744
-0.03364147 -0.0061941845 -0.013208279 -0.002847529 0.0072386567 0.018867994 -0.017754408 -0.0054451353
0.011643499 -0.015667446 0.0035269933 -0.0054405923 -0.019464033 -0.017488243 0.0016947202 -0.02466652
-0.008623332 0.01699997 0.0037727237 0.0008519021 -0.010722859 -0.027975556 0.015943239 0.018998703
-0.010163874 0.014790792 0.01811809 0.027835274 0.00046675128 -0.0030841934 -0.016992763 -0.0065376638
0.012978001 0.013831496 -0.004547961 0.0036589003 -0.0051087267 -0.00422417 -0.0060167154 7.5009055e-05
0.0028877654 -0.004770226 -0.0048568947 0.0150074605 -0.026451103 -0.011493312 -0.008900889 0.0056299246
-0.016484749 -0.010601091 -0.011506696 -0.022352034 0.005730421 0.010892179 0.011405045 0.012495851
-0.031041134 -0.0055778846 -0.008597449 0.028777098 -0.0069243135 0.0022413484 0.034454376 -0.012870155
0.0019327641 -0.005778703 0.0094359005 0.02070876 0.025887446 0.020757526 0.009032506 -0.0030356538
-0.0016162957 0.0019993223 -0.0057614227 -0.010146331 0.003149649 0.004111058 -0.0018390701 0.04063786
-0.028967611 -0.018155117 0.017412268 0.014658398 0.0031910301 0.010095118 0.021043522 0.009538693
-8.183159e-05 -0.00134974 0.015969293 0.0040098256 -0.010325102 -0.0004006788 0.020931376 0.0072660167
-0.005034875 -0.0057703047 0.010933213 -0.014740577 0.01304745 0.0048045255 0.009615588 0.010042868
0.022122871 -0.010859723 -0.025323281 -0.055652488 -0.0028239002 0.03889629 -0.009485858 0.011575697
0.0195211 0.006311829 0.0069031664 0.0102404365 -0.032509457 -0.0105917165 -0.0020382898 0.009681255
-0.0003824041 -0.0028253081 -0.025403019 0.009241431 0.010960489 0.013554563 -0.006984622 0.020910908
-0.00975124 0.013653742 0.02898087 0.0057427417 0.016442103 0.018110687 0.011627479 0.0104335025

model/v_stream/W f4 [1, 256]
00000000: 13f6 6cbc 0689 b63c a89d c239 4c1f 593c
00000010: 0cf6 58bc 8044 c1bc 194e 703c 6651 89bc
00000020: 86bd 413c 3f69 dabb eaa8 383c 8ca2 51bb
00000030: 97e8 6ebc 7a09 ddbb 1b6e 6abc 50fa a3bc
00000040: bce3 043c d2b4 d43b 1de7 813c 46e0 c3bc
00000050: 9a88 1b3c 2493 ae3c 2020 b9bb f17b 043b
00000060: d44b 7f3b 128a abbb b7f9 803c 1aee 1a3c
00000070: 4e71 2a3b 95ba 29bc d00d 563c 7089 cd3b
00000080: a9d2 773b f3bd 113c 0426 85bc ee88 41bc
00000090: f1ad a43c 596f eebb f174 7fbc e99a 76bc
000000a0: 172d aebc 0242 8e3c 1d93 193b 0592 53bc
000000b0: 9737 9b3c b3b6 6e3c 9fa8 823c d8e6 953b
000000c0: 6fff 443c acce 7abc c755 a73c de9c 403c
000000d0: be76 0e3c 0c37 a83b 782b 09bc 8f85 403c
000000e0: 6724 343c cf7a 4f3c 2405 6c3c 097a dabb
000000f0: 2ebe 4cbc ca84 39bc 97de 35bc 4a3a 313c
00000100: 219c 9fbc 0b9e 88bc 8472 783c a423 6f3c
00000110: e291 3b3c 4957 633c afdd 963c 9927 82bc
00000120: 1c41 5a3c 5abe 523c 93d8 d3bb 8edf 1abc
00000130: 4d61 913c f5ae 0cbc eeb4 aabb 37ac 8e3c
00000140: 3330 b73b d8da 8fbb aa4c e7bb c49a 72bc
00000150: 69a0 5e3c 6d41 693c a622 033c ceac 71bc
00000160: 2908 b73b 153d 6f3c 841a 843c 94cd e2bc
00000170: 3b29 b6bc 1627 27bc b9ef 913c 635a 6bbc
00000180: d8d1 e53c d847 203c 9b90 d5bc 6729 a73b
00000190: a50b 4cbc 431a 0ebc a424 343c 6ae7 993c
000001a0: c245 1c3a 289b 7cbc 4985 903c 0207 ce3b
000001b0: d8dd 19bc b5fb 063c 2a1c 61bc 7288 a93c
000001c0: f609 533c 729c 863c 6f79 983c c2ce 933c
000001d0: 7d81 5c3c 4069 a03c 39a5 5abc b423 47bc
000001e0: 73fb a4bb ae4e 6ebb 355f 90bc ff44 9aba
000001f0: 9ef0 853c 1026 8ebc e7ec 8bbc cd3f 3e3b
00000200: 8e9c 08bc 1336 5c3c 438c c7bb f2e1 243c
00000210: 84bb 8dbc 51bc 9e3b 01fb 723c ef51 923c
00000220: d155 bc3c 1fa7 6ebc 75f1 d1bc 704f 77bc
00000230: db24 38bc a712 f23c 1777 03bc c03d 673c
00000240: b88b 443c 2ed0 20bc f99e 96bc fbf1 bc3c
00000250: 42b0 223c ce1c 793c de33 bf3c 2be4 32bc
00000260: d7ef 51bc b8b6 bf3c c04f b9bb d59c 4fbc
00000270: 3970 c33c 1343 03bc cb6f 71bb 95c3 6fbc
00000280: 11f4 743b e72f d0bc 8849 f53b 4d19 773c
00000290: f986 b43c 6a5c 453c 89fe 3f3c 9f8b 5dbc
000002a0: 36bd 6cbc 7786 aa3c 1550 cfbc c452 ee3b
000002b0: 4e82 6b3c a5e2 6abc e6ec 2bbc 6e82 5bbc
000002c0: a259 0cbc e363 85bb 1b24 e23a d1b7 3bbc
000002d0: 18e2 51bc 13c3 37bc b958 7d3c a4bd 9a3c
000002e0: 4ff5 45bc f821 d03b 577f 31bc d25a 093b
000002f0: 5304 923c 19cf a63c b04d 9abc a6e9 2b3c
00000300: 4dde b0bb 3549 463c f906 12bc c4b3 ddbc
00000310: d784 6abc 55da 8a3c c29e 78bc 1db8 b23c
00000320: 03e0 1ebc 8008 8fbc fdeb 7cbc afe6 403c
00000330: 1f33 e43c 496a aa3c 2fa3 8ebc 23da 843b
00000340: e025 823c 76d5 0b3c e681 f6ba 2175 3dbc
00000350: 1423 9b3c e53c 943c 8f32 8f3c dd1a 87bc
00000360: 8c3b a4bc 95ed 00bc a4e4 4f3c 4de7 6fbc
00000370: 8506 e5bb 5519 8fbc 03cd 2abc a126 0b3c
00000380: 2887 b7bc eaac 9d3b 87e2 0cbc b882 883c
00000390: 5d1d da3b 5e6d 86bc fa48 623c d752 82bc
000003a0: 1f01 8fbc 8a2b 213c cdaf 973c 362c a23c
000003b0: 3b8d 8b3c e8f6 693c ff13 64bc 07fb eabb
000003c0: 1e57 8ebc 2903 d73b abae 0abc 1665 943c
000003d0: c2ed ccbb 066d bcbc 08d8 65bb 23cc 37ba
000003e0: b376 d3bb 41f1 aa3c 6e6d 6fbc ca28 803c
000003f0: d56a 1cb9 f7d5 27bc afe5 993a 1680 663c
-0.014462966 0.022282135 0.00037120027 0.013252091 -0.013242256 -0.023592234 0.014667057 -0.016762447
0.011824971 -0.0066653783 0.011270741 -0.0031987755 -0.014581821 -0.0067455145 -0.014308478 -0.02001682
0.008110937 0.006491282 0.015857274 -0.023910653 0.009493018 0.021310396 -0.0056495816 0.0020215476
0.003895511 -0.005234965 0.015744073 0.009456182 0.0026007476 -0.010359426 0.013064817 0.0062724873
0.0037814772 0.008895385 -0.016253479 -0.011812432 0.020102473 -0.0072764573 -0.015591846 -0.015051582
-0.021261735 0.01736546 0.0023433634 -0.012913232 0.018947406 0.014569926 0.015949545 0.004574638
0.012023791 -0.0153080635 0.020426644 0.01175615 0.0086953025 0.005133515 -0.00837218 0.011750593
0.010995007 0.012663557 0.0144055225 -0.0066673798 -0.012496514 -0.011323163 -0.011100433 0.01081712
-0.019483628 -0.016676923 0.015164021 0.0145959 0.011448355 0.013875791 0.018416254 -0.015888022
0.013321187 0.012862766 -0.0064650266 -0.009452714 0.017746592 -0.008586635 -0.005209557 0.017416103
0.0055904626 -0.004390102 -0.0070586996 -0.014807407 0.013588049 0.01423679 0.008003866 -0.0147506725
0.0055856896 0.014601965 0.016125925 -0.027685918 -0.022236457 -0.01020219 0.017814504 -0.014364812
0.028054163 0.009782754 -0.02606993 0.005101371 -0.012453948 -0.0086732535 0.010995064 0.018787105
0.00059613225 -0.0154178515 0.01764168 0.0062874565 -0.009391271 0.008238723 -0.013739625 0.020694945
0.012880793 0.01643202 0.018612592 0.018042926 0.013458607 0.019581437 -0.013345056 -0.012154508
-0.005034858 -0.0036362815 -0.017623523 -0.001176983 0.016350087 -0.017352134 -0.017080737 0.0029029727
-0.008338107 0.013440627 -0.0060897185 0.010063635 -0.017301328 0.0048442264 0.014830352 0.017861335
0.02299014 -0.014566212 -0.025627831 -0.015094623 -0.011239256 0.02954991 -0.008023999 0.014113843
0.011996202 -0.009815259 -0.018386351 0.023064604 0.009929718 0.0152046215 0.023340162 -0.010918657
-0.01281353 0.023402557 -0.005655259 -0.012671669 0.023857223 -0.008011597 -0.0036840315 -0.014634033
0.003737692 -0.025413467 0.0074855722 0.015081716 0.022037016 0.012045959 0.011718401 -0.013522058
-0.014449408 0.020816071 -0.02530674 0.00727305 0.014374329 -0.014336263 -0.010493493 -0.013397796
-0.008566292 -0.0040707453 0.0017253192 -0.011457399 -0.012810253 -0.011215943 0.015463048 0.018889256
-0.012082412 0.0063517056 -0.010833583 0.0020958674 0.017824328 0.020362424 -0.018835872 0.010492718
-0.005397594 0.012102415 -0.008912795 -0.027063258 -0.014313898 0.016949812 -0.01517457 0.021816308
-0.009696963 -0.017460108 -0.015437123 0.011773749 0.027856408 0.020802634 -0.017411796 0.0040543242
0.0158872 0.00853478 -0.0018807023 -0.01156357 0.018937625 0.018095443 0.017480163 -0.016492302
-0.020047925 -0.007869144 0.0126887895 -0.014642549 -0.0069893026 -0.017468134 -0.010424855 0.008493097
-0.022403315 0.0048118727 -0.00859893 0.016663894 0.0066563324 -0.016409572 0.013811344 -0.015908642
-0.01745659 0.009837041 0.018516446 0.019796472 0.017035117 0.014280058 -0.013920783 -0.007171038
-0.017375525 0.006561656 -0.008464496 0.018114608 -0.006253929 -0.023001205 -0.0035071392 -0.0007011315
-0.006453359 0.020866992 -0.014613492 0.01564445 -0.00014917117 -0.010243884 0.0011741425 0.014068624
