ai_challenge/results/simulation_DoubleDQN_DuelingRecNN_2017-05-19T19:40:53.24/720006/model.npz (npz, 632719 bytes, 12 tensors)

model/hidden/input_layer/b f4 [256]
-0.07228103 -0.027999574 -0.07511653 -0.06660128 -0.03764423 -0.06022231 -0.068117395 -0.12659656
-0.033386335 -0.008773532 0.026177362 -0.054551326 -0.035432085 -0.026616817 -0.084336415 -0.05297452
-0.051894393 -0.052571014 -0.0660283 -0.083473176 -0.073245205 -0.02579531 0.0053723124 -0.032332536
-0.08010116 -0.044728264 -0.045119792 -0.011906429 -0.049873576 -0.051733453 -0.10500015 -0.035117153
-0.003991845 -0.03147948 0.038814228 -0.051577285 -0.06339405 -0.057670183 -0.0797319 -0.040155213
-0.018816372 -0.061971378 0.0381605 -0.06107072 -0.06406269 -0.048628345 -0.028932555 -0.064417936
0.014761448 -0.057641413 -0.086223595 -0.022589682 -0.06530113 -0.049870633 -0.05495983 -0.081854574
-0.046765316 -0.071874335 -0.049211726 -0.07813712 -0.064146176 -0.06339867 -0.055803128 -0.037467223
-0.019374542 -0.06052915 -0.043464687 -0.04204053 -0.05855476 -0.075948805 -0.059597798 -0.108351886
-0.05400103 -0.006486906 -0.015167594 -0.094514176 -0.03038231 -0.05198926 -0.024367228 -0.08618408
-0.08458866 -0.055608843 -0.072195 -0.07528751 -0.056399334 -0.08944313 -0.095792234 -0.10021118
-0.038947854 -0.08603615 0.026423244 -0.056415666 -0.07044009 -0.046770494 -0.022823226 -0.044874866
-0.027832884 -0.016318284 -0.02841565 -0.025561336 -0.02600709 -0.065604754 -0.026313873 -0.026614934
-0.026747582 -0.022394896 -0.013016743 -0.07109413 -0.023876712 -0.1032006 -0.051951133 -0.06921215
-0.06331388 -0.11261641 -0.053510867 -0.04950282 -0.08509313 -0.05502119 -0.08990182 -0.07122044
-0.0941388 -0.024761487 -0.04519226 -0.10524238 -0.10593435 -0.041663397 -0.08185368 0.013487006
-0.014932365 -0.03331793 -0.057821643 -0.032122687 -0.024837283 -0.036053196 -0.037899304 -0.06417004
-0.062404823 -0.05029106 -0.078137785 0.006209582 -0.045631453 -0.020879673 -0.048379306 -0.015716258
-0.03267984 -0.023915296 -0.068796575 -0.062171523 -0.097477295 -0.0793138 -0.0391375 -0.079321004
-0.0874978 -0.041828897 -0.07114677 -0.04134606 -0.06620904 -0.037988514 -0.018451229 -0.055453166
-0.06333451 -0.10462926 -0.0052586226 -0.07217225 -0.0385833 -0.030802319 -0.07732161 -0.0053383494
0.013284881 -0.059875194 -0.011197346 0.006569658 -0.024825122 -0.026667764 -0.015029304 -0.03280798
-0.04048098 -0.05436003 -0.08788503 -0.08364077 -0.057756305 -0.047035933 -0.044595446 -0.049485713
-0.009751915 -0.065973215 -0.039793603 -0.08059443 -0.07193404 -0.0683011 -0.067528576 -0.09611462
-0.06792187 -0.08025092 -0.069313854 -0.060843926 -0.06140427 -0.06249675 -0.07532857 0.01908305
-0.035935774 -0.07627802 -0.06222989 -0.085458726 -0.061787687 -0.056653526 -0.042366322 -0.047930922
-0.043301478 -0.054851554 -0.04495168 -0.05933866 -0.06725182 -0.024695864 -0.08629223 -0.091164626
-0.050819293 -0.08551098 -0.020556854 -0.0586685 -0.069339685 0.0047782958 0.018729884 -0.005115729
-0.0339778 -0.011612833 -0.04699179 -0.065423265 -0.041266415 -0.03955187 -0.07391523 -0.03789261
-0.052336216 0.0071734763 -0.0057201753 -0.011043691 -0.056498285 -0.030755837 -0.04367407 -0.06326227
-0.04414183 -0.0128911305 -0.07043753 -0.059279986 -0.013950754 0.04041364 -0.06912201 -0.072794475
-0.028089117 -0.06098283 0.029155802 -0.018732317 -0.0108084725 -0.09296536 -0.06580302 -0.06541592
00000000: 1408 94bd 5d5f e5bc b2d6 99bd 4066 88bd
00000010: d630 1abd abab 76bd 2281 8bbd 87a2 01be
00000020: 1cc0 08bd dcbe 0fbc e871 d63c 3671 5fbd
00000030: 3c21 11bd 830b dabc 92b8 acbd cffb 58bd
00000040: 378f 54bd b454 57bd d839 87bd fcf3 aabd
00000050: 9501 96bd b050 d3bc 390a b03b 1f6f 04bd
00000060: 140c a4bd fc34 37bd 88cf 38bd 2f13 43bc
00000070: 3c48 4cbd 75e6 53bd 520a d7bd 01d7 0fbd
00000080: 06ce 82bb a1f0 00bd abfb 1e3d b442 53bd
00000090: bdd4 81bd 9237 6cbd 7a4a a3bd cb79 24bd
000000a0: cb24 9abc b3d5 7dbd 2f4e 1c3d 4b25 7abd
000000b0: 4d33 83bd 842e 47bd f703 edbc 8ded 83bd
000000c0: 00da 713c 6719 6cbd ff95 b0bd ff0d b9bc
000000d0: 99bc 85bd 2645 4cbd 8f1d 61bd 5fa3 a7bd
000000e0: fd8c 3fbd da32 93bd 3c92 49bd 5b06 a0bd
000000f0: 125f 83bd 29d7 81bd d291 64bd 3b77 19bd
00000100: 5cb7 9ebc 6aed 77bd 0708 32bd b132 2cbd
00000110: 1ed7 6fbd 0c8b 9bbd d21c 74bd 98e7 ddbd
00000120: 2f30 5dbd 1d90 d4bb 8081 78bc a690 c1bd
00000130: 52e4 f8bc b1f2 54bd c89d c7bc 4781 b0bd
00000140: d23c adbd 19c6 63bd f9da 93bd 5730 9abd
00000150: fd02 67bd f62d b7bd b82e c4bd 853b cdbd
00000160: c987 1fbd b933 b0bd 8f75 d83c 1d14 67bd
00000170: e542 90bd 6b92 3fbd c6f7 babc b5ce 37bd
00000180: ca01 e4bc ecad 85bc f0c7 e8bc 0266 d1bc
00000190: d20c d5bc c95b 86bd 3190 d7bc 9007 dabc
000001a0: bf1d dbbc 8075 b7bc 2d44 55bc cd99 91bd
000001b0: 1899 c3bc d65a d3bd b6ca 54bd 1abf 8dbd
000001c0: b5aa 81bd 6fa3 e6bd 362e 5bbd 78c3 4abd
000001d0: 4f45 aebd e65d 61bd 721e b8bd 06dc 91bd
000001e0: d8cb c0bd 9ad8 cabc 851b 39bd 5189 d7bd
000001f0: 1cf4 d8bd 3da7 2abd e7a2 a7bd 9af8 5c3c
00000200: e1a6 74bc 6278 08bd 63d6 6cbd 1493 03bd
00000210: 8f77 cbbc 84ac 13bd 4d3c 1bbd 956b 83bd
00000220: 339c 7fbd 00fe 4dbd b406 a0bd c079 cb3b
00000230: 0ce8 3abd d90b abbc 6129 46bd 62bf 80bc
00000240: 4cdb 05bd 03ea c3bc 38e5 8cbd 91a7 7ebd
00000250: 2da2 c7bd 466f a2bd a54e 20bd 0d73 a2bd
00000260: 0c32 b3bd c754 2bbd 66b5 91bd 7c5a 29bd
00000270: 9b98 87bd d899 1bbd 0827 97bc dc22 63bd
00000280: 86b5 81bd de47 d6bd 8650 acbb 0bcf 93bd
00000290: 8609 1ebd 2555 fcbc cb5a 9ebd 52ed aebb
000002a0: d4a8 593c b13f 75bd 1375 37bc 4946 d73b
000002b0: 0e5e cbbc 5b76 dabc 783d 76bc a961 06bd
000002c0: 62cf 25bd 9fa8 5ebd 11fd b3bd da4b abbd
000002d0: e091 6cbd c0a8 40bd b7a9 36bd 88b1 4abd
000002e0: 7fc6 1fbc f71c 87bd 9efe 22bd b10e a5bd
000002f0: 2752 93bd 72e1 8bbd 6c4c 8abd bed7 c4bd
00000300: 9f1a 8bbd 985a a4bd 6cf4 8dbd 7b37 79bd
00000310: 0b83 7bbd 98fc 7fbd de45 9abd 0e54 9c3c
00000320: 6431 13bd a737 9cbd c5e4 7ebd fc04 afbd
00000330: 1615 7dbd 870d 68bd 4f88 2dbd 3753 44bd
00000340: e45c 31bd 06ac 60bd 411f 38bd 180d 73bd
00000350: 52bb 89bd fb4e cabc fbb9 b0bd 85b4 babd
00000360: e427 50bd 6120 afbd d966 a8bc 624e 70bd
00000370: f701 8ebd 4093 9c3b 6a6f 993c d8a1 a7bb
00000380: 4e2c 0bbd c043 3ebc 777a 40bd a2fc 85bd
00000390: f906 29bd 2401 22bd de60 97bd 4835 1bbd
000003a0: 805e 56bd 7b0f eb3b 4f70 bbbb 99f0 34bc
000003b0: bf6a 67bd aaf3 fbbc 95e3 32bd a68f 81bd
000003c0: 10ce 34bd 5235 53bc 8d41 90bd 92cf 72bd
000003d0: b491 64bc c688 253d d78f 8dbd 4515 95bd
000003e0: 261b e6bc 22c9 79bd 26d8 ee3c 8474 99bc
000003f0: 0516 31bc 9f64 bebd bcc3 86bd c8f8 85bd

model/hidden/output_layer/b f4 [256]
0.024778083 -0.010917001 -0.0006787757 -0.01681102 0.012585259 0.0063578472 0.0043770922 0.014308685
-0.01596174 0.013418474 -0.021115124 0.0021624595 0.01839724 -0.004407521 0.024098914 0.0096666375
-0.008109651 0.00031676496 -0.02095243 0.009081371 -0.017163768 -0.010468487 0.0050726137 -0.003712715
-0.01085177 0.0014345697 -0.019536523 0.002155845 -0.0009685087 0.022899888 -0.024636867 -0.013984374
-0.001545988 -0.019685939 0.015723826 0.0010253601 -0.008212646 0.004170017 0.016201567 -0.00018676044
0.009971568 0.002697793 0.0043594367 0.022482714 0.0025813463 -0.009700077 -0.02097865 0.005837137
-0.016514156 0.010727254 -0.0076289945 -0.017360358 -0.018378722 0.0042649526 -0.006873692 -0.0043336404
-0.017017718 -0.016128885 0.00470446 0.0007112181 -0.0055926424 0.01720884 0.017279018 -0.004663644
0.011953792 0.01677901 -0.015211525 -0.00593487 -0.013088249 -0.017747601 -0.0142994365 0.012413092
-0.014238191 -0.02651804 -0.007117704 -0.0050249607 -0.012529905 0.007822363 -0.004591716 0.00681133
-0.006779835 -0.0031594972 -0.0065728277 0.01022009 0.006120584 -0.02316746 0.0048382273 0.007539093
-0.017423155 -0.01921458 0.0026679658 0.0036620917 0.010447316 0.0008293321 -0.01587308 0.017199619
-0.0053789527 -0.012387796 0.0062593496 -0.009461879 0.01720886 -0.005905652 -0.023735963 -0.0010199125
-0.0062643494 0.021640949 -0.014886104 0.0032245938 0.012239701 -0.008621593 0.024717648 0.0041428576
-0.027734911 0.0077631255 -0.007380882 -0.006351405 -0.021489684 -0.012670601 0.0015113082 0.017619234
-0.0024848531 -0.0007831638 0.01915493 0.0016976194 -0.013478497 0.006162639 0.0077867457 0.007618076
-0.004783164 -0.023443779 0.00314961 -0.009140879 0.01570251 -0.008217042 -0.00767297 -0.010246769
-0.0057030483 0.0030431682 0.009659778 0.016737672 0.015362994 -0.005887816 0.01329771 -0.003561878
-0.018424764 0.02103904 0.01444033 -0.00964892 0.0086934045 -0.021694433 -0.008914681 0.012187274
-0.006737648 -0.008836867 0.010822224 0.012137001 -0.008559962 0.0004969563 0.0041682427 0.013708314
0.0044575394 0.009115203 -0.004742949 0.00019615913 -0.010054045 -0.02213897 -0.020450557 -0.005894036
0.011829227 0.004093286 0.0060298787 -0.01781222 -0.009275037 0.015571148 0.020989396 0.015006858
0.000730295 0.00583103 -0.0044459533 0.0048701013 0.02092577 0.016201664 -0.017624162 -0.016964892
0.018828332 -0.01727712 0.018070733 -0.0060250214 -0.018405348 -0.0051909965 0.013620865 -0.02143325
-0.00013359619 0.003947576 0.0010466009 -0.015246241 0.021630105 -0.014712702 0.020657022 -0.006720703
0.0030946815 0.0139267165 0.011853715 -0.017992066 0.001988365 -0.010841384 0.016995141 0.005093678
-0.013305894 -0.011140965 -0.00047381944 0.00024439403 -0.011722808 -0.009143669 0.0050566206 0.014326625
0.009211489 -0.0023986718 -0.010308688 0.022978595 2.3636036e-05 0.013920012 0.025181377 -0.004442925
0.0074372427 -0.0013024679 0.010973583 -0.01629808 -0.022504194 0.01591246 -0.015197051 0.016075615
0.013838408 -0.004451628 0.004426718 -0.015047316 -0.01860676 -0.016620165 0.025108373 0.011074188
0.014232041 -0.005916564 0.009759212 -0.013058114 -0.0034443957 0.0071596806 0.00314896 0.0049345708
0.0032689776 -0.010918125 0.018106619 0.00031687578 -0.0008775777 0.004931749 -0.0027415506 0.004140589
00000000: 68fb ca3c 39dd 32bc deef 31ba 44b7 89bc
00000010: 6732 4e3c 7d55 d03b b66d 8f3b fa6e 6a3c
00000020: 32c2 82bc 29d9 5b3c a0f9 acbc 0db8 0d3b
00000030: cfb5 963c f76c 90bb 166b c53c d160 1e3c
00000040: 57de 04bc 7913 a639 6ea4 abbc 08ca 143c
00000050: 089b 8cbc 0484 2bbc 2b38 a63b 0651 73bb
00000060: 9fcb 31bc 2c08 bc3a 0f0b a0bc 1449 0d3b
00000070: 85e3 7dba 8c98 bb3c 41d3 c9bc b71e 65bc
00000080: c0a2 caba 6844 a1bc 41cf 803c 6065 863a
00000090: 558e 06bc a3a4 883b 26b9 843c 20d5 43b9
000000a0: ca5f 233c 75cd 303b 9bd9 8e3b ab2d b83c
000000b0: ce2b 293b 12ed 1ebc 6bdb abbc 7445 bf3b
000000c0: b248 87bc 5dc1 2f3c a5fc f9bb 4f37 8ebc
000000d0: f98e 96bc 04c1 8b3b b53c e1bb 3601 8ebb
000000e0: be68 8bbc b920 84bc df27 9a3b 0a71 3a3a
000000f0: 7c42 b7bb 8ef9 8c3c ba8c 8d3c 7bd1 98bb
00000100: d6d9 433c 2274 893c c339 79bc 4c79 c2bb
00000110: 1870 56bc 6b63 91bc 2f48 6abc 4860 4b3c
00000120: 4d47 69bc 5c3c d9bc a13b e9bb 6da8 a4bb
00000130: 3b4a 4dbc 5e29 003c 1b76 96bb 9431 df3b
00000140: 6129 debb 910f 4fbb e060 d7bb 2a72 273c
00000150: 2e8f c83b afc9 bdbc fe89 9e3b 7f0a f73b
00000160: 01bb 8ebc e567 9dbc 0ad9 2e3b b4ff 6f3b
00000170: 382b 2b3c 8967 593a 4308 82bc 37e6 8c3c
00000180: ed41 b0bb 2ff6 4abc 3b1b cd3b ff05 1bbc
00000190: 98f9 8c3c 3384 c1bb ec71 c2bc 96ae 85ba
000001a0: 2c45 cdbb 5c48 b13c d8e4 73bc b553 533b
000001b0: 0789 483c 9541 0dbc aa7c ca3c cfc0 873b
000001c0: 5334 e3bc d161 fe3b 53db f1bb 721f d0bb
000001d0: 220b b0bc 5a98 4fbc 1717 c63a 3656 903c
000001e0: ebd8 22bb 3c4d 4dba cdea 9c3c a882 de3a
000001f0: ead4 5cbc f6ef c93b f527 ff3b 0ea1 f93b
00000200: 16bc 9cbb 2b0d c0bc b069 4e3b a0c3 15bc
00000210: 8da2 803c c6a0 06bc 8a6d fbbb 10e2 27bc
00000220: a3e0 babb e46f 473b 0c44 1e3c 711d 893c
00000230: 11b5 7b3c 95ee c0bb a3de 593c 666e 69bb
00000240: 88ef 96bc 115a ac3c 2297 6c3c 8116 1ebc
00000250: c86e 0e3c 86b8 b1bc e20e 12bc 22ad 473c
00000260: 7dc7 dcbb 82c8 10bc b34f 313c 46da 463c
00000270: 153f 0cbc 2c46 023a c195 883b d698 603c
00000280: 8d10 923b ef57 153c bd6a 9bbb 11b0 4d39
00000290: b9b9 24bc c95c b5bc ed87 a7bc c222 c1bb
000002a0: 60cf 413c f920 863b 4a96 c53b efea 91bc
000002b0: 53f6 17bc 211e 7f3c f4f1 ab3c 53df 753c
000002c0: 4571 3f3a 3a12 bf3b 5caf 91bb 5f95 9f3b
000002d0: 856c ab3c 5ab9 843c 8c60 90bc f5f9 8abc
000002e0: e03d 9a3c bf88 8dbc 1309 943c 8b6d c5bb
000002f0: d0c6 96bc 3c19 aabb 0c2a 5f3c c894 afbc
00000300: f415 0cb9 ab5a 813b 192e 893a 5fcb 79bc
00000310: 9e31 b13c 8b0d 71bc ea38 a93c 5839 dcbb
00000320: 24d0 4a3b e22c 643c 1636 423c 1964 93bc
00000330: 3b4f 023b 0fa0 31bc 6539 8b3c dee8 a63b
00000340: f700 5abc 9888 36bc f86a f8b9 0322 8039
00000350: 0511 40bc 54cf 15bc 02b2 a53b 38ba 6a3c
00000360: c9eb 163c 0933 1dbb c5e5 28bc 9b3d bc3c
00000370: 0046 c637 c310 643c 2d49 ce3c f595 91bb
00000380: 1db4 f33b 92b7 aaba 8bca 333c 8d83 85bc
00000390: b75a b8bc d95a 823c 0dfd 78bc 02b1 833c
000003a0: 7dba 623c f6de 91bb 010e 913b 0589 76bc
000003b0: 346d 98bc 0327 88bc 13b0 cd3c 8370 353c
000003c0: 822d 693c bcdf c1bb 1ae5 1f3c b3f1 55bc
000003d0: 5fbb 61bb c19b ea3b c85e 4e3b 2eb2 a13b
000003e0: 583c 563b efe1 32bc 5554 943c 5922 a639
000003f0: 3e0d 66ba 829a a13b 96ab 33bb c7ad 873b

model/a_stream/W f4 [3, 256]
-0.013976563 0.014688825 -0.029150955 0.009282645 -0.0034518132 -0.026988165 -0.0017380186 -0.012880656
0.011588027 -0.0014287827 0.0045698257 -0.011400662 -0.00958854 -0.027561752 -0.0075177983 -0.004875858
-0.00040466993 -0.03560587 0.008517212 -0.009817515 0.005895034 0.006236581 -0.00013040332 0.0031654928
0.042001106 -0.034612145 0.01689238 -0.05112476 0.038224842 -0.013129979 0.010100466 0.0019836195
-0.049091093 0.00945018 -0.017440714 -0.0029147884 0.024443213 -0.00790167 0.0010643117 -0.01151348
-0.015000208 0.009714849 0.026936566 -0.0013850203 0.021852095 0.012515048 0.011850654 0.027982464
0.015936539 -0.010796947 0.008903848 0.0032833223 0.0069294353 0.02239228 0.0009873342 0.0017250095
0.01576718 0.0144245755 0.019455835 0.007323291 0.0029761689 0.0049463813 -0.0012485445 -0.012907051
-0.018294582 -0.02487801 0.005231587 -0.0018131839 -0.0033148278 0.0069437413 0.01327321 -0.0057819984
0.009388369 0.002541079 -0.030591965 -0.022173453 0.024853094 -0.01473984 -0.03463455 0.0029497214
0.032651 0.031258613 -0.0071105934 -0.013991579 0.011756422 -0.0010492217 0.017159939 0.02077729
0.0072793653 0.009210543 0.025863944 -0.0031820587 -0.0036789745 -0.019390238 0.0033277154 -0.008972264
0.012893967 0.002440751 -0.006205385 -0.00872901 0.002382753 -0.0011992845 0.014639579 0.0089679295
-0.03218675 -0.0189637 0.009108013 0.0062549664 -0.012089866 0.0017390093 -0.015040893 0.00802064
0.003905322 0.009790576 -0.00014701468 0.0105637275 0.014302704 0.007878925 -0.008471996 -0.00019043655
-0.0293443 -0.011667508 -0.024195563 -0.002658243 0.016322248 0.0064971466 0.00033191047 0.00015314663
-0.02603979 0.012143447 -0.0136351 -0.014315488 -0.004654565 -0.016643152 0.016237224 0.0024699275
0.008966385 0.016527966 0.0049575674 -0.007457338 0.00021515747 0.013926467 -0.007946066 0.0038149606
0.0055040037 -0.016575154 -0.016330862 0.015535265 0.005019178 0.007432872 0.0047248737 -0.0034329216
-0.024428627 0.017422477 0.022206962 -0.00932779 0.019247642 0.038208734 0.043661956 -0.016025735
0.02575328 -0.02596859 -0.011867716 0.010609084 0.0222554 0.008964066 0.00880391 -0.0012784479
-0.0051559187 0.020123767 0.0072701075 0.019257903 0.009145883 -0.0041639036 -0.004633732 -0.00461365
0.04755961 0.0036063262 -0.029502261 -0.004872048 -0.01514675 -0.007673863 0.006287118 0.016309777
0.002263325 0.002246032 0.0061590746 -0.030985847 0.020087656 -0.004668299 -0.018455936 0.0066910265
0.04629641 0.0036435882 0.035190362 -0.07535486 -0.018612012 0.014810665 -0.024104862 0.005613068
-0.007949827 -0.0071356306 -0.009870616 0.014501692 0.04945086 0.00033004818 -0.024905091 0.00038962037
0.008954018 -0.018916791 0.045759108 -0.0015795527 0.0057419008 0.003140844 0.014477891 -0.014471462
-0.0065181963 -0.020187287 -0.0023407491 -0.008553041 0.034790844 -0.011027231 -0.005822023 0.021710698
-0.01053001 -0.051787842 0.016311105 0.017198607 0.004800329 -0.014329446 0.010171627 -0.0060453597
-0.0053960667 0.0001440997 0.050452497 -0.0041349786 0.020696323 0.006848846 -0.009033693 0.020229144
-0.012776228 -0.013744246 -0.013567239 0.027794266 -0.014896831 -0.011955729 0.04869495 0.050164092
-0.0132574905 0.006018104 -0.025153713 0.007022028 -0.0267872 0.026737183 -0.032763015 0.0071728956
00000000: f4fd 64bc 66a9 703c fccd eebc 3c16 183c
00000010: d137 62bb 4916 ddbc 3ace e3ba 6309 53bc
00000020: b5db 3d3c fe45 bbba 7abe 953b d8c9 3abc
00000030: 4019 1dbc 2fc9 e1bc dd57 f6bb a9c5 9fbb
00000040: e129 d4b9 76d7 11bd c78b 0b3c a4d9 20bc
00000050: 212b c13b 3c5c cc3b e0bc 08b9 2874 4f3b
00000060: 5a09 2c3d 77c5 0dbd e361 8a3c 3268 51bd
00000070: a791 1c3d 201f 57bc 6d7c 253c 9dff 013b
00000080: be13 49bd eed4 1a3c d4df 8ebc 0906 3fbb
00000090: 223d c83c 0276 01bc 6080 8b3a 09a3 3cbc
000000a0: 6fc3 75bc 082b 1f3c 13aa dc3c 9289 b5ba
000000b0: 2a03 b33c ea0b 4d3c 3f29 423c 7b3b e53c
000000c0: 588d 823c aee5 30bc 72e1 113c 022d 573b
000000d0: 5110 e33b 0470 b73c 7069 813a b719 e23a
000000e0: 2c2a 813c 0e55 6c3c d861 9f3c 38f8 ef3b
000000f0: d40b 433b 4115 a23b 34a6 a3ba 1878 53bc
00000100: 85de 95bc f8cc cbbc bc6d ab3b 5ba8 edba
00000110: 953d 59bb 5388 e33b e177 593c eb76 bdbb
00000120: acd1 193c 3b88 263b 009c fabc 1aa5 b5bc
00000130: b798 cb3c 5f7f 71bc f5dc 0dbd 1d50 413b
00000140: 0ebd 053d 0809 003d fbff e8bb f03c 65bc
00000150: 029e 403c 0a86 89ba 0093 8c3c 2335 aa3c
00000160: be87 ee3b d1e7 163c 9fe0 d33c 168a 50bb
00000170: f31a 71bb 47d8 9ebc cd15 5a3b 6700 13bc
00000180: 3841 533c 02f5 1f3b 8b56 cbbb 1f04 0fbc
00000190: f627 1c3b 4f31 9dba d8da 6f3c 39ee 123c
000001a0: 41d6 03bd c359 9bbc c639 153c 76f6 cc3b
000001b0: 9314 46bc 78ef e33a 146e 76bc 0169 033c
000001c0: 6ef0 7f3b a768 203c f427 1ab9 7c13 2d3c
000001d0: e355 6a3c 9b16 013c 20ce 0abc ecaf 47b9
000001e0: 7563 f0bc 1329 3fbc c635 c6bc eb35 2ebb
000001f0: 3cb6 853c 04e6 d43b 4504 ae39 fc95 2039
00000200: 6651 d5bc 4ff5 463c c165 5fbc 828b 6abc
00000210: 5285 98bb 3857 88bc ed03 853c 82de 213b
00000220: bfe7 123c a865 873c 1773 a23b af5c f4bb
00000230: e59b 6139 d62b 643c 3730 02bc 6b04 7a3b
00000240: ee5a b43b 9ec8 87bc 4dc8 85bc a087 7e3c
00000250: eb77 a43b 738f f33b 1dd3 9a3b defa 60bb
00000260: 8b1e c8bc 95b9 8e3c 60eb b53c 96d3 18bc
00000270: 3bad 9d3c c380 1c3d e1d6 323d 6748 83bc
00000280: 8bf8 d23c 15bc d4bc cf70 42bc b9d1 2d3c
00000290: f550 b63c 05de 123c 463e 103c 9891 a7ba
000002a0: fbf2 a8bb 99da a43c 153a ee3b c0c2 9d3c
000002b0: 9dd8 153c 5b71 88bb 90d6 97bb 1a2e 97bb
000002c0: decd 423d 1d58 6c3b baae f1bc b3a5 9fbb
000002d0: 132a 78bc 0775 fbbb 2b04 ce3b 159c 853c
000002e0: 4b54 143b 2a32 133b 10d2 c93b 08d6 fdbc
000002f0: de8e a43c 88f8 98bb e730 97bc 6640 db3b
00000300: 4ea1 3d3d 44c9 6e3b c523 103d a653 9abd
00000310: 3878 98bc 6ea8 723c 8f77 c5bc d4ed b73b
00000320: fe3f 02bc 02d2 e9bb 5db8 21bc 8198 6d3c
00000330: fc8c 4a3d 510a ad39 c305 ccbc f645 cc39
00000340: e0b3 123c 63f7 9abc e76d 3b3d fe08 cfba
00000350: 8e26 bc3b 9ed6 4d3b ad34 6d3c b619 6dbc
00000360: 9896 d5bb cf5f a5bc 4167 19bb 0e22 0cbc
00000370: d880 0e3d 8fab 34bc abc6 bebb a2da b13c
00000380: 1086 2cbc 7d1f 54bd de9e 853c 18e4 8c3c
00000390: 144c 9d3b 0dc6 6abc e5a6 263c 2718 c6bb
000003a0: 7dd1 b0bb 7819 1739 47a7 4e3d b77e 87bb
000003b0: 568b a93c 496c e03b 0e02 14bc 97b7 a53c
000003c0: 6253 51bc 8c2f 61bc 2049 5ebc cdb0 e33c
000003d0: d611 74bc f6e1 43bc 5b74 473d dd78 4d3d
000003e0: f235 59bc 8433 c53b 290f cebc 0a19 e63b
000003f0: d470 dbbc f007 db3c 8332 06bd 9c0a eb3b

model/hidden/mid_rec_layer/upward/W f4 [80, 86]
-0.032466397 -0.033790328 0.02093241 0.049817376 0.0044529224 0.030915115 0.0056421002 -0.019006796
0.042811934 0.01 -0.029990057 0.01 0.15290758 0.04603991 0.01 0.20986766
0.050410874 0.01 -0.080270484 0.00910239 0.01 0.054437596 0.026114985 0.01
-0.1114013 0.022017162 0.01 0.0629731 0.03569411 0.01 -0.19246219 0.07190929
0.01 -0.19023192 -0.04995353 0.01 0.18781684 -0.0041590086 0.01 -0.16596475
-0.014380398 0.01 -0.15903954 0.016624821 0.01 -0.09130263 -0.017468907 0.14312157
-0.060610324 -0.03512316 0.008257847 0.028673096 -0.011725116 0.2525578 -0.0152892675 -0.0043906653
0.01 0.086938456 0.07724177 0.01 0.2283857 -0.021137664 0.0020779464 -0.038344998
0.0020337177 0.19485454 0.17826706 -0.026190272 0.011088707 0.08689728 -0.019796178 0.01
-0.03272085 -0.026240908 0.01 -0.06618041 -0.049608193 0.15463375 0.09155476 -0.060564127
-0.054995466 0.0852796 -0.020398982 -0.12830746 0.04110793 -0.008662048 0.036761545 0.093382485
-0.231663 -0.33496353 0.03684332 -0.22420774 -0.28787035 -0.037867095 -0.63703346 0.01
-0.074379474 0.01 -0.062803775 -0.030999733 0.01 0.120887905 -0.038752187 0.01
0.08464404 -0.09178124 0.01 -0.24729504 -0.06193079 0.01 0.057850037 0.044300064
0.01 -0.01430551 -0.046379935 0.01 0.26147363 -0.059708394 0.01 0.2505513
0.07462715 0.01 -0.092988916 -0.017801583 0.01 0.21796173 -0.030067962 0.01
0.15754694 -0.0061763516 0.01 0.094023526 -0.071037665 -0.19018975 -0.02475186 -0.09835296
-0.04028133 -0.33618444 -0.23303269 -0.10263365 0.21446323 -0.071585625 0.01 0.1519742
-0.0074576964 0.01 0.15565857 0.063939415 -0.088407874 0.08636679 -0.14849809 -0.24437036
-0.07028693 -0.09916032 -0.066108555 -0.22697656 -0.07842589 0.01 0.032796163 0.035454992
0.01 0.11467993 0.029399166 -0.344866 -0.28159297 0.08974433 0.047069713 -0.47134182
-0.03367569 0.104457155 -0.29196128 -0.007091621 -0.6263768 -0.01904138 0.41082722 -0.49516532
-0.18945786 -0.1399752 -0.12693462 -0.25565156 -0.6076236 0.01 -0.12414683 0.01
-0.092588924 -0.0034170847 0.01 0.25535652 -0.054871686 0.01 0.018348102 -0.040714815
0.01 -0.2214781 -0.08295494 0.01 0.05529379 -0.0844275 0.01 -0.08725488
-0.19544998 0.01 -0.029622292 -0.113780335 0.01 0.22549091 -0.14340705 0.01
-0.22150831 -0.154771 0.01 0.06113784 -0.062449306 0.01 0.09779873 -0.063383
0.01 0.18372011 -0.1333477 -0.19947651 -0.29411155 -0.11812846 -0.029188253 -0.07906419
-0.15154676 -0.05979919 -0.20009972 0.013230797 0.01 -0.29487744 -0.08547102 0.01
-0.09914122 -0.008906823 -0.06839821 0.09992531 -0.25898832 -0.24385701 -0.19008604 -0.35377073
-0.13533743 -0.3359913 -0.099899314 0.01 0.23012044 0.013938918 0.01 0.34938225
0.013404659 -0.30657414 -0.445739 -0.019944124 -0.01567176 -0.53434926 -0.004273253 0.024861418
00000000: 7cfb 04bd ba67 0abd 727a ab3c 4e0d 4c3d
00000010: d2e9 913b b241 fd3c 5ee1 b83b 24b4 9bbc
00000020: 915b 2f3d 0ad7 233c b5ad f5bc 0ad7 233c
00000030: ce93 1c3e 5894 3c3d 0ad7 233c 8ce7 563e
00000040: a27b 4e3d 0ad7 233c da64 a4bd 3122 153c
00000050: 0ad7 233c f5f9 5e3d 18ef d53c 0ad7 233c
00000060: 5d26 e4bd 565d b43c 0ad7 233c 0af8 803d
00000070: fd33 123d 0ad7 233c cf14 45be 2e45 933d
00000080: 0ad7 233c 28cc 42be 139c 4cbd 0ad7 233c
00000090: 0f53 403e 4b48 88bb 0ad7 233c aaf2 29be
000000a0: c39b 6bbc 0ad7 233c 43db 22be c730 883c
000000b0: 0ad7 233c e0fc babd f41a 8fbc 768e 123e
000000c0: 8842 78bd 4ddd 0fbd ec4b 073c d7e3 ea3c
000000d0: b31a 40bc 424f 813e d67f 7abc 92df 8fbb
000000e0: 0ad7 233c ca0c b23d ef30 9e3d 0ad7 233c
000000f0: f1dd 693e e528 adbc 282e 083b a50f 1dbd
00000100: 1f48 053b f387 473e a48b 363e fb8c d6bc
00000110: 68ad 353c 33f7 b13d 982b a2bc 0ad7 233c
00000120: 4c06 06bd 2cf7 d6bc 0ad7 233c 9889 87bd
00000130: f631 4bbd 4f58 1e3e 1081 bb3d 1712 78bd
00000140: ed42 61bd 12a7 ae3d c41b a7bc 0863 03be
00000150: ca60 283d 43eb 0dbc 4693 163d 513f bf3d
00000160: 1139 6dbe 5780 abbe 05e9 163d b796 65be
00000170: be63 93be 871a 1bbd a014 23bf 0ad7 233c
00000180: 4454 98bd 0ad7 233c 449f 80bd 27f3 fdbc
00000190: 0ad7 233c 1494 f73d 9dba 1ebd 0ad7 233c
000001a0: db59 ad3d cef7 bbbd 0ad7 233c e93a 7dbe
000001b0: 24ab 7dbd 0ad7 233c 29f4 6c3d fc73 353d
000001c0: 0ad7 233c a861 6abc e3f8 3dbd 0ad7 233c
000001d0: dfdf 853e ca90 74bd 0ad7 233c 4348 803e
000001e0: 1fd6 983d 0ad7 233c f970 bebd a0d4 91bc
000001f0: 0ad7 233c 5c31 5f3e 1651 f6bc 0ad7 233c
00000200: fc53 213e fe62 cabb 0ad7 233c 688f c03d
00000210: 327c 91bd 1ac1 42be 6ac4 cabc 476d c9bd
00000220: 09fe 24bd 5e20 acbe 1fa0 6ebe 9731 d2bd
00000230: 409c 5b3e 7c9b 92bd 0ad7 233c 209f 1b3e
00000240: b15f f4bb 0ad7 233c f664 1f3e abf2 823d
00000250: 300f b5bd 12e1 b03d e20f 18be 393c 7abe
00000260: 98f2 8fbd 9114 cbbd ec63 87bd 8b6c 68be
00000270: c19d a0bd 0ad7 233c 4555 063d 4139 113d
00000280: 0ad7 233c 50dd ea3d 85d6 f03c 4792 b0be
00000290: f42c 90be e0cb b73d 2ccc 403d b753 f1be
000002a0: 85ef 09bd a2ed d53d f37b 95be d460 e8bb
000002b0: 3b5a 20bf abfc 9bbc f257 d23e 4f86 fdbe
000002c0: 3e01 42be a955 0fbe 26fb 01be c3e4 82be
000002d0: 388d 1bbf 0ad7 233c b140 febd 0ad7 233c
000002e0: 439f bdbd 2bf1 5fbb 0ad7 233c 17be 823e
000002f0: 22c1 60bd 0ad7 233c c24e 963c 94c4 26bd
00000300: 0ad7 233c 28cb 62be 48e4 a9bd 0ad7 233c
00000310: be7b 623d 53e8 acbd 0ad7 233c b0b2 b2bd
00000320: 0a24 48be 0ad7 233c 73aa f2bc aa05 e9bd
00000330: 0ad7 233c 17e7 663e 4cd9 12be 0ad7 233c
00000340: 13d3 62be 4a7c 1ebe 0ad7 233c ac6b 7a3d
00000350: d8ca 7fbd 0ad7 233c b34a c83d f2ce 81bd
00000360: 0ad7 233c 2021 3c3e 4d8c 08be 9243 4cbe
00000370: ca95 96be 56ed f1bd 341c efbc 68ec a1bd
00000380: 132f 1bbe ffef 74bd f1e6 4cbe fcc5 583c
00000390: 0ad7 233c 2dfa 96be 6e0b afbd 0ad7 233c
000003a0: 8d0a cbbd eced 11bc 5c14 8cbd a4a5 cc3d
000003b0: 1e9a 84be a7b5 79be eaa5 42be 7021 b5be
000003c0: e595 0abe 0d07 acbe 0398 ccbd 0ad7 233c
000003d0: b1a4 6b3e 0f60 643c 0ad7 233c 3be2 b23e
000003e0: 379f 5b3c 49f7 9cbe e737 e4be dc61 a3bc
000003f0: 1062 80bc 1dcb 08bf a506 8cbb 2caa cb3c

model/hidden/mid_layer/W f4 [256, 256]
0.014190911 -0.0006005894 -2.191733e-05 -0.0100909555 -0.025643848 -0.041838374 -0.0121600805 -0.007885683
-0.003039024 0.00893497 0.006716206 -0.00081849983 -0.050762974 -0.0152256135 -0.018002197 -0.020451834
-0.018304517 -0.017865943 -0.022726145 0.012017212 -0.04441581 -0.006759589 -0.049217742 -0.013291925
-0.034507006 -0.010674996 0.002467709 0.00014805677 0.010131639 0.021614416 -0.018434873 -0.024929926
-0.01065514 -0.00207116 0.007895349 -0.053328123 -0.013906991 -0.0010205628 -0.012542183 -0.057918776
-0.050353266 -0.0102443425 -0.023182048 -0.013794553 0.0014017767 -0.00023497574 -0.0091720745 -0.010079906
0.08329905 0.004424811 -0.012533183 0.002870803 -0.006776725 -0.021003477 -0.017314883 -0.052622415
0.013715807 -0.00953624 -0.018982138 -0.00093253364 -0.0024783867 0.00488422 -0.01916247 -0.048897613
-0.024308749 -0.05373022 -0.0067036394 0.0077745845 -0.009281804 -0.0069688233 -0.0008958595 -0.010046722
0.0013564085 -0.023666834 -0.015431561 -0.029931147 -0.0054651243 0.031865995 -0.006670602 -0.011891602
0.0022533024 -0.04519108 -0.001901241 -0.031040948 -0.010372796 -0.03258524 -0.009179297 -0.0058997436
-0.01279249 -0.01835437 -0.01755731 -0.0019576282 0.0044719023 -0.019756772 -0.025194682 0.019760756
-0.0022297716 -0.042603653 -0.017126644 -0.051675733 -0.015176293 -0.043371525 -0.004653234 0.020179957
0.01970848 -0.041300155 0.020026002 -0.03457459 -0.028774807 -0.022923505 0.0018531944 -0.018069984
-0.010917696 -0.012190065 0.019985287 -0.003885002 -0.0070351386 -0.02609746 -0.0007759963 -0.003249009
0.02232046 0.005620688 -0.009653364 -0.013888208 -0.010381599 -0.035948735 -0.0035171018 -0.03378389
-0.01465034 -0.043773923 -0.013423303 0.015535651 -0.01968372 -0.026244769 -0.025748882 -0.030379476
-0.031246293 -0.014039852 -0.018430497 -0.0150329685 0.0059724506 -0.009958427 0.014123959 -0.017619258
-0.010858198 -0.014164824 -0.014210747 -0.0021185197 -0.0032593368 -0.0003972793 -0.01040672 -0.005467437
-0.0049992413 -0.03244303 -0.0005219379 -0.029922754 -0.046457782 0.0013321767 0.0012029135 -0.0030019218
-0.00081875955 -0.015897792 -0.012251895 -0.0018940002 0.036702767 -0.024402676 0.010459312 -0.003094625
-0.017883327 -0.01287145 -0.00079409743 -0.013130227 -0.019377258 0.00041441008 -0.013550145 -0.0009754372
-0.010916979 -0.0018820256 0.00030102703 -0.06826664 -0.01052618 -0.021485232 -0.023308992 -0.023828119
-0.023991806 -0.028117511 -0.009488003 -0.018066823 -0.035176333 -0.024805257 -0.028629094 0.0037276535
-0.02780563 0.003174297 -0.0003900995 -0.011012631 -0.009546079 0.022054572 -0.048856158 0.0037470325
0.0044273394 -0.011932024 -0.003018288 -0.035692755 -0.0056204107 -0.014813808 -0.011859354 -0.020434847
-0.02967274 -0.010964404 -0.01739568 -0.027124045 -0.018766772 -0.0030299136 -0.024630671 -0.023964088
-0.06709571 -0.011094449 -0.01295824 -0.027903296 -0.006279103 -0.0035670393 -0.016343817 0.009371561
0.0060517523 -0.0064585744 -0.023355419 -0.035071768 0.0011904346 -0.014062523 -0.000810944 -0.003689595
-0.0023665077 -0.032976255 -0.045080695 -0.012193095 -0.0015515172 -0.033662826 -0.00181364 -0.029848466
-0.07131985 -0.02058872 0.0012712923 -0.047530632 -0.015332169 -0.00511899 -0.0046716337 -0.061505653
-0.04464246 -0.0092708105 0.0049836836 -0.025095357 -0.0052338606 -0.016059898 -0.026056426 0.015935011
00000000: ff80 683c df70 1dba 1cdb b7b7 8954 25bc
00000010: 0c13 d2bc b75e 2bbd 133b 47bc f432 01bc
00000020: 5d2a 47bb fb63 123c 9f13 dc3b 9890 56ba
00000030: d6ec 4fbd da74 79bc 5879 93bc 9b8a a7bc
00000040: 5bf3 95bc 995b 92bc 2e2c babc d7e3 443c
00000050: 5aed 35bd 8b7f ddbb 8b98 49bd 60c6 59bc
00000060: 3857 0dbd 2ee6 2ebc 49b9 213b b03f 1b39
00000070: 2dff 253c b710 b13c bb04 97bc d839 ccbc
00000080: e592 2ebc 4cbc 07bb 7e5b 013c 976e 5abd
00000090: 26da 63bc 68c4 85ba ba7d 4dbc 3d3c 6dbd
000000a0: 3a3f 4ebd e3d7 27bc 47e8 bdbc 8c02 62bc
000000b0: d2bb b73a d263 76b9 7846 16bc 3126 25bc
000000c0: b198 aa3d 01fe 903b fb57 4dbc 1524 3c3b
000000d0: 4a0f debb 7c0f acbc f1d7 8dbc 9a8a 57bd
000000e0: 44b8 603c e43d 1cbc 6e80 9bbc 4675 74ba
000000f0: 6e6c 22bb cf0b a03b 9dfa 9cbc dd48 48bd
00000100: 2423 c7bc 3814 5cbd 34aa dbbb f1c1 fe3b
00000110: b512 18bc ba5a e4bb 1dd8 6aba 029b 24bc
00000120: 84c9 b13a f3e0 c1bc a8d4 7cbc 2a32 f5bc
00000130: c914 b3bb eb85 023d 1195 dabb fed4 42bc
00000140: 24ac 133b 481a 39bd 1033 f9ba 9649 febc
00000150: a9f2 29bc 1a78 05bd c364 16bc a352 c1bb
00000160: 9897 51bc e75b 96bc 59d4 8fbc 8d4b 00bb
00000170: 0989 923b f4d8 a1bc 1465 cebc 4fe1 a13c
00000180: 5c21 12bb 2b81 2ebd 2d4d 8cbc efa9 53bd
00000190: fda5 78bc 57a6 31bd 287a 98bb 7050 a53c
000001a0: ae73 a13c 5a2a 29bd 920d a43c 169e 0dbd
000001b0: 25b9 ebbc 13ca bbbc e3e6 f23a 8107 94bc
000001c0: 23e0 32bc d7b8 47bc 2fb8 a33c 859b 7ebb
000001d0: 0587 e6bb 57ca d5bc 3b6c 4bba 53ed 54bb
000001e0: 66d9 b63c c02d b83b 2529 1ebc 5e8b 63bc
000001f0: 9517 2abc fb3e 13bd 2d7f 66bb fa60 0abd
00000200: fb07 70bc 494c 33bd 6aed 5bbc 3e89 7e3c
00000210: c13f a1bc 45ff d6bc 52ef d2bc 61de f8bc
00000220: 3af8 ffbc 6807 66bc 8efb 96bc d74c 76bc
00000230: 8cb4 c33b ac28 23bc 2d68 673c 4356 90bc
00000240: 95e6 31bc 9413 68bc 31d4 68bc ddd6 0abb
00000250: 999a 55bb ed49 d0b9 f380 2abc 3028 b3bb
00000260: add0 a3bb fce2 04bd a9d2 08ba 9020 f5bc
00000270: 844a 3ebd 6f9c ae3a 14ab 9d3a e4bb 44bb
00000280: 06a2 56ba 163c 82bc 2cbc 48bc 1a40 f8ba
00000290: a455 163d 1fe8 c7bc 895d 2b3c 31cf 4abb
000002a0: 0e80 92bc c6e2 52bc fa2a 50ba 2a20 57bc
000002b0: 0ebd 9ebc 2e45 d939 6d01 5ebc 7bb4 7fba
000002c0: 21dd 32bc 4dae f6ba 2ad3 9d39 61cf 8bbd
000002d0: 0076 2cbc cc01 b0bc 80f2 bebc 3033 c3bc
000002e0: 778a c4bc b256 e6bc 9273 1bbc e000 94bc
000002f0: 0f15 10bd 6534 cbbc 9087 eabc a64b 743b
00000300: a2c8 e3bc de07 503b 4586 ccb9 526e 34bc
00000310: 2867 1cbc caab b43c 651d 48bd c690 753b
00000320: 3713 913b 897e 43bc 78ce 45bb 9132 12bd
00000330: 6c2b b8bb 9db5 72bc bc4d 42bc fb66 a7bc
00000340: 3f14 f3bc 0ba4 33bc 6381 8ebc 3f33 debc
00000350: c6bc 99bc 8491 46bb 43c6 c9bc 5650 c4bc
00000360: 7a69 89bd 7ec5 35bc cc4e 54bc 7495 e4bc
00000370: efc0 cdbb fdc4 69bb 78e3 85bc 2d8b 193c
00000380: c74d c63b 73a2 d3bb dd53 bfbc 6aa7 0fbd
00000390: 5b08 9c3a 7f66 66bc 8895 54ba 22cd 71bb
000003a0: 6917 1bbb 1c12 07bd 89a6 38bd 8cc5 47bc
000003b0: 475c cbba 08e2 09bd a9b7 edba c584 f4bc
000003c0: 2410 92bd ada9 a8bc 7ea1 a63a 7baf 42bd
000003d0: c733 7bbc 33bd a7bb 8114 99bb 5aed 7bbd
000003e0: 03db 36bd 99e4 17bc 2b4e a33b c794 cdbc
000003f0: ce80 abbb 0c90 83bc 4974 d5bc 248a 823c

model/a_stream/b f4 [3]
0.022497792 -0.010105834 -0.003536557
00000000: 4a4d b83c f192 25bc 95c5 67bb

model/hidden/mid_rec_layer/upward/b f4 [80]
-0.0092569385 -0.14473255 0.7454625 -0.19067928 -0.035310943 0.0009870111 0.9137455 -0.007163479
0.0011392864 -0.19427748 0.83946496 -0.20249094 0.0059911055 -0.1862084 0.6158196 -0.20302114
0.0044447053 -0.13077258 0.8273621 -0.1668883 0.0120262625 -0.18228762 0.6270749 -0.20991217
0.009836079 -0.19011718 0.6930602 -0.19548576 0.0016588639 -0.19608404 0.8332218 -0.20471132
-0.012263201 -0.24202706 0.7985684 -0.25070104 -0.024577491 -0.21955688 0.6586906 -0.25457236
0.0021987404 -0.13721526 0.8212662 -0.17666888 -0.029978171 -0.05684273 0.8826394 -0.067873776
-0.02686732 -0.19757779 0.73854345 -0.21421993 -0.025382707 -0.06816297 0.8359552 -0.091961406
0.008230961 -0.2282606 0.7045458 -0.2556248 0.0075146137 -0.19123502 0.6370106 -0.21001981
-0.0039592846 -0.21605697 0.845992 -0.19763593 0.008531316 -0.15030266 0.6645352 -0.18193397
-0.021175358 -0.15623873 0.73571384 -0.17151767 -0.029130721 -0.04702201 0.89477915 -0.048409242
00000000: 6aaa 17bc c534 14be a1d6 3e3f 6e41 43be
00000010: 35a2 10bd 995e 813a 3aeb 693f 9ebb eabb
00000020: 1c54 953a adf0 46be 2de7 563f c959 4fbe
00000030: 0951 c43b 6aad 3ebe 5aa6 1d3f c6e4 4fbe
00000040: e4a4 913b 3fe9 05be 01ce 533f c4e4 2abe
00000050: cd09 453c 9ba9 3abe fb87 203f 37f3 56be
00000060: 8127 213c 14ae 42be 656c 313f 6b2d 48be
00000070: 3c6e d93a 41ca 48be 064e 553f d89f 51be
00000080: 98eb 48bc f1d5 77be fb6e 4c3f e35b 80be
00000090: bc56 c9bc 85d3 60be f29f 283f 4f57 82be
000000a0: be18 103b 2882 0cbe 803e 523f b0e8 34be
000000b0: c894 f5bc ecd3 68bd a8f4 613f 6801 8bbd
000000c0: db18 dcbc d551 4abe 2f11 3d3f 785c 5bbe
000000d0: 65ef cfbc 0799 8bbd 2901 563f 4356 bcbd
000000e0: 27db 063c 26bd 69be 1d5d 343f 41e1 82be
000000f0: 263d f63b 1dd3 43be 2013 233f 6f0f 57be
00000100: e3bc 81bb 0a3e 5dbe ef92 583f 1361 4abe
00000110: efc6 0b3c f1e8 19be fb1e 2a3f e64c 3abe
00000120: f277 adbc 0cfd 1fbe be57 3c3f 54a2 2fbe
00000130: 8da3 eebc 279a 40bd 3f10 653f c548 46bd

model/hidden/input_layer/W f4 [256, 86]
0.006762949 -0.10699601 -0.031798687 -0.039464597 -0.121502124 -0.017545292 0.09201426 0.02262817
-0.15494958 8.190248e-05 -0.11008157 0.014166198 -0.13891938 -0.08230209 -0.010991663 0.19032103
0.043017507 -0.006627273 -0.005738579 -0.090530485 0.005135362 0.04178824 0.049078204 -0.011829387
-0.09419066 0.034065377 0.0051539177 0.104199 -0.063159734 0.018995447 -0.07099312 -0.041551005
0.027475143 -0.08170584 -0.053931326 -0.0027270517 0.027594117 0.06987649 0.0016487414 -0.039446518
-0.009276213 -0.010188899 0.08794791 0.15958495 0.0077699013 0.11849815 0.07354089 -0.12814076
0.047241315 0.07342331 0.07832229 -0.18104453 0.031993978 -0.17475818 0.025222512 0.06124444
-0.00035942733 -0.012448891 -0.00937302 0.0012099606 -0.030434461 -0.032836914 -0.09414176 0.014659062
-0.05769143 -0.14575097 -0.13759093 0.0064962734 0.0050165225 -0.113126196 -0.06377673 -0.0103506595
0.046783395 -0.09374495 0.0067355926 0.014359014 -0.050239656 -0.058214672 -0.10104791 -0.040729914
0.0025341092 -0.065944426 -0.04121349 -0.059495978 -0.025896909 -0.006070424 -0.02052686 -0.019013442
-0.0033152106 -0.019527333 -0.019959988 -0.013581703 -0.02143745 -0.0371625 -0.009129573 -0.003498866
-0.031451005 0.006368161 -0.012337685 -0.0142547535 -0.012464417 -0.0034957447 -0.01957237 0.008605945
-0.0062712156 0.016651701 -0.0016981554 -0.00720109 -0.019491943 0.004136337 -0.008233212 -0.04144765
-0.0052018454 -0.0036706151 0.015529189 -0.0059059258 -0.017577508 -0.0063085184 -0.007351405 -0.006265678
-0.026250973 -0.0061941845 -0.01321158 0.008379917 0.0072386567 0.0035277014 -0.023329627 -0.0054451353
0.003484912 -0.02067262 0.0035269933 -0.0120451385 -0.018614411 -0.028996702 0.007546893 -0.024883484
-0.020664973 0.01678674 -0.0057784556 -0.006239039 -0.011981409 -0.024425551 0.015943239 0.011707544
-0.02370302 0.014790792 0.0076964106 0.013067894 -0.018510215 0.0070696007 -0.017871153 0.008665866
0.009902064 0.0020337133 -0.013631342 -0.015564572 -0.007775041 -0.00422417 -0.0086316075 -0.020805927
0.0028877654 -0.019407466 0.0008562622 0.01144454 -0.026451312 -0.028017715 -0.028145323 0.010643627
-0.016587619 -0.029870253 -0.016075363 -0.030258251 -0.07312485 -0.071964085 0.0056797573 -0.009791944
-0.0062041166 -0.023767276 -0.03703005 -0.044369847 -0.24810809 0.0022413484 0.0028614074 -0.012870155
0.0554256 0.11632238 0.0094359005 -0.07751627 0.12440929 0.020757526 0.0016081405 -0.002001251
-0.0016162957 0.1392506 0.004195507 -0.010146331 0.00019787467 0.058097064 -0.0018390701 0.09016239
-0.15836161 -0.018155117 0.005101521 -0.046018373 0.0031910301 0.025801854 -0.017152974 0.009538693
-0.033894822 -0.0645416 0.015969293 -0.048283692 0.021762075 -0.0004006788 0.038173255 0.050867446
-0.005034875 0.010965663 0.058925815 -0.057332523 0.007124138 -0.14454733 0.110289454 -0.15874179
-0.05512314 -0.0024143863 -0.058561973 -0.11429831 -0.0028239002 0.111257486 -0.17674607 0.011575697
0.10798456 -0.064347334 0.018821577 -0.024536913 -0.07350553 -0.11891944 -0.061230734 -0.048386987
-0.17090678 0.11326019 0.13970529 0.009241431 0.030341184 0.018748596 -0.006984622 -0.082994424
0.01609235 -0.14369471 -0.036979817 -0.04425701 0.05834417 -0.03897296 0.0536005 -0.075173415
00000000: ba9b dd3b b920 dbbd 573f 02bd a1a5 21bd
00000010: 1bd6 f8bd 25bb 8fbc f971 bc3d b65e b93c
00000020: 1aab 1ebe 0fc3 ab38 7272 e1bd 5719 683c
00000030: e240 0ebe 008e a8bd 6016 34bc 84e3 423e
00000040: 2033 303d 9829 d9bb b10a bcbb 0c68 b9bd
00000050: 8a46 a83b 252a 2b3d 3a06 493d 0cd0 41bc
00000060: 08e7 c0bd 2388 0b3d 32e2 a83b 4966 d53d
00000070: e459 81bd 579c 9b3c d764 91bd 6331 2abd
00000080: 8d13 e13c 6455 a7bd 18e7 5cbd 56b8 32bb
00000090: 0f0d e23c 681b 8f3d 951a d83a ac92 21bd
000000a0: 42fb 17bc 57ef 26bc 091e b43d 3d6a 233e
000000b0: a89a fe3b 28af f23d 9b9c 963d 5537 03be
000000c0: 1c80 413d f65e 963d 7067 a03d bd63 39be
000000d0: 1e0c 033d cff3 32be 719f ce3c 73db 7a3d
000000e0: 8571 bcb9 6ff6 4bbc 4c91 19bc 8a97 9e3a
000000f0: b151 f9bc 0080 06bd 65cd c0bd 902c 703c
00000100: d94d 6cbd be3f 15be a3e4 0cbe b1de d43b
00000110: a461 a43b b5ae e7bd 609d 82bd d095 29bc
00000120: f29f 3f3d 5afd bfbd 3fb6 dc3b 1242 6b3c
00000130: 19c8 4dbd 8272 6ebd 35f2 cebd 69d4 26bd
00000140: 4c13 263b df0d 87bd 7acf 28bd 0eb2 73bd
00000150: c125 d4bc 68ea c6bb f227 a8bc 14c2 9bbc
00000160: 0144 59bb c9f7 9fbc 2183 a3bc cb85 5ebc
00000170: 979d afbc b537 18bd 3494 15bc 3b4d 65bb
00000180: c5d2 00bd 02ac d03b 0024 4abc c58c 69bc
00000190: 8e37 4cbc dd18 65bb 3c56 a0bc f3ff 0c3c
000001a0: c57e cdbb 2669 883c a494 deba 1ff7 ebbb
000001b0: 91ad 9fbc 1c8a 873b 98e4 06bc 03c5 29bd
000001c0: 3e74 aabb b48e 70bb 246e 7e3c 7f86 c1bb
000001d0: b5fe 8fbc b0b7 cebb 0ee4 f0bb 5150 cdbb
000001e0: 480c d7bc 96f8 cabb 6275 58bc eb4b 093c
000001f0: 4132 ed3b 0231 673b c61d bfbc 1b6d b2bb
00000200: 1f63 643b a059 a9bc 2125 673b f958 45bc
00000210: 407d 98bc 7e8a edbc ed4b f73b 73d8 cbbc
00000220: 9749 a9bc 5884 893c 3359 bdbb da70 ccbb
00000230: ac4d 44bc 1818 c8bc 659b 823c 00d1 3f3c
00000240: d62c c2bc 1455 723c 2c32 fc3b b81a 563c
00000250: bca2 97bc 1ca8 e73b 8666 92bc 47fb 0d3c
00000260: 443c 223c 0c48 053b fe55 5fbc 8c02 7fbc
00000270: c5c5 febb e86a 8abb 966b 0dbc 3171 aabc
00000280: aa40 3d3b 68fc 9ebc c976 603a e181 3b3c
00000290: 6cb0 d8bc 6885 e5bc 0591 e6bc 9b62 2e3c
000002a0: c2e2 87bc 76b2 f4bc 7bb0 83bc 27e0 f7bc
000002b0: 7bc2 95bd e861 93bd 421d ba3b 646e 20bc
000002c0: e74b cbbb 97b3 c2bc d2ac 17bd 28bd 35bd
000002d0: 0c10 7ebe 96e3 123b 7386 3b3b 58dd 52bc
000002e0: f405 633d 6e3a ee3d 0999 1a3c dac0 9ebd
000002f0: 4cca fe3d b00b aa3c 3ec8 d23a 6c27 03bb
00000300: e2d9 d3ba b697 0e3e 777a 893b cc3c 26bc
00000310: 947c 4f39 30f7 6d3d f40c f1ba 0fa7 b83d
00000320: 8c29 22be 0aba 94bc a92a a73b c37d 3cbd
00000330: 9a20 513b 695e d33c 6584 8cbc 2e48 1c3c
00000340: 4cd5 0abd 632e 84bd 09d2 823c 1fc5 45bd
00000350: 6146 b23c 3312 d2b9 8f5b 1c3d 625a 503d
00000360: 98fb a4bb 53a9 333c 325c 713d 82d5 6abd
00000370: 9a71 e93b 3704 14be 70df e13d 358d 22be
00000380: cdc8 61bd ae3a 1ebb aede 6fbd 3b15 eabd
00000390: 2f11 39bb f7da e33d ecfc 34be fea7 3d3c
000003a0: 0227 dd3d 89c8 83bd b52f 9a3c a301 c9bc
000003b0: 118a 96bd 098c f3bd 14cd 7abd 6f31 46bd
000003c0: 3002 2fbe f5f4 e73d e70e 0f3e 5f69 173c
000003d0: 138e f83c a896 993c 42df e4bb fbf8 a9bd
000003e0: 1bd4 833c b524 13be 2678 17bd d746 35bd
000003f0: 4cfa 6e3d 1ca2 1fbd 338c 5b3d 85f4 99bd

model/v_stream/W f4 [1, 256]
-0.0035781756 0.047186926 0.024691658 0.00022452949 -0.0020207702 -0.058553807 -0.0027934955 -0.04337226
0.000621221 -0.0032929864 0.0021266404 0.0047695613 0.0006703394 0.022150626 -0.0029819217 -0.06210497
-0.005003459 0.06745688 -0.0016973292 -0.06423741 -0.00040115358 0.061882474 -0.008206596 -0.0010179181
-0.078301325 0.02612231 0.01993394 0.0733693 -0.029057091 -2.0447595e-05 0.022074336 0.0067339772
0.061776288 0.00057606347 -0.033122566 0.0030676748 0.06562487 0.0011074245 -0.03646478 0.011225974
-0.060895868 -0.006741507 -0.028155357 -0.02416739 -0.014600299 0.06263074 0.019594608 -0.02685818
0.0010680719 0.0023484712 0.071271054 0.0018200465 0.005690325 -0.023511501 0.004790267 -0.001183151
-0.0003678275 1.9787738e-05 -0.010092711 0.004582889 0.0021881394 -0.01618271 -0.002766762 0.07480846
-0.0502787 -0.015880723 0.048103437 0.07402118 0.05663563 -0.0010920989 0.043619916 -0.064507164
0.0009468655 0.010246475 0.025649011 0.019826733 0.012088579 -0.00050959684 0.03042982 -0.0022304887
-0.05522313 -0.020096352 0.010223708 0.00277845 -0.011127894 0.028395997 -0.019140763 -0.07063003
0.0019079132 0.033558816 -0.017581787 -0.087642 -0.0614764 0.014354242 0.02070281 -0.032151155
0.07511814 -0.00021321038 -0.078468546 0.054256186 0.0016907421 0.0027284352 0.003049144 -0.0016287864
0.037237767 0.0016863385 0.04819231 -0.0042501874 -0.0001879961 0.00017177107 -0.0018287976 -0.009533147
0.0064573335 -0.0050128633 0.07348367 0.07555917 0.031905495 0.023091497 0.004882173 -0.0010113628
0.036934055 0.007893892 -0.016989281 -0.006239691 -0.002635111 -0.0752563 -0.07164687 -0.0056025577
0.023734165 0.008671234 0.0115606515 0.064883865 -0.04476152 0.035372224 -0.0016164822 0.06782181
0.07895692 -0.07868548 -0.06702049 -0.009172796 -0.05251219 0.07040479 0.0006925014 -0.0020394926
0.0006604876 -0.020737613 -0.042610746 0.047569916 -0.010639182 0.004135567 0.06342175 -0.00037272484
0.016726138 0.067143984 -0.032281756 6.419163e-05 0.05586358 -0.06760168 -0.04655797 0.0042620935
-0.023169158 -0.05064532 0.06489786 -0.002348079 0.053393926 0.0004774331 -0.00027359632 0.002177128
-0.0010844709 -0.010591672 -0.08252213 -0.001563031 -0.0008872124 -0.04914097 -0.0012474946 -0.00086643145
-0.06627435 0.0046703457 0.03493453 0.0014789792 0.00013581324 -0.0017711363 0.04164409 0.013329104
-0.04348466 0.006258525 -0.0023519835 0.026409123 0.01462146 0.07815516 -0.038961966 0.0014270007
-0.06100648 -0.002143323 -0.065024726 0.00042466845 -0.0113665825 0.0041688504 -0.0039585377 0.07576389
0.0053435625 -0.034690402 0.004258984 -8.109096e-05 -0.025194356 0.06471285 -0.015392729 -0.011542208
-0.0035209458 0.03467935 -0.042725783 0.0023644315 0.060881767 0.06742685 -0.008028363 -0.020195475
-0.06524874 0.01689884 0.06640463 -0.0070141065 -0.06576529 -0.049457636 -0.0045903735 -0.011505523
-0.074028134 0.06077224 -0.046767123 0.02575035 0.0026316554 -0.029367516 0.049730744 -0.05189669
-0.047471926 -0.0012578921 -0.023180084 0.030756375 0.009084548 0.0024047657 -0.006904473 -0.03910927
-0.052911807 0.062840246 -0.0009611967 0.029719558 0.0093539795 -0.070243396 -0.048050094 -0.047517616
0.005526611 0.055328753 -0.017772382 -0.0030467294 0.044951208 -0.06425855 0.026047593 -0.0021226276
00000000: d37f 6abb 1447 413d 2946 ca3c ad6f 6b39
00000010: e66e 04bb 1ed6 6fbd 1413 37bb 1ca7 31bd
00000020: 70d9 223a 25cf 57bb 1b5f 0b3b fb49 9c3b
00000030: b7b9 2f3a 3b75 b53c 586c 43bb c861 7ebd
00000040: 0ef4 a3bb d526 8a3d eb78 deba e78e 83bd
00000050: ec51 d2b9 7a78 7d3d f574 06bc aa6b 85ba
00000060: 725c a0bd 74fe d53c 814c a33c a542 963d
00000070: 2309 eebc e086 abb7 3dd5 b43c b2a8 dc3b
00000080: 2209 7d3d f702 173a 87ab 07bd 0b0b 493b
00000090: 5566 863d 0027 913a 185c 15bd 26ed 373c
000000a0: f26d 79bd dce7 dcbb 10a6 e6bc b1fa c5bc
000000b0: 1836 6fbc 8c44 803d df84 a03c b005 dcbc
000000c0: 8cfe 8b3a cfe8 193b 8ff6 913d a08e ee3a
000000d0: e875 ba3b 319b c0bc acf7 9c3b f613 9bba
000000e0: f9d8 c0b9 d8fd a537 e65b 25bc 0f2c 963b
000000f0: e366 0f3b 9a91 84bc 9052 35bb 2e35 993d
00000100: 0af1 4dbd 4a18 82bc 1c08 453d 6b98 973d
00000110: c3fa 673d c224 8fba ccaa 323d 551c 84bd
00000120: 1137 783a d5e0 273c e01d d23c ac6b a23c
00000130: 2d0f 463c 7796 05ba f547 f93c 642d 12bb
00000140: a631 62bd 1ba1 a4bc 5781 273c a816 363b
00000150: c551 36bc b99e e83c 17cd 9cbc 7aa6 90bd
00000160: f212 fa3a f874 093d ae07 90bc a67d b3bd
00000170: adce 7bbd 0e2e 6b3c f098 a93c eeb0 03bd
00000180: 8ad7 993d 3a91 5fb9 1eb4 a0bd bc3b 5e3d
00000190: e49b dd3a 8ccf 323b 26d4 473b 017d d5ba
000001a0: a186 183d 2108 dd3a 4d65 453d 2845 8bbb
000001b0: d220 45b9 721d 3439 44b4 efba eb30 1cbc
000001c0: 0a98 d33b f242 a4bb 9b7e 963d c4be 9a3d
000001d0: 56af 023d 612a bd3c a3fa 9f3b b48f 84ba
000001e0: 2a48 173d 6255 013c 1b2d 8bbc 5276 ccbb
000001f0: d4b1 2cbb fa1f 9abd 98bb 92bd a995 b7bb
00000200: 276e c23c cb11 0e3c e368 3d3c d5e1 843d
00000210: db57 37bd 77e2 103d 24e0 d3ba 29e6 8a3d
00000220: 2ab4 a13d da25 a1bd 0a42 89bd 7f49 16bc
00000230: 0617 57bd 6330 903d fb88 353a 02a9 05bb
00000240: 9324 2d3a ede1 a9bc 9b88 2ebd acd8 423d
00000250: f74f 2ebc a783 873b 43e3 813d 486a c3b9
00000260: 4105 893c c982 893d e039 04bd 9e9e 8638
00000270: 36d1 643d c072 8abd 92b3 3ebd 08a9 8b3b
00000280: 3fcd bdbc 7871 4fbd 2be9 843d 3be2 19bb
00000290: 97b3 5a3d fc4f fa39 7a71 8fb9 26ae 0e3b
000002a0: ce24 8eba b188 2dbc 5d01 a9bd 9ede ccba
000002b0: d193 68ba 0b48 49bd f982 a3ba 3b21 63ba
000002c0: d9ba 87bd b309 993b 8217 0f3d 4fda c13a
000002d0: 1769 0e39 7925 e8ba fe92 2a3d 5062 5a3c
000002e0: f91c 32bd 5014 cd3b bc23 1abb f257 d83c
000002f0: d98e 6f3c d00f a03d 9596 1fbd 330a bb3a
00000300: eee1 79bd fe76 0cbb af2b 85bd 09a6 de39
00000310: e73a 3abc da9a 883b 9fb6 81bb 192a 9b3d
00000320: 0d19 af3b 8617 0ebd f28e 8b3b 610f aab8
00000330: 6564 cebc 2c88 843d c931 7cbc 871b 3dbc
00000340: abbf 66bb ef0b 0e3d 3b01 2fbd 94f4 1a3b
00000350: 295f 793d 1717 8a3d 6589 03bc fb70 a5bc
00000360: 22a1 85bd 706f 8a3c 27ff 873d 97d6 e5bb
00000370: f4af 86bd 1794 4abd d86a 96bb a981 3cbc
00000380: 109c 97bd 50ec 783d e28e 3fbd 66f2 d23c
00000390: da77 2c3b 2594 f0bc 77b2 4b3d a091 54bd
000003a0: ec71 42bd dbdf a4ba 29e4 bdbc cbf4 fb3c
000003b0: 5bd7 143c 4699 1d3b eb3e e2bb 0b31 20bd
000003c0: 0dba 58bd 63b2 803d d2f8 7bba 6e76 f33c
000003d0: 6f41 193c c5db 8fbd 2dd0 44bd d5a1 42bd
000003e0: 9318 b53b 67a0 623d 6397 91bc a3ab 47bb
000003f0: c21e 383d fd99 83bd c361 d53c c81b 0bbb
