ai_challenge/results/simulation_DoubleDQN_DuelingRecNN_2017-05-19T19:40:53.24/720006/target_model.npz (npz, 632649 bytes, 12 tensors)

model/hidden/input_layer/b f4 [256]
000000 fb 1f 94 bd 5d 5f e5 bc 30 1a 9a bd 8b 6c 88 bd
       -0.07232662 -0.027999574 -0.07524526 -0.06661328
000010 c3 18 1a bd 5e 0e 77 bd 14 6b 8b bd 1a a5 01 be
       -0.03762127 -0.060316436 -0.06807533 -0.12660637
000020 ff fb 07 bd 7f 11 0f bc 19 e6 d5 3c 2a 80 5f bd
       -0.033199307 -0.008732199 0.026110696 -0.054565586
000030 85 ff 10 bd 8a db d9 bc 43 ba ac bd 3f da 58 bd
       -0.035399932 -0.026593942 -0.08433964 -0.05294251
000040 c4 76 54 bd 49 4b 57 bd fc 0a 87 bd 97 03 ab bd
       -0.051871076 -0.052562032 -0.06593892 -0.08350294
000050 17 00 96 bd 66 87 d3 bc c4 09 ad 3b 1c 79 04 bd
       -0.07324236 -0.025821399 0.005280705 -0.03234206
000060 fa e5 a3 bd 75 00 37 bd 38 89 38 bd 2f 13 43 bc
       -0.08002849 -0.04467817 -0.045052737 -0.011906429
000070 9a 70 4c bd 91 25 54 bd 03 23 d7 bd d9 c5 0f bd
       -0.049912073 -0.05179364 -0.10504725 -0.03510079
000080 b3 8c 81 bb a1 f0 00 bd 33 a6 1e 3d 73 e8 52 bd
       -0.00395354 -0.03147948 0.03873272 -0.051491212
000090 d0 5f 81 bd e2 3d 6c bd 9c 5a a3 bd d1 5b 24 bd
       -0.06317103 -0.057676204 -0.07976267 -0.040126625
0000a0 23 a9 9a bc 59 3c 7d bd 19 25 1c 3d f9 5f 79 bd
       -0.018879479 -0.06182513 0.038121317 -0.060882542
0000b0 81 0e 83 bd 7c a6 46 bd f7 03 ed bc 1a c1 83 bd
       -0.06399251 -0.048498616 -0.028932555 -0.064333156
0000c0 b3 c0 72 3c de 38 6c bd 2c b6 b0 bd ff 0d b9 bc
       0.014816451 -0.05767142 -0.086284965 -0.022589682
0000d0 c6 c6 85 bd 1f 38 4c bd 49 0c 61 bd a5 a6 a7 bd
       -0.06532054 -0.04985821 -0.054943357 -0.08186082
0000e0 c9 05 3f bd b4 21 93 bd 5f bc 49 bd ad f1 9f bd
       -0.046636377 -0.07184163 -0.04925191 -0.07809768
0000f0 97 0f 83 bd b7 cb 81 bd 6d 75 63 bd 86 7d 19 bd
       -0.06399458 -0.06337684 -0.055531908 -0.037473224
000100 31 2e 9e bc 9e 63 77 bd b2 0e 32 bd 08 1c 2c bd
       -0.019309135 -0.060397737 -0.043471046 -0.04201892
000110 f6 bb 6f bd 3c 78 9b bd d5 27 74 bd 5d d8 dd bd
       -0.058528863 -0.07591292 -0.0596083 -0.10832284
000120 7f 25 5d bd 27 d4 d9 bb 34 28 7a bc 5a 9d c1 bd
       -0.053990837 -0.006647605 -0.015268374 -0.094538406
000130 aa a3 f9 bc cf 73 54 bd cd 61 c8 bc 72 7b b0 bd
       -0.030473549 -0.051868256 -0.024460698 -0.08617295
000140 e3 31 ad bd 2a c9 63 bd f6 a9 93 bd 26 3d 9a bd
       -0.08456781 -0.055611767 -0.07210152 -0.075311944
000150 ec 11 67 bd 1c 1c b7 bd dc 3d c4 bd fe 49 cd bd
       -0.056413576 -0.08940908 -0.09582111 -0.100238785
000160 dc 88 1f bd 18 33 b0 bd e9 ac d7 3c 11 2e 67 bd
       -0.03894888 -0.08603495 0.026327567 -0.056440417
000170 80 5b 90 bd 5c 4b 3f bd 66 81 bc bc 63 b0 37 bd
       -0.07048702 -0.046702728 -0.02301092 -0.04484595
000180 25 b1 e3 bc 94 c2 86 bc 80 05 e9 bc 01 65 d1 bc
       -0.02779443 -0.016450204 -0.028445005 -0.025560858
000190 0f d5 d5 bc 06 49 86 bd df a8 d7 bc 36 ff d9 bc
       -0.02610257 -0.06556897 -0.026325641 -0.026610952
0001a0 53 59 db bc ea 53 b7 bc 1b 26 55 bc ea 9e 91 bd
       -0.026775992 -0.02237888 -0.013009573 -0.071103886
0001b0 9e d3 c3 bc a6 47 d3 bd be cd 54 bd 8c e5 8d bd
       -0.023904618 -0.103164 -0.051954024 -0.06928548
0001c0 48 84 81 bd 35 a4 e6 bd 12 70 5b bd 0d 87 4a bd
       -0.06324059 -0.11261789 -0.053573675 -0.0494452
0001d0 48 4f ae bd 1e 6b 61 bd 5e 37 b8 bd 4d e9 91 bd
       -0.085112154 -0.055033796 -0.089949355 -0.07124577
0001e0 3c b8 c0 bd 73 4f ca bc 09 85 39 bd 30 8b d7 bd
       -0.0941014 -0.024696087 -0.045292888 -0.10524595
0001f0 ad fd d8 bd 76 90 2a bd 69 a2 a7 bd 4e 98 5c 3c
       -0.1059526 -0.041641675 -0.08185274 0.013464047
000200 14 af 74 bc c7 93 08 bd df a5 6b bd a4 2b 03 bd
       -0.01493432 -0.033344056 -0.057531234 -0.03202404
000210 10 8e cb bc d0 54 13 bd ee 2e 1b bd 9d 2b 83 bd
       -0.024848014 -0.035969555 -0.037886553 -0.06404803
000220 3a c3 7f bd 63 18 4f bd 44 fc 9f bd 62 33 ca 3b
       -0.062442042 -0.050560366 -0.07811788 0.006170676
000230 1b 16 3b bd 3d 51 ab bc 86 b8 46 bd 75 78 81 bc
       -0.04567538 -0.02091276 -0.04851582 -0.015804509
000240 62 c7 05 bd 94 0a c4 bc 0f f2 8c bd 41 86 7e bd
       -0.03266085 -0.023930825 -0.068821065 -0.062139753
000250 bb c0 c7 bd 4e 8c a2 bd 5a 3b 20 bd 19 75 a2 bd
       -0.09753557 -0.07936917 -0.039119102 -0.07932491
000260 90 31 b3 bd 81 30 2b bd c1 c4 91 bd 67 99 29 bd
       -0.08749688 -0.041794304 -0.07117606 -0.04140606
000270 94 a4 87 bd a2 9e 1a bd 69 47 98 bc 78 2d 63 bd
       -0.06623188 -0.03774894 -0.018588739 -0.055463284
000280 8f ac 81 bd 12 33 d6 bd 90 a2 ae bb 3b c1 93 bd
       -0.06331741 -0.1045896 -0.0053294376 -0.0721459
000290 f9 46 1e bd d2 ef fb bc 55 76 9e bd df c9 ae bb
       -0.038641904 -0.030754004 -0.07737414 -0.0053341235
0002a0 55 7f 58 3c eb 6a 75 bd 52 56 37 bc 9b a3 d6 3b
       0.013213952 -0.059916418 -0.011190014 0.006550265
0002b0 31 40 cd bc 5b 76 da bc ae de 75 bc 43 a0 06 bd
       -0.025055023 -0.026667764 -0.015006704 -0.03286768
0002c0 10 d5 25 bd e7 08 5f bd 76 f9 b3 bd 00 46 ab bd
       -0.040486395 -0.05445185 -0.08787815 -0.08362961
0002d0 5d 53 6c bd 82 78 41 bd 3f 57 36 bd 39 73 4a bd
       -0.05769669 -0.047234066 -0.044516798 -0.04942629
0002e0 7c 59 1f bc 30 0f 87 bd 32 7f 23 bd 41 1a a5 bd
       -0.009725925 -0.06594694 -0.039916225 -0.08061648
0002f0 6a 53 93 bd c3 ed 8b bd c1 54 8a bd 24 23 c5 bd
       -0.07193644 -0.06832459 -0.06754447 -0.09625843
000300 80 52 8b bd c5 46 a4 bd ac e2 8d bd 1e 11 79 bd
       -0.06802845 -0.08021311 -0.06928 -0.06080734
000310 13 88 7b bd 91 94 80 bd 73 4c 9a bd cd 23 9c 3c
       -0.061409067 -0.06278337 -0.07534113 0.01906004
000320 ed 00 13 bd 6d 1a 9c bd 8b 65 7f bd e2 da ae bd
       -0.035889555 -0.07622228 -0.0623527 -0.08537842
000330 18 cd 7d bd 44 f7 67 bd 04 88 2d bd fc 4e 44 bd
       -0.06196317 -0.056632295 -0.042366043 -0.047926888
000340 c2 8e 31 bd 13 84 60 bd 54 73 37 bd e7 11 73 bd
       -0.043349035 -0.054813456 -0.04478772 -0.059343245
000350 f0 ca 89 bd fb 4e ca bc ea 8c b0 bd e7 ff ba bd
       -0.067281604 -0.024695864 -0.08620627 -0.09130841
000360 04 51 50 bd 8a 3a af bd e6 e7 a8 bc c5 7e 70 bd
       -0.050858513 -0.08556087 -0.02061839 -0.058714647
000370 29 f2 8d bd 62 2f 9a 3b 31 c4 97 3c d2 2b a9 bb
       -0.06930954 0.0047053555 0.018526169 -0.0051626945
000380 d9 1c 0b bd 5f ef 40 bc 4a 89 40 bd aa 1a 86 bd
       -0.03396306 -0.0117758205 -0.04700593 -0.065480545
000390 43 e9 28 bd 4d cd 21 bd af 74 97 bd 89 15 1b bd
       -0.04123808 -0.03950243 -0.073953025 -0.037862334
0003a0 80 5e 56 bd 25 39 e6 3b 29 db be bb f1 8f 33 bc
       -0.052336216 0.007025855 -0.005824466 -0.010959611
0003b0 e4 6e 67 bd f6 c5 fc bc fb cc 32 bd 6d 7c 81 bd
       -0.056502238 -0.030856114 -0.043652516 -0.063225605
0003c0 76 e1 33 bd 08 e5 52 bc 35 2f 90 bd 2f d4 72 bd
       -0.04391619 -0.012871988 -0.07040254 -0.059284385
0003d0 2b 79 63 bc b8 3e 25 3d b2 6c 8d bd 37 2f 95 bd
       -0.013883869 0.040343016 -0.069054976 -0.07284396
0003e0 3e 1d e6 bc 39 76 79 bd 87 b1 ed 3c 34 bf 9a bc
       -0.028090116 -0.06090376 0.029015316 -0.01889
0003f0 f8 1a 31 bc c7 77 be bd dc 9c 86 bd 0e 14 86 bd
       -0.0108096525 -0.093001895 -0.06572887 -0.06546794

model/hidden/output_layer/b f4 [256]
000000 59 8c cb 3c e6 94 34 bc 00 a2 44 ba e9 e3 89 bc
       0.024847196 -0.011021828 -0.00075009465 -0.016832309
000010 73 01 4f 3c 2f 5a d3 3b d1 ec 90 3b 66 f4 6b 3c
       0.012634623 0.0064499597 0.004422762 0.014401531
000020 4c 7c 83 bc 49 5b 5b 3c 41 61 ad bc 77 be 10 3b
       -0.01605048 0.013388463 -0.021164538 0.0022086182
000030 ba c4 96 3c 5b b0 92 bb bc c6 c5 3c d9 22 20 3c
       0.018404353 -0.0044765896 0.024142615 0.009773933
000040 e4 d8 04 bc ee 36 51 39 0b bb ab bc 42 9a 16 3c
       -0.008108351 0.00019952256 -0.020963212 0.009192051
000050 cc eb 8c bc a0 38 2d bc 10 a9 a8 3b 9c cb 6d bb
       -0.01720228 -0.0105725825 0.005147107 -0.003628469
000060 a8 7d 30 bc 9a 05 b8 3a 0e 9a a0 bc df 3c 05 3b
       -0.010772146 0.0014039755 -0.019604709 0.0020330471
000070 fc 6c 70 ba 04 aa bb 3c 3c aa ca bc 50 78 64 bc
       -0.00091715134 0.022908218 -0.024739377 -0.0139447
000080 bb 5f da ba 72 c8 a1 bc 11 73 81 3c 82 21 80 3a
       -0.001666061 -0.0197489 0.015801938 0.0009775611
000090 a0 fd 07 bc 78 aa 88 3b 80 b2 85 3c 01 b7 86 b9
       -0.008300215 0.004170712 0.016320467 -0.0002569482
0000a0 9e 0e 25 3c 0d b2 35 3b 65 d3 90 3b e9 d5 b8 3c
       0.010074286 0.0027724535 0.0044197314 0.022562938
0000b0 d2 ac 2e 3b bc 36 20 bc 66 77 ac bc b3 69 c3 3b
       0.0026653302 -0.009778675 -0.021053027 0.005963528
0000c0 d5 81 87 bc 75 a5 2f 3c 8c 0c fd bb 3f c7 8e bc
       -0.0165414 0.0107206 -0.007722443 -0.017428992
0000d0 5b 08 97 bc a8 f8 8f 3b 6a a2 e3 bb 68 e9 8f bb
       -0.018436601 0.004393656 -0.0069468515 -0.004391838
0000e0 1f 7b 8b bc 42 7d 84 bc b6 7a 9c 3b 1b 41 29 3a
       -0.017026482 -0.016173009 0.0047753705 0.000645654
0000f0 6a c3 b9 bb 68 13 8e 3c 68 16 8e 3c 83 b0 9b bb
       -0.005669047 0.017343238 0.017344669 -0.0047512664
000100 fc 5b 45 3c 88 03 8a 3c 54 d3 7a bc 25 a6 c5 bb
       0.012045857 0.016847387 -0.015309174 -0.006031769
000110 28 fe 57 bc a8 91 91 bc 06 e4 6b bc 3a 0c 4d 3c
       -0.013183154 -0.01776965 -0.014397627 0.012515122
000120 d8 f2 69 bc b0 e2 d9 bc 67 13 ed bb ab 46 a7 bb
       -0.01427909 -0.02659735 -0.007234979 -0.00510486
000130 29 74 4e bc fe 34 02 3c e5 af 98 bb 17 1a e1 3b
       -0.012600937 0.007947205 -0.00465964 0.006869565
000140 fb 9f db bb ed 61 47 bb 78 5c d9 bb 66 42 27 3c
       -0.006702421 -0.0030423359 -0.0066333376 0.010208702
000150 e4 32 cb 3b 6e 9e be bc 10 52 a0 3b 4c 87 fa 3b
       0.006201135 -0.023268905 0.004892595 0.007645523
000160 21 73 8e bc 67 35 9e bc ad 79 34 3b 7b 95 76 3b
       -0.017388882 -0.019312574 0.0027538345 0.0037625718
000170 03 fc 2c 3c 24 af 4f 3a ff dc 82 bc 27 cd 8d 3c
       0.010558131 0.00079225213 -0.01597452 0.017309738
000180 04 9f b3 bb 11 c2 4b bc 9a 97 d0 3b 9e c2 1b bc
       -0.0054816026 -0.012436406 0.0063657286 -0.00950685
000190 ee 37 8d 3c a3 73 c3 bb aa 8e c2 bc 50 a8 81 ba
       0.017238583 -0.0059647127 -0.023749668 -0.000989208
0001a0 46 c7 d0 bb d3 62 b1 3c 6b 88 75 bc 77 12 56 3b
       -0.0063714115 0.021653568 -0.014986138 0.0032664814
0001b0 d4 dd 49 3c 50 2d 0f bc 1f c1 ca 3c 81 25 8a 3b
       0.012320954 -0.008738831 0.02475029 0.0042158966
0001c0 24 d7 e3 bc 5c 67 00 3c 49 e7 f4 bb ff 28 d3 bb
       -0.027812548 0.007837143 -0.0074738604 -0.006444096
0001d0 19 c8 b0 bc 40 41 51 bc fc 9d bf 3a a4 e4 90 3c
       -0.021579789 -0.0127719045 0.0014619227 0.01768715
0001e0 11 aa 26 bb e3 83 5d ba fc 99 9d 3c f6 7c eb 3a
       -0.0025430957 -0.00084501336 0.019238465 0.0017966318
0001f0 97 a9 5c bc 8e 32 cd 3b c6 13 01 3c d4 27 fc 3b
       -0.013468168 0.00626213 0.0078782495 0.0076951776
000200 d1 e0 9e bb 26 69 c0 bc ba af 4c 3b 7d 40 17 bc
       -0.0048485775 -0.023487639 0.003123267 -0.009231684
000210 b2 91 81 3c 75 7c 07 bc 02 84 fa bb 09 8d 29 bc
       0.015816543 -0.008269419 -0.007645131 -0.010348567
000220 8a 1b be bb b2 19 4e 3b 07 2f 20 3c ea d5 89 3c
       -0.0058016228 0.003144842 0.009776837 0.016825635
000230 e2 0b 7d 3c cc 34 c4 bb 51 c1 5a 3c 40 88 67 bb
       0.015444728 -0.005987739 0.013351754 -0.0035329014
000240 04 6b 97 bc 40 b1 ac 3c 4d 01 6e 3c 92 db 1f bc
       -0.018483646 0.021080613 0.014526677 -0.0097569395
000250 d1 1c 10 3c 4d 11 b2 bc fa fa 13 bc e5 43 49 3c
       0.008795933 -0.021736765 -0.009032005 0.012284254
000260 93 51 df bb dc 74 12 bc 87 bd 32 3c 57 bd 47 3c
       -0.0068151443 -0.008938994 0.010909445 0.012191138
000270 4f de 0d bc a0 33 21 3a fe da 8c 3b 55 8c 60 3c
       -0.0086589595 0.00061493553 0.004298567 0.013705333
000280 b9 cb 93 3b d6 cc 16 3c 54 f8 9d bb 36 70 4e 39
       0.0045103696 0.00920411 -0.004820863 0.00019687493
000290 1b 55 26 bc ac d1 b5 bc a2 14 a8 bc 0b 82 c2 bb
       -0.010152127 -0.022194706 -0.020517651 -0.0059359125
0002a0 67 3e 42 3c 04 b8 88 3b ce 4b c9 3b fd 58 92 bc
       0.011855698 0.004172327 0.00614307 -0.017864699
0002b0 44 61 18 bc 0e 51 80 3c 52 85 ac 3c 74 e4 76 3c
       -0.009300534 0.01566365 0.021059666 0.015069116
0002c0 5d 6d 60 3a d4 28 be 3b 48 ee 93 bb ac 89 a0 3b
       0.0008561218 0.005803207 -0.0045144893 0.0048992243
0002d0 1c a6 ab 3c 23 fe 85 3c 6a 1b 91 bc c8 9f 8b bc
       0.02095323 0.016356533 -0.017713267 -0.017043963
0002e0 4a 2c 9b 3c 59 5a 8d bc 1c 7a 94 3c 70 fc c8 bb
       0.018942017 -0.017254995 0.018124633 -0.0061336085
0002f0 33 60 97 bc 21 8c ad bb 64 a9 60 3c 0d 4e b0 bc
       -0.018478489 -0.0052962457 0.013712261 -0.021521593
000300 2e 94 a5 b7 9b d6 82 3b 5f 3e 99 3a cb b6 79 bc
       -1.9738534e-05 0.003992868 0.0011691562 -0.015241335
000310 f5 a1 b1 3c 62 f7 71 bc 21 92 a9 3c 16 93 df bb
       0.021683672 -0.014768453 0.020699563 -0.006822954
000320 c0 9f 48 3b f1 39 66 3c df 12 42 3c 0d 71 93 bc
       0.0030612797 0.0140519 0.0118453195 -0.017998243
000330 0c 4c 06 3b 3f 79 33 bc 86 b7 8b 3c 74 90 a8 3b
       0.0020492105 -0.0109542 0.017055284 0.0051441733
000340 02 da 59 bc ee 2d 38 bc d4 bd c7 b9 d1 60 5c 39
       -0.013296606 -0.011241419 -0.0003809767 0.00021016902
000350 0c cf 41 bc 6d 71 17 bc 50 b6 a8 3b 69 63 6c 3c
       -0.011829149 -0.009243351 0.0051486865 0.014427998
000360 e0 7e 18 3c 5b 31 24 bb cb 6f 2a bc 75 b4 bc 3c
       0.009307593 -0.0025053832 -0.01040263 0.023035267
000370 04 3c fa 38 10 8d 65 3c ab cf ce 3c 7a f3 90 bb
       0.00011932108 0.014010683 0.025245508 -0.004423556
000380 ab f9 f6 3b 4f 24 b8 ba d7 4b 35 3c 11 24 86 bc
       0.007537087 -0.0014048907 0.011065445 -0.01637462
000390 c9 18 b8 bc 63 07 83 3c 24 87 7a bc 81 7e 84 3c
       -0.022472756 0.015994733 -0.015291009 0.016173603
0003a0 be 37 64 3c c1 11 91 bb 48 58 93 3b b2 76 78 bc
       0.013929306 -0.0044271653 0.004496608 -0.015165018
0003b0 cd d0 98 bc 39 c9 88 bc e5 16 ce 3c 05 76 36 3c
       -0.018654251 -0.016697513 0.025157401 0.0111365365
0003c0 44 db 6a 3c 16 49 c4 bb fa 3e 21 3c 40 38 57 bc
       0.014334504 -0.005990158 0.009841675 -0.01313597
0003d0 eb 0a 65 bb 32 da ed 3b 19 31 55 3b a7 7f a5 3b
       -0.0034949135 0.007258677 0.0032530485 0.0050506177
0003e0 ed 0d 58 3b 7f 81 34 bc 25 b3 94 3c 37 08 cb 39
       0.0032967285 -0.011017202 0.018151829 0.00038725298
0003f0 6e 94 76 ba a0 33 a5 3b b5 b3 3b bb 38 a4 89 3b
       -0.0009406273 0.0050415546 -0.002864105 0.0042004846

model/a_stream/W f4 [3, 256]
000000 a3 52 64 bc 8f 73 70 3c fd 42 ef bc 01 db 16 3c
       -0.013935718 0.014675989 -0.029206747 0.009207488
000010 b9 2d 5d bb cb fb dc bc ab 4c e3 ba aa d2 52 bc
       -0.0033749177 -0.026975533 -0.0017341574 -0.012867609
000020 c0 8a 3d 3c b6 8a b4 ba c6 24 93 3b e9 61 3b bc
       0.011568725 -0.0013774249 0.0044904677 -0.011436918
000030 63 f6 1b bc 52 16 e2 bc bd fb f4 bb cc 6b 9f bb
       -0.009519192 -0.027598534 -0.0074762986 -0.0048651453
000040 c6 57 cb b9 b7 ec 11 bd 20 9b 0a 3c 59 a6 20 bc
       -0.00038784574 -0.03562614 0.008459836 -0.009805285
000050 d2 f8 bf 3b 0d ff cb 3b 56 04 a4 b8 3f 97 4d 3b
       0.005858519 0.006225473 -7.820937e-05 0.0031370667
000060 68 22 2c 3d 29 01 0e bd 40 41 8a 3c 39 78 51 bd
       0.042025 -0.034669075 0.016876817 -0.051140044
000070 a8 c3 1c 3d 0a 74 56 bc 4e 21 25 3c 12 3f fe 3a
       0.03827253 -0.013089189 0.010078741 0.0019397459
000080 59 21 49 bd 08 18 1a 3c 2b c4 8e bc 4b 92 41 bb
       -0.04910407 0.009405144 -0.017427525 -0.002953666
000090 e1 21 c8 3c c1 bb 01 bc 3a 89 8d 3a 4f d6 3c bc
       0.024430217 -0.007918299 0.0010798343 -0.0115257045
0000a0 94 8e 75 bc c0 c0 1e 3c 76 23 dd 3c 1d d0 b2 ba
       -0.014987607 0.00968951 0.026994448 -0.0013642345
0000b0 66 bb b2 3c ad cf 4c 3c f4 d9 41 3c 88 3a e5 3c
       0.021817874 0.012500686 0.011831749 0.027982011
0000c0 7e 06 82 3c 2a af 2f bc c9 ab 11 3c e1 81 53 3b
       0.015872236 -0.010722915 0.008891054 0.0032273459
0000d0 02 a4 df 3b ea 6c b7 3c ad da 7f 3a 61 2e ec 3a
       0.006824971 0.022390801 0.0009760063 0.0018019193
0000e0 99 ab 80 3c d1 0d 6b 3c 2b 72 9f 3c 8c 50 ee 3b
       0.015706824 0.014346556 0.01946362 0.0072727855
0000f0 49 91 44 3b ca ff a3 3b 24 b1 99 ba 54 c8 53 bc
       0.0029993823 0.0050048577 -0.0011725766 -0.01292618
000100 74 c3 95 bc 08 a5 cb bc 70 00 ab 3b 5c 96 ef ba
       -0.018281676 -0.024858966 0.005218558 -0.0018279064
000110 39 56 5a bb 8d d7 e0 3b 5e 42 59 3c 09 04 bd bb
       -0.0033315553 0.006861633 0.013260452 -0.0057683033
000120 b6 e0 18 3c b3 d6 24 3b c4 b7 fa bc 6a fe b5 bc
       0.009330919 0.0025152385 -0.030605204 -0.02221604
000130 ea 60 cb 3c 9a a4 71 bc 04 11 0e bd f4 86 41 3b
       0.024826486 -0.014748717 -0.034684196 0.0029529901
000140 78 e1 05 3d 69 e0 ff 3c fc c7 ea bb f2 16 64 bc
       0.032685727 0.031234937 -0.0071649533 -0.013921486
000150 b4 bd 40 3c 24 e3 8b ba 79 0a 8d 3c 6e 56 aa 3c
       0.011763979 -0.0010672552 0.017216908 0.020793166
000160 4f 6b ec 3b 53 a8 16 3c 7d b3 d3 3c a2 b8 4f bb
       0.0072149406 0.009195405 0.025842423 -0.0031695743
000170 ef 46 70 bb 11 2e 9f bc 49 c0 58 3b 6e aa 12 bc
       -0.0036663373 -0.019431146 0.0033073595 -0.008951766
000180 d7 07 53 3c 55 fc 20 3b 3c ed ca bb 7d 65 0f bc
       0.012880287 0.0024564464 -0.0061928313 -0.008752224
000190 d5 57 1f 3b 35 97 9f ba 2e 72 6f 3c 66 07 13 3c
       0.0024313827 -0.00121758 0.014614625 0.008973932
0001a0 8f f7 03 bd 12 19 9b bc 6c 01 15 3c 42 f2 ce 3b
       -0.032218512 -0.018932853 0.009094577 0.0063155005
0001b0 23 17 46 bc 2d 5c ee 3a 1f c7 75 bc 3d 6b 03 3c
       -0.012090477 0.001818543 -0.015001087 0.008021173
0001c0 64 4f 7d 3b c5 5f 20 3c 10 eb 2a b9 ac d9 2c 3c
       0.0038652057 0.009788458 -0.00016300031 0.010549944
0001d0 1e 19 6a 3c 80 b1 00 3c 7d ae 0a bc 01 a9 10 b9
       0.014288215 0.007854819 -0.008464453 -0.00013795869
0001e0 64 b4 f0 bc 2d d6 3f bc 60 07 c6 bc df 6e 2a bb
       -0.029382892 -0.011708778 -0.024173439 -0.0026006026
0001f0 f2 2d 85 3c 0c 69 d5 3b e4 4c b5 39 0d 28 52 39
       0.01625726 0.0065127667 0.00034580298 0.0002004208
000200 aa a8 d5 bc 19 93 46 3c 74 07 60 bc a3 d0 6a bc
       -0.026081402 0.012120032 -0.013673652 -0.014331969
000210 3b 07 98 bb bb 97 88 bc 59 70 84 3c 4e 23 21 3b
       -0.004639534 -0.016673913 0.016166853 0.0024587694
000220 09 b2 12 3c 74 89 87 3c 42 c2 a2 3b 8d 00 f3 bb
       0.00895358 0.016545035 0.004967005 -0.007415837
000230 a5 70 74 39 07 f3 63 3c b2 50 02 bc 55 c7 79 3b
       0.00023311617 0.013912923 -0.00795381 0.0038113196
000240 64 c7 b2 3b a0 9c 87 bc 3c ac 85 bc 75 49 7e 3c
       0.005455898 -0.016554177 -0.01631748 0.015520443
000250 5c fd a4 3b 5f 90 f2 3b 4e 6c 9a 3b c4 10 64 bb
       0.0050350856 0.0074024643 0.004712618 -0.0034800032
000260 43 58 c8 bc 76 a2 8e 3c ab 49 b6 3c 93 0f 19 bc
       -0.024456149 0.017411452 0.022251924 -0.009342092
000270 ec 90 9d 3c 98 94 1c 3d 1a e2 32 3d 2f c8 82 bc
       0.019234143 0.038227648 0.04367266 -0.015964596
000280 64 67 d3 3c 62 9a d4 bc bf d0 42 bc 0c b9 2e 3c
       0.025806136 -0.025952522 -0.011890589 0.010664236
000290 f7 32 b6 3c b1 69 11 3c 59 cb 0e 3c da 97 aa ba
       0.022241099 0.008875296 0.008715474 -0.0013015226
0002a0 1f ab a6 bb f1 98 a4 3c e1 a6 ee 3b 99 62 9d 3c
       -0.005086317 0.02009246 0.007283077 0.019212054
0002b0 52 b8 15 3c 76 f3 87 bb b9 df 95 bb c1 79 95 bb
       0.009138184 -0.004148896 -0.004573789 -0.0045616333
0002c0 59 da 42 3d b2 2f 6a 3b 40 08 f2 bc 85 90 a1 bb
       0.047571514 0.0035733995 -0.02954495 -0.004930558
0002d0 d4 37 77 bc 1b 73 fa bb 55 6a cd 3b f4 66 85 3c
       -0.015088994 -0.007643116 0.0062687793 0.016284443
0002e0 fe 19 15 3b 99 6d 0f 3b 94 97 cc 3b db 14 fe bc
       0.0022751088 0.0021885394 0.0062436555 -0.031015804
0002f0 14 5e a4 3c d9 53 99 bb c7 12 97 bc 79 6b d8 3b
       0.020064391 -0.004679185 -0.01844157 0.0066046086
000300 7d b8 3d 3d ae e7 6f 3b c3 34 10 3d 9f 47 9a bd
       0.04631852 0.0036606598 0.035206567 -0.07533192
000310 91 54 98 bc 57 0a 72 3c 91 46 c5 bc 29 7d b7 3b
       -0.018595012 0.014772973 -0.0240815 0.005599637
000320 1d 8c 02 bc 58 5d e9 bb b4 d0 20 bc 72 88 6c 3c
       -0.007967976 -0.007121723 -0.009815384 0.014436828
000330 62 72 4a 3d b5 96 a7 39 90 e1 cb bc ba 4d ef 39
       0.04942549 0.00031965008 -0.02488783 0.00045643543
000340 ad bc 11 3c 38 54 9b bc 79 92 3b 3d cb 86 d0 ba
       0.0088950815 -0.018961057 0.045793984 -0.0015909312
000350 0b ca bb 3b 26 0a 4d 3b a4 d1 6c 3c ff ae 6c bc
       0.0057308725 0.0031286567 0.014454279 -0.014446019
000360 99 38 d5 bb f2 5f a5 bc 7b 88 1a bb aa 93 0b bc
       -0.006506991 -0.020187352 -0.0023579884 -0.008519093
000370 89 9b 0e 3d 4e 75 34 bc 67 ce bc bb 9d 25 b2 3c
       0.0348163 -0.011014296 -0.0057619098 0.021746451
000380 b1 4c 2c bc 96 3a 54 bd f4 da 85 3c f1 c2 8c 3c
       -0.0105163315 -0.051813684 0.016339757 0.017182799
000390 d9 4e 9b 3b ca 82 6a bc 3a 72 26 3c 21 a3 c5 bb
       0.004739624 -0.014313409 0.01015907 -0.0060314094
0003a0 98 57 b0 bb 98 e1 0a 39 3b 8c 4e 3d db 29 88 bb
       -0.0053815357 0.00013244746 0.050426703 -0.00415538
0003b0 7f 60 a9 3c 41 d4 dd 3b b7 8f 13 bc ca fa a5 3c
       0.020675896 0.0067696874 -0.009006432 0.020261187
0003c0 a9 25 51 bc 05 8b 61 bc bc c4 5c bc e3 92 e3 3c
       -0.012765327 -0.013766055 -0.0134746395 0.027780002
0003d0 f7 eb 74 bc db aa 43 bc 48 94 47 3d 38 93 4d 3d
       -0.0149488365 -0.011942591 0.048725396 0.050189227
0003e0 7e 86 59 bc 6f ca c4 3b 01 e8 cd bc 68 56 e6 3b
       -0.013276694 0.0060055773 -0.025135042 0.0070293434
0003f0 02 a9 db bc 76 34 db 3c 12 42 06 bd 78 1d eb 3b
       -0.026813988 0.026758414 -0.032777853 0.007175144

model/hidden/mid_rec_layer/upward/W f4 [80, 86]
000000 4e ef 04 bd d5 43 0b bd ec ff a7 3c f2 87 4b 3d
       -0.03245478 -0.034000237 0.020507775 0.049690194
000010 6d c2 8c 3b 7d a5 fc 3c 16 a8 b2 3b 48 f0 9c bc
       0.0042956383 0.03084063 0.0054521663 -0.019157544
000020 8b 0f 2f 3d 0a d7 23 3c de 69 f6 bc 0a d7 23 3c
       0.042739432 0.01 -0.030079778 0.01
000030 95 a7 1c 3e 93 31 3d 3d 0a d7 23 3c 61 a2 56 3e
       0.15298302 0.046189856 0.01 0.2096038
000040 91 95 4e 3d 0a d7 23 3c 0a 47 a4 bd 96 a2 15 3c
       0.050435606 0.01 -0.08021362 0.009133002
000050 0a d7 23 3c b7 7a 5f 3d a5 ac d6 3c 0a d7 23 3c
       0.01 0.05456039 0.02620537 0.01
000060 34 0e e4 bd 15 ff b2 3c 0a d7 23 3c 6e 6c 81 3d
       -0.111355215 0.021850148 0.01 0.063195094
000070 75 5f 12 3d 0a d7 23 3c 68 f3 44 be fb fd 92 3d
       0.035735566 0.01 -0.19233477 0.07177349
000080 0a d7 23 3c d2 1f 43 be a7 a7 4c bd 0a d7 23 3c
       0.01 -0.19055107 -0.049964573 0.01
000090 e9 04 40 3e 97 57 8b bb 0a d7 23 3c 0d e0 29 be
       0.18751873 -0.004252385 0.01 -0.16589375
0000a0 69 85 6d bc 0a d7 23 3c c2 f2 22 be 7b f9 86 3c
       -0.0144971395 0.01 -0.15912917 0.016476383
0000b0 0a d7 23 3c bc 3c bb bd f2 75 8d bc fb 85 12 3e
       0.01 -0.091424435 -0.017268155 0.14308922
0000c0 d5 63 77 bd d8 fa 0f bd cb 8f 08 3c 97 8b e9 3c
       -0.06039794 -0.035151333 0.008335064 0.028508944
0000d0 8f 4e 40 bc e6 46 81 3e 02 1f 7e bc 5f bc 95 bb
       -0.01173748 0.25249404 -0.0155103225 -0.0045695747
0000e0 0a d7 23 3c b4 81 b2 3d dc 4c 9e 3d 0a d7 23 3c
       0.01 0.08716145 0.077295035 0.01
0000f0 18 d2 69 3e d5 e1 ae bc 4e df 03 3b 9b e5 1d bd
       0.2283405 -0.02134792 0.0020122114 -0.038549047
000100 76 24 06 3b ec 29 47 3e 1f 81 36 3e 37 f3 d4 bc
       0.002046851 0.19449586 0.17822693 -0.02599488
000110 eb 15 33 3c 13 03 b2 3d b7 31 a4 bc 0a d7 23 3c
       0.010930519 0.086919926 -0.020043237 0.01
000120 00 85 06 bd b3 b7 d7 bc 0a d7 23 3c 48 d2 87 bd
       -0.032841682 -0.026332712 0.01 -0.06631905
000130 db 9e 4b bd b3 23 1e 3e 27 2c bb 3d a3 96 78 bd
       -0.049712043 0.15443306 0.09139281 -0.060690533
000140 ae a5 62 bd f2 94 ae 3d c5 c3 a6 bc e3 3f 03 be
       -0.055333786 0.08524503 -0.020357022 -0.1281734
000150 b6 a0 28 3d 69 36 0e bc 96 bc 15 3d de 4b bf 3d
       0.04116889 -0.008679965 0.036556803 0.093406424
000160 46 03 6d be 64 5a ab be c7 1a 17 3d 67 9c 65 be
       -0.2314578 -0.334674 0.03689077 -0.22422944
000170 c1 43 93 be 23 e8 1a bd a1 12 23 bf 0a d7 23 3c
       -0.2876263 -0.03781904 -0.637003 0.01
000180 05 82 98 bd 0a d7 23 3c f7 9f 80 bd 71 62 fe bc
       -0.07446674 0.01 -0.06280511 -0.0310528
000190 0a d7 23 3c 19 0c f7 3d 91 f6 1e bd 0a d7 23 3c
       0.01 0.12062854 -0.038809363 0.01
0001a0 82 20 ad 3d 9a d8 bb bd 0a d7 23 3c 67 3f 7d be
       0.08453466 -0.09172173 0.01 -0.24731217
0001b0 f2 77 7e bd 0a d7 23 3c b8 9f 6c 3d ee 23 36 3d
       -0.062126108 0.01 0.057769507 0.04446786
0001c0 0a d7 23 3c d4 b3 6c bc 7c d9 3d bd 0a d7 23 3c
       0.01 -0.014447171 -0.046349987 0.01
0001d0 c4 ba 85 3e 99 d6 74 bd 0a d7 23 3c 0c 80 80 3e
       0.26119053 -0.05977497 0.01 0.25097692
0001e0 67 85 98 3d 0a d7 23 3c 6f 72 bf bd bf c9 91 bc
       0.074473195 0.01 -0.09347998 -0.017796395
0001f0 0a d7 23 3c 6c 0e 5f 3e 05 8b f6 bc 0a d7 23 3c
       0.01 0.21782845 -0.030095587 0.01
000200 bc 77 21 3e 77 27 c5 bb 0a d7 23 3c 37 0b c1 3d
       0.15768331 -0.0060166675 0.01 0.09425967
000210 01 6e 91 bd 36 b1 42 be 5e a6 cd bc 04 b5 c9 bd
       -0.0710106 -0.19012913 -0.025103744 -0.09848979
000220 f9 b7 25 bd a9 14 ac be c4 b9 6e be fa 48 d2 bd
       -0.040458653 -0.33609512 -0.23313051 -0.102678254
000230 94 8d 5b 3e a4 35 92 bd 0a d7 23 3c 08 c8 1b 3e
       0.21440727 -0.071391374 0.01 0.15213025
000240 b7 60 f6 bb 0a d7 23 3c be 52 1f 3e a2 9e 83 3d
       -0.0075188535 0.01 0.15558907 0.06426741
000250 75 e0 b4 bd 62 3c b1 3d 66 77 18 be 7b 86 7a be
       -0.08831874 0.08654095 -0.14889297 -0.24465363
000260 5c 19 90 bd 17 3f cb bd 9b 3b 87 bd f6 75 68 be
       -0.07036087 -0.09924143 -0.06603166 -0.22701249
000270 af 11 a0 bd 0a d7 23 3c 63 2b 07 3d 1a f4 11 3d
       -0.07815873 0.01 0.03300036 0.035633184
000280 0a d7 23 3c a0 28 eb 3d 60 ee f0 3c 42 aa b0 be
       0.01 0.11482358 0.029410541 -0.34504896
000290 d5 20 90 be 25 15 b8 3d c9 67 42 3d ed 54 f1 be
       -0.2815005 0.08988408 0.04746226 -0.47135106
0002a0 51 d2 0a bd 3c 89 d5 3d 34 7b 95 be c1 2c e9 bb
       -0.03389198 0.10426566 -0.2919556 -0.007115931
0002b0 0b 4a 20 bf 35 fd 9d bc 98 3a d2 3e 24 62 fd be
       -0.6261298 -0.019285778 0.41060328 -0.49488938
0002c0 52 f1 41 be a3 42 0f be 56 ed 01 be d0 e5 82 be
       -0.18939713 -0.13990264 -0.12688193 -0.25565958
0002d0 b1 8a 1b bf 0a d7 23 3c 38 77 fe bd 0a d7 23 3c
       -0.607585 0.01 -0.12425083 0.01
0002e0 36 b8 bd bd e1 f1 59 bb 0a d7 23 3c a2 a3 82 3e
       -0.09263651 -0.0033255743 0.01 0.25515467
0002f0 20 9d 60 bd 0a d7 23 3c d0 a2 95 3c ad a4 26 bd
       -0.054837346 0.01 0.018266112 -0.04068439
000300 0a d7 23 3c df c7 62 be 9f f0 a9 bd 0a d7 23 3c
       0.01 -0.22146557 -0.08297848 0.01
000310 6b 40 62 3d 07 3e ac bd 0a d7 23 3c 7e 60 b2 bd
       0.055237215 -0.08410268 0.01 -0.08709811
000320 12 22 48 be 0a d7 23 3c 5b 39 f0 bc 2b 0f e9 bd
       -0.19544247 0.01 -0.029324224 -0.11379846
000330 0a d7 23 3c c0 36 67 3e 9e dd 12 be 0a d7 23 3c
       0.01 0.22579479 -0.14342353 0.01
000340 85 e6 62 be f0 70 1e be 0a d7 23 3c 60 b5 79 3d
       -0.22158249 -0.1547277 0.01 0.06096399
000350 58 b5 7f bd 0a d7 23 3c 55 7b c8 3d dc c8 81 bd
       -0.062428802 0.01 0.09789149 -0.06337139
000360 0a d7 23 3c f2 4a 3c 3e 26 86 08 be 8e 3e 4c be
       0.01 0.18387964 -0.13332424 -0.19945738
000370 61 ad 96 be 8b ad f2 bd d9 3c f0 bc 85 6f a2 bd
       -0.29429153 -0.11849507 -0.02932589 -0.07931427
000380 fc 53 1b be 06 3a 75 bd 39 c8 4c be 32 fb 58 3c
       -0.15168756 -0.05986979 -0.19998254 0.013243483
000390 0a d7 23 3c 2a f1 96 be 03 ed ae bd 0a d7 23 3c
       0.01 -0.2948087 -0.085413 0.01
0003a0 06 26 cb bd c3 c3 11 bc 6a 12 8c bd f4 0f cd 3d
       -0.09919362 -0.008896771 -0.0683945 0.100128084
0003b0 e9 b7 84 be ac fa 79 be b2 b2 42 be 1e 27 b5 be
       -0.25921562 -0.2441203 -0.1901348 -0.35381407
0003c0 d2 64 0a be bf 06 ac be 9b 8f cc bd 0a d7 23 3c
       -0.13515022 -0.33598897 -0.09988328 0.01
0003d0 60 b1 6b 3e 7d 40 67 3c 0a d7 23 3c ff e2 b2 3e
       0.23016882 0.014114496 0.01 0.3493881
0003e0 63 c1 5c 3c 90 f7 9c be 7e 13 e4 be ab e4 a1 bc
       0.013473841 -0.30657625 -0.4454612 -0.019762358
0003f0 94 6f 7e bc 39 c7 08 bf 75 94 8c bb d2 97 ca 3c
       -0.015529532 -0.5342899 -0.0042901584 0.024730597

model/hidden/mid_layer/W f4 [256, 256]
000000 ff 80 68 3c df 70 1d ba 1c db b7 b7 89 54 25 bc
       0.014190911 -0.0006005894 -2.191733e-05 -0.0100909555
000010 0c 13 d2 bc b7 5e 2b bd 13 3b 47 bc f4 32 01 bc
       -0.025643848 -0.041838374 -0.0121600805 -0.007885683
000020 5d 2a 47 bb fb 63 12 3c 9f 13 dc 3b 98 90 56 ba
       -0.003039024 0.00893497 0.006716206 -0.00081849983
000030 d6 ec 4f bd da 74 79 bc 58 79 93 bc 9b 8a a7 bc
       -0.050762974 -0.0152256135 -0.018002197 -0.020451834
000040 5b f3 95 bc 99 5b 92 bc 2e 2c ba bc d7 e3 44 3c
       -0.018304517 -0.017865943 -0.022726145 0.012017212
000050 5a ed 35 bd 8b 7f dd bb 8b 98 49 bd 60 c6 59 bc
       -0.04441581 -0.006759589 -0.049217742 -0.013291925
000060 38 57 0d bd 2e e6 2e bc 49 b9 21 3b b0 3f 1b 39
       -0.034507006 -0.010674996 0.002467709 0.00014805677
000070 2d ff 25 3c b7 10 b1 3c bb 04 97 bc d8 39 cc bc
       0.010131639 0.021614416 -0.018434873 -0.024929926
000080 e5 92 2e bc 4c bc 07 bb 7e 5b 01 3c 97 6e 5a bd
       -0.01065514 -0.00207116 0.007895349 -0.053328123
000090 26 da 63 bc 68 c4 85 ba ba 7d 4d bc 3d 3c 6d bd
       -0.013906991 -0.0010205628 -0.012542183 -0.057918776
0000a0 3a 3f 4e bd e3 d7 27 bc 47 e8 bd bc 8c 02 62 bc
       -0.050353266 -0.0102443425 -0.023182048 -0.013794553
0000b0 d2 bb b7 3a d2 63 76 b9 78 46 16 bc 31 26 25 bc
       0.0014017767 -0.00023497574 -0.0091720745 -0.010079906
0000c0 b1 98 aa 3d 01 fe 90 3b fb 57 4d bc 15 24 3c 3b
       0.08329905 0.004424811 -0.012533183 0.002870803
0000d0 4a 0f de bb 7c 0f ac bc f1 d7 8d bc 9a 8a 57 bd
       -0.006776725 -0.021003477 -0.017314883 -0.052622415
0000e0 44 b8 60 3c e4 3d 1c bc 6e 80 9b bc 46 75 74 ba
       0.013715807 -0.00953624 -0.018982138 -0.00093253364
0000f0 6e 6c 22 bb cf 0b a0 3b 9d fa 9c bc dd 48 48 bd
       -0.0024783867 0.00488422 -0.01916247 -0.048897613
000100 24 23 c7 bc 38 14 5c bd 34 aa db bb f1 c1 fe 3b
       -0.024308749 -0.05373022 -0.0067036394 0.0077745845
000110 b5 12 18 bc ba 5a e4 bb 1d d8 6a ba 02 9b 24 bc
       -0.009281804 -0.0069688233 -0.0008958595 -0.010046722
000120 84 c9 b1 3a f3 e0 c1 bc a8 d4 7c bc 2a 32 f5 bc
       0.0013564085 -0.023666834 -0.015431561 -0.029931147
000130 c9 14 b3 bb eb 85 02 3d 11 95 da bb fe d4 42 bc
       -0.0054651243 0.031865995 -0.006670602 -0.011891602
000140 24 ac 13 3b 48 1a 39 bd 10 33 f9 ba 96 49 fe bc
       0.0022533024 -0.04519108 -0.001901241 -0.031040948
000150 a9 f2 29 bc 1a 78 05 bd c3 64 16 bc a3 52 c1 bb
       -0.010372796 -0.03258524 -0.009179297 -0.0058997436
000160 98 97 51 bc e7 5b 96 bc 59 d4 8f bc 8d 4b 00 bb
       -0.01279249 -0.01835437 -0.01755731 -0.0019576282
000170 09 89 92 3b f4 d8 a1 bc 14 65 ce bc 4f e1 a1 3c
       0.0044719023 -0.019756772 -0.025194682 0.019760756
000180 5c 21 12 bb 2b 81 2e bd 2d 4d 8c bc ef a9 53 bd
       -0.0022297716 -0.042603653 -0.017126644 -0.051675733
000190 fd a5 78 bc 57 a6 31 bd 28 7a 98 bb 70 50 a5 3c
       -0.015176293 -0.043371525 -0.004653234 0.020179957
0001a0 ae 73 a1 3c 5a 2a 29 bd 92 0d a4 3c 16 9e 0d bd
       0.01970848 -0.041300155 0.020026002 -0.03457459
0001b0 25 b9 eb bc 13 ca bb bc e3 e6 f2 3a 81 07 94 bc
       -0.028774807 -0.022923505 0.0018531944 -0.018069984
0001c0 23 e0 32 bc d7 b8 47 bc 2f b8 a3 3c 85 9b 7e bb
       -0.010917696 -0.012190065 0.019985287 -0.003885002
0001d0 05 87 e6 bb 57 ca d5 bc 3b 6c 4b ba 53 ed 54 bb
       -0.0070351386 -0.02609746 -0.0007759963 -0.003249009
0001e0 66 d9 b6 3c c0 2d b8 3b 25 29 1e bc 5e 8b 63 bc
       0.02232046 0.005620688 -0.009653364 -0.013888208
0001f0 95 17 2a bc fb 3e 13 bd 2d 7f 66 bb fa 60 0a bd
       -0.010381599 -0.035948735 -0.0035171018 -0.03378389
000200 fb 07 70 bc 49 4c 33 bd 6a ed 5b bc 3e 89 7e 3c
       -0.01465034 -0.043773923 -0.013423303 0.015535651
000210 c1 3f a1 bc 45 ff d6 bc 52 ef d2 bc 61 de f8 bc
       -0.01968372 -0.026244769 -0.025748882 -0.030379476
000220 3a f8 ff bc 68 07 66 bc 8e fb 96 bc d7 4c 76 bc
       -0.031246293 -0.014039852 -0.018430497 -0.0150329685
000230 8c b4 c3 3b ac 28 23 bc 2d 68 67 3c 43 56 90 bc
       0.0059724506 -0.009958427 0.014123959 -0.017619258
000240 95 e6 31 bc 94 13 68 bc 31 d4 68 bc dd d6 0a bb
       -0.010858198 -0.014164824 -0.014210747 -0.0021185197
000250 99 9a 55 bb ed 49 d0 b9 f3 80 2a bc 30 28 b3 bb
       -0.0032593368 -0.0003972793 -0.01040672 -0.005467437
000260 ad d0 a3 bb fc e2 04 bd a9 d2 08 ba 90 20 f5 bc
       -0.0049992413 -0.03244303 -0.0005219379 -0.029922754
000270 84 4a 3e bd 6f 9c ae 3a 14 ab 9d 3a e4 bb 44 bb
       -0.046457782 0.0013321767 0.0012029135 -0.0030019218
000280 06 a2 56 ba 16 3c 82 bc 2c bc 48 bc 1a 40 f8 ba
       -0.00081875955 -0.015897792 -0.012251895 -0.0018940002
000290 a4 55 16 3d 1f e8 c7 bc 89 5d 2b 3c 31 cf 4a bb
       0.036702767 -0.024402676 0.010459312 -0.003094625
0002a0 0e 80 92 bc c6 e2 52 bc fa 2a 50 ba 2a 20 57 bc
       -0.017883327 -0.01287145 -0.00079409743 -0.013130227
0002b0 0e bd 9e bc 2e 45 d9 39 6d 01 5e bc 7b b4 7f ba
       -0.019377258 0.00041441008 -0.013550145 -0.0009754372
0002c0 21 dd 32 bc 4d ae f6 ba 2a d3 9d 39 61 cf 8b bd
       -0.010916979 -0.0018820256 0.00030102703 -0.06826664
0002d0 00 76 2c bc cc 01 b0 bc 80 f2 be bc 30 33 c3 bc
       -0.01052618 -0.021485232 -0.023308992 -0.023828119
0002e0 77 8a c4 bc b2 56 e6 bc 92 73 1b bc e0 00 94 bc
       -0.023991806 -0.028117511 -0.009488003 -0.018066823
0002f0 0f 15 10 bd 65 34 cb bc 90 87 ea bc a6 4b 74 3b
       -0.035176333 -0.024805257 -0.028629094 0.0037276535
000300 a2 c8 e3 bc de 07 50 3b 45 86 cc b9 52 6e 34 bc
       -0.02780563 0.003174297 -0.0003900995 -0.011012631
000310 28 67 1c bc ca ab b4 3c 65 1d 48 bd c6 90 75 3b
       -0.009546079 0.022054572 -0.048856158 0.0037470325
000320 37 13 91 3b 89 7e 43 bc 78 ce 45 bb 91 32 12 bd
       0.0044273394 -0.011932024 -0.003018288 -0.035692755
000330 6c 2b b8 bb 9d b5 72 bc bc 4d 42 bc fb 66 a7 bc
       -0.0056204107 -0.014813808 -0.011859354 -0.020434847
000340 3f 14 f3 bc 0b a4 33 bc 63 81 8e bc 3f 33 de bc
       -0.02967274 -0.010964404 -0.01739568 -0.027124045
000350 c6 bc 99 bc 84 91 46 bb 43 c6 c9 bc 56 50 c4 bc
       -0.018766772 -0.0030299136 -0.024630671 -0.023964088
000360 7a 69 89 bd 7e c5 35 bc cc 4e 54 bc 74 95 e4 bc
       -0.06709571 -0.011094449 -0.01295824 -0.027903296
000370 ef c0 cd bb fd c4 69 bb 78 e3 85 bc 2d 8b 19 3c
       -0.006279103 -0.0035670393 -0.016343817 0.009371561
000380 c7 4d c6 3b 73 a2 d3 bb dd 53 bf bc 6a a7 0f bd
       0.0060517523 -0.0064585744 -0.023355419 -0.035071768
000390 5b 08 9c 3a 7f 66 66 bc 88 95 54 ba 22 cd 71 bb
       0.0011904346 -0.014062523 -0.000810944 -0.003689595
0003a0 69 17 1b bb 1c 12 07 bd 89 a6 38 bd 8c c5 47 bc
       -0.0023665077 -0.032976255 -0.045080695 -0.012193095
0003b0 47 5c cb ba 08 e2 09 bd a9 b7 ed ba c5 84 f4 bc
       -0.0015515172 -0.033662826 -0.00181364 -0.029848466
0003c0 24 10 92 bd ad a9 a8 bc 7e a1 a6 3a 7b af 42 bd
       -0.07131985 -0.02058872 0.0012712923 -0.047530632
0003d0 c7 33 7b bc 33 bd a7 bb 81 14 99 bb 5a ed 7b bd
       -0.015332169 -0.00511899 -0.0046716337 -0.061505653
0003e0 03 db 36 bd 99 e4 17 bc 2b 4e a3 3b c7 94 cd bc
       -0.04464246 -0.0092708105 0.0049836836 -0.025095357
0003f0 ce 80 ab bb 0c 90 83 bc 49 74 d5 bc 24 8a 82 3c
       -0.0052338606 -0.016059898 -0.026056426 0.015935011

model/a_stream/b f4 [3]
000000 10 16 b8 3c cf f9 23 bc 04 aa 6b bb
       0.022471458 -0.0100082895 -0.0035959492

model/hidden/mid_rec_layer/upward/b f4 [80]
000000 42 6d 1b bc a8 18 14 be 91 da 3e 3f 8b 2f 43 be
       -0.009486498 -0.1446253 0.74552256 -0.19061105
000010 da e7 10 bd 8b 98 8d 3a e7 ed 69 3f ee 62 ea bb
       -0.03537736 0.0010802908 0.91378635 -0.0071529066
000020 d4 9e 9e 3a d0 cf 46 be 24 ed 56 3f 20 38 4f be
       0.0012101778 -0.19415212 0.839556 -0.20236254
000030 ed 2e c4 3b 54 c1 3e be 31 ba 1d 3f 88 ff 4f be
       0.0059870393 -0.18628436 0.6161223 -0.20312321
000040 90 4a 8e 3b 4a b8 05 be 66 cc 53 3f ef c1 2a be
       0.0043423846 -0.13058582 0.8273376 -0.16675542
000050 ce fb 43 3c 7a e8 3a be 00 8d 20 3f 51 32 57 be
       0.01196189 -0.18252745 0.6271515 -0.21015288
000060 ca ac 22 3c 91 cb 42 be b6 72 31 3f 29 4b 48 be
       0.009928891 -0.19022967 0.6931566 -0.19559921
000070 16 ed e4 3a 5c a2 48 be 56 55 55 3f 2a 77 51 be
       0.0017465677 -0.19593185 0.8333334 -0.20455614
000080 b5 19 48 bc f7 bf 77 be 92 71 4c 3f 2f 50 80 be
       -0.01221316 -0.24194323 0.79860795 -0.25061175
000090 50 9a c8 bc 50 81 60 be d4 b8 28 3f 1f 2d 82 be
       -0.024487644 -0.21924329 0.65907025 -0.2542505
0000a0 98 ee 08 3b 24 52 0c be 32 3c 52 3f 99 c5 34 be
       0.0020894166 -0.13703209 0.821231 -0.17653503
0000b0 96 6c f5 bc 00 71 68 bd 7f fa 61 3f 49 e9 8a bd
       -0.029959004 -0.05674839 0.8827285 -0.06782777
0000c0 3a b5 db bc fc 10 4a be cb 21 3d 3f f3 1e 5b be
       -0.026819814 -0.19733042 0.7387969 -0.21398525
0000d0 4d ef d0 bc f7 42 8b bd 0f 02 56 3f 43 2c bc bd
       -0.025504733 -0.06799882 0.8359689 -0.0918813
0000e0 54 65 05 3c 4b ff 69 be 1d 64 34 3f 30 03 83 be
       0.008141834 -0.22851293 0.7046526 -0.2558837
0000f0 42 a1 f8 3b 3a c4 43 be de 25 23 3f 52 fe 56 be
       0.007587583 -0.19117823 0.63729656 -0.20995453
000100 4e 9e 83 bb 1b 3a 5d be 65 94 58 3f a2 5b 4a be
       -0.004016674 -0.21604197 0.8460143 -0.19761518
000110 7f a9 07 3c 99 0e 1a be da 1d 2a 3f af 79 3a be
       0.008280157 -0.15044631 0.664518 -0.18210481
000120 0c 04 af bc 75 b9 1f be 7e 62 3c 3f af 71 2f be
       -0.021364234 -0.1559809 0.7358779 -0.1713321
000130 fe 47 ef bc 4a 28 40 bd e1 11 65 3f 70 1d 46 bd
       -0.029209133 -0.046913423 0.89480406 -0.048367918

model/hidden/input_layer/W f4 [256, 86]
000000 8b 7d e0 3b 9e 72 db bd ab a5 02 bd e2 7d 22 bd
       0.0068509034 -0.10715221 -0.031896275 -0.039670832
000010 75 cf f8 bd a4 c4 8f bc 86 1a bc 3d 13 88 b9 3c
       -0.12148944 -0.01754982 0.091847464 0.022647893
000020 43 ab 1e be 0f c3 ab 38 ee f0 e1 bd 57 19 68 3c
       -0.15495019 8.190248e-05 -0.11032282 0.014166198
000030 e2 40 0e be d0 56 a8 bd 60 16 34 bc 21 aa 42 3e
       -0.13891938 -0.08219683 -0.010991663 0.19010212
000040 a9 2c 30 3d 98 29 d9 bb 1b 9b b9 bb 81 31 b9 bd
       0.04301134 -0.006627273 -0.005664242 -0.09042645
000050 8a 46 a8 3b 2e 0d 2b 3d 28 cf 48 3d 0c d0 41 bc
       0.005135362 0.041760616 0.049025685 -0.011829387
000060 08 e7 c0 bd ee c9 0c 3d 32 e2 a8 3b a2 9c d4 3d
       -0.09419066 0.034372263 0.0051539177 0.10381438
000070 79 5d 81 bd 57 9c 9b 3c d7 64 91 bd cb 81 29 bd
       -0.063166566 0.018995447 -0.07099312 -0.041383546
000080 8d 13 e1 3c 24 55 a7 bd 13 a2 5c bd 56 b8 32 bb
       0.027475143 -0.08170536 -0.053865504 -0.0027270517
000090 63 33 e2 3c 38 25 8f 3d 95 1a d8 3a 82 68 21 bd
       0.027612394 0.06989521 0.0016487414 -0.039406307
0000a0 d3 db 17 bc 57 ef 26 bc 45 12 b4 3d 38 59 23 3e
       -0.009268719 -0.010188899 0.08792547 0.15952003
0000b0 a8 9a fe 3b 58 f9 f2 3d 18 ca 96 3d a6 f7 02 be
       0.0077699013 0.11863965 0.07362765 -0.12789783
0000c0 74 24 41 3d 7f 18 96 3d 12 6d a0 3d 67 63 39 be
       0.047153905 0.07328891 0.078333035 -0.18104325
0000d0 bd bb 02 3d cf f3 32 be b7 b0 ce 3c 52 ac 7a 3d
       0.031917322 -0.17475818 0.025230749 0.061199494
0000e0 85 71 bc b9 19 33 4c bc 5f fc 1a bc 8a 97 9e 3a
       -0.00035942733 -0.0124633545 -0.009459584 0.0012099606
0000f0 b1 51 f9 bc 23 42 06 bd cf b8 c0 bd 07 c6 6f 3c
       -0.030434461 -0.032777917 -0.094102494 0.014634616
000100 8c 2e 6c bd 53 45 15 be a3 e4 0c be 6b ca d5 3b
       -0.057661578 -0.14577226 -0.13759093 0.0065243742
000110 cf 34 a3 3b 21 ab e7 bd 53 9d 82 bd d0 95 29 bc
       0.0049806605 -0.11311937 -0.063776635 -0.0103506595
000120 52 8b 3f 3d 25 f4 bf bd 3f b6 dc 3b 3d a8 6a 3c
       0.046763726 -0.09372739 0.0067355926 0.014322338
000130 a4 c9 4d bd 01 18 6e bd 2f f2 ce bd f4 ff 26 bd
       -0.050241128 -0.05812836 -0.101047866 -0.04077144
000140 79 9e 19 3b 87 0c 87 bd 8e c2 28 bd 34 ab 73 bd
       0.0023440404 -0.06594186 -0.041201167 -0.059489444
000150 d7 6c d3 bc 2c 17 c7 bb f2 27 a8 bc 14 c2 9b bc
       -0.025808735 -0.0060757603 -0.02052686 -0.019013442
000160 01 44 59 bb c9 f7 9f bc 21 83 a3 bc cb 85 5e bc
       -0.0033152106 -0.019527333 -0.019959988 -0.013581703
000170 97 9d af bc b5 37 18 bd 34 94 15 bc 3b 4d 65 bb
       -0.02143745 -0.0371625 -0.009129573 -0.003498866
000180 c5 d2 00 bd 02 ac d0 3b 00 24 4a bc c5 8c 69 bc
       -0.031451005 0.006368161 -0.012337685 -0.0142547535
000190 8e 37 4c bc dd 18 65 bb 3c 56 a0 bc f3 ff 0c 3c
       -0.012464417 -0.0034957447 -0.01957237 0.008605945
0001a0 c5 7e cd bb 26 69 88 3c a4 94 de ba 1f f7 eb bb
       -0.0062712156 0.016651701 -0.0016981554 -0.00720109
0001b0 91 ad 9f bc 1c 8a 87 3b 98 e4 06 bc 03 c5 29 bd
       -0.019491943 0.004136337 -0.008233212 -0.04144765
0001c0 3e 74 aa bb b4 8e 70 bb 24 6e 7e 3c 7f 86 c1 bb
       -0.0052018454 -0.0036706151 0.015529189 -0.0059059258
0001d0 b5 fe 8f bc b0 b7 ce bb 0e e4 f0 bb 51 50 cd bb
       -0.017577508 -0.0063085184 -0.007351405 -0.006265678
0001e0 48 0c d7 bc 96 f8 ca bb 62 75 58 bc eb 4b 09 3c
       -0.026250973 -0.0061941845 -0.01321158 0.008379917
0001f0 41 32 ed 3b 02 31 67 3b c6 1d bf bc 1b 6d b2 bb
       0.0072386567 0.0035277014 -0.023329627 -0.0054451353
000200 1f 63 64 3b a0 59 a9 bc 21 25 67 3b f9 58 45 bc
       0.003484912 -0.02067262 0.0035269933 -0.0120451385
000210 40 7d 98 bc 7e 8a ed bc ed 4b f7 3b 73 d8 cb bc
       -0.018614411 -0.028996702 0.007546893 -0.024883484
000220 97 49 a9 bc 58 84 89 3c 33 59 bd bb da 70 cc bb
       -0.020664973 0.01678674 -0.0057784556 -0.006239039
000230 ac 4d 44 bc 18 18 c8 bc 65 9b 82 3c 00 d1 3f 3c
       -0.011981409 -0.024425551 0.015943239 0.011707544
000240 d6 2c c2 bc 14 55 72 3c 2c 32 fc 3b b8 1a 56 3c
       -0.02370302 0.014790792 0.0076964106 0.013067894
000250 bc a2 97 bc 1c a8 e7 3b 86 66 92 bc 47 fb 0d 3c
       -0.018510215 0.0070696007 -0.017871153 0.008665866
000260 44 3c 22 3c 0c 48 05 3b fe 55 5f bc 8c 02 7f bc
       0.009902064 0.0020337133 -0.013631342 -0.015564572
000270 c5 c5 fe bb e8 6a 8a bb 96 6b 0d bc 31 71 aa bc
       -0.007775041 -0.00422417 -0.0086316075 -0.020805927
000280 aa 40 3d 3b 68 fc 9e bc c9 76 60 3a e1 81 3b 3c
       0.0028877654 -0.019407466 0.0008562622 0.01144454
000290 6c b0 d8 bc 68 85 e5 bc 05 91 e6 bc 9b 62 2e 3c
       -0.026451312 -0.028017715 -0.028145323 0.010643627
0002a0 c2 e2 87 bc 76 b2 f4 bc 7b b0 83 bc 27 e0 f7 bc
       -0.016587619 -0.029870253 -0.016075363 -0.030258251
0002b0 ca 05 96 bd fb 2d 93 bd 15 3d bf 3b 04 cc 24 bc
       -0.07325323 -0.071865045 0.005836139 -0.010058407
0002c0 7a 88 cd bb a2 a0 c2 bc a0 09 19 bd da cc 35 bd
       -0.006272373 -0.023758236 -0.037362695 -0.044384815
0002d0 7b 1c 7e be 96 e3 12 3b 0c b4 33 3b 58 dd 52 bc
       -0.24815552 0.0022413484 0.0027420549 -0.012870155
0002e0 83 49 62 3d dd 02 ee 3d 09 99 1a 3c bb 9a 9e bd
       0.055245887 0.1162164 0.0094359005 -0.07744356
0002f0 65 ad fe 3d b0 0b aa 3c 60 a2 e6 3a d0 42 3a bb
       0.12435416 0.020757526 0.0017595999 -0.002842117
000300 e2 d9 d3 ba 39 a4 0e 3e 09 0b 89 3b cc 3c 26 bc
       -0.0016162957 0.13929833 0.0041822237 -0.010146331
000310 0c c8 4e 39 1e fe 6d 3d f4 0c f1 ba a7 70 b8 3d
       0.00019720214 0.058103673 -0.0018390701 0.09005862
000320 8c 29 22 be 0a ba 94 bc 9b 9a a9 3b cb 91 3b bd
       -0.15836161 -0.018155117 0.005175901 -0.045793336
000330 9a 20 51 3b de 42 d4 3c 00 78 8c bc 2e 48 1c 3c
       0.0031910301 0.025910791 -0.017147064 0.009538693
000340 dd bc 0a bd 3c 2e 84 bd 09 d2 82 3c 52 e7 45 bd
       -0.03387152 -0.06454131 0.015969293 -0.048316307
000350 82 01 b2 3c 33 12 d2 b9 ab d6 1b 3d 6f f0 50 3d
       0.021729235 -0.0004006788 0.03804652 0.051010545
000360 98 fb a4 bb ae 95 2d 3c 8b 9b 73 3d 44 9e 6a bd
       -0.005034875 0.010594768 0.05947451 -0.05727984
000370 9f 0c e4 3b 37 04 14 be 3f d7 e1 3d 31 8d 22 be
       0.0069595124 -0.14454733 0.11027383 -0.15874173
000380 61 c2 61 bd 44 95 26 bb 3a e0 6f bd 3b 15 ea bd
       -0.055117015 -0.002541856 -0.05856345 -0.11429831
000390 2f 11 39 bb cd 8c e4 3d ec fc 34 be fe a7 3d 3c
       -0.0028239002 0.11159668 -0.17674607 0.011575697
0003a0 1a 2a dd 3d 34 c1 83 bd ab c3 9a 3c f3 f6 c8 bc
       0.10799046 -0.06433335 0.01889213 -0.024531817
0003b0 0f 8a 96 bd bc 7f f3 bd 15 ca 7a bd 3d 14 46 bd
       -0.07350551 -0.11889598 -0.061227877 -0.048359144
0003c0 03 04 2f be 1e b7 e7 3d 0d e6 0e 3e 5f 69 17 3c
       -0.17091374 0.11314224 0.13954945 0.009241431
0003d0 88 a9 f8 3c 02 8d 97 3c 42 df e4 bb fa e9 a9 bd
       0.030354276 0.018499855 -0.006984622 -0.082965806
0003e0 0a 16 83 3c 3e 23 13 be b3 b7 17 bd 3e 41 35 bd
       0.01600172 -0.14368913 -0.037040424 -0.044251673
0003f0 a2 3a 6e 3d de a2 1f bd 2a f0 5a 3d 51 07 9a bd
       0.058161385 -0.03897368 0.053451695 -0.07520927
