ai_challenge/results/simulation_DoubleDQN_DuelingRecNN_2017-05-19T19:40:53.24/140018/model.npz (npz, 631265 bytes, 12 tensors)

model/hidden/input_layer/b f4 [256]
0	0xbcf48b49	-0.029851573
1	0xbce55f5d	-0.027999574
2	0xbcecab1b	-0.028890183
3	0xbc58b729	-0.0132272625
4	0x3b8f4a62	0.004372881
5	0xbce7b1c6	-0.028283011
6	0xbd275094	-0.04084833
7	0xbd581b65	-0.0527605
8	0xbcc0d9ac	-0.023541294
9	0xbcf36bd9	-0.029714512
10	0x3cabe741	0.020984294
11	0xbcd34fb2	-0.025794838
12	0xbc811188	-0.01575543
13	0xbcf6726c	-0.030083857
14	0xbd19f00e	-0.03758245
15	0xbc877099	-0.016533183
16	0xbcfa620e	-0.030564334
17	0xbd5e4464	-0.05426444
18	0xbc7417f2	-0.014898287
19	0xbd059443	-0.032612097
20	0xbcf0ba1e	-0.029385623
21	0xbbd53c21	-0.006507412
22	0x3c7c4df2	0.015399443
23	0xbc819c66	-0.015821647
24	0xbd01b5bb	-0.031667452
25	0xbd15d523	-0.036580216
26	0xbd0161f0	-0.03158754
27	0xbc43132f	-0.011906429
28	0xbcdd48cd	-0.027012253
29	0xbcab5a96	-0.020917218
30	0xbd4ce86c	-0.050026342
31	0xbadeea42	-0.001700707
32	0xbc0067f3	-0.007837283
33	0xbd00f0a1	-0.03147948
34	0x3cbeca9c	0.023289971
35	0xbca9305b	-0.02065294
36	0xbd857dc5	-0.06518129
37	0xbccc7e43	-0.02496255
38	0xbd2f2fdf	-0.042770263
39	0xbc9991eb	-0.018746337
40	0xbc1793d0	-0.00925155
41	0xbd279c45	-0.040920515
42	0x3cb15ec7	0.021651639
43	0xbcea24ee	-0.028582063
44	0xbd270c7e	-0.040783398
45	0xbc998ba8	-0.018743351
46	0xbced03f7	-0.028932555
47	0xbd0b9adb	-0.03408323
48	0xbbf2e7e9	-0.0074128998
49	0xbd07675c	-0.033057556
50	0xbce2ec67	-0.027700616
51	0xbcb90dff	-0.022589682
52	0xbc24be16	-0.010055086
53	0xbca835ca	-0.020533461
54	0xbcf060f5	-0.029343108
55	0xbcc764e0	-0.024340093
56	0xbce8ba38	-0.028409109
57	0xbd1bbd10	-0.0380221
58	0xbca607f4	-0.020267464
59	0xbc860da3	-0.016363924
60	0xbcc0a1a2	-0.023514573
61	0xbc6fce31	-0.014636562
62	0xbd06b2cd	-0.03288536
63	0xbbdd31ac	-0.006750306
64	0xbb60493f	-0.0034223346
65	0xbd16191a	-0.036645032
66	0xbd015bc0	-0.03158164
67	0xbcd24515	-0.025667707
68	0xbcda46a4	-0.026645012
69	0xbd0174db	-0.031605583
70	0xbd47f00f	-0.048812922
71	0xbd60a2fc	-0.054842934
72	0xbc98e72e	-0.018664923
73	0xbcf57209	-0.029961603
74	0xbd00d6a9	-0.031454716
75	0xbd0299ba	-0.031884886
76	0xbc6c794c	-0.014433216
77	0xbd386dde	-0.045026653
78	0xbc24c8bf	-0.010057627
79	0xbd26dfb1	-0.040740672
80	0xbd87fda7	-0.06640177
81	0xbd12d603	-0.03584863
82	0xbd13a5ec	-0.036046907
83	0xbd24a6e7	-0.040198233
84	0xbcd19246	-0.025582444
85	0xbd176158	-0.03695807
86	0xbd10d0eb	-0.03535549
87	0xbd299a1c	-0.041406736
88	0xbcbbb57c	-0.022913687
89	0xbd2a3b2c	-0.041560337
90	0x3c9d175f	0.019176183
91	0x3bf19f88	0.007373754
92	0xbd25db4b	-0.040492337
93	0xbd05cffc	-0.032669052
94	0xbc42d7ba	-0.0118922535
95	0xbc0e0d99	-0.008670234
96	0xbb1afb87	-0.0023648457
97	0x3c217340	0.009854138
98	0x3c89325b	0.016747644
99	0x3c2ea3dc	0.010659184
100	0xbce833e8	-0.028345063
101	0xbd0f014f	-0.034913357
102	0x3c3bdb32	0.011465834
103	0xbc0ead38	-0.008708291
104	0x3bb21f8a	0.0054358887
105	0xbc0a9ad0	-0.008459762
106	0xbce0ec87	-0.027456535
107	0xbd2b5a44	-0.04183413
108	0xbcf2716f	-0.029595105
109	0xbd5a926e	-0.053362302
110	0xbd803977	-0.062609605
111	0xbd11bf75	-0.03558298
112	0xbccc8f3f	-0.024970649
113	0xbcab5b74	-0.020917632
114	0xbd4313c6	-0.04762628
115	0xbc4be9cb	-0.012445877
116	0xbd438e91	-0.047743384
117	0xbd1d94e0	-0.038472056
118	0xbd7f7093	-0.06236322
119	0xbd1571bf	-0.03648543
120	0xbd5fd0cd	-0.054642487
121	0xbb27076a	-0.0025486597
122	0xbd2d0544	-0.04224135
123	0xbd91a408	-0.071113646
124	0xbd3f7d74	-0.0467505
125	0xbc3ed8ee	-0.0116484
126	0xbd39fcbd	-0.045407046
127	0x3c6face1	0.01462862
128	0xb9a085da	-0.00030617305
129	0xbd6f1f0e	-0.058379225
130	0xbd1127ca	-0.035438336
131	0xbc5b6460	-0.0133906305
132	0xbbfa8e6c	-0.0076463725
133	0xbcc75255	-0.024331251
134	0xbb4987b5	-0.0030751054
135	0xbd31ecc0	-0.043438673
136	0xbc671bc1	-0.014105738
137	0xbd02b534	-0.03191109
138	0xbd01231b	-0.03152762
139	0x3c267e32	0.010161923
140	0xbd03c5f7	-0.032171216
141	0xbca5dac7	-0.020245923
142	0xbcadd5de	-0.021220144
143	0xbb59a5f2	-0.0033210483
144	0xbc872769	-0.016498284
145	0xbbcc8c8a	-0.0062423395
146	0xbd4762ac	-0.048678085
147	0xbd544e7c	-0.05183266
148	0xbd5ef4e0	-0.05443275
149	0xbd3a8f49	-0.045546804
150	0xbc860b68	-0.01636286
151	0xbd2526be	-0.04032015
152	0xbd265b0a	-0.040614165
153	0xbcedd4f0	-0.0290322
154	0xbd1ade2b	-0.037809532
155	0xbc5e0f25	-0.013553415
156	0xbd82c5ac	-0.06385359
157	0xbc2b5879	-0.010458105
158	0xbc1acfcc	-0.009448957
159	0xbcbe7912	-0.02325109
160	0xbc0a3787	-0.00843609
161	0xbd3c5df5	-0.045988042
162	0x3bcf66aa	0.006329377
163	0xbc8e0d2c	-0.017340265
164	0xbd41ebd9	-0.047344062
165	0xbb9a70c4	-0.0047131497
166	0xbd410beb	-0.047130506
167	0xbb311b30	-0.0027024262
168	0xbc2c764e	-0.010526253
169	0xbc6723ed	-0.0141076865
170	0xbb21fbba	-0.002471669
171	0x3bc7a870	0.0060930774
172	0xbd5dff84	-0.054198757
173	0xbcbf4b81	-0.023351433
174	0xbb73b0d3	-0.0037184253
175	0xbb3db795	-0.0028948535
176	0xbc9365ed	-0.017992938
177	0xbd00160d	-0.03127103
178	0xbd060c04	-0.032726303
179	0xbcd88bc6	-0.026433837
180	0xbd044dfe	-0.03230094
181	0xbbc716a6	-0.006075698
182	0xbb557535	-0.0032571082
183	0xbcdf75c3	-0.027277833
184	0xbc159e0c	-0.00913192
185	0xbd099d12	-0.03359706
186	0xbccb4c1d	-0.024816567
187	0xbd992fdb	-0.07479831
188	0xbcdf1098	-0.027229592
189	0xbb15f9ea	-0.0022884556
190	0xbd0e4311	-0.03473193
191	0xbd66e803	-0.056373607
192	0xbd1fe2b0	-0.039034545
193	0xbd2101e0	-0.03930843
194	0xbcc13594	-0.023585118
195	0xbd57966f	-0.0526337
196	0xbc92d1fa	-0.01792239
197	0xbce89ce3	-0.028395122
198	0xbd15d105	-0.03657629
199	0x3c15b50a	0.009137401
200	0xbc71b908	-0.014753588
201	0xbc92fba1	-0.017942252
202	0xbcfba975	-0.030720452
203	0xbd599033	-0.053116035
204	0xbd0a6757	-0.03378996
205	0x3ab8b34c	0.001409152
206	0xbcea6583	-0.028612858
207	0xbd57d4be	-0.05269312
208	0xbce0a590	-0.027422696
209	0xbc0c005d	-0.0085450085
210	0xbd122e5d	-0.035688747
211	0xbcc6d9c4	-0.02427376
212	0xbd04cb42	-0.032420404
213	0xbcca4efb	-0.024695864
214	0xbd73a03e	-0.05947899
215	0xbd6846bf	-0.056708094
216	0xbcde06cc	-0.02710285
217	0xbcdd1a8c	-0.026990198
218	0xbcf05905	-0.029339323
219	0xbcce6e57	-0.025199099
220	0xbcbb6204	-0.022873886
221	0x3c268431	0.010163353
222	0xbd1bd553	-0.03804524
223	0xbb46fa35	-0.0030361537
224	0xbce75ed6	-0.028243463
225	0x3ccb38dd	0.024807388
226	0xbd232660	-0.03983152
227	0xbd2360f1	-0.039887372
228	0xbcbd0665	-0.023074338
229	0xbcac58ca	-0.021038432
230	0xbd230349	-0.039798055
231	0xbce3cb5a	-0.027806927
232	0xbd50d51d	-0.05098449
233	0x3c44d5b6	0.012013843
234	0xbc9345c2	-0.017977599
235	0xbc230164	-0.009949062
236	0xbd4c4590	-0.049871027
237	0xbc10dc48	-0.008841582
238	0xbd03071c	-0.031989202
239	0xbd126b6d	-0.03574698
240	0xbcb69930	-0.022289842
241	0xbbb72296	-0.0055888398
242	0xbc65c7ae	-0.014024658
243	0xbd318dea	-0.04334823
244	0xbca01557	-0.019541426
245	0xbc3bbfe0	-0.011459321
246	0xbd274fc7	-0.040847566
247	0xbd3d2d20	-0.046185613
248	0xbce6c5ac	-0.02817043
249	0xbd1ac89a	-0.037788965
250	0xbd0cb341	-0.034350637
251	0xbc33b908	-0.010969408
252	0x3c81b4c9	0.015833275
253	0xbd563960	-0.05230081
254	0xbd5b883c	-0.05359672
255	0xbce7a478	-0.028276667

model/hidden/output_layer/b f4 [256]
0	0x3c3d6ce2	0.011561604
1	0xbbe83480	-0.0070863366
2	0x3c0aee0d	0.008479607
3	0xbc1b3cfc	-0.009474989
4	0x3b4037a8	0.0029330049
5	0x3bb6b47b	0.005575714
6	0x3bbafef6	0.0057066632
7	0x3c0c6342	0.008568587
8	0xbc2e5c9c	-0.010642197
9	0x3c553d92	0.013015168
10	0xbc687975	-0.014189114
11	0x3ba3740a	0.004988198
12	0x3b9d2194	0.0047952626
13	0x3b044459	0.002018234
14	0x3c27b505	0.0102360295
15	0x3c0efc0c	0.008727085
16	0xbc089eae	-0.008338613
17	0x3b09404a	0.002094286
18	0xbc0d3e16	-0.0086207595
19	0x3c18d344	0.009327713
20	0xbc1f96af	-0.009740516
21	0xbc24cead	-0.010059041
22	0x3b881f3d	0.0041541145
23	0xbbc56d1e	-0.0060249707
24	0xbc330760	-0.010927051
25	0x3c3e6413	0.011620539
26	0xbc0ae208	-0.008476742
27	0x3b1e6103	0.002416671
28	0xbc03c179	-0.008041733
29	0x3c6b8bc6	0.014376586
30	0xbc46c9d3	-0.01213308
31	0xbc1f4dec	-0.009723168
32	0x3a949a0b	0.0011337412
33	0xbc623e01	-0.013808728
34	0x3c02c9f1	0.007982717
35	0xbb656232	-0.0035001156
36	0xbc05da39	-0.008169704
37	0x3c0207c7	0.007936425
38	0x3bd69ac3	0.0065492108
39	0x3b54a01d	0.0032444068
40	0x3c118361	0.008881421
41	0x3bc4c60c	0.0060050543
42	0xbbbd2edd	-0.005773409
43	0x3c3cdbee	0.011527045
44	0x3c5bc74a	0.013414213
45	0xbc0d0ab5	-0.00860851
46	0xbc22df37	-0.009940914
47	0x3bc25a67	0.005931187
48	0xbc3fcddb	-0.011706795
49	0xba93e703	-0.0011284057
50	0xbc12ef97	-0.0089682555
51	0xbc2a60a3	-0.010399017
52	0xbc4133ac	-0.011792105
53	0x3b5555df	0.0032552404
54	0xbb22434e	-0.0024759355
55	0x3acda64b	0.0015689818
56	0xbc4142c5	-0.011795704
57	0xbb9544c9	-0.004555319
58	0x3b34817a	0.0027542994
59	0x3929d3de	0.00016196023
60	0xbb042754	-0.0020165043
61	0x3b7411a4	0.003724196
62	0x3c26b6fe	0.010175465
63	0xbba79841	-0.0051145856
64	0x3c068281	0.0082098255
65	0x3ba67c55	0.0050807395
66	0xbc2c3260	-0.010510057
67	0xbbe4609f	-0.006969526
68	0xbc14c6b2	-0.009080576
69	0xbbecfcfa	-0.0072323056
70	0xbc0a5cb8	-0.008444957
71	0x3c36e977	0.011164061
72	0xbb759941	-0.003747538
73	0xbc559541	-0.013036073
74	0xbb984685	-0.0046470785
75	0x3a125a1c	0.00055828854
76	0x3a62d9b4	0.0008653656
77	0x3c0bad96	0.008525273
78	0x3b25c0ce	0.0025291923
79	0x3bf8b916	0.0075904233
80	0xbc5195a7	-0.012792028
81	0xbc1b503f	-0.009479581
82	0xba73a318	-0.0009294017
83	0xbaf4a0e9	-0.0018663678
84	0x3bb9229c	0.0056498777
85	0xbc47739a	-0.012173558
86	0xbb3c2352	-0.0028707576
87	0x3be8a11c	0.007099284
88	0xbc801f15	-0.015639821
89	0xbc24de3e	-0.010062752
90	0x3c2e39e3	0.010633918
91	0x3c1da5bd	0.009622035
92	0x3c1fb183	0.009746912
93	0x3bb997d0	0.0056638494
94	0xbb81f8c6	-0.0039664237
95	0x3bce6bb3	0.00629946
96	0xbc12ab9e	-0.00895205
97	0xbc1ffef8	-0.009765379
98	0x3c2a1637	0.010381273
99	0xbbe5acc8	-0.0070091225
100	0x3c11e346	0.008904284
101	0xbacd6210	-0.0015669484
102	0xbc46d811	-0.012136475
103	0x3b9507c5	0.0045480453
104	0x3b104423	0.002201327
105	0x3c258573	0.010102618
106	0xbc2be543	-0.010491672
107	0xba1e68f8	-0.0006042863
108	0x3c15dd22	0.00914696
109	0xbabf35d8	-0.001458819
110	0x3c3f880a	0.011690149
111	0x3bd54403	0.006508352
112	0xbc698c95	-0.014254709
113	0x3beb56fa	0.0071819993
114	0xbc0cd845	-0.008596485
115	0xbc0aebf8	-0.008479111
116	0xbc3e9775	-0.01163279
117	0xbaad5d5d	-0.0013226677
118	0x3b17b358	0.0023147669
119	0x3c3c0e64	0.01147804
120	0x3bcd83c7	0.0062718126
121	0x3bc44b83	0.005990447
122	0x3be0528c	0.006845778
123	0xb9afebdf	-0.0003355434
124	0xbb55e04c	-0.0032634912
125	0x3be91f55	0.007114331
126	0x3c09987b	0.008398171
127	0xb98ef7fc	-0.00027269113
128	0x3b5f2d1d	0.003405399
129	0xbc31f99b	-0.010862733
130	0x3c1ef213	0.00970127
131	0xbbe742ca	-0.0070575224
132	0x3c165010	0.009174362
133	0x3918608e	0.00014531819
134	0x3ba8dc8b	0.005153244
135	0xbc28ae39	-0.010295444
136	0xbc182a12	-0.009287374
137	0x3b9110d0	0.004427053
138	0x3c339219	0.010960125
139	0x3a0ebce4	0.0005445017
140	0x3c324dcb	0.010882805
141	0xbc0ed566	-0.00871787
142	0x3c0eb932	0.008711146
143	0xbbb960d2	-0.005657294
144	0xbc3fa1a6	-0.011696255
145	0x3c2eb6d7	0.01066371
146	0x3c0fa6c9	0.008767792
147	0xbbc6d7aa	-0.0060681896
148	0x3bae0c5c	0.005311532
149	0xbc0850de	-0.0083200615
150	0xbc104530	-0.008805558
151	0x3ae9f8a0	0.0017850585
152	0xbb8a436b	-0.0042194626
153	0xbc23432c	-0.0099647455
154	0xb93b51cd	-0.00017864183
155	0x3b9b0267	0.004730511
156	0xbbf2ec67	-0.0074134353
157	0xbac292d4	-0.0014844784
158	0x382e3ed0	4.154333e-05
159	0x3b8ce5c6	0.004299852
160	0xbb47969f	-0.0030454767
161	0x3bec8367	0.007217813
162	0xbb55e360	-0.0032636747
163	0x3bbcad2b	0.005757948
164	0xbc035858	-0.008016668
165	0xbc4d01a2	-0.012512596
166	0xbc1e7a60	-0.009672731
167	0xbb46e8cc	-0.003035116
168	0xbafb1468	-0.0019155862
169	0x3c7637a2	0.015027912
170	0x3c29fe77	0.010375611
171	0xbc19c9c8	-0.009386487
172	0xbb4380e7	-0.002983147
173	0x3c38758b	0.011258493
174	0x3c713096	0.014721056
175	0x3ab1f474	0.0013576881
176	0xb9a0cb03	-0.00030668834
177	0x3bcd30e8	0.0062619336
178	0x3b979a62	0.004626558
179	0xbab8fceb	-0.0014113461
180	0x3c265fa6	0.01015464
181	0x3c4df59d	0.012570766
182	0xbc330fba	-0.0109290425
183	0xbb76e8d1	-0.003767539
184	0x3c413d8c	0.011794459
185	0xbc3ca5a7	-0.011514104
186	0x3c1e7e52	0.009673672
187	0x3a5f0b52	0.0008508462
188	0xbbcee236	-0.0063135875
189	0xbbfc4040	-0.007698089
190	0x3be15ff2	0.0068778927
191	0xbc22af63	-0.009929511
192	0xbb382e84	-0.0028103897
193	0x3b61bbdf	0.0034444255
194	0xba9ebd08	-0.0012110779
195	0xbced1805	-0.028942117
196	0x3c1f4c89	0.009722837
197	0xb936bb46	-0.00017426637
198	0x3c01fca1	0.007933767
199	0xbc1a1998	-0.009405516
200	0x3bf2ef9d	0.007413818
201	0x3b82a812	0.0039873207
202	0x3b82d6ca	0.00399289
203	0xbc3bda1b	-0.011465575
204	0x3c83e18b	0.016098758
205	0xbc2cbfba	-0.010543758
206	0x3bb6adb3	0.005574906
207	0xbaebd176	-0.0017991501
208	0xbb887e52	-0.004165449
209	0xb9093bb4	-0.0001308758
210	0xbbb433e9	-0.0054993522
211	0x3b292bc3	0.0025813438
212	0xbc2c239e	-0.010506539
213	0xbc1b1650	-0.009465769
214	0x3c102508	0.008797891
215	0x3a573c64	0.0008210598
216	0x3c1a9bde	0.009436576
217	0xb93b0148	-0.00017834187
218	0xbc169e34	-0.009192992
219	0x3c0bfa37	0.008543543
220	0xbb033555	-0.0020020802
221	0x3c2b7db4	0.010466982
222	0x3c73ad0e	0.014872802
223	0xbc235bc1	-0.009970606
224	0x3c1e7a7f	0.00967276
225	0x3b254a55	0.0025221307
226	0x3b859663	0.0040767654
227	0xbbdedaa2	-0.0068009654
228	0xbc850a1a	-0.016240168
229	0x3bcf5b1d	0.006328
230	0xbc32a1b0	-0.010902807
231	0x3c4043c1	0.011734904
232	0x3c1aa2b1	0.009438203
233	0xbbf13dcf	-0.0073621045
234	0x3ca1777c	0.019710295
235	0xbbac1370	-0.0052513406
236	0xbbb90327	-0.0056461277
237	0xba3c7001	-0.0007188321
238	0x3c4c8fb8	0.012485437
239	0x3b7f1020	0.0038919523
240	0x3c336906	0.0109503325
241	0xbb87467c	-0.0041282754
242	0x3c66c27d	0.014084456
243	0xbb93be28	-0.0045087524
244	0x3ab18036	0.0013542238
245	0x3c15858a	0.0091260765
246	0xbb0e0bbb	-0.0021674472
247	0x391bce32	0.00014858766
248	0x3ba0baec	0.0049050953
249	0xbc1b3d8d	-0.009475124
250	0x3bf4d7a2	0.0074719945
251	0x3bc3c73e	0.0059746793
252	0x3bbeba12	0.005820521
253	0x3ae90545	0.001777806
254	0x3af33f44	0.0018558283
255	0x3b52974d	0.003213364

model/a_stream/W f4 [3, 256]
0	0xbcb5bd03	-0.022184854
1	0x3c6c1f9b	0.014411832
2	0xbd756778	-0.05991313
3	0x3d0ab51c	0.033864126
4	0xbcbbe065	-0.022934148
5	0xbcd6a906	-0.026203644
6	0x3d4bb9b3	0.049737643
7	0xbc7f5149	-0.015583345
8	0x3d40d362	0.04707659
9	0xbcd82bb9	-0.026388036
10	0x3cca903d	0.024726981
11	0xbbb6ec14	-0.005582342
12	0xbca1a4b2	-0.019731853
13	0xbd837c88	-0.06420237
14	0xbc765aac	-0.015036266
15	0xbb8795f4	-0.004137749
16	0x3cb6367a	0.022242773
17	0xbcda5348	-0.02665104
18	0x3cad4fba	0.02115618
19	0xbc1df839	-0.0096417
20	0x3ca00070	0.019531459
21	0x3bdf7226	0.0068190275
22	0xbc1bddca	-0.009513328
23	0x3d20a183	0.03921653
24	0x3d1856bb	0.037192088
25	0xbd812f3d	-0.06307838
26	0x3cc684ca	0.02423324
27	0xbd34dca4	-0.04415573
28	0x3d972f31	0.07382048
29	0xbd02a538	-0.031895846
30	0x3c87ae55	0.01656262
31	0x3cc0625a	0.023484398
32	0xbd20a443	-0.039219152
33	0x3ca21e41	0.019789817
34	0xbcb17de4	-0.021666475
35	0xbd15dd9f	-0.036588307
36	0x3cc78ac5	0.024358163
37	0xbd86da47	-0.06584602
38	0x3b36dc5f	0.0027902348
39	0xbd8de2b5	-0.069280066
40	0xbc8400f0	-0.016113728
41	0x3d6902cd	0.056887437
42	0x3d295a9b	0.041346174
43	0xbc243100	-0.010021448
44	0x3d75fa4a	0.060053147
45	0x3c8beba3	0.017080134
46	0x3c97af81	0.018516304
47	0x3d5a074b	0.05322961
48	0x3d3bf14a	0.045884408
49	0xbce91b9a	-0.028455544
50	0x3c21214c	0.009834599
51	0x3cffcc36	0.031225305
52	0x3c370f9b	0.011173154
53	0x3d572702	0.052527435
54	0xbd1cd469	-0.038288508
55	0x3cec62b3	0.028855657
56	0x3d2f15ef	0.042745527
57	0x3c94ec3d	0.018179053
58	0x3d91f57d	0.07126901
59	0xbc9f4b01	-0.019444944
60	0xbd15aea3	-0.0365435
61	0x3ce832a4	0.02834446
62	0xbcb129a4	-0.021626301
63	0xbbf1afdc	-0.0073757004
64	0xbcad1a4f	-0.021130709
65	0xbceda70f	-0.029010324
66	0x3c3ad7a0	0.011403948
67	0x3acec4a6	0.0015775159
68	0x3b4697ae	0.003030281
69	0x3c954916	0.018223327
70	0x3c7cfa3a	0.015440518
71	0xbc18459a	-0.009293938
72	0x3d0b446f	0.03400081
73	0x3c2e7509	0.010648021
74	0xbd6b817d	-0.057496537
75	0xbd6e82b8	-0.058230132
76	0x3cc710df	0.024300037
77	0xbd5cd53f	-0.053914305
78	0xbd6aece2	-0.057354815
79	0x3d4c0f92	0.049819537
80	0x3cf64939	0.030064212
81	0x3d98a578	0.07453436
82	0xbd44962b	-0.047994774
83	0xbcec80a5	-0.028869936
84	0x3d74053b	0.0595753
85	0x3bd7711d	0.0065747635
86	0x3d48ac89	0.048992667
87	0x3c8cb38b	0.017175457
88	0x3cdd8722	0.027041975
89	0x3c67da12	0.014151113
90	0x3d851fcf	0.06500208
91	0xbaa70178	-0.0012741527
92	0xbb9f37c3	-0.0048589422
93	0xbd872c37	-0.0660023
94	0x3aa299c6	0.0012405447
95	0xbc20d8da	-0.009817326
96	0x3c3ba364	0.01145253
97	0x3d54388c	0.05181174
98	0xbbc39034	-0.005968118
99	0xba94d3ed	-0.0011354663
100	0xbc3fae4b	-0.0116992695
101	0xbd2df203	-0.04246713
102	0x3cf715b5	0.030161718
103	0x3d616ea5	0.05503716
104	0xbd0a63d3	-0.033786606
105	0xbcfe1445	-0.031015525
106	0x3c62ce27	0.013843096
107	0x3d3c7777	0.046012368
108	0xbd6ab97c	-0.057305798
109	0x3cdf83bb	0.027284494
110	0xbcd6f5f2	-0.026240323
111	0x3d79f3b4	0.06102343
112	0x3c515fdb	0.012779201
113	0x3d68b896	0.05681666
114	0x3b3008d7	0.0026860738
115	0x3c57f9e7	0.01318214
116	0x3cb3a366	0.0219285
117	0x3ba3a8ee	0.004994503
118	0xbd8c9457	-0.06864231
119	0xbcfd37c5	-0.030910382
120	0xbcde9d08	-0.027174488
121	0xbd841592	-0.06449427
122	0xbce54163	-0.02798528
123	0x3bc66af0	0.0060552284
124	0x3d053938	0.03252527
125	0x3bb74972	0.005593472
126	0xbaf0d213	-0.0018373154
127	0x3d01dee2	0.0317067
128	0xbd715a11	-0.058923785
129	0x3cc17ab4	0.02361808
130	0xbd870c98	-0.06594199
131	0xbbf46d6f	-0.0074593346
132	0xbbc2c6c0	-0.005944103
133	0xbba0e93e	-0.004910617
134	0x3d0f7f69	0.035033617
135	0x3baeed35	0.005338336
136	0x3bf5575d	0.007487221
137	0x3c6cf744	0.01446325
138	0x3c12dde2	0.008964034
139	0xbb40db7e	-0.0029427703
140	0xbc0b6faa	-0.0085105095
141	0x3c4eba0d	0.0126176
142	0xbd21180b	-0.03932957
143	0x3d82596c	0.06364712
144	0x3cc18075	0.023620823
145	0xbced0725	-0.02893407
146	0xbca9909c	-0.020698838
147	0x3c66794e	0.014067007
148	0x3d315768	0.043296248
149	0x3c859ace	0.016309168
150	0x3b4def0a	0.0031422996
151	0xbcc3043d	-0.023805732
152	0xbd844525	-0.06458501
153	0x3c8c4a15	0.017125169
154	0x3c82d433	0.015970325
155	0xbd395fcd	-0.04525738
156	0x3ca234c6	0.019800555
157	0x3ceecc55	0.029150167
158	0x3d3a28a5	0.045448918
159	0xbd19bac3	-0.037531625
160	0x3d5cf3c2	0.053943403
161	0xbce36dfc	-0.027762406
162	0xbbabe5a8	-0.005245883
163	0x3d0204f1	0.031742994
164	0x3cb7d584	0.02244068
165	0x3c90afa1	0.017661871
166	0x3ab0e4b0	0.0013495889
167	0xbd37ba04	-0.044855133
168	0xbc96c0ce	-0.018402483
169	0x3d71c4e5	0.059025664
170	0x3be86274	0.0070918147
171	0x3c41c1f1	0.011826024
172	0x3d43ff17	0.047850695
173	0xbc46b9c0	-0.012129247
174	0xbc8f2bdf	-0.017476974
175	0xbcb16aa0	-0.021657288
176	0x3d20e453	0.039280247
177	0xbce3cb22	-0.027806822
178	0xbd0e1095	-0.034683783
179	0xbd06ff0d	-0.03295808
180	0xbcf0bf32	-0.029388044
181	0xbd0bf634	-0.034170344
182	0x3c561506	0.013066536
183	0x3c8f26eb	0.017474612
184	0xbb8a22b1	-0.0042155613
185	0x3ca271d9	0.019829677
186	0xbc593d1f	-0.013259201
187	0xbd4dd5f9	-0.05025289
188	0x3cd36cac	0.025808655
189	0xbb8f20b8	-0.004367914
190	0xbca4dbf0	-0.020124406
191	0xbbb1a95f	-0.005421802
192	0x3d23742c	0.039905712
193	0x3d520c00	0.051280975
194	0x3ce1bbca	0.027555365
195	0xbda139a6	-0.07872324
196	0xbce7bafe	-0.028287407
197	0x3c6bdb19	0.014395499
198	0xbd04e88a	-0.03244833
199	0x3bc9e810	0.006161697
200	0xbd90fdee	-0.07079683
201	0xbb807992	-0.0039207423
202	0xbd0b6f0e	-0.034041457
203	0x3d27be2a	0.04095284
204	0x3d9d0ce4	0.07668474
205	0x3a0dc49a	0.0005408019
206	0xbcf0a285	-0.02937437
207	0x3cf20b3e	0.029546376
208	0x3d09392a	0.03350178
209	0xbc904962	-0.017613117
210	0x3d6de02a	0.058075108
211	0xbd6f65a1	-0.05844653
212	0x3bf0fa11	0.007354029
213	0x3b9e3ba8	0.004828889
214	0x3d7a80b6	0.061157905
215	0xbc4b3966	-0.012403822
216	0xbbc13a3c	-0.0058968347
217	0xbd884630	-0.06654012
218	0x3b4ba2c5	0.003107236
219	0xbc845ff9	-0.016159045
220	0x3cc3d06d	0.023903096
221	0xbc7c0340	-0.015381634
222	0xbc90cebb	-0.017676702
223	0x3da37958	0.07982129
224	0xbc301a82	-0.010748507
225	0xbd2f8e82	-0.042860515
226	0x3b967576	0.004591639
227	0x3cbd6213	0.023118054
228	0x3cb4f863	0.022091096
229	0xbc8e89cd	-0.017399693
230	0x3c748fe7	0.014926887
231	0xbc3509ea	-0.011049727
232	0xbc17be56	-0.009261688
233	0x3d5a66f7	0.05332085
234	0x3d96abe2	0.07357003
235	0xbbe4899d	-0.0069744126
236	0x3ce23bdd	0.027616436
237	0xbb6d99ab	-0.0036254923
238	0xbcb5f639	-0.022212135
239	0x3c012984	0.007883433
240	0xbc58ab05	-0.013224368
241	0xbbcc40ea	-0.0062333243
242	0xbd3db92f	-0.046319183
243	0x3cf72802	0.030170444
244	0xbd707c99	-0.058712576
245	0xbc59f8c0	-0.0133039355
246	0x3d4244f7	0.04742905
247	0x3d45a370	0.04825157
248	0x3a045866	0.0005048573
249	0x3bee0b13	0.0072645037
250	0xbd0a19f7	-0.03371617
251	0x3d34c95a	0.044137336
252	0xbc9d8bdc	-0.01923173
253	0x3ca1504f	0.019691614
254	0xbd61f5a1	-0.05516589
255	0x3d4922d9	0.0491055

model/hidden/mid_rec_layer/upward/W f4 [80, 86]
0	0xbabe723b	-0.0014529893
1	0x3c412c5f	0.011790364
2	0x3c054d24	0.008136068
3	0x3abf13cc	0.0014578043
4	0x3c9152a1	0.017739596
5	0xbc33413c	-0.010940846
6	0xb9e5d05a	-0.00043833518
7	0x3beff860	0.00732331
8	0xbc4fcef8	-0.012683623
9	0x3c23d70a	0.01
10	0x3c89ca72	0.016820166
11	0x3c23d70a	0.01
12	0xbb8808cf	-0.0041514407
13	0x3d82f390	0.06394112
14	0x3c23d70a	0.01
15	0xbd6d3e4d	-0.057920743
16	0x3da48398	0.08032912
17	0x3c23d70a	0.01
18	0xbdc0c4a5	-0.09412507
19	0x3d6e5659	0.058187816
20	0x3c23d70a	0.01
21	0xbd31fabb	-0.043452006
22	0x3d901d4a	0.070368364
23	0x3c23d70a	0.01
24	0xbd99eeb1	-0.0751623
25	0x3a94fb0e	0.0011366324
26	0x3c23d70a	0.01
27	0xbd1eb625	-0.038747925
28	0x3dc3d1e7	0.0956152
29	0x3c23d70a	0.01
30	0xbd1abaae	-0.037775688
31	0x3d4ed283	0.05049373
32	0x3c23d70a	0.01
33	0x3c164418	0.009171508
34	0xbc4450ff	-0.011982202
35	0x3c23d70a	0.01
36	0xbca64b61	-0.020299615
37	0x3cc17529	0.023615437
38	0x3c23d70a	0.01
39	0xbced204c	-0.028946064
40	0xbbe728d5	-0.007054428
41	0x3c23d70a	0.01
42	0xbd4c4d2b	-0.04987828
43	0x3cc9f63a	0.024653543
44	0x3c23d70a	0.01
45	0x3a29cd1d	0.00064774026
46	0xbc1bf7cc	-0.009519529
47	0x3dab51df	0.08365225
48	0xbcb884cb	-0.022524258
49	0xbc7fc349	-0.015610524
50	0x3bf8bd9c	0.0075909626
51	0x3d643c72	0.055721708
52	0x3c4228cf	0.01185055
53	0x3d85740a	0.06516273
54	0xbc6fceda	-0.01463672
55	0xbba406ca	-0.005005692
56	0x3c23d70a	0.01
57	0xbbee089a	-0.007264209
58	0x3d1ad561	0.03780115
59	0x3c23d70a	0.01
60	0x3d5b4efe	0.05354213
61	0x3c667bb1	0.014067576
62	0xbc872e62	-0.01650161
63	0x3d396f7a	0.045272328
64	0xbd77902e	-0.060440235
65	0x3dcda04c	0.1004034
66	0x3dc74d0d	0.09731493
67	0xbb9fd833	-0.004878068
68	0xbcce084e	-0.025150444
69	0x3c651b9e	0.013983635
70	0xbd01a0dd	-0.03164755
71	0x3c23d70a	0.01
72	0xbd687eae	-0.056761436
73	0x3c1fc254	0.009750921
74	0x3c23d70a	0.01
75	0x3c25c29b	0.010117198
76	0xbd23060b	-0.039800685
77	0x3da0d979	0.078539796
78	0x3c51ac1e	0.012797384
79	0xbd45b241	-0.0482657
80	0xbd32e770	-0.043677747
81	0x3cb7d313	0.022439515
82	0xbd15157e	-0.03639745
83	0xbcaafaea	-0.020871598
84	0x3c3eb9c7	0.011640972
85	0xbd11bf57	-0.035582867
86	0xbc8b82c6	-0.017030131
87	0xbe23d961	-0.16000892
88	0xbe06b5de	-0.13155314
89	0xbd3561f4	-0.04428287
90	0xbd8f0417	-0.06983202
91	0xbd856fd1	-0.06515468
92	0xbdaaaf1a	-0.08334179
93	0xbd8e2893	-0.06941333
94	0xbebec10a	-0.37256652
95	0x3c23d70a	0.01
96	0xbd9b381d	-0.07579062
97	0x3c23d70a	0.01
98	0xbdc2dac5	-0.09514383
99	0xbd4274d6	-0.047474705
100	0x3c23d70a	0.01
101	0x3de1ed6d	0.110316135
102	0xbd3dfff2	-0.046386667
103	0x3c23d70a	0.01
104	0x3e0d9acb	0.1382858
105	0xbd34e7d9	-0.04416642
106	0x3c23d70a	0.01
107	0x3d82ebac	0.06392607
108	0xbdbc8064	-0.09204176
109	0x3c23d70a	0.01
110	0x3e380341	0.17969991
111	0xbce0d925	-0.027447293
112	0x3c23d70a	0.01
113	0x3cdbb50c	0.026819728
114	0xbd37e64b	-0.04489736
115	0x3c23d70a	0.01
116	0x3b1cc9c1	0.0023923966
117	0xbe0348ad	-0.12820692
118	0x3c23d70a	0.01
119	0x3caadd4c	0.020857476
120	0xbddfbf63	-0.10925176
121	0x3c23d70a	0.01
122	0x3d223b03	0.03960706
123	0xbbccf4e7	-0.0062547806
124	0x3c23d70a	0.01
125	0x3d8f9f00	0.07012749
126	0xba8ee17a	-0.0010900937
127	0x3c23d70a	0.01
128	0x3d2ff590	0.042958796
129	0xbdbd3e7b	-0.09240433
130	0x3c23d70a	0.01
131	0x3d16f070	0.036850393
132	0xbe27442a	-0.16334596
133	0xbdb372c3	-0.087621234
134	0x3da020a5	0.078187265
135	0xbe806da9	-0.25083664
136	0xbdfe57e7	-0.1241911
137	0xbe106748	-0.14101899
138	0xbe295654	-0.16536838
139	0xbd8f5322	-0.06998278
140	0x3da0c5e1	0.078502424
141	0xbc538a97	-0.01291146
142	0x3c23d70a	0.01
143	0x3b37da22	0.0028053601
144	0xbcce3c0e	-0.02517512
145	0x3c23d70a	0.01
146	0xbd8007e4	-0.06251505
147	0x3b18ed7b	0.0023334909
148	0xbb79fbb4	-0.0038144412
149	0xbe05f11c	-0.13080257
150	0xbd84fc01	-0.064933784
151	0xbe0c6eda	-0.13714162
152	0xbe4d1f9d	-0.20031591
153	0x3d638002	0.055542
154	0x3c9e3f00	0.01931715
155	0x3ce7973b	0.028270354
156	0x3d4ec639	0.05048201
157	0x3c23d70a	0.01
158	0x3dbd56aa	0.092450455
159	0x3bd7a946	0.0065814583
160	0x3c23d70a	0.01
161	0xbd83971d	-0.06425307
162	0x3d8b6e65	0.068081655
163	0xbe03dea8	-0.12877905
164	0xbd91c6de	-0.07118009
165	0x3c78ec72	0.015193092
166	0x3cbe1cc4	0.023207076
167	0xbe56e879	-0.20987119
168	0x3d27b915	0.040947992
169	0xbc17cb64	-0.009264801
170	0xbe11aabb	-0.14225285
171	0x3d8ba012	0.0681764
172	0xbdd97717	-0.10618418
173	0xbe341ba3	-0.17588668
174	0xbe34f03d	-0.17669769
175	0xbd296187	-0.041352775
176	0xbe0566b5	-0.13027461
177	0xbd86e502	-0.065866485
178	0xbdc065ba	-0.09394403
179	0xbe0ad9fb	-0.13559715
180	0xbeab46c2	-0.3345242
181	0x3c23d70a	0.01
182	0xbdb1c26f	-0.086796634
183	0x3c23d70a	0.01
184	0xbd9a9ff6	-0.075500414
185	0xbd53ff7a	-0.051757313
186	0x3c23d70a	0.01
187	0xbd839dc7	-0.06426578
188	0xbd5ccbe6	-0.05390539
189	0x3c23d70a	0.01
190	0x3d936d2a	0.07198556
191	0xbd132eee	-0.035933428
192	0x3c23d70a	0.01
193	0x3d37c78b	0.044868033
194	0xbd8879b4	-0.06663838
195	0x3c23d70a	0.01
196	0x3e2b8033	0.16748123
197	0xbd2e08a3	-0.042488705
198	0x3c23d70a	0.01
199	0xbdf72df1	-0.120693095
200	0xbd93329c	-0.07187387
201	0x3c23d70a	0.01
202	0xbd06761d	-0.032827485
203	0xbdfd17c9	-0.12358052
204	0x3c23d70a	0.01
205	0xbd4daa2e	-0.050211124
206	0xbe2f2bc5	-0.1710654
207	0x3c23d70a	0.01
208	0xbccf3b7b	-0.025296917
209	0xbce7b9e7	-0.028286887
210	0x3c23d70a	0.01
211	0x3cf1d2dd	0.029519493
212	0xbd0c9dfb	-0.03433035
213	0x3c23d70a	0.01
214	0x39765e9c	0.00023495633
215	0xbdda4a17	-0.10658663
216	0x3c23d70a	0.01
217	0xbc55e7ca	-0.013055751
218	0xbe0d159e	-0.13777778
219	0xbdce45b9	-0.10071892
220	0x3d3887b4	0.04505129
221	0xbe73a3dd	-0.23792978
222	0xbe100cc3	-0.14067368
223	0xbdea9281	-0.11453725
224	0xbdfc1b8b	-0.12309941
225	0xbdbe009a	-0.092774585
226	0x3d97ce7e	0.07412432
227	0xbcce88da	-0.02521174
228	0x3c23d70a	0.01
229	0xbd14e8ae	-0.036354713
230	0xbd346168	-0.044038206
231	0x3c23d70a	0.01
232	0xbcd40ae4	-0.0258841
233	0xbbe8eebd	-0.007108538
234	0xbce85d4f	-0.028364806
235	0xbdb97169	-0.090548344
236	0xbdd0a201	-0.1018715
237	0xbe260ee0	-0.16216612
238	0xbe306490	-0.17225862
239	0x3c52e521	0.012872011
240	0x3b3471cc	0.0027533649
241	0xbb51ce00	-0.0032013655
242	0x3b9be4c1	0.004757494
243	0x3c23d70a	0.01
244	0x3d607318	0.054797262
245	0xbd250d60	-0.04029596
246	0x3c23d70a	0.01
247	0xbcc4dc0b	-0.024030706
248	0x3cb99627	0.022654606
249	0xbe05d3cc	-0.13069075
250	0xbdab65d6	-0.08369033
251	0xbd9320d5	-0.071839966
252	0x3baeba13	0.0053322404
253	0xbe42fdfb	-0.19042198
254	0x3caa1f2b	0.020766815
255	0xbcfdc1ec	-0.030976258

model/hidden/mid_layer/W f4 [256, 256]
0	0x3c63bcc4	0.013899986
1	0xba1d70df	-0.0006005894
2	0x3a69b8a6	0.00089157594
3	0xbc255489	-0.0100909555
4	0xbbd31562	-0.006441758
5	0xbc81b590	-0.015833646
6	0xbc473b13	-0.0121600805
7	0xbc27ecd7	-0.010249338
8	0x3accb98d	0.0015619263
9	0xbb6855d9	-0.003545156
10	0xbc3e2da4	-0.011607561
11	0xbc6be475	-0.01439773
12	0xbcd5970c	-0.026073001
13	0xbc79a761	-0.01523766
14	0xbc93db83	-0.018049007
15	0xbcadfb97	-0.021238131
16	0xbcb5bfc8	-0.022186175
17	0xbc9c687a	-0.019092787
18	0xbcb8f298	-0.022576615
19	0x3bf69529	0.0075251055
20	0xbd13464b	-0.03595571
21	0xbb273633	-0.0025514483
22	0xba8b8078	-0.0010643145
23	0xbc6760a0	-0.014122158
24	0xbd0d534e	-0.034503274
25	0xbc09440c	-0.00837804
26	0x3c3cd2bf	0.011524855
27	0x391b3fb0	0.00014805677
28	0xbbc84865	-0.0061121457
29	0xbb9a2f16	-0.00470532
30	0xbc9704bb	-0.018434873
31	0x3bc6a70c	0.006062394
32	0xbc30ff2d	-0.010803026
33	0xbb07bc4c	-0.00207116
34	0x3be4784b	0.006972348
35	0xbcf64cdf	-0.030065952
36	0xbc0efef7	-0.008727781
37	0xbb269338	-0.002541734
38	0xbb94c350	-0.0045398846
39	0xbc9e9658	-0.019358799
40	0xbc9612ab	-0.018319448
41	0xbcab62ae	-0.020921078
42	0xba3ebd71	-0.0007276154
43	0xbc9e7f32	-0.01934776
44	0x3c18631e	0.009300975
45	0xba2847cf	-0.0006419392
46	0xbc164678	-0.0091720745
47	0x3c266ffc	0.010158535
48	0x3c2a3ea3	0.01039091
49	0x3b90fe01	0.004424811
50	0xbc470192	-0.0121463705
51	0x3b3c2415	0.002870803
52	0xbc146d78	-0.0090593025
53	0xbab7312b	-0.0013976445
54	0xbbded84b	-0.0068006865
55	0xbcda806d	-0.026672566
56	0x3b10a201	0.0022069218
57	0xbc1ae5c9	-0.009454199
58	0xbc8dd4da	-0.01731341
59	0x3c3d4d2e	0.011554046
60	0xbc697892	-0.014249938
61	0x3b779681	0.0037778916
62	0xbc40272e	-0.011728091
63	0xbc752053	-0.01496132
64	0xbc0b740b	-0.0085115535
65	0xbc7876c1	-0.015165032
66	0xbc1edb29	-0.009695807
67	0x3bb2e266	0.0054591177
68	0xbc0bcb84	-0.008532409
69	0xbbff44a7	-0.0077901664
70	0xbc9440c1	-0.018097283
71	0xbc378f84	-0.01120365
72	0x3b2b5409	0.0026142618
73	0xbc87bbb0	-0.016568989
74	0xbc4ab310	-0.012371793
75	0xbcedaa0c	-0.029011749
76	0xbc60896c	-0.013704639
77	0xbb2d81d9	-0.00264751
78	0xbcb10b17	-0.021611733
79	0xbc379a2f	-0.011206194
80	0x3b13ac24	0.0022533024
81	0xbb8bc8de	-0.0042658886
82	0xbadbe2a2	-0.0016775916
83	0xbb438865	-0.0029835936
84	0xbc2ec728	-0.0106676
85	0xba6f9d4a	-0.00091405644
86	0xbc067486	-0.008206492
87	0xbb9722ed	-0.004612318
88	0xbc470cfa	-0.01214909
89	0xbc5f53d3	-0.013630825
90	0xbcc40ee2	-0.023932878
91	0xbb4a20fb	-0.0030842412
92	0x38e59572	0.00010947407
93	0xbc8e5ae0	-0.017377317
94	0xbc8cc8cb	-0.01718559
95	0x3cb19759	0.021678613
96	0xbb476d49	-0.003043013
97	0xbd2e812b	-0.042603653
98	0xbc3b6fa1	-0.011440189
99	0xbc907553	-0.01763407
100	0xbc72e785	-0.014825706
101	0xbcfa114e	-0.03052583
102	0xb9db9254	-0.00041879958
103	0xbc0686b6	-0.0082108285
104	0xbc884202	-0.016633037
105	0xbd3956f9	-0.04524896
106	0x3cb7d891	0.022442134
107	0xbd0ecf53	-0.03486569
108	0xbcac0ce4	-0.02100224
109	0xbce92ff9	-0.028465258
110	0x3ad99560	0.0016600303
111	0xbc54bb79	-0.01298415
112	0xbcc1e9ac	-0.023670994
113	0xbc37d51f	-0.011220246
114	0x3ca3ffe7	0.020019485
115	0xbc4e7666	-0.012601471
116	0xbbb7168d	-0.005587405
117	0xbc923d21	-0.017851414
118	0xb9bf75eb	-0.00036518215
119	0xbb008a71	-0.0019613768
120	0x3b73eb21	0.0037219005
121	0x3b296bb9	0.0025851561
122	0xbc1e388e	-0.009657038
123	0xbc6994a4	-0.01425663
124	0xbc2a1795	-0.010381599
125	0xbd1e0552	-0.038579293
126	0xb84184e5	-4.6138553e-05
127	0xbb0a1322	-0.0021068533
128	0xbc4a168d	-0.012334478
129	0xbc5807ff	-0.0131855
130	0xbc5a125c	-0.013310041
131	0x3be265ff	0.0069091315
132	0xbcdc7250	-0.026909977
133	0xbc6960c6	-0.014244264
134	0xbcb3399d	-0.021878058
135	0xba9687d3	-0.001148457
136	0xbcaeb853	-0.021328127
137	0xbb92d0a4	-0.0044804383
138	0x3b2a797f	0.0026012359
139	0xbae93ac1	-0.0017793999
140	0x3ae714d7	0.0017630112
141	0xbc1edf60	-0.009696811
142	0x3c24fb53	0.010069686
143	0x3be3b943	0.006949575
144	0xbc58ec22	-0.013239892
145	0xbc647776	-0.013944497
146	0xbc5c6e3c	-0.013454016
147	0xbaef0108	-0.001823456
148	0xbb5fca3f	-0.0034147648
149	0xbae7e5a8	-0.0017692344
150	0xbc2471b9	-0.010036879
151	0xbb6ce4d5	-0.0036147137
152	0xbbc4a8d1	-0.00600157
153	0xbcd97c67	-0.026548577
154	0x3ca6cd03	0.02036143
155	0xbd008b21	-0.031382684
156	0xbcd62bdb	-0.026143959
157	0x3c19e967	0.009394026
158	0xba283450	-0.00064164866
159	0xbc0d9e0a	-0.0086436365
160	0x3a7c9d40	0.0009636469
161	0xbc7a57df	-0.015279739
162	0x3beed871	0.0072889854
163	0x3c65c063	0.014022919
164	0x39c78072	0.00038051937
165	0xbbd2945c	-0.006426377
166	0x3c380d3e	0.011233626
167	0x3c9695c7	0.018381966
168	0xbc1b850c	-0.00949217
169	0xbcc3fd14	-0.023924388
170	0x3ca8e219	0.020615624
171	0xbc129860	-0.008947462
172	0x3b6092eb	0.0034267257
173	0x39d9452e	0.00041441008
174	0xbc77bdb5	-0.015120913
175	0x3c03414d	0.008011174
176	0xbc3f1f24	-0.011665139
177	0xbaa44311	-0.0012532194
178	0x39e3db10	0.00043460028
179	0xbd04dfbe	-0.03243994
180	0xbb9389ff	-0.0045025344
181	0xbcb2a02e	-0.021804895
182	0xbc1a33be	-0.00941175
183	0xbc5dc073	-0.013534653
184	0xbbaf7db2	-0.00535556
185	0xbca959c8	-0.020672694
186	0xbc014ce6	-0.007891869
187	0xbc9400e0	-0.018066823
188	0xbd1067f1	-0.035255376
189	0xbcd2e85f	-0.025745569
190	0xbcc88e83	-0.024482017
191	0x3b8bfeb6	0.0042723073
192	0x3c75ac9e	0.014994768
193	0x3b511051	0.0031900594
194	0xba383b31	-0.0007027863
195	0xbc346e52	-0.011012631
196	0xbc1c6728	-0.009546079
197	0x3c10f5f2	0.0088477
198	0xbd21232f	-0.039340194
199	0x3c87f980	0.016598463
200	0xbbcb3ea8	-0.0062025376
201	0xbbecf4ea	-0.0072313445
202	0xbc39e614	-0.011346359
203	0xbd146feb	-0.036239546
204	0x3c486144	0.012230221
205	0xb9301e27	-0.000167959
206	0xbca78600	-0.020449638
207	0xbc4c6310	-0.01247479
208	0xbb6cfd37	-0.003616167
209	0xbc21c3e9	-0.009873369
210	0xbc87aabd	-0.016560907
211	0xbcbc5eb5	-0.022994379
212	0xbc961c8e	-0.018324163
213	0xbb469184	-0.0030299136
214	0xbcc9c643	-0.024630671
215	0xbccd56ac	-0.025065742
216	0xbcaab725	-0.020839283
217	0xbc4698ae	-0.012121363
218	0xbc04a2e9	-0.008095481
219	0xbcb55035	-0.022132972
220	0xbbbb5870	-0.0057173297
221	0xbb82bcd9	-0.0039897976
222	0xbd01a0d9	-0.031647537
223	0xbababc47	-0.0014246785
224	0x3bdb5044	0.006692918
225	0xbbca1925	-0.0061675482
226	0xbc8d0211	-0.0172129
227	0x3abc4a9a	0.0014365495
228	0x3ab65ef7	0.00139138
229	0xbc1ef46b	-0.0097018285
230	0xbb864534	-0.004097605
231	0xbb71cd22	-0.003689595
232	0xbb1b1769	-0.0023665077
233	0xbd030ca6	-0.031994484
234	0xbc88cf95	-0.016700545
235	0xbbb03361	-0.0053772186
236	0x3aa72080	0.0012750775
237	0xbc2787fb	-0.010225291
238	0x3babf1ab	0.005247315
239	0xbcf31bde	-0.029676374
240	0xbc50098e	-0.0126975905
241	0xbc80ddee	-0.015730824
242	0x3abf59a0	0.0014598854
243	0xbd0f778d	-0.035026122
244	0xbc7ec1a7	-0.0155491
245	0xbb83d546	-0.004023227
246	0xbc6506d2	-0.013978677
247	0xbd0bde9b	-0.03414784
248	0xbca1c80a	-0.019748706
249	0xbc09b4ed	-0.0084049525
250	0xbb288892	-0.0025716168
251	0xbc730fdf	-0.014835327
252	0xbc6bdb47	-0.0143955415
253	0xbbfa3861	-0.0076361154
254	0xbcd57449	-0.026056426
255	0x3bff13dc	0.00778435

model/a_stream/b f4 [3]
0	0x3c864093	0.016388213
1	0xbb90fedc	-0.004424913
2	0xba757cb8	-0.0009364593

model/hidden/mid_rec_layer/upward/b f4 [80]
0	0xbbac6b2c	-0.0052617993
1	0xbdd62ea5	-0.104581155
2	0x3f5bd8d6	0.8587774
3	0xbdd1ca27	-0.102436356
4	0xbba55ced	-0.005046478
5	0xbdc27971	-0.09495819
6	0x3f5e8f3e	0.8693732
7	0xbdc040e1	-0.09387375
8	0x3aee56e0	0.001818385
9	0xbdbffb08	-0.09374052
10	0x3f666766	0.90001523
11	0xbdbbfff0	-0.091796756
12	0xbb9b9ec4	-0.004749151
13	0xbdc89650	-0.09794295
14	0x3f5c2191	0.8598872
15	0xbdc5415a	-0.096316054
16	0xbbd3290c	-0.006444102
17	0xbdd1a667	-0.10236817
18	0x3f5c5bdf	0.86077684
19	0xbdce4432	-0.10071601
20	0xbb738f8a	-0.0037164413
21	0xbdb7f332	-0.08981933
22	0x3f5f1938	0.87147856
23	0xbdb5eb7f	-0.08882808
24	0xbb97a7ad	-0.004628143
25	0xbdeac523	-0.11463382
26	0x3f5dc5c0	0.8662987
27	0xbde6f7bf	-0.112777226
28	0x3a5d95e0	0.0008452814
29	0xbdcd1fb4	-0.100158125
30	0x3f64e002	0.8940431
31	0xbdc941da	-0.09827013
32	0xbad8d7a7	-0.0016543762
33	0xbde1e04e	-0.11029111
34	0x3f61df58	0.8823142
35	0xbddeae48	-0.10873085
36	0xbb969f5f	-0.0045966352
37	0xbdee64ce	-0.11640321
38	0x3f5c2609	0.8599554
39	0xbde889e9	-0.11354429
40	0xbbe9b6d4	-0.0071323905
41	0xbddcfefd	-0.10790823
42	0x3f5a7071	0.8532782
43	0xbdd8f2c6	-0.1059318
44	0xbb9eb496	-0.004843305
45	0xbdc7162b	-0.09721025
46	0x3f5e848a	0.8692099
47	0xbdc4875f	-0.095961325
48	0xbbaf511f	-0.0053502466
49	0xbd9f1e56	-0.07769458
50	0x3f5cb3dc	0.86211944
51	0xbd9d39b1	-0.076770194
52	0xbbcb142f	-0.0061974744
53	0xbdb5f207	-0.08884054
54	0x3f5d72b9	0.8650318
55	0xbdb48804	-0.088150054
56	0xbb8d060a	-0.0043036984
57	0xbdb030b2	-0.08603038
58	0x3f5f1145	0.87135726
59	0xbdae87ce	-0.085219964
60	0xbb7096dc	-0.0036711013
61	0xbdb81ab8	-0.08989471
62	0x3f60c85e	0.87805736
63	0xbdb63b5a	-0.08898039
64	0xbbbc5498	-0.005747389
65	0xbdb22935	-0.08699266
66	0x3f61fc85	0.8827594
67	0xbdb10ed5	-0.08645407
68	0xbbb7cf30	-0.0056094155
69	0xbddc3f56	-0.10754268
70	0x3f5b12f0	0.8557577
71	0xbdd6c5f1	-0.10486973
72	0xbbc97457	-0.006147902
73	0xbdc14596	-0.094371006
74	0x3f5ac8e7	0.854628
75	0xbdbecd04	-0.093164474
76	0xbbac267f	-0.0052536125
77	0xbdba08c1	-0.09083701
78	0x3f602cc4	0.87568307
79	0xbdb88eea	-0.09011634

model/hidden/input_layer/W f4 [256, 86]
0	0x3cc1d176	0.02365945
1	0xbd1788d2	-0.036995716
2	0xbc41b857	-0.011823735
3	0xbd7dcc3d	-0.061962355
4	0xbca26fc9	-0.019828694
5	0x3c97f7d1	0.018550785
6	0xbc17a5f6	-0.009255877
7	0x3c4c5aa1	0.0124727795
8	0xbd5ab308	-0.053393394
9	0x38abc30f	8.190248e-05
10	0xbe112af2	-0.14176539
11	0x3c681957	0.014166198
12	0xbdf61715	-0.12016121
13	0xbdfc4efb	-0.12319752
14	0xbc341660	-0.010991663
15	0x3d3e7c5b	0.046505313
16	0x3d298a1b	0.041391473
17	0xbbd92998	-0.006627273
18	0xbd0b69cb	-0.03403644
19	0xbe067c8b	-0.13133447
20	0x3ba8468a	0.005135362
21	0x3de3a27e	0.11114977
22	0x3d079eb9	0.033110354
23	0xbc41d00c	-0.011829387
24	0xbcb50a45	-0.022099623
25	0xbc90c467	-0.017671777
26	0x3ba8e232	0.0051539177
27	0xbc71fc8c	-0.0147696845
28	0xbe20c038	-0.15698326
29	0x3c9b9c57	0.018995447
30	0xbd5a7cb5	-0.053341586
31	0xbdc0dadc	-0.09416744
32	0x3ce1138d	0.027475143
33	0xbd157cb3	-0.036495876
34	0xbcdede2d	-0.027205551
35	0xbb32b856	-0.0027270517
36	0xbceab5a5	-0.028651068
37	0x3de54a3b	0.11195799
38	0x3ad81a95	0.0016487414
39	0xbd9984c7	-0.074960284
40	0x3c5981d0	0.013275579
41	0xbc26ef57	-0.010188899
42	0x3d952bca	0.07283743
43	0x3e00051f	0.12501954
44	0x3bfe9aa8	0.0077699013
45	0x3dd7ad19	0.10531063
46	0x3dd60b3e	0.10451363
47	0xbd933926	-0.071886346
48	0x3ce42bef	0.02785298
49	0x3cedfe30	0.02905187
50	0x3d970211	0.07373441
51	0xbd7b33a9	-0.061328564
52	0x3c13adcb	0.009013603
53	0xbdb0e5e2	-0.08637597
54	0x3bb009b9	0.005372253
55	0x3d624a95	0.05524691
56	0xb9bc7185	-0.00035942733
57	0xbd1df9a1	-0.038568143
58	0xbdf10c41	-0.11769915
59	0x3a9e978a	0.0012099606
60	0x3b9aa756	0.004719655
61	0xbc68a500	-0.014199495
62	0xbd08b179	-0.033372376
63	0xbc87da14	-0.01658348
64	0x3ac3d9f6	0.0014942277
65	0xbd8dd3f4	-0.069251925
66	0xbd8c3fe9	-0.068481274
67	0xbd826158	-0.06366223
68	0xbc9756dc	-0.018474035
69	0xbde441d1	-0.11145366
70	0xbd4b5fea	-0.049652018
71	0xbc2995d0	-0.0103506595
72	0x3d3a3831	0.045463745
73	0xbd5dac13	-0.05411918
74	0x3bdcb63f	0.0067355926
75	0x3d0f7255	0.035021145
76	0xbde5eb70	-0.11226547
77	0xbd262b74	-0.040568784
78	0xbbac638e	-0.0052608913
79	0xbd07f2ff	-0.033190724
80	0xbc5bd888	-0.013418324
81	0xbb4c9308	-0.0031215567
82	0xbd826f21	-0.063688524
83	0x3cd6952d	0.02619418
84	0xbd1de6cc	-0.038550183
85	0x3cc3b6c3	0.023890859
86	0xbca827f2	-0.02052686
87	0xbc9bc214	-0.019013442
88	0xbb594401	-0.0033152106
89	0xbc9ff7c9	-0.019527333
90	0xbca38321	-0.019959988
91	0xbc5e85cb	-0.013581703
92	0xbcaf9d97	-0.02143745
93	0xbd1837b5	-0.0371625
94	0xbc159434	-0.009129573
95	0xbb654d3b	-0.003498866
96	0xbd00d2c5	-0.031451005
97	0x3bd0ac02	0.006368161
98	0xbc4a2400	-0.012337685
99	0xbc698cc5	-0.0142547535
100	0xbc4c378e	-0.012464417
101	0xbb6518dd	-0.0034957447
102	0xbca0563c	-0.01957237
103	0x3c0cfff3	0.008605945
104	0xbbcd7ec5	-0.0062712156
105	0x3c886926	0.016651701
106	0xbade94a4	-0.0016981554
107	0xbbebf71f	-0.00720109
108	0xbc9fad91	-0.019491943
109	0x3b878a1c	0.004136337
110	0xbc06e498	-0.008233212
111	0xbd29c503	-0.04144765
112	0xbbaa743e	-0.0052018454
113	0xbb708eb4	-0.0036706151
114	0x3c7e6e24	0.015529189
115	0xbbc1867f	-0.0059059258
116	0xbc8ffeb5	-0.017577508
117	0xbbceb7b0	-0.0063085184
118	0xbbf0e40e	-0.007351405
119	0xbbcd5051	-0.006265678
120	0xbcd70c48	-0.026250973
121	0xbbcaf896	-0.0061941845
122	0xbc587562	-0.01321158
123	0x3c094beb	0.008379917
124	0x3bed3241	0.0072386567
125	0x3b673102	0.0035277014
126	0xbcbf1dc6	-0.023329627
127	0xbbb26d1b	-0.0054451353
128	0x3b64631f	0.003484912
129	0xbca959a0	-0.02067262
130	0x3b672521	0.0035269933
131	0xbc4558f9	-0.0120451385
132	0xbc987d40	-0.018614411
133	0xbced8a7e	-0.028996702
134	0x3bf74bed	0.007546893
135	0xbccbd873	-0.024883484
136	0xbca94997	-0.020664973
137	0x3c898458	0.01678674
138	0xbbbd5933	-0.0057784556
139	0xbbcc70da	-0.006239039
140	0xbc444dac	-0.011981409
141	0xbcc81818	-0.024425551
142	0x3c829b65	0.015943239
143	0x3c3fd100	0.011707544
144	0xbcc22cd6	-0.02370302
145	0x3c725514	0.014790792
146	0x3bfc322c	0.0076964106
147	0x3c561ab8	0.013067894
148	0xbc97a2bc	-0.018510215
149	0x3be7a81c	0.0070696007
150	0xbc926686	-0.017871153
151	0x3c0dfb47	0.008665866
152	0x3c223c44	0.009902064
153	0x3b05480c	0.0020337133
154	0xbc5f55fe	-0.013631342
155	0xbc7f028c	-0.015564572
156	0xbbfec5c5	-0.007775041
157	0xbb8a6ae8	-0.00422417
158	0xbc0d6b96	-0.0086316075
159	0xbcaa7131	-0.020805927
160	0x3b3d40aa	0.0028877654
161	0xbc9efc68	-0.019407466
162	0x3a6076c9	0.0008562622
163	0x3c3b81e1	0.01144454
164	0xbcd8b06c	-0.026451312
165	0xbce58568	-0.028017715
166	0xbce69105	-0.028145323
167	0x3c2e629b	0.010643627
168	0xbc87e2c2	-0.016587619
169	0xbcf4b276	-0.029870253
170	0xbc83b07b	-0.016075363
171	0xbcf7e027	-0.030258251
172	0xbcf6e76c	-0.030139647
173	0xbcd1eabb	-0.025624624
174	0xbc5e52d7	-0.013569555
175	0x3c2357f4	0.0099697
176	0x3a82641c	0.0009948048
177	0xbd041e21	-0.032255296
178	0xbd5492ea	-0.05189792
179	0xbbe7a4f1	-0.007069223
180	0xbdc48edc	-0.09597561
181	0x3b12e396	0.0022413484
182	0xbc02f112	-0.007992046
183	0xbc52dd58	-0.012870155
184	0x3d886db7	0.066615514
185	0x3ca6ec34	0.020376302
186	0x3c1a9909	0.0094359005
187	0xbd794c61	-0.060863856
188	0x3d48066f	0.04883426
189	0x3caa0bb0	0.020757526
190	0xbd949d70	-0.07256591
191	0xbd14a077	-0.036285844
192	0xbad3d9e2	-0.0016162957
193	0xbd145b2e	-0.03621977
194	0x3d062e6e	0.032759123
195	0xbc263ccc	-0.010146331
196	0xbc25061b	-0.010072256
197	0xbde2826c	-0.11060032
198	0xbaf10cf4	-0.0018390701
199	0x3d4a79f1	0.0494327
200	0xbdc7c7c6	-0.09754901
201	0xbc94ba0a	-0.018155117
202	0xbda3eda1	-0.080043085
203	0xbd2a98aa	-0.041649498
204	0x3b51209a	0.0031910301
205	0x3d962c20	0.07332635
206	0xbd1cdc71	-0.038296167
207	0x3c1c482e	0.009538693
208	0xbdc2f1ac	-0.095187515
209	0xbb922ae1	-0.004460678
210	0x3c82d209	0.015969293
211	0xbda06573	-0.0783185
212	0xbc835175	-0.016030053
213	0xb9d21233	-0.0004006788
214	0xbd82cf04	-0.06387141
215	0xbcf2cc06	-0.029638302
216	0xbba4fb98	-0.005034875
217	0xbc8f9253	-0.017525828
218	0xbd320213	-0.04345901
219	0x3b983784	0.00464529
220	0x3c153a0b	0.009108077
221	0xbdd607c3	-0.10450699
222	0xbd3484d3	-0.044071984
223	0xbd549ff2	-0.05191035
224	0x3cdfdd74	0.027327277
225	0x3cee2fcc	0.029075526
226	0xbd75c871	-0.06000561
227	0xbdef5d71	-0.116877444
228	0xbb39112f	-0.0028239002
229	0x3cf842fc	0.030305378
230	0xbdb80175	-0.08984653
231	0x3c3da7fe	0.011575697
232	0x3dc5c85d	0.09657357
233	0xbd38b4d2	-0.04509432
234	0xbcaecd79	-0.021338211
235	0x3cb52bc1	0.02211559
236	0xbd1bb433	-0.03801365
237	0xbd798c9e	-0.06092512
238	0xbd97d56f	-0.07413756
239	0xbc197b11	-0.00936772
240	0xbd7d4469	-0.06183282
241	0x3d082be4	0.033244982
242	0x3aefa4b7	0.0018283342
243	0x3c17695f	0.009241431
244	0x3d97b446	0.07407431
245	0x3c8e20a7	0.017349554
246	0xbbe4df42	-0.006984622
247	0x3caf374b	0.02138867
248	0x3d2f08b9	0.042732928
249	0xbcacb167	-0.021080686
250	0xbc2ef548	-0.010678597
251	0x3cb60f34	0.022224046
252	0x3d6618da	0.056176044
253	0xbd81cbe2	-0.06337716
254	0xbcfd10ab	-0.030891737
255	0xbd802b29	-0.06258232
