ai_challenge/results/simulation_DoubleDQN_DuelingRecNN_2017-05-19T19:40:53.24/140018/target_model.npz (npz, 631218 bytes, 12 tensors)

model/hidden/input_layer/b f4 [256]
000000 ce 2f f3 bc 5d 5f e5 bc 10 7e ed bc 70 23 58 bc
       -0.029685881 -0.027999574 -0.028990775 -0.013192043
000010 7e 8d 81 3b 0a 02 e8 bc 73 7d 27 bd dd 2f 59 bd
       0.0039536348 -0.028321285 -0.040891122 -0.05302416
000020 56 1e c0 bc 5f 5d f0 bc 51 5b ac 3c 96 ac d3 bc
       -0.023451965 -0.029341398 0.021039637 -0.025839131
000030 75 7f 81 bc 51 56 f4 bc 48 07 19 bd ee a1 86 bc
       -0.015807847 -0.029826315 -0.03736046 -0.016434636
000040 cb eb fb bc 8d f5 5d bd 7b f5 72 bc a7 cb 04 bd
       -0.030752083 -0.054189254 -0.014829035 -0.03242078
000050 b5 1f f2 bc 28 99 cf bb 6f c0 7c 3c 0d fb 80 bc
       -0.029556135 -0.0063353963 0.015426739 -0.01574471
000060 5d cf 01 bd ce a1 14 bd e3 56 02 bd 2f 13 43 bc
       -0.031691898 -0.03628712 -0.031821143 -0.011906429
000070 a0 7f df bc fa c1 ad bc 81 39 4d bd 18 f2 af ba
       -0.027282536 -0.02121066 -0.050103668 -0.001342359
000080 6f 44 fd bb a1 f0 00 bd 6f c5 bf 3c ab 3e a9 bc
       -0.007729105 -0.03147948 0.023409573 -0.020659765
000090 b5 83 85 bd 46 97 cc bc f7 d9 2e bd 06 f8 99 bc
       -0.06519262 -0.024974477 -0.042688336 -0.018795025
0000a0 6c ef 17 bc bc 24 28 bd 92 8c b2 3c 68 fa ea bc
       -0.009273391 -0.041050658 0.021795545 -0.028683856
0000b0 d0 a4 27 bd 85 97 9a bc f7 03 ed bc 32 d3 0d bd
       -0.04092866 -0.018871078 -0.028932555 -0.03462524
0000c0 02 a2 f9 bb 59 21 07 bd 35 00 e5 bc ff 0d b9 bc
       -0.00761819 -0.032990787 -0.0279542 -0.022589682
0000d0 fd df 24 bc e0 dd a6 bc f2 60 f0 bc 00 a6 c7 bc
       -0.010063169 -0.02036947 -0.029343102 -0.024371147
0000e0 82 28 e9 bc af a5 1b bd 18 1b a7 bc 9c ba 86 bc
       -0.028461698 -0.037999805 -0.020398661 -0.016446404
0000f0 7d 7f c6 bc 96 80 77 bc 95 a1 07 bd 88 e5 d5 bb
       -0.024230713 -0.015106341 -0.03311308 -0.0065276064
000100 74 88 58 bb c8 be 17 bd c0 3f 02 bd e2 a5 d2 bc
       -0.0033040317 -0.037047178 -0.031799078 -0.025713865
000110 11 c6 da bc 1f 60 03 bd 01 ed 47 bd 19 b5 61 bd
       -0.026705774 -0.03207409 -0.04881001 -0.05510435
000120 3c fb 97 bc 95 38 f5 bc e9 a3 02 bd 27 c2 02 bd
       -0.018552415 -0.029934207 -0.0318946 -0.03192344
000130 05 7f 6d bc f8 b4 38 bd f1 6a 25 bc 86 7d 27 bd
       -0.014495616 -0.04509446 -0.010096298 -0.040891193
000140 14 3c 88 bd ec 08 13 bd 48 66 14 bd 4a 42 25 bd
       -0.06652084 -0.03589718 -0.036230356 -0.04034642
000150 cb b3 d4 bc 9e f8 16 bd 02 48 10 bd b0 85 28 bd
       -0.025964638 -0.036858194 -0.035224922 -0.04114312
000160 a1 5c b9 bc 0b 49 2a bd ed 6a 9e 3c ba 87 f2 3b
       -0.022627177 -0.041573565 0.019338096 0.007401434
000170 57 0d 25 bd 4c fb 05 bd f7 0b 48 bc 5f 07 0b bc
       -0.040295925 -0.03271036 -0.012209884 -0.008485644
000180 4f f2 06 bb c0 56 1a 3c b1 a7 89 3c 9e f7 2e 3c
       -0.0020591205 0.009420097 0.016803594 0.010679154
000190 50 dc e7 bc a2 77 10 bd e9 02 3e 3c 80 7d 0a bc
       -0.028303295 -0.03527034 0.0115973735 -0.008452773
0001a0 62 81 b8 3b ae 34 07 bc 4c a1 e3 bc 36 12 2c bd
       0.005630658 -0.008252306 -0.027786873 -0.042009555
0001b0 5a db f3 bc 59 f5 5a bd cc 0d 80 bd 25 98 12 bd
       -0.02976768 -0.053456638 -0.062526315 -0.035789628
0001c0 fd 4a d0 bc 42 b7 a8 bc ea 0e 43 bd 79 b2 4b bc
       -0.025426382 -0.020595197 -0.047621645 -0.012432688
0001d0 67 9c 43 bd e0 bc 1c bd db 49 7f bd ea 9f 15 bd
       -0.04775658 -0.038266063 -0.062326293 -0.03652946
0001e0 41 fe 60 bd 3d fe 1c bb 5d dd 2c bd fb c9 91 bd
       -0.054929975 -0.0023955249 -0.042203296 -0.07118603
0001f0 e8 18 3f bd 4c 7a 3c bc 40 d1 39 bd 39 87 75 3c
       -0.04665461 -0.011503767 -0.045365572 0.014985853
000200 a7 c6 17 b9 8a 06 6f bd f7 b1 10 bd 19 38 5a bc
       -0.00014474486 -0.058355846 -0.03532597 -0.013319039
000210 0f 1f fe bb 3c d1 c8 bc 40 10 45 bb d7 88 32 bd
       -0.0077551673 -0.024513833 -0.00300695 -0.043587532
000220 f8 a4 66 bc 96 fa 02 bd 34 31 00 bd 5e 7b 27 3c
       -0.014077418 -0.03197726 -0.031296924 0.010222284
000230 f0 74 03 bd c3 a2 a4 bc f9 bd ac bc fa 08 4f bb
       -0.032093942 -0.020097142 -0.02108668 -0.0031591044
000240 d3 f1 86 bc ac c6 c2 bb e8 b1 47 bd f8 2f 54 bd
       -0.016472733 -0.0059440937 -0.04875365 -0.05180356
000250 a9 be 5e bd d8 be 3a bd 11 2c 85 bc 7c 82 25 bd
       -0.054381046 -0.04559216 -0.016256364 -0.040407643
000260 41 34 26 bd 4d 6b ed bc 38 35 1a bd a6 d3 5c bc
       -0.040577177 -0.028981829 -0.03764841 -0.013478195
000270 a7 de 82 bd 87 b6 28 bc 15 f4 17 bc bc 8e be bc
       -0.06390124 -0.010297424 -0.009274502 -0.02326142
000280 69 20 0c bc 12 eb 3b bd 68 a6 d6 3b 28 04 8e bc
       -0.008552649 -0.045878477 0.006550599 -0.017335966
000290 18 fd 41 bd fa 23 92 bb 7d 68 42 bd 28 20 28 bb
       -0.04736051 -0.004459855 -0.04746293 -0.0025653932
0002a0 79 17 28 bc c0 e5 65 bc 11 e8 1c bb 24 fa bf 3b
       -0.010259503 -0.014031827 -0.0023942033 0.0058586765
0002b0 44 47 5e bd 81 4b bf bc bd 2b 72 bb 50 5f 38 bb
       -0.054267183 -0.023351433 -0.003695234 -0.0028132983
0002c0 c3 eb 91 bc e6 1d 00 bd 0b f3 05 bd 8a 97 d7 bc
       -0.017812615 -0.031278513 -0.032702487 -0.026317377
0002d0 72 49 04 bd 17 a4 c4 bb d3 15 62 bb ad 56 e1 bc
       -0.032296605 -0.0060010063 -0.0034497872 -0.02750715
0002e0 bd 78 14 bc be 11 0a bd 99 42 cb bc e6 46 99 bd
       -0.009061989 -0.033708327 -0.02481203 -0.07484226
0002f0 24 c4 de bc bc 07 2f bb 7b c1 0e bd af b1 67 bd
       -0.027193137 -0.002670749 -0.034852486 -0.056565937
000300 3a 99 1e bd fe 0a 21 bd a0 66 bf bc a8 6a 57 bd
       -0.038720347 -0.039317124 -0.023364365 -0.05259195
000310 fd 57 98 bc 3b c3 e9 bc 6c 48 16 bd 6d cc 19 3c
       -0.018596644 -0.028535476 -0.03669016 0.009387118
000320 08 b9 71 bc 3b b5 92 bc 72 11 fd bc c0 23 5b bd
       -0.014753588 -0.017908683 -0.030892108 -0.05350089
000330 ef 65 0b bd a3 a0 cb 3a 79 c3 e8 bc 7f d9 57 bd
       -0.03403276 0.0015535544 -0.028413521 -0.052697655
000340 06 dc e0 bc 3e 6d 08 bc cc bd 12 bd 0b b7 c7 bc
       -0.027448665 -0.008326827 -0.035825536 -0.024379274
000350 8f 43 05 bd fb 4e ca bc d9 b9 73 bd 05 75 68 bd
       -0.032535132 -0.024695864 -0.05950341 -0.056752224
000360 3a d4 de bc 34 4e de bc 26 91 f8 bc 78 a0 cc bc
       -0.027200807 -0.0271369 -0.03034265 -0.024978861
000370 1d 0d b9 bc 9d a1 27 3c 26 86 1c bd a7 3b 33 bb
       -0.02258926 0.010231403 -0.03821387 -0.0027348788
000380 d2 1e e6 bc 3d 91 cb 3c 60 bf 22 bd 55 f6 21 bd
       -0.028090868 0.024849528 -0.03973329 -0.03954156
000390 fd b0 bc bc 9b 18 ab bc e5 c6 23 bd 79 4f e2 bc
       -0.023033613 -0.020885756 -0.039984602 -0.027625786
0003a0 5d d4 50 bd 8b 1e 46 3c 38 0c 92 bc ab 7b 1f bc
       -0.050983775 0.012092243 -0.017828092 -0.009734075
0003b0 a4 c9 4c bd ea 51 0b bc 20 6d 02 bd bb cf 11 bd
       -0.049996987 -0.008503417 -0.03184235 -0.035598498
0003c0 3a 2e b7 bc e0 a5 b3 bb d1 fa 62 bc 11 03 32 bd
       -0.02236091 -0.0054824203 -0.013853745 -0.043459956
0003d0 29 04 a1 bc 7a a1 38 bc f6 50 28 bd 0f 56 3d bd
       -0.019655304 -0.011268968 -0.041092835 -0.04622465
0003e0 69 42 e4 bc fd 4f 1a bd f9 6b 0d bd 5b c0 2f bc
       -0.027863698 -0.03767394 -0.0345268 -0.010727013
0003f0 d5 89 85 3c 87 6e 56 bd f6 a6 5a bd e8 8c e6 bc
       0.016301075 -0.0523515 -0.053381883 -0.028143361

model/hidden/output_layer/b f4 [256]
000000 da 90 3c 3c d9 12 e5 bb b2 c8 12 3c ad c5 1c bc
       0.011509145 -0.006990772 0.008958982 -0.009568614
000010 57 57 46 3b 12 43 b4 3b 0c 57 ab 3b b2 47 0b 3c
       0.003026446 0.0055011595 0.0052288827 0.00850098
000020 9e 6f 33 bc 44 97 57 3c bd 3b 69 bc 58 8a a2 3b
       -0.010951905 0.013158623 -0.014235434 0.0049603395
000030 18 db 9c 3b 64 57 25 3b 2f fc 26 3c c4 cc 0c 3c
       0.00478686 0.002522909 0.010191961 0.008593742
000040 75 f4 0a bc 50 4b 21 3b 7b 23 0d bc ea 90 16 3c
       -0.008481135 0.002461154 -0.008614416 0.009189824
000050 9e b6 20 bc b9 fa 22 bc c5 a8 88 3b a3 dc cc bb
       -0.009809164 -0.009947472 0.0041705095 -0.006251888
000060 ee 67 38 bc 72 5b 45 3c e4 9d 0a bc 97 dc 39 3b
       -0.0112552475 0.012045728 -0.008460496 0.0028360242
000070 c8 29 0c bc 6a 67 6c 3c 2b f1 44 bc 3d c4 20 bc
       -0.008554883 0.014428953 -0.01202039 -0.009812412
000080 52 fb c5 3a a3 d5 62 bc e7 11 02 3c 09 50 4a bb
       0.0015104807 -0.01384488 0.007938839 -0.0030870459
000090 d1 66 04 bc 4b 29 0b 3c 47 5d d0 3b 56 ce 75 3b
       -0.008081154 0.008493732 0.006358776 0.003750702
0000a0 b0 82 0f 3c 6f 4e b9 3b 12 f0 c8 bb 77 c7 3b 3c
       0.008759186 0.005655102 -0.0061321342 0.01146113
0000b0 17 27 57 3c cc b6 0b bc d7 32 22 bc 4a b8 b2 3b
       0.013131878 -0.008527469 -0.0098998165 0.005454098
0000c0 d1 11 42 bc 4d 6f 8c ba 45 d7 10 bc c4 95 2c bc
       -0.011845068 -0.0010714323 -0.008840387 -0.010533754
0000d0 df 35 40 bc 78 c2 35 3b 7a 7f 03 bb e0 d9 a4 3a
       -0.011731594 0.002773432 -0.0020064996 0.0012577139
0000e0 1f 2e 43 bc f1 28 92 bb 69 ae 13 3b 52 5e d6 39
       -0.011912852 -0.004460447 0.0022534376 0.00040887535
0000f0 3f d1 d2 ba af 82 59 3b 4d bd 27 3c 37 55 a1 bb
       -0.0016084089 0.0033189466 0.010238004 -0.0049234885
000100 6b 62 05 3c 85 ca a5 3b 5b f0 2a bc 81 a5 de bb
       0.00814114 0.0050595426 -0.010433282 -0.006794632
000110 26 51 12 bc 83 42 ec bb b8 03 09 bc 89 8b 34 3c
       -0.00893048 -0.0072100773 -0.008362703 0.011019596
000120 86 8b 7c bb 97 6f 54 bc 7c fc 87 bb 66 af 89 3a
       -0.003853531 -0.012966058 -0.0041499715 0.0010504543
000130 6f 44 74 3a 41 97 13 3c cb 7e 44 3b f2 38 e9 3b
       0.0009318059 0.00900823 0.00299828 0.007117384
000140 6a 41 56 bc c3 dc 20 bc 18 c1 00 ba e7 cb ef ba
       -0.013077119 -0.009818259 -0.0004911586 -0.001829502
000150 58 19 a9 3b 7c ad 45 bc ba b5 57 bb 8c 5a e1 3b
       0.005160492 -0.012065288 -0.0032914714 0.006877249
000160 63 d9 80 bc 36 96 23 bc 29 be 28 3c 92 01 1b 3c
       -0.015728658 -0.009984544 0.010299244 0.009460824
000170 20 4a 1d 3c b7 82 c9 3b a8 59 7b bb fb d3 c9 3b
       0.009600192 0.0061496156 -0.0038353 0.0061593032
000180 f4 a7 10 bc 9f 3f 27 bc fd af 27 3c 45 79 e2 bb
       -0.008829106 -0.01020804 0.01023483 -0.006911429
000190 fa 8e 12 3c d8 32 8f ba 1a 50 47 bc bc 18 86 3b
       0.008945221 -0.0010925187 -0.012165094 0.004092304
0001a0 ca 3b 28 3b cf f3 25 3c 3d 6e 2a bc 52 e8 82 ba
       0.0025670403 0.010128929 -0.010402259 -0.000998745
0001b0 21 22 1d 3c 01 9e f0 ba 60 3e 3f 3c 5b 51 c6 3b
       0.0095906565 -0.0018357636 0.011672586 0.006052179
0001c0 49 65 68 bc ee 65 dc 3b 62 91 0a bc f4 20 09 bc
       -0.0141843045 0.006726018 -0.0084575135 -0.008369673
0001d0 13 6a 3d bc 1a d9 9d ba 62 98 36 3b 61 a1 3f 3c
       -0.011560935 -0.0012042851 0.0027861823 0.011696191
0001e0 0f f6 d4 3b a6 3d d6 3b 45 13 de 3b 33 84 f5 b9
       0.006499059 0.006538111 0.0067771995 -0.00046828538
0001f0 28 2e 58 bb cf 9d e2 3b 1c 56 07 3c 94 09 30 ba
       -0.0032986496 0.006915785 0.008260276 -0.00067152944
000200 10 02 7d 3b 8a e9 31 bc 82 65 26 3c 8e 7e e1 bb
       0.0038605966 -0.010858903 0.010156037 -0.0068815416
000210 8a eb 13 3c b4 f9 95 39 54 89 a6 3b b5 87 26 bc
       0.009028325 0.00028605538 0.0050822888 -0.010164191
000220 17 bf 15 bc 7a e4 88 3b 0d 9e 30 3c 52 43 cc 39
       -0.009139798 0.004177627 0.01077987 0.0003896007
000230 4e c1 30 3c d6 01 0d bc ec e4 12 3c 6b ff c7 bb
       0.010788275 -0.008606395 0.008965712 -0.0061034462
000240 40 32 41 bc 28 f4 2e 3c 75 e5 0e 3c bd 4f c3 bb
       -0.011791766 0.010678329 0.008721699 -0.0059604333
000250 8b ec 9d 3b 30 15 08 bc df 6e 0d bc b3 92 0a 3b
       0.004819458 -0.008305833 -0.008632391 0.0021144568
000260 3d bb 73 bb 6d 29 21 bc a2 05 db b9 66 1a a6 3b
       -0.003719046 -0.009836537 -0.00041775132 0.005069065
000270 98 48 f0 bb 20 5b ed ba 18 b8 d7 b9 da 0c 90 3b
       -0.0073328726 -0.0018108822 -0.00041145156 0.0043960633
000280 10 ab 63 bb ea 37 eb 3b e6 76 4a bb 96 63 b1 3b
       -0.0034739412 0.0071782963 -0.0030893623 0.005413483
000290 bb 25 02 bc 7b 15 4c bc c2 7a 1b bc 71 2a 27 bb
       -0.007943566 -0.012456293 -0.009489717 -0.0025507475
0002a0 ee 71 fa ba 06 6b 71 3c f1 ad 26 3c 75 a2 17 bc
       -0.001910744 0.014734989 0.010173307 -0.009255041
0002b0 38 03 5c bb b2 f6 36 3c 3b c5 71 3c 85 19 c2 3a
       -0.0033571254 0.011167215 0.014756496 0.0014808631
0002c0 ec e6 34 ba 71 fa d4 3b 1a 05 a2 3b 03 dc 90 ba
       -0.0006900865 0.0064995815 0.004944456 -0.0011051897
0002d0 9b 77 26 3c f6 07 52 3c 63 8a 31 bc 59 16 71 bb
       0.010160352 0.012819281 -0.010836217 -0.0036787002
0002e0 8f 11 3f 3c b2 8a 3d bc 2c 42 1f 3c 60 1f ab 3a
       0.011661901 -0.011568712 0.009720366 0.0013055615
0002f0 8d 8e cd bb 1e e1 f5 bb 3e 4d df 3b 39 e1 1e bc
       -0.006273097 -0.0075036427 0.006814628 -0.009697252
000300 bb a0 51 bb 21 e0 41 3b 69 5e cb ba d9 b5 eb bc
       -0.0031986672 0.0029583054 -0.0015515807 -0.028773235
000310 d1 4b 1f 3c 98 3d d8 b8 97 e4 01 3c 81 bc 17 bc
       0.009722666 -0.00010311155 0.007928035 -0.009261251
000320 6d 64 02 3c 6e 41 78 3b bf c6 86 3b 71 85 3d bc
       0.007958514 0.0037880796 0.004113048 -0.011567459
000330 c3 cc 81 3c 44 18 2a bc ec 9d b6 3b 35 96 09 bb
       0.015844708 -0.010381762 0.005573025 -0.0020994071
000340 a4 27 8c bb 0e 35 0f 39 d4 cf c4 bb 8b a7 49 3b
       -0.0042771865 0.00013657307 -0.0060062204 0.003077003
000350 9b cc 29 bc 1f e9 18 bc 46 0f 0a 3c d6 88 36 3a
       -0.010363723 -0.009332924 0.008426493 0.0006963139
000360 f8 fa 18 3c 70 6b a9 39 0e 36 14 bc 97 3d 0b 3c
       0.009337179 0.0003231424 -0.009046091 0.008498571
000370 22 76 13 bb b5 46 2a 3c ba 48 73 3c b5 d3 2b bc
       -0.0022500833 0.010392834 0.014848882 -0.010487487
000380 9b 37 1c 3c 83 52 3a 3b e8 54 7f 3b b1 12 de bb
       0.009534742 0.0028430528 0.003896052 -0.0067771305
000390 80 6c 85 bc 18 c2 cd 3b 65 28 31 bc 7c 82 3e 3c
       -0.016287088 0.0062792413 -0.010812853 0.01162779
0003a0 b1 76 19 3c 41 61 00 bc 44 73 9f 3c a5 fc a5 bb
       0.009366677 -0.007835687 0.019464143 -0.005065518
0003b0 b4 eb b8 bb 42 73 02 ba 0b 67 4c 3c 82 a1 76 3b
       -0.0056433324 -0.0004976281 0.012475739 0.0037632887
0003c0 65 d4 31 3c 33 5d 82 bb 84 37 6d 3c f9 cc 92 bb
       0.010853861 -0.0039783954 0.014478568 -0.004480001
0003d0 8a 62 eb 3a ea 9d 13 3c 60 a7 27 bb 6a 46 93 b9
       0.0017958444 0.009009818 -0.002558194 -0.00028090487
0003e0 8c f5 9d 3b 11 c6 19 bc 6a c7 f5 3b 52 4f b5 3b
       0.0048205312 -0.009385602 0.0075005786 0.0055331374
0003f0 57 01 c6 3b 70 52 c5 3a 27 33 19 3b e9 a8 34 3b
       0.00604264 0.0015054476 0.0023376436 0.0027566499

model/a_stream/W f4 [3, 256]
000000 04 03 b5 bc 96 17 6b 3c 7f 2d 76 bd 1b 63 0a 3d
       -0.022096165 0.014348885 -0.060101982 0.03378592
000010 18 fd ba bc d4 fb d5 bc eb ec 4b 3d 2a 91 7d bc
       -0.022825763 -0.026121058 0.04978649 -0.015476504
000020 dc 06 41 3d 82 bf d6 bc 80 af c9 3c 20 5a bd bb
       0.047125682 -0.026214365 0.024619818 -0.005778566
000030 93 a4 a0 bc 01 cc 83 bd 07 92 74 bc 98 a3 84 bb
       -0.019609725 -0.06435395 -0.014927394 -0.004047822
000040 a1 15 b8 3c 79 8e db bc 2b 87 ac 3c 7c b7 1c bc
       0.022471251 -0.026801335 0.021060547 -0.00956523
000050 54 c1 a0 3c 80 7d dc 3b f9 aa 18 bc 7c 36 20 3d
       0.019623436 0.006728828 -0.009318107 0.03911446
000060 da 5f 19 3d 87 ba 81 bd a3 7f c5 3c 9a 5c 35 bd
       0.037444927 -0.063344054 0.024108713 -0.044277765
000070 b0 91 97 3d 2b 14 02 bd 22 c6 86 3c fd ce be 3c
       0.074008346 -0.031757515 0.016451899 0.02329206
000080 8f 3d 21 bd 1b 89 a2 3c 7a 8f b0 bc e3 7b 16 bd
       -0.039365347 0.019840768 -0.02155279 -0.03673924
000090 f2 6c c6 3c da 14 87 bd da 98 3b 3b 0e 06 8e bd
       0.024221871 -0.06595774 0.0028625042 -0.069347486
0000a0 4b 30 83 bc a1 80 68 3d 41 34 2a 3d 59 1b 22 bc
       -0.016014239 0.056763295 0.04155374 -0.0098942155
0000b0 a7 72 75 3d 1c 90 8a 3c 51 bf 96 3c 89 02 5a 3d
       0.059923794 0.01691442 0.018401774 0.053225074
0000c0 dc 81 3b 3d f1 8c e8 bc 22 fd 1e 3c a9 4d ff 3c
       0.04577814 -0.028387519 0.009703906 0.031164961
0000d0 10 35 34 3c d0 25 57 3d 4c 03 1d bd c0 e8 ed 3c
       0.010998979 0.052526295 -0.038333222 0.029041648
0000e0 23 95 2e 3d c7 b8 94 3c 59 1a 92 3d d5 09 a1 bc
       0.042622697 0.018154515 0.07133932 -0.019658009
0000f0 e0 83 15 bd f1 a9 e8 3c a5 83 b0 bc c7 ac f7 bb
       -0.03650272 0.028401347 -0.021547148 -0.0075584385
000100 12 2d ac bc 50 e7 ec bc 96 d5 38 3c 0a 5f bb 3a
       -0.021017585 -0.028918892 0.011281392 0.0014295292
000110 b6 5b 3c 3b 75 e1 94 3c 59 42 7b 3c ae 22 16 bc
       0.0028741187 0.018173913 0.015335643 -0.009163542
000120 5a fc 0a 3d 90 b1 2c 3c cb bc 6b bd 5b 1a 6f bd
       0.033932067 0.010540381 -0.057553094 -0.058374744
000130 87 9b c6 3c e2 75 5d bd 68 b6 6b bd d9 fe 4b 3d
       0.024244083 -0.0540675 -0.057547003 0.04980359
000140 92 4e f8 3c 1b a6 98 3d 8f 3e 45 bd ac ad eb bc
       0.030310903 0.07453557 -0.048155364 -0.028769337
000150 cc 44 74 3d 46 de d3 3b 85 8a 49 3d 7f c3 8d 3c
       0.059635922 0.006465706 0.04920437 0.017305134
000160 44 fd db 3c b8 ec 65 3c 15 f2 84 3d a3 3d 99 ba
       0.026854165 0.014033489 0.06491486 -0.0011691343
000170 81 3e 9d bb 4c 90 87 bd 40 65 9c 3a 97 8c 1f bc
       -0.004798711 -0.06619319 0.001193203 -0.009738109
000180 bb 6c 3a 3c 0d d0 54 3d 9c 91 c0 bb 43 34 b3 ba
       0.011378462 0.051956225 -0.005876733 -0.0013672191
000190 60 3a 40 bc 37 40 2e bd 4b e2 f5 3c d4 9c 61 3d
       -0.011732668 -0.04254171 0.030015131 0.055081204
0001a0 81 00 0b bd 6d 2d fd bc 95 0c 61 3c 23 23 3d 3d
       -0.033936027 -0.03090545 0.01373591 0.046176087
0001b0 5f 1b 6b bd ee b8 e0 3c ce 0e d6 bc 51 d7 79 3d
       -0.05739915 0.027431931 -0.026130106 0.060996357
0001c0 3f d3 4f 3c 5c b0 68 3d 1b d2 26 3b 21 98 55 3c
       0.012684642 0.056808814 0.0025454822 0.013036759
0001d0 3a 9b b2 3c e8 6e a2 3b e8 a4 8c bd 4b 26 fd bc
       0.021802533 0.0049570687 -0.06867391 -0.030902049
0001e0 c6 9c e0 bc 78 62 84 bd 4a 9d e4 bc 9c a6 cc 3b
       -0.027418505 -0.06464094 -0.027907033 0.0062454473
0001f0 06 e8 04 3d 50 c4 bb 3b 94 33 dd ba f0 53 02 3d
       0.032447837 0.0057301894 -0.0016876333 0.03181833
000200 c9 33 72 bd f6 62 c0 3c cc 8c 87 bd 03 22 fa bb
       -0.059131417 0.023484688 -0.06618652 -0.007633449
000210 96 d3 bf bb 48 54 a8 bb d4 23 0f 3d a6 f1 aa 3b
       -0.0058540804 -0.0051370002 0.034946278 0.005216795
000220 b0 c6 f1 3b d7 47 6f 3c 1b 4c 13 3c 02 58 3c bb
       0.0073784217 0.01460453 0.008990313 -0.002873898
000230 ee bc 08 bc b8 76 4d 3c c8 d7 21 bd b0 7b 82 3d
       -0.008345826 0.012540512 -0.039512426 0.06371248
000240 29 e9 c1 3c 17 a3 eb bc 74 98 a8 bc 4f c5 65 3c
       0.02367075 -0.02876429 -0.020580508 0.014024093
000250 47 79 31 3d 87 b7 84 3c 4f f2 4a 3b db 2e c4 bc
       0.04332855 0.016200794 0.003096718 -0.023948124
000260 98 72 84 bd 6c 8a 8b 3c 3a 57 84 3c f4 f0 39 bd
       -0.064671695 0.017033778 0.016154874 -0.045395806
000270 a5 8e a1 3c d7 fa ef 3c 4c 85 3a 3d e7 5e 19 bd
       0.019721339 0.029294414 0.045537278 -0.03744402
000280 0d cd 5d 3d 41 b7 e2 bc 1a 83 b2 bb ac 85 02 3d
       0.05415063 -0.027675273 -0.0054477574 0.03186576
000290 ca 15 b7 3c 88 2e 90 3c 00 0f ac 3a 3f df 37 bd
       0.022349257 0.017600313 0.0013127029 -0.04489064
0002a0 7c 49 96 bc 58 30 71 3d e7 4a eb 3b b3 76 42 3c
       -0.018345587 0.058883995 0.00718056 0.01186912
0002b0 c2 41 44 3d 94 85 44 bc 63 3f 8f bc 79 3d b1 bc
       0.047914274 -0.011994738 -0.01748628 -0.021635758
0002c0 5c 5a 21 3d e4 b6 e5 bc 00 fc 0e bd 8e cc 07 bd
       0.039392814 -0.02804131 -0.034908295 -0.033154063
0002d0 eb d3 ef bc 18 0c 0c bd dc 08 54 3c e1 ba 8e 3c
       -0.029275855 -0.03419122 0.012941565 0.017423095
0002e0 cd cb 85 bb 01 b4 a0 3c 66 82 57 bc dd 4a 4e bd
       -0.004083133 0.019617083 -0.013153648 -0.050364364
0002f0 09 b4 d2 3c d2 f8 92 bb ff 1a a4 bc b2 e6 b2 bb
       0.025720613 -0.004485228 -0.020032404 -0.00545963
000300 04 04 24 3d 10 3f 52 3d c8 b7 e2 3c 53 d9 a0 bd
       0.040042892 0.051329672 0.027675524 -0.07853951
000310 97 b7 e6 bc f7 d0 6a 3c 8e 7a 04 bd a7 22 c6 3b
       -0.028163714 0.014332048 -0.03234344 0.0060466114
000320 01 37 91 bd a9 54 7c bb 49 2b 0b bd 7c 47 27 3d
       -0.07090569 -0.003850261 -0.033976827 0.040839657
000330 3a b4 9c 3d 84 93 f2 39 f3 bc ef bc bf bf f3 3c
       0.07651563 0.00046267745 -0.029264903 0.029754518
000340 7b d2 08 3d 4e 8c 91 bc 43 5f 6e 3d bc b1 6f bd
       0.033403855 -0.017767098 0.058196317 -0.05851911
000350 31 e2 ed 3b 01 53 9a 3b b5 02 7a 3d e2 3f 4a bc
       0.00725963 0.004709602 0.061037738 -0.012344332
000360 24 8c bd bb 85 57 88 bd cf e5 40 3b 3d 88 83 bc
       -0.0057845283 -0.06657318 0.0029433852 -0.016056174
000370 0e 7b c5 3c 66 0b 7a bc 31 ba 8f bc 05 f1 a3 3d
       0.024106529 -0.015261507 -0.017544838 0.08004955
000380 ec 51 2e bc d2 4e 30 bd d2 fd 9b 3b af 76 bc 3c
       -0.010639649 -0.04304392 0.0047604823 0.023005811
000390 e0 55 b3 3c 68 9c 8d bc f6 68 72 3c f2 07 33 bc
       0.021891534 -0.017286494 0.014795532 -0.010927187
0003a0 1c f2 15 bc fa 6e 5a 3d b4 59 96 3d 5b 3f e5 bb
       -0.009151962 0.05332849 0.07341328 -0.006996078
0003b0 de 64 e1 3c f9 09 72 bb 83 16 b5 bc 78 9b 04 3c
       0.027513918 -0.0036932214 -0.022105461 0.008093707
0003c0 dd e4 56 bc 66 31 d3 bb 5e b3 3d bd 0b 4f f6 3c
       -0.013116089 -0.0064450977 -0.046313636 0.030066987
0003d0 bf 34 71 bd d9 2f 58 bc 18 df 42 3d d2 26 46 3d
       -0.058888193 -0.0131950015 0.04757604 0.048376866
0003e0 68 62 a6 39 1f fc ea 3b 0f 85 09 bd 25 36 35 3d
       0.00031735306 0.0071711685 -0.03357416 0.04424109
0003f0 23 7c 9f bc d0 91 a2 3c cd 48 62 bd f4 29 49 3d
       -0.019468373 0.01984492 -0.05524521 0.049112275

model/hidden/mid_rec_layer/upward/W f4 [80, 86]
000000 d2 d3 c0 ba a9 c1 41 3c 34 9e 05 3c c5 27 bf 3a
       -0.0014711565 0.011825957 0.008155394 0.0014583996
000010 b0 0a 91 3c 97 68 33 bc c5 8a ba b9 3c 30 f0 3b
       0.017705292 -0.010950229 -0.00035580076 0.0073299687
000020 95 f4 4f bc 0a d7 23 3c 5e 91 89 3c 0a d7 23 3c
       -0.01269259 0.01 0.01679295 0.01
000030 85 96 85 bb 86 5d 83 3d 0a d7 23 3c 03 05 6d bd
       -0.004076781 0.064143226 0.01 -0.057866108
000040 43 7d a4 3d 0a d7 23 3c 8e 99 c0 bd 65 8f 6e 3d
       0.08031704 0.01 -0.09404288 0.05824222
000050 0a d7 23 3c d9 05 32 bd 08 fe 8f 3d 0a d7 23 3c
       0.01 -0.043462608 0.070308745 0.01
000060 dd e6 99 bd 28 8d 89 3a 0a d7 23 3c 94 e3 1d bd
       -0.07514737 0.0010494338 0.01 -0.038547114
000070 30 34 c4 3d 0a d7 23 3c e7 ad 1a bd 0e df 4e 3d
       0.095802665 0.01 -0.037763502 0.05050569
000080 0a d7 23 3c e0 25 16 3c bc ca 41 bc 0a d7 23 3c
       0.01 0.009164304 -0.011828121 0.01
000090 9d 02 aa bc 1d da c0 3c 0a d7 23 3c a3 74 ec bc
       -0.0207532 0.023541505 0.01 -0.02886421
0000a0 8d e0 e6 bb 0a d7 23 3c ca 63 4c bd 70 ff c9 3c
       -0.0070458115 0.01 -0.049899854 0.024657935
0000b0 0a d7 23 3c ca 70 32 3a 2d 73 1a bc a3 68 ab 3d
       0.01 0.0006806968 -0.009426874 0.08369567
0000c0 ff 20 b8 bc 87 4a 7f bc e7 34 fb 3b 38 92 64 3d
       -0.022476671 -0.015581734 0.0076662186 0.055803508
0000d0 52 1f 42 3c c9 ad 85 3d 18 29 70 bc 3d 49 a1 bb
       0.011848288 0.065272875 -0.014658235 -0.0049220608
0000e0 0a d7 23 3c 8c 56 ed bb 4a 5e 1a 3d 0a d7 23 3c
       0.01 -0.007242983 0.037687577 0.01
0000f0 5d 3a 5b 3d 1c 79 63 3c 8f ce 86 bc 20 4f 39 3d
       0.053522456 0.013883855 -0.016455917 0.045241475
000100 61 62 77 bd 0d 74 cd 3d 3b 4d c7 3d 12 78 9c bb
       -0.060396556 0.100319006 0.097315274 -0.0047750557
000110 55 ec cd bc fc bb 63 3c ad ba 01 bd 0a d7 23 3c
       -0.025137106 0.013899799 -0.03167217 0.01
000120 40 59 68 bd 57 62 20 3c 0a d7 23 3c 65 06 24 3c
       -0.05672574 0.009789071 0.01 0.01001129
000130 08 2e 23 bd 4e d5 a0 3d f8 3c 53 3c 3d 07 46 bd
       -0.03983882 0.07853185 0.012892954 -0.048346747
000140 f6 1e 33 bd 61 7d b7 3c 37 47 15 bd 16 0d ab bc
       -0.0437307 0.022398653 -0.03644487 -0.020880263
000150 df aa 3e 3c 9e be 11 bd 52 75 8b bc 16 c4 23 be
       0.0116374185 -0.035582177 -0.017023716 -0.1599277
000160 1e 99 06 be 17 5f 35 bd 6d ec 8e bd 22 7c 85 bd
       -0.13144347 -0.044280138 -0.069786884 -0.06517817
000170 91 37 aa bd 94 3a 8e bd ab b5 be be 0a d7 23 3c
       -0.0831138 -0.06944767 -0.37247977 0.01
000180 ce 49 9b bd 0a d7 23 3c 15 f0 c2 bd 4e 0c 42 bd
       -0.075824365 0.01 -0.09518448 -0.047375016
000190 0a d7 23 3c 1e 06 e2 3d ea 06 3e bd 0a d7 23 3c
       0.01 0.11036323 -0.046393313 0.01
0001a0 c4 88 0d 3e 48 1c 35 bd 0a d7 23 3c 95 13 83 3d
       0.13821703 -0.044216424 0.01 0.06400219
0001b0 b8 a8 bc bd 0a d7 23 3c e2 f3 37 3e 28 36 e1 bc
       -0.09211868 0.01 0.17964128 -0.027491644
0001c0 0a d7 23 3c c8 4c dc 3c 55 64 37 bd 0a d7 23 3c
       0.01 0.02689208 -0.04477342 0.01
0001d0 31 a4 1f 3b 8e 3b 03 be 0a d7 23 3c 31 eb a9 3c
       0.002435934 -0.12815687 0.01 0.02074203
0001e0 e8 ff de bd 0a d7 23 3c 27 16 23 3d c0 d4 cc bb
       -0.10888654 0.01 0.039816048 -0.0062509477
0001f0 0a d7 23 3c a0 8a 8f 3d 3e 02 7e ba 0a d7 23 3c
       0.01 0.070088625 -0.0009689665 0.01
000200 95 e2 2f 3d 26 f2 bc bd 0a d7 23 3c 03 67 16 3d
       0.042940695 -0.09225874 0.01 0.036719333
000210 d4 57 27 be c9 32 b3 bd 7e 10 a0 3d c5 6c 80 be
       -0.16342098 -0.08749921 0.07815646 -0.25082985
000220 e7 8c fe bd a6 16 10 be ec 50 29 be 77 32 8f bd
       -0.12429219 -0.1407114 -0.16534775 -0.06992047
000230 02 fa a0 3d 89 c6 50 bc 0a d7 23 3c 24 de 38 3b
       0.07860185 -0.012742647 0.01 0.0028208578
000240 16 a5 ce bc 0a d7 23 3c ff a6 7f bd f9 22 10 3b
       -0.025225203 0.01 -0.06241512 0.0021993502
000250 79 45 7c bb 48 f9 05 be 23 1e 85 bd cf 78 0c be
       -0.0038493557 -0.13083375 -0.06499889 -0.1371796
000260 cf 32 4d be ba 29 63 3d c0 da 9e 3c 1b f4 e6 3c
       -0.20038913 0.055459715 0.019391418 0.02819257
000270 d9 75 4e 3d 0a d7 23 3c a0 3d bd 3d 64 99 e2 3b
       0.050405357 0.01 0.0924027 0.0069152582
000280 0a d7 23 3c 38 d9 83 bd 8b 80 8b 3d 6d e3 03 be
       0.01 -0.064379156 0.06811627 -0.12879725
000290 94 bb 91 bd cd 09 79 3c 54 78 bf 3c 62 e0 56 be
       -0.07115856 0.015200091 0.023372807 -0.20984033
0002a0 d9 a8 27 3d 8e c9 18 bc a8 9b 11 be b9 56 8b 3d
       0.04093251 -0.009325398 -0.14219534 0.068036504
0002b0 72 6f d9 bd d5 17 34 be c9 d5 34 be 1f 79 29 bd
       -0.1061696 -0.17587216 -0.17659678 -0.041375276
0002c0 94 5f 05 be 12 e6 86 bd 9d 27 c0 bd 61 e1 0a be
       -0.13024741 -0.06586851 -0.09382556 -0.13562538
0002d0 12 40 ab be 0a d7 23 3c 95 d8 b1 bd 0a d7 23 3c
       -0.3344732 0.01 -0.08683888 0.01
0002e0 bb 9a 9a bd 0b af 53 bd 0a d7 23 3c 0f 74 83 bd
       -0.07549044 -0.051680606 0.01 -0.06418621
0002f0 e3 d5 5c bd 0a d7 23 3c bf 40 93 3d 06 6f 13 bd
       -0.053914916 0.01 0.07190084 -0.035994552
000300 0a d7 23 3c f9 a5 37 3d 16 95 88 bd 0a d7 23 3c
       0.01 0.04483602 -0.06669061 0.01
000310 e8 75 2b 3e 91 4f 2e bd 0a d7 23 3c df e4 f6 bd
       0.16744196 -0.04255635 0.01 -0.120553724
000320 c0 ef 92 bd 0a d7 23 3c 10 5a 06 bd 8d 14 fd bd
       -0.07174635 0.01 -0.032800734 -0.123574354
000330 0a d7 23 3c 9c 06 4e bd fd d6 2e be 0a d7 23 3c
       0.01 -0.050299272 -0.17074199 0.01
000340 6a 4e cc bc 05 28 e7 bc 0a d7 23 3c e2 76 f1 3c
       -0.024939734 -0.028217325 0.01 0.029475633
000350 6b 09 0c bd 0a d7 23 3c 5a 6f 84 39 3e 3f da bd
       -0.03418867 0.01 0.00025259965 -0.10656594
000360 0a d7 23 3c b5 19 58 bc eb 2a 0d be 4a 24 ce bd
       0.01 -0.013189723 -0.13785903 -0.10065515
000370 e6 61 38 3d 6b a0 73 be ff 1a 10 be fa 15 ea bd
       0.04501524 -0.23791663 -0.14072798 -0.11429973
000380 c7 39 fc bd 3a eb bd bd 56 fe 97 3d d4 59 ce bc
       -0.12315708 -0.092733815 0.074215576 -0.025189318
000390 0a d7 23 3c 06 fa 14 bd 48 96 34 bd 0a d7 23 3c
       0.01 -0.036371253 -0.044088632 0.01
0003a0 96 60 d4 bc 37 0f ea bb 07 fb e8 bc 38 7f b9 bd
       -0.025924962 -0.007142927 -0.028440012 -0.09057468
0003b0 6d a9 d0 bd e5 11 26 be b0 77 30 be 28 09 51 3c
       -0.101885654 -0.16217764 -0.17233157 0.012758531
0003c0 ca 3a 37 3b 92 3d 55 bb 53 ec 9a 3b 0a d7 23 3c
       0.0027958625 -0.003253792 0.004727879 0.01
0003d0 8d 73 60 3d f8 39 24 bd 0a d7 23 3c a5 d9 c5 bc
       0.054797698 -0.040094346 0.01 -0.024151633
0003e0 0a e0 b9 3c a7 d1 05 be bc 67 ab bd 4c 1c 93 bd
       0.022689838 -0.13068257 -0.08369395 -0.071831316
0003f0 38 d9 b2 3b ae ff 42 be f3 37 aa 3c ad 32 fe bc
       0.0054580234 -0.19042847 0.020778632 -0.031030023

model/hidden/mid_layer/W f4 [256, 256]
000000 c4 bc 63 3c df 70 1d ba a6 b8 69 3a 89 54 25 bc
       0.013899986 -0.0006005894 0.00089157594 -0.0100909555
000010 62 15 d3 bb 90 b5 81 bc 13 3b 47 bc d7 ec 27 bc
       -0.006441758 -0.015833646 -0.0121600805 -0.010249338
000020 8d b9 cc 3a d9 55 68 bb a4 2d 3e bc 75 e4 6b bc
       0.0015619263 -0.003545156 -0.011607561 -0.01439773
000030 0c 97 d5 bc 61 a7 79 bc 83 db 93 bc 97 fb ad bc
       -0.026073001 -0.01523766 -0.018049007 -0.021238131
000040 c8 bf b5 bc 7a 68 9c bc 98 f2 b8 bc 29 95 f6 3b
       -0.022186175 -0.019092787 -0.022576615 0.0075251055
000050 4b 46 13 bd 33 36 27 bb 78 80 8b ba a0 60 67 bc
       -0.03595571 -0.0025514483 -0.0010643145 -0.014122158
000060 4e 53 0d bd 0c 44 09 bc bf d2 3c 3c b0 3f 1b 39
       -0.034503274 -0.00837804 0.011524855 0.00014805677
000070 65 48 c8 bb 16 2f 9a bb bb 04 97 bc 0c a7 c6 3b
       -0.0061121457 -0.00470532 -0.018434873 0.006062394
000080 2d ff 30 bc 4c bc 07 bb 4b 78 e4 3b df 4c f6 bc
       -0.010803026 -0.00207116 0.006972348 -0.030065952
000090 f7 fe 0e bc 38 93 26 bb 50 c3 94 bb 58 96 9e bc
       -0.008727781 -0.002541734 -0.0045398846 -0.019358799
0000a0 ab 12 96 bc ae 62 ab bc 71 bd 3e ba 32 7f 9e bc
       -0.018319448 -0.020921078 -0.0007276154 -0.01934776
0000b0 1e 63 18 3c cf 47 28 ba 78 46 16 bc fc 6f 26 3c
       0.009300975 -0.0006419392 -0.0091720745 0.010158535
0000c0 a3 3e 2a 3c 01 fe 90 3b 92 01 47 bc 15 24 3c 3b
       0.01039091 0.004424811 -0.0121463705 0.002870803
0000d0 78 6d 14 bc 2b 31 b7 ba 4b d8 de bb 6d 80 da bc
       -0.0090593025 -0.0013976445 -0.0068006865 -0.026672566
0000e0 01 a2 10 3b c9 e5 1a bc da d4 8d bc 2e 4d 3d 3c
       0.0022069218 -0.009454199 -0.01731341 0.011554046
0000f0 92 78 69 bc 81 96 77 3b 2e 27 40 bc 53 20 75 bc
       -0.014249938 0.0037778916 -0.011728091 -0.01496132
000100 0b 74 0b bc c1 76 78 bc 29 db 1e bc 66 e2 b2 3b
       -0.0085115535 -0.015165032 -0.009695807 0.0054591177
000110 84 cb 0b bc a7 44 ff bb c1 40 94 bc 84 8f 37 bc
       -0.008532409 -0.0077901664 -0.018097283 -0.01120365
000120 09 54 2b 3b b0 bb 87 bc 10 b3 4a bc 0c aa ed bc
       0.0026142618 -0.016568989 -0.012371793 -0.029011749
000130 6c 89 60 bc d9 81 2d bb 17 0b b1 bc 2f 9a 37 bc
       -0.013704639 -0.00264751 -0.021611733 -0.011206194
000140 24 ac 13 3b de c8 8b bb a2 e2 db ba 65 88 43 bb
       0.0022533024 -0.0042658886 -0.0016775916 -0.0029835936
000150 28 c7 2e bc 4a 9d 6f ba 86 74 06 bc ed 22 97 bb
       -0.0106676 -0.00091405644 -0.008206492 -0.004612318
000160 fa 0c 47 bc d3 53 5f bc e2 0e c4 bc fb 20 4a bb
       -0.01214909 -0.013630825 -0.023932878 -0.0030842412
000170 73 95 e5 38 e0 5a 8e bc cb c8 8c bc 59 97 b1 3c
       0.00010947408 -0.017377317 -0.01718559 0.021678613
000180 49 6d 47 bb 2b 81 2e bd a1 6f 3b bc 53 75 90 bc
       -0.003043013 -0.042603653 -0.011440189 -0.01763407
000190 85 e7 72 bc 4e 11 fa bc 54 92 db b9 b6 86 06 bc
       -0.014825706 -0.03052583 -0.00041879958 -0.0082108285
0001a0 02 42 88 bc f9 56 39 bd 91 d8 b7 3c 53 cf 0e bd
       -0.016633037 -0.04524896 0.022442134 -0.03486569
0001b0 e4 0c ac bc f9 2f e9 bc 60 95 d9 3a 79 bb 54 bc
       -0.02100224 -0.028465258 0.0016600303 -0.01298415
0001c0 ac e9 c1 bc 1f d5 37 bc e7 ff a3 3c 66 76 4e bc
       -0.023670994 -0.011220246 0.020019485 -0.012601471
0001d0 8d 16 b7 bb 21 3d 92 bc eb 75 bf b9 71 8a 00 bb
       -0.005587405 -0.017851414 -0.00036518215 -0.0019613768
0001e0 21 eb 73 3b b9 6b 29 3b 8e 38 1e bc a4 94 69 bc
       0.0037219005 0.0025851561 -0.009657038 -0.01425663
0001f0 95 17 2a bc 52 05 1e bd e5 84 41 b8 22 13 0a bb
       -0.010381599 -0.038579293 -4.6138553e-05 -0.0021068533
000200 8d 16 4a bc ff 07 58 bc 5c 12 5a bc ff 65 e2 3b
       -0.012334478 -0.0131855 -0.013310041 0.0069091315
000210 50 72 dc bc c6 60 69 bc 9d 39 b3 bc d3 87 96 ba
       -0.026909977 -0.014244264 -0.021878058 -0.001148457
000220 53 b8 ae bc a4 d0 92 bb 7f 79 2a 3b c1 3a e9 ba
       -0.021328127 -0.0044804383 0.0026012359 -0.0017793999
000230 d7 14 e7 3a 60 df 1e bc 53 fb 24 3c 43 b9 e3 3b
       0.0017630112 -0.009696811 0.010069686 0.006949575
000240 22 ec 58 bc 76 77 64 bc 3c 6e 5c bc 08 01 ef ba
       -0.013239892 -0.013944497 -0.013454016 -0.001823456
000250 3f ca 5f bb a8 e5 e7 ba b9 71 24 bc d5 e4 6c bb
       -0.0034147648 -0.0017692344 -0.010036879 -0.0036147137
000260 d1 a8 c4 bb 67 7c d9 bc 03 cd a6 3c 21 8b 00 bd
       -0.00600157 -0.026548577 0.02036143 -0.031382684
000270 db 2b d6 bc 67 e9 19 3c 50 34 28 ba 0a 9e 0d bc
       -0.026143959 0.009394026 -0.00064164866 -0.0086436365
000280 40 9d 7c 3a df 57 7a bc 71 d8 ee 3b 63 c0 65 3c
       0.0009636469 -0.015279739 0.0072889854 0.014022919
000290 72 80 c7 39 5c 94 d2 bb 3e 0d 38 3c c7 95 96 3c
       0.00038051937 -0.006426377 0.011233626 0.018381966
0002a0 0c 85 1b bc 14 fd c3 bc 19 e2 a8 3c 60 98 12 bc
       -0.00949217 -0.023924388 0.020615624 -0.008947462
0002b0 eb 92 60 3b 2e 45 d9 39 b5 bd 77 bc 4d 41 03 3c
       0.0034267257 0.00041441008 -0.015120913 0.008011174
0002c0 24 1f 3f bc 11 43 a4 ba 10 db e3 39 be df 04 bd
       -0.011665139 -0.0012532194 0.00043460028 -0.03243994
0002d0 ff 89 93 bb 2e a0 b2 bc be 33 1a bc 73 c0 5d bc
       -0.0045025344 -0.021804895 -0.00941175 -0.013534653
0002e0 b2 7d af bb c8 59 a9 bc e6 4c 01 bc e0 00 94 bc
       -0.00535556 -0.020672694 -0.007891869 -0.018066823
0002f0 f1 67 10 bd 5f e8 d2 bc 83 8e c8 bc b6 fe 8b 3b
       -0.035255376 -0.025745569 -0.024482017 0.0042723073
000300 9e ac 75 3c 51 10 51 3b 31 3b 38 ba 52 6e 34 bc
       0.014994768 0.0031900594 -0.0007027863 -0.011012631
000310 28 67 1c bc f2 f5 10 3c 2f 23 21 bd 80 f9 87 3c
       -0.009546079 0.0088477 -0.039340194 0.016598463
000320 a8 3e cb bb ea f4 ec bb 14 e6 39 bc eb 6f 14 bd
       -0.0062025376 -0.0072313445 -0.011346359 -0.036239546
000330 44 61 48 3c 27 1e 30 b9 00 86 a7 bc 10 63 4c bc
       0.012230221 -0.000167959 -0.020449638 -0.01247479
000340 37 fd 6c bb e9 c3 21 bc bd aa 87 bc b5 5e bc bc
       -0.003616167 -0.009873369 -0.016560907 -0.022994379
000350 8e 1c 96 bc 84 91 46 bb 43 c6 c9 bc ac 56 cd bc
       -0.018324163 -0.0030299136 -0.024630671 -0.025065742
000360 25 b7 aa bc ae 98 46 bc e9 a2 04 bc 35 50 b5 bc
       -0.020839283 -0.012121363 -0.008095481 -0.022132972
000370 70 58 bb bb d9 bc 82 bb d9 a0 01 bd 47 bc ba ba
       -0.0057173297 -0.0039897976 -0.031647537 -0.0014246785
000380 44 50 db 3b 25 19 ca bb 11 02 8d bc 9a 4a bc 3a
       0.006692918 -0.0061675482 -0.0172129 0.0014365495
000390 f7 5e b6 3a 6b f4 1e bc 34 45 86 bb 22 cd 71 bb
       0.00139138 -0.0097018285 -0.004097605 -0.003689595
0003a0 69 17 1b bb a6 0c 03 bd 95 cf 88 bc 61 33 b0 bb
       -0.0023665077 -0.031994484 -0.016700545 -0.0053772186
0003b0 80 20 a7 3a fb 87 27 bc ab f1 ab 3b de 1b f3 bc
       0.0012750775 -0.010225291 0.005247315 -0.029676374
0003c0 8e 09 50 bc ee dd 80 bc a0 59 bf 3a 8d 77 0f bd
       -0.0126975905 -0.015730824 0.0014598854 -0.035026122
0003d0 a7 c1 7e bc 46 d5 83 bb d2 06 65 bc 9b de 0b bd
       -0.0155491 -0.004023227 -0.013978677 -0.03414784
0003e0 0a c8 a1 bc ed b4 09 bc 92 88 28 bb df 0f 73 bc
       -0.019748706 -0.0084049525 -0.0025716168 -0.014835327
0003f0 47 db 6b bc 61 38 fa bb 49 74 d5 bc dc 13 ff 3b
       -0.0143955415 -0.0076361154 -0.026056426 0.00778435

model/a_stream/b f4 [3]
000000 1b fd 82 3c 74 6a 88 bb 1c 7c 33 ba
       0.01598983 -0.004163081 -0.0006846802

model/hidden/mid_rec_layer/upward/b f4 [80]
000000 cf 31 ac bb a5 14 d6 bd 8b da 5b 3f bf b0 d1 bd
       -0.005254961 -0.104531564 0.85880345 -0.1023879
000010 23 0b a5 bb 68 61 c2 bd b5 90 5e 3f 04 29 c0 bd
       -0.005036728 -0.09491235 0.86939555 -0.09382823
000020 30 98 d3 3a 2c 46 c0 bd 77 5b 66 3f b1 4b bc bd
       0.0016143378 -0.09388384 0.89983314 -0.091941245
000030 57 64 9d bb e6 88 c8 bd fc 21 5c 3f d5 33 c5 bd
       -0.004803221 -0.09791736 0.85989356 -0.09629027
000040 f9 84 d0 bb 22 90 d1 bd 23 5d 5c 3f 33 2e ce bd
       -0.006363508 -0.10232569 0.86079615 -0.100674056
000050 b9 1c 78 bb be ea b7 bd e7 18 5f 3f 36 e3 b5 bd
       -0.0037858917 -0.089803204 0.8714737 -0.08881228
000060 24 d6 99 bb c5 ca ea bd cb c3 5d 3f 01 ff e6 bd
       -0.004694717 -0.114644565 0.8662688 -0.11279107
000070 80 68 26 3a ae 70 cd bd 8d d3 64 3f ed 92 c9 bd
       0.0006347969 -0.100312576 0.893853 -0.09842477
000080 79 7d ef ba 57 1f e2 bd df d5 61 3f 27 ee de bd
       -0.0018271647 -0.11041134 0.88216966 -0.10885268
000090 49 24 99 bb 4f 7a ee bd d3 22 5c 3f c1 a0 e8 bd
       -0.004673515 -0.11644422 0.8599064 -0.113587864
0000a0 ee f1 e5 bb 1a ed dc bd 8e 71 5a 3f 51 e1 d8 bd
       -0.0070173657 -0.10787411 0.8532952 -0.10589851
0000b0 0f 5b 9f bb 2e 01 c7 bd 98 85 5e 3f ad 72 c4 bd
       -0.00486315 -0.09717022 0.869226 -0.09592185
0000c0 a6 0e b4 bb f9 2d 9f bd 82 b1 5c 3f 9c 48 9d bd
       -0.0054949103 -0.077724405 0.86208355 -0.07679865
0000d0 0b b5 ca bb 54 dd b5 bd c5 73 5d 3f ba 72 b4 bd
       -0.006186133 -0.088801056 0.86504775 -0.08810945
0000e0 cc 5a 8f bb 93 23 b0 bd 7b 11 5f 3f 3b 7b ae bd
       -0.0043748375 -0.08600535 0.8713605 -0.08519598
0000f0 f2 c4 72 bb b3 04 b8 bd 5d c9 60 3f 13 26 b6 bd
       -0.0037043658 -0.08985271 0.87807256 -0.08893981
000100 e1 b9 b9 bb 33 1c b2 bd 2a fd 61 3f c7 01 b1 bd
       -0.0056679104 -0.08696785 0.8827692 -0.08642917
000110 98 33 b7 bb 35 28 dc bd 87 14 5b 3f 92 af d6 bd
       -0.0055908673 -0.107498564 0.855782 -0.10482706
000120 42 b8 ca bb ac 32 c1 bd e2 c9 5a 3f 7a b9 be bd
       -0.006186516 -0.09433493 0.854643 -0.093127206
000130 88 35 ab bb 34 ee b9 bd 76 2e 60 3f cd 74 b8 bd
       -0.0052248873 -0.09078637 0.87570894 -0.09006653

model/hidden/input_layer/W f4 [256, 86]
000000 7c ef c3 3c 0a bc 17 bd 3c 63 41 bc 7a 31 7d bd
       0.023917906 -0.037044562 -0.0118034445 -0.061814763
000010 b1 ef a0 bc c8 a6 97 3c 4f 65 17 bc bc eb 4e 3c
       -0.019645544 0.018512145 -0.009240462 0.012629446
000020 75 da 59 bd 0f c3 ab 38 7c 09 11 be 57 19 68 3c
       -0.053186852 8.190248e-05 -0.14163774 0.014166198
000030 ba 10 f6 bd 5b 39 fc bd 60 16 34 bc d3 93 3e 3d
       -0.12014909 -0.12315627 -0.010991663 0.046527695
000040 03 1b 2a 3d 98 29 d9 bb 5a 70 0b bd 39 74 06 be
       0.041529667 -0.006627273 -0.034042694 -0.13130273
000050 8a 46 a8 3b 3d 89 e4 3d 9d 9f 07 3d 0c d0 41 bc
       0.005135362 0.111589886 0.033111203 -0.011829387
000060 f6 9e b5 bc a1 2d 90 bc 32 e2 a8 3b 31 6d 71 bc
       -0.022170525 -0.017599883 0.0051539177 -0.014735506
000070 be bf 20 be 57 9c 9b 3c 4a 7e 5a bd 51 d6 c0 bd
       -0.15698144 0.018995447 -0.053343095 -0.094158776
000080 8d 13 e1 3c 68 35 15 bd 48 56 df bc 56 b8 32 bb
       0.027475143 -0.036427885 -0.027262822 -0.0027270517
000090 30 14 ea bc c6 7c e5 3d 95 1a d8 3a 54 57 99 bd
       -0.02857408 0.11205439 0.0016487414 -0.0748736
0000a0 c1 1d 5b 3c 57 ef 26 bc c2 2d 95 3d a0 9c 00 3e
       0.013373793 -0.010188899 0.07284118 0.12559748
0000b0 a8 9a fe 3b ca 6c d7 3d 63 06 d6 3d 7e 6d 93 bd
       0.0077699013 0.10518797 0.10450437 -0.07198618
0000c0 fb a3 e4 3c 60 14 ee 3c dd 04 97 3d 04 f7 77 bd
       0.027910223 0.02906245 0.073739745 -0.060538307
0000d0 8d f1 11 3c 96 cf b0 bd c1 cf ad 3b a1 9d 62 3d
       0.008907688 -0.08633344 0.005304307 0.055326108
0000e0 85 71 bc b9 28 d6 1d bd 12 0b f1 bd 8a 97 9e 3a
       -0.00035942733 -0.038534313 -0.117696896 0.0012099606
0000f0 ff d9 9b 3b 57 f6 6a bc e3 57 08 bd 31 03 87 bc
       0.004756212 -0.014340959 -0.03328694 -0.016481014
000100 2a ab c4 3a ca 71 8d bd 6a 02 8c bd 04 66 85 bd
       0.0015004624 -0.06906469 -0.06836398 -0.065135986
000110 33 aa 96 bc 38 30 e4 bd 14 db 4b bd d0 95 29 bc
       -0.018391704 -0.111420095 -0.049769476 -0.0103506595
000120 4a 1d 3a 3d 3f 40 5d bd 3f b6 dc 3b 5e d8 0e 3d
       0.04543809 -0.054016348 0.0067355926 0.034874313
000130 29 ea e5 bd c9 18 26 bd a1 25 a8 bb 00 f3 07 bd
       -0.11226303 -0.04055098 -0.005131439 -0.033190727
000140 a2 3f 57 bc 30 49 44 bb 9b 82 82 bd a7 10 d7 3c
       -0.01313773 -0.002995085 -0.06372567 0.026253058
000150 47 ef 1d bd 08 bd c4 3c f2 27 a8 bc 14 c2 9b bc
       -0.03855827 0.024015918 -0.02052686 -0.019013442
000160 01 44 59 bb c9 f7 9f bc 21 83 a3 bc cb 85 5e bc
       -0.0033152106 -0.019527333 -0.019959988 -0.013581703
000170 97 9d af bc b5 37 18 bd 34 94 15 bc 3b 4d 65 bb
       -0.02143745 -0.0371625 -0.009129573 -0.003498866
000180 c5 d2 00 bd 02 ac d0 3b 00 24 4a bc c5 8c 69 bc
       -0.031451005 0.006368161 -0.012337685 -0.0142547535
000190 8e 37 4c bc dd 18 65 bb 3c 56 a0 bc f3 ff 0c 3c
       -0.012464417 -0.0034957447 -0.01957237 0.008605945
0001a0 c5 7e cd bb 26 69 88 3c a4 94 de ba 1f f7 eb bb
       -0.0062712156 0.016651701 -0.0016981554 -0.00720109
0001b0 91 ad 9f bc 1c 8a 87 3b 98 e4 06 bc 03 c5 29 bd
       -0.019491943 0.004136337 -0.008233212 -0.04144765
0001c0 3e 74 aa bb b4 8e 70 bb 24 6e 7e 3c 7f 86 c1 bb
       -0.0052018454 -0.0036706151 0.015529189 -0.0059059258
0001d0 b5 fe 8f bc b0 b7 ce bb 0e e4 f0 bb 51 50 cd bb
       -0.017577508 -0.0063085184 -0.007351405 -0.006265678
0001e0 48 0c d7 bc 96 f8 ca bb 62 75 58 bc eb 4b 09 3c
       -0.026250973 -0.0061941845 -0.01321158 0.008379917
0001f0 41 32 ed 3b 02 31 67 3b c6 1d bf bc 1b 6d b2 bb
       0.0072386567 0.0035277014 -0.023329627 -0.0054451353
000200 1f 63 64 3b a0 59 a9 bc 21 25 67 3b f9 58 45 bc
       0.003484912 -0.02067262 0.0035269933 -0.0120451385
000210 40 7d 98 bc 7e 8a ed bc ed 4b f7 3b 73 d8 cb bc
       -0.018614411 -0.028996702 0.007546893 -0.024883484
000220 97 49 a9 bc 58 84 89 3c 33 59 bd bb da 70 cc bb
       -0.020664973 0.01678674 -0.0057784556 -0.006239039
000230 ac 4d 44 bc 18 18 c8 bc 65 9b 82 3c 00 d1 3f 3c
       -0.011981409 -0.024425551 0.015943239 0.011707544
000240 d6 2c c2 bc 14 55 72 3c 2c 32 fc 3b b8 1a 56 3c
       -0.02370302 0.014790792 0.0076964106 0.013067894
000250 bc a2 97 bc 1c a8 e7 3b 86 66 92 bc 47 fb 0d 3c
       -0.018510215 0.0070696007 -0.017871153 0.008665866
000260 44 3c 22 3c 0c 48 05 3b fe 55 5f bc 8c 02 7f bc
       0.009902064 0.0020337133 -0.013631342 -0.015564572
000270 c5 c5 fe bb e8 6a 8a bb 96 6b 0d bc 31 71 aa bc
       -0.007775041 -0.00422417 -0.0086316075 -0.020805927
000280 aa 40 3d 3b 68 fc 9e bc c9 76 60 3a e1 81 3b 3c
       0.0028877654 -0.019407466 0.0008562622 0.01144454
000290 6c b0 d8 bc 68 85 e5 bc 05 91 e6 bc 9b 62 2e 3c
       -0.026451312 -0.028017715 -0.028145323 0.010643627
0002a0 c2 e2 87 bc 76 b2 f4 bc 7b b0 83 bc 27 e0 f7 bc
       -0.016587619 -0.029870253 -0.016075363 -0.030258251
0002b0 7b fc f6 bc e0 1a d2 bc 14 70 5f bc 9c 2d 21 3c
       -0.030149689 -0.02564758 -0.013637561 0.009837534
0002c0 eb 7e 8d 3a 93 86 04 bd 9b 77 55 bd 15 02 ec bb
       0.0010795271 -0.032354902 -0.052116018 -0.0072023966
0002d0 d2 b3 c4 bd 96 e3 12 3b 61 c7 03 bc 58 dd 52 bc
       -0.096046105 0.0022413484 -0.008043141 -0.012870155
0002e0 39 d2 87 3d 11 81 a6 3c 09 99 1a 3c 61 4c 79 bd
       0.06631894 0.020325216 0.0094359005 -0.060863856
0002f0 72 f2 4a 3d b0 0b aa 3c 0e 9e 94 bd 76 2b 15 bd
       0.04954762 0.020757526 -0.07256709 -0.0364184
000300 e2 d9 d3 ba 2e 5b 14 bd 62 16 04 3d cc 3c 26 bc
       -0.0016162957 -0.03621977 0.03224791 -0.010146331
000310 90 10 23 bc 6c 82 e2 bd f4 0c f1 ba 5c d8 49 3d
       -0.009952679 -0.11060032 -0.0018390701 0.049278602
000320 bb cb c7 bd 0a ba 94 bc a1 ed a3 bd 6b 9c 2c bd
       -0.097556554 -0.018155117 -0.080043085 -0.04214136
000330 9a 20 51 3b 69 d7 95 3d ed b2 1c bd 2e 48 1c 3c
       0.0031910301 0.07316477 -0.038256574 0.009538693
000340 ac f1 c2 bd 39 9c 8a bb 09 d2 82 3c 73 65 a0 bd
       -0.095187515 -0.004230049 0.015969293 -0.0783185
000350 bc db 83 bc 33 12 d2 b9 fb ce 82 bd b1 46 f3 bc
       -0.016095988 -0.0004006788 -0.06387135 -0.029696794
000360 98 fb a4 bb e3 74 91 bc 5f 2d 31 bd 8e 38 95 3b
       -0.005034875 -0.017755931 -0.04325616 0.004553861
000370 a8 a5 13 3c 9e 07 d6 bd 61 47 34 bd 32 c2 54 bd
       0.0090116635 -0.104506716 -0.044013385 -0.05194301
000380 34 e7 df 3c 65 50 ec 3c bd d3 75 bd 71 5d ef bd
       0.027331926 0.028846929 -0.060016382 -0.116877444
000390 2f 11 39 bb 71 3d f7 3c a6 01 b8 bd fe a7 3d 3c
       -0.0028239002 0.030180665 -0.089846894 0.011575697
0003a0 71 ec c5 3d 8d 35 39 bd 21 07 af bc 73 ae b5 3c
       0.09664238 -0.045217086 -0.021365704 0.02217791
0003b0 39 27 1c bd 5b 5f 79 bd 6f d5 97 bd 30 84 19 bc
       -0.038123343 -0.060881954 -0.07413756 -0.009369895
0003c0 9c 08 7d bd e5 63 07 3d 3a 57 d4 3a 5f 69 17 3c
       -0.06177579 0.03305425 0.0016200312 0.009241431
0003d0 e8 88 97 3d 4c 5f 8d 3c 42 df e4 bb b5 f7 af 3c
       0.0739916 0.017257355 -0.006984622 0.02148042
0003e0 05 30 2f 3d b6 31 ac bc 26 ce 2e bc 16 93 b5 3c
       0.042770404 -0.021019798 -0.010669267 0.022164863
0003f0 98 93 65 3d 5a 62 81 bd e9 30 fd bc 80 e0 7f bd
       0.05604896 -0.06317587 -0.030907111 -0.06246996
