ai_challenge/results/simulation_DoubleDQN_DuelingRecNN_2017-05-19T19:40:53.24/120003/model.npz (npz, 631012 bytes, 12 tensors)

model/hidden/input_layer/b f4 [256]
00000000: 92ee c1bc 5d5f e5bc e26b cdbc a480 3ebc
00000010: fc4a 42b8 5160 bfbc 3f9a 23bd 731b 5fbd
00000020: 3ac4 82bc 3c43 c0bc 9cf2 923c 14b6 bdbc
00000030: 96a0 66bc 885b eabc 55ab 18bd b691 e8bb
00000040: 14d3 02bd 661d 3ebd caf3 2ebc 9b45 06bd
00000050: 3a36 d2bc 2cd2 aebb dcb5 763c 7fde 45bc
00000060: c4ff 1ebd 7398 e0bc e72a e8bc 2f13 43bc
00000070: 30cb d1bc 39cb 92bc f717 32bd a25c 9dbb
00000080: 2c12 21bb a1f0 00bd ff0d 5b3c db1d a4bc
00000090: 952f 85bd aed0 b8bc 960b 19bd 0116 2cbc
000000a0: ff95 f4bb 11d6 0fbd dcc4 963c 87e1 06bd
000000b0: 440e 1cbd 6dd2 93bc f703 edbc d52d dfbc
000000c0: fdfe 94bc 9670 21bd 77a1 a9bc ff0d b9bc
000000d0: d096 c7bb f753 9fbc 74ce a9bc 31df d7bc
000000e0: 4455 bebc af3d e7bc 3713 87bc 4709 57bc
000000f0: ad6b d5bc 147b 4bbc 50eb d0bc fd43 4abc
00000100: f6c4 1abb 03e5 febc 7e2b f4bc e555 d5bc
00000110: e222 a3bc b025 2bbd 6010 29bd 310f 7fbd
00000120: c335 20bc 5b75 f6bc 2a41 32bd e93b e1bc
00000130: 7c4f 46bc d6f0 04bd 8acd 6cbc 6cca 1ebd
00000140: dfc2 89bd 3085 dabc c331 f9bc e888 31bd
00000150: 39d8 e4bc b879 edbc 572d 13bd 1e6d 23bd
00000160: aa36 b0bc da50 3ebd ce78 923c b4d5 d53b
00000170: e3ee 14bd 466b 15bd 2c24 62bc 1d62 f6bb
00000180: 7465 d9bb 537a af3b b19b 963c 776a 433c
00000190: e96d b9bc 4911 ecbc 9ea7 2b3c ade8 15bc
000001a0: 745d fe3b e2eb e6bb ec7f d3bc 5b75 1bbd
000001b0: 2592 dcbc fb36 73bd 961e 62bd 2408 0cbd
000001c0: 0a5b 8dbc e6c9 7bbc 3c90 1cbd 0aab 08bc
000001d0: 892b 1abd fd0a 37bd be03 6abd 8095 f5bc
000001e0: a4de 49bd 6314 8cb9 54d1 30bd 04fe 76bd
000001f0: a39a 2abd 38c4 44bc a6e9 3bbd 621c 603b
00000200: 2a2d 2bb9 a61b 4cbd f734 14bd acca 8bbc
00000210: b616 f9bb c06d d6bc b98f 99bb 931d 3ebd
00000220: 52a3 8dbc 1e8f e2bc 9ec3 00bd fa6e eb3b
00000230: b583 f5bc c178 bfbc 3349 eabc 2966 4b39
00000240: 1109 4dbc 4376 89bb f92e 31bd 4377 52bd
00000250: 1d4a 49bd 35e6 1abd 33c9 3cbc 7d4e 09bd
00000260: 5c2e 24bd ee58 b1bc 5b31 18bd 4382 2dbc
00000270: 9be6 6dbd fd95 1fbc d97e e8bb f204 c0bc
00000280: 1c5d ebbb adbc 39bd eaf4 7f3b 99dc 80bc
00000290: 1958 38bd 9de0 b0bb f841 3cbd 6f66 bcb9
000002a0: 0ccc 9ebc bd8d 86bc 2f08 ac3a 2d59 dc3b
000002b0: 379a 50bc c373 bfbc 8060 88bb 2f2e 81bb
000002c0: b298 1abc f44d 08bd 6707 c1bc a99d debc
000002d0: 99af eebc 5ec4 69ba 6765 303b 0343 dfbc
000002e0: e715 dfbb 4415 e5bc ce6d f9bc e322 9abd
000002f0: 6a2c e0bc a109 80bc 4300 f9bc d834 4bbd
00000300: 7e6f 1cbd 11f1 0dbd f252 94bc 2633 3cbd
00000310: 27e9 a2bc 7ec1 d5bc de05 27bd ac46 783b
00000320: 08b9 71bc 1476 65bc d0b7 d1bc e302 58bd
00000330: 0999 05bd d1aa ebb9 76ee babc 1501 07bd
00000340: 4a2d a7bc 4b0d 16bc 2029 0dbd 5dfd d9bc
00000350: 9ad2 0abd fb4e cabc 0a8b 67bd f69d 5dbd
00000360: 5481 d7bc 2e60 f9bc f545 3dbd 41f8 aabc
00000370: 9113 9ebc f6eb d03b 8558 1dbd ca67 88bc
00000380: d2a9 b3bc 651c bd3c f680 03bd 5f74 21bd
00000390: 39b1 b3bc 69cc b7bc 7a9f 2dbd efff e7bc
000003a0: e9f3 4ebd 021f 213c 3791 9ebc 091e e8bb
000003b0: fc76 3dbd 368a fcbb eba6 a5bc 0a65 06bd
000003c0: ab04 b3bc 95c8 34bc 3750 83bc ed34 28bd
000003d0: 37a2 9cbc 5a88 8cbc e75c 05bd a69a 37bd
000003e0: 0b17 0cbd 1f14 0cbd 4d0d 95bc 9373 d8bb
000003f0: e336 553c 56f2 31bd 0404 60bd 9f3e edbc
-0.02367333 -0.027999574 -0.025075857 -0.01162735 -4.632304e-05 -0.023361357 -0.039942022 -0.054469537
-0.015962709 -0.02346956 0.01793795 -0.02315811 -0.014076373 -0.028608099 -0.03727277 -0.007097448
-0.03193958 -0.046414755 -0.010678241 -0.032781225 -0.025660623 -0.005335113 0.015058007 -0.012076973
-0.038818136 -0.027416443 -0.02834077 -0.011906429 -0.025609583 -0.01791917 -0.043479886 -0.0048023025
-0.0024577482 -0.03147948 0.013370036 -0.020033767 -0.06503216 -0.022560444 -0.037364565 -0.010503293
-0.00746417 -0.03511626 0.018404417 -0.032929923 -0.038099542 -0.018044675 -0.028932555 -0.027243534
-0.018187994 -0.03941401 -0.020706875 -0.022589682 -0.0060909763 -0.019449217 -0.020728327 -0.026351543
-0.023234017 -0.028227655 -0.016488655 -0.0131247705 -0.02605232 -0.012419481 -0.02550283 -0.012345311
-0.0023615933 -0.03111506 -0.029805895 -0.026041934 -0.019914094 -0.04178399 -0.041275382 -0.062270347
-0.009778443 -0.030085256 -0.043519177 -0.027494388 -0.0121039115 -0.03245624 -0.014453301 -0.038767263
-0.06726622 -0.026674837 -0.030419236 -0.043343455 -0.027935134 -0.028988704 -0.03593191 -0.039898984
-0.02151044 -0.046463825 0.01787987 0.0065257195 -0.036360633 -0.036479257 -0.013802569 -0.0075190202
-0.0066344086 0.0053551584 0.018384786 0.011927239 -0.022635417 -0.028816836 0.010476975 -0.0091497125
0.0077626053 -0.0070471624 -0.025817834 -0.037953716 -0.026925156 -0.059378605 -0.05520495 -0.03418745
-0.017255325 -0.015367961 -0.03822349 -0.00834156 -0.037639175 -0.044688214 -0.057132475 -0.029978514
-0.049284592 -0.0002671807 -0.04316838 -0.060300842 -0.04165138 -0.012009673 -0.04587712 0.0034196605
-0.00016324656 -0.049831055 -0.036183324 -0.017064415 -0.0076015843 -0.02617538 -0.0046863225 -0.046414923
-0.017289791 -0.027656134 -0.031436555 0.0071848603 -0.02997003 -0.02337301 -0.028599357 0.00019397646
-0.012514369 -0.004195006 -0.043257687 -0.051383268 -0.049142946 -0.0378172 -0.011522579 -0.033522118
-0.040083274 -0.02164885 -0.037156444 -0.010590139 -0.05808125 -0.00974035 -0.0070951995 -0.023439858
-0.0071827304 -0.04534595 0.0039055892 -0.01573019 -0.04500589 -0.0053978697 -0.04596135 -0.00035934473
-0.019384407 -0.016425008 0.0013124997 0.006724498 -0.01273208 -0.02337063 -0.0041618943 -0.003942273
-0.009435819 -0.033277467 -0.0235631 -0.027174788 -0.029136466 -0.00089175056 0.002691591 -0.027253633
-0.006808031 -0.027964242 -0.030447867 -0.07526185 -0.027364928 -0.015629591 -0.030395633 -0.049610943
-0.038192265 -0.034653727 -0.018105958 -0.045947216 -0.019886566 -0.02609324 -0.04077708 0.003788392
-0.014753588 -0.014005203 -0.025600344 -0.052737128 -0.03261665 -0.0004494996 -0.022818785 -0.032960016
-0.020407338 -0.009158443 -0.034463048 -0.02661007 -0.03389225 -0.024695864 -0.056529082 -0.05410572
-0.026306786 -0.03044137 -0.046209294 -0.02087033 -0.01929644 0.006375785 -0.038414497 -0.016651053
-0.021931563 0.023084829 -0.03210541 -0.03941762 -0.021935092 -0.022436338 -0.042388417 -0.02832028
-0.05052558 0.009834053 -0.019356353 -0.0070836586 -0.04625605 -0.0077069057 -0.020221194 -0.032811202
-0.021852812 -0.011034151 -0.01602946 -0.0410661 -0.019120319 -0.017154861 -0.0325593 -0.04482522
-0.034201663 -0.034198876 -0.018194819 -0.0066055744 0.013013574 -0.043444 -0.05469133 -0.028960524

model/hidden/output_layer/b f4 [256]
00000000: 139b 323c 23b9 d1bb 7a98 283c b27b 0cbc
00000010: f47e ac3a a4d9 963b 8198 b03b 5fed f73b
00000020: 2f5e 2ebc b332 363c cc82 56bc 70c5 eb3b
00000030: bb69 623b ba87 5d3b be90 163c 3954 003c
00000040: 2a2b 2dbc ba63 603b b647 f9bb 729c 0c3c
00000050: b590 2ebc 02c5 16bc 65e9 0d3b 5afc 86bb
00000060: 3e85 54bc ba11 643c f5fe f0bb 4b1b 623b
00000070: d2a7 1fbc 26d9 533c 787e 37bc 9bd5 f9bb
00000080: f5c6 163b f1b4 69bc 93f3 dd3b 26d8 f8ba
00000090: f19f e1bb bfeb 113c 2e6c c03b fc20 663b
000000a0: 2c2a 013c ec9a f03b 02ad fcbb 5ac4 283c
000000b0: c680 733c 8278 e7bb 9e5c 11bc 92d1 ca3b
000000c0: 13d0 2bbc e79d 0bbb 4e8a fcbb 2e4d 1dbc
000000d0: b71b 20bc 209a 603b 8a3b 01bb 1aa5 e138
000000e0: e4da 2bbc 6a3f 8cbb e7d5 153b 2a72 0d3b
000000f0: ef5f 26bb d109 813b 904f 143c d15b 5bbb
00000100: 972b eb3b 2404 863b c87c 1abc 8e07 b5bb
00000110: 564e f8bb 7ee6 d9bb e210 f6bb 89dd 233c
00000120: 39bd 35bb 7f65 46bc 8629 90bb 628e f43a
00000130: f7b5 d73a 58c8 193c d7e3 8a3b 6d57 003c
00000140: 4a14 76bc fcc2 01bc baa5 1d3a 1f5b 4bbb
00000150: 55ef ab3b 4e0f 37bc 1455 9cbb d519 bd3b
00000160: 6772 5fbc a435 15bc 7a84 413c 583b 0c3c
00000170: 391a 143c 2c3b f13b 860e 5fbb 444f b43b
00000180: 1ddd 04bc 2cc3 35bc 35c1 1b3c 4e05 9bbb
00000190: b05e 1a3c 7b22 64ba c9f8 2ebc 547b 903b
000001a0: f468 6e3b 14ca 133c f367 1cbc 5c1b 1abb
000001b0: ea2a 1f3c c26b 27bb 4eae 2e3c 74f4 e43b
000001c0: 3f1e 5cbc 03d2 f63b 91f4 edbb 3d3a ebbb
000001d0: 000c 2cbc 7c02 47ba f48f 1a3b a20c 363c
000001e0: 1712 0b3c 8716 f03b 706a c43b ec39 1bbb
000001f0: 3c3f 0bbb 53e7 bb3b 245a e43b c8fd c3ba
00000200: d743 a83b 5a97 1dbc f529 423c 7346 afbb
00000210: c0ba 093c 7d1c 193b 737a d23b 3b35 16bc
00000220: 8bc3 05bc 989a 413b 14db 2b3c 9045 70b9
00000230: a74d 183c 040e 01bc 7c0f 2a3c e5a6 bfbb
00000240: 370f 45bc fe9a 133c ebec fb3b 5c1f b3bb
00000250: 183b a23b d358 eebb 3b71 07bc caf9 233b
00000260: 59eb 5ebb c6f0 13bc 679c 05bb c56a ba3b
00000270: bb52 d8bb 3266 38bb 320d 15ba 8ac7 5d3b
00000280: 99d2 a1bb 8444 cf3b bc3f a5ba f0cc a83b
00000290: a98a eabb 0454 46bc 29e6 1dbc 1fbc 2cbb
000002a0: 79dd 37bb e7db 873c 5750 1c3c 68af 27bc
000002b0: 89a2 4dbb 7b54 233c afb0 703c 33e6 353a
000002c0: 509d abba dcdb 0a3c c2a9 db3b 635f 2b39
000002d0: 4228 153c 7920 493c b183 1ebc ad22 45bb
000002e0: 2252 303c 2300 1abc ace2 083c 67d5 fd3a
000002f0: c8b9 b1bb c745 d6bb f2f9 c13b 655d 25bc
00000300: 194a 86bb 96c8 3d3b 5184 1dbb 2521 f9bc
00000310: 03e6 0c3c 7a98 2c3a 28a0 e03b 5fed 08bc
00000320: be40 083c e0fc 643b 2162 573b 9aea 26bc
00000330: c886 8e3c a194 20bc 6b40 943b 4d6f 7ebb
00000340: 7024 4fbb e281 d23a 07a4 dcbb b4ef 4e3b
00000350: 5daf 1cbc bea8 08bc 6661 253c 13c2 1539
00000360: a924 093c c655 ffb8 d65d fcbb 2427 f63b
00000370: c019 7bbb afdf 183c 1094 5e3c 019f 42bc
00000380: 201e 0d3c 2402 893b 3f6a 163b 56f5 bbbb
00000390: 88af 67bc f815 ab3b bb8a 1ebc ba8f 2d3c
000003a0: abc2 083c 24d8 f0bb 04c4 ad3c 6e3a 9fbb
000003b0: 19f8 94bb d1a6 73b9 005d 3b3c 6d78 eb3a
000003c0: b5eb 233c 6934 08bb c215 603c d638 62bb
000003d0: dbfc 4d3b 7aa6 043c 9c07 6dbb 8690 61ba
000003e0: c304 e63b 2f70 0cbc 2bbe c83b 4db3 a43b
000003f0: 5057 023c e8b4 8639 a83d 1d3b d59a 4b3b
0.01090123 -0.006400244 0.0102902595 -0.008574413 0.0013160394 0.0046035815 0.0053892736 0.0075661386
-0.010642572 0.011120486 -0.013092708 0.0071951672 0.0034547884 0.0033802823 0.009189783 0.00783258
-0.010569373 0.003423913 -0.0076074256 0.008582221 -0.010654618 -0.009202244 0.0021654007 -0.004119438
-0.012971221 0.013920242 -0.007354612 0.003450113 -0.009744601 0.01293019 -0.011199586 -0.0076243407
0.0023006771 -0.014264331 0.006773421 -0.0018985316 -0.0068855216 0.008906304 0.005872271 0.0035114875
0.00788359 0.007342687 -0.007711054 0.01030072 0.014862245 -0.007063926 -0.008872179 0.0061895335
-0.0104866205 -0.0021303834 -0.007706917 -0.009600921 -0.009772233 0.0034271553 -0.0019719326 0.000107595886
-0.010489199 -0.0042800205 0.0022863091 0.002158294 -0.002538677 0.003937938 0.009052172 -0.0033471475
0.007176827 0.004089849 -0.009429164 -0.005524582 -0.0075776977 -0.0066497913 -0.007509337 0.010001549
-0.0027731194 -0.0121091595 -0.004399481 0.0018658156 0.0016457428 0.009386145 0.0042385864 0.007833344
-0.015019486 -0.007920023 0.000601377 -0.0031029654 0.0052470365 -0.0111730825 -0.0047708843 0.0057709017
-0.0136381155 -0.009107027 0.01181137 0.0085590705 0.009039455 0.00736179 -0.0034035756 0.0055026133
-0.008109358 -0.011093896 0.009506513 -0.004730857 0.009421989 -0.0008702648 -0.010679432 0.004409233
0.0036378475 0.009020347 -0.009546268 -0.0023514843 0.009714821 -0.0025546406 0.010661675 0.006987149
-0.013434946 0.0075323596 -0.0072618206 -0.0071785734 -0.010500908 -0.0007591618 0.0023584338 0.01111141
0.0084882 0.007326904 0.0059941337 -0.0023685647 -0.0021247407 0.005734363 0.0069687534 -0.0014952952
0.0051350403 -0.009618605 0.011850824 -0.0053489744 0.008406341 0.0023362928 0.0064232885 -0.009167965
-0.008164297 0.0029541608 0.010489244 -0.00022914098 0.0092958575 -0.007876877 0.010379668 -0.005848753
-0.012027553 0.009009121 0.007688155 -0.005466385 0.004950892 -0.0072737723 -0.008266742 0.0025020712
-0.003401479 -0.009029573 -0.0020387413 0.0056889975 -0.006601659 -0.0028137085 -0.0005685865 0.0033840858
-0.0049384353 0.0063253064 -0.0012607495 0.0051513836 -0.007157643 -0.012104992 -0.009637394 -0.0026357246
-0.0028055592 0.01658435 0.009540639 -0.010234691 -0.0031377396 0.009968872 0.014690562 0.00069389044
-0.0013093147 0.00847527 0.0067035863 0.00016343365 0.0091038365 0.0122758085 -0.009674952 -0.0030080483
0.0107617695 -0.009399447 0.008354824 0.0019365967 -0.005423758 -0.00653908 0.0059196884 -0.010093068
-0.0040981886 0.002895867 -0.0024035166 -0.030411312 0.008599761 0.0006584 0.0068550296 -0.008357375
0.008316217 0.0034940764 0.0032864886 -0.010187769 0.017398253 -0.009801061 0.004524281 -0.0038823665
-0.0031607412 0.0016060437 -0.006733421 0.003157598 -0.009563294 -0.0083410125 0.010094022 0.00014282046
0.008370557 -0.00012175324 -0.007701616 0.00751199 -0.0038314909 0.009330674 0.013585106 -0.01187873
0.008613139 0.0041811634 0.0022951511 -0.0057360334 -0.014140971 0.0052211247 -0.009676631 0.010593349
0.008347194 -0.0073499847 0.021211632 -0.0048592603 -0.004546177 -0.0002323643 0.011435747 0.0017964967
0.010004927 -0.0020783192 0.0136770625 -0.003451874 0.0031431231 0.008096332 -0.0036167866 -0.00086046045
0.0070196106 -0.0085716685 0.0061261854 0.005026257 0.007955387 0.00025693257 0.0023993049 0.003106763

model/a_stream/W f4 [3, 256]
00000000: d3f1 b6bc 89d6 673c f370 79bd c6e5 0b3d
00000010: 1f09 b4bc dbf8 d1bc ba87 4f3d 8a1f 77bc
00000020: 363b 473d eace aabc 02e4 c73c 67a4 35bc
00000030: 73ff 9bbc 30c8 84bd 3e21 6fbc 25fc 70bb
00000040: 0db2 de3c a5d7 ddbc 2c31 ae3c ede0 18bc
00000050: e687 ba3c 50a7 d23b 142b c2bb 08b7 0b3d
00000060: 52cc 1d3d f9a4 85bd be92 c03c 40c4 35bd
00000070: 415a 993d bac1 fabc 729c 853c 9ff4 913c
00000080: cd71 21bd c460 b63c b362 aabc fa46 21bd
00000090: 387f bd3c 06aa 88bd 5bad 313b 6ace 8dbd
000000a0: f061 7dbc f1e3 633d 39e3 2c3d f2cd 17bc
000000b0: b8b5 743d ab2a 813c dad1 903c 956e 543d
000000c0: 4d0e 393d fc5e ebbc c450 103c 42dc 013d
000000d0: 14cc 143c ea21 523d 2498 1bbd a3be 053d
000000e0: 3a2e 2a3d 916e a13c 8004 943d fb31 b9bc
000000f0: 1305 0ebd 919a e03c 7403 adbc c0e1 0ebc
00000100: 21e7 a7bc a3ee ebbc 10f2 2f3c 0277 123a
00000110: 6800 0e3b b77f 9c3c 2082 743c ee93 0bbc
00000120: 04db 0d3d 96d7 2c3c 9285 68bd 3fc3 73bd
00000130: 242c c73c 3173 66bd 0ba5 6cbd a906 4a3d
00000140: 4566 033d 4816 8f3d 69fb 4abd 98da eabc
00000150: bf00 783d d885 ce3b 770e 513d c552 923c
00000160: cca3 bb3c 11d2 603c a945 843d 685a 30b9
00000170: 87e0 9ebb 5e46 8cbd 92fd bb3a ee50 1fbc
00000180: 6c72 353c f1d2 613d b138 b3bb 4810 94bb
00000190: 358a 65bc 8653 2ebd 25d4 eb3c 8b1e 663d
000001a0: dd5e 0bbd a760 f9bc ec32 5b3c 1e23 433d
000001b0: 9ae6 75bd ae94 ff3c a5c3 d5bc 4786 783d
000001c0: 56dc 4e3c 6b5a 653d 913b d43a 071a 483c
000001d0: 2e7f ae3c 5eff a13b ce68 8dbd 83cd 01bd
000001e0: 2032 f3bc aa0c 86bd 1f16 e4bc aa17 103c
000001f0: 4245 043d 195b d23b 37e7 44ba d4fc 003d
00000200: 1b02 78bd a291 b93c b972 8dbd 8821 0cbc
00000210: 4f94 bfbb 501c 01bc a90e 103d b97b 9a3b
00000220: 5784 d63b 4d00 7a3c 0208 1c3c 3b83 4fbb
00000230: 461a e8bb 3521 463c e345 34bd d299 843d
00000240: d380 d33c 0968 e1bc 2a3a a2bc f139 683c
00000250: fe8b 2d3d 2280 813c 95d7 3e3b 5577 dbbc
00000260: 99ca 85bd 59ee 873c 4db4 8e3c 230f 48bd
00000270: 5021 a03c 3bff f23c 9abc 363d 2a26 1abd
00000280: 5cc0 623d 7a1c dfbc 3eec e5bb fb94 103d
00000290: f4f3 b33c c3f6 943c f97a 473b e074 36bd
000002a0: 6536 9ebc 4af8 6f3d 3ac8 f63b a8d8 803c
000002b0: 3754 4c3d a76e 3bbc 794e 98bc 9d23 bbbc
000002c0: 2062 213d bc02 04bd e416 15bd b992 19bd
000002d0: 3b5d ebbc 9364 10bd 6b6a 483c bc96 8f3c
000002e0: ea06 64bb dac2 773c aeb5 4fbc 8229 4dbd
000002f0: db53 d03c 4c33 a2bb 2ff8 a1bc af72 88bb
00000300: fd69 253d 3aa7 553d 3f69 e33c d821 a0bd
00000310: 9b80 e2bc e6ed 6b3c 11c2 02bd 3812 b03b
00000320: 1e7b 93bd 462b 81bb 425f 0dbd 497c 233d
00000330: 5976 9c3d 54c0 9239 9b28 edbc 436c 033d
00000340: 60ca 093d 6981 97bc 5868 6e3d 2eec 74bd
00000350: 9b5c db3b c245 853b 2624 733d 6332 4dbc
00000360: 0134 a1bb 44bd 86bd 1cdc 0f3b c10b 83bc
00000370: 0b49 cf3c 34e6 6abc 5cf5 89bc 8253 a83d
00000380: 27ab 24bc ac73 34bd 8a56 c63b 09e1 b73c
00000390: 4905 993c 03ff 89bc 4abd 693c 1f45 2bbc
000003a0: 7dfd 0dbc bde9 5b3d 6169 953d 3dd3 dfbb
000003b0: 501c e03c 1f70 41bb af63 b0bc 57cd 263c
000003c0: 716a 50bc 1484 09bc 78e2 3cbd c859 f33c
000003d0: fe90 76bd d4a9 4dbc eff8 443d edef 443d
000003e0: 819b 8ebb 8bc7 d33b a18a 05bd 13b6 3f3d
000003f0: 1aa2 b2bc 8752 a73c 2920 5ebd c139 483d
-0.022332108 0.01415027 -0.060898732 0.034154676 -0.021977006 -0.025631359 0.05066655 -0.015083203
0.048640452 -0.020850617 0.024400715 -0.01108656 -0.019042706 -0.06483495 -0.014595328 -0.0036771384
0.02718451 -0.027080366 0.021263681 -0.00933097 0.02276988 0.0064286366 -0.0059255455 0.0341101
0.038524933 -0.06525607 0.023507472 -0.04437661 0.07487918 -0.030609954 0.01630995 0.01781684
-0.03941517 0.022262938 -0.020799017 -0.03937433 0.023131952 -0.066730544 0.0027111385 -0.06924136
-0.015465245 0.055637304 0.042208884 -0.00926541 0.059743613 0.015767416 0.01767819 0.05186327
0.045179654 -0.028731816 0.0088083185 0.031704195 0.009081859 0.051301874 -0.03798689 0.03265251
0.04154799 0.019706042 0.07227421 -0.02260684 -0.034672808 0.027417453 -0.02111981 -0.008720815
-0.020495953 -0.028800314 0.010738865 0.00055871916 0.0021667723 0.019103868 0.014923602 -0.008519156
0.034632698 0.010549447 -0.056768008 -0.059512373 0.02431304 -0.0562622 -0.057774585 0.049322758
0.032079954 0.06986672 -0.04955617 -0.028668687 0.060547587 0.0063025765 0.051039185 0.017861733
0.022905253 0.013721959 0.06458599 -0.00016818347 -0.004848543 -0.06849359 0.0014342538 -0.009723885
0.011074644 0.05513281 -0.0054694046 -0.0045185424 -0.014010002 -0.042560123 0.028787682 0.05618147
-0.034026016 -0.030441595 0.01337884 0.047640912 -0.060034372 0.031198826 -0.026094267 0.06067493
0.012625774 0.055994432 0.0016192069 0.012213237 0.021300878 0.004943772 -0.069047555 -0.031690132
-0.029686987 -0.06545384 -0.02784258 0.008794704 0.032292612 0.006419551 -0.00075112603 0.031491116
-0.060548883 0.022652451 -0.06906647 -0.008552916 -0.005846537 -0.007880285 0.03517023 0.004714456
0.006546538 0.015258861 0.009523394 -0.0031663913 -0.00708321 0.012092878 -0.04401196 0.064746514
0.025818264 -0.027515428 -0.019803125 0.014173971 0.042369835 0.015808169 0.0029120196 -0.0267903
-0.06532783 0.016593145 0.017419958 -0.04884256 0.019547135 0.029662719 0.04461346 -0.037634052
0.05535923 -0.027235258 -0.0070166877 0.03529833 0.021966912 0.018184071 0.0030438288 -0.044545054
-0.019313047 0.058586396 0.007531193 0.01572831 0.049885 -0.011439956 -0.018592106 -0.02284413
0.03940022 -0.03222917 -0.036398783 -0.03749344 -0.02873098 -0.035252165 0.012232403 0.01752793
-0.003479416 0.01512214 -0.012677593 -0.050088413 0.02543061 -0.0049499627 -0.019771663 -0.004164062
0.04038428 0.052161433 0.027760146 -0.07818955 -0.027649214 0.014399981 -0.031923357 0.0053732656
-0.07201217 -0.003941926 -0.034514673 0.03991345 0.076397605 0.00027990586 -0.028950026 0.03208567
0.033640265 -0.018494325 0.05820498 -0.05979555 0.006694389 0.0040671537 0.059360646 -0.01252422
-0.0049195294 -0.06579068 0.0021951264 -0.015996816 0.025303384 -0.014337111 -0.01684063 0.08219053
-0.0100505715 -0.044055626 0.0060527967 0.022446172 0.018679278 -0.016845232 0.014266321 -0.0104534915
-0.008666393 0.053689707 0.0729549 -0.0068306015 0.02735725 -0.0029516292 -0.021531908 0.010180793
-0.01272069 -0.008393306 -0.046114415 0.029705897 -0.06019687 -0.012552697 0.048088964 0.048080374
-0.0043520336 0.0064629964 -0.03260291 0.0468045 -0.021805812 0.020425094 -0.05422989 0.048883203

model/hidden/mid_rec_layer/upward/W f4 [80, 86]
00000000: 15ab ccba 7fb8 473c 3fe0 013c 3e02 7c3b
00000010: bebf 753c 1c69 07bc fc14 213b 0165 0c3c
00000020: 1389 83bc 0ad7 233c 263a 853c 0ad7 233c
00000030: a1e5 0a3b 0ae7 933d 0ad7 233c 1f17 5bbd
00000040: 0831 b33d 0ad7 233c 84f2 cebd d4d6 633d
00000050: 0ad7 233c a913 40bd f4f1 9c3d 0ad7 233c
00000060: 4580 9bbd f23f b7ba 0ad7 233c 0c25 28bd
00000070: f420 d13d 0ad7 233c 546a fdbc 08f6 563d
00000080: 0ad7 233c 8e2a e83b a837 bdbb 0ad7 233c
00000090: 8a97 89bc a428 d53c 0ad7 233c 3839 0ebd
000000a0: 7fc6 28bc 0ad7 233c c248 36bd ca63 d03c
000000b0: 0ad7 233c 4cb6 3e3b 7a67 c3bb 0178 a73d
000000c0: f6d8 b6bc 02e5 78bc 85d3 863c c26b 553d
000000d0: 6532 743c 781d 803d cd97 3fbc 5533 86bb
000000e0: 0ad7 233c c200 33bc f31c 193d 0ad7 233c
000000f0: 7009 4b3d a54a 553c 0452 83bc 6e05 373d
00000100: eaf3 85bd 6ed9 cf3d 1855 be3d 0b9f ddbb
00000110: cab6 d8bc 3e4a 303c b7e6 0bbd 0ad7 233c
00000120: 48af 52bd ff63 0e3c 0ad7 233c 5f9b 1f3c
00000130: 2115 2fbd b9f3 9f3d b1ac 833c 2732 46bd
00000140: 4a08 2fbd 388f b73c 2567 13bd 65b4 a8bc
00000150: 3b0f 823c a483 11bd c891 7bbc a7b5 1ebe
00000160: 4362 01be a469 febc bef3 7dbd 4376 67bd
00000170: 0367 a9bd 8455 84bd 2aed b6be 0ad7 233c
00000180: c547 98bd 0ad7 233c 547b b9bd 25a6 4dbd
00000190: 0ad7 233c 8b02 de3d 2d3c 3abd 0ad7 233c
000001a0: 2541 133e 3085 80bd 0ad7 233c a52e 9d3d
000001b0: 48bd b8bd 0ad7 233c e55a 3a3e a6c9 b0bc
000001c0: 0ad7 233c 0f3b 0e3d 2d13 27bd 0ad7 233c
000001d0: cae7 6c3b e6e1 f9bd 0ad7 233c 4016 b23c
000001e0: c6ec b2bd 0ad7 233c 262e 223d a804 febb
000001f0: 0ad7 233c 7ed0 8c3d 71bb eb3b 0ad7 233c
00000200: 8149 373d c5fd c0bd 0ad7 233c 122d 313d
00000210: 000c 19be 31e5 b4bd 4268 a53d 75d3 79be
00000220: 4d76 05be ba9b 08be 346a 27be 157f 91bd
00000230: 87e2 a23d c3f8 f7bb 0ad7 233c 06d6 013c
00000240: 55f3 f2bc 0ad7 233c 0328 6abd e3fd 483b
00000250: 7603 ba3a 4880 01be 4d21 66bd 98eb 04be
00000260: 17ef 4fbe 0046 5f3d f0b1 bc3c d9d0 ff3c
00000270: 064c 333d 0ad7 233c 365e ab3d 9fa1 293c
00000280: 0ad7 233c 47a6 72bd 13cd 873d 4698 07be
00000290: 265f 8cbd c0ba 823c 1795 f43c c1da 54be
000002a0: 03cc 233d d711 8abb 1287 10be 6a06 a73d
000002b0: 1432 d1bd c8b6 2bbe 5be6 2ebe 2511 19bd
000002c0: bee8 fdbd 06e4 69bd f4dc cdbd d336 04be
000002d0: 54b7 a4be 0ad7 233c 00b2 adbd 0ad7 233c
000002e0: 5594 98bd cb34 54bd 0ad7 233c 8ace 45bd
000002f0: c7d6 54bd 0ad7 233c 5e20 ba3d d5a4 4ebd
00000300: 0ad7 233c 8dca 443d a15d 87bd 0ad7 233c
00000310: f288 333e 6079 1ebd 0ad7 233c be3b e8bd
00000320: 6773 86bd 0ad7 233c 1110 00bd a2db f7bd
00000330: 0ad7 233c 2d9b 80bd 1e7c 14be 0ad7 233c
00000340: ac55 adbc caa1 dabc 0ad7 233c 0b24 0f3d
00000350: 511d d6bc 0ad7 233c fb20 df39 652a dfbd
00000360: 0ad7 233c 1940 c0bb 055f 00be 5738 c9bd
00000370: e1a8 493d fcdc 72be e4f1 12be 0e12 e2bd
00000380: aba9 f8bd 0d9b bcbd 273d 9b3d 54bf debc
00000390: 0ad7 233c e24b 0cbd bc95 45bd 0ad7 233c
000003a0: 866f 0abd 537e d6ba b88a dbbc 268a bcbd
000003b0: 505d c1bd 1b63 1fbe b1ee 32be 4878 3d3c
000003c0: c3a6 063c 8a89 4c3b 5cff 513b 0ad7 233c
000003d0: a50f 4e3d e2ac 10bd 0ad7 233c b6b7 dcbc
000003e0: 995b b83c f7d4 07be 2ffb a7bd 648a 94bd
000003f0: 5e09 4f3b f4a9 43be 7c69 b23c fdf1 ccbc
-0.0015614951 0.012189983 0.007927 0.0038453485 0.014999328 -0.008264806 0.0024579158 0.008569003
-0.016056573 0.01 0.016263079 0.01 0.0021193998 0.072218016 0.01 -0.053488847
0.08749586 0.01 -0.1010485 0.055624798 0.01 -0.04689375 0.076633364 0.01
-0.07592825 -0.0013980849 0.01 -0.041050956 0.102113634 0.01 -0.03093449 0.052480727
0.01 0.007085151 -0.005774457 0.01 -0.016795892 0.026020356 0.01 -0.034722537
-0.010301231 0.01 -0.04450298 0.025438208 0.01 0.0029100357 -0.005963263 0.08177186
-0.022320252 -0.0151913185 0.016458282 0.05210472 0.014904593 0.06255621 -0.011693907 -0.0040954747
0.01 -0.010925474 0.037381124 0.01 0.049569547 0.013018285 -0.016030319 0.044682913
-0.065406635 0.10148893 0.09293574 -0.006763344 -0.026454348 0.010759888 -0.034155574 0.01
-0.051436692 0.008690833 0.01 0.009741633 -0.04274476 0.07810158 0.016073557 -0.048387673
-0.042732514 0.02240716 -0.03598704 -0.020593831 0.015876403 -0.035525933 -0.015354581 -0.15498982
-0.1263514 -0.031056233 -0.06200003 -0.056509268 -0.08271601 -0.06461623 -0.35727817 0.01
-0.07435564 0.01 -0.09056726 -0.050207276 0.01 0.10840329 -0.045467544 0.01
0.1438032 -0.062754035 0.01 0.07674912 -0.090204775 0.01 0.18198736 -0.021580528
0.01 0.03472429 -0.04078977 0.01 0.00361489 -0.1220129 0.01 0.021739125
-0.08736567 0.01 0.03959479 -0.00775202 0.01 0.06875704 0.0071939756 0.01
0.044747833 -0.09423403 0.01 0.043255873 -0.14945984 -0.08832777 0.08076526 -0.2439707
-0.1303341 -0.13340655 -0.16349107 -0.07104317 0.07953363 -0.0075674965 0.01 0.007924562
-0.029657045 0.01 -0.057167064 0.0030668906 0.0014191705 -0.12646592 -0.0561841 -0.12980497
-0.2030605 0.054510117 0.023034066 0.031227516 0.043773673 0.01 0.08367579 0.010353475
0.01 -0.059240606 0.06630912 -0.13241681 -0.068540856 0.01595819 0.029856248 -0.20786573
0.039989483 -0.0042135525 -0.14114025 0.0815552 -0.1021463 -0.16768944 -0.17080061 -0.037369866
-0.12397908 -0.057102226 -0.10051909 -0.12911539 -0.32171118 0.01 -0.084812164 0.01
-0.07450167 -0.05180816 0.01 -0.048292674 -0.05196264 0.01 0.09088205 -0.050450165
0.01 0.04804473 -0.06609655 0.01 0.17532709 -0.03868997 0.01 -0.1133952
-0.0656498 0.01 -0.031265322 -0.121024385 0.01 -0.062795974 -0.14500472 0.01
-0.021159016 -0.026688475 0.01 0.034946483 -0.026137026 0.01 0.00042558447 -0.10896758
0.01 -0.005867016 -0.12536247 -0.09825199 0.04923332 -0.23717111 -0.14350086 -0.110386
-0.121417366 -0.09209261 0.07580023 -0.027190842 0.01 -0.034252055 -0.0482385 0.01
-0.033797763 -0.0016364552 -0.026799545 -0.09206037 -0.09441626 -0.1556515 -0.17473866 0.011564322
0.00821847 0.003120991 0.0032043075 0.01 0.05030789 -0.035321124 0.01 -0.026943069
0.022504615 -0.13264833 -0.08202206 -0.072529584 0.0031591277 -0.191078 0.021778814 -0.025017733

model/hidden/mid_layer/W f4 [256, 256]
00000000: c4bc 633c df70 1dba a6b8 693a 8954 25bc
00000010: af14 d3bb 26b5 81bc 133b 47bc d7ec 27bc
00000020: edbf cc3a d955 68bb 8200 30bc 75e4 6bbc
00000030: fb96 d5bc 61a7 79bc 83db 93bc 97fb adbc
00000040: c8bf b5bc 7a68 9cbc 98f2 b8bc 2995 f63b
00000050: 3646 13bd 2cd0 0dbb 7880 8bba a060 67bc
00000060: 4e53 0dbd 0c44 09bc bfd2 3c3c b03f 1b39
00000070: 7f47 c8bb 9009 86bb bb04 97bc 124d ef3b
00000080: 2dff 30bc 4cbc 07bb 4b78 e43b 00a2 f3bc
00000090: f7fe 0ebc 3893 26bb 50c3 94bb 5896 9ebc
000000a0: ab12 96bc ae62 abbc 1877 763a 327f 9ebc
000000b0: 1e63 183c cf47 28ba 7846 16bc fc6f 263c
000000c0: a33e 2a3c 01fe 903b 3600 47bc 1524 3c3b
000000d0: 786d 14bc 2b31 b7ba 4bd8 debb 6d80 dabc
000000e0: 01a2 103b 0d67 1abc dad4 8dbc f22e 473c
000000f0: 9278 69bc 5cb2 903b 2e27 40bc 5320 75bc
00000100: 0b74 0bbc c176 78bc 29db 1ebc 66e2 b23b
00000110: 84cb 0bbc 2595 fbbb c140 94bc 848f 37bc
00000120: 0954 2b3b b0bb 87bc 10b3 4abc 0caa edbc
00000130: 6c89 60bc d981 2dbb 170b b1bc 2f9a 37bc
00000140: 24ac 133b dec8 8bbb a2e2 dbba 6588 43bb
00000150: 28c7 2ebc 4a9d 6fba 8674 06bc ed22 97bb
00000160: fa0c 47bc d353 5fbc e20e c4bc ee99 25bb
00000170: 1100 853a e05a 8ebc cbc8 8cbc 5997 b13c
00000180: 496d 47bb 2b81 2ebd a16f 3bbc 5375 90bc
00000190: ece5 72bc 4e11 fabc d0f1 ebb8 b686 06bc
000001a0: 0242 88bc f956 39bd 91d8 b73c 53cf 0ebd
000001b0: e40c acbc f92f e9bc 6095 d93a 79bb 54bc
000001c0: ace9 c1bc 1fd5 37bc e7ff a33c e786 4cbc
000001d0: 8d16 b7bb 213d 92bc eb75 bfb9 718a 00bb
000001e0: 21eb 733b b96b 293b 8e38 1ebc a494 69bc
000001f0: 9517 2abc 5205 1ebd e584 41b8 334d 62ba
00000200: 8d16 4abc ff07 58bc 5c12 5abc ff65 e23b
00000210: 5072 dcbc a460 69bc 9d39 b3bc e781 96ba
00000220: 53b8 aebc a4d0 92bb 7b49 453b a8e5 11ba
00000230: d714 e73a 60df 1ebc 53fb 243c 43b9 e33b
00000240: 22ec 58bc 7677 64bc 3c6e 5cbc 0801 efba
00000250: 3fca 5fbb a8e5 e7ba b971 24bc d5e4 6cbb
00000260: d1a8 c4bb 677c d9bc 03cd a63c 218b 00bd
00000270: db2b d6bc 84ea 193c 9b33 28ba 0a9e 0dbc
00000280: f680 8a3a df57 7abc f37f 0e3c 8ac3 733c
00000290: 7280 c739 5c94 d2bb 3e0d 383c 566d a13c
000002a0: 34e2 13bc 14fd c3bc 21e3 a83c 6098 12bc
000002b0: eb92 603b 2e45 d939 b5bd 77bc 8948 073c
000002c0: 241f 3fbc 1143 a4ba 10db e339 bedf 04bd
000002d0: ff89 93bb 2ea0 b2bc be33 1abc 73c0 5dbc
000002e0: b27d afbb c859 a9bc e64c 01bc e000 94bc
000002f0: f167 10bd 5fe8 d2bc 838e c8bc b8a0 8f3b
00000300: 17ae 753c 5110 513b 313b 38ba 526e 34bc
00000310: 2867 1cbc f2f5 103c 2f23 21bd 80f9 873c
00000320: a83e cbbb 8013 d7bb 14e6 39bc eb6f 14bd
00000330: 4461 483c 25fd 143a 0086 a7bc fd62 4cbc
00000340: 0bf6 6cbb 39d7 1fbc bdaa 87bc d82d bcbc
00000350: 8e1c 96bc 8491 46bb 43c6 c9bc ac56 cdbc
00000360: 25b7 aabc ae98 46bc e9a2 04bc 3550 b5bc
00000370: 7058 bbbb 8028 3cbb d9a0 01bd 47bc baba
00000380: 2f7b f63b 2519 cabb 8001 8dbc 9a4a bc3a
00000390: f75e b63a 6bf4 1ebc 3445 86bb 22cd 71bb
000003a0: 6917 1bbb a60c 03bd 95cf 88bc 6133 b0bb
000003b0: 8020 a73a cc86 27bc abf1 ab3b de1b f3bc
000003c0: b206 50bc a389 71bc a059 bf3a 8d77 0fbd
000003d0: a7c1 7ebc 46d5 83bb 5db8 64bc 9bde 0bbd
000003e0: 0ac8 a1bc edb4 09bc 9288 28bb df0f 73bc
000003f0: 47db 6bbc 6138 fabb 4974 d5bc 4c02 073c
0.013899986 -0.0006005894 0.00089157594 -0.0100909555 -0.0064416747 -0.015833449 -0.0121600805 -0.010249338
0.0015621163 -0.003545156 -0.010742309 -0.01439773 -0.02607297 -0.01523766 -0.018049007 -0.021238131
-0.022186175 -0.019092787 -0.022576615 0.0075251055 -0.03595563 -0.0021638973 -0.0010643145 -0.014122158
-0.034503274 -0.00837804 0.011524855 0.00014805677 -0.0061120386 -0.0040904954 -0.018434873 0.0073028887
-0.010803026 -0.00207116 0.006972348 -0.029740334 -0.008727781 -0.002541734 -0.0045398846 -0.019358799
-0.018319448 -0.020921078 0.00094019016 -0.01934776 0.009300975 -0.0006419392 -0.0091720745 0.010158535
0.01039091 0.004424811 -0.012146046 0.002870803 -0.0090593025 -0.0013976445 -0.0068006865 -0.026672566
0.0022069218 -0.009423983 -0.01731341 0.012157189 -0.014249938 0.0044157933 -0.011728091 -0.01496132
-0.0085115535 -0.015165032 -0.009695807 0.0054591177 -0.008532409 -0.0076776915 -0.018097283 -0.01120365
0.0026142618 -0.016568989 -0.012371793 -0.029011749 -0.013704639 -0.00264751 -0.021611733 -0.011206194
0.0022533024 -0.0042658886 -0.0016775916 -0.0029835936 -0.0106676 -0.00091405644 -0.008206492 -0.004612318
-0.01214909 -0.013630825 -0.023932878 -0.0025268751 0.0010147115 -0.017377317 -0.01718559 0.021678613
-0.003043013 -0.042603653 -0.011440189 -0.01763407 -0.014825325 -0.03052583 -0.00011250714 -0.0082108285
-0.016633037 -0.04524896 0.022442134 -0.03486569 -0.02100224 -0.028465258 0.0016600303 -0.01298415
-0.023670994 -0.011220246 0.020019485 -0.012483335 -0.005587405 -0.017851414 -0.00036518215 -0.0019613768
0.0037219005 0.0025851561 -0.009657038 -0.01425663 -0.010381599 -0.038579293 -4.6138553e-05 -0.00086327194
-0.012334478 -0.0131855 -0.013310041 0.0069091315 -0.026909977 -0.014244232 -0.021878058 -0.0011482806
-0.021328127 -0.0044804383 0.0030103612 -0.00055655325 0.0017630112 -0.009696811 0.010069686 0.006949575
-0.013239892 -0.013944497 -0.013454016 -0.001823456 -0.0034147648 -0.0017692344 -0.010036879 -0.0036147137
-0.00600157 -0.026548577 0.02036143 -0.031382684 -0.026143959 0.009394292 -0.0006416381 -0.0086436365
0.0010566998 -0.015279739 0.008697498 0.014878163 0.00038051937 -0.006426377 0.011233626 0.019705456
-0.009026099 -0.023924388 0.020616116 -0.008947462 0.0034267257 0.00041441008 -0.015120913 0.00825704
-0.011665139 -0.0012532194 0.00043460028 -0.03243994 -0.0045025344 -0.021804895 -0.00941175 -0.013534653
-0.00535556 -0.020672694 -0.007891869 -0.018066823 -0.035255376 -0.025745569 -0.024482017 0.004383173
0.01499512 0.0031900594 -0.0007027863 -0.011012631 -0.009546079 0.0088477 -0.039340194 0.016598463
-0.0062025376 -0.006563604 -0.011346359 -0.036239546 0.012230221 0.00056834734 -0.020449638 -0.0124747725
-0.0036157395 -0.009755903 -0.016560907 -0.022971079 -0.018324163 -0.0030299136 -0.024630671 -0.025065742
-0.020839283 -0.012121363 -0.008095481 -0.022132972 -0.0057173297 -0.0028710663 -0.031647537 -0.0014246785
0.007522009 -0.0061675482 -0.01721263 0.0014365495 0.00139138 -0.0097018285 -0.004097605 -0.003689595
-0.0023665077 -0.031994484 -0.016700545 -0.0053772186 0.0012750775 -0.010225009 0.005247315 -0.029676374
-0.012696909 -0.014742288 0.0014598854 -0.035026122 -0.0155491 -0.004023227 -0.013959971 -0.03414784
-0.019748706 -0.0084049525 -0.0025716168 -0.014835327 -0.0143955415 -0.0076361154 -0.026056426 0.008240294

model/a_stream/b f4 [3]
00000000: 522f 863c cf9c 29bb 6a73 3bbb
0.016379986 -0.0025880819 -0.0028602728

model/hidden/mid_rec_layer/upward/b f4 [80]
00000000: 88e7 93bb 6adc c6bd 3260 5d3f 29fc c2bd
00000010: 1379 87bb 4a27 b5bd 11c1 5f3f cb25 b3bd
00000020: 6e26 87b9 4935 b5bd c5b5 653f e1ed b1bd
00000030: b8bb 8cbb db53 b9bd 50a4 5d3f 1e9e b6bd
00000040: 6c2f aabb 467d c5bd a854 5d3f 524f c2bd
00000050: 5581 67bb 9c55 a9bd a265 603f 76cf a7bd
00000060: af84 87bb e64c d9bd d1ab 5e3f 9926 d6bd
00000070: 2034 73ba 138b c2bd 8429 643f 3745 bfbd
00000080: 3c1f 1bbb 570c d4bd a1c4 613f 895c d1bd
00000090: b79f 8fbb 3db3 debd 50e3 5c3f 40ec d9bd
000000a0: c93a c1bb 5ae1 cfbd a0a8 5b3f 6515 ccbd
000000b0: b130 87bb 993f b8bd 1fe5 5f3f b9eb b5bd
000000c0: 15e1 c0bb b542 94bd eeaa 5d3f 3e63 93bd
000000d0: 2b2e a9bb 5624 a9bd cf7b 5e3f eb29 a8bd
000000e0: 5488 8bbb 788a a2bd 6931 603f a084 a1bd
000000f0: bcb3 58bb b90b a9bd 9615 623f 6899 a7bd
00000100: e232 8bbb 0add a8bd f875 623f 6bc6 a7bd
00000110: 80bd 9dbb 5f97 ccbd d0ae 5c3f 15bd c7bd
00000120: d526 b0bb ae8b b2bd b532 5c3f c4cf b0bd
00000130: ddc3 8bbb 5181 adbd 093c 613f 8f2e acbd
-0.0045136847 -0.097100094 0.8647491 -0.09520752 -0.004134306 -0.088453844 0.8740397 -0.08747443
-0.0002577784 -0.08848054 0.89730483 -0.0868795 -0.0042948388 -0.09049197 0.86578846 -0.08916877
-0.0051936414 -0.09643035 0.864573 -0.094877854 -0.003532489 -0.08268282 0.8765508 -0.08193867
-0.00413569 -0.1061037 0.8698092 -0.10456581 -0.00092774816 -0.094991826 0.8912585 -0.093393736
-0.002366974 -0.10353916 0.88190657 -0.10222728 -0.004383053 -0.10874031 0.8628435 -0.10640764
-0.0058969003 -0.10150404 0.85804176 -0.09965018 -0.0041256775 -0.08996505 0.87458986 -0.08882851
-0.005886207 -0.07239286 0.86588943 -0.07196663 -0.0051629744 -0.08258884 0.86907667 -0.0821112
-0.004258195 -0.07936567 0.87575394 -0.07886624 -0.0033066114 -0.08254189 0.8831419 -0.08183557
-0.004248009 -0.08245285 0.88461256 -0.08192142 -0.00481385 -0.09989809 0.8620424 -0.097528614
-0.005375723 -0.08718048 0.8601487 -0.08633378 -0.004265292 -0.08471931 0.8798223 -0.08407318

model/hidden/input_layer/W f4 [256, 86]
00000000: af72 0b3d b40c e0bc cc72 06bd c347 50bd
00000010: b0a9 5fbc d4b8 cd3c 0717 8bbc 7320 5f3c
00000020: c88f 1dbd 0fc3 ab38 b0ac 0dbe 5719 683c
00000030: a74e c4bd 5038 d0bd 6016 34bc 4fc3 5b3d
00000040: 5611 223d 9829 d9bb f9b6 d5bd d37a 02be
00000050: 8a46 a83b 6236 a53d 801a 183b 0cd0 41bc
00000060: 1d67 3ebc 1043 a9bc 32e2 a83b e10a e73c
00000070: ba46 dbbd 579c 9b3c f50d d5bc 9fb1 2fbd
00000080: 8d13 e13c c862 9ebd 1bf9 ebbc 56b8 32bb
00000090: 3a1d 00bd 26c5 ae3d 951a d83a 5d5a 96bd
000000a0: 858a c73c 57ef 26bc baca 6a3d 8d23 913d
000000b0: a89a fe3b 02eb bb3d df79 be3d 27b4 8cbd
000000c0: 0c68 0d3d ff59 1e3d 29a2 853d 146b 89bd
000000d0: 8bf5 91ba d5f9 98bd 70be dc3b f1fb 883d
000000e0: 8571 bcb9 96e4 0cbd 5c0a ecbd 8a97 9e3a
000000f0: 5aed 893b 1164 81bc 3a85 debc 8fcb f8bc
00000100: b8ec af3b 5e08 29bd 8203 0fbd 3abc a0bd
00000110: 7179 28bc 9271 f2bd fef1 67bd d095 29bc
00000120: 529f 693c cfbb 5abd 3fb6 dc3b 43e6 693b
00000130: 31bb e8bd 0f77 51bd d7a8 99b9 17f1 2ebc
00000140: 936f 44bc 78c2 9e3c e2d3 74bd b34c e63c
00000150: 45ed 3fbd 0421 653c f227 a8bc 14c2 9bbc
00000160: 0144 59bb c9f7 9fbc 2183 a3bc cb85 5ebc
00000170: 979d afbc b537 18bd 3494 15bc 3b4d 65bb
00000180: c5d2 00bd 02ac d03b 0024 4abc c58c 69bc
00000190: 8e37 4cbc dd18 65bb 3c56 a0bc f3ff 0c3c
000001a0: c57e cdbb 2669 883c a494 deba 1ff7 ebbb
000001b0: 91ad 9fbc 1c8a 873b 98e4 06bc 03c5 29bd
000001c0: 3e74 aabb b48e 70bb 246e 7e3c 7f86 c1bb
000001d0: b5fe 8fbc b0b7 cebb 0ee4 f0bb 5150 cdbb
000001e0: 480c d7bc 96f8 cabb 6275 58bc eb4b 093c
000001f0: 4132 ed3b 0231 673b c61d bfbc 1b6d b2bb
00000200: 1f63 643b a059 a9bc 2125 673b f958 45bc
00000210: 407d 98bc 7e8a edbc ed4b f73b 73d8 cbbc
00000220: 9749 a9bc 5884 893c 3359 bdbb da70 ccbb
00000230: ac4d 44bc 1818 c8bc 659b 823c 00d1 3f3c
00000240: d62c c2bc 1455 723c 2c32 fc3b b81a 563c
00000250: bca2 97bc 1ca8 e73b 8666 92bc 47fb 0d3c
00000260: 443c 223c 0c48 053b fe55 5fbc 8c02 7fbc
00000270: c5c5 febb e86a 8abb 966b 0dbc 3171 aabc
00000280: aa40 3d3b 68fc 9ebc c976 603a e181 3b3c
00000290: 6cb0 d8bc 6885 e5bc 0591 e6bc 9b62 2e3c
000002a0: c2e2 87bc 76b2 f4bc 7bb0 83bc 27e0 f7bc
000002b0: b430 0dbd b7f0 70bc bc60 65bc 4ded 5e3c
000002c0: dca8 183c 3ade e1bc e4c9 6ebd 7fa4 2abc
000002d0: aef8 b2bd 96e3 123b d151 143c 58dd 52bc
000002e0: 1adb 8e3c 08db 023d 0999 1a3c 3e39 79bd
000002f0: f7d1 803d b00b aa3c 2fa1 87bd 2334 23bd
00000300: e2d9 d3ba a42b 2ebd 28df bd3c cc3c 26bc
00000310: 7db6 63bc 3e38 dbbd f40c f1ba 112c 813d
00000320: cd07 88bd 0aba 94bc f14d a2bd 0f90 e2bb
00000330: 9a20 513b d6a5 863d fc2b 13bd 2e48 1c3c
00000340: acf1 c2bd 344f 6dbb 09d2 823c f9ff 97bd
00000350: ecda 42bc 3312 d2b9 0666 40bd 90d9 3ebc
00000360: 98fb a4bb 1eec c4bc 0008 05bd ef50 29bd
00000370: 4639 443c cf68 d4bd 3805 a7bc b5f9 63bd
00000380: d898 fd3c 651f 9f3b 521a 7ebd 76a3 eebd
00000390: 2f11 39bb 6923 013d 6de9 aebd fea7 3d3c
000003a0: 66b7 c83d 1369 00bd 4327 84bc 5ad0 183d
000003b0: 7224 82bd 9a20 28bd f9fc a5bd 7c8e 8dbc
000003c0: 1956 75bd 33cb d63b 048d ecbb 5f69 173c
000003d0: de10 9b3d 5d27 5f3c 42df e4bb e1f9 e43c
000003e0: d030 073d 44e4 79bc bf4e 19bb edaa bb3c
000003f0: 742f 6b3d 1bd9 61bd 5b76 e1bc 7e5f 63bd
0.034044918 -0.027349807 -0.032824323 -0.050849687 -0.0136512965 0.025112547 -0.016978754 0.013618576
-0.0384672 8.190248e-05 -0.13835406 0.014166198 -0.09585314 -0.10166991 -0.010991663 0.053653058
0.039567314 -0.006627273 -0.1043529 -0.12742166 0.005135362 0.08067013 0.0023209155 -0.011829387
-0.011621264 -0.02066186 0.0051539177 0.02820343 -0.107068494 0.018995447 -0.026007632 -0.042894002
0.027475143 -0.07733685 -0.028805306 -0.0027270517 -0.031277873 0.08533697 0.0016487414 -0.07341454
0.024358043 -0.010188899 0.05732224 0.07086859 0.0077699013 0.091756836 0.09300589 -0.06870299
0.034523055 0.038660046 0.0652507 -0.06709877 -0.00111358 -0.07469527 0.006736569 0.06688679
-0.00035942733 -0.034397684 -0.115254134 0.0012099606 0.0042092027 -0.015794786 -0.027163137 -0.030370502
0.0053687952 -0.041267745 -0.034915455 -0.07848401 -0.01028286 -0.11838068 -0.056627266 -0.0103506595
0.014259176 -0.053401764 0.0067355926 0.0035690225 -0.11363829 -0.051138934 -0.0002930823 -0.0106775975
-0.011989492 0.01937984 -0.05977238 0.028112745 -0.046857137 0.013984922 -0.02052686 -0.019013442
-0.0033152106 -0.019527333 -0.019959988 -0.013581703 -0.02143745 -0.0371625 -0.009129573 -0.003498866
-0.031451005 0.006368161 -0.012337685 -0.0142547535 -0.012464417 -0.0034957447 -0.01957237 0.008605945
-0.0062712156 0.016651701 -0.0016981554 -0.00720109 -0.019491943 0.004136337 -0.008233212 -0.04144765
-0.0052018454 -0.0036706151 0.015529189 -0.0059059258 -0.017577508 -0.0063085184 -0.007351405 -0.006265678
-0.026250973 -0.0061941845 -0.01321158 0.008379917 0.0072386567 0.0035277014 -0.023329627 -0.0054451353
0.003484912 -0.02067262 0.0035269933 -0.0120451385 -0.018614411 -0.028996702 0.007546893 -0.024883484
-0.020664973 0.01678674 -0.0057784556 -0.006239039 -0.011981409 -0.024425551 0.015943239 0.011707544
-0.02370302 0.014790792 0.0076964106 0.013067894 -0.018510215 0.0070696007 -0.017871153 0.008665866
0.009902064 0.0020337133 -0.013631342 -0.015564572 -0.007775041 -0.00422417 -0.0086316075 -0.020805927
0.0028877654 -0.019407466 0.0008562622 0.01144454 -0.026451312 -0.028017715 -0.028145323 0.010643627
-0.016587619 -0.029870253 -0.016075363 -0.030258251 -0.034470275 -0.014705828 -0.014000114 0.013606382
0.009317603 -0.027571786 -0.058298007 -0.0104151955 -0.08738838 0.0022413484 0.00905271 -0.012870155
0.01743846 0.031947166 0.0094359005 -0.060845606 0.062900476 0.020757526 -0.0662254 -0.039844643
-0.0016162957 -0.042522088 0.023177698 -0.010146331 -0.013898489 -0.10704087 -0.0018390701 0.06307233
-0.06642113 -0.018155117 -0.079250224 -0.006914146 0.0031910301 0.065745994 -0.03593062 0.009538693
-0.095187515 -0.0036210539 0.015969293 -0.0742187 -0.011893015 -0.0004006788 -0.046972297 -0.011648551
-0.005034875 -0.02403837 -0.032478333 -0.04133695 0.011976546 -0.10371553 -0.02038823 -0.05565806
0.03095667 0.0048560374 -0.06203682 -0.116522714 -0.0028239002 0.03152791 -0.08540616 0.011575697
0.098006055 -0.031350207 -0.016132003 0.037308075 -0.06354608 -0.041046716 -0.08104891 -0.017279856
-0.059896562 0.006554985 -0.007218959 0.009241431 0.075715765 0.013620225 -0.006984622 0.027951183
0.033005536 -0.015252177 -0.0023392884 0.022908652 0.0574183 -0.05513869 -0.027522257 -0.05551099

model/v_stream/W f4 [1, 256]
00000000: 9b52 23bd 83d7 4f3d cf45 213d 7644 d73c
00000010: e62f 9abc 1cad 5fbd e403 b2bc 101c 4abd
00000020: 416e dc3b d25d 43bc 5e3d fd3c 22a1 ee3b
00000030: 444b 0dbd d104 123d f0bd 20bd 02e6 5cbd
00000040: 48a8 e0bb 4844 5c3d b709 183d 5509 6abd
00000050: 1768 4b3c 1f87 643d 1503 aebc 0c3d 40bc
00000060: 8e5d 74bd 57c4 143d 0709 343d d469 653d
00000070: 24a3 14bd bca8 08bd 1342 303d c653 863c
00000080: ee06 603d e7f2 7e3c 781c 3ebd e76b 9b3c
00000090: 35f3 653d 7d92 b23c 8456 36bd 38c0 c43c
000000a0: 1b05 60bd 436e 89bb c412 2fbd c815 32bd
000000b0: 0596 f73b 1837 5e3d 7331 323d 80d3 06bd
000000c0: 723f b83c c337 e0bc b4f4 6d3d 2b68 b03c
000000d0: 68c0 f03c 9baa 03bd 213e ff3c 19ab 18bc
000000e0: b1eb df3c 818d c43c 6892 d3bc ae48 c13c
000000f0: 8390 993c c154 12bd 90d7 cfbc 9661 643d
00000100: 5b6c 55bd f41d 2fbd a1e8 4c3d 03a2 663d
00000110: 6743 4b3d b0dc f63c 638b 493d 03f1 5dbd
00000120: 07b1 b53c f857 273d 5702 133d 06e2 163d
00000130: 312c 263d a4d9 313c d65b 263d d707 a6bc
00000140: 4d99 45bd 34f3 f0bc 7a4b 0b3d 5cd7 f7bc
00000150: 282b d9bc 39a9 373d c621 18bd be64 5ebd
00000160: a821 9e3c a487 403d 9d9a ae39 ab24 89bd
00000170: 59c9 62bd e52e eb3c 1f7f 2c3d b945 33bd
00000180: 8717 7c3d 0fa0 f3bb 839f 81bd ac54 2c3d
00000190: c072 96bc f1d5 e23c 3ba4 193d ac11 7ebc
000001a0: 820d 403d 6739 1cbd 1b33 513d 4677 f2bc
000001b0: cb16 843b 6b85 bcbb dd0d 23bd dccc 69bc
000001c0: 48a9 243d a13e a1bc 8c80 713d 3d7f 733d
000001d0: d1bf 3c3d d64f 303d 58a4 653c 0506 64bc
000001e0: 9cf5 363d 8fce 023d fb43 31bd e511 d3bc
000001f0: 94bf 073d dae5 6abd eada 66bd 2332 12bd
00000200: baf4 213d a42f 273d f0e6 da3c 3588 513d
00000210: 8a7c 48bd 8090 2c3d 4549 c53c da2e 653d
00000220: 6790 7a3d f8a5 68bd ad78 65bd 65de 1cbd
00000230: f43a 49bd 6195 7d3d 3dee 6a39 85c5 6cbc
00000240: 035d 7e3c 20b4 24bd 879c 4dbd bb90 4f3d
00000250: c67d ffbc e363 213d 92e0 633d 0662 d63a
00000260: b586 033d 8334 6d3d 8602 35bd f7f0 35ba
00000270: a8b8 613d f276 5dbd 10ba 3dbd c8c7 e4bc
00000280: f885 1cbd 6719 60bd c85d 4e3d 8fb0 febb
00000290: b07f 5a3d b59e 023d 472f fc3c 9b80 d43c
000002a0: c869 bebc 663b 8d3b 1b5c 81bd 0e34 973c
000002b0: 7684 3dbb 3e23 4cbd 24a2 9fbc a284 6ebc
000002c0: f83d 5abd 8503 943c 46c5 393d d142 2c3c
000002d0: 221a 11bd 2ef6 13bc e886 453d 9af4 2c3d
000002e0: 772f 3ebd dbce b43c dcda d7bc 0a16 293d
000002f0: 4cee 303d c2e0 723d b973 47bd c229 ff3c
00000300: 81be 5bbd aeda cbbc 5ec7 53bd 666a 0cbd
00000310: 8f57 2ebd 79e4 1e3d 3b3b 20bd 45b4 783d
00000320: 63f5 c13c 709d 39bd 4fef d1bc 29fe f23c
00000330: c8aa 8e3c 72dc 633d 1aee 2fbd 84d7 0cbd
00000340: e0d9 dd3c 88d9 2a3d d547 2dbd 2acc ae3c
00000350: de91 5b3d 3249 653d d4e0 ecbb 9bbe 29bd
00000360: a06f 67bd 17d4 e03c 8242 593d cfcf 26bd
00000370: 66ed 59bd 9548 51bd a617 10bd 3a50 cdbc
00000380: 9e27 74bd dd25 5a3d f3db 3cbd 5cb6 393d
00000390: 4a11 d13c f8b7 38bd 2691 493d 005b 4dbd
000003a0: 1e9c 4dbd 87b1 6ebc cdc2 7d3c 435b 383d
000003b0: 84f4 283d cb72 133d 7355 29bd b1e6 2cbd
000003c0: 11f5 53bd 63c9 483d 430b 433b 3c53 3c3d
000003d0: 952b 013d e7a0 75bd ad13 48bd bfad 4bbd
000003e0: 3598 623b 2d76 5c3d 7df6 2bbd 5aa4 99bc
000003f0: 2124 453d 3bfe 50bd 7a1a 203d 7335 b8bc
-0.0398737 0.050742637 0.039373215 0.026277762 -0.018821668 -0.05460845 -0.02173037 -0.04934317
0.0067270105 -0.011924224 0.030913051 0.007282392 -0.034495607 0.035649125 -0.03924364 -0.05393029
-0.006855998 0.053776056 0.03711864 -0.057137806 0.012414954 0.055792924 -0.021241704 -0.011733305
-0.059659533 0.036320057 0.04395392 0.05600913 -0.036288396 -0.033364043 0.043031763 0.016397368
0.05469411 0.015560842 -0.04641387 0.01897235 0.056140143 0.021798367 -0.0445161 0.024017438
-0.05469237 -0.0041940524 -0.042742506 -0.043477803 0.0075557255 0.05425176 0.04350419 -0.032916546
0.02249119 -0.02737034 0.058094695 0.021534046 0.029388621 -0.032145124 0.031157555 -0.009318137
0.027334066 0.023993256 -0.025826648 0.023594227 0.018745666 -0.03572536 -0.025371343 0.055757128
-0.05210529 -0.042753175 0.05002654 0.05630685 0.049624827 0.030134529 0.049205195 -0.054184925
0.02217914 0.040855378 0.035890903 0.036836646 0.040569488 0.010855112 0.040614925 -0.02026741
-0.048241902 -0.029412843 0.034007527 -0.030254059 -0.026509836 0.044839118 -0.037141584 -0.054295294
0.019303158 0.047004357 0.00033303062 -0.06696447 -0.0553678 0.028708884 0.04211342 -0.043767665
0.061545875 -0.007434852 -0.063292526 0.042072937 -0.018365264 0.027689906 0.037510138 -0.015507143
0.046887882 -0.03814068 0.05107413 -0.02959789 0.0040310374 -0.0057532093 -0.039808143 -0.014270034
0.0402005 -0.019683184 0.058960482 0.059447516 0.046081368 0.043044887 0.014016233 -0.013917451
0.044667825 0.03193527 -0.04327772 -0.025765369 0.033141688 -0.05734811 -0.056361116 -0.035692345
0.03954003 0.040816918 0.026721448 0.051155288 -0.048946895 0.042129993 0.02408279 0.055952884
0.06117287 -0.056798905 -0.05602329 -0.03829803 -0.049128488 0.061910037 0.0002240473 -0.014451389
0.015525105 -0.040210843 -0.050198104 0.050675135 -0.031187903 0.0394019 0.05563409 0.0016356118
0.03211089 0.057911407 -0.04419186 -0.00069405086 0.055107743 -0.054068513 -0.04632002 -0.027927294
-0.0382137 -0.054711726 0.050382406 -0.0077725123 0.05334443 0.031889636 0.030784262 0.02594023
-0.0232438 0.0043100594 -0.06316396 0.018457439 -0.0028918064 -0.049838297 -0.019486494 -0.014557989
-0.053281754 0.018068084 0.04535415 0.010513977 -0.035425313 -0.009030862 0.04822436 0.042225458
-0.046431985 0.022071293 -0.026349477 0.041280784 0.043196008 0.059296377 -0.048694346 0.031147841
-0.053648476 -0.024884548 -0.051703803 -0.034281157 -0.04256397 0.038792107 -0.039118987 0.060718793
0.02367658 -0.04531616 -0.025626807 0.029662209 0.01741542 0.055630155 -0.04295168 -0.03438522
0.02708143 0.04171136 -0.042304832 0.021337587 0.053605907 0.055978008 -0.00722895 -0.04144154
-0.05650294 0.027444882 0.053041942 -0.040725525 -0.053204916 -0.05109461 -0.035178803 -0.025062669
-0.059608094 0.053258765 -0.046108197 0.045339927 0.02552094 -0.04509732 0.04921069 -0.050135612
-0.050197713 -0.014568693 0.015488339 0.04500891 0.041248813 0.035998147 -0.041341256 -0.042212192
-0.051747385 0.049020182 0.0029761351 0.045977816 0.031535704 -0.0599679 -0.04884689 -0.049726244
0.0034575586 0.05382364 -0.041983116 -0.018755127 0.04813016 -0.051023703 0.03908775 -0.022486424
