ai_challenge/results/simulation_DoubleDQN_DuelingRecNN_2017-05-19T19:40:53.24/120003/target_model.npz (npz, 631041 bytes, 12 tensors)

model/hidden/input_layer/b f4 [256]
0	0xbcc4005d	-0.023925954
1	0xbce55f5d	-0.027999574
2	0xbcce5c4d	-0.025190497
3	0xbc402a65	-0.011728858
4	0x3978459d	0.00023677056
5	0xbcbf609b	-0.023361495
6	0xbd23789b	-0.03990994
7	0xbd601379	-0.05470607
8	0xbc824873	-0.015903687
9	0xbcbf38bc	-0.023342483
10	0x3c912984	0.017719992
11	0xbcbeca21	-0.023289742
12	0xbc647b65	-0.013945435
13	0xbceb355b	-0.028711965
14	0xbd18f84e	-0.037346177
15	0xbbe5fd27	-0.0070187035
16	0xbd0339bc	-0.03203748
17	0xbd3dc27c	-0.046328053
18	0xbc2d5dfa	-0.010581488
19	0xbd06308a	-0.032761134
20	0xbcd0c3ba	-0.025483955
21	0xbbae2d1b	-0.0053154356
22	0x3c74c547	0.014939613
23	0xbc46ee0f	-0.0121417185
24	0xbd1efcc8	-0.03881529
25	0xbcdecd28	-0.027197435
26	0xbce75ef5	-0.028243521
27	0xbc43132f	-0.011906429
28	0xbccf21ec	-0.02528473
29	0xbc93b849	-0.01803221
30	0xbd322a7a	-0.04349754
31	0xbba27d53	-0.0049587875
32	0xbb201c14	-0.0024430798
33	0xbd00f0a1	-0.03147948
34	0x3c57e76a	0.013177732
35	0xbca53cc9	-0.020170586
36	0xbd853083	-0.065033935
37	0xbcb88eee	-0.022529092
38	0xbd1769d5	-0.036966164
39	0xbc2a519a	-0.010395432
40	0xbbf0e957	-0.007352035
41	0xbd0f574a	-0.034995355
42	0x3c94981d	0.01813894
43	0xbd06bd61	-0.03289545
44	0xbd1cb07a	-0.03825424
45	0xbc91fe91	-0.017821582
46	0xbced03f7	-0.028932555
47	0xbcddbab9	-0.027066575
48	0xbc9410c7	-0.018074406
49	0xbd21a720	-0.039466023
50	0xbca7a623	-0.020464962
51	0xbcb90dff	-0.022589682
52	0xbbcb258b	-0.006199544
53	0xbc9fa89b	-0.019489577
54	0xbca87b9f	-0.02056676
55	0xbcd624ee	-0.026140656
56	0xbcbf6ee7	-0.023368312
57	0xbce77c0d	-0.028257394
58	0xbc85db57	-0.016339941
59	0xbc5563f8	-0.013024323
60	0xbcd3cb4c	-0.025853775
61	0xbc4b36e5	-0.012403225
62	0xbccd53f6	-0.02506445
63	0xbc49c57c	-0.01231515
64	0xbb1912da	-0.0023357184
65	0xbcff6e5c	-0.031180553
66	0xbcf2b1bb	-0.029625764
67	0xbcd55cbf	-0.026045201
68	0xbca35499	-0.0199378
69	0xbd2af1e7	-0.041734602
70	0xbd28f960	-0.041253448
71	0xbd7ef45c	-0.062244758
72	0xbc206d40	-0.009791672
73	0xbcf72b70	-0.03017208
74	0xbd31a516	-0.04337033
75	0xbce09539	-0.027414905
76	0xbc43afe5	-0.011943792
77	0xbd04c27f	-0.03241205
78	0xbc6fd078	-0.014637105
79	0xbd1e98da	-0.03871999
80	0xbd898a05	-0.06715778
81	0xbcdb27fd	-0.026752466
82	0xbcf8240b	-0.030290624
83	0xbd31853a	-0.043339945
84	0xbce261e9	-0.027634578
85	0xbcefda09	-0.029278772
86	0xbd13d3dc	-0.036090717
87	0xbd2372d1	-0.03990442
88	0xbcb3d1c2	-0.021950606
89	0xbd3f1a30	-0.046655834
90	0x3c941d04	0.018080242
91	0x3bd2ea33	0.00643661
92	0xbd15497d	-0.036447037
93	0xbd14491d	-0.03620254
94	0xbc6aac9b	-0.014323379
95	0xbbfdcfbe	-0.007745712
96	0xbbdc0ba7	-0.0067152563
97	0x3bac7c3f	0.0052638347
98	0x3c94dec3	0.018172627
99	0x3c41d74c	0.011831116
100	0xbcb79bcb	-0.022413155
101	0xbceb5661	-0.028727712
102	0x3c27a398	0.010231875
103	0xbc16c156	-0.009201368
104	0x3bfad42a	0.0076546865
105	0xbbeade1d	-0.0071675912
106	0xbcd271ac	-0.025688969
107	0xbd1b6f32	-0.03794784
108	0xbcdc0ada	-0.026860643
109	0xbd72fab6	-0.059321128
110	0xbd6205cd	-0.055181313
111	0xbd0b9748	-0.03407982
112	0xbc913f1a	-0.017730284
113	0xbc81f92b	-0.015865883
114	0xbd1ce41e	-0.038303487
115	0xbc0ce38e	-0.008599175
116	0xbd1afbbe	-0.037837736
117	0xbd35b400	-0.044361115
118	0xbd69b5aa	-0.057058014
119	0xbcf522c8	-0.029923812
120	0xbd4abce5	-0.04949655
121	0xb68021c0	-3.8186263e-06
122	0xbd30febe	-0.04321169
123	0xbd77876c	-0.060431883
124	0xbd2a965e	-0.041647308
125	0xbc46e492	-0.012139456
126	0xbd3b9dfb	-0.04580496
127	0x3b51eca5	0.003203192
128	0xb986a5e7	-0.0002568208
129	0xbd4bd9e1	-0.049768332
130	0xbd145d0c	-0.03622155
131	0xbc8b12d2	-0.016976748
132	0xbbfe760d	-0.0077655376
133	0xbcd8910a	-0.026436348
134	0xbb9add8b	-0.004726117
135	0xbd3dab5c	-0.046306
136	0xbc8cb4dc	-0.017176084
137	0xbcdf0064	-0.027221866
138	0xbd00cdec	-0.031446382
139	0x3bedf03c	0.007261304
140	0xbcf6bdc4	-0.030119784
141	0xbcc0b5c2	-0.023524169
142	0xbcec1655	-0.028819242
143	0x38f0a903	0.00011475573
144	0xbc4e2cb2	-0.012583898
145	0xbb8dd5ba	-0.0043284567
146	0xbd3129af	-0.043252643
147	0xbd527743	-0.051383268
148	0xbd499241	-0.049211744
149	0xbd1a2d8b	-0.03764109
150	0xbc3c832a	-0.011505881
151	0xbd095ecf	-0.033537682
152	0xbd242400	-0.040073395
153	0xbcb03ec2	-0.0215143
154	0xbd189c2f	-0.037258323
155	0xbc2a1e02	-0.010383131
156	0xbd6e0a5d	-0.058115352
157	0xbc1eff60	-0.009704441
158	0xbbef38ea	-0.007300486
159	0xbcc0b007	-0.023521436
160	0xbbe8bf81	-0.007102907
161	0xbd3a7282	-0.04551936
162	0x3b75d5e4	0.0037511522
163	0xbc81746c	-0.015802585
164	0xbd37f393	-0.044910025
165	0xbbb580ca	-0.0055390345
166	0xbd3bb99e	-0.045831315
167	0xba1aa35f	-0.0005898978
168	0xbca06830	-0.01958093
169	0xbc857c8c	-0.01629474
170	0x3aae3807	0.0013291844
171	0x3bd32e7f	0.0064447518
172	0xbc509a37	-0.01273208
173	0xbcbf73c1	-0.023370625
174	0xbb70faf1	-0.0036770666
175	0xbb7a5f9e	-0.0038203965
176	0xbc1e7cf8	-0.00967335
177	0xbd088eda	-0.03333936
178	0xbcbf5b3e	-0.023358937
179	0xbcdea425	-0.02717788
180	0xbcedc0f0	-0.029022664
181	0xba8dcab8	-0.0010817861
182	0x3b2f04d1	0.0026705752
183	0xbcdda27f	-0.027055023
184	0xbbdb62b6	-0.006695117
185	0xbce20276	-0.027589064
186	0xbcfa7fb0	-0.030578464
187	0xbd9a1a45	-0.07524542
188	0xbce009ea	-0.027348477
189	0xbc81a891	-0.015827449
190	0xbcf880dd	-0.030334884
191	0xbd4c5db3	-0.049894046
192	0xbd1cbcf4	-0.038266137
193	0xbd0de0b2	-0.034638114
194	0xbc965df5	-0.01835535
195	0xbd3beb25	-0.04587855
196	0xbca291ab	-0.01984485
197	0xbcd6778a	-0.026180048
198	0xbd26f238	-0.04075834
199	0x3b71f218	0.003691798
200	0xbc71b908	-0.014753588
201	0xbc66bc97	-0.014083049
202	0xbccdfde5	-0.02514548
203	0xbd57c83c	-0.052681193
204	0xbd04b422	-0.03239835
205	0xba32e447	-0.0006824177
206	0xbcb4442c	-0.022005163
207	0xbd072894	-0.032997683
208	0xbca50ee3	-0.0201487
209	0xbc1612ca	-0.009159753
210	0xbd0d34d5	-0.034474213
211	0xbcd97b22	-0.026547972
212	0xbd0afb8c	-0.0339313
213	0xbcca4efb	-0.024695864
214	0xbd6748e0	-0.056465983
215	0xbd5da8ae	-0.054115944
216	0xbcd81a04	-0.026379593
217	0xbcfa0d30	-0.030523866
218	0xbd3d05fe	-0.046148293
219	0xbcaa1442	-0.020761613
220	0xbca01560	-0.019541442
221	0x3bca5d26	0.006175655
222	0xbd1dc971	-0.038522188
223	0xbc87fbaf	-0.016599504
224	0xbcb47960	-0.022030532
225	0x3cbb3b8e	0.022855546
226	0xbd02f102	-0.031968124
227	0xbd2240d1	-0.039612595
228	0xbcb30806	-0.021854412
229	0xbcb68296	-0.022279065
230	0xbd2d4a9c	-0.04230748
231	0xbce88fb5	-0.028388837
232	0xbd4ef32c	-0.050524876
233	0x3c2040f0	0.009781107
234	0xbc9f00e0	-0.019409597
235	0xbbe4c678	-0.006981667
236	0xbd3d3b7b	-0.046199303
237	0xbbeb76ae	-0.0071857786
238	0xbca3d2a6	-0.019997906
239	0xbd05d9ca	-0.032678403
240	0xbcb30f13	-0.021857774
241	0xbc34ddb5	-0.011039187
242	0xbc8394c4	-0.016062148
243	0xbd27b31c	-0.040942296
244	0xbc9c9431	-0.019113632
245	0xbc8d5d09	-0.017256277
246	0xbd067364	-0.03282489
247	0xbd37a8de	-0.04483878
248	0xbd0c40cf	-0.034241494
249	0xbd0bd10b	-0.034134906
250	0xbc939e23	-0.018019741
251	0xbbe183dc	-0.006882174
252	0x3c54b2af	0.012982055
253	0xbd318ef1	-0.04334921
254	0xbd61e8cc	-0.055153653
255	0xbced6b1e	-0.028981742

model/hidden/output_layer/b f4 [256]
0	0x3c34c0a5	0.011032258
1	0xbbd61b6c	-0.0065340307
2	0x3c25cbcf	0.010119393
3	0xbc0d86c1	-0.008638085
4	0x3ab0864d	0.0013467759
5	0x3b9a8467	0.0047154906
6	0x3bb5b16b	0.0055448315
7	0x3bfbc737	0.0076836604
8	0xbc2e3abc	-0.010634121
9	0x3c35755c	0.011075344
10	0xbc57cc57	-0.013171277
11	0x3bed7f21	0.007247821
12	0x3b6837e1	0.0035433697
13	0x3b524b64	0.0032088393
14	0x3c186d39	0.009303384
15	0x3c02a5f5	0.007974138
16	0xbc2d7713	-0.010587472
17	0x3b53a3cb	0.0032293673
18	0xbbfc573d	-0.0077008293
19	0x3c0f0061	0.008728118
20	0xbc302f8e	-0.010753525
21	0xbc18f546	-0.0093358215
22	0x3b0ede2f	0.0021799912
23	0xbb82df48	-0.0039939024
24	0xbc525f7f	-0.012840151
25	0x3c62203f	0.013801633
26	0xbbf42367	-0.0074505094
27	0x3b541425	0.003236064
28	0xbc1d21e1	-0.009590597
29	0x3c54d431	0.0129900435
30	0xbc39dd29	-0.011344233
31	0xbbf8c4ed	-0.0075918348
32	0x3b09a306	0.002100171
33	0xbc6bace7	-0.014384485
34	0x3be13646	0.006872925
35	0xbb04692d	-0.0020204291
36	0xbbe523e5	-0.0069928044
37	0x3c0f252f	0.008736893
38	0x3bc62a34	0.0060475115
39	0x3b5bb9bd	0.0033527457
40	0x3c035638	0.008016162
41	0x3bf3eb84	0.007443847
42	0xbbf84bce	-0.007577396
43	0x3c2a9f13	0.010413903
44	0x3c74671b	0.01491716
45	0xbbea9a10	-0.007159479
46	0xbc1320a1	-0.008979947
47	0x3bd1e58b	0.0064055375
48	0xbc2c4214	-0.010513801
49	0xbb06cef5	-0.0020570133
50	0xbc004933	-0.007829952
51	0xbc1e3ba3	-0.009657773
52	0xbc2178d8	-0.009855472
53	0x3b6ebe6e	0.0036429423
54	0xbb0f03e0	-0.0021822378
55	0x392e633d	0.00016630902
56	0xbc2c81a6	-0.0105289575
57	0xbb919204	-0.0044424552
58	0x3b208926	0.002449581
59	0x3b08b567	0.0020860077
60	0xbb31a1d4	-0.0027104514
61	0x3b891a04	0.0041840095
62	0x3c158700	0.009126425
63	0xbb635774	-0.0034689577
64	0x3beee95b	0.0072910017
65	0x3b89582e	0.00419142
66	0xbc1c76bb	-0.009549792
67	0xbbb963c4	-0.005657645
68	0xbbfc8020	-0.0077057034
69	0xbbddd92a	-0.0067702727
70	0xbbfa32cf	-0.0076354514
71	0x3c261ecf	0.010139181
72	0xbb398eff	-0.0028313992
73	0xbc4881ef	-0.01223801
74	0xbb975aa3	-0.004618959
75	0x3add3953	0.0016878046
76	0x3ac77112	0.0015216193
77	0x3c17e0d0	0.009269908
78	0x3b858a96	0.0040753586
79	0x3c032cfc	0.008006331
80	0xbc742461	-0.0149012515
81	0xbbfdef76	-0.0077494932
82	0x39eac06e	0.0004477533
83	0xbb467eaa	-0.00302879
84	0x3bb16f3a	0.0054148706
85	0xbc394aba	-0.01130932
86	0xbb97bb75	-0.004630501
87	0x3bc22a49	0.005925451
88	0xbc5f3acb	-0.013624857
89	0xbc174f78	-0.009235255
90	0x3c42c777	0.011888376
91	0x3c0e7568	0.008694984
92	0x3c168d21	0.009188921
93	0x3becc860	0.007226035
94	0xbb694445	-0.003559367
95	0x3bb9768b	0.0056598834
96	0xbc0706cb	-0.008241366
97	0xbc34a96d	-0.011026722
98	0x3c1e0f21	0.009647162
99	0xbb9cb381	-0.0047821407
100	0x3c1c3d50	0.009536102
101	0xba8b96bd	-0.0010649782
102	0xbc300abe	-0.010744749
103	0x3b94f8f1	0.0045462777
104	0x3b629836	0.0034575588
105	0x3c151565	0.009099339
106	0xbc1e7bcf	-0.009673073
107	0xbb1172c4	-0.002219365
108	0x3c1e04ec	0.009644728
109	0xbb22f0a4	-0.0024862671
110	0x3c3050d8	0.010761462
111	0x3be94105	0.0071183466
112	0xbc5e55c2	-0.013570251
113	0x3bfc1c0b	0.0076937727
114	0xbbf20118	-0.0073853843
115	0xbbef0803	-0.0072946562
116	0xbc2dfaf7	-0.010618917
117	0xba6dd440	-0.000907246
118	0x3b12a598	0.0022376534
119	0x3c367e73	0.011138546
120	0x3c0978a4	0.008390579
121	0x3be9cb0b	0.0071348003
122	0x3bc880ba	0.006118861
123	0xbb174b9a	-0.0023085834
124	0xbb0fdbb4	-0.0021951022
125	0x3bc08bec	0.005876055
126	0x3be84ab9	0.0070889858
127	0xbaab9cfa	-0.0013093047
128	0x3ba32d3e	0.0049797585
129	0xbc1f0b11	-0.009707228
130	0x3c406094	0.011741776
131	0xbbb35fc8	-0.0054740645
132	0x3c0c452f	0.0085614165
133	0x3b141178	0.002259342
134	0x3bd0a3f1	0.0063671996
135	0xbc186170	-0.009300575
136	0xbc07ecc4	-0.008296195
137	0x3b4b9594	0.0031064497
138	0x3c2e90fe	0.010654686
139	0xb88842fc	-6.497462e-05
140	0x3c1a02a1	0.009400041
141	0xbc0323b7	-0.008004121
142	0x3c2a361c	0.010388877
143	0xbbbbcf26	-0.005731481
144	0xbc46798e	-0.012113942
145	0x3c1494c8	0.009068675
146	0x3bff5bc5	0.007792922
147	0xbbb7b05b	-0.00560574
148	0x3ba926e8	0.0051621087
149	0xbbf1a681	-0.007374585
150	0xbc0a2129	-0.008430758
151	0x3b215999	0.0024620055
152	0xbb6a850c	-0.0035784869
153	0xbc16223e	-0.009163437
154	0xbaf984e5	-0.0019036798
155	0x3bb9d1d1	0.005670764
156	0xbbdc53ca	-0.0067238556
157	0xbb2c48b5	-0.0026288454
158	0xb9b0a6f1	-0.00033693717
159	0x3b62047e	0.003448754
160	0xbb9d25ee	-0.0047957813
161	0x3bd2ae28	0.0064294524
162	0xbab2c8dd	-0.0013640184
163	0x3babc7ba	0.005242315
164	0xbbee7e0d	-0.00727821
165	0xbc48becc	-0.012252521
166	0xbc210fda	-0.009830439
167	0xbb397397	-0.0028297657
168	0xbb312966	-0.0027032732
169	0x3c88654f	0.01664987
170	0x3c1ef3fd	0.009701726
171	0xbc2a463d	-0.010392723
172	0xbb497833	-0.003074181
173	0x3c253a9b	0.010084773
174	0x3c729cb0	0.014807865
175	0x3a45803d	0.00075340626
176	0xba8ff2e5	-0.0010982422
177	0x3c0a2cdb	0.008433546
178	0x3bd776f9	0.006575462
179	0x38de1e8a	0.00010591473
180	0x3c16be11	0.009200589
181	0x3c4940c4	0.012283508
182	0xbc206b7b	-0.00979125
183	0xbb4dc4c8	-0.0031397808
184	0x3c32d37b	0.010914679
185	0xbc19edcf	-0.009395077
186	0x3c0a0b24	0.008425508
187	0x3ae2f094	0.001731413
188	0xbbb568e8	-0.0055361874
189	0xbbdb289f	-0.006688192
190	0x3bc5bf00	0.006034732
191	0xbc28d76e	-0.010305269
192	0xbb7fe538	-0.0039046537
193	0x3b4955c0	0.0030721277
194	0xbb10c3b1	-0.0022089297
195	0xbcf91c24	-0.030408926
196	0x3c0e5e78	0.008689515
197	0x3a0b440a	0.0005312568
198	0x3be3b745	0.0069493377
199	0xbc0b28e4	-0.008493636
200	0x3c05a7e8	0.008157708
201	0x3b711fcb	0.0036792632
202	0x3b5b3da5	0.003345349
203	0xbc279f40	-0.010230839
204	0x3c8ec7c3	0.017429238
205	0xbc23234f	-0.009957149
206	0x3b973e3c	0.004615573
207	0xbb77bef4	-0.0037803026
208	0xbb527dc3	-0.0032118417
209	0x3abdd484	0.001448289
210	0xbbd6299d	-0.0065357224
211	0x3b450863	0.0030064813
212	0xbc1f05a7	-0.0097059375
213	0xbc0ad679	-0.008473986
214	0x3c273910	0.010206476
215	0x399b873b	0.00029664658
216	0x3c0b2233	0.00849204
217	0xb99f58db	-0.00030393046
218	0xbc003e4d	-0.007827354
219	0x3bf9d82f	0.007624648
220	0xbb71fbb9	-0.003692372
221	0x3c1abbec	0.009444218
222	0x3c60514b	0.013691257
223	0xbc4092c6	-0.0117537435
224	0x3c0f49b7	0.008745602
225	0x3b83af03	0.0040186658
226	0x3b1e9cdb	0.002420238
227	0xbbbf4c0d	-0.0058379234
228	0xbc67ebd1	-0.014155344
229	0x3bae9fe6	0.00532912
230	0xbc207f98	-0.009796046
231	0x3c2f9fb3	0.010719228
232	0x3c0a9bcf	0.008459999
233	0xbbec36cf	-0.007208682
234	0x3cae07ce	0.021243956
235	0xbba4f3bf	-0.0050339396
236	0xbb97dda9	-0.0046345782
237	0xb9e265ac	-0.0004318183
238	0x3c3cf6d9	0.011533462
239	0x3af6b733	0.0018822908
240	0x3c260d53	0.010135013
241	0xbb0e6c75	-0.0021732126
242	0x3c5ea6ed	0.013589603
243	0xbb68c729	-0.00355191
244	0x3b44dbe6	0.0030038296
245	0x3c06b988	0.008222945
246	0xbb6123a1	-0.0034353512
247	0xba29c2d1	-0.0006475868
248	0x3be842b0	0.007088028
249	0xbc0e7ded	-0.008697015
250	0x3bcaf95b	0.0061942763
251	0x3ba95eec	0.0051687863
252	0x3c00a9e0	0.007853001
253	0x39ddd42e	0.0004231049
254	0x3b0e3295	0.002169763
255	0x3b577608	0.0032876749

model/a_stream/W f4 [3, 256]
0	0xbcb6dfeb	-0.02232357
1	0x3c681b25	0.014166628
2	0xbd791e4f	-0.06081992
3	0x3d0bdd08	0.03414634
4	0xbcb43a30	-0.022000402
5	0xbcd230b4	-0.02565799
6	0x3d4f9670	0.050680578
7	0xbc774c62	-0.015093895
8	0x3d470c65	0.048595805
9	0xbcabadec	-0.020956956
10	0x3cc7eabe	0.024403926
11	0xbc33111b	-0.010929371
12	0xbc9c33d2	-0.019067679
13	0xbd84ab1c	-0.06477949
14	0xbc6f29f7	-0.014597408
15	0xbb71d730	-0.0036901943
16	0x3cdd8a6a	0.02704354
17	0xbcdd64a5	-0.02702553
18	0x3cae41a6	0.021271538
19	0xbc1906c0	-0.009339988
20	0x3cba19bf	0.022717355
21	0x3bd320b6	0.0064431084
22	0xbbc6b258	-0.0060637407
23	0x3d0c4520	0.03424561
24	0x3d1d5f3d	0.038420904
25	0xbd85652d	-0.065134384
26	0x3cc0aeda	0.023520876
27	0xbd359789	-0.04433397
28	0x3d993113	0.07480063
29	0xbcfae59d	-0.030627066
30	0x3c85a1ea	0.016312558
31	0x3c92df4c	0.017928742
32	0xbd213571	-0.039357606
33	0x3cb5f78f	0.022212772
34	0xbcaa7f70	-0.02081272
35	0xbd2124bf	-0.039341684
36	0x3cbdabe1	0.023153247
37	0xbd888c52	-0.06667389
38	0x3b310708	0.0027012248
39	0xbd8dc30a	-0.069219664
40	0xbc7daf63	-0.01548371
41	0x3d643378	0.055713147
42	0x3d2c7738	0.042105883
43	0xbc180ae0	-0.009279937
44	0x3d74fd83	0.05981208
45	0x3c816c51	0.01579872
46	0x3c90d6e3	0.017680591
47	0x3d5484f1	0.051884595
48	0x3d39148f	0.04518562
49	0xbceb9587	-0.028757824
50	0x3c10a883	0.008829239
51	0x3d01d571	0.031697694
52	0x3c1536b0	0.009107277
53	0x3d522c30	0.05131167
54	0xbd1b84a1	-0.03796828
55	0x3d058a61	0.03260267
56	0x3d2a36c3	0.04155613
57	0x3ca15a63	0.01969642
58	0x3d94007e	0.072266564
59	0xbcb83eee	-0.022490945
60	0xbd0e0bc4	-0.03467919
61	0x3ce127a8	0.02748473
62	0xbcad0e4b	-0.02112498
63	0xbc0e133c	-0.008671578
64	0xbca80d0a	-0.02051403
65	0xbcec0c04	-0.028814323
66	0x3c3026d3	0.010751444
67	0x3a1affb1	0.0005912735
68	0x3b102dda	0.0021999986
69	0x3c9c72a1	0.019097628
70	0x3c74bf3b	0.014938171
71	0xbc0bd907	-0.00853563
72	0x3d0deb77	0.034648385
73	0x3c2cec2d	0.010554356
74	0xbd687ce7	-0.05675974
75	0xbd73a060	-0.059479117
76	0x3cc773d4	0.024347223
77	0xbd663c89	-0.056210075
78	0xbd6c5d85	-0.057706375
79	0x3d4a29c2	0.04935623
80	0x3d02eba3	0.031963002
81	0x3d8f5066	0.06997757
82	0xbd4ac692	-0.049505778
83	0xbceb1346	-0.028695714
84	0x3d780ad9	0.06055722
85	0x3bcec36a	0.0063099163
86	0x3d50beef	0.05096334
87	0x3c9215ae	0.017832603
88	0x3cbc246a	0.022966582
89	0x3c60efa1	0.013729007
90	0x3d846082	0.0646372
91	0xb941f893	-0.00018498515
92	0xbb9f64cc	-0.004864311
93	0xbd8c1df0	-0.068416476
94	0x3abe3fc3	0.0014514852
95	0xbc1f841a	-0.009736085
96	0x3c35cf6b	0.011096816
97	0x3d618992	0.055062838
98	0xbbb3adb0	-0.0054833516
99	0xbb915eb0	-0.0044363365
100	0xbc64f917	-0.013975403
101	0xbd2e37cc	-0.04253368
102	0x3cebf852	0.028804932
103	0x3d662ab5	0.056193072
104	0xbd0b19bb	-0.033960085
105	0xbcf96f2d	-0.03044852
106	0x3c5b709b	0.013393546
107	0x3d42d431	0.047565643
108	0xbd75c79b	-0.06000481
109	0x3cff5793	0.031169688
110	0xbcd5c977	-0.026097042
111	0x3d78affc	0.060714707
112	0x3c4ed961	0.012625069
113	0x3d657831	0.056022827
114	0x3ad7e9b5	0.0016472848
115	0x3c488648	0.012239046
116	0x3cae935a	0.021310497
117	0x3ba2968f	0.0049617956
118	0xbd8d606d	-0.069031574
119	0xbd01ac0a	-0.03165821
120	0xbcf2342f	-0.029565899
121	0xbd85e854	-0.06538454
122	0xbce42e85	-0.027854213
123	0x3c0deff5	0.008663167
124	0x3d0458f9	0.032311413
125	0x3bd149c3	0.006386967
126	0xba4d00e7	-0.0007820264
127	0x3d00b3aa	0.03142134
128	0xbd77bcb4	-0.060482696
129	0x3cb99d55	0.02265803
130	0xbd8d4108	-0.06897169
131	0xbc0b7362	-0.008511396
132	0xbbbfcbf6	-0.0058531715
133	0xbbfef692	-0.0077808583
134	0x3d103783	0.03520919
135	0x3b9b1a5e	0.004733368
136	0x3bd760b2	0.0065728063
137	0x3c794368	0.015213825
138	0x3c1be195	0.009514232
139	0xbb50b150	-0.0031843968
140	0xbbe903ca	-0.0071110474
141	0x3c4679f3	0.012114036
142	0xbd33f3b6	-0.043933593
143	0x3d84842c	0.06470522
144	0x3cd33c56	0.025785606
145	0xbce19384	-0.027536161
146	0xbca25bdc	-0.019819193
147	0x3c688c9b	0.014193679
148	0x3d2d8f52	0.04237301
149	0x3c81913f	0.015816329
150	0x3b3fb2c8	0.002925085
151	0xbcdb6fc0	-0.026786685
152	0xbd85c464	-0.06531599
153	0x3c881328	0.016610697
154	0x3c8e1213	0.017342603
155	0xbd47f6d5	-0.04881938
156	0x3ca04f09	0.019568937
157	0x3cf28c5d	0.029607946
158	0x3d369aaf	0.04458111
159	0xbd1a3809	-0.037651096
160	0x3d627821	0.055290345
161	0xbcdf4950	-0.027256638
162	0xbbe3915d	-0.006944819
163	0x3d10adbb	0.035321932
164	0x3cb41869	0.021984296
165	0x3c94d148	0.0181662
166	0x3b45cb7a	0.0030181096
167	0xbd3666bb	-0.044531565
168	0xbc9e6572	-0.019335482
169	0x3d704f9f	0.058669683
170	0x3bf636c5	0.0075138533
171	0x3c803955	0.015652338
172	0x3d4c46ea	0.049872316
173	0xbc3bd2ba	-0.011463815
174	0xbc97ff95	-0.018554488
175	0xbcbb4dc0	-0.022864223
176	0x3d21328b	0.039354842
177	0xbd03796b	-0.032098215
178	0xbd14b377	-0.036303964
179	0xbd195d81	-0.037442688
180	0xbceb64ac	-0.028734528
181	0xbd10446c	-0.035221502
182	0x3c48a6e8	0.012246825
183	0x3c8fb2bc	0.017541282
184	0xbb64f7c5	-0.0034937721
185	0x3c7952ef	0.015217527
186	0xbc4ffa4e	-0.012693955
187	0xbd4cfa82	-0.05004359
188	0x3cd06d26	0.025442671
189	0xbba11ffd	-0.0049171434
190	0xbca21efe	-0.019790169
191	0xbb8a30ff	-0.0042172666
192	0x3d252cb7	0.040325847
193	0x3d55b1e0	0.052171588
194	0x3ce2f3f8	0.027704224
195	0xbda053ad	-0.0782846
196	0xbce295d5	-0.027659336
197	0x3c6c48f0	0.0144216865
198	0xbd02cb7a	-0.03193233
199	0x3bb0a544	0.005390795
200	0xbd93610b	-0.07196244
201	0xbb816c2c	-0.0039496627
202	0xbd0d68cd	-0.034523774
203	0x3d2382f5	0.039919812
204	0x3d9c99a5	0.07646493
205	0x399773bd	0.00028887196
206	0xbced514e	-0.028969433
207	0x3d030e92	0.031996317
208	0x3d09dc7d	0.03365754
209	0xbc97078b	-0.018436214
210	0x3d6e20ce	0.058136754
211	0xbd74d9ed	-0.059778143
212	0x3bdbd89c	0.0067091715
213	0x3b86059d	0.0040900246
214	0x3d7366a5	0.05942406
215	0xbc4d8d2d	-0.012545866
216	0xbba1b5d2	-0.0049350047
217	0xbd86b2f2	-0.065771
218	0x3b127415	0.0022347022
219	0xbc831dc5	-0.016005406
220	0x3ccea78e	0.02522638
221	0xbc6b3457	-0.0143557405
222	0xbc8a1c69	-0.01685925
223	0x3da82155	0.082094826
224	0xbc24fb06	-0.010069614
225	0xbd342e71	-0.043989602
226	0x3bc44585	0.0059897327
227	0x3cb80d17	0.02246718
228	0x3c996d33	0.018728828
229	0xbc8a2e87	-0.01686789
230	0x3c6a00ae	0.014282389
231	0xbc2b84ff	-0.01046872
232	0xbc0e5444	-0.008687083
233	0x3d5bcfab	0.053664844
234	0x3d959597	0.073039226
235	0xbbdf932f	-0.0068229656
236	0x3ce045de	0.027377065
237	0xbb411a97	-0.0029465312
238	0xbcb06f83	-0.021537548
239	0x3c257fdf	0.010101288
240	0xbc50990f	-0.0127318045
241	0xbc085f67	-0.008323527
242	0xbd3cb465	-0.046070475
243	0x3cf392df	0.02973312
244	0xbd7645b0	-0.060125053
245	0xbc4df5aa	-0.012570778
246	0x3d44b511	0.04802424
247	0x3d44c4be	0.04803919
248	0xbb88fee3	-0.0041807755
249	0x3bd435da	0.006476146
250	0xbd05a4b8	-0.03262779
251	0x3d3fc2ba	0.046816565
252	0xbcb1bec1	-0.021697404
253	0x3ca6e7a7	0.020374132
254	0xbd5dfc26	-0.054195546
255	0x3d483e53	0.048887562

model/hidden/mid_rec_layer/upward/W f4 [80, 86]
0	0xbac60600	-0.0015107989
1	0x3c4810da	0.012211049
2	0x3c02d3b9	0.007985049
3	0x3b80fba9	0.00393625
4	0x3c76dc07	0.015067107
5	0xbc07a124	-0.008278165
6	0x3b24a5d0	0.0025123246
7	0x3c0d8309	0.008637198
8	0xbc837569	-0.016047196
9	0x3c23d70a	0.01
10	0x3c857083	0.016289001
11	0x3c23d70a	0.01
12	0x3b0ca3e2	0.0021459986
13	0x3d935748	0.07194382
14	0x3c23d70a	0.01
15	0xbd5b0783	-0.05347396
16	0x3db327a9	0.08747799
17	0x3c23d70a	0.01
18	0xbdcef07d	-0.10104463
19	0x3d641dda	0.05569253
20	0x3c23d70a	0.01
21	0xbd3fe1c1	-0.046846155
22	0x3d9cf7f4	0.07664481
23	0x3c23d70a	0.01
24	0xbd9b51cf	-0.07583963
25	0xbac2b5bb	-0.0014855185
26	0x3c23d70a	0.01
27	0xbd285477	-0.041096177
28	0x3dd15115	0.10220543
29	0x3c23d70a	0.01
30	0xbcfd5144	-0.03092254
31	0x3d574dbb	0.052564364
32	0x3c23d70a	0.01
33	0x3be8f9a9	0.00710984
34	0xbbbc92d9	-0.0057548103
35	0x3c23d70a	0.01
36	0xbc88a3fe	-0.01667976
37	0x3cd55be9	0.026044803
38	0x3c23d70a	0.01
39	0xbd0e34a1	-0.03471816
40	0xbc28bff8	-0.010299675
41	0x3c23d70a	0.01
42	0xbd36b6e6	-0.04460802
43	0x3cd07b1a	0.025449324
44	0x3c23d70a	0.01
45	0x3b41715f	0.0029517037
46	0xbbbda0b0	-0.0057869777
47	0x3da7a138	0.08185047
48	0xbcb6e7d7	-0.022327347
49	0xbc77d05d	-0.015125361
50	0x3c87b83f	0.016567348
51	0x3d552b0a	0.052043
52	0x3c74c6e4	0.014939997
53	0x3d801dd4	0.06255689
54	0xbc3fed43	-0.011714282
55	0xbb83f3b7	-0.004026856
56	0x3c23d70a	0.01
57	0xbc32d1c3	-0.010914269
58	0x3d191c11	0.03738028
59	0x3c23d70a	0.01
60	0x3d4b23d2	0.049594708
61	0x3c53efa9	0.012935557
62	0xbc83250d	-0.016008878
63	0x3d36c12c	0.044617817
64	0xbd85f074	-0.065400034
65	0x3dcfdefe	0.10149954
66	0x3dbdeba1	0.09273458
67	0xbbe11fbb	-0.0068702376
68	0xbcd9179c	-0.026500516
69	0x3c31c179	0.01084935
70	0xbd0c052f	-0.03418463
71	0x3c23d70a	0.01
72	0xbd5269dc	-0.051370487
73	0x3c0e990f	0.008703484
74	0x3c23d70a	0.01
75	0x3c22c3e4	0.009934399
76	0xbd2ed1a4	-0.042680398
77	0x3d9fedf1	0.078090556
78	0x3c84b74b	0.016200682
79	0xbd45e7a0	-0.048316598
80	0xbd2ea626	-0.04263892
81	0x3cb88fec	0.022529565
82	0xbd1300f0	-0.035889566
83	0xbca7ffde	-0.02050775
84	0x3c825a2b	0.015912136
85	0xbd1169c1	-0.035501245
86	0xbc7c6354	-0.015404541
87	0xbe1ebb2e	-0.15501091
88	0xbe0172a9	-0.12641396
89	0xbcfe8156	-0.031067532
90	0xbd7e7b8c	-0.062129542
91	0xbd67a97f	-0.05655813
92	0xbda95a0f	-0.082691304
93	0xbd844763	-0.064589284
94	0xbeb6e526	-0.357217
95	0x3c23d70a	0.01
96	0xbd986baa	-0.0744241
97	0x3c23d70a	0.01
98	0xbdb9d47d	-0.09073732
99	0xbd4e8f7a	-0.0504298
100	0x3c23d70a	0.01
101	0x3ddda361	0.10822178
102	0xbd3a3a6f	-0.045465883
103	0x3c23d70a	0.01
104	0x3e13381e	0.14376876
105	0xbd80cb3d	-0.062887646
106	0x3c23d70a	0.01
107	0x3d9ce8d9	0.076616
108	0xbdb8a25d	-0.09015343
109	0x3c23d70a	0.01
110	0x3e3a445b	0.18190138
111	0xbcb04f6b	-0.021522244
112	0x3c23d70a	0.01
113	0x3d0d99a4	0.03457035
114	0xbd267f71	-0.04064888
115	0x3c23d70a	0.01
116	0x3b6f0b08	0.003647508
117	0xbdf9b5c5	-0.12192873
118	0x3c23d70a	0.01
119	0x3cb1f10e	0.02172139
120	0xbdb33076	-0.087494776
121	0x3c23d70a	0.01
122	0x3d2284f2	0.039677568
123	0xbbfb80e6	-0.007675278
124	0x3c23d70a	0.01
125	0x3d8cdb75	0.068777956
126	0x3be81160	0.0070821494
127	0x3c23d70a	0.01
128	0x3d37718a	0.044786014
129	0xbdc06625	-0.093944825
130	0x3c23d70a	0.01
131	0x3d3113ee	0.043231897
132	0xbe18fcb6	-0.14940152
133	0xbdb48dc5	-0.08816103
134	0x3da529ac	0.08064589
135	0xbe79b7a0	-0.24386454
136	0xbe05962c	-0.13045567
137	0xbe08ad7a	-0.13347426
138	0xbe2755a7	-0.16341268
139	0xbd9177b5	-0.071029104
140	0x3da30967	0.07960778
141	0xbbf649cf	-0.007516123
142	0x3c23d70a	0.01
143	0x3c00ceb8	0.007861786
144	0xbcf39602	-0.029734615
145	0x3c23d70a	0.01
146	0xbd692556	-0.056920372
147	0x3b49efce	0.00308131
148	0x3ab2d890	0.0013644863
149	0xbe01a2a4	-0.12659699
150	0xbd663ec0	-0.056212187
151	0xbe04e6df	-0.12978695
152	0xbe4feb09	-0.20304503
153	0x3d5f9a70	0.054590642
154	0x3cbcdf45	0.023055682
155	0x3cffeec5	0.031241784
156	0x3d3354d8	0.043782085
157	0x3c23d70a	0.01
158	0x3dab225e	0.083561644
159	0x3c28955b	0.010289515
160	0x3c23d70a	0.01
161	0xbd7215a9	-0.059102688
162	0x3d87b840	0.0662694
163	0xbe07a4c0	-0.13246441
164	0xbd8c9ab4	-0.06865445
165	0x3c81c0f8	0.015839085
166	0x3cf35ca7	0.029707266
167	0xbe54a67f	-0.20766638
168	0x3d23866e	0.039923124
169	0xbb8970e7	-0.004194367
170	0xbe108095	-0.1411155
171	0x3da72ac7	0.08162456
172	0xbdd154e0	-0.10221267
173	0xbe2bb903	-0.16769795
174	0xbe2ee7f6	-0.17080674
175	0xbd192dc2	-0.037397154
176	0xbdfe1831	-0.12406958
177	0xbd6a00ed	-0.05712979
178	0xbdcde674	-0.10053721
179	0xbe042d8a	-0.12907997
180	0xbea4b29c	-0.32167518
181	0x3c23d70a	0.01
182	0xbdadce28	-0.08486587
183	0x3c23d70a	0.01
184	0xbd98a82e	-0.07453953
185	0xbd54cd8e	-0.051953845
186	0x3c23d70a	0.01
187	0xbd45db1f	-0.048304673
188	0xbd547c2c	-0.051876232
189	0x3c23d70a	0.01
190	0x3dba4ab1	0.090962775
191	0xbd4f03a2	-0.050540574
192	0x3c23d70a	0.01
193	0x3d44e3af	0.0480687
194	0xbd8757e4	-0.06608561
195	0x3c23d70a	0.01
196	0x3e338a81	0.17533304
197	0xbd1e35de	-0.03862559
198	0x3c23d70a	0.01
199	0xbde8487d	-0.11341951
200	0xbd863ece	-0.06554948
201	0x3c23d70a	0.01
202	0xbd000943	-0.031258833
203	0xbdf7a2a7	-0.1209157
204	0x3c23d70a	0.01
205	0xbd80b280	-0.06284046
206	0xbe147486	-0.14497575
207	0x3c23d70a	0.01
208	0xbcacf71d	-0.021113927
209	0xbcda2416	-0.026628535
210	0x3c23d70a	0.01
211	0x3d0f353b	0.034962874
212	0xbcd6eb82	-0.026235346
213	0x3c23d70a	0.01
214	0x39dc2562	0.00041989522
215	0xbddeb995	-0.10875241
216	0x3c23d70a	0.01
217	0xbbbe5f09	-0.005809669
218	0xbe00545b	-0.12532179
219	0xbdc90f10	-0.09817326
220	0x3d4962fb	0.04916666
221	0xbe72d51d	-0.23714109
222	0xbe130400	-0.14356995
223	0xbde23a89	-0.11046321
224	0xbdf8cf58	-0.12148923
225	0xbdbc8719	-0.09205455
226	0x3d9b596e	0.07585417
227	0xbcde9255	-0.027169386
228	0x3c23d70a	0.01
229	0xbd0c7364	-0.034289733
230	0xbd45bd72	-0.048276372
231	0x3c23d70a	0.01
232	0xbd0a675b	-0.033789974
233	0xbad744eb	-0.0016423737
234	0xbcdbb6ca	-0.026820559
235	0xbdbcd7cf	-0.0922085
236	0xbdc165c6	-0.0944324
237	0xbe1f5a0e	-0.15561697
238	0xbe32fb63	-0.17478709
239	0x3c3c304a	0.011486122
240	0x3c06bc6a	0.008223632
241	0x3b4e7a8a	0.0031506144
242	0x3b537c88	0.0032270271
243	0x3c23d70a	0.01
244	0x3d4de39d	0.050265897
245	0xbd10c48c	-0.03534369
246	0x3c23d70a	0.01
247	0xbcdcc2d8	-0.026948377
248	0x3cb89458	0.022531673
249	0xbe07d811	-0.13266017
250	0xbda84512	-0.08216299
251	0xbd94c898	-0.07264823
252	0x3b44df3e	0.003004029
253	0xbe438468	-0.19093478
254	0x3cb21f94	0.021743573
255	0xbcccc35e	-0.024995502

model/hidden/mid_layer/W f4 [256, 256]
0	0x3c63bcc4	0.013899986
1	0xba1d70df	-0.0006005894
2	0x3a69b8a6	0.00089157594
3	0xbc255489	-0.0100909555
4	0xbbd3149b	-0.0064416653
5	0xbc81b51a	-0.015833426
6	0xbc473b13	-0.0121600805
7	0xbc27ecd7	-0.010249338
8	0x3accc0a2	0.0015621374
9	0xbb6855d9	-0.003545156
10	0xbc30007b	-0.010742302
11	0xbc6be475	-0.01439773
12	0xbcd596f9	-0.026072966
13	0xbc79a761	-0.01523766
14	0xbc93db83	-0.018049007
15	0xbcadfb97	-0.021238131
16	0xbcb5bfc8	-0.022186175
17	0xbc9c687a	-0.019092787
18	0xbcb8f298	-0.022576615
19	0x3bf69529	0.0075251055
20	0xbd134633	-0.03595562
21	0xbb0dd02c	-0.0021638973
22	0xba8b8078	-0.0010643145
23	0xbc6760a0	-0.014122158
24	0xbd0d534e	-0.034503274
25	0xbc09440c	-0.00837804
26	0x3c3cd2bf	0.011524855
27	0x391b3fb0	0.00014805677
28	0xbbc84765	-0.0061120265
29	0xbb8608c6	-0.0040904013
30	0xbc9704bb	-0.018434873
31	0x3bef4d41	0.0073029106
32	0xbc30ff2d	-0.010803026
33	0xbb07bc4c	-0.00207116
34	0x3be4784b	0.006972348
35	0xbcf3a1fc	-0.029740326
36	0xbc0efef7	-0.008727781
37	0xbb269338	-0.002541734
38	0xbb94c350	-0.0045398846
39	0xbc9e9658	-0.019358799
40	0xbc9612ab	-0.018319448
41	0xbcab62ae	-0.020921078
42	0x3a7678ba	0.0009402145
43	0xbc9e7f32	-0.01934776
44	0x3c18631e	0.009300975
45	0xba2847cf	-0.0006419392
46	0xbc164678	-0.0091720745
47	0x3c266ffc	0.010158535
48	0x3c2a3ea3	0.01039091
49	0x3b90fe01	0.004424811
50	0xbc47000f	-0.01214601
51	0x3b3c2415	0.002870803
52	0xbc146d78	-0.0090593025
53	0xbab7312b	-0.0013976445
54	0xbbded84b	-0.0068006865
55	0xbcda806d	-0.026672566
56	0x3b10a201	0.0022069218
57	0xbc1a66f9	-0.009423965
58	0xbc8dd4da	-0.01731341
59	0x3c472efb	0.012157197
60	0xbc697892	-0.014249938
61	0x3b90b26d	0.0044158013
62	0xbc40272e	-0.011728091
63	0xbc752053	-0.01496132
64	0xbc0b740b	-0.0085115535
65	0xbc7876c1	-0.015165032
66	0xbc1edb29	-0.009695807
67	0x3bb2e266	0.0054591177
68	0xbc0bcb84	-0.008532409
69	0xbbfb951f	-0.0076776887
70	0xbc9440c1	-0.018097283
71	0xbc378f84	-0.01120365
72	0x3b2b5409	0.0026142618
73	0xbc87bbb0	-0.016568989
74	0xbc4ab310	-0.012371793
75	0xbcedaa0c	-0.029011749
76	0xbc60896c	-0.013704639
77	0xbb2d81d9	-0.00264751
78	0xbcb10b17	-0.021611733
79	0xbc379a2f	-0.011206194
80	0x3b13ac24	0.0022533024
81	0xbb8bc8de	-0.0042658886
82	0xbadbe2a2	-0.0016775916
83	0xbb438865	-0.0029835936
84	0xbc2ec728	-0.0106676
85	0xba6f9d4a	-0.00091405644
86	0xbc067486	-0.008206492
87	0xbb9722ed	-0.004612318
88	0xbc470cfa	-0.01214909
89	0xbc5f53d3	-0.013630825
90	0xbcc40ee2	-0.023932878
91	0xbb2599d4	-0.002526869
92	0x3a850011	0.0010147115
93	0xbc8e5ae0	-0.017377317
94	0xbc8cc8cb	-0.01718559
95	0x3cb19759	0.021678613
96	0xbb476d49	-0.003043013
97	0xbd2e812b	-0.042603653
98	0xbc3b6fa1	-0.011440189
99	0xbc907553	-0.01763407
100	0xbc72e5bf	-0.014825284
101	0xbcfa114e	-0.03052583
102	0xb8ebee40	-0.00011250051
103	0xbc0686b6	-0.0082108285
104	0xbc884202	-0.016633037
105	0xbd3956f9	-0.04524896
106	0x3cb7d891	0.022442134
107	0xbd0ecf53	-0.03486569
108	0xbcac0ce4	-0.02100224
109	0xbce92ff9	-0.028465258
110	0x3ad99560	0.0016600303
111	0xbc54bb79	-0.01298415
112	0xbcc1e9ac	-0.023670994
113	0xbc37d51f	-0.011220246
114	0x3ca3ffe7	0.020019485
115	0xbc4c86e6	-0.012483334
116	0xbbb7168d	-0.005587405
117	0xbc923d21	-0.017851414
118	0xb9bf75eb	-0.00036518215
119	0xbb008a71	-0.0019613768
120	0x3b73eb21	0.0037219005
121	0x3b296bb9	0.0025851561
122	0xbc1e388e	-0.009657038
123	0xbc6994a4	-0.01425663
124	0xbc2a1795	-0.010381599
125	0xbd1e0552	-0.038579293
126	0xb84184e5	-4.6138553e-05
127	0xba624c59	-0.00086325925
128	0xbc4a168d	-0.012334478
129	0xbc5807ff	-0.0131855
130	0xbc5a125c	-0.013310041
131	0x3be265ff	0.0069091315
132	0xbcdc7250	-0.026909977
133	0xbc6960a0	-0.014244229
134	0xbcb3399d	-0.021878058
135	0xba96813f	-0.001148261
136	0xbcaeb853	-0.021328127
137	0xbb92d0a4	-0.0044804383
138	0x3b454992	0.0030103666
139	0xba11e4fc	-0.00055654324
140	0x3ae714d7	0.0017630112
141	0xbc1edf60	-0.009696811
142	0x3c24fb53	0.010069686
143	0x3be3b943	0.006949575
144	0xbc58ec22	-0.013239892
145	0xbc647776	-0.013944497
146	0xbc5c6e3c	-0.013454016
147	0xbaef0108	-0.001823456
148	0xbb5fca3f	-0.0034147648
149	0xbae7e5a8	-0.0017692344
150	0xbc2471b9	-0.010036879
151	0xbb6ce4d5	-0.0036147137
152	0xbbc4a8d1	-0.00600157
153	0xbcd97c67	-0.026548577
154	0x3ca6cd03	0.02036143
155	0xbd008b21	-0.031382684
156	0xbcd62bdb	-0.026143959
157	0x3c19eaa4	0.009394322
158	0xba283387	-0.00064163696
159	0xbc0d9e0a	-0.0086436365
160	0x3a8a81bc	0.0010567228
161	0xbc7a57df	-0.015279739
162	0x3c0e8008	0.008697517
163	0x3c73c393	0.0148781715
164	0x39c78072	0.00038051937
165	0xbbd2945c	-0.006426377
166	0x3c380d3e	0.011233626
167	0x3ca16d5f	0.019705473
168	0xbc13e231	-0.009026096
169	0xbcc3fd14	-0.023924388
170	0x3ca8e33f	0.020616172
171	0xbc129860	-0.008947462
172	0x3b6092eb	0.0034267257
173	0x39d9452e	0.00041441008
174	0xbc77bdb5	-0.015120913
175	0x3c07488a	0.008257041
176	0xbc3f1f24	-0.011665139
177	0xbaa44311	-0.0012532194
178	0x39e3db10	0.00043460028
179	0xbd04dfbe	-0.03243994
180	0xbb9389ff	-0.0045025344
181	0xbcb2a02e	-0.021804895
182	0xbc1a33be	-0.00941175
183	0xbc5dc073	-0.013534653
184	0xbbaf7db2	-0.00535556
185	0xbca959c8	-0.020672694
186	0xbc014ce6	-0.007891869
187	0xbc9400e0	-0.018066823
188	0xbd1067f1	-0.035255376
189	0xbcd2e85f	-0.025745569
190	0xbcc88e83	-0.024482017
191	0x3b8fa0b8	0.004383173
192	0x3c75ae41	0.014995159
193	0x3b511051	0.0031900594
194	0xba383b31	-0.0007027863
195	0xbc346e52	-0.011012631
196	0xbc1c6728	-0.009546079
197	0x3c10f5f2	0.0088477
198	0xbd21232f	-0.039340194
199	0x3c87f980	0.016598463
200	0xbbcb3ea8	-0.0062025376
201	0xbbd7137b	-0.0065636015
202	0xbc39e614	-0.011346359
203	0xbd146feb	-0.036239546
204	0x3c486144	0.012230221
205	0x3a14fe16	0.00056836137
206	0xbca78600	-0.020449638
207	0xbc4c62fb	-0.012474771
208	0xbb6cf540	-0.0036156923
209	0xbc1fd735	-0.009755899
210	0xbc87aabd	-0.016560907
211	0xbcbc2dd8	-0.022971079
212	0xbc961c8e	-0.018324163
213	0xbb469184	-0.0030299136
214	0xbcc9c643	-0.024630671
215	0xbccd56ac	-0.025065742
216	0xbcaab725	-0.020839283
217	0xbc4698ae	-0.012121363
218	0xbc04a2e9	-0.008095481
219	0xbcb55035	-0.022132972
220	0xbbbb5870	-0.0057173297
221	0xbb3c2863	-0.0028710596
222	0xbd01a0d9	-0.031647537
223	0xbababc47	-0.0014246785
224	0x3bf67b50	0.007522024
225	0xbbca1925	-0.0061675482
226	0xbc8d0170	-0.0172126
227	0x3abc4a9a	0.0014365495
228	0x3ab65ef7	0.00139138
229	0xbc1ef46b	-0.0097018285
230	0xbb864534	-0.004097605
231	0xbb71cd22	-0.003689595
232	0xbb1b1769	-0.0023665077
233	0xbd030ca6	-0.031994484
234	0xbc88cf95	-0.016700545
235	0xbbb03361	-0.0053772186
236	0x3aa72080	0.0012750775
237	0xbc2786aa	-0.0102249775
238	0x3babf1ab	0.005247315
239	0xbcf31bde	-0.029676374
240	0xbc500661	-0.012696833
241	0xbc71899f	-0.014742284
242	0x3abf59a0	0.0014598854
243	0xbd0f778d	-0.035026122
244	0xbc7ec1a7	-0.0155491
245	0xbb83d546	-0.004023227
246	0xbc64b85d	-0.013959971
247	0xbd0bde9b	-0.03414784
248	0xbca1c80a	-0.019748706
249	0xbc09b4ed	-0.0084049525
250	0xbb288892	-0.0025716168
251	0xbc730fdf	-0.014835327
252	0xbc6bdb47	-0.0143955415
253	0xbbfa3861	-0.0076361154
254	0xbcd57449	-0.026056426
255	0x3c07027b	0.0082403375

model/a_stream/b f4 [3]
0	0x3c86b73e	0.016444799
1	0xbb28c000	-0.0025749207
2	0xbb41f8b7	-0.0029597708

model/hidden/mid_rec_layer/upward/b f4 [80]
0	0xbb91e579	-0.004452404
1	0xbdc6f177	-0.097140245
2	0x3f5d5e22	0.8647176
3	0xbdc312ad	-0.095250465
4	0xbb858fe1	-0.0040759896
5	0xbdb54056	-0.08850162
6	0x3f5fbe71	0.87399966
7	0xbdb33fa1	-0.087523706
8	0xb930ce7b	-0.00016861588
9	0xbdb5406a	-0.08850177
10	0x3f65b523	0.8972952
11	0xbdb1facd	-0.086904146
12	0xbb89f470	-0.0042100474
13	0xbdb97b8b	-0.09056767
14	0x3f5da02b	0.8657252
15	0xbdb6c76a	-0.08924754
16	0xbba8d2fc	-0.0051521044
17	0xbdc58a21	-0.096454866
18	0x3f5d53ab	0.8645579
19	0xbdc25cd0	-0.09490359
20	0xbb620bf0	-0.0034491979
21	0xbda97f7d	-0.082762696
22	0x3f6060fd	0.8764799
23	0xbda7fad0	-0.082021356
24	0xbb8589ab	-0.004075249
25	0xbdd94166	-0.10608177
26	0x3f5eace8	0.86982584
27	0xbdd61bc3	-0.10454514
28	0xba5b0615	-0.00083550933
29	0xbdc29347	-0.09500747
30	0x3f6428fe	0.8912505
31	0xbdbf4f3c	-0.09341285
32	0xbb15d6af	-0.0022863557
33	0xbdd40d02	-0.103540435
34	0x3f61c498	0.88190603
35	0xbdd15e5a	-0.10223074
36	0xbb8d3d6a	-0.0043102996
37	0xbddeb15c	-0.10873672
38	0x3f5ce32c	0.86284137
39	0xbdd9ebac	-0.10640654
40	0xbbc02d74	-0.0058647934
41	0xbdcfe207	-0.10150533
42	0x3f5ba93a	0.85805094
43	0xbdcc16f0	-0.099653125
44	0xbb85156b	-0.004061391
45	0xbdb85915	-0.09001366
46	0x3f5fe271	0.874549
47	0xbdb60649	-0.088879175
48	0xbbbcd3c8	-0.005762551
49	0xbd948b3f	-0.072531216
50	0x3f5da2db	0.8657662
51	0xbd93aebb	-0.072110616
52	0xbba6e601	-0.0050933366
53	0xbda942cf	-0.08264696
54	0x3f5e78f0	0.86903286
55	0xbda84896	-0.0821697
56	0xbb88aee3	-0.0041712387
57	0xbda2bc40	-0.07946062
58	0x3f602bad	0.87566644
59	0xbda1b7f4	-0.078964144
60	0xbb544954	-0.003239234
61	0xbda92aad	-0.08260093
62	0x3f621219	0.88308865
63	0xbda7b98e	-0.081896886
64	0xbb89fbfd	-0.0042109475
65	0xbda8e8f2	-0.08247556
66	0x3f6274dc	0.88459563
67	0xbda7d259	-0.081944175
68	0xbb9bea40	-0.0047581494
69	0xbdcca6b3	-0.09992733
70	0x3f5cad64	0.86202073
71	0xbdc7cdf5	-0.0975608
72	0xbbad3bdd	-0.0052866773
73	0xbdb2b62c	-0.08726153
74	0x3f5c2ea5	0.86008674
75	0xbdb0fb2f	-0.086416595
76	0xbb8a1a1f	-0.0042145397
77	0xbdad9743	-0.084761165
78	0x3f6139aa	0.87978613
79	0xbdac4503	-0.084116004

model/hidden/input_layer/W f4 [256, 86]
0	0x3d0a3144	0.03373839
1	0xbcdf1db6	-0.027235847
2	0xbd0748ed	-0.03302853
3	0xbd512a78	-0.051065892
4	0xbc5fafca	-0.013652751
5	0x3ccc458b	0.024935504
6	0xbc8c5fa8	-0.017135456
7	0x3c54d411	0.012990014
8	0xbd1e6b06	-0.038676284
9	0x38abc30f	8.190248e-05
10	0xbe0db8b7	-0.13839994
11	0x3c681957	0.014166198
12	0xbdc3220b	-0.095279776
13	0xbdd0497a	-0.101702645
14	0xbc341660	-0.010991663
15	0x3d5b20fd	0.053498257
16	0x3d23dc35	0.040004928
17	0xbbd92998	-0.006627273
18	0xbdd5cdd5	-0.1043965
19	0xbe02571e	-0.12728545
20	0x3ba8468a	0.005135362
21	0x3da444d9	0.08020944
22	0x3b239209	0.002495887
23	0xbc41d00c	-0.011829387
24	0xbc3ee441	-0.0116511
25	0xbca95ada	-0.020673204
26	0x3ba8e232	0.0051539177
27	0x3ce59c14	0.028028525
28	0xbddacdfc	-0.1068382
29	0x3c9b9c57	0.018995447
30	0xbcd51099	-0.026008891
31	0xbd2f2312	-0.042758055
32	0x3ce1138d	0.027475143
33	0xbd9e64cf	-0.077340715
34	0xbced2d27	-0.028952194
35	0xbb32b856	-0.0027270517
36	0xbd001827	-0.031273033
37	0x3daf2766	0.085524365
38	0x3ad81a95	0.0016487414
39	0xbd9649c4	-0.073382884
40	0x3cc7ad6b	0.024374684
41	0xbc26ef57	-0.010188899
42	0x3d697f08	0.057005912
43	0x3d906193	0.07049861
44	0x3bfe9aa8	0.0077699013
45	0x3dbc3806	0.09190373
46	0x3dbd3684	0.09238914
47	0xbd8cb287	-0.06869989
48	0x3d0c6fb1	0.034286205
49	0x3d1df041	0.038559202
50	0x3d858544	0.06519559
51	0xbd896995	-0.06709591
52	0xbaa13506	-0.0012299127
53	0xbd990087	-0.07470804
54	0x3bdd3c2b	0.0067515573
55	0x3d888644	0.06666234
56	0xb9bc7185	-0.00035942733
57	0xbd0ca706	-0.034338973
58	0xbdeba04f	-0.11505186
59	0x3a9e978a	0.0012099606
60	0x3b8991de	0.004198297
61	0xbc815309	-0.015786665
62	0xbce0d6a2	-0.027446095
63	0xbcf8d7b0	-0.030376285
64	0x3bb260f5	0.005443687
65	0xbd279839	-0.040916655
66	0xbd0e5021	-0.034744386
67	0xbda0acfd	-0.07845495
68	0xbc28a3d0	-0.010292962
69	0xbdf271a3	-0.11838081
70	0xbd66f976	-0.05639025
71	0xbc2995d0	-0.0103506595
72	0x3c653340	0.01398927
73	0xbd5a6da9	-0.053327236
74	0x3bdcb63f	0.0067355926
75	0x3b34dcd7	0.002759745
76	0xbde8bc6c	-0.113640636
77	0xbd511348	-0.05104378
78	0xb97f53d9	-0.00024349931
79	0xbc2ff90c	-0.01074053
80	0xbc45ea7c	-0.012079831
81	0x3c9e265c	0.0193054
82	0xbd74f844	-0.059807077
83	0x3ce500a3	0.027954405
84	0xbd3fa8eb	-0.046791952
85	0x3c63a9ef	0.013895496
86	0xbca827f2	-0.02052686
87	0xbc9bc214	-0.019013442
88	0xbb594401	-0.0033152106
89	0xbc9ff7c9	-0.019527333
90	0xbca38321	-0.019959988
91	0xbc5e85cb	-0.013581703
92	0xbcaf9d97	-0.02143745
93	0xbd1837b5	-0.0371625
94	0xbc159434	-0.009129573
95	0xbb654d3b	-0.003498866
96	0xbd00d2c5	-0.031451005
97	0x3bd0ac02	0.006368161
98	0xbc4a2400	-0.012337685
99	0xbc698cc5	-0.0142547535
100	0xbc4c378e	-0.012464417
101	0xbb6518dd	-0.0034957447
102	0xbca0563c	-0.01957237
103	0x3c0cfff3	0.008605945
104	0xbbcd7ec5	-0.0062712156
105	0x3c886926	0.016651701
106	0xbade94a4	-0.0016981554
107	0xbbebf71f	-0.00720109
108	0xbc9fad91	-0.019491943
109	0x3b878a1c	0.004136337
110	0xbc06e498	-0.008233212
111	0xbd29c503	-0.04144765
112	0xbbaa743e	-0.0052018454
113	0xbb708eb4	-0.0036706151
114	0x3c7e6e24	0.015529189
115	0xbbc1867f	-0.0059059258
116	0xbc8ffeb5	-0.017577508
117	0xbbceb7b0	-0.0063085184
118	0xbbf0e40e	-0.007351405
119	0xbbcd5051	-0.006265678
120	0xbcd70c48	-0.026250973
121	0xbbcaf896	-0.0061941845
122	0xbc587562	-0.01321158
123	0x3c094beb	0.008379917
124	0x3bed3241	0.0072386567
125	0x3b673102	0.0035277014
126	0xbcbf1dc6	-0.023329627
127	0xbbb26d1b	-0.0054451353
128	0x3b64631f	0.003484912
129	0xbca959a0	-0.02067262
130	0x3b672521	0.0035269933
131	0xbc4558f9	-0.0120451385
132	0xbc987d40	-0.018614411
133	0xbced8a7e	-0.028996702
134	0x3bf74bed	0.007546893
135	0xbccbd873	-0.024883484
136	0xbca94997	-0.020664973
137	0x3c898458	0.01678674
138	0xbbbd5933	-0.0057784556
139	0xbbcc70da	-0.006239039
140	0xbc444dac	-0.011981409
141	0xbcc81818	-0.024425551
142	0x3c829b65	0.015943239
143	0x3c3fd100	0.011707544
144	0xbcc22cd6	-0.02370302
145	0x3c725514	0.014790792
146	0x3bfc322c	0.0076964106
147	0x3c561ab8	0.013067894
148	0xbc97a2bc	-0.018510215
149	0x3be7a81c	0.0070696007
150	0xbc926686	-0.017871153
151	0x3c0dfb47	0.008665866
152	0x3c223c44	0.009902064
153	0x3b05480c	0.0020337133
154	0xbc5f55fe	-0.013631342
155	0xbc7f028c	-0.015564572
156	0xbbfec5c5	-0.007775041
157	0xbb8a6ae8	-0.00422417
158	0xbc0d6b96	-0.0086316075
159	0xbcaa7131	-0.020805927
160	0x3b3d40aa	0.0028877654
161	0xbc9efc68	-0.019407466
162	0x3a6076c9	0.0008562622
163	0x3c3b81e1	0.01144454
164	0xbcd8b06c	-0.026451312
165	0xbce58568	-0.028017715
166	0xbce69105	-0.028145323
167	0x3c2e629b	0.010643627
168	0xbc87e2c2	-0.016587619
169	0xbcf4b276	-0.029870253
170	0xbc83b07b	-0.016075363
171	0xbcf7e027	-0.030258251
172	0xbd0d31a0	-0.034471154
173	0xbc71bfe2	-0.014755221
174	0xbc65acd0	-0.0140182525
175	0x3c5c120a	0.013432035
176	0x3c16832d	0.009186548
177	0xbce24f01	-0.027625563
178	0xbd6ecd43	-0.05830122
179	0xbc2ae358	-0.01043018
180	0xbdb333cd	-0.087501146
181	0x3b12e396	0.0022413484
182	0x3c1288ce	0.00894375
183	0xbc52dd58	-0.012870155
184	0x3c8da76b	0.017291745
185	0x3d034b7a	0.032054402
186	0x3c1a9909	0.0094359005
187	0xbd793721	-0.06084359
188	0x3d80eed3	0.06295552
189	0x3caa0bb0	0.020757526
190	0xbd877508	-0.06614119
191	0xbd236f06	-0.039900802
192	0xbad3d9e2	-0.0016162957
193	0xbd2e2b99	-0.042522047
194	0x3cbcdb5c	0.023053817
195	0xbc263ccc	-0.010146331
196	0xbc640591	-0.013917343
197	0xbddb3711	-0.107038625
198	0xbaf10cf4	-0.0018390701
199	0x3d806547	0.06269317
200	0xbd87dfa7	-0.06634455
201	0xbc94ba0a	-0.018155117
202	0xbda22017	-0.07916277
203	0xbbef849a	-0.0073095085
204	0x3b51209a	0.0031910301
205	0x3d86bf11	0.06579412
206	0xbd135098	-0.035965532
207	0x3c1c482e	0.009538693
208	0xbdc2f1ac	-0.095187515
209	0xbb5b6acf	-0.003348041
210	0x3c82d209	0.015969293
211	0xbd97e2c7	-0.07416301
212	0xbc48e4eb	-0.01226161
213	0xb9d21233	-0.0004006788
214	0xbd3b2d92	-0.045697756
215	0xbc3da13a	-0.011574084
216	0xbba4fb98	-0.005034875
217	0xbcc5d2f4	-0.024148442
218	0xbd062301	-0.032748226
219	0xbd2e032b	-0.04248349
220	0x3c443b6d	0.011977059
221	0xbdd46dd6	-0.10372512
222	0xbca2bae9	-0.019864516
223	0xbd638b6d	-0.05555289
224	0x3cfce7e6	0.030872297
225	0x3baa1547	0.0051905247
226	0xbd7e367e	-0.062063687
227	0xbdee8ef2	-0.116483584
228	0xbb39112f	-0.0028239002
229	0x3cffa1a7	0.031205012
230	0xbdaed7a8	-0.08537227
231	0x3c3da7fe	0.011575697
232	0x3dc80720	0.09766984
233	0xbcfcd592	-0.030863557
234	0xbc843d29	-0.016142445
235	0x3d18360d	0.03716092
236	0xbd82c742	-0.06385662
237	0xbd27a4f3	-0.040928792
238	0xbda5fcc8	-0.08104855
239	0xbc8f84eb	-0.017519435
240	0xbd758951	-0.05994541
241	0x3bd9b30f	0.00664366
242	0xbbedc40a	-0.0072560357
243	0x3c17695f	0.009241431
244	0x3d9b3c7c	0.07579896
245	0x3c6047d8	0.013689004
246	0xbbe4df42	-0.006984622
247	0x3ce4702f	0.027885525
248	0x3d06ac5e	0.032879226
249	0xbc741289	-0.014896997
250	0xbb1b7e7c	-0.0023726514
251	0x3cbae195	0.022812644
252	0x3d6a9a1d	0.05727588
253	0xbd61d7d5	-0.055137474
254	0xbce1ff73	-0.027587628
255	0xbd637625	-0.055532593
