ai_challenge/results/simulation_DoubleDQN_DuelingRecNN_2017-05-19T19:40:53.24/40004/model.npz (npz, 628202 bytes, 12 tensors)

model/hidden/input_layer/b f4 [256]
0	0xbc8da2cf	-0.017289547
1	0xbce55b9b	-0.027997782
2	0xbb95093c	-0.00454822
3	0x3b5a39c0	0.0033298582
4	0x3b8bd9a1	0.0042678867
5	0xbbb677e0	-0.0055684894
6	0xbc0fddae	-0.00878088
7	0xbc9f9a37	-0.019482715
8	0xbaf648b6	-0.001878998
9	0x3b43d9c7	0.0029884444
10	0x3c552735	0.013009836
11	0xbc799937	-0.015234283
12	0x3ba311ac	0.004976472
13	0xbb9ad25c	-0.004724784
14	0xbbc84312	-0.006111511
15	0xbad5a0c5	-0.0016298523
16	0xbc93cb5f	-0.01804131
17	0xbc3c98d2	-0.011511045
18	0xbbaaa877	-0.005208071
19	0xbcc80d94	-0.024420537
20	0xbc8f9681	-0.01752782
21	0xbba21bfb	-0.004947183
22	0x3ad3ff08	0.0016174028
23	0xbbf5e991	-0.00750465
24	0xbc133c3f	-0.008986532
25	0xbc78d8e2	-0.015188428
26	0x3ab584b8	0.0013848757
27	0xbc3ffee6	-0.011718487
28	0xbc124c29	-0.008929291
29	0xbc3778bc	-0.011198219
30	0xbc27b6f5	-0.010236491
31	0x3b01d21f	0.001980908
32	0x3b01d8a0	0.0019812956
33	0xbd00f0a1	-0.03147948
34	0xbaa533fa	-0.0012603991
35	0xbc2f23fe	-0.010689734
36	0xbd0910f1	-0.033463422
37	0xbbddc4b2	-0.0067678327
38	0xbca92d38	-0.020651445
39	0xbbca6ac1	-0.006177277
40	0xbc49780c	-0.012296688
41	0xbca526bb	-0.02016007
42	0x3b274edc	0.0025529182
43	0x3ae286a4	0.0017282558
44	0xbc84daf4	-0.016217686
45	0xbb03320e	-0.0020018849
46	0xbc1bf5fa	-0.009519095
47	0xbc4fab3a	-0.012675101
48	0xbcfb3a6a	-0.030667502
49	0xbb8cedee	-0.0043008244
50	0xbb855d54	-0.0040699635
51	0xbcb90dff	-0.022589682
52	0xba2f4ed6	-0.00066874677
53	0xbc06e376	-0.008232942
54	0x3b6777f7	0.0035319307
55	0xbc813635	-0.015772918
56	0xbc700fd1	-0.014652208
57	0xbc3d5245	-0.011555259
58	0xba9a0d14	-0.0011753165
59	0xbbc34558	-0.005959194
60	0xbbb18bd2	-0.005418279
61	0xbbfa9d81	-0.0076481705
62	0xbb62db10	-0.0034615435
63	0xbbdf331e	-0.0068115136
64	0xbc2a9d35	-0.010413458
65	0xbc0ccbaa	-0.008593479
66	0xbc98b8a9	-0.01864274
67	0xbafc9f10	-0.0019273479
68	0xbc656a06	-0.014002329
69	0xbb74d0ef	-0.003735598
70	0xbcd43d32	-0.025908086
71	0xbcaeec9b	-0.021353057
72	0xbb815dd1	-0.0039479514
73	0xbc621488	-0.01379884
74	0xbcc37201	-0.023858072
75	0xbc88c4b2	-0.016695354
76	0xbcb765f2	-0.022387479
77	0xbc1de5c3	-0.009637299
78	0xbc105d47	-0.008811302
79	0xbc5f2ec7	-0.013621992
80	0xbcf94903	-0.030430323
81	0xbca07280	-0.019585848
82	0xbc1ef59d	-0.009702113
83	0xbca1750e	-0.019709136
84	0xbbfdbf86	-0.0077437786
85	0xbce8d4fc	-0.028421871
86	0xbcd98b22	-0.026555602
87	0xbc8a9239	-0.016915428
88	0xbbbd2e4d	-0.0057733417
89	0xbc80cad8	-0.015721723
90	0xbbbee4c1	-0.0058256094
91	0x3b8a3b5c	0.004218502
92	0xbc6a7f42	-0.014312567
93	0xbc815dae	-0.01579174
94	0xbd07c26a	-0.033144392
95	0xbc82b52c	-0.01595553
96	0x3a47a4cc	0.0007615804
97	0x3be691cc	0.0070364233
98	0x3b054fe2	0.0020341803
99	0x3bfb514e	0.0076696044
100	0xbbf060f7	-0.007335778
101	0xbca7e41f	-0.020494519
102	0xbb5615f9	-0.0032666905
103	0xba7cb82d	-0.00096404814
104	0xbb992672	-0.0046737725
105	0xbc14da6c	-0.009085279
106	0xbbdb1e74	-0.00668698
107	0xbb127e1e	-0.0022353004
108	0xbb96aa52	-0.0045979405
109	0xbce681cc	-0.028138064
110	0xbce8b4a3	-0.028406447
111	0xbc72bd25	-0.014815603
112	0xba6f7721	-0.0009134878
113	0xbb58598f	-0.0033012365
114	0xbc3eca8a	-0.011644969
115	0x3b4ffe48	0.0031737257
116	0xbccc8624	-0.024966307
117	0xbc97ff4f	-0.018554358
118	0xbc87b023	-0.01656348
119	0xbbf78636	-0.007553841
120	0xbcabde22	-0.020979945
121	0xbb7f3ac0	-0.003894493
122	0xbb8bb2d1	-0.00426326
123	0xbcc71a52	-0.024304543
124	0xbc01ec6d	-0.007929903
125	0xbc3cb5cc	-0.011517953
126	0xbcd3a5f3	-0.025835967
127	0xbc6c48c4	-0.014421646
128	0xbc411c9a	-0.011786604
129	0xbc899c84	-0.016798265
130	0xbb6cc2bf	-0.003612682
131	0xbac18312	-0.0014763793
132	0x3ba17a91	0.004927941
133	0xbbff4860	-0.00779061
134	0xbc2c5434	-0.010518122
135	0xbacda418	-0.0015689163
136	0x390eabc0	0.00013606157
137	0xbc839ff9	-0.016067492
138	0xbc41b11e	-0.011822013
139	0xbc0c0df7	-0.008548251
140	0xbc84bdb1	-0.016203733
141	0xbc4b1b5f	-0.0123966625
142	0xbc885eaa	-0.016646702
143	0xbc4db9e7	-0.01255653
144	0x3afc1432	0.0019232093
145	0x3c4ad503	0.0123798875
146	0xbbbae63b	-0.005703715
147	0xbcbcbdb7	-0.023039682
148	0xbc75f583	-0.015012148
149	0xbc08dea1	-0.00835386
150	0xbadd9dd2	-0.0016907996
151	0xbc9e98ea	-0.019360024
152	0xbc084426	-0.008317029
153	0xbbdbe65a	-0.0067108097
154	0xbcd2a180	-0.025711775
155	0xba729db0	-0.00092550647
156	0xbc7b218f	-0.015327825
157	0xbba5fc1f	-0.0050654556
158	0xbb9dc93a	-0.004815248
159	0xbc69d026	-0.014270818
160	0x3ae7d5e7	0.0017687649
161	0xbc4d2cdf	-0.012522905
162	0xbb07b2db	-0.0020705971
163	0xbc0113c6	-0.0078782495
164	0xbc72b9e6	-0.014814829
165	0xbc785e75	-0.015159239
166	0xbd219ec2	-0.039458044
167	0x3ae1e2c3	0.0017233718
168	0xbc5381de	-0.012909381
169	0x3acaf5cf	0.0015484634
170	0xbb74b12a	-0.0037337043
171	0xbc9a1d6f	-0.018812863
172	0xbc509a37	-0.01273208
173	0xbc4894b4	-0.012242485
174	0x3a2ad95e	0.00065173756
175	0xbbb67209	-0.0055677933
176	0xbca3c8c3	-0.019993192
177	0xbd1ac729	-0.03778759
178	0xbab3cec4	-0.0013718237
179	0xbcd01c72	-0.025404189
180	0xbc288b9a	-0.01028719
181	0xbb89a0a2	-0.004200057
182	0x3ab90878	0.0014116904
183	0xbc6e33b6	-0.014538696
184	0xba4f2996	-0.000790262
185	0xbc302211	-0.01075031
186	0xbc992424	-0.018693991
187	0xbd0343b1	-0.032046977
188	0x3bd9b8b0	0.006644331
189	0xbc3681ae	-0.0111393165
190	0xba842ab0	-0.0010083523
191	0xbc926030	-0.017868131
192	0xbc7cd93d	-0.015432653
193	0xbcbef610	-0.023310691
194	0xb90eb6b8	-0.00013610243
195	0xbb9b4e7c	-0.0047395807
196	0xbca560e6	-0.020187806
197	0xbc93febd	-0.018065805
198	0xbc5c997c	-0.013464328
199	0xbc189344	-0.009312455
200	0xbc6e3b25	-0.014540468
201	0xbc468590	-0.012116805
202	0x3aad0526	0.0013200387
203	0xbbd5524b	-0.006510054
204	0xbcce0e42	-0.025153283
205	0xbc584478	-0.013199918
206	0xbbcb05bf	-0.0061957533
207	0xbcb2c4bc	-0.021822326
208	0xbbd6e696	-0.0065582497
209	0x3b4ef55a	0.0031579346
210	0xbc824e28	-0.015906408
211	0x3a8c18bd	0.0010688525
212	0xbc5776a5	-0.013150846
213	0xbc8a69f6	-0.01689623
214	0xbcdca85f	-0.026935754
215	0xbb9149cc	-0.004433846
216	0xbce37799	-0.02776699
217	0xbca07bce	-0.019590285
218	0xbc866af3	-0.01640842
219	0xbc3e50b5	-0.011615922
220	0xbc55ca8b	-0.013048778
221	0x3b489dcb	0.003061163
222	0xbcbee1da	-0.023301054
223	0xbc1edc3f	-0.009696065
224	0xbc1ab4e4	-0.009442542
225	0x3c942b2e	0.018086996
226	0xbc68712e	-0.01418714
227	0xbc0a08c7	-0.008424944
228	0xbbee1ea5	-0.0072668367
229	0xbbd42811	-0.006474503
230	0xbb8d9643	-0.004320891
231	0x3bd41d55	0.006473223
232	0xbc6efd8a	-0.014586816
233	0x3c8b98f6	0.01704071
234	0xbbb9d231	-0.0056708087
235	0x3a657374	0.00087528606
236	0xbb3e3c3d	-0.0029027604
237	0x3a68a37d	0.00088744593
238	0xbcacc09d	-0.021087939
239	0xbca6756e	-0.020319667
240	0xbbd9095e	-0.006623431
241	0xbc6db125	-0.014507567
242	0xbb81ca81	-0.003960908
243	0xbc69759d	-0.014249233
244	0xbc1578b4	-0.009123016
245	0xbc95592b	-0.018230995
246	0xbc5d9501	-0.013524295
247	0xbc8b68b0	-0.017017692
248	0xbcf328a4	-0.029682465
249	0xbb9270b1	-0.0044690003
250	0xbc4d786e	-0.01254092
251	0xbb9a3f1a	-0.0047072293
252	0x3c1ca5a9	0.009560981
253	0xbca61a43	-0.020276194
254	0xbd0ecfc6	-0.034866117
255	0xbc84ccd1	-0.016210945

model/hidden/output_layer/b f4 [256]
0	0x3c42ab8c	0.01188172
1	0xbc27d23f	-0.010242998
2	0x3c1dcb33	0.009630966
3	0xbbb702ab	-0.005585035
4	0xbb8e63ec	-0.0043454077
5	0x3bee7c02	0.0072779665
6	0x3c626155	0.013817151
7	0x3c146844	0.009058062
8	0xbbe6526c	-0.0070288684
9	0x3b7f7a00	0.003898263
10	0xbc30ed30	-0.010798737
11	0x3c820110	0.015869647
12	0x3abe8b98	0.0014537452
13	0xba2a9502	-0.0006507189
14	0x3c1d030f	0.009583249
15	0x3c3d106f	0.011539563
16	0xbc88cf23	-0.016700333
17	0xb9bcd230	-0.00036014756
18	0xbbe807a6	-0.00708099
19	0x3c545621	0.012959988
20	0xbc21d8b3	-0.009878325
21	0xbc4f7a59	-0.012663447
22	0xbb886be1	-0.004163251
23	0x3bf4d963	0.0074722036
24	0xbc53a61d	-0.012918022
25	0x3c8341f7	0.016022665
26	0xbbe20b4b	-0.006898319
27	0xbb8830df	-0.0041562165
28	0xbc00b31f	-0.007855206
29	0x3c2c4b20	0.010515958
30	0xbc542e1b	-0.0129504455
31	0xba364780	-0.00069534034
32	0xbb335e5c	-0.0027369475
33	0xbc4d1673	-0.012517559
34	0x3bec00b4	0.0072022323
35	0xbb3fda11	-0.0029274265
36	0xbc0c8b39	-0.008578115
37	0x3ba5c9e0	0.0050594658
38	0x3c28649c	0.010277893
39	0xbb888a06	-0.0041668443
40	0x3c38dbfe	0.011282919
41	0x3c9a07c2	0.018802527
42	0xbc02df25	-0.007987772
43	0x3c2e4c28	0.010638274
44	0x3cd18061	0.025573911
45	0xbbef792b	-0.0073081455
46	0xbc176332	-0.009239959
47	0x3c991c4a	0.018690247
48	0xbbdbfc03	-0.0067133917
49	0xbb9151dc	-0.004434807
50	0xbc272d38	-0.010203652
51	0xbbc507b5	-0.0060128816
52	0xbba72ffc	-0.0051021557
53	0x3c6992d8	0.014256202
54	0xbc0e1edc	-0.00867435
55	0x3a1f35c9	0.0006073383
56	0xbbd51e27	-0.0065038386
57	0xbb2be18f	-0.0026226973
58	0x3c3110b3	0.010807204
59	0x3b9bedfd	0.004758595
60	0xbc435428	-0.01192192
61	0x3c4b3ab0	0.012404129
62	0x3bc4f532	0.006010675
63	0xbb9dde38	-0.0048177503
64	0x3c124cf7	0.008929483
65	0x3b94b392	0.004538008
66	0xbc3317aa	-0.010930935
67	0xbc069892	-0.008215087
68	0xbc0a8746	-0.008455103
69	0xbbbe7c1e	-0.0058131358
70	0xbc212c14	-0.009837169
71	0x3c50957b	0.012730951
72	0x3a8c9d2a	0.0010727991
73	0xbc569bc2	-0.013098659
74	0xbc624e5c	-0.013812628
75	0xbb5e6852	-0.0033936691
76	0xba251c5c	-0.00062984764
77	0x3bc3fcba	0.005981055
78	0x3ab63c3c	0.0013903449
79	0x3c96da9b	0.018414786
80	0xbc914aed	-0.017735923
81	0x3be7f4b0	0.0070787296
82	0xbb2c32e0	-0.002627544
83	0xbbb383e8	-0.005478371
84	0x3c607ab2	0.013701128
85	0xbc5643ca	-0.013077686
86	0xbb75429d	-0.0037423738
87	0x3c1d1410	0.009587303
88	0xbbeb7ec2	-0.0071867416
89	0xbc2742a5	-0.01020876
90	0x3cb5757f	0.022150753
91	0x3c50f31c	0.012753274
92	0x3c64561d	0.013936547
93	0x3bae6307	0.0053218636
94	0xbbf84e24	-0.0075776745
95	0x3c0dfc4a	0.008666107
96	0xbc4b5b0e	-0.012411846
97	0xbc2d8c67	-0.010592557
98	0x3c6230f7	0.013805619
99	0xbac6a1f2	-0.0015154465
100	0x3c16f495	0.009213586
101	0xbbd20fb6	-0.0064105643
102	0xbc07d85f	-0.008291333
103	0x3c4e98d2	0.012609677
104	0x3a981afa	0.0011604719
105	0x3c00ff95	0.0078734355
106	0xbc417921	-0.011808665
107	0xbb107fb9	-0.0022048785
108	0x3bbe597e	0.005809008
109	0xbb04a8f9	-0.0020242317
110	0x3c2680a5	0.010162507
111	0x3c91f3b4	0.017816402
112	0xbc71d1c6	-0.014759487
113	0x3c997b2b	0.018735489
114	0xbc245d17	-0.01003196
115	0xbc180ab8	-0.009279899
116	0xbc3767de	-0.011194197
117	0xbbace93c	-0.005276827
118	0xbbb1f2b4	-0.005430544
119	0x3bec3a8d	0.0072091282
120	0x3c3ba92b	0.011453907
121	0x3bb93696	0.005652259
122	0x3c014b80	0.007891536
123	0xbbd6c226	-0.006553906
124	0xba4f3ace	-0.0007905186
125	0x3c1a4731	0.009416387
126	0x3c156aa7	0.009119666
127	0x3a6be7ef	0.00089990994
128	0x3b3dca73	0.002895978
129	0xbc0c5f67	-0.008567668
130	0x3c654eff	0.013995885
131	0xbbc38834	-0.0059671644
132	0x3c418449	0.011811324
133	0x3bb5b41b	0.005545152
134	0x3c2fa9f4	0.010721672
135	0xbc434e85	-0.011920576
136	0xbc42e31d	-0.011894968
137	0x3be94016	0.0071182353
138	0x3c8d8d83	0.017279392
139	0x3b0e445a	0.0021708221
140	0x3c188da5	0.009311114
141	0xbc41882b	-0.01181225
142	0x3c544532	0.012955951
143	0x39ea749c	0.0004471884
144	0xbc2086ea	-0.009797791
145	0x3bbbd5e8	0.0057322867
146	0x3c0dc23c	0.008652266
147	0xbc2475e9	-0.010037878
148	0x3c562f20	0.013072759
149	0xbbe560d0	-0.0070000663
150	0xbc6d7950	-0.014494255
151	0xbaa67b1c	-0.0012701484
152	0xbc3b6bfc	-0.01143932
153	0xbc5070d2	-0.012722211
154	0xbb3ec2d4	-0.0029107826
155	0x3b453fed	0.0030097917
156	0xbc23ea57	-0.010004601
157	0x3ac832e8	0.001527396
158	0x3bd74fc5	0.0065707886
159	0x3978b320	0.00023717852
160	0xbb634bdc	-0.0034682667
161	0x3c0be883	0.008539322
162	0xb9cb6a65	-0.00038798447
163	0x3c3e5735	0.011617471
164	0xbc1fd769	-0.009755948
165	0xbc522cbe	-0.01282805
166	0xbc386397	-0.011254213
167	0xbc1bc072	-0.009506332
168	0xbbd1b53b	-0.006399778
169	0x3ceae618	0.02867417
170	0x3c78af26	0.015178477
171	0xbc4de692	-0.012567179
172	0x3b5fdbd1	0.003415812
173	0x3c3acf67	0.011401988
174	0x3c5cf81c	0.013486888
175	0xbba84117	-0.0051347124
176	0x3baca83f	0.00526908
177	0x3c484ef1	0.012225852
178	0x3be6c2f5	0.0070422837
179	0x3a1f4dda	0.00060769694
180	0x3c019154	0.007908184
181	0x3c04aeb7	0.008098296
182	0xbc355579	-0.011067742
183	0xbbc25a51	-0.0059311767
184	0x3c4f1023	0.012638125
185	0xbb48d49c	-0.0030644303
186	0x3b9f9a72	0.0048707062
187	0xbb1ea29f	-0.0024205816
188	0xbbd2ef4f	-0.006437219
189	0xbc37f59d	-0.011227992
190	0x3bf8bf26	0.007591146
191	0xbc5d5ebb	-0.013511355
192	0x3a959836	0.001141316
193	0x3c2b2c99	0.010447645
194	0x3b49cb05	0.0030791175
195	0xbd18b3d0	-0.037280858
196	0x3bfed197	0.00777645
197	0xba8c1cee	-0.0010689774
198	0x3bc618b0	0.0060454234
199	0xbc45f8ef	-0.012083276
200	0x3b7d0393	0.0038606867
201	0x3c053830	0.008131072
202	0x398fd503	0.00027433792
203	0xbbe96a51	-0.0071232696
204	0x3cd93272	0.026513312
205	0xbc70d4da	-0.014699185
206	0x3b84f628	0.0040576644
207	0xbbbc32c4	-0.0057433564
208	0x3983dd7b	0.00025151283
209	0x3afac802	0.0019133093
210	0xb9602be8	-0.00021378661
211	0xbb5ef794	-0.003402208
212	0xbc5b2fe8	-0.013378121
213	0xbc3850a6	-0.011249697
214	0x3cb93f22	0.022613112
215	0x3b5e3acd	0.003390956
216	0x3c34dfe6	0.01103971
217	0xbc147c28	-0.009062804
218	0xbc16f7f9	-0.009214395
219	0x3c01547c	0.007893678
220	0xbb761f96	-0.0037555448
221	0x3c3579f5	0.01107644
222	0x3c45e008	0.012077339
223	0xbc4e7dee	-0.012603266
224	0x3c479d64	0.012183521
225	0x3ae425bb	0.0017406264
226	0x3b00c2bf	0.0019647328
227	0xbbcc02c1	-0.006225914
228	0xbc0c5329	-0.008564749
229	0x3bc1ef22	0.0059183994
230	0xbc317d7a	-0.010833139
231	0x3c4e42a3	0.01258913
232	0x3c20858a	0.009797463
233	0xba4fa997	-0.0007921694
234	0x3cfea4b3	0.031084394
235	0xbc35a1b4	-0.011085916
236	0xbb85554d	-0.0040690065
237	0xbb3f0fba	-0.002915366
238	0x3c3a44e0	0.01136896
239	0xba946458	-0.0011321409
240	0x3c4c5b32	0.0124729145
241	0xb8ab00ee	-8.1540886e-05
242	0x3c048e4d	0.008090568
243	0xbb8c267c	-0.0042770486
244	0x3b035aa9	0.0020043051
245	0x3c398232	0.011322545
246	0x3a13dc5c	0.0005640441
247	0x3b9ac5e5	0.004723298
248	0x3c8637c3	0.016384011
249	0xbc3df818	-0.011594795
250	0x3b8cb39b	0.0042938716
251	0x3c1f398c	0.00971831
252	0x3c27bfd6	0.010238608
253	0x3b54382d	0.0032382116
254	0xbb88bfc4	-0.004173251
255	0x3c327382	0.010891797

model/a_stream/W f4 [3, 256]
0	0xbcbe12b9	-0.023202287
1	0x3c5911cb	0.013248871
2	0xbd78b7b6	-0.060722075
3	0x3d1c2aa0	0.038126588
4	0xbcd332e8	-0.02578111
5	0xbcc6dd70	-0.024275512
6	0x3d849417	0.064735584
7	0xbc421370	-0.011845455
8	0x3d6140b9	0.054993365
9	0x3c699a25	0.014257942
10	0x3c9312ac	0.01795324
11	0xbd170366	-0.036868475
12	0xbc8a7023	-0.016899174
13	0xbd8ea47b	-0.06964966
14	0xbc442d44	-0.011973683
15	0xbad64dae	-0.0016350055
16	0x3d2a2deb	0.041547697
17	0xbcf75257	-0.03019063
18	0x3cbf2e5b	0.023337534
19	0xbc081d79	-0.008307808
20	0x3d203d80	0.03912115
21	0x3b332026	0.0027332394
22	0x3cb5e64e	0.022204544
23	0xbc9969f1	-0.018727275
24	0x3d30b641	0.04314256
25	0xbd7dc6a2	-0.06195701
26	0x3cb31aa4	0.02186329
27	0xbd4145c6	-0.04718568
28	0x3d93a728	0.07209617
29	0xbc869b0c	-0.016431354
30	0x3c4f15b8	0.0126394555
31	0xbc6efd7b	-0.014586802
32	0xbd43caa9	-0.047800694
33	0x3d0e29f9	0.034707997
34	0xbc7db120	-0.015484124
35	0xbd469188	-0.048478633
36	0x3c9ea608	0.01936628
37	0xbd8b31a2	-0.06796576
38	0xbab28d86	-0.00136225
39	0xbd9e66dd	-0.07734463
40	0xbc3d85c0	-0.011567533
41	0x3d714668	0.058905035
42	0x3d538c81	0.051647667
43	0xbb05e91c	-0.0020433133
44	0x3d8b39f4	0.06798163
45	0x3bfb5e09	0.007671122
46	0x3c7a7043	0.015285554
47	0x3d731832	0.059349246
48	0x3d39c445	0.045353193
49	0xbd02b0b8	-0.031906813
50	0x3b70f863	0.0036769144
51	0x3cfca933	0.0308424
52	0x3b27f6b3	0.0025629222
53	0x3d6df98a	0.058099307
54	0xbd49b0a4	-0.049240723
55	0x3d44e7cd	0.048072625
56	0x3d162a11	0.03666121
57	0x3d03eac1	0.0322063
58	0x3da9a453	0.082832955
59	0xbd23f1b1	-0.040025417
60	0xbd51c2b0	-0.05121106
61	0xbc2ef82d	-0.010679287
62	0xbc9a558f	-0.018839626
63	0xbc9d8e01	-0.019232752
64	0xbc89ebec	-0.01683613
65	0xbcdcab32	-0.026937101
66	0x3b0b991c	0.0021300977
67	0xbc0100ac	-0.007873695
68	0xbbd62c47	-0.00653604
69	0x3cd10e39	0.025519477
70	0x3c38e684	0.011285428
71	0xbb54709c	-0.0032415753
72	0x3d180b01	0.03711987
73	0x3b94cc41	0.0045409505
74	0xbd80f99c	-0.06297609
75	0xbd8ebe9a	-0.06969948
76	0x3cd2239e	0.02565175
77	0xbd84c67b	-0.0648317
78	0xbd79a0da	-0.060944416
79	0x3d75f251	0.060045544
80	0x3d1d2e5d	0.038374294
81	0xbc07b3bb	-0.008282597
82	0xbd7ad5b2	-0.061238952
83	0xbd03c595	-0.03217085
84	0x3d97e5bb	0.074168645
85	0x3b0dea58	0.0021654572
86	0x3d692d34	0.056927875
87	0x3cc66955	0.024220148
88	0x3a1ff841	0.00061023614
89	0x3c3a011f	0.011352806
90	0x3d96165c	0.073284835
91	0x3b881084	0.0041523594
92	0xbb7e6079	-0.0038814826
93	0xbd91aea5	-0.07113389
94	0x3b8563d5	0.004070739
95	0xbc12399c	-0.008924868
96	0x3be76e9a	0.0070627453
97	0x3d6d04c1	0.05786586
98	0xbb306d7e	-0.0026920731
99	0xbc948c1a	-0.018133212
100	0xbce9070e	-0.028445747
101	0xbd630e2f	-0.05543345
102	0x3c99d574	0.01877854
103	0x3d8fb99f	0.07017826
104	0xbd341f47	-0.04397514
105	0xbcf8fe7e	-0.030394789
106	0x3be44564	0.00696628
107	0x3d6f6c87	0.05845311
108	0xbd852022	-0.065002695
109	0x3d1f0986	0.03882744
110	0xbcd8e48c	-0.026476167
111	0x3d8d57c8	0.069015086
112	0x3c01ccb1	0.007922337
113	0x3d90fa2e	0.07078968
114	0xbbd76e4f	-0.006574429
115	0x3b72f575	0.0037072573
116	0x3c8720cc	0.016495131
117	0x3c08642b	0.008324663
118	0xbd9bb0f6	-0.07602112
119	0xbd1eaad7	-0.038737144
120	0xbd2e1a22	-0.04250539
121	0xbd8309bb	-0.0639834
122	0xbce1de37	-0.02757178
123	0x3d058b84	0.032603756
124	0x3d04df1d	0.03243934
125	0x3c4851f2	0.012226569
126	0x3c1c650c	0.009545576
127	0x3d3ce828	0.04611984
128	0xbd8cc95e	-0.06874345
129	0x3c84584c	0.016155384
130	0xbd871067	-0.065949254
131	0xbca036f4	-0.019557454
132	0xbbfd8764	-0.007737087
133	0xbcd9f7cc	-0.026607417
134	0x3d25f528	0.040517002
135	0xbb354e3e	-0.0027665044
136	0x3a7e4345	0.0009699355
137	0x3ca36804	0.01994706
138	0x3c096e92	0.008388178
139	0xbbfc134c	-0.00769273
140	0x3bb15f22	0.005412952
141	0x3c42e75f	0.0118959835
142	0xbd53ca15	-0.051706392
143	0x3da0cdc2	0.07851745
144	0x3d26e223	0.040743005
145	0xbc876a11	-0.016530069
146	0xbc702535	-0.014657308
147	0x3c54bb0f	0.012984051
148	0x3d516988	0.051126033
149	0x3c42ed62	0.011897417
150	0x3b8a7c40	0.0042262375
151	0xbd20d0d4	-0.039261654
152	0xbd9d667f	-0.07685565
153	0x3c6e6df5	0.014552583
154	0x3cf51634	0.029917814
155	0xbd68a745	-0.056800146
156	0x3c81ce2f	0.015845386
157	0x3d1a6e61	0.03770292
158	0x3d4341e5	0.047670264
159	0xbd213cd6	-0.03936466
160	0x3d77f17e	0.06053304
161	0xbcb2eb1b	-0.021840623
162	0xbca40fd3	-0.020027077
163	0x3d5ae66c	0.053442404
164	0x3ca0f85a	0.019649673
165	0x3ca1d395	0.01975421
166	0x3ca33fc2	0.019927863
167	0xbd5f5926	-0.054528378
168	0xbce3ef03	-0.02782393
169	0x3d86c2b2	0.06580104
170	0x3c2153b0	0.009846613
171	0x3d2e3678	0.042532414
172	0x3d848e14	0.06472412
173	0x38625ab3	5.396707e-05
174	0xbceb65c0	-0.028735042
175	0xbd0415df	-0.03224742
176	0x3d3a80c9	0.045532975
177	0xbd3ddc92	-0.04635293
178	0xbd39b755	-0.045340855
179	0xbd4f66f6	-0.0506353
180	0xbcc4bdb0	-0.024016231
181	0xbd35b14c	-0.044358537
182	0x3b8ca96d	0.004292658
183	0x3c9b0671	0.01892397
184	0x3bed0ba6	0.0072340546
185	0xbc6510c2	-0.013981046
186	0xbc59e790	-0.013299838
187	0xbd671437	-0.056415763
188	0x3ccb8f08	0.024848476
189	0xbc392a6d	-0.011301619
190	0xbc922498	-0.017839715
191	0x3c86d4f8	0.016458973
192	0x3d42c833	0.047554206
193	0x3d882708	0.066480696
194	0x3d119729	0.03554455
195	0xbda0d5ab	-0.07853254
196	0xbcd41187	-0.025887264
197	0x3c911382	0.017709497
198	0xbd03b8c9	-0.032158647
199	0x3ae839ae	0.0017717385
200	0xbd96421d	-0.07336829
201	0xbc30642b	-0.010766069
202	0xbd1f7055	-0.038925488
203	0x3d08dbc2	0.033412702
204	0x3da93a22	0.08263041
205	0x3990c607	0.00027613362
206	0xbce91965	-0.028454492
207	0x3d27eaea	0.040995516
208	0x3d0eb87f	0.034843918
209	0xbccfee56	-0.025382202
210	0x3d777f6c	0.060424253
211	0xbd906410	-0.070503354
212	0x3b2f45fd	0.0026744597
213	0xba58765c	-0.0008257383
214	0x3d885f25	0.066587724
215	0xbc85aa94	-0.01631669
216	0xba833a7e	-0.0010011939
217	0xbd9bbecf	-0.07604753
218	0xbc0d97c5	-0.008642142
219	0xbc720d27	-0.014773644
220	0x3d181dba	0.037137724
221	0xbbcdd0b6	-0.006280984
222	0xbb269b35	-0.00254221
223	0x3d9a299f	0.0752747
224	0xbbb0408d	-0.005378789
225	0xbd567509	-0.052357707
226	0x3cb35948	0.021893159
227	0x3c92d64b	0.017924448
228	0xbb09ca92	-0.0021025282
229	0xbc546000	-0.012962341
230	0x3bb4a219	0.0055124876
231	0xbb86751c	-0.004103316
232	0xbb8146ec	-0.003945222
233	0x3d82dc7f	0.063897125
234	0x3d9b83ef	0.07593524
235	0xb92a2707	-0.00016227002
236	0x3cd2446c	0.025667392
237	0x3c2d0ec5	0.010562603
238	0xbc63df96	-0.0139082875
239	0x3cee4cd3	0.029089367
240	0xbbe79bb4	-0.007068122
241	0xbcbca609	-0.02302839
242	0xbd596db5	-0.05308314
243	0x3cdf88a9	0.027286844
244	0xbd894b14	-0.06703773
245	0xbc035403	-0.008015635
246	0x3d613885	0.05498554
247	0x3d6504dc	0.055912837
248	0xbd1f2fd0	-0.038863957
249	0x3b12a8fb	0.0022378552
250	0xbcd863da	-0.0264148
251	0x3d70822a	0.058717884
252	0xbd146f59	-0.036239002
253	0x3ceb5f52	0.028731976
254	0xbd74bfed	-0.059753347
255	0x3d84667a	0.06464858

model/hidden/mid_rec_layer/upward/W f4 [80, 86]
0	0xbb79a3bb	-0.0038091976
1	0x3c2598f6	0.0101072695
2	0x3c8da27d	0.017289395
3	0xbba3fe06	-0.005004647
4	0x3a6033df	0.0008552651
5	0xbb8d76df	-0.004317149
6	0x3c2f5650	0.010701731
7	0x3be595ee	0.0070063984
8	0xbcb98cde	-0.022650179
9	0x3c23d70a	0.01
10	0x3bc05e71	0.0058706333
11	0x3c23d70a	0.01
12	0x3caaf95d	0.020870859
13	0x3ca6d852	0.020366821
14	0x3c23d70a	0.01
15	0xbb8423de	-0.004032596
16	0x3cd9483b	0.0265237
17	0x3c23d70a	0.01
18	0x3bec2404	0.007206442
19	0x3d627118	0.055283636
20	0x3c23d70a	0.01
21	0x3aa96631	0.0012924132
22	0x3cb45d23	0.022017067
23	0x3c23d70a	0.01
24	0xbd153400	-0.036426544
25	0x3cb110f0	0.021614522
26	0x3c23d70a	0.01
27	0x3caaf1a5	0.020867178
28	0x3cc5a709	0.0241275
29	0x3c23d70a	0.01
30	0x3be80cca	0.0070816027
31	0x3d0f7c6f	0.03503078
32	0x3c23d70a	0.01
33	0xbc573a65	-0.013136481
34	0x3cbd6b07	0.023122324
35	0x3c23d70a	0.01
36	0x39a8ef4c	0.00032221747
37	0x3cfd7e6c	0.030944072
38	0x3c23d70a	0.01
39	0xbd28bbff	-0.041194912
40	0x3ce2df7e	0.02769446
41	0x3c23d70a	0.01
42	0xbcc871c8	-0.024468318
43	0x3cf05752	0.029338513
44	0x3c23d70a	0.01
45	0xbc18b34f	-0.009320094
46	0x3bc4f859	0.0060110507
47	0x3d0c8c40	0.03431344
48	0x3b740e3d	0.0037239932
49	0x3b770c77	0.0037696639
50	0x3b95b2f1	0.0045684506
51	0x3c00b977	0.007856718
52	0x3ced029d	0.02893191
53	0x3ce57be5	0.02801318
54	0x3aa4b42d	0.0012565904
55	0xbbb7bad8	-0.0056069903
56	0x3c23d70a	0.01
57	0x3c7e0a82	0.015505435
58	0x3d1119ce	0.035425
59	0x3c23d70a	0.01
60	0x3b813c15	0.00394393
61	0x3d06150b	0.032734912
62	0x3bba69e6	0.0056888936
63	0x3c68b919	0.014204287
64	0xbbe0351b	-0.006842268
65	0x3cdf3216	0.027245563
66	0x3d13fd56	0.03613027
67	0x3cd7bd1d	0.026335293
68	0x3b26a7a0	0.0025429502
69	0xbba075eb	-0.0048968694
70	0xbcc40498	-0.023927972
71	0x3c23d70a	0.01
72	0xbd1324a7	-0.035923626
73	0x3c4caee9	0.012492874
74	0x3c23d70a	0.01
75	0x3b47418e	0.0030404064
76	0x3ce2b104	0.027672298
77	0x3cc338ba	0.02383076
78	0x3c0f40e5	0.008743499
79	0xbd929a8e	-0.07158385
80	0xbc4c0eda	-0.012454713
81	0x3c06137e	0.008183358
82	0xbd2c89db	-0.042123657
83	0xbcb0e7bb	-0.021594873
84	0x3d07d566	0.033162497
85	0xbd4d44d1	-0.050114457
86	0xbb65cf56	-0.0035066209
87	0xbcc95d59	-0.024580644
88	0xbd3fdacf	-0.04683953
89	0x3cc023b7	0.02345453
90	0xbc876ee7	-0.016532375
91	0x3c9bbefb	0.019011965
92	0xbcf6400c	-0.030059837
93	0xbc3551ec	-0.011066895
94	0xbd7c56e7	-0.061606314
95	0x3c23d70a	0.01
96	0xbd5dddf0	-0.054166734
97	0x3c23d70a	0.01
98	0xbcf994fe	-0.030466553
99	0xbc88ce3f	-0.016699908
100	0x3c23d70a	0.01
101	0x3aeaeb52	0.0017922914
102	0xbc9f976e	-0.019481387
103	0x3c23d70a	0.01
104	0xbc76c51f	-0.015061646
105	0x3bca2eca	0.0061701285
106	0x3c23d70a	0.01
107	0x3c998b07	0.018743051
108	0xbce5b583	-0.028040653
109	0x3c23d70a	0.01
110	0x3de166e8	0.11005956
111	0xbcde37f5	-0.027126292
112	0x3c23d70a	0.01
113	0xbbb822a9	-0.005619366
114	0xbd25aea8	-0.04044977
115	0x3c23d70a	0.01
116	0x3afcf3f9	0.0019298784
117	0xbce17523	-0.027521675
118	0x3c23d70a	0.01
119	0x3ca348d0	0.01993218
120	0xbd4fd090	-0.05073601
121	0x3c23d70a	0.01
122	0x3c01a10c	0.007911932
123	0xbc1f4cd3	-0.009722906
124	0x3c23d70a	0.01
125	0x3dd1ad83	0.10238173
126	0xbca4d59d	-0.02012139
127	0x3c23d70a	0.01
128	0x3d21d735	0.039511878
129	0xbc368a7d	-0.011141417
130	0x3c23d70a	0.01
131	0x3cc842cf	0.02444592
132	0xbd199473	-0.037495088
133	0xbd162b4b	-0.03666238
134	0x3ccaffc5	0.024780164
135	0xbd89bb49	-0.06725175
136	0xbc9fb428	-0.019495085
137	0xbd4bbbb9	-0.049739573
138	0xbd1745ff	-0.036931988
139	0xbd1efd7a	-0.038815953
140	0x3cf760b8	0.030197486
141	0xbcdac5a6	-0.026705574
142	0x3c23d70a	0.01
143	0xbc82ce45	-0.015967498
144	0xbc9841b7	-0.018586023
145	0x3c23d70a	0.01
146	0xbc0ae866	-0.00847826
147	0xbaa0daf2	-0.0012272282
148	0x3ce27855	0.02764527
149	0xbd72081f	-0.059089776
150	0xbd24e3d9	-0.040256355
151	0xbd9a6c05	-0.07540134
152	0xbd4050c0	-0.04695201
153	0x3bbf89c1	0.005845279
154	0x3bf09dc5	0.0073430263
155	0x3d9de39f	0.07709431
156	0x3cce9e26	0.025221895
157	0x3c23d70a	0.01
158	0x3d2696f2	0.040671296
159	0x39fa7173	0.00047768242
160	0x3c23d70a	0.01
161	0xbc130868	-0.008974172
162	0xbb918845	-0.0044412934
163	0xbd71cb3b	-0.059031706
164	0xbb9fd6af	-0.004877887
165	0x3d47b8af	0.048760112
166	0x3d08bd17	0.033383455
167	0xbdd4bd7b	-0.10387703
168	0x3d762fa8	0.060104042
169	0x3d597b81	0.053096298
170	0xbd14d72e	-0.036338024
171	0x3dcb5d4c	0.09929904
172	0xbd16de5b	-0.03683315
173	0xbd10cf79	-0.03535411
174	0xbd84563c	-0.064617604
175	0xbbe8f5f2	-0.007109397
176	0xbd446ce9	-0.047955427
177	0x3c5bec23	0.013422999
178	0xbd2d1302	-0.042254455
179	0xbd52acab	-0.0514342
180	0xbd8f2cef	-0.06990992
181	0x3c23d70a	0.01
182	0xbd85fde8	-0.065425694
183	0x3c23d70a	0.01
184	0xbca935a1	-0.020655455
185	0xbc9879d2	-0.018612776
186	0x3c23d70a	0.01
187	0x3bba4f1e	0.005685701
188	0xbcbbe142	-0.02293456
189	0x3c23d70a	0.01
190	0xbc805b6c	-0.015668593
191	0x3c4523de	0.012032477
192	0x3c23d70a	0.01
193	0x3b0ce67b	0.0021499682
194	0xbd01ada2	-0.03165973
195	0x3c23d70a	0.01
196	0x3d8dcd2a	0.069238976
197	0xbce2d4d7	-0.02768938
198	0x3c23d70a	0.01
199	0xbc44da04	-0.01201487
200	0xbd47a386	-0.048739932
201	0x3c23d70a	0.01
202	0x3c09332c	0.008374017
203	0xbd110090	-0.035400927
204	0x3c23d70a	0.01
205	0xbd0e8a64	-0.03479995
206	0xbd2ce060	-0.04220617
207	0x3c23d70a	0.01
208	0x39d4d762	0.00040596264
209	0xbc743d37	-0.014907173
210	0x3c23d70a	0.01
211	0x3db0097f	0.08595561
212	0xbcdf5bb2	-0.027265403
213	0x3c23d70a	0.01
214	0x3cdac6bf	0.026706098
215	0xbc28432f	-0.010269924
216	0x3c23d70a	0.01
217	0x3c800100	0.015625477
218	0xbcb908a5	-0.02258713
219	0xbd235c7a	-0.039883114
220	0x3c79ea34	0.015253592
221	0xbd8fe8d1	-0.07026828
222	0xbc592856	-0.013254246
223	0xbd71e48f	-0.05905586
224	0xbccf9fda	-0.025344778
225	0xbd1c4399	-0.038150404
226	0x3cb1246f	0.021623818
227	0xbd0a53a5	-0.033771176
228	0x3c23d70a	0.01
229	0xbc826ce2	-0.01592106
230	0xbccfac3a	-0.025350679
231	0x3c23d70a	0.01
232	0xbbf17620	-0.007368818
233	0xbc08f7ca	-0.008359859
234	0x3bf6e01c	0.00753404
235	0xbd6c38a9	-0.057671223
236	0xbd5a98e8	-0.05336848
237	0xbd9db400	-0.07700348
238	0xbd37f0e7	-0.044907477
239	0xbab2269d	-0.001359183
240	0xbc25b5c8	-0.010114141
241	0x3d35d5a5	0.0443932
242	0x3c910f5d	0.017707521
243	0x3c23d70a	0.01
244	0x3d3daa14	0.046304777
245	0xbc54dbc3	-0.012991848
246	0x3c23d70a	0.01
247	0xbb8ed499	-0.0043588397
248	0xbc9b9b34	-0.018994905
249	0xbd81e6fe	-0.063428864
250	0xbc99ed4a	-0.018789906
251	0xbcb08fb4	-0.021552898
252	0x3c266197	0.010155103
253	0xbdd1039c	-0.102057666
254	0x3d01470e	0.031561904
255	0x3cc6048d	0.024172092

model/hidden/mid_layer/W f4 [256, 256]
0	0xbba00500	-0.0048834085
1	0xba1d70df	-0.0006005894
2	0xbb3e080d	-0.0028996498
3	0xb9695d3f	-0.00022255348
4	0xbb084a27	-0.0020796151
5	0xbc567bd5	-0.013091047
6	0xbc2624f6	-0.010140648
7	0xbc28a592	-0.010293381
8	0x3bf2a762	0.0074052075
9	0xbacaf557	-0.0015484494
10	0xbc22e1ad	-0.009941501
11	0xbc654664	-0.013993833
12	0xbc8f3188	-0.017479673
13	0xbb8bfe18	-0.0042722337
14	0xbc99b282	-0.018761877
15	0xbcbf7d8f	-0.0233753
16	0xbc83ce24	-0.016089506
17	0xbc2883bd	-0.010285315
18	0xbc960b4c	-0.018315934
19	0x3c3cd398	0.011525057
20	0xbce4f9c2	-0.027951125
21	0x3bca9cc6	0.0061832396
22	0xbb4568c9	-0.0030122271
23	0xbbb1de93	-0.0054281442
24	0xbcc2eba6	-0.023794007
25	0xbbeaf32f	-0.007170103
26	0xbb6bdeda	-0.0035990984
27	0x391b3fb0	0.00014805677
28	0xbb10c799	-0.0022091626
29	0xb9be5f8b	-0.0003631081
30	0xbc719595	-0.014745136
31	0x3aae9992	0.0013320914
32	0xbc93a67d	-0.018023724
33	0xbb07bc4c	-0.00207116
34	0xba6ff869	-0.00091541425
35	0xbc4deca0	-0.012568623
36	0xbbf5c7aa	-0.0075006085
37	0x3be653a9	0.007029016
38	0xba8334cf	-0.0010010245
39	0xbc6f1257	-0.014591775
40	0x3bbab232	0.005697512
41	0xbbda09ff	-0.0066540237
42	0xbc86f1cb	-0.016472718
43	0xbc69634d	-0.014244867
44	0xbb98390c	-0.0046454724
45	0x3b52e270	0.0032178424
46	0xbc164678	-0.0091720745
47	0x3c000645	0.007813995
48	0x3c3dff08	0.011596449
49	0xbba38728	-0.004990477
50	0xbbef8bc3	-0.007310362
51	0x3b3c2415	0.002870803
52	0xbc1c5f9c	-0.009544279
53	0xbaa790f6	-0.0012784291
54	0xbb234959	-0.0024915545
55	0xbc8eabdc	-0.017415933
56	0x3b91a282	0.0044444213
57	0xbbf2a149	-0.0074044806
58	0xbc450c15	-0.012026806
59	0x3ae1c235	0.0017224016
60	0xbc27cf4b	-0.010242294
61	0x3c0a17d4	0.008428533
62	0xbc20253e	-0.009774504
63	0xbc2782b6	-0.010224035
64	0xbaade1c1	-0.0013266132
65	0xbc45158b	-0.012029062
66	0xbb859872	-0.004077011
67	0x3bc08bdf	0.005876049
68	0xbc363bef	-0.011122688
69	0x3a84038e	0.001007186
70	0x3b820538	0.0039679073
71	0xbc2e9389	-0.010655292
72	0x3be86229	0.0070917797
73	0xbc494e8d	-0.012286794
74	0xbc4ab310	-0.012371793
75	0xbc0b30bd	-0.008495507
76	0xba0c58b7	-0.0005353796
77	0x3b07ddc3	0.0020731546
78	0xbc8039a5	-0.015652487
79	0xbc3282f0	-0.010895476
80	0x3b13c218	0.0022546109
81	0xbb9f6972	-0.004864865
82	0x3bd317ca	0.006442045
83	0xbb39eeb8	-0.0028371047
84	0xbc535b40	-0.012900174
85	0xba9222a4	-0.001114924
86	0xbc1bb102	-0.009502651
87	0xbb2e891b	-0.0026632014
88	0xbc1f9092	-0.009739058
89	0xbbfafc53	-0.007659474
90	0xbc14b61b	-0.00907662
91	0xbbaab12e	-0.0052091097
92	0xba4fade0	-0.0007922333
93	0xbc5f2d55	-0.013621648
94	0xbc17635a	-0.009239996
95	0x3c8c8284	0.017152078
96	0x3b825e0c	0.0039784964
97	0xbcf7b96a	-0.03023978
98	0xba9d29a4	-0.0011990559
99	0xbc181c15	-0.009284039
100	0xbb6d7896	-0.0036235205
101	0xbc5f84dd	-0.013642517
102	0x3c55a876	0.0130406525
103	0xbaaf1e68	-0.0013360502
104	0xbbc31fb1	-0.0059547056
105	0xbd5aefe8	-0.05345145
106	0x3beec1b0	0.007286273
107	0xbbe00a8b	-0.0068371943
108	0x3bf412a1	0.00744851
109	0xbc9af184	-0.018913992
110	0xbaf82508	-0.0018931935
111	0xbb2af7af	-0.0026087572
112	0xbcbe6524	-0.023241587
113	0xbc079a7c	-0.008276578
114	0x3c7f0fe0	0.01556775
115	0xbbdbfbe6	-0.0067133782
116	0xbbb10f9c	-0.005403472
117	0xbbbc7c8d	-0.0057521523
118	0xbb40b38e	-0.0029403898
119	0x3b08a75d	0.002085171
120	0x3b7af2c7	0.003829168
121	0x3c0ede83	0.008720043
122	0xbb922282	-0.00445968
123	0xbbdad846	-0.006678614
124	0xbad580fc	-0.0016289051
125	0xbd156e5b	-0.036482196
126	0xbc378c4a	-0.011202881
127	0xbc24f314	-0.01006772
128	0xbb1e4d81	-0.0024155083
129	0xbc242908	-0.010019548
130	0xbc1d32d1	-0.009594635
131	0x3be7890c	0.007065898
132	0xbc8b836e	-0.017030444
133	0xbb1b4fac	-0.0023698611
134	0xbc0ec634	-0.0087142475
135	0x3befa18c	0.007312959
136	0xbc48a1aa	-0.012245575
137	0x39d393a3	0.00040355054
138	0x3c0bc496	0.008530756
139	0xbc865b8a	-0.016401071
140	0xbaf66200	-0.0018797517
141	0xbb870a2e	-0.0041210866
142	0x3bedb23a	0.0072539123
143	0x3c28f144	0.010311428
144	0xbc279c35	-0.010230114
145	0xbc0493c7	-0.0080918735
146	0xba904b33	-0.0011008739
147	0xbae91b7d	-0.0017784681
148	0xbb0f8bd0	-0.0021903403
149	0x3b870754	0.0041207466
150	0xbb00d460	-0.0019657835
151	0xba9841dd	-0.0011616308
152	0xbbc45369	-0.0059913886
153	0xbcaa5b3d	-0.020795459
154	0xbad2d8ec	-0.0016086376
155	0xbcb9f9a1	-0.02270204
156	0xbc8a153b	-0.016855827
157	0x3ca686bd	0.02032792
158	0x3bc6ae61	0.006063268
159	0xbc76751e	-0.015042571
160	0x3c1e9d93	0.009681123
161	0x3aba99df	0.0014236531
162	0x3c4bbefc	0.012435671
163	0xb92d8a9d	-0.00016550203
164	0x3ad6568c	0.0016352697
165	0xbc69aeeb	-0.014262895
166	0x3bf53076	0.0074825836
167	0xbad9aabe	-0.0016606671
168	0xbc2f9802	-0.010717394
169	0xbc171271	-0.009220705
170	0x3c8efd3e	0.01745474
171	0xbbd6c81d	-0.006554617
172	0x3b6092eb	0.0034267257
173	0x39c7bc7d	0.00038096673
174	0xbc76a19a	-0.015053177
175	0x3c214d96	0.009845158
176	0xbc0b3455	-0.008496364
177	0xbaa3867d	-0.0012475994
178	0x3baea73c	0.0053299945
179	0x3b716ad0	0.0036837347
180	0x3b28948e	0.002572331
181	0xbc3aa20c	-0.011391174
182	0xbb463b6b	-0.0030247818
183	0xbb7c55fa	-0.0038503394
184	0xbbda6b7f	-0.0066656466
185	0xbc88bbe8	-0.016691163
186	0xbbffeb27	-0.0078100148
187	0xbc9a4b4e	-0.018834736
188	0xbd0422ed	-0.03225987
189	0xbca7e22b	-0.020493587
190	0xbaf713d0	-0.0018850509
191	0xb9a58862	-0.00031572866
192	0x3c793c2e	0.015212102
193	0x3b3bbb39	0.002864553
194	0x3c3eedc5	0.011653368
195	0x3aa37773	0.0012471512
196	0xbc42f4fe	-0.011899231
197	0xbb82245e	-0.0039716205
198	0xbb28e11f	-0.0025768948
199	0x3c93616d	0.017990792
200	0xbbcb3ea8	-0.0062025376
201	0xbbe65e50	-0.007030286
202	0xbba2b782	-0.0049657235
203	0xbcce23fe	-0.025163647
204	0xbb63d230	-0.0034762733
205	0xbad30b7c	-0.0016101445
206	0xbcbca0bf	-0.023025868
207	0xbc4f1a1f	-0.012640505
208	0x3bafd012	0.00536538
209	0x3acfa0c9	0.0015840764
210	0xbc33b84d	-0.010969234
211	0xbc6f53f9	-0.014607423
212	0xbc98f8f9	-0.018673407
213	0xbb469184	-0.0030299136
214	0xbcba4e95	-0.022742549
215	0xbc559788	-0.013036616
216	0xbc9fc2cd	-0.019502068
217	0xbba52964	-0.0050403345
218	0xba72e952	-0.0009266335
219	0xbc3f7ccc	-0.011687469
220	0xbaadc01f	-0.0013256109
221	0xbb40a422	-0.0029394706
222	0xbceb8f01	-0.028754713
223	0xbb86db64	-0.004115509
224	0x3b5b84ee	0.003349598
225	0xbc722f94	-0.014781851
226	0xbc6bbf11	-0.0143888155
227	0x3a9339ba	0.0011232414
228	0x3b9c09ca	0.004761909
229	0xbbd532a2	-0.00650628
230	0xbb8ffcf8	-0.00439417
231	0x3ab5a1e5	0.0013857452
232	0x3a1e1a09	0.0006031101
233	0xbd1921a6	-0.037385605
234	0xbc364f21	-0.011127264
235	0x3b19bcc1	0.0023458453
236	0x3b8ba99c	0.0042621624
237	0xbb3bd2c6	-0.0028659566
238	0x3bd43c66	0.0064769266
239	0xbb5a6293	-0.0033322915
240	0x3bf7a1ea	0.0075571435
241	0xbc199223	-0.009373221
242	0xbaa9d736	-0.0012957815
243	0xbc80b04e	-0.015709069
244	0xbc444ecb	-0.011981676
245	0xba825db0	-0.0009946134
246	0xbb1cc1d0	-0.0023919232
247	0xbcedcc8f	-0.029028205
248	0xba724506	-0.00092418527
249	0xbb8264cf	-0.0039793025
250	0x3b23d422	0.0024998267
251	0xbc8eb88e	-0.017421987
252	0xbbdc06b4	-0.0067146663
253	0xbb980b6b	-0.004640033
254	0xbcd62695	-0.026141444
255	0xbb4675d8	-0.0030282643

model/a_stream/b f4 [3]
0	0x3cb249b9	0.02176367
1	0xbba86255	-0.005138675
2	0xbbed2569	-0.0072371257

model/hidden/mid_rec_layer/upward/b f4 [80]
0	0xbbcd1ba2	-0.0062593976
1	0xbcbe6cc2	-0.02324522
2	0x3f73e441	0.9527016
3	0xbcc85116	-0.024452727
4	0xbbcbf2da	-0.0062240185
5	0xbc96e23e	-0.018418428
6	0x3f75516f	0.9582738
7	0xbca0e2fe	-0.019639488
8	0xbbba2e00	-0.005681753
9	0xbceefc49	-0.029173033
10	0x3f753d14	0.9579632
11	0xbcf0fdb3	-0.029417848
12	0xbbd2df8e	-0.006435341
13	0xbcaa5102	-0.02079058
14	0x3f739ff1	0.95165926
15	0xbcb67430	-0.0222722
16	0xbbd0fdce	-0.006377912
17	0xbcb82cad	-0.02248224
18	0x3f74429d	0.95414144
19	0xbcc18b52	-0.023626003
20	0xbbcb936c	-0.0062126424
21	0xbc89acd5	-0.016806046
22	0x3f750abe	0.95719516
23	0xbc95624d	-0.01823535
24	0xbbcf9227	-0.0063345614
25	0xbcec444f	-0.028841166
26	0x3f742260	0.9536495
27	0xbcf253c3	-0.029580956
28	0xbbb6a6b1	-0.0055740704
29	0xbcfbc66d	-0.030734265
30	0x3f74a288	0.95560503
31	0xbcfe130c	-0.031014942
32	0xbbc43131	-0.0059873094
33	0xbcf7ff57	-0.030273123
34	0x3f74cc2b	0.95624036
35	0xbcfb852e	-0.030703153
36	0xbbc5862c	-0.0060279574
37	0xbd03288e	-0.032021098
38	0x3f72f54a	0.9490553
39	0xbd06ac41	-0.032879118
40	0xbbd68191	-0.0065462072
41	0xbcd4d467	-0.025980188
42	0x3f735289	0.95047814
43	0xbcde7ee7	-0.027160121
44	0xbbdb3b83	-0.006690444
45	0xbca11cbb	-0.01966702
46	0x3f751873	0.9574043
47	0xbcaaab0b	-0.020833513
48	0xbbeac532	-0.007164621
49	0xbc8ffae1	-0.017575683
50	0x3f71fcbe	0.9452628
51	0xbca35709	-0.019938963
52	0xbbc6d08c	-0.006067341
53	0xbc73c49d	-0.014878419
54	0x3f752885	0.9576495
55	0xbc8669ba	-0.016407836
56	0xbbd26980	-0.006421268
57	0xbc7da53c	-0.0154812895
58	0x3f74d740	0.95640945
59	0xbc8bceaf	-0.017066328
60	0xbbc21fbe	-0.005924194
61	0xbc8390f8	-0.016060337
62	0x3f7623bc	0.96148276
63	0xbc8da531	-0.017290683
64	0xbbb3fb99	-0.0054926393
65	0xbc763054	-0.015026171
66	0x3f774695	0.96592075
67	0xbc83b64d	-0.016078139
68	0xbbd15e5e	-0.0063894233
69	0xbccb305d	-0.024803335
70	0x3f73baaf	0.9520673
71	0xbcd4a389	-0.025956886
72	0xbbd9fbfb	-0.006652353
73	0xbc9c63da	-0.019090582
74	0x3f732f91	0.94994456
75	0xbcaad390	-0.020852834
76	0xbbc3db99	-0.005977106
77	0xbc862624	-0.016375609
78	0x3f76321d	0.96170217
79	0xbc8fb845	-0.017543921

model/hidden/input_layer/W f4 [256, 86]
0	0x3c716379	0.014733189
1	0xbcad2510	-0.021135837
2	0xbc27f99d	-0.010252384
3	0xbca6c590	-0.020357877
4	0x3b6411ee	0.0034800726
5	0xbb13c26e	-0.002254631
6	0x3c25680a	0.010095606
7	0xbda080a4	-0.07837036
8	0xbc5ebb28	-0.013594426
9	0x38abc30f	8.190248e-05
10	0xbdaf34f1	-0.0855502
11	0x3c681957	0.014166198
12	0xbcb11da0	-0.021620572
13	0xbb7c717a	-0.0038519786
14	0xbc341660	-0.010991663
15	0x3cd43a67	0.025906755
16	0x3c84ef74	0.016227461
17	0xbbd92998	-0.006627273
18	0xbd08ef26	-0.033431195
19	0xbd301627	-0.042989876
20	0x3ba8468a	0.005135362
21	0x3d14d3fc	0.036334977
22	0x3bf6bbfc	0.0075297337
23	0xbc41d00c	-0.011829387
24	0x3d029d56	0.03188833
25	0xbd5654e6	-0.05232706
26	0x3ba8e232	0.0051539177
27	0x3cb9c2d3	0.022675907
28	0x3a60a85c	0.00085700094
29	0x3c9b9c57	0.018995447
30	0xbbde2e76	-0.006780441
31	0x3b17b8fc	0.002315103
32	0x3ce1138d	0.027475143
33	0x3bad8355	0.005295197
34	0xbced8532	-0.028994177
35	0xbb32b856	-0.0027270517
36	0x3bb2fbd9	0.0054621515
37	0x3b8ade64	0.004237937
38	0x3ad81a95	0.0016487414
39	0xbc05946c	-0.008153062
40	0xbbfc926f	-0.007707886
41	0xbc26ef57	-0.010188899
42	0xbbc9ec43	-0.006162198
43	0x3c92477b	0.01785635
44	0x3bfe9aa8	0.0077699013
45	0x3cadb89a	0.021206189
46	0xbb2d242b	-0.0026419263
47	0xbcde05be	-0.027102347
48	0x3cd2954c	0.025705956
49	0x3c2bdb32	0.010489272
50	0xbb0bf494	-0.0021355497
51	0xbcfc99f1	-0.030835124
52	0x3c524c13	0.01283552
53	0xbcd518c3	-0.026012784
54	0x3c85eb67	0.0163476
55	0x3d3f1f4a	0.0466607
56	0xb9bc7185	-0.00035942733
57	0xbc78b6de	-0.015180318
58	0xbd70e803	-0.058815014
59	0x3a9e978a	0.0012099606
60	0x3ba8ab33	0.0051473617
61	0x3d0cb63b	0.034353476
62	0xbc3fb531	-0.011700914
63	0xbd4df55e	-0.05028283
64	0xbc69ceb6	-0.014270475
65	0xbc93643e	-0.017992135
66	0x3c8d84a1	0.017275156
67	0x3c3512a3	0.011051807
68	0xbc301bc7	-0.01074881
69	0xbd9c0191	-0.07617486
70	0xbcb491a1	-0.022042098
71	0xbc2995d0	-0.0103506595
72	0xbb3d4147	-0.002887802
73	0xbd250c6d	-0.040295053
74	0x3bdcb63f	0.0067355926
75	0xbbe2e1f1	-0.006923907
76	0xbd5223a7	-0.051303532
77	0xb990a5ec	-0.00027589442
78	0x38962d32	7.160976e-05
79	0x3d0ac3a6	0.03387799
80	0xbb8b7ecd	-0.004257059
81	0xbb7787b6	-0.00377701
82	0xbcf99434	-0.030466177
83	0x3d3983eb	0.045291822
84	0xbcca7b1c	-0.024716906
85	0xbcf43d6f	-0.02981445
86	0xbca827f2	-0.02052686
87	0xbc9bc214	-0.019013442
88	0xbb58cd23	-0.0033081255
89	0xbc9ff7c9	-0.019527333
90	0xbca38321	-0.019959988
91	0xbc5e796d	-0.013578755
92	0xbcaf9d97	-0.02143745
93	0xbd1837b5	-0.0371625
94	0xbc159293	-0.009129184
95	0xbb654d3b	-0.003498866
96	0xbd00d2c5	-0.031451005
97	0x3bd0ac02	0.006368161
98	0xbc4a2400	-0.012337685
99	0xbc698cc5	-0.0142547535
100	0xbc4c378e	-0.012464417
101	0xbb6518dd	-0.0034957447
102	0xbca0563c	-0.01957237
103	0x3c0cfff3	0.008605945
104	0xbbcd7ec5	-0.0062712156
105	0x3c886e50	0.016654164
106	0xbade94a4	-0.0016981554
107	0xbbebf71f	-0.00720109
108	0xbc9fad91	-0.019491943
109	0x3b878a1c	0.004136337
110	0xbc06e498	-0.008233212
111	0xbd29c503	-0.04144765
112	0xbbaa743e	-0.0052018454
113	0xbb708eb4	-0.0036706151
114	0x3c7e6e24	0.015529189
115	0xbbc1867f	-0.0059059258
116	0xbc8ffeb5	-0.017577508
117	0xbbceb7b0	-0.0063085184
118	0xbbf0e40e	-0.007351405
119	0xbbcd5051	-0.006265678
120	0xbcd70c48	-0.026250973
121	0xbbcaf896	-0.0061941845
122	0xbc587562	-0.01321158
123	0x3c094beb	0.008379917
124	0x3bed3241	0.0072386567
125	0x3b673102	0.0035277014
126	0xbcbf1dc6	-0.023329627
127	0xbbb26d1b	-0.0054451353
128	0x3b64631f	0.003484912
129	0xbca959a0	-0.02067262
130	0x3b672521	0.0035269933
131	0xbc4558f9	-0.0120451385
132	0xbc987d40	-0.018614411
133	0xbced8a7e	-0.028996702
134	0x3bf74bed	0.007546893
135	0xbccbd873	-0.024883484
136	0xbca94997	-0.020664973
137	0x3c898ed8	0.016791746
138	0xbbbd5933	-0.0057784556
139	0xbbcc70da	-0.006239039
140	0xbc444dac	-0.011981409
141	0xbcc81818	-0.024425551
142	0x3c829b65	0.015943239
143	0x3c3fd100	0.011707544
144	0xbcc22cd6	-0.02370302
145	0x3c725514	0.014790792
146	0x3bfc322c	0.0076964106
147	0x3c561ab8	0.013067894
148	0xbc97a2bc	-0.018510215
149	0x3be7a81c	0.0070696007
150	0xbc926686	-0.017871153
151	0x3c0dfb47	0.008665866
152	0x3c223c44	0.009902064
153	0x3b05480c	0.0020337133
154	0xbc5f55fe	-0.013631342
155	0xbc7f028c	-0.015564572
156	0xbbfec5c5	-0.007775041
157	0xbb8a6ae8	-0.00422417
158	0xbc0d6b96	-0.0086316075
159	0xbcaa7131	-0.020805927
160	0x3b3d40aa	0.0028877654
161	0xbc9efc68	-0.019407466
162	0x3a6076c9	0.0008562622
163	0x3c3ba02a	0.01145176
164	0xbcd8b06c	-0.026451312
165	0xbce58568	-0.028017715
166	0xbce69105	-0.028145323
167	0x3c2e629b	0.010643627
168	0xbc87e2c2	-0.016587619
169	0xbcf4b276	-0.029870253
170	0xbc83b07b	-0.016075363
171	0xbcf7e027	-0.030258251
172	0xbc7f237a	-0.015572423
173	0x3cae3f8a	0.021270532
174	0xbbe9e5ff	-0.0071380134
175	0x3c3dc5ef	0.011582836
176	0xbd276fd1	-0.04087812
177	0xbbee2a52	-0.0072682286
178	0xbca12e03	-0.01967526
179	0x3cb024b4	0.021501876
180	0xbcd9c501	-0.026583197
181	0x3b12e396	0.0022413484
182	0x3cee30f9	0.029076086
183	0xbc52dd58	-0.012870155
184	0x3ca9ae7c	0.020713083
185	0xbc09e962	-0.008417459
186	0x3c1a9909	0.0094359005
187	0x3d2bd102	0.041947372
188	0x3d0dbbfd	0.034603108
189	0x3caa0bb0	0.020757526
190	0x3b9d661d	0.0048034326
191	0x3c3feee0	0.011714667
192	0xbad3d9e2	-0.0016162957
193	0xbb9b89f2	-0.004746669
194	0x3bd5d6bd	0.006525843
195	0xbc263ccc	-0.010146331
196	0x3c55fc77	0.013060681
197	0x3c8ee9c0	0.017445445
198	0xbaf10cf4	-0.0018390701
199	0x3d2d18f5	0.04226013
200	0xbd4602f3	-0.048342656
201	0xbc94ba0a	-0.018155117
202	0xbc1e0d9f	-0.009646802
203	0x3c8aa9e9	0.016926723
204	0x3b51209a	0.0031910301
205	0x3cfcc335	0.0308548
206	0x3b4e9d40	0.0031526834
207	0x3c1c482e	0.009538693
208	0xbb95e010	-0.0045738295
209	0x3b095fac	0.0020961566
210	0x3c82d209	0.015969293
211	0xbc23623e	-0.009972153
212	0xbd3fa41a	-0.04678736
213	0xb9d21233	-0.0004006788
214	0xbca7c79c	-0.020480923
215	0x3b8a6725	0.0042237216
216	0xbba4fb98	-0.005034875
217	0xbcdc6e84	-0.026908167
218	0x3c8044d4	0.01565782
219	0xbc61fef2	-0.013793694
220	0x3aba768a	0.0014226001
221	0xbcb5713c	-0.02214872
222	0x3ccfa1d0	0.025345713
223	0x3c1271fb	0.008938308
224	0x3b7d7a2f	0.0038677563
225	0xbc3f9f95	-0.011695762
226	0xbc914fc7	-0.017738236
227	0xbd923768	-0.07139474
228	0xbb39112f	-0.0028239002
229	0x3cda41ac	0.026642643
230	0xbcfa0d64	-0.030523963
231	0x3c3da7fe	0.011575697
232	0x3d3f4b85	0.04670288
233	0x3c07691a	0.008264804
234	0x3b736b53	0.0037142828
235	0x3a8ac381	0.0010586829
236	0xbd678f63	-0.05653323
237	0xbcdb6f3d	-0.026786441
238	0xbc50409d	-0.0127107175
239	0x3a977655	0.0011555651
240	0xbc2d32e0	-0.010571212
241	0x3b9fc19a	0.004875374
242	0xbd419eb9	-0.04727051
243	0x3c17695f	0.009241431
244	0x3c68a3de	0.014199225
245	0x3ca541bb	0.020172944
246	0xbbe4df42	-0.006984622
247	0x3d226507	0.03964713
248	0xbbebd3c4	-0.0071968753
249	0x3c001c51	0.007819251
250	0xbad3b3b7	-0.0016151582
251	0x3c86331c	0.016381793
252	0x3b9114ff	0.0044275518
253	0x3b95c670	0.0045707747
254	0xbb90c68e	-0.004418201
255	0x3c09a4b4	0.008401085
