ai_challenge/results/simulation_DoubleDQN_DuelingRecNN_2017-05-19T19:40:53.24/40004/target_model.npz (npz, 628231 bytes, 12 tensors)

model/hidden/input_layer/b f4 [256]
00000000: 23af 8cbc 325b e5bc 9113 8abb 3af7 5e3b
00000010: 135d 8d3b 18ef bfbb 1a5c 19bc 1402 a0bc
00000020: 2ec9 ebba 3092 3f3b f552 4f3c 891c 7abc
00000030: 2e81 b03b 7912 9cbb f7f2 c4bb 69eb d1ba
00000040: cfb0 93bc 2278 39bc 3842 aabb 9522 c7bc
00000050: f9c9 8dbc c42e a2bb 7d01 513a e43c e5bb
00000060: 469e 10bc ee13 73bc 2471 6c3a a2a8 3fbc
00000070: 761f 0dbc fb1a 3cbc 96f6 25bc e165 1f3b
00000080: c408 a83a a1f0 00bd 70a7 16ba f119 2bbc
00000090: 6a0f 09bd 5f91 ccbb 667e a8bc 0ead c7bb
000000a0: ea51 44bc 6dd4 a4bc 9c43 133b 0cfd 083b
000000b0: d896 87bc 1b21 dbba f6f9 1bbc ee63 52bc
000000c0: 1c49 fbbc 6221 9dbb 5941 8cbb ff0d b9bc
000000d0: 3870 74ba 41f5 f2bb 960a 8b3b bde2 81bc
000000e0: b1c2 6bbc aab3 38bc b8ef 9fba 96a3 acbb
000000f0: 1517 a6bb 86e8 f1bb 046a 33bb 91fc e0bb
00000100: e281 2abc c237 0cbc 20c9 98bc 9a89 98ba
00000110: ff14 5dbc 0fed 7fbb 1ee9 cfbc 7629 afbc
00000120: cb2f 56bb 441d 62bc c055 c3bc 3c44 8ebc
00000130: 94fc b8bc 6be8 1dbc 4cd4 10bc 7a9f 54bc
00000140: d2f9 f8bc 6670 a1bc 04c8 1cbc 48c7 9dbc
00000150: 7788 f8bb f3e2 e8bc 60f1 d9bc 4269 8bbc
00000160: 1a31 b4bb 1361 82bc ff3c c6bb b79f 943b
00000170: 2520 64bc 987e 81bc d9b8 07bd c1a3 83bc
00000180: 4a6c 323a aa3e c63b 2540 103b 4b56 f63b
00000190: 4f51 eebb f724 a7bc fcfc 44bb e8b7 70ba
000001a0: 632b adbb 601f 1bbc 1f0e f6bb c23e 36bb
000001b0: 9257 a1bb 6a1f e6bc 7a4a eabc f063 75bc
000001c0: 12db 3cba 1053 32bb c744 37bc 2341 5e3b
000001d0: bcd8 ccbc c3a6 9ebc 266c 87bc 5c12 02bc
000001e0: 1094 9cbc e41a 5cbb 53b5 87bb baec c4bc
000001f0: 4d49 febb 02c2 40bc 4218 d9bc c071 70bc
00000200: ef5d 45bc 2aec 87bc 7e8a 51bb 6073 a5ba
00000210: b8a9 963b fcdd 01bc 97fb 27bc ca50 fbba
00000220: 02a1 0f3a d024 83bc dede 3fbc a9f3 13bc
00000230: 9a45 85bc bcfb 4dbc eff3 87bc 8fb2 52bc
00000240: 5ae7 f03a cacd 4e3c 1a2f b4bb e6d3 bcbc
00000250: 9e4f 7abc 5b33 09bc 48d4 d3ba cd69 9ebc
00000260: ebd2 04bc bc95 cebb 5b41 d6bc 7934 84ba
00000270: dc0a 7bbc f57f 9dbb 9c0a a0bb 957c 5bbc
00000280: c23b 063b 2f2d 4dbc 2db7 2ebb 6714 f8bb
00000290: 8e1e 70bc 0cc0 77bc 4f33 21bd 3a11 a63a
000002a0: 4aeb 4cbc 4771 d53a eea0 5bbb 0143 9cbc
000002b0: 379a 50bc 88df 48bc df78 f339 f169 a9bb
000002c0: 5a1e a4bc 55b0 1abd 749e 91ba 3c5c c6bc
000002d0: bafc 24bc 3714 5cbb a23a dd3a fe44 76bc
000002e0: 6148 a9ba 5b87 2fbc be1b 99bc f2e9 01bd
000002f0: 7309 e03b 3a19 34bc 1fa1 95ba 3071 91bc
00000300: 40f8 79bc ad35 bfbc 724b 6f39 fd69 99bb
00000310: c21c a6bc b68f 95bc 0558 5ebc 4fff 1abc
00000320: f435 6ebc 542c 4cbc 24ed ef3a 1530 d3bb
00000330: 9292 ccbc f0aa 5ebc 5a4d c9bb d364 b3bc
00000340: 5402 cebb 8f63 5f3b 0e98 81bc 9149 803a
00000350: 3663 56bc f669 8abc a608 d8bc 2132 93bb
00000360: a0f8 e0bc 196b a2bc 8ff2 87bc 1212 33bc
00000370: 6650 57bc 1dd3 2e3b 6c28 c0bc 8d91 1cbc
00000380: 76e3 17bc 8b36 983c f3fa 61bc cf73 0bbc
00000390: 04c7 d4bb 897f d5bb 0a60 82bb e8b6 d23b
000003a0: 4a0d 70bc 5e16 883c 1619 b2bb 9a62 b03a
000003b0: 0dcb 33bb ca57 be3a dab7 acbc 6a8e a3bc
000003c0: a86b c5bb 3b7f 68bc 7bc4 7fbb 0efe 64bc
000003d0: 5f6d 13bc 481b 96bc 1acf 5ebc fa6c 90bc
000003e0: 2e24 f3bc 410f 8ebb 1152 53bc ea0a a3bb
000003f0: d846 1c3c 7e24 a3bc c69a 0fbd d81f 82bc
-0.017173355 -0.027997587 -0.0042137583 0.003402187 0.004314074 -0.0058573596 -0.009360338 -0.01953224
-0.0017989033 0.0029231422 0.012654056 -0.015265592 0.005386493 -0.0047629443 -0.006010409 -0.0016015592
-0.018028645 -0.011320146 -0.005195882 -0.024308482 -0.017308222 -0.0049494226 0.0007972939 -0.006995784
-0.008826798 -0.014836295 0.0009019545 -0.01169792 -0.008613458 -0.011481042 -0.010129591 0.00243222
0.0012819995 -0.03147948 -0.0005746996 -0.010443197 -0.033461966 -0.0062429155 -0.020568084 -0.006093628
-0.01198242 -0.020120824 0.0022470718 0.002090278 -0.01655142 -0.001671824 -0.009520045 -0.012841208
-0.03067451 -0.0047952393 -0.004280251 -0.022589682 -0.0009324583 -0.0074144905 0.0042432053 -0.015855188
-0.01438968 -0.011273304 -0.0012202179 -0.0052685244 -0.0050686696 -0.0073824553 -0.0027376423 -0.0068660458
-0.010406943 -0.008558216 -0.018650591 -0.0011637688 -0.013493775 -0.003905121 -0.025379714 -0.021382075
-0.0032682295 -0.013800923 -0.0238446 -0.017366521 -0.022581376 -0.009637932 -0.008839678 -0.012977475
-0.030392561 -0.019706916 -0.009569172 -0.019260064 -0.0075846273 -0.02842853 -0.026604354 -0.017017964
-0.0054990174 -0.01591543 -0.006049752 0.004535641 -0.0139236795 -0.015807435 -0.03313527 -0.016069295
0.00068062975 0.0060499506 0.002201089 0.007517611 -0.0072728763 -0.020403368 -0.0030058017 -0.00091826776
-0.005284713 -0.00946793 -0.0075090076 -0.0027808403 -0.0049237693 -0.028091151 -0.028599966 -0.01497744
-0.0007204275 -0.0027210154 -0.011185831 0.0033913336 -0.02500569 -0.019366628 -0.016531061 -0.0079389475
-0.01911357 -0.0033585364 -0.0041414886 -0.024038661 -0.007760203 -0.011765005 -0.026500825 -0.014675558
-0.012046321 -0.016592104 -0.0031973417 -0.0012622885 0.004597869 -0.00792646 -0.010252855 -0.0019173857
0.0005479009 -0.016008765 -0.0117108505 -0.009030261 -0.01626854 -0.012572225 -0.016595809 -0.0128599545
0.0018379495 0.012622306 -0.005498779 -0.02305026 -0.015277771 -0.0083740605 -0.0016161287 -0.01933756
-0.008106927 -0.006304471 -0.02615421 -0.0010086439 -0.015322413 -0.0048065134 -0.0048840772 -0.013396402
0.0020482396 -0.01252298 -0.0026659474 -0.0075707915 -0.014655722 -0.015121471 -0.039355572 0.0012669929
-0.012507269 0.001628437 -0.003351267 -0.019074919 -0.01273208 -0.012260325 0.00046438628 -0.0051701
-0.020034004 -0.03776582 -0.0011109845 -0.024213903 -0.01007002 -0.0033581385 0.0016878436 -0.015031097
-0.0012915247 -0.010713424 -0.018689986 -0.03171725 0.006837064 -0.010992343 -0.0011415816 -0.017754167
-0.015256941 -0.023341024 0.00022820922 -0.0046818242 -0.020277385 -0.018257003 -0.01357079 -0.009460284
-0.014539231 -0.0124617405 0.0018304926 -0.006444941 -0.024972234 -0.013590559 -0.006143254 -0.021898663
-0.0062868986 0.003408644 -0.015819576 0.000978755 -0.013085177 -0.01689623 -0.026371311 -0.00449206
-0.027462304 -0.019826459 -0.016595153 -0.010929601 -0.013141727 0.0026676126 -0.023456775 -0.009556186
-0.0092705395 0.018580696 -0.013792741 -0.008511498 -0.006493451 -0.0065154475 -0.003978734 0.0064304955
-0.014651606 0.016612228 -0.0054351194 0.001345712 -0.002743426 0.0014522013 -0.021083761 -0.01996537
-0.0060247965 -0.01419049 -0.0039027024 -0.013976587 -0.008998244 -0.018323556 -0.013599182 -0.01763009
-0.029680338 -0.0043353145 -0.012897984 -0.0049756663 0.009538375 -0.019914862 -0.035059713 -0.015884325

model/hidden/output_layer/b f4 [256]
00000000: 93be 493c 1fef 2dbc 1af5 253c b006 c6bb
00000010: 9c5c 80bb c1b6 fa3b b80c 5b3c b006 1b3c
00000020: 3005 f6bb 46b4 6e3b ce21 38bc c825 863c
00000030: 43a3 f43a 3c5f 3cb9 06c5 233c 07bc 423c
00000040: f5fd 8cbc dc8f b638 f44b f6bb f0da 593c
00000050: e1bf 29bc 0c59 55bc e6e0 97bb cab2 023c
00000060: 3074 5bbc e65c 873c 8a10 f0bb d1d2 75bb
00000070: 88c4 08bc b602 333c e34c 5abc cfcf a2b9
00000080: a072 15bb 02d1 54bc 05f0 f83b 2cff 21bb
00000090: 7166 12bc c89d b53b 212f 2e3c b5b1 72bb
000000a0: 2045 3e3c 3f7f 963c 2bca 0abc 9291 343c
000000b0: 99eb cd3c 35bd fabb 291e 1ebc 935e 953c
000000c0: b305 ebbb d627 83bb 3542 2cbc 0df5 d3bb
000000d0: 0ad7 b1bb a605 623c 68b3 06bc 9e7c 1539
000000e0: 2e09 e4bb 09d0 48bb 35a5 293c 809c ab3b
000000f0: ceef 3bbc 0bf1 513c 067f d33b c295 9dbb
00000100: b0a4 183c e137 a23b f83e 39bc ef90 09bc
00000110: 9242 0ebc 190d cdbb 7b6b 27bc 08b8 553c
00000120: a499 243a 5d1d 5dbc 8ee1 5abc 66b1 3fbb
00000130: 1e05 86ba adbe d33b 2208 f43a 0650 933c
00000140: e253 95bc 9619 f53b 6f35 0ebb 578e a5bb
00000150: 2320 593c bd5b 5cbc 7433 8abb 22a5 1e3c
00000160: 0bd3 f1bb 20e7 2dbc 14cc b13c a543 553c
00000170: 73e4 693c 1152 be3b 9649 02bc 7a10 143c
00000180: a89d 50bc e69e 35bc 4151 673c 1479 b7ba
00000190: 87b7 1e3c 76d2 c2bb 7da3 0ebc 3759 473c
000001a0: a05a d53a 593e 083c d082 47bc 381d 2fbb
000001b0: a03c ce3b 00bf 23bb 03ba 2d3c 635e 8e3c
000001c0: e976 78bc b0e3 953c 26ca 28bc 9c49 1dbc
000001d0: daf7 3dbc e514 b9bb b0b1 a2bb 9ace fb3b
000001e0: a872 433c 1837 c93b 3fdc 073c 1c85 e6bb
000001f0: 8a26 9fba fc07 1d3c c850 193c 4a2c e439
00000200: 25f5 5c3b 413e 13bc d39a 6d3c 660f c5bb
00000210: 788f 473c d48b c43b c89c 283c 6765 48bc
00000220: 7a7f 47bc 2ec7 e93b 8207 903c 33dd 263b
00000230: 4f41 1d3c f62d 47bc c167 5c3c 4491 bdb7
00000240: cc55 28bc c43b c93b 653b 143c 465b 2abc
00000250: 39e3 4e3c f7fe f2bb d0bb 72bc 849e 52ba
00000260: c009 34bc ad00 56bc df72 5bbb e064 643b
00000270: 86fa 29bc 9063 933a 27ce c73b 5c8d 343a
00000280: 0247 81bb 3c17 123c 2645 5ab9 3c13 373c
00000290: ac26 26bc 7d5a 59bc d5ad 3fbc 0e6f 14bc
000002a0: 36aa c3bb 6d6b e73c 3699 7c3c daa9 55bc
000002b0: 9353 413b 5830 403c bba5 643c 5b96 99bb
000002c0: b4e5 9e3b b597 503c bac9 f63b 8c54 8d3a
000002d0: 2494 083c 1e7c 0c3c 5ffb 3abc cbd7 cebb
000002e0: c98e 533c e2c2 38bb 8d19 ae3b 4964 feba
000002f0: 7c67 e0bb de16 3bbc 57de 023c 8998 64bc
00000300: 5899 363a 63d5 233c 9107 313b a2fc 16bd
00000310: 0c93 063c 58d5 c0ba 923e d43b ca1c 4bbc
00000320: a23e 8e3b a009 0b3c 3498 3f3a 8405 f8bb
00000330: 18aa d53c 0355 76bc c4f5 923b 32df cbbb
00000340: 2411 4db9 9325 123b 2408 32ba 385c 40bb
00000350: bf76 60bc 84ad 3dbc 92b8 b53c 4f96 773b
00000360: 87e1 3a3c a1c4 0cbc 4372 1abc 7429 083c
00000370: 7f05 8abb a972 3b3c 0298 4b3c 67a5 56bc
00000380: 05af 4c3c 5012 0f3b cbf8 db3a 8662 d9bb
00000390: faeb 0fbc 0201 cf3b a862 37bc 890c 543c
000003a0: fadf 263c 9b13 a6ba 6117 fb3c e15a 3bbc
000003b0: 0227 93bb d8bb 58bb d32e 413c fc49 c3ba
000003c0: b96e 523c 48b2 dd38 4e61 0c3c 8d88 99bb
000003d0: 0242 223b ecf8 3e3c 9497 0739 9ba8 8b3b
000003e0: 936f 8a3c 3d0f 44bc 61c6 9a3b fcdd 173c
000003f0: 1acc 2f3c b464 463b 9ac7 71bb 041e 2b3c
0.012313503 -0.010616093 0.010129238 -0.0060432777 -0.00391729 0.0076511805 0.013369732 0.009462044
-0.0075079426 0.003642337 -0.011238528 0.016375437 0.0018664378 -0.00017964555 0.0099957045 0.0118856495
-0.01721094 8.705232e-05 -0.0075163785 0.013296828 -0.010360689 -0.013021719 -0.0046349643 0.007977197
-0.0133944005 0.01652379 -0.0073261904 -0.003750969 -0.008347638 0.010925939 -0.013323995 -0.00031053877
-0.0022803918 -0.0129892845 0.007596972 -0.0024718745 -0.008935557 0.0055424906 0.010631354 -0.0037032191
0.01161316 0.018371223 -0.008471052 0.011021035 0.025136756 -0.0076519498 -0.009650745 0.018233573
-0.0071723103 -0.0040025515 -0.010513832 -0.0064684213 -0.005427246 0.013795292 -0.008221485 0.00014256171
-0.006959102 -0.0030641577 0.01035433 0.005237162 -0.011470748 0.012813817 0.0064543514 -0.0048091123
0.009316608 0.004950509 -0.011306517 -0.008396371 -0.008682864 -0.006257665 -0.010218496 0.013044365
0.0006278998 -0.01349577 -0.0133594405 -0.0029250025 -0.0010224914 0.0064619393 0.0018618146 0.017982494
-0.018228475 0.0074798567 -0.002169933 -0.0050523686 0.013252291 -0.0134496065 -0.0042175595 0.009682925
-0.0073798946 -0.0106141865 0.021703757 0.013016616 0.014275658 0.005808123 -0.007952115 0.009037131
-0.012732901 -0.011085248 0.014118494 -0.0013997876 0.009687311 -0.005945499 -0.008705971 0.012167267
0.0016277619 0.008315646 -0.012177184 -0.0026720297 0.006293848 -0.002498567 0.010603431 0.017378991
-0.015165069 0.018297046 -0.010302102 -0.009600069 -0.011594737 -0.005648243 -0.0049650297 0.007684541
0.011929192 0.006140601 0.008292257 -0.007034911 -0.0012142223 0.009584423 0.009357639 0.00043520547
0.0033715453 -0.00898701 0.014502245 -0.0060137985 0.012180202 0.005998114 0.010291286 -0.012231207
-0.012176389 0.00713434 0.017581705 0.0025461435 0.00959809 -0.012156954 0.013452471 -2.25982e-05
-0.010274362 0.006141158 0.009047364 -0.010397738 0.012627416 -0.007415648 -0.014815286 -0.0008034485
-0.010988653 -0.013061685 -0.0033485217 0.0034850165 -0.010374671 0.0011244882 0.0060975733 0.0006887519
-0.0039452324 0.008916672 -0.0002081586 0.011174019 -0.010141056 -0.013266203 -0.01169916 -0.009059681
-0.0059712185 0.028249467 0.015417388 -0.013040984 0.0029499277 0.011730276 0.013955529 -0.004687113
0.00484916 0.012731482 0.007531372 0.0010782643 0.008336101 0.008574514 -0.011412471 -0.0063123456
0.012912461 -0.002819233 0.0053131045 -0.0019408549 -0.006848274 -0.011419026 0.00798758 -0.013952383
0.0006965599 0.009999606 0.0027012567 -0.036862023 0.00821377 -0.0014712019 0.0064771855 -0.012397001
0.0043409625 0.0084861815 0.0007308752 -0.007569017 0.026082084 -0.015034917 0.004484864 -0.0062216753
-0.00019556709 0.0022300228 -0.0006791374 -0.0029351842 -0.013700186 -0.011577014 0.022182737 0.00377788
0.011406309 -0.008591802 -0.009426656 0.008310664 -0.004212081 0.011440911 0.012426378 -0.013100958
0.0124929 0.0021830983 0.001678252 -0.0066340594 -0.008784289 0.006317259 -0.011192955 0.012942442
0.010185236 -0.0012670638 0.030650796 -0.011435241 -0.004490734 -0.0033070948 0.011790949 -0.0014899368
0.012843781 0.00010571309 0.008568121 -0.0046854676 0.0024758582 0.011656027 0.0001293107 0.0042620427
0.016898906 -0.011966524 0.0047233556 0.009269234 0.010729814 0.0030272426 -0.0036892653 0.010444168

model/a_stream/W f4 [3, 256]
00000000: d239 bdbc 15ec 593c fca6 76bd 6df5 1a3d
00000010: b737 d1bc 9de9 c6bc 716c 833d 59e6 40bc
00000020: fd8f 5f3d 9f56 6b3c b1a4 913c d598 16bd
00000030: 7774 89bc 1388 8dbd 2221 43bc 3112 e0ba
00000040: 8327 293d 6498 f3bc 8bc9 bd3c 9884 09bc
00000050: cdd3 1e3d f93b 363b db00 b53c b915 9cbc
00000060: 7656 2f3d 3e29 7cbd 22d7 b13c 7d42 3fbd
00000070: 7b8d 923d d753 85bc 0687 4f3c 67c2 71bc
00000080: adb9 41bd 8ae6 0c3d 3751 7cbc 1b9c 44bd
00000090: fe65 9e3c ed10 8abd e385 beba f23a 9dbd
000000a0: bde7 3ebc c812 6f3d ebb3 513d 36a3 03bb
000000b0: 4014 8a3d 4e40 f93b 5be5 783c dfa1 703d
000000c0: b28c 383d 0306 02bd 7933 743b 1279 fa3c
000000d0: c1b9 223b ae92 6b3d f067 47bd 870f 433d
000000e0: 2ace 143d 7842 033d e76e a83d 4531 22bd
000000f0: 69b3 4fbd 709a 2fbc 65fe 98bc d63b 9cbc
00000100: 87c2 89bc 0ef7 dbbc 41e8 093b 8393 fdbb
00000110: 1f58 d4bb c3ad cf3c 60f1 383c 74af 58bb
00000120: fdf2 163d 5442 943b 268c 7fbd 5f9c 8dbd
00000130: 004c d23c 57d6 83bd e180 77bd ae9b 733d
00000140: 0f66 1c3d 524b 0cbc c28a 78bd da32 03bd
00000150: b7b1 963d 1b9d 0f3b 263e 673d 2293 c43c
00000160: 8a1f e239 5c8f 383c 9afc 943d 8e50 843b
00000170: 686e 82bb 3ea0 90bd bdb0 873b d8f7 12bc
00000180: 5872 ea3b 4142 6b3d c2ec 36bb eac0 95bc
00000190: 0df2 e6bc 9ed3 60bd f4fb 973c ea99 8e3d
000001a0: 7627 32bd 1250 f7bc c21b e43b 2361 6d3d
000001b0: 041d 84bd 5076 1d3d d345 d7bc 0326 8c3d
000001c0: 4292 013c c0ca 8f3d d5cb d4bb fe9f 733b
000001d0: 5693 863c deba 093c 9688 9abd d60f 1dbd
000001e0: 611e 2dbd 5ae8 81bd 29cf e1bc 41fd 033d
000001f0: 2763 043d 059a 453c 56c1 1a3c 56b7 3a3d
00000200: f2ba 8bbd a710 833c b329 86bd 1e44 9fbc
00000210: a446 ffbb 3cfe d8bc 8507 253d eaf7 30bb
00000220: e709 8b3a 8b5f a13c 74ea 063c 2c50 fdbb
00000230: e42d b13b 6300 443c 3549 52bd c2c0 9f3d
00000240: f0ac 253d 1339 85bc 8ec7 6ebc cc2f 563c
00000250: 4b20 4f3d 473c 413c 1be3 8e3b 584f 1fbd
00000260: f636 9cbd c16d 6f3c 47ac f23c 1f06 67bd
00000270: 971f 823c 70b1 183d 69f6 403d 3315 20bd
00000280: 42d1 753d 9edc b2bc b262 a3bc 8efb 583d
00000290: b2f7 a03c f414 a13c 6159 a23c f026 5dbd
000002a0: cd75 e2bc ee97 853d b363 1e3c f9f2 2c3d
000002b0: 2b88 833d c02e 9d36 0890 e9bc 1cd2 02bd
000002c0: bb84 383d 5025 3cbd 04c9 37bd 60b1 4dbd
000002d0: 2773 c3bc 0424 34bd 09a6 8d3b c568 9b3c
000002e0: 7d0e e93b b18f 67bc 4953 56bc 0abe 64bd
000002f0: 5100 cb3c 3607 36bc fcd6 91bc 471e 863c
00000300: a9c1 403d 78f8 863d 16d6 0f3d 37e1 9fbd
00000310: 454b d2bc 1809 913c f011 03bd 78be f23a
00000320: 961e 95bd 5faa 31bc ea35 1ebd 2acc 073d
00000330: 2c0e a83d 7a1f c239 2fb8 e7bc e41e 263d
00000340: c485 0d3d 4557 cebc 8c4a 753d 8b48 8fbd
00000350: af05 353b 56f3 4cba 2234 873d 72fd 85bc
00000360: 8d2d 86ba c08e 9abd c795 0bbc f1b0 70bc
00000370: e2e6 163d c2f9 cdbb 8d5b 27bb 8b40 993d
00000380: 83db b2bb 74aa 54bd 63cf b13c 403e 923c
00000390: 7bea 13bb ab8a 53bc cbb1 b43b ed62 87bb
000003a0: c8a7 7fbb 32bc 813d aa70 9a3d 9494 3fb8
000003b0: c83c d13c 8115 2d3c 90f4 61bc 33e3 ed3c
000003c0: 3238 e8bb 28c2 bcbc bbb0 57bd d9f2 de3c
000003d0: 683c 88bd ef50 04bc 2b41 5f3d 39cb 623d
000003e0: e8b9 1ebd 3132 143b b57a d6bc 0d8a 6e3d
000003f0: 044b 13bd 18f1 e83c db68 72bd 9344 833d
-0.02309886 0.013300915 -0.060217842 0.037831713 -0.025539262 -0.024281317 0.06417168 -0.011773669
0.054580677 0.014363914 0.017778726 -0.036766846 -0.016779168 -0.0691072 -0.011909755 -0.0017095265
0.041297447 -0.029735751 0.023167392 -0.008393429 0.038776208 0.0027806743 0.022095134 -0.019053327
0.042807065 -0.06156277 0.021709029 -0.046694268 0.071558915 -0.01627533 0.012666469 -0.014755822
-0.047296215 0.034399547 -0.0154002225 -0.048000436 0.019335743 -0.067415096 -0.0014535751 -0.076772586
-0.01165193 0.05836752 0.051196974 -0.0020086295 0.06742144 0.0076065427 0.015191401 0.058748122
0.045056053 -0.031744014 0.0037262125 0.030575309 0.0024829956 0.05751293 -0.048683107 0.04762223
0.036329426 0.03204581 0.08224278 -0.03959777 -0.05070821 -0.010717973 -0.018675992 -0.0190715
-0.01681639 -0.026851203 0.0021042975 -0.007738532 -0.0064802314 0.02535141 0.011288017 -0.0033063563
0.036852825 0.0045245085 -0.062389515 -0.06914591 0.025671005 -0.064373665 -0.060425643 0.05947464
0.03818327 -0.00856288 -0.060679205 -0.032030918 0.07358115 0.002191371 0.056455754 0.02399594
0.00043129578 0.011264648 0.072747424 0.004037923 -0.0039804466 -0.07061814 0.004140942 -0.008970223
0.007154744 0.05743623 -0.0027912115 -0.018280465 -0.02819159 -0.054889314 0.018552758 0.069629505
-0.043494664 -0.030189548 0.006961317 0.057953965 -0.06450847 0.03844291 -0.026278412 0.06843188
0.007908406 0.07021093 -0.0064940252 0.003717422 0.016427677 0.008406369 -0.07545583 -0.03834518
-0.0422653 -0.06343146 -0.027564602 0.032223944 0.03232112 0.012060647 0.009445509 0.045585
-0.06822766 0.015999151 -0.06550922 -0.01944166 -0.0077904034 -0.026488416 0.040290374 -0.0027003237
0.001060781 0.019698879 0.008234609 -0.0077305045 0.005407082 0.011962983 -0.051339347 0.078004375
0.04044813 -0.016262567 -0.014573945 0.013072919 0.050567906 0.011794156 0.004360569 -0.038894027
-0.076276705 0.01461357 0.029623164 -0.056402322 0.015884204 0.037278593 0.047109995 -0.039082717
0.060014017 -0.021833714 -0.019944523 0.052974276 0.01964936 0.019663312 0.01981801 -0.05399221
-0.027644062 0.06523119 0.009667325 0.042223904 0.06422456 4.684407e-06 -0.028511062 -0.031938657
0.045048457 -0.04593402 -0.044869438 -0.050217986 -0.02385862 -0.04397966 0.0043227714 0.018970856
0.007112323 -0.01413338 -0.01308138 -0.055845298 0.024780424 -0.011110118 -0.017802708 0.01637186
0.04705969 0.065903604 0.035116278 -0.07806628 -0.025670657 0.017704532 -0.03199953 0.0018519899
-0.072812244 -0.010843842 -0.038625635 0.03315369 0.08205828 0.00037026015 -0.028286068 0.040556803
0.034551397 -0.025188098 0.059885547 -0.06996258 0.0027621796 -0.00078182423 0.066017404 -0.016356204
-0.0010236964 -0.07546759 -0.008519596 -0.014690624 0.03684128 -0.006285877 -0.0025536746 0.07483014
-0.0054582967 -0.05192037 0.021705335 0.017851949 -0.0022570181 -0.012911479 0.0055143586 -0.004131666
-0.0039009918 0.063347235 0.0754102 -4.5676323e-05 0.025541678 0.010564209 -0.013791218 0.029039001
-0.007086777 -0.0230418 -0.052658778 0.027215408 -0.066521466 -0.008075937 0.05450551 0.05536959
-0.038751513 0.0022612924 -0.026181558 0.058237124 -0.035960212 0.028435275 -0.05918203 0.06409564

model/hidden/mid_rec_layer/upward/W f4 [80, 86]
00000000: 2545 6fbb 95a7 243c 9a3b 8e3c 0825 9dbb
00000010: d720 633a 460c 8ebb 956a 303c b984 ef3b
00000020: 6619 b8bc 0ad7 233c 9480 c93b 0ad7 233c
00000030: 3248 ac3c 98ec a43c 0ad7 233c 1d95 70bb
00000040: 77e9 d63c 0ad7 233c a154 fd3b e872 603d
00000050: 0ad7 233c 0cc0 c23a c9ba b53c 0ad7 233c
00000060: facb 14bd abb0 b23c 0ad7 233c 8de6 ab3c
00000070: 4af1 c23c 0ad7 233c 2ec2 ea3b 447f 103d
00000080: 0ad7 233c 7b12 5bbc 404e be3c 0ad7 233c
00000090: 3a57 d039 bd82 fb3c 0ad7 233c 2a52 27bd
000000a0: 803c e03c 0ad7 233c cff3 c8bc b371 f03c
000000b0: 0ad7 233c f9a2 1cbc debd cb3b 9d80 0b3d
000000c0: 89ae 6b3b b411 7c3b 9001 813b d431 fb3b
000000d0: a73b ed3c 90ac e53c 1ede ad3a afbf b9bb
000000e0: 0ad7 233c c7b0 803c 9055 113d 0ad7 233c
000000f0: f545 863b 7c1c 063d bce0 bf3b 8ade 643c
00000100: 8776 d2bb cfb7 db3c a8c2 133d aa57 d53c
00000110: efb2 3a3b 2adb a4bb faea bebc 0ad7 233c
00000120: fa57 12bd 2acb 4e3c 0ad7 233c 226c 5c3b
00000130: b557 e23c 9e44 c23c be76 0f3c 09f2 92bd
00000140: d2f7 48bc 0459 0e3c fa9d 2dbd 38a9 aebc
00000150: 4f0f 093d 91c3 4abd 3a1c 73bb 391a c9bc
00000160: d5bc 3fbd 1b99 be3c 286e 89bc 6a37 9d3c
00000170: 2f4a f5bc 85b2 3cbc 18c8 7bbd 0ad7 233c
00000180: d25b 5ebd 0ad7 233c 805d f8bc 0d60 89bc
00000190: 0ad7 233c 3744 d83a 20a1 9ebc 0ad7 233c
000001a0: a976 76bc c966 c53b 0ad7 233c c63b 993c
000001b0: 32d7 e4bc 0ad7 233c 559b e03d dc64 dcbc
000001c0: 0ad7 233c d92d b1bb 3dba 25bd 0ad7 233c
000001d0: ee83 ff3a faef ddbc 0ad7 233c 3a55 a63c
000001e0: 33c8 4ebd 0ad7 233c e45b 003c 2734 21bc
000001f0: 0ad7 233c ecec cf3d 4061 a6bc 0ad7 233c
00000200: c5f6 213d 4181 33bc 0ad7 233c dec3 c83c
00000210: dcb4 18bd 95a5 14bd 9847 ca3c ee3e 89bd
00000220: b641 9ebc 71b8 4bbd 2b4e 16bd cc7d 1ebd
00000230: 872b f63c bbe4 debc 0ad7 233c 5fc6 80bc
00000240: 8456 97bc 0ad7 233c 7997 09bc 1038 96ba
00000250: 54d5 e13c 5af2 71bd 45e2 24bd ca54 99bd
00000260: 7514 3fbd 92e9 b83b 17fb ed3b c97f 9d3d
00000270: e463 ca3c 0ad7 233c 08d4 253d 3aac 103a
00000280: 0ad7 233c df0e 16bc 6811 91bb d9b1 71bd
00000290: 4d9f 9cbb 25b6 473d 7623 083d 67fb d4bd
000002a0: 55e6 763d 24d0 573d 0787 13bd ccc1 c93d
000002b0: 6397 16bd e39a 10bd ab58 84bd 28fc e8bb
000002c0: c586 44bd 74fb 5e3c d93a 2cbd cdd4 53bd
000002d0: 74d8 8ebd 0ad7 233c 2012 86bd 0ad7 233c
000002e0: 663f a8bc d9eb 98bc 0ad7 233c 9dfd b93b
000002f0: 53c9 babc 0ad7 233c 3ef0 7ebc 5714 413c
00000300: 0ad7 233c 0e94 073b e1f6 00bd 0ad7 233c
00000310: a2e1 8c3d b75d e1bc 0ad7 233c 28e2 40bc
00000320: 2d97 47bd 0ad7 233c fcc2 093c 146e 0fbd
00000330: 0ad7 233c f897 0bbd 753f 2cbd 0ad7 233c
00000340: af24 c139 c9ff 75bc 0ad7 233c 035f af3d
00000350: 2845 e0bc 0ad7 233c fdb9 db3c f7e6 25bc
00000360: 0ad7 233c ec61 803c c15e b7bc e8ee 21bd
00000370: 3266 793c c27a 8fbd e1ca 53bc 01bd 71bd
00000380: 2f58 cdbc fae5 1bbd cf97 af3c 3f22 0cbd
00000390: 0ad7 233c 16fc 80bc 3afc cebc 0ad7 233c
000003a0: 4bdd eebb ebe1 07bc b262 fb3b 9f27 6cbd
000003b0: be2e 5abd 1dc9 9cbd 7fd2 36bd e55c c8ba
000003c0: 8123 26bc 4cec 343d 8b0b 8d3c 0ad7 233c
000003d0: 5f83 3d3d feae 52bc 0ad7 233c 3966 8dbb
000003e0: 84d9 99bc e6ca 81bd dd75 98bc bc23 afbc
000003f0: e9ef 253c 2534 d1bd 0d27 023d 241a c33c
-0.003650972 0.01004972 0.017362405 -0.0047956742 0.00086642563 -0.004334959 0.010767599 0.007309523
-0.022473048 0.01 0.006149361 0.01 0.02103052 0.020132348 0.01 -0.0036709972
0.026234372 0.01 0.007731036 0.054797083 0.01 0.001485826 0.022183793 0.01
-0.03632734 0.021812757 0.01 0.020983959 0.023796696 0.01 0.0071642613 0.03527762
0.01 -0.013371105 0.023230672 0.01 0.0003973784 0.03070199 0.01 -0.040849842
0.027372599 0.01 -0.02453032 0.029351091 0.01 -0.00956034 0.0062177023 0.034058202
0.0035962185 0.00384627 0.003936954 0.007665852 0.028959109 0.028036386 0.0013265049 -0.0056686024
0.01 0.015709294 0.03548199 0.01 0.004097695 0.03274201 0.005855648 0.013969073
-0.006422821 0.026821045 0.03607431 0.026042778 0.0028488 -0.005031009 -0.023305405 0.01
-0.035728432 0.01262168 0.01 0.0033633788 0.027629713 0.02371436 0.008756338 -0.07175071
-0.012266116 0.008688215 -0.042386986 -0.021320924 0.033461865 -0.049502913 -0.0037095682 -0.024548637
-0.046810944 0.023266366 -0.01677616 0.019191463 -0.0299426 -0.011517172 -0.06147012 0.01
-0.054286785 0.01 -0.030318022 -0.016769433 0.01 0.0016499822 -0.01936394 0.01
-0.015042939 0.006024216 0.01 0.01870526 -0.027934644 0.01 0.10967127 -0.026903562
0.01 -0.005407077 -0.040460814 0.01 0.0019494274 -0.027091969 0.01 0.020304311
-0.050483894 0.01 0.007834408 -0.009839094 0.01 0.10152611 -0.020310044 0.01
0.03954198 -0.0109561095 0.01 0.02450746 -0.037281856 -0.036290724 0.024692342 -0.06701456
-0.019318443 -0.049736444 -0.03669564 -0.038694188 0.030050052 -0.027208677 0.01 -0.01571959
-0.018473871 0.01 -0.00839793 -0.00114608 0.027567543 -0.059069015 -0.04025485 -0.07486875
-0.04665037 0.005643078 0.0072625983 0.07690389 0.024705835 0.01 0.040485412 0.0005518828
0.01 -0.009158819 -0.004427124 -0.0590075 -0.0047797323 0.04875769 0.033236943 -0.10399514
0.060278255 0.052688733 -0.036017444 0.09851417 -0.036765467 -0.03530396 -0.064622246 -0.0071101375
-0.04798009 0.013609756 -0.04204831 -0.051716615 -0.06974879 0.01 -0.06546426 0.01
-0.020538043 -0.018667148 0.01 0.005675985 -0.022801077 0.01 -0.015560208 0.011784635
0.01 0.0020687613 -0.031485442 0.01 0.068789735 -0.027510507 0.01 -0.01177267
-0.048728157 0.01 0.008408304 -0.035017088 0.01 -0.034080476 -0.042052705 0.01
0.0003683916 -0.015014597 0.01 0.08563044 -0.027376726 0.01 0.026822085 -0.010125867
0.01 0.015671693 -0.02238405 -0.03953448 0.015222119 -0.07005836 -0.012926788 -0.05901814
-0.025066463 -0.03806112 0.021434693 -0.034212347 0.01 -0.015745204 -0.025266755 0.01
-0.007289564 -0.008293609 0.0076716775 -0.057654973 -0.053267233 -0.07655547 -0.04463434 -0.0015286474
-0.010140301 0.044170663 0.017217418 0.01 0.046267863 -0.012859104 0.01 -0.0043151644
-0.018780477 -0.06337528 -0.01861089 -0.021379344 0.010128 -0.10215024 0.031775523 0.023816176

model/hidden/mid_layer/W f4 [256, 256]
00000000: ed04 a0bb df70 1dba 185a 3ebb ba94 68b9
00000010: 0ad4 07bb 66bc 56bc 125a 26bc 90a5 28bc
00000020: 7539 f23b e6ee caba d6e8 22bc dc4f 65bc
00000030: 544c 8fbc af01 8cbb 2add 99bc 0983 bfbc
00000040: 00d2 83bc 518e 28bc 9004 96bc 2dd0 3c3c
00000050: 64e5 e4bc 7ac4 ca3b 635e 46bb 412b b2bb
00000060: ad0b c3bc 45f3 ebbb 3724 6dbb b03f 1b39
00000070: bd7f 0fbb 2d36 c0b9 4adf 71bc c4ca ab3a
00000080: 44bb 93bc 4cbc 07bb d5fa 74ba 67d3 4dbc
00000090: abc7 f5bb 3d75 e63b 761b 82ba e0fb 6ebc
000000a0: e0b9 ba3b 0460 dabb ecfa 86bc 0642 69bc
000000b0: 4f3d 98bb 00a1 523b 7846 16bc e627 003c
000000c0: 5cfc 3d3c ad5f a4bb 2c7d efbb 1524 3c3b
000000d0: 2668 1cbc 866c abba 6d84 24bb 60b0 8ebc
000000e0: 6c6a 923b 1f96 f2bb 6a1a 45bc 8891 e53a
000000f0: edbe 27bc 8437 0a3c 3241 20bc 628b 27bc
00000100: 1537 adba d413 45bc a99b 85bb 849d c03b
00000110: 8838 36bc ea69 843a fd28 7f3b 7a8d 2ebc
00000120: 2c9a e73b c649 49bc 10b3 4abc 4b2e 0bbc
00000130: 371f 0cba 1ae1 073b 1b51 80bc caca 32bc
00000140: 7fc4 133b 7869 9fbb 8cfe d23b d4af 3abb
00000150: 3b58 53bc ffed 91ba 86b4 1bbc c078 2ebb
00000160: 9f88 1fbc c6f5 fabb 51b4 14bc c62c aabb
00000170: e219 54ba 0541 5fbc 0464 17bc 7984 8c3c
00000180: be66 823b 98c2 f7bc 0fb8 9dba ed1d 18bc
00000190: fd01 6ebb 1b83 5fbc f03d 553c be5c b0ba
000001a0: 8925 c3bb 0bf0 5abd 1811 ee3b 0e32 e0bb
000001b0: 0e61 f13b fd17 9bbc ea57 f8ba 1b2f 2bbb
000001c0: bc64 bebc bb26 08bc a2dc 7e3c a23d dcbb
000001d0: 9c0f b1bb 486c bcbb e186 41bb fcbe 083b
000001e0: 6e33 7b3b a7e2 0e3c b707 92bb 8fa0 dabb
000001f0: c9dc d6ba c077 15bd 498c 37bc b1f3 24bc
00000200: bf4d 1ebb bb28 24bc 7e38 1dbc 46ac e63b
00000210: e6b2 8bbc 001d 1bbb 89b7 0ebc 56ed ef3b
00000220: 1a1d 48bc 0c8c d339 b900 0c3c 4262 86bc
00000230: 676d f9ba af33 87bb 66b6 ed3b 96d4 283c
00000240: a384 27bc 0c63 04bc 4f81 90ba 2df3 e8ba
00000250: 7d8c 0fbb 30ea 863b 4d64 01bb 1c6e 97ba
00000260: 304c c4bb 7974 aabc 19ac d8ba 011e babc
00000270: 5510 8abc 2852 a63c c27e c63b ee83 76bc
00000280: dc78 1e3c df99 ba3a 32f1 4b3c 8bb0 36b9
00000290: 1783 d63a 67d5 69bc b8cd f43b 034c dcba
000002a0: f784 2fbc 8ade 16bc 17d4 8e3c 0710 d7bb
000002b0: eb92 603b 7dbc c739 c989 76bc 0ccc 213c
000002c0: 9737 0bbc 7876 a3ba 41a0 ae3b d799 6c3b
000002d0: 912b 283b 1c35 3bbc ca87 46bb 63df 7abb
000002e0: cc0a dbbb d6bc 88bc d5d9 ffbb 964b 9abc
000002f0: 4e26 04bd 20e6 a7bc fba7 f4ba 4e2b a6b9
00000300: 56ee 793c febb 3b3b 94c8 3e3c d293 a43a
00000310: 03f5 42bc f392 82bb f9b5 2bbb 8041 933c
00000320: a83e cbbb 4820 e6bb 0296 a2bb 6b17 cebc
00000330: c3d6 63bb 84ad d3ba f39f bcbc 0f1c 4fbc
00000340: e107 b03b 53fd cf3a 0703 33bc f73c 6fbc
00000350: a217 99bc 8491 46bb 924e babc c48d 55bc
00000360: cdc2 9fbc c44d a5bb 1388 70ba 3c73 3fbc
00000370: ffc3 adba ab37 41bb 008f ebbc 7ae4 86bb
00000380: 16a5 5a3b 96a2 78bc 48dc 6bbc 22a2 913a
00000390: ea33 9b3b 9a49 d5bb 57cc 8fbb 944d b53a
000003a0: 312c 1e3a 8c1b 19bd b244 36bc bb0e 183b
000003b0: e9a1 8b3b a9cc 3bbb ca3b d43b 15b5 59bb
000003c0: 78d2 f63b 5268 19bc cfbf a9ba 6caa 80bc
000003d0: 8c68 44bc d45a 82ba b4e2 1bbb 0ccd edbc
000003e0: ee10 79ba 7f33 82bb a2c4 233b 55b7 8ebc
000003f0: cc11 dcbb 3235 98bb 9526 d6bc 051a 47bb
-0.0048833997 -0.0006005894 -0.00290454 -0.00022180649 -0.002072575 -0.013106441 -0.01015331 -0.010293379
0.0073921033 -0.0015482574 -0.009943208 -0.013996091 -0.01749245 -0.0042726616 -0.018782217 -0.023377912
-0.016091347 -0.010287837 -0.018312722 0.011524242 -0.027941413 0.0061879726 -0.0030268661 -0.005437285
-0.023809278 -0.007200631 -0.0036184916 0.00014805677 -0.0021896206 -0.00036661458 -0.014762709 0.0013106694
-0.018033631 -0.00207116 -0.0009345238 -0.012562609 -0.007500609 0.007033019 -0.0009926397 -0.014586419
0.0056984276 -0.006664278 -0.01647707 -0.014236933 -0.0046459804 0.003213942 -0.0091720745 0.0078220125
0.011595812 -0.0050162883 -0.007308623 0.002870803 -0.009546315 -0.0013078607 -0.0025103346 -0.017418087
0.004468253 -0.0074031497 -0.012030223 0.0017514685 -0.010238391 0.0084360875 -0.009781169 -0.010226103
-0.0013215268 -0.012028653 -0.004077394 0.0058781523 -0.011121877 0.0010102366 0.0038934343 -0.010653848
0.0070679393 -0.012285655 -0.012371793 -0.008494924 -0.00053452275 0.0020733536 -0.015663674 -0.0109126065
0.002254754 -0.004864868 0.0064390358 -0.002848615 -0.012899454 -0.001113355 -0.009503489 -0.0026622266
-0.009737163 -0.007658693 -0.009076194 -0.0051933257 -0.0008091015 -0.013626342 -0.009240154 0.017153012
0.003979533 -0.030244157 -0.0012033003 -0.009284479 -0.0036317103 -0.013642098 0.013015255 -0.0013455374
-0.0059554023 -0.05345158 0.0072652213 -0.0068419045 0.007366306 -0.018932337 -0.0018947099 -0.0026120606
-0.023241393 -0.008310015 0.015555533 -0.0067212144 -0.005403472 -0.005750213 -0.0029529857 0.0020865789
0.0038330215 0.00872103 -0.004456486 -0.006671972 -0.0016392703 -0.036491156 -0.01120288 -0.010067866
-0.0024155227 -0.0100194765 -0.009595988 0.0070395796 -0.017053079 -0.0023668408 -0.00871075 0.007321994
-0.01221397 0.000403494 0.008545094 -0.016404275 -0.0019029797 -0.004126034 0.0072544096 0.010304591
-0.010224494 -0.008080255 -0.0011024865 -0.0017772667 -0.0021903806 0.004117273 -0.0019743622 -0.0011553201
-0.0059905276 -0.020807492 -0.0016530781 -0.022719385 -0.01685349 0.020302847 0.006057591 -0.015046103
0.00967237 0.0014236531 0.012447642 -0.0001742264 0.0016365972 -0.0142720705 0.0074708126 -0.0016807321
-0.010712854 -0.009208331 0.017435117 -0.00656319 0.0034267257 0.00038096673 -0.015047499 0.009875309
-0.00849714 -0.001247122 0.0053291623 0.0036102438 0.0025660733 -0.0114262365 -0.003029334 -0.0038280122
-0.0066846367 -0.016691606 -0.00780795 -0.01883487 -0.032263093 -0.020495474 -0.0018665785 -0.00031694252
0.015254578 0.0028645988 0.011644501 0.0012556261 -0.011899236 -0.003984803 -0.0026200993 0.017975569
-0.0062025376 -0.007022891 -0.00496173 -0.025157651 -0.003476546 -0.0016149734 -0.023025488 -0.012640967
0.005372033 0.0015868343 -0.010926015 -0.0146019375 -0.018688027 -0.0030299136 -0.022742543 -0.013034288
-0.019502068 -0.005044671 -0.000917555 -0.011685189 -0.0013257264 -0.0029482644 -0.028754711 -0.004116592
0.003336256 -0.015175482 -0.014395781 0.0011110941 0.0047364132 -0.006509018 -0.004388373 0.0013832324
0.0006033807 -0.037379786 -0.011124777 0.002320214 0.0042612446 -0.0028655923 0.006476854 -0.0033219506
0.007532414 -0.009363251 -0.001295084 -0.015706263 -0.011987817 -0.0009945282 -0.0023786249 -0.029028438
-0.0009501119 -0.003973424 0.0024989028 -0.017421404 -0.0067159887 -0.0046450133 -0.026141444 -0.00303805

model/a_stream/b f4 [3]
00000000: c30e af3c fdaa a1bb 7cce e1bb
0.021369344 -0.0049337135 -0.00689107

model/hidden/mid_rec_layer/upward/b f4 [80]
00000000: 728e c9bb 2250 bfbc 55e6 733f 0f3b c9bc
00000010: 52cd c8bb f73c 97bc 7256 753f 0042 a1bc
00000020: 0e68 aabb b621 f3bc 2021 753f 8736 f5bc
00000030: edb6 d1bb d5bf aabc 18a6 733f 66e8 b6bc
00000040: 0e7b cdbb 0af2 b8bc 3f45 743f a356 c2bc
00000050: 5962 cabb d2d8 89bc ac11 753f 8791 95bc
00000060: 812c c7bb bf4b eebc fc19 743f c163 f4bc
00000070: 60d2 a7bb a6c7 ffbc b587 743f 3113 01bd
00000080: 0853 b7bb dc3b fbbc c2b8 743f d1ce febc
00000090: 1ea9 bdbb 4c52 04bd 80eb 723f 9dda 07bd
000000a0: 47b4 d2bb 8cbf d5bc 6f54 733f b470 dfbc
000000b0: 0c85 d7bb bec2 a1bc 641b 753f b456 abbc
000000c0: 3255 eebb 00b0 8fbc 1a0a 723f 130e a3bc
000000d0: 39cb c6bb 48bd 73bc 1e31 753f 2967 86bc
000000e0: 91f2 d2bb a068 7dbc b9e0 743f 5cb2 8bbc
000000f0: 37af bebb 2df9 83bc eb27 763f d710 8ebc
00000100: b21a aebb 496b 77bc 3348 773f fe56 84bc
00000110: d9af ccbb f339 ccbc 51bb 733f e8b4 d5bc
00000120: 8eac dabb d16c 9cbc 6339 733f 3ce0 aabc
00000130: 4416 c0bb 6886 86bc 7736 763f c91b 90bc
-0.006151014 -0.02335364 0.95273334 -0.024564294 -0.0061279917 -0.018461687 0.9583503 -0.019684792
-0.0052003926 -0.02967916 0.9575367 -0.029933227 -0.0063999803 -0.020843426 0.95175314 -0.022327613
-0.006270773 -0.02257635 0.9541816 -0.023722952 -0.0061762747 -0.01682702 0.9573009 -0.01825787
-0.0060783033 -0.029088853 0.9535215 -0.029832723 -0.005121514 -0.03122313 0.9551957 -0.031512443
-0.005594615 -0.030668192 0.9559442 -0.031104477 -0.0057879826 -0.032305047 0.94890594 -0.03316747
-0.006430182 -0.026092313 0.9505071 -0.02727542 -0.0065771397 -0.01974618 0.9574492 -0.020915367
-0.0072733397 -0.017539978 0.94546664 -0.019904172 -0.0060667065 -0.014876671 0.9577807 -0.016406612
-0.0064376076 -0.015466839 0.956554 -0.017052822 -0.005819227 -0.016110027 0.9615466 -0.017342014
-0.005313241 -0.015101262 0.9659454 -0.016154762 -0.0062465486 -0.024929976 0.952077 -0.02608724
-0.006673402 -0.019094856 0.9500944 -0.020858876 -0.0058620293 -0.016421512 0.96176857 -0.017591374

model/hidden/input_layer/W f4 [256, 86]
00000000: 4098 733c 7e17 afbc 4350 22bc c86a a6bc
00000010: 3018 6c3b ae66 2bbb aa91 273c 8c44 a0bd
00000020: d2eb 5dbc 0fc3 ab38 4625 afbd 5719 683c
00000030: 8c65 afbc 025d 78bb 6016 34bc 9739 d43c
00000040: 8794 883c 9829 d9bb 482c 09bd 8b04 30bd
00000050: 8a46 a83b 9100 153d d426 f93b 0cd0 41bc
00000060: 25bd 023d 6453 56bd 32e2 a83b cd4b b63c
00000070: b6a5 093b 579c 9b3c d89e ddbb d8ae 8f3a
00000080: 8d13 e13c e287 c13b d6af edbc 56b8 32bb
00000090: 136b b33b 2e9a 7c3b 951a d83a 4c81 08bc
000000a0: d404 03bc 57ef 26bc aff0 c8bb d80d 923c
000000b0: a89a fe3b aa05 b33c bebc 2ebb 1b8f d6bc
000000c0: 1379 d23c af49 2b3c 7dd5 0bbb 3145 fcbc
000000d0: 6c0b 523c 7c8c d5bc 6a96 863c f1af 3f3d
000000e0: 8571 bcb9 d6ac 78bc 3015 71bd 8a97 9e3a
000000f0: efee a83b d11d 103d ffdc 3fbc d3ee 4dbd
00000100: 3598 5dbc 5676 92bc ba5f 8d3c c67d 433c
00000110: fc12 2ebc c9f8 9bbd aa69 b4bc d095 29bc
00000120: 87b1 ffba 0504 25bd 3fb6 dc3b 7936 e6bb
00000130: 7d72 51bd ba11 a8b9 9d88 a139 02ca 0a3d
00000140: 70ab 7bbb bd16 82bb 228a f9bc 01bf 383d
00000150: a467 cabc 811f f4bc f227 a8bc 14c2 9bbc
00000160: 27c0 58bb c9f7 9fbc 2183 a3bc 1278 5ebc
00000170: 979d afbc b537 18bd 6592 15bc 3b4d 65bb
00000180: c5d2 00bd 02ac d03b 0024 4abc c58c 69bc
00000190: 8e37 4cbc dd18 65bb 3c56 a0bc f3ff 0c3c
000001a0: c57e cdbb e16e 883c a494 deba 1ff7 ebbb
000001b0: 91ad 9fbc 1c8a 873b 98e4 06bc 03c5 29bd
000001c0: 3e74 aabb b48e 70bb 246e 7e3c 7f86 c1bb
000001d0: b5fe 8fbc b0b7 cebb 0ee4 f0bb 5150 cdbb
000001e0: 480c d7bc 96f8 cabb 6275 58bc eb4b 093c
000001f0: 4132 ed3b 0231 673b c61d bfbc 1b6d b2bb
00000200: 1f63 643b a059 a9bc 2125 673b f958 45bc
00000210: 407d 98bc 7e8a edbc ed4b f73b 73d8 cbbc
00000220: 9749 a9bc fe8f 893c 3359 bdbb da70 ccbb
00000230: ac4d 44bc 1818 c8bc 659b 823c 00d1 3f3c
00000240: d62c c2bc 1455 723c 2c32 fc3b b81a 563c
00000250: bca2 97bc 1ca8 e73b 8666 92bc 47fb 0d3c
00000260: 443c 223c 0c48 053b fe55 5fbc 8c02 7fbc
00000270: c5c5 febb e86a 8abb 966b 0dbc 3171 aabc
00000280: aa40 3d3b 68fc 9ebc c976 603a 7aa3 3b3c
00000290: 6cb0 d8bc 6885 e5bc 0591 e6bc 9b62 2e3c
000002a0: c2e2 87bc 76b2 f4bc 7bb0 83bc 27e0 f7bc
000002b0: d05e 7ebc ba07 b13c dca4 ecbb 63f8 463c
000002c0: 061d 27bd e187 e1bb 6b2e a1bc 9688 b23c
000002d0: b089 d6bc 96e3 123b 6c7c f23c 58dd 52bc
000002e0: dd88 aa3c 7828 07bc 0999 1a3c 6ee2 2b3d
000002f0: ec06 0e3d b00b aa3c 5a0d a83b fe53 4b3c
00000300: e2d9 d3ba c24e 96bb 3d3b d33b cc3c 26bc
00000310: 4a34 4f3c b7fa 903c f40c f1ba cc34 2d3d
00000320: c3b5 45bd 0aba 94bc 9e03 14bc 507e 8b3c
00000330: 9a20 513b 9536 f93c 455f 543b 2e48 1c3c
00000340: 5e30 96bb f4de 5a3b 09d2 823c 5a7d 1dbc
00000350: 7aeb 3ebd 3312 d2b9 6b33 9bbc fe36 923b
00000360: 98fb a4bb 9ca3 d9bc cc0d 7b3c c0ad 60bc
00000370: fef0 c33a 41a1 b4bc 7385 d43c 4653 163c
00000380: f4a4 8f3b bebb 42bc 649f 8fbc 8942 92bd
00000390: 2f11 39bb f4a4 dc3c 6f02 f9bc fea7 3d3c
000003a0: feae 3f3d 999c 083c 43e5 6b3b a9cb c53a
000003b0: b700 66bd ff82 d4bc f4d2 4ebc 9b23 9d3a
000003c0: 36d1 2bbc d79a ba3b f8a4 41bd 5f69 173c
000003d0: 1d73 673c f428 a53c 42df e4bb faf2 1f3d
000003e0: 8909 d7bb 7fd6 023c 4306 acba 0fad 863c
000003f0: cc26 8c3b 7cf4 933b 6d19 84bb d82f 0f3c
0.014867842 -0.021373507 -0.009906831 -0.02031459 0.003602516 -0.002615373 0.0102276 -0.07825574
-0.0135449935 8.190248e-05 -0.08552031 0.014166198 -0.021410726 -0.0037897234 -0.010991663 0.025906367
0.016672386 -0.006627273 -0.033489496 -0.042973083 0.005135362 0.036377493 0.0076035056 -0.011829387
0.031918664 -0.05232562 0.0051539177 0.022252942 0.0021003312 0.018995447 -0.0067633204 0.0010962142
0.027475143 0.005906091 -0.02901451 -0.0027270517 0.0054754107 0.0038544047 0.0016487414 -0.008331608
-0.007996757 -0.010188899 -0.0061322073 0.017828867 0.0077699013 0.021853287 -0.0026662792 -0.026191285
0.025692498 0.010454579 -0.0021336966 -0.030794712 0.012820106 -0.026067965 0.016429145 0.04679865
-0.00035942733 -0.015177926 -0.058858097 0.0012099606 0.005155436 0.035184685 -0.011710404 -0.05027659
-0.0135250585 -0.017878693 0.01725756 0.011931842 -0.010624643 -0.076158114 -0.02202304 -0.0103506595
-0.0019507863 -0.040287036 0.0067355926 -0.0070255366 -0.051134575 -0.00032056664 0.00030810098 0.033884056
-0.0038401745 -0.003969996 -0.030461375 0.04510403 -0.024707623 -0.029800178 -0.02052686 -0.019013442
-0.0033073516 -0.019527333 -0.019959988 -0.013578432 -0.02143745 -0.0371625 -0.009129141 -0.003498866
-0.031451005 0.006368161 -0.012337685 -0.0142547535 -0.012464417 -0.0034957447 -0.01957237 0.008605945
-0.0062712156 0.016654434 -0.0016981554 -0.00720109 -0.019491943 0.004136337 -0.008233212 -0.04144765
-0.0052018454 -0.0036706151 0.015529189 -0.0059059258 -0.017577508 -0.0063085184 -0.007351405 -0.006265678
-0.026250973 -0.0061941845 -0.01321158 0.008379917 0.0072386567 0.0035277014 -0.023329627 -0.0054451353
0.003484912 -0.02067262 0.0035269933 -0.0120451385 -0.018614411 -0.028996702 0.007546893 -0.024883484
-0.020664973 0.016792294 -0.0057784556 -0.006239039 -0.011981409 -0.024425551 0.015943239 0.011707544
-0.02370302 0.014790792 0.0076964106 0.013067894 -0.018510215 0.0070696007 -0.017871153 0.008665866
0.009902064 0.0020337133 -0.013631342 -0.015564572 -0.007775041 -0.00422417 -0.0086316075 -0.020805927
0.0028877654 -0.019407466 0.0008562622 0.01145255 -0.026451312 -0.028017715 -0.028145323 0.010643627
-0.016587619 -0.029870253 -0.016075363 -0.030258251 -0.015525535 0.02161013 -0.007221801 0.012144181
-0.040799163 -0.006882653 -0.019675454 0.021793645 -0.026188701 0.0022413484 0.029600345 -0.012870155
0.020817215 -0.008249395 0.0094359005 0.041963987 0.03467457 0.020757526 0.0051285448 0.012410162
-0.0016162957 -0.0045870254 0.0064462707 -0.010146331 0.012646744 0.017697675 -0.0018390701 0.04228668
-0.048269045 -0.018155117 -0.0090340655 0.017028004 0.0031910301 0.030421535 0.0032405418 0.009538693
-0.0045834025 0.003339705 0.015969293 -0.009612406 -0.046611287 -0.0004006788 -0.018945416 0.004462122
-0.005034875 -0.026567273 0.015323114 -0.0137133 0.0014949141 -0.022049548 0.02594254 0.009175127
0.0043836776 -0.011885582 -0.017532058 -0.07141597 -0.0028239002 0.026934125 -0.030396668 0.011575697
0.046797745 0.008338117 0.0035994805 0.0015090603 -0.056153025 -0.02594137 -0.012623537 0.0011988761
-0.0104868915 0.005694728 -0.047276467 0.009241431 0.014126566 0.02016113 -0.006984622 0.03905008
-0.006562416 0.00798571 -0.0013124425 0.016439943 0.004277086 0.004515229 -0.0040313513 0.008739434

model/v_stream/W f4 [1, 256]
00000000: d74f e2bc 842d 163d 9a1c 3e3c 78de dc3c
00000010: 3949 cabc ebee 21bd 2572 0f3c 69ab 05bd
00000020: 71cf ad3c b5bd 39bc 6cd8 c93c 15dd 7f3c
00000030: 57d9 debc 6a0b 4f3b 98b5 e2bc 0208 10bd
00000040: 365a 82bb 374f a13c 0f59 f93c bbe4 1fbd
00000050: cfc6 783c b047 183d 7a17 66bc 0774 313c
00000060: 1119 c9bc 6a79 443c daa5 013d c610 b73c
00000070: 1d5a c1bb b9af c1bc 5bf0 cc3c 2a96 5e3c
00000080: b0df 8f3c 51d7 803c e047 04bd d8ed 11bb
00000090: 6083 1a3d 9e27 fabb 246a debc 20a2 76bc
000000a0: e08e 16bd 33a4 a53c acea 74bc 82f1 d8bc
000000b0: cdac cc3c f196 043d 34c0 fe3c 1b99 cc3a
000000c0: 3602 da3c 1741 debc 5e65 163d 997d c43c
000000d0: d293 933c d8ec 633b b829 7dba 16a2 c23b
000000e0: ed70 cf3c 897d 9f3c 34ad 0d3c dbf8 f93b
000000f0: 6c1d 5dbc 7d12 81bc cc6f babc b514 d33c
00000100: d93f 12bd 65eb 02bd 2605 f93c 1468 f53c
00000110: 2c8c ca3c 023b cf3c 2af0 073d e200 00bd
00000120: 00c9 c93c 2f17 cd3c 031f ab37 9703 d239
00000130: 25bb f63c cb1b 6ebc 4271 eb3b 6d2d 313c
00000140: c6e2 a8bc 6796 003c 0c86 853b ec2a e0bc
00000150: 29cb e33b 60e4 dd3c d8a2 ffbb da88 eabc
00000160: c73f 623c ff88 f23c 97fc bf3c 0a2c 37bd
00000170: 596b 17bd ac8d 50ba 2b6d f03c d2ac dabc
00000180: c118 333d 15fc 373c a499 2ebd 39b5 9d3c
00000190: 0fba a2bc c542 7bbb 6163 d73c f1bd 563c
000001a0: 9f47 843c ab1c ffbc a753 063d 576a b5bb
000001b0: 6850 7bbc 55b9 f43b b756 edbc 7b4b 803c
000001c0: 3e1c c63c c18d 473c 7b85 113d 8b6d 113d
000001d0: 3b46 e93c 824f 013d 4715 97bc 899b babc
000001e0: ca6c ab3c 282f 1e3b f553 ffbc ae26 68bc
000001f0: f212 f93c 9db5 06bd 0d60 06bd 054a 05bc
00000200: be62 ad3b 8522 eb3c 0fac ce3b a569 bf3c
00000210: c5fd febc f32e 9d3c dac4 d23c e7ef 083d
00000220: 2746 213d 5804 f0bc e702 21bd 9e34 d2bc
00000230: 9114 d1bc e77f 3a3d 4b8c 99bb 327d a33c
00000240: bd02 ad3c 0779 d7bc 6c0a 0fbd 203f 163d
00000250: 2142 143b 52b5 ef3c dab8 193d 9779 63bc
00000260: fe6b 3cbb dc3b 213d 64c0 97bc e7b5 6fbc
00000270: 980c 213d e2a1 afbc f831 42bc 876e debc
00000280: ae95 0fbc 239c 28bd a9c6 af3c 86ed 543c
00000290: 89a6 193d ff2b b33c c882 a33c 664a babb
000002a0: 30ad bebc 23fe b33c b91b 27bd bbd6 1e3c
000002b0: 941e 993c 6ad4 e6bc 9246 9bbc 6092 abbc
000002c0: 17ee a6bc 8b96 083c 0925 903c 31e8 85bb
000002d0: f5ad d8bc 08fc b3bc c84c f73c 953f 033d
000002e0: d02a b5bc 284b 613c fbf8 c1bc 76bc 363c
000002f0: defe 023d 7d2c 103d 5054 0dbd db4c 893c
00000300: 21a6 9fbc df02 d33b b559 aebc 1588 14bd
00000310: dd14 fbbc 89bc ee3c af9d f9bc 099a 1e3d
00000320: 3789 dcbb 063f e8bc 7ad0 e1bc 068b e33c
00000330: bfbd 053d 2638 123d 95f9 06bd 3447 72bc
00000340: 79a2 f23c 0aaf 953c 1dcd 3bbc aa1f 48bc
00000350: 331c 0a3d a5e3 093d 08fa 903c 2fe7 e6bc
00000360: 1bd6 17bd 2c94 18bc 4f2f d93c 458a ecbc
00000370: 2ffa a7bc 40a3 07bd 2afc 9fbc 4075 9c3a
00000380: 13fe 1ebd acad a93c 497f 9dbc a567 033d
00000390: a6fa 723c f89c febc 5078 e93c 8284 fabc
000003a0: 8195 08bd 802d 7b3c 5849 d93c 3f50 013d
000003b0: 572b 033d 3c43 b73c 5b19 e9bc ecd5 93bc
000003c0: 9665 05bd fed4 a63c d343 9bbc 089e 083d
000003d0: 12c1 7e3b 759d 23bd b79d 8ebc 5441 5dbc
000003e0: a16f 233c 07f7 143d 7643 ffbc 4c98 e13b
000003f0: 7a89 af3c 12a6 b7bc 5e7e ae3b 4756 183c
-0.027625961 0.0366645 0.011603499 0.02696155 -0.024693118 -0.03953449 0.0087552415 -0.032634173
0.02121708 -0.011336734 0.02463933 0.015616675 -0.027203245 0.0031592497 -0.027674481 -0.035163887
-0.003978039 0.019691093 0.030437974 -0.039036494 0.015184118 0.03717774 -0.014043683 0.010830886
-0.024548085 0.011991838 0.03165231 0.022346865 -0.005900635 -0.023643361 0.025016954 0.013585607
0.017562717 0.01572767 -0.032295108 -0.002226701 0.037722945 -0.0076341173 -0.027150221 -0.015053302
-0.03675735 0.020219898 -0.014948528 -0.026482347 0.024984742 0.03237051 0.031097509 0.0015609594
0.026612382 -0.027130647 0.036717765 0.02398567 0.018014822 0.003477862 -0.00096574007 0.0059397323
0.025322402 0.01946904 0.008647252 0.007628543 -0.013495784 -0.015755886 -0.022758387 0.02576671
-0.03570542 -0.03196277 0.030397963 0.029956855 0.024725042 0.025296692 0.033188023 -0.031250842
0.024631977 0.025035469 2.039923e-05 0.00040056996 0.030118534 -0.014532994 0.0071851322 0.010814053
-0.020615947 0.007848359 0.0040748175 -0.027364217 0.006951709 0.027086437 -0.007801395 -0.028629709
0.013809151 0.02960634 0.023435874 -0.044719733 -0.03696761 -0.0007955681 0.02934893 -0.026693735
0.04372478 0.011229535 -0.042626992 0.019251453 -0.01986411 -0.0038339358 0.026292505 0.013106809
0.016147433 -0.0311416 0.03279462 -0.0055363583 -0.015338995 0.0074683824 -0.028972013 0.015660992
0.024183389 0.012179793 0.035527688 0.03550486 0.028475871 0.031569965 -0.018442763 -0.022779243
0.020925898 0.0024136994 -0.031167964 -0.014169378 0.030404542 -0.032888044 -0.032806445 -0.008135323
0.005291312 0.028702984 0.006307132 0.023365805 -0.031126866 0.019187426 0.025728632 0.033431914
0.039373543 -0.029298946 -0.03930941 -0.025659855 -0.025522502 0.045532133 -0.0046859137 0.019957159
0.02111947 -0.026302828 -0.03492205 0.036681294 0.0022622424 0.029261265 0.037529804 -0.01388397
-0.0028750892 0.039363727 -0.018524356 -0.014630771 0.03931865 -0.021439496 -0.011852734 -0.027152313
-0.008763714 -0.04116453 0.021457033 0.012996083 0.037512336 0.021871565 0.019959822 -0.0056851385
-0.023275942 0.021971768 -0.040797923 0.00969475 0.018691339 -0.028177459 -0.018954549 -0.02094382
-0.020377202 0.0083366735 0.017595785 -0.0040865173 -0.026450137 -0.021970764 0.03018798 0.03204306
-0.022115141 0.013750829 -0.023678293 0.011153331 0.03198134 0.035198677 -0.034504235 0.01676028
-0.019488396 0.0064395512 -0.02128301 -0.03626259 -0.030649597 0.029142635 -0.030470697 0.038721118
-0.0067302245 -0.028350364 -0.02756523 0.027776252 0.03265166 0.03569808 -0.032952864 -0.014787484
0.029618489 0.018271942 -0.011462477 -0.012214581 0.0337183 0.033664364 0.01769735 -0.028186409
-0.03706942 -0.009312671 0.026511816 -0.028874526 -0.020505039 -0.03311467 -0.01952942 0.0011936799
-0.038816523 0.020712696 -0.019225733 0.032081265 0.014830267 -0.031080708 0.028499752 -0.030580763
-0.033345703 0.015330672 0.02652423 0.03157067 0.032023754 0.022370927 -0.028454473 -0.018046342
-0.032567583 0.020365234 -0.01895324 0.033353835 0.0038872403 -0.039945085 -0.017409189 -0.013504345
0.009975345 0.036368396 -0.031160098 0.0068846103 0.021427859 -0.022418056 0.0053251227 0.009297914
