ai_challenge/results/simulation_DoubleDQN_DuelingRecNN_2017-05-19T19:40:53.24/100011/model.npz (npz, 630535 bytes, 12 tensors)

model/hidden/input_layer/b f4 [256]
00000000: aba1 9cbc 5d5f e5bc aeff 02bd 96b6 4ebc
00000010: bb52 d6b8 1853 a2bc ab03 0fbd da40 33bd
00000020: 8c3e 17bc fc51 d7bc 26ba 8e3c 6987 a9bc
00000030: 3c7a debb 3f15 cabc e8e2 18bd f423 adbb
00000040: 436c b1bc c438 0ebd cff2 6bbc 7ea9 e9bc
00000050: d6c4 e4bc b102 4dbc fc95 3d3c 00cd 4dbc
00000060: 1674 23bd 8db8 d8bc 7c86 febc 2f13 43bc
00000070: c468 89bc e5b3 6dbc 1d0a 16bd 9ab1 5ebc
00000080: 1998 89bb a1f0 00bd 8136 fc3b 9a46 86bc
00000090: e86d 86bd 954e 5dbc 8ef3 fabc 6e5e a4bb
000000a0: 3528 14bc 0cc5 f3bc 42af 773c aaff cfbc
000000b0: d6ac 42bd 6bce 4dbc f703 edbc 847e 04bd
000000c0: 7e13 15bd eac0 03bd 4a60 a7bc ff0d b9bc
000000d0: e808 edbb 735e 9dbc 6779 8ebc b394 6ebc
000000e0: 697c 8ebc 5948 b5bc 510c 12bc ddaa 75bc
000000f0: 6117 aebc fe50 8dbc ec60 cdbc 6b08 a3bc
00000100: 9ddd ebbb cf99 e6bc fe1a fcbc 60dc c5bc
00000110: e302 91bc 739b 14bd 090f 17bd 3079 32bd
00000120: b126 5ebc 73ef c3bc e4fc 2cbd 7265 88bc
00000130: 49e2 55bc a5b8 f0bc 0dbc 35bc ef8e 2dbd
00000140: 17f7 51bd d7fb 11bd 3199 04bd bf7c 0bbd
00000150: a535 c8bc 8a21 04bd ac26 1bbd 4ceb 35bd
00000160: 88a6 acbc 5471 25bd a4e3 843c d180 8c3b
00000170: ba68 22bd 8877 12bd af96 f8bc 5be0 94bb
00000180: b6be d0bb a6ae e1ba 782c 6c3c e3e7 4b3c
00000190: 3c91 9fbc 4bb4 a0bc e0b2 393c 84ed c4ba
000001a0: ef66 e23b ee29 f2bb 139d fcbc dff7 e2bc
000001b0: 7960 9ebc 4a5b 6dbd 3fa2 61bd 81b4 ecbc
000001c0: 1c52 d1bc 19da 8cbc 20d0 16bd 2aff d5bb
000001d0: 9d79 d7bc 786d e9bc 3573 76bd bcab c7bc
000001e0: b015 18bd 65bb 7e3a 0aef 34bd 39ff 5ebd
000001f0: 13d6 23bd 7bc3 3fbc 7d3d 31bd a5de 853b
00000200: bcd0 023b 593e 58bd 66ae 15bd fa07 aebc
00000210: 2ad5 43bc 4f69 efbc fe2f 0cbc 1226 13bd
00000220: 47d1 6fbc 137f f2bc d7b6 babc 5517 0c3c
00000230: d4fe e5bc 8b09 e2bc 1bcd f5bc 48e7 14bb
00000240: a77f 4abc ff96 f5ba 9051 05bd 4877 52bd
00000250: 677b 34bd ff7a d9bc 6636 4abc 3d63 dbbc
00000260: 93e3 19bd 1093 73bc b653 12bd 46e7 20bc
00000270: 88f2 3fbd 8331 7cbc 30e7 98bb f1ec a0bc
00000280: 199b aebb 7e7a 3dbd 6256 8f3b 2656 35bc
00000290: 682d 29bd 5a04 393b 9239 12bd 610a 633b
000002a0: c080 b3bc 34ed 6bbc 5cb4 f7b9 684e 6738
000002b0: 379a 50bc a19f bebc e15b 813b 3ab5 40bc
000002c0: 39ae 83bb d282 18bd 6622 63bc 4e55 c3bc
000002d0: 02a9 e9bc e82e 38bc 9adc 863b 4e5b 02bd
000002e0: 19e8 11bb 165b d9bc 4407 2dbd b0b1 8dbd
000002f0: a64c bebc fdca bebc 94e4 cfbc 9014 2abd
00000300: 33be 06bd fa7e f0bc 1f47 5dbc 7957 1fbd
00000310: 6f3b a3bc 4cd5 bdbc 95e4 f7bc 72d8 13bb
00000320: 08b9 71bc c183 50bc 337d ddbc ee4e 31bd
00000330: 0eaa 3abd ccfd b2bb 6c51 eabc 5943 f1bc
00000340: 45b1 8cbc 4431 b0bb 8797 1fbd 4b47 f9bc
00000350: 2e10 2cbd fb4e cabc 550a 3bbd 6336 42bd
00000360: 752f a5bc 2911 e5bc 0c55 2ebd f881 bbbc
00000370: b66f 94bc d766 473b 832d 00bd 614c b0bc
00000380: bda5 c9bc 6621 b83c e7fc 0dbd 8253 d8bc
00000390: b0ce 8abc 0092 7abc b028 06bd e487 09bd
000003a0: df6d 4dbd 03e9 123c 86a8 9cbc 5bb5 bbbb
000003b0: 5dd7 02bd 5f40 25bc 6ca3 c4bc ee6f ffbc
000003c0: 0cfe 82bc aef0 2bbc 4d19 19bc 5b74 08bd
000003d0: 97c3 bcbc 0645 a0bc 6587 dabc bc53 42bd
000003e0: be77 e5bc cc88 d0bc a9cf a5bc c89b 1abb
000003f0: 1bf3 4e3c d746 26bd 01fa 3dbd bdd2 e2bc
-0.019120058 -0.027999574 -0.031982116 -0.012616774 -0.00010219725 -0.019815013 -0.034915607 -0.04376302
-0.009231221 -0.02628421 0.017422747 -0.020694451 -0.006789474 -0.024668334 -0.03732577 -0.005283827
-0.021658069 -0.034722105 -0.014401152 -0.028523203 -0.02792589 -0.012512849 0.011571404 -0.012561083
-0.03990563 -0.026455188 -0.031069987 -0.011906429 -0.016773589 -0.014508222 -0.03663074 -0.013592148
-0.0041990397 -0.03147948 0.007696927 -0.016391087 -0.06563932 -0.013507505 -0.030633714 -0.0050161397
-0.009042789 -0.029757045 0.015117468 -0.025390465 -0.04752811 -0.012561421 -0.028932555 -0.032347217
-0.036395542 -0.0321664 -0.020431656 -0.022589682 -0.0072337277 -0.019210076 -0.017391874 -0.01456182
-0.017393308 -0.022129225 -0.008914069 -0.01499435 -0.021251382 -0.017250534 -0.02507063 -0.019901475
-0.007198049 -0.028149514 -0.03077459 -0.024152935 -0.017701572 -0.03628106 -0.036879573 -0.043572605
-0.013559029 -0.02391789 -0.042233363 -0.016649935 -0.013054439 -0.02938492 -0.011092198 -0.04237264
-0.051261034 -0.035640564 -0.032372657 -0.034054514 -0.024439642 -0.032258548 -0.037878677 -0.04441385
-0.021075502 -0.04039128 0.016221829 0.004287817 -0.039650656 -0.035758525 -0.030345289 -0.004543347
-0.0063703908 -0.0017218187 0.014414899 0.012445423 -0.019478433 -0.01961722 0.011334151 -0.0015024398
0.0069092433 -0.0073902523 -0.030836618 -0.027706085 -0.019333111 -0.05794839 -0.05508637 -0.028894665
-0.025551848 -0.01719384 -0.036819577 -0.006530662 -0.026303107 -0.028494582 -0.060168464 -0.024373882
-0.037130058 0.0009717255 -0.044173278 -0.054442618 -0.03999908 -0.011704321 -0.04327153 0.004085379
0.001996084 -0.052793834 -0.036543272 -0.021244038 -0.011952678 -0.02922502 -0.008556364 -0.03592498
-0.014637298 -0.02960161 -0.022792263 0.008550485 -0.028075613 -0.027592441 -0.030005028 -0.0022720862
-0.012359536 -0.0018737017 -0.032548487 -0.051383287 -0.044063 -0.026547907 -0.012342071 -0.026780719
-0.037570547 -0.014866605 -0.035724364 -0.009820765 -0.046862155 -0.015392664 -0.0046662316 -0.019644232
-0.0053285477 -0.046259396 0.0043743113 -0.011067903 -0.04130307 0.0028231353 -0.035699435 0.0034643637
-0.021911979 -0.014399815 -0.0004724589 5.5147713e-05 -0.01273208 -0.023269476 0.0039477204 -0.011761958
-0.0040185717 -0.037234135 -0.013863182 -0.023844387 -0.028522972 -0.011241652 0.004115653 -0.031825356
-0.0022263585 -0.026532691 -0.042243257 -0.06918657 -0.023229908 -0.023290152 -0.02537755 -0.041523516
-0.03289623 -0.029357422 -0.013505726 -0.03890178 -0.019925801 -0.023172997 -0.030260364 -0.0022559431
-0.014753588 -0.012726725 -0.027037239 -0.043288164 -0.045572333 -0.005462384 -0.028603278 -0.02945106
-0.017174372 -0.0053769667 -0.038962867 -0.030429503 -0.042007618 -0.024695864 -0.04566415 -0.04741515
-0.02016423 -0.027962284 -0.042561576 -0.022889122 -0.018119674 0.0030426288 -0.031293403 -0.021520795
-0.024615163 0.022476863 -0.034665015 -0.026407007 -0.01694426 -0.015293598 -0.032753646 -0.03357686
-0.05015361 0.008966687 -0.019123327 -0.0057284064 -0.031943668 -0.010086148 -0.024003707 -0.031181302
-0.01599028 -0.010494394 -0.009344411 -0.03331409 -0.023042483 -0.019564163 -0.02667589 -0.047443137
-0.0280112 -0.025455855 -0.020240622 -0.0023591388 0.012631203 -0.040594902 -0.046381 -0.027688378

model/hidden/output_layer/b f4 [256]
00000000: 054e 3e3c 6d48 eebb a0ea 473c 7823 13bc
00000010: c445 3f3a 930a ad3b d623 953b 4898 053c
00000020: 2644 3fbc 74b1 2a3c 0e3b 5bbc 1b74 0c3c
00000030: 93ed 613b 9eb5 a43b c202 1d3c c599 0a3c
00000040: dd39 4dbc a62d 813b 44b9 03bc f1da 193c
00000050: 79cd 3fbc 1be4 22bc 0f2e a23a 5233 56bb
00000060: e21f 67bc f901 853c 8eda febb 0b76 7b3b
00000070: 4d90 41bc 1fd8 543c 8b68 3ebc ac0c ddbb
00000080: fced 2f3b 26e3 76bc 7329 ea3b 9823 4738
00000090: 52ca ecbb 2a31 323c 8e2f d13b 5452 973b
000000a0: b553 0a3c d715 fe3b f6d5 15bc a529 2d3c
000000b0: ef50 793c c5cf e9bb 3ac2 18bc b44b c73b
000000c0: 3500 2ebc e914 fbba e790 03bc 3807 24bc
000000d0: 5887 10bc 304d 4a3b 150e 9aba e08b cfba
000000e0: f908 2ebc 0a19 91bb 31a7 a43a 5041 7a3b
000000f0: 7f51 23bb 62bd 783b 2f75 153c 4572 43bb
00000100: d520 fe3b 0ba0 973b c8b6 22bc b2c5 b5bb
00000110: feb9 f5bb 4ddf eabb 6d1b 05bc 56b6 293c
00000120: 698b 40bb 2b61 4ebc 7851 7bbb 2d0f 573b
00000130: c3e6 873a 20fe 343c 80f3 bf3b 9664 f53b
00000140: 633e 86bc 8079 f1bb 38ce 0a3b 53c2 46bb
00000150: f03e 8d3b 96fd 3dbc dc58 d5bb f128 bd3b
00000160: 92b4 51bc 6a38 1ebc 75e3 443c c028 153c
00000170: 01ae 213c 690d 1b3c c631 87bb 87ba c53b
00000180: df0d 12bc bea6 59bc 9bca 273c e706 75bb
00000190: 4f39 2a3c 0076 2e39 2b6c 30bc cd4f 723b
000001a0: 7a39 913b 85ec 1a3c 2fa7 26bc e5d1 84bb
000001b0: 3dd2 373c 3b70 8fbb 9f79 363c d000 da3b
000001c0: 0696 65bc 8460 ef3b 364e f6bb db8e f6bb
000001d0: f9af 32bc c162 cdba c734 563b a863 413c
000001e0: b53a 1f3c e032 193c 4e3d d83b 8cf1 6cbb
000001f0: 6a24 1cbb d5b4 bd3b e1cb e73b 3063 26bb
00000200: 950d df3b 7682 22bc 75c7 6c3c 86b6 a4bb
00000210: a9c4 133c 06a0 5b3b 3f2a d73b e04d 1dbc
00000220: ff86 0dbc 99ef 343b d457 3c3c af07 c738
00000230: 6489 173c 1d79 0ebc f2b4 4b3c 28f6 e0bb
00000240: 75c8 52bc d0c4 113c c5f5 063c c54f d2bb
00000250: 5cb2 8b3b 2d5d fcbb 1b01 17bc 2238 6c3b
00000260: 848d 1abb 7bb8 1ebc 1d35 3dbb 40c2 ec3b
00000270: d621 f4bb 3967 4fbb 103b 82ba 6621 793b
00000280: 08f5 dabb c541 e93b e7b7 11ba fc25 923b
00000290: acc3 01bc 9c25 51bc 6ddb 24bc 2899 e4ba
000002a0: 121f 3ebb f98e 8c3c d929 273c 2d07 31bc
000002b0: 4be0 7fbb 16e7 273c 7136 7b3c 15fe 343a
000002c0: bb18 cfba 58ea 2b3c 392d 043c 1263 fc3a
000002d0: bd8a 1b3c 6783 533c c525 23bc cc3f 6fbb
000002e0: d251 363c ce30 0bbc 2b8a 073c d24e 3e3b
000002f0: 6375 c5bb dcb3 e0bb 6a15 d63b 88e2 2abc
00000300: f78b 98bb 8a09 f73a 68a6 31bb 6166 f8bc
00000310: b957 143c 1166 3339 5950 ed3b 26e0 11bc
00000320: 2741 273c d3e5 863b 7072 7b3b 09b4 29bc
00000330: 9c29 8e3c 6620 2dbc 542f a53b a061 b3bb
00000340: f064 65bb 0472 213b 906c 03bc 0396 903b
00000350: 3c08 26bc 19ee 0fbc c307 2d3c e03b 423a
00000360: ed65 123c 4a24 1c3a 9c28 fcbb ea08 023c
00000370: f117 93bb cb7f 203c 1aff 5f3c 7a5c 6ebc
00000380: 91d1 153c de1e a03b 70e4 e83a 819a ccbb
00000390: ffa6 5abc be74 b83b f6fb 23bc 83e4 333c
000003a0: 73fd 103c bf32 08bc e0d4 af3c 5ee0 babb
000003b0: a50a a3bb be14 e5b9 caaf 433c 5c08 7f3a
000003c0: 3126 2e3c 4c6d b3ba 4af8 673c a540 82bb
000003d0: e049 a43b 5475 0e3c 72f0 91bb be92 baba
000003e0: 6713 073c 4c20 18bc 343c d13b 6571 743b
000003f0: 77fc 133c a430 24b9 1489 4b3b e755 223b
0.011615281 -0.0072718174 0.012201935 -0.008980624 0.00072964677 0.0052808016 0.004551391 0.008153982
-0.011673963 0.010418285 -0.013380779 0.008572604 0.003447388 0.0050265333 0.009583177 0.008459513
-0.012526003 0.0039422093 -0.008039776 0.009390579 -0.011706703 -0.00994208 0.0012373346 -0.0032684398
-0.014106723 0.016236292 -0.0077775186 0.003836992 -0.011814189 0.01299098 -0.011621605 -0.0067458954
0.002684473 -0.015068805 0.0071460544 4.7478447e-05 -0.007226267 0.010875979 0.006383843 0.0046179686
0.008442809 0.0077540684 -0.009145251 0.010569011 0.01521705 -0.0071353638 -0.009323651 0.0060820226
-0.010620167 -0.0019156012 -0.008030153 -0.010011487 -0.008821331 0.0030868761 -0.0011753464 -0.0015834533
-0.010622256 -0.0044280337 0.0012562034 0.0038185902 -0.0024920402 0.0037954678 0.009122177 -0.0029822749
0.0077553787 0.004627233 -0.009931274 -0.0055472488 -0.0074989786 -0.007167733 -0.008124215 0.010358414
-0.002937997 -0.012596409 -0.003834812 0.0032815442 0.0010368455 0.011046916 0.005857885 0.0074887974
-0.01638717 -0.0073692203 0.0021180045 -0.0030328229 0.0043104813 -0.011596104 -0.006510837 0.005772703
-0.012799399 -0.009657005 0.012017121 0.009103954 0.009868146 0.009463646 -0.0041258065 0.0060341987
-0.00891444 -0.013284383 0.010241176 -0.0037388147 0.01038964 0.00016637892 -0.010767977 0.0036973835
0.0044319006 0.009455805 -0.010171696 -0.0040533417 0.011219558 -0.0043773926 0.011137395 0.006652929
-0.014012819 0.0073052067 -0.0075166477 -0.007524354 -0.010906213 -0.001566969 0.0032685266 0.011803545
0.009718587 0.009350508 0.006599105 -0.0036154715 -0.0023825415 0.005789379 0.007073865 -0.002538871
0.006807039 -0.0099188 0.014451851 -0.0050266413 0.009019055 0.003351213 0.0065663154 -0.009601086
-0.008638143 0.0027608632 0.011495549 9.4904906e-05 0.009249065 -0.008695868 0.012433277 -0.0068652816
-0.0128651755 0.008897021 0.008237307 -0.0064182007 0.0042632055 -0.007701537 -0.009216572 0.00360442
-0.0023582885 -0.009687538 -0.002887077 0.007225305 -0.0074503226 -0.003164722 -0.0009935815 0.0038014292
-0.006682042 0.007118436 -0.00055587146 0.0044600945 -0.007920187 -0.012765314 -0.010062081 -0.0017440664
-0.0029010219 0.017158018 0.010202848 -0.0108049335 -0.00390436 0.010247966 0.015332804 0.0006904316
-0.0015800217 0.010492884 0.008067423 0.00192556 0.009493527 0.012909747 -0.009957735 -0.0036506532
0.011127906 -0.008495523 0.008272688 0.002903868 -0.0060259565 -0.0068573784 0.0065333145 -0.010429986
-0.004655357 0.0018847447 -0.0027107242 -0.030322256 0.009054118 0.00017108793 0.007242244 -0.008903539
0.010208405 0.0041167527 0.003836777 -0.010357865 0.017353825 -0.010566806 0.0050410423 -0.0054742843
-0.003500279 0.002463461 -0.008021489 0.004412414 -0.010133799 -0.008784794 0.010560933 0.0007409435
0.008935434 0.0005956335 -0.0076952707 0.007936696 -0.004488938 0.009796093 0.013671661 -0.014548415
0.009144203 0.004886492 0.0017768275 -0.0062440042 -0.013345479 0.005629151 -0.010008803 0.010979774
0.0088494895 -0.00831288 0.021463811 -0.005703016 -0.004975634 -0.00043693738 0.011943767 0.00097287237
0.010629223 -0.0013689189 0.014158318 -0.0039749914 0.0050136894 0.008694965 -0.004453712 -0.0014234406
0.008244372 -0.009285044 0.0063853506 0.0037299034 0.00903236 -0.00015658379 0.0031057047 0.002477044

model/a_stream/W f4 [3, 256]
00000000: 9217 aebc 9c6f 593c 61d9 64bd 7c96 083d
00000010: dec3 b8bc 6bc5 ccbc f13c 453d 5f37 6dbc
00000020: 3b22 383d 9102 b5bc cdd5 bc3c 22e6 05bc
00000030: 3995 9abc a101 77bd c33f 67bc 83dd 56bb
00000040: 5ea7 b73c ed85 dcbc 7292 ae3c bd2d 11bc
00000050: 9a1c 9d3c 878f b63b beb5 c3bb 12f0 0c3d
00000060: 2bd3 163d b074 70bd e5a4 bd3c c109 34bd
00000070: f064 8a3d 5a8b f0bc 033a 7e3c 9eb9 a23c
00000080: 0afa 22bd 0a65 a03c c956 a6bc 4d37 05bd
00000090: 4465 bb3c 5e02 79bd c56e 2f3b 9c1a 88bd
000000a0: 2576 6ebc d8c6 623d 8637 213d cb40 0dbc
000000b0: 8a0b 733d a4de 7d3c 6c97 8b3c 5cba 523d
000000c0: 82cb 383d 2158 e4bc 4b7c 0a3c ba46 ee3c
000000d0: 1164 2a3c 180c 503d b8ac 14bd effa d03c
000000e0: 6844 283d a796 963c 2c47 8e3d e742 9abc
000000f0: f1d3 16bd 7fc2 c93c faaf a6bc f4ea 09bc
00000100: 9be7 a3bc ee23 e6bc a953 1b3c bd9d be39
00000110: cd65 fc3a 3006 973c 65e8 643c 57a5 01bc
00000120: e2ec 073d 9acd 1a3c 4a01 62bd 79f6 62bd
00000130: 450d bf3c c403 52bd 1110 58bd 1818 413d
00000140: bda5 003d d37d 8a3d cfa0 35bd f319 e5bc
00000150: eea6 6d3d f6bc bf3b d66b 3d3d d5b0 913c
00000160: c475 d33c c8ef 4f3c c7f1 833d c590 db38
00000170: b329 97bb 69c8 7fbd 7d6b 6a3a e6b4 10bc
00000180: f9a3 2b3c 07f2 403d 19ff abbb d0af 16bb
00000190: f1dc 3cbc 41ae 26bd 78da e53c 2696 593d
000001a0: cf37 0abd 8a73 f9bc a170 493c 308d 2d3d
000001b0: 42b1 5abd a679 c53c 8d56 d4bc 6684 6c3d
000001c0: 98ff 3c3c 6642 5f3d af46 a43a 3ced 3d3c
000001d0: ca97 aa3c 7bc5 903b 6afe 86bd 6ec4 f3bc
000001e0: e088 e6bc 6396 72bd d05e e0bc 5158 f63b
000001f0: fcf2 033d 3ffe d73b 9a19 1eb9 1733 f53c
00000200: ebaa 64bd d4dc b23c 4ed2 77bd 39b6 0bbc
00000210: 2ccf b3bb 83c1 f8bb 9af5 0f3d 3dfb 703b
00000220: 0b8e c23b b4ca 763c e669 213c b518 34bb
00000230: 1484 dcbb 5f66 463c ab64 1bbd 50c7 833d
00000240: 71e9 bf3c 946e e1bc e651 9abc 7547 5c3c
00000250: 4b73 213d 8674 733c b3a1 323b 4ced b2bc
00000260: 3fe1 7cbd 6979 853c 4ccf 8d3c 5c14 2ebd
00000270: 5f8b 973c 7b9d f73c 5e01 343d 5c4f 13bd
00000280: 3c69 4e3d 7ac2 d5bc 5eda d0bb 291e 003d
00000290: 962e ae3c fc91 833c 1435 2c3b 8b1b 2ebd
000002a0: fb76 94bc 5895 6e3d 6051 ff3b 35eb 533c
000002b0: ef39 403d 9ce7 2bbc 5c2f 87bc c9e3 aabc
000002c0: 4678 233d 75bf e1bc 2c46 0bbd 0baa febc
000002d0: 6645 e0bc 77ad 07bd 017f 433c 5988 8b3c
000002e0: ea45 e3ba dd7f 8c3c b557 4cbc 55ad 43bd
000002f0: c995 cb3c abc1 b7bb c739 9ebc 0f93 96bb
00000300: d5d8 233d 6e58 483d 93b4 e83c 2272 9dbd
00000310: 9373 ddbc 774d 623c 51e9 00bd 8076 9b3b
00000320: 7ae4 86bd cda9 69bb ec69 06bd 8373 1f3d
00000330: 8be2 9b3d 155d 1c39 8a2a e9bc 4bac e23c
00000340: 1879 043d 9ee5 91bc 7e84 633d edea 69bd
00000350: f610 c83b 5738 653b e815 733d 40a8 44bc
00000360: 3192 95bb a72a 86bd f345 ea3a 35bd 80bc
00000370: 8b1b cf3c 629c 57bc 5a42 71bc 8760 943d
00000380: f750 1bbc cdbf 34bd c3a1 da3b df69 ad3c
00000390: 475b aa3c 694f 84bc 5cd7 5a3c 137b 24bc
000003a0: 909f 05bc 21a2 553d 4422 933d bae1 ddbb
000003b0: 5a5f dd3c 4581 36bb f377 a8bc 7dad 223c
000003c0: b8f9 41bc d0f5 02bc 92a3 38bd d0ca eb3c
000003d0: e1d3 5cbd 6ea1 46bc 5255 3f3d 1142 413d
000003e0: 2ce3 80bb 32ed b83b b062 03bd f3bb 2c3d
000003f0: bd07 acbc 8dc7 ac3c 84fe 5abd 2ed3 423d
-0.021251474 0.013271239 -0.05587137 0.033346638 -0.022554334 -0.02499648 0.04815382 -0.0144785335
0.04495452 -0.02209595 0.023051167 -0.008172544 -0.018869983 -0.060304288 -0.014114323 -0.003278584
0.022418674 -0.02691933 0.021310065 -0.0088610025 0.019178677 0.005571309 -0.005972593 0.034408636
0.03682248 -0.058705032 0.023149917 -0.043954615 0.067575336 -0.029363323 0.015516761 0.0198639
-0.039789237 0.01957943 -0.020305054 -0.032523442 0.022875436 -0.060793273 0.0026768905 -0.066457
-0.014554535 0.055365413 0.039359592 -0.008621405 0.059337176 0.015494976 0.017039977 0.051447257
0.045115955 -0.027874054 0.008452485 0.02908646 0.010399834 0.050792783 -0.03629753 0.02551028
0.041080862 0.018382384 0.06947169 -0.01883073 -0.036823217 0.024628876 -0.020347584 -0.008417834
-0.020007899 -0.028093304 0.009480395 0.00036357148 0.0019256413 0.018435568 0.013971423 -0.007912955
0.033184893 0.009448433 -0.05517701 -0.055410836 0.023321757 -0.051273122 -0.052749697 0.04714212
0.03140806 0.0676228 -0.044342812 -0.027966475 0.058020525 0.0058513833 0.04624542 0.017784515
0.025812991 0.012691446 0.064426 0.00010469699 -0.004613125 -0.062446985 0.00089424086 -0.008832192
0.010476106 0.047105815 -0.005248916 -0.0022992976 -0.011527286 -0.040693525 0.028058276 0.05312171
-0.03374463 -0.030450601 0.012294919 0.042370975 -0.053391702 0.024105858 -0.025920177 0.057743452
0.011535548 0.05450668 0.0012533272 0.011592206 0.020824332 0.0044180728 -0.065914944 -0.02975675
-0.028141439 -0.05922545 -0.02738896 0.0075178524 0.03221415 0.006591588 -0.00015077592 0.029931588
-0.055827063 0.021833815 -0.060503297 -0.008527332 -0.0054873433 -0.007591428 0.035146333 0.0036770843
0.005937343 0.015062977 0.009851908 -0.0027480547 -0.006729612 0.012109368 -0.0379378 0.064345
0.023426743 -0.027518548 -0.01883788 0.013444771 0.039416593 0.014859324 0.0027257025 -0.021841668
-0.06173825 0.016293244 0.01731076 -0.042499885 0.018499075 0.03022646 0.043946616 -0.035964355
0.050393328 -0.02609371 -0.0063736876 0.031278763 0.021262448 0.016060822 0.0026276754 -0.042506736
-0.01812314 0.058247894 0.007791683 0.012934496 0.04693025 -0.010492232 -0.016502075 -0.02086057
0.039909624 -0.027557114 -0.034002468 -0.031086942 -0.027376842 -0.033124413 0.011932136 0.017032789
-0.0017339562 0.017150814 -0.012472083 -0.047772724 0.024851697 -0.005607804 -0.01931466 -0.0045951675
0.04000171 0.048912458 0.028406417 -0.07687785 -0.02703265 0.013812414 -0.031472508 0.004744351
-0.06586547 -0.0035654188 -0.03281586 0.03892852 0.07611569 0.00014911995 -0.028462667 0.027670046
0.032342046 -0.017809685 0.055546276 -0.05710881 0.0061055375 0.0034976208 0.059347063 -0.012003005
-0.0045645465 -0.06551104 0.001787363 -0.015715221 0.025281688 -0.013159843 -0.014725292 0.07244974
-0.009479753 -0.044128228 0.0066721155 0.021168647 0.020795478 -0.016151147 0.01335701 -0.010039109
-0.008155718 0.05215657 0.0718427 -0.0067712935 0.027023006 -0.0027848047 -0.020565009 0.009929058
-0.011839323 -0.007993177 -0.045077868 0.028783232 -0.053913 -0.012123449 0.046712227 0.047182146
-0.003933331 0.0056435103 -0.032076538 0.04217143 -0.020999784 0.021091247 -0.05346538 0.047564678

model/hidden/mid_rec_layer/upward/W f4 [80, 86]
00000000: 710b 90bb 8dba 723c 4454 4c3c da77 563b
00000010: 70f7 953c d9b3 b2bb b9d3 15bb 237b 023c
00000020: 7ed0 b2bc 0ad7 233c b01c 443c 0ad7 233c
00000030: 3e15 b13c 9357 9d3d 0ad7 233c 6847 38bd
00000040: ec6e bf3d 0ad7 233c e89d cebd 7359 803d
00000050: 0ad7 233c da0c 26bd 0288 b13d 0ad7 233c
00000060: 626c 8abd 8221 24bb 0ad7 233c ef77 2cbd
00000070: fb11 c73d 0ad7 233c 3e13 bdbc 278b 843d
00000080: 0ad7 233c 4431 d03b 9974 32bc 0ad7 233c
00000090: 58a4 6cbc d7da 253d 0ad7 233c d4b1 16bd
000000a0: b389 9cbb 0ad7 233c 4137 4dbd fa58 003d
000000b0: 0ad7 233c 8644 9c39 a83d 863b 1058 8c3d
000000c0: 5aa7 7fbc 99e8 b7bc 3f1d e73c bacb 3b3d
000000d0: e6c1 173c 472c 753d 2a16 1ebc e432 f8bb
000000e0: 0ad7 233c f8cf 8cbc 48d3 7b3d 0ad7 233c
000000f0: 2df0 363d fc87 833c e724 7ebc a8c0 3a3d
00000100: 79c6 91bd f031 c33d f013 9c3d dd46 dbbb
00000110: 3a6a dbbc 48c0 413c 0a8e 30bd 0ad7 233c
00000120: abb5 5dbd 2245 2a3c 0ad7 233c d448 683c
00000130: 17a6 47bd e086 9a3d 2f65 883c 18f8 40bd
00000140: 7fbb 20bd bd9a 903c 406b 21bd f4b7 9bbc
00000150: 84d7 573c a816 27bd d89d 07bc 8e6a 10be
00000160: 97a7 efbd 4e2b 58bc 5d2a 58bd 75ee 4ebd
00000170: a0cf 9abd 06cf 44bd b6aa a3be 0ad7 233c
00000180: 5e0a 9cbd 0ad7 233c 879c bcbd 0721 4fbd
00000190: 0ad7 233c 20ce a73d a12b 20bd 0ad7 233c
000001a0: b1cf 173e bd5e 9abd 0ad7 233c 39d3 993d
000001b0: 6dc3 9bbd 0ad7 233c 0899 323e 3a1a ffbc
000001c0: 0ad7 233c c131 243d 632a 53bd 0ad7 233c
000001d0: 44ad 823a 52cc debd 0ad7 233c 07b8 ef3c
000001e0: 83a8 bbbd 0ad7 233c 37c7 1d3d 31f4 44bc
000001f0: 0ad7 233c 2bd1 903d 7148 453b 0ad7 233c
00000200: 47ff 6a3d 5da0 c1bd 0ad7 233c 86ca 1b3d
00000210: e236 0abe 96de adbd ef6e aa3d c22a 5fbe
00000220: b811 09be 98d8 01be 28b1 19be 1e4c 95bd
00000230: 3701 a33d ec8d 75bc 0ad7 233c c2fa 8f3c
00000240: 5aa3 d6bc 0ad7 233c 589c 33bd 866e dd3b
00000250: 01d8 353c 457e e9bd f2f0 3fbd 94cb 06be
00000260: 989f 48be abeb ff3c fea0 e53c b5b5 e43c
00000270: f567 453d 0ad7 233c 732a b23d c111 863c
00000280: 0ad7 233c c6d5 49bd ea8d 9e3d 7de3 07be
00000290: 7fec 6dbd d113 a93c 265b 4c3d 5ff4 4dbe
000002a0: 935d 473d 8299 dd3b 3c9a f6bd 5dfa c43d
000002b0: a134 c5bd afd4 1bbe 8ad1 20be c71a 0abd
000002c0: 3ef4 fabd 059d 3fbd af2e c6bd 54d7 eabd
000002d0: a73e 96be 0ad7 233c 7c4f babd 0ad7 233c
000002e0: ea09 84bd 19df 79bd 0ad7 233c a00b 21bd
000002f0: d55b 34bd 0ad7 233c d230 ee3d 936e 73bd
00000300: 0ad7 233c 0aff 453d 7f88 73bd 0ad7 233c
00000310: e1b2 293e a30b 3fbd 0ad7 233c 8741 d4bd
00000320: e33d 9ebd 0ad7 233c d0d5 edbc b00d debd
00000330: 0ad7 233c 47a8 92bd 70a0 07be 0ad7 233c
00000340: ff6b b8bc a211 a1bc 0ad7 233c 24a3 383d
00000350: 0aae 0dbd 0ad7 233c aba6 383c 6411 d7bd
00000360: 0ad7 233c 9a1a cbbb 42b9 febd 6ab7 c6bd
00000370: 354f 5e3d c1c9 5dbe 0a27 12be e99e dcbd
00000380: 0861 edbd 4e73 b5bd 2ce5 9a3d 1870 0cbd
00000390: 0ad7 233c e72a b0bc 4ece 24bd 0ad7 233c
000003a0: 46af 21bd 8a8e 14bb 73ab 6bbc b5e0 bcbd
000003b0: 8c97 adbd b275 1ebe c71e 37be 5771 ab3b
000003c0: 696f 1d3c b4f0 ea39 0eca 353c 0ad7 233c
000003d0: 93f9 8a3d c62b 14bd 0ad7 233c eba1 fbbc
000003e0: 3074 193d fe6f 07be af33 99bd ec76 92bd
000003f0: 592e 633c 98ac 3fbe 563b f73c eb53 a3bc
-0.004395895 0.014814985 0.012471262 0.0032725246 0.018306464 -0.0054535684 -0.0022861792 0.007963928
-0.021827932 0.01 0.01196973 0.01 0.021616574 0.07682719 0.01 -0.044989973
0.093473285 0.01 -0.10088712 0.06267061 0.01 -0.0405396 0.086685196 0.01
-0.06758954 -0.0025044386 0.01 -0.042106565 0.097202264 0.01 -0.023080464 0.06471854
0.01 0.006353529 -0.010892057 0.01 -0.0144434795 0.040491905 0.01 -0.036790684
-0.004777157 0.01 -0.050101522 0.031334855 0.01 0.00029805693 0.0040967055 0.06852734
-0.015603865 -0.022449778 0.028212188 0.045848586 0.009262538 0.05985668 -0.009648839 -0.007574426
0.01 -0.017189011 0.06148079 0.01 0.044662643 0.016056053 -0.015511728 0.045593888
-0.07117934 0.09531009 0.0762099 -0.006691797 -0.026784051 0.011825629 -0.04310421 0.01
-0.05412833 0.010392459 0.01 0.01417752 -0.04874238 0.075452566 0.01664981 -0.0471116
-0.03924131 0.01765191 -0.039408922 -0.019008614 0.0131739415 -0.04079309 -0.008277379 -0.14103147
-0.11701887 -0.013193918 -0.052774776 -0.05052038 -0.075591326 -0.048048995 -0.3196618 0.01
-0.07619165 0.01 -0.09209543 -0.050568607 0.01 0.08193612 -0.039104108 0.01
0.14825322 -0.07537601 0.01 0.07510991 -0.07605634 0.01 0.1744119 -0.031140435
0.01 0.04008651 -0.051554095 0.01 0.000996985 -0.10878815 0.01 0.029262556
-0.091630004 0.01 0.038520064 -0.01202111 0.01 0.070711456 0.0030102993 0.01
0.057372358 -0.09454415 0.01 0.03803494 -0.13497499 -0.084897205 0.0832194 -0.21793655
-0.13385665 -0.1268028 -0.15008986 -0.07289909 0.07959216 -0.01498745 0.01 0.017575625
-0.026200939 0.01 -0.043850273 0.00675756 0.011098863 -0.11401037 -0.046860643 -0.13163596
-0.1959213 0.031240305 0.028030869 0.027918676 0.048194844 0.01 0.08699503 0.016365888
0.01 -0.049276136 0.07741912 -0.13270374 -0.05808687 0.020639332 0.049891613 -0.20112751
0.048673224 0.0067626843 -0.120411366 0.096180655 -0.09629179 -0.15217851 -0.15704933 -0.033716943
-0.12253617 -0.046780605 -0.09676873 -0.11466852 -0.29344675 0.01 -0.09097192 0.01
-0.064472035 -0.061003778 0.01 -0.039317727 -0.04403289 0.01 0.116304055 -0.059431624
0.01 0.048338927 -0.059456345 0.01 0.16572143 -0.046641957 0.01 -0.10364061
-0.07726648 0.01 -0.029032618 -0.108424544 0.01 -0.071610026 -0.13244796 0.01
-0.022512434 -0.019661728 0.01 0.045077458 -0.034589805 0.01 0.0112702055 -0.10501364
0.01 -0.0061982395 -0.12437679 -0.09702952 0.054274756 -0.21658994 -0.14272705 -0.10772497
-0.11590773 -0.08859883 0.07563242 -0.03428659 0.01 -0.021504832 -0.04023581 0.01
-0.039473794 -0.0022667968 -0.014384138 -0.09222547 -0.08476171 -0.15474585 -0.17882834 0.005232017
0.009609082 0.00044811296 0.011095537 0.01 0.06785884 -0.036174558 0.01 -0.030716857
0.03746432 -0.13226315 -0.07480561 -0.07151589 0.013866031 -0.18718183 0.03017966 -0.019937476

model/hidden/mid_layer/W f4 [256, 256]
00000000: c4bc 633c df70 1dba 2db8 693a 8954 25bc
00000010: 2c81 c0bb 2dfd 6bbc 133b 47bc d7ec 27bc
00000020: 4830 293b d955 68bb eaf9 28bc 75e4 6bbc
00000030: 9fbf cfbc 14f9 7dbc 83db 93bc 97fb adbc
00000040: c8bf b5bc 7a68 9cbc 98f2 b8bc 2995 f63b
00000050: bb24 11bd 2cd0 0dbb 55d5 8bba a060 67bc
00000060: 4e53 0dbd 0c44 09bc 297b 343c b03f 1b39
00000070: 7921 b1bb 9b24 ce3a bb04 97bc 0cf8 0b3c
00000080: 2dff 30bc 4cbc 07bb d976 e43b 7b97 eabc
00000090: f7fe 0ebc 3893 26bb 50c3 94bb 5896 9ebc
000000a0: ab12 96bc 74c5 adbc f812 1d3b d47e 9ebc
000000b0: 9666 183c cf47 28ba 7846 16bc 8e6f 263c
000000c0: a33e 2a3c 6ce5 903b ce7e 3bbc 1524 3c3b
000000d0: 786d 14bc 1132 b7ba 4bd8 debb 6d80 dabc
000000e0: be9d 103b f0b5 efbb dad4 8dbc be08 4f3c
000000f0: 0714 6cbc 3937 9e3b 2e27 40bc 5320 75bc
00000100: 0b74 0bbc 0038 78bc 29db 1ebc 66e2 b23b
00000110: 84cb 0bbc 6c8a f5bb c140 94bc 848f 37bc
00000120: b553 2b3b b0bb 87bc 10b3 4abc 11f9 edbc
00000130: 264a 62bc d981 2dbb 1c0b b1bc 2f9a 37bc
00000140: 24ac 133b dec8 8bbb a2e2 dbba 6588 43bb
00000150: 28c7 2ebc 26b7 6fba 8674 06bc ed22 97bb
00000160: 4201 44bc d353 5fbc 2f10 c4bc 5ee3 12bb
00000170: 1100 853a 9743 8bbc cbc8 8cbc 5997 b13c
00000180: 496d 47bb 2b81 2ebd 8222 3fbc 872e 8fbc
00000190: 89f2 48bc 9911 fabc a24f 9e39 b686 06bc
000001a0: 3042 88bc f956 39bd 6143 b63c 53cf 0ebd
000001b0: 050d acbc f92f e9bc 6095 d93a 28bc 54bc
000001c0: ace9 c1bc 1fd5 37bc e7ff a33c 518d 4bbc
000001d0: 8d16 b7bb 213d 92bc eb75 bfb9 718a 00bb
000001e0: 21eb 733b 1e67 293b 8e38 1ebc a494 69bc
000001f0: 9517 2abc 6605 1ebd 0b85 41b8 f062 2239
00000200: 8d16 4abc ff07 58bc 5c12 5abc ff65 e23b
00000210: 5072 dcbc 45b4 69bc 9d39 b3bc af30 75b9
00000220: 53b8 aebc a4d0 92bb 2fbc 5b3b 14cc dbb7
00000230: d714 e73a 60df 1ebc 53fb 243c 43b9 e33b
00000240: 22ec 58bc 7677 64bc 3c6e 5cbc 0801 efba
00000250: 3fca 5fbb 0440 e9ba b971 24bc d5e4 6cbb
00000260: d1a8 c4bb 8cab d9bc 74cc a63c 218b 00bd
00000270: 6eef c7bc ff48 3b3c 48e0 36ba 0a9e 0dbc
00000280: 6383 263b df57 7abc 585a 233c 1726 7e3c
00000290: 7280 c739 4c8b d1bb c10d 2b3c 838b a53c
000002a0: e29c 10bc 14fd c3bc fd8e c13c 6098 12bc
000002b0: eb92 603b 2e45 d939 b5bd 77bc 6484 073c
000002c0: 241f 3fbc 1143 a4ba 10db e339 bedf 04bd
000002d0: 5d85 92bb 2ea0 b2bc be33 1abc 64e2 63bc
000002e0: b27d afbb c859 a9bc 223f 01bc e000 94bc
000002f0: f167 10bd 5fe8 d2bc 838e c8bc b8a0 8f3b
00000300: 8596 9b3c 5110 513b 313b 38ba 526e 34bc
00000310: 2867 1cbc b40f 023c 2f23 21bd 80f9 873c
00000320: a83e cbbb c286 dbbb 1eeb 3cbc eb6f 14bd
00000330: 4461 483c 9c84 bb3a 0086 a7bc f33e 49bc
00000340: 89c9 a6b9 fe84 1bbc 4a1f 86bc d82d bcbc
00000350: 8e1c 96bc 8491 46bb c989 c8bc ac56 cdbc
00000360: 25b7 aabc ae98 46bc e9a2 04bc 7809 b5bc
00000370: 7058 bbbb 57d9 30bb c615 02bd 47bc baba
00000380: ae11 073c 2519 cabb e6ab 80bc 9a4a bc3a
00000390: f75e b63a 1307 1ebc 3445 86bb 22cd 71bb
000003a0: 6917 1bbb a60c 03bd 95cf 88bc 6133 b0bb
000003b0: d16f e03a a3d6 01bc abf1 ab3b de1b f3bc
000003c0: bc9e e3bb 3a17 6fbc a059 bf3a 8d77 0fbd
000003d0: d116 82bc 0636 84bb abe1 62bc 9bde 0bbd
000003e0: 0ac8 a1bc edb4 09bc 9288 28bb df0f 73bc
000003f0: 47db 6bbc 6138 fabb 4974 d5bc 95df 413c
0.013899986 -0.0006005894 0.0008915689 -0.0100909555 -0.0058747735 -0.0144036235 -0.0121600805 -0.010249338
0.0025816131 -0.003545156 -0.01031349 -0.01439773 -0.025359927 -0.015501279 -0.018049007 -0.021238131
-0.022186175 -0.019092787 -0.022576615 0.0075251055 -0.03543542 -0.0021638973 -0.0010668436 -0.014122158
-0.034503274 -0.00837804 0.011015692 0.00014805677 -0.0054056016 0.0015727462 -0.018434873 0.008543026
-0.010803026 -0.00207116 0.0069721756 -0.028636685 -0.008727781 -0.002541734 -0.0045398846 -0.019358799
-0.018319448 -0.021212317 0.0023967605 -0.019347586 0.009301802 -0.0006419392 -0.0091720745 0.010158433
0.01039091 0.0044218805 -0.011443807 0.002870803 -0.0090593025 -0.0013976713 -0.0068006865 -0.026672566
0.0022066678 -0.00731539 -0.01731341 0.012636362 -0.014409072 0.0048283604 -0.011728091 -0.01496132
-0.0085115535 -0.01515007 -0.009695807 0.0054591177 -0.008532409 -0.007493308 -0.018097283 -0.01120365
0.0026142423 -0.016568989 -0.012371793 -0.029049428 -0.013811624 -0.00264751 -0.021611743 -0.011206194
0.0022533024 -0.0042658886 -0.0016775916 -0.0029835936 -0.0106676 -0.00091444177 -0.008206492 -0.004612318
-0.0119631905 -0.013630825 -0.023933498 -0.0022413353 0.0010147115 -0.017000003 -0.01718559 0.021678613
-0.003043013 -0.042603653 -0.011665942 -0.01747824 -0.012264856 -0.03052597 0.0003019544 -0.0082108285
-0.016633123 -0.04524896 0.022248926 -0.03486569 -0.021002302 -0.028465258 0.0016600303 -0.012984313
-0.023670994 -0.011220246 0.020019485 -0.012423829 -0.005587405 -0.017851414 -0.00036518215 -0.0019613768
0.0037219005 0.0025848816 -0.009657038 -0.01425663 -0.010381599 -0.038579367 -4.613869e-05 0.00015486381
-0.012334478 -0.0131855 -0.013310041 0.0069091315 -0.026909977 -0.014264171 -0.021878058 -0.00023383157
-0.021328127 -0.0044804383 0.0033528914 -2.6201866e-05 0.0017630112 -0.009696811 0.010069686 0.006949575
-0.013239892 -0.013944497 -0.013454016 -0.001823456 -0.0034147648 -0.0017795567 -0.010036879 -0.0036147137
-0.00600157 -0.026571058 0.020361163 -0.031382684 -0.024406161 0.011430978 -0.00069761695 -0.0086436365
0.0025407902 -0.015279739 0.00997027 0.015512011 0.00038051937 -0.0063947793 0.010440291 0.020208126
-0.008826466 -0.023924388 0.023627752 -0.008947462 0.0034267257 0.00041441008 -0.015120913 0.0082713105
-0.011665139 -0.0012532194 0.00043460028 -0.03243994 -0.0044714645 -0.021804895 -0.00941175 -0.013908956
-0.00535556 -0.020672694 -0.007888587 -0.018066823 -0.035255376 -0.025745569 -0.024482017 0.004383173
0.018992672 0.0031900594 -0.0007027863 -0.011012631 -0.009546079 0.007938314 -0.039340194 0.016598463
-0.0062025376 -0.006699414 -0.011530666 -0.036239546 0.012230221 0.0014306488 -0.020449638 -0.012283075
-0.00031812143 -0.009492157 -0.016372342 -0.022971079 -0.018324163 -0.0030299136 -0.024479764 -0.025065742
-0.020839283 -0.012121363 -0.008095481 -0.022099242 -0.0057173297 -0.0026985013 -0.031759046 -0.0014246785
0.008243961 -0.0061675482 -0.015706968 0.0014365495 0.00139138 -0.009645241 -0.004097605 -0.003689595
-0.0023665077 -0.031994484 -0.016700545 -0.0053772186 0.0017123168 -0.007924709 0.005247315 -0.029676374
-0.006946413 -0.01459294 0.0014598854 -0.035026122 -0.01588002 -0.0040347604 -0.013847749 -0.03414784
-0.019748706 -0.0084049525 -0.0025716168 -0.014835327 -0.0143955415 -0.0076361154 -0.026056426 0.011833091

model/a_stream/b f4 [3]
00000000: a5e7 713c 0350 f0b9 10c3 48bb
0.014764701 -0.0004583598 -0.0030633844

model/hidden/mid_rec_layer/upward/b f4 [80]
00000000: 212e 82bb 765e aabd a9fc 5f3f 3f87 a7bd
00000010: e3a0 69bb fe77 9ebd c3d1 613f 7a00 9dbd
00000020: 5df8 4abb c947 9abd d5c0 663f f334 99bd
00000030: 6f22 85bb c07e 9ebd 18f8 5f3f 0eac 9cbd
00000040: c479 7fbb e796 abbd 8c0b 603f 4c1f a9bd
00000050: aa3d 84bb 2511 92bd 0728 623f 801a 91bd
00000060: f95b 99bb 1ee3 bbbd aa8e 603f 9187 b9bd
00000070: abe3 67bb 17cf a6bd d631 653f 6081 a5bd
00000080: 5b84 85bb 37ab b6bd a820 633f d41b b5bd
00000090: 8bb1 a5bb c7d4 c0bd 77c4 5e3f 8e4b bdbd
000000a0: 782b 93bb 2b58 b5bd 0c84 5e3f 5159 b2bd
000000b0: 5725 84bb 272a 9fbd b80a 623f 2391 9dbd
000000c0: e551 e1bb 229f 7dbd eb3c 5f3f 5f35 7dbd
000000d0: 259c 81bb a64c 95bd c279 603f aa79 94bd
000000e0: 4320 a0bb c212 8dbd 19b1 613f 6069 8cbd
000000f0: 9dbf 78bb c3bf 91bd ecc7 633f c0d6 90bd
00000100: 275b 58bb 3c1c 95bd 1c93 643f e852 94bd
00000110: d8b4 89bb c0ce aebd d67d 5f3f e51c abbd
00000120: 79f0 8dbb 0745 99bd fda8 5e3f f417 98bd
00000130: 1dd7 75bb 9791 98bd f31a 633f c993 97bd
-0.003972784 -0.08318798 0.87494904 -0.08180093 -0.0035648874 -0.077377304 0.88210696 -0.076661065
-0.003097079 -0.07533223 0.9013799 -0.074808024 -0.0040629427 -0.077390194 0.87487936 -0.07650004
-0.003898249 -0.08378392 0.8751762 -0.082579225 -0.0040356712 -0.07132176 0.88342327 -0.070851326
-0.0046801534 -0.091741785 0.8771769 -0.0905906 -0.0035383503 -0.08144968 0.8952917 -0.08081317
-0.004074616 -0.089193754 0.88721704 -0.088431984 -0.005056565 -0.09415584 0.8701853 -0.092429265
-0.004491266 -0.08854707 0.8692024 -0.08708442 -0.0040327716 -0.07771712 0.88297606 -0.07693698
-0.0068762177 -0.06191934 0.8720233 -0.061818477 -0.0039553815 -0.0729001 0.8768579 -0.07249768
-0.0048866584 -0.068883434 0.88160855 -0.06856036 -0.0037956007 -0.07116654 0.8897693 -0.0707221
-0.0033013315 -0.07280776 0.8928697 -0.072423756 -0.0042024665 -0.08535528 0.87301385 -0.083551206
-0.004331645 -0.07483869 0.86976606 -0.07426444 -0.003751225 -0.07449644 0.88712996 -0.07401235

model/hidden/input_layer/W f4 [256, 86]
00000000: 1e54 fa3c 1e21 febb 38f0 96bc 3a90 86bd
00000010: 680f adbb c3fe 213d 46cf 05bd d5ba 66bc
00000020: 56a6 c9bc 0fc3 ab38 4236 05be 5719 683c
00000030: a3dd 96bd 1c48 81bd 6016 34bc 0eeb 473d
00000040: 43a4 233c 9829 d9bb 319e aabd 5247 a8bd
00000050: 8a46 a83b 35ca c23d 002a 5ebc 0cd0 41bc
00000060: 8fc5 3cbc 56a2 fabc 32e2 a83b 1833 023d
00000070: 7fd9 cabd 579c 9b3c df4b e6bc 92c5 16bd
00000080: 8d13 e13c 63d0 9bbd 2e39 0abd 56b8 32bb
00000090: 62ed 153a 0a77 a43d 951a d83a 9bc5 96bd
000000a0: 3ca3 963c 57ef 26bc 4ae0 4c3d c85e 7e3c
000000b0: a89a fe3b 0b2f b33d d40b a83d bce4 64bd
000000c0: 07b4 f93c 442a 2a3d 5794 ee3c 617d 89bd
000000d0: 85a0 753b ddd8 20bd aa65 ea38 c546 9e3d
000000e0: 8571 bcb9 8940 39bc 0afc dbbd 8a97 9e3a
000000f0: a43d 663c 7d01 c3bc 4515 36bc 41d1 f0bc
00000100: 0211 943c 195f a1bc 8a36 debb d747 28bd
00000110: 71fc a3bc d6db ebbd 6345 9dbd d095 29bc
00000120: 9675 813b d95c 54bd 3fb6 dc3b 2662 9fbb
00000130: 48e2 e5bd 5425 6abd 3ccc 9b3a 701b 3bbc
00000140: aaae 9dbb fd02 cc3c fce1 34bd eb7a 1b3d
00000150: 2674 26bd fd24 403c f227 a8bc 14c2 9bbc
00000160: 0144 59bb c9f7 9fbc 2183 a3bc cb85 5ebc
00000170: 979d afbc b537 18bd 3494 15bc 3b4d 65bb
00000180: c5d2 00bd 02ac d03b 0024 4abc c58c 69bc
00000190: 8e37 4cbc dd18 65bb 3c56 a0bc f3ff 0c3c
000001a0: c57e cdbb 2669 883c a494 deba 1ff7 ebbb
000001b0: 91ad 9fbc 1c8a 873b 98e4 06bc 03c5 29bd
000001c0: 3e74 aabb b48e 70bb 246e 7e3c 7f86 c1bb
000001d0: b5fe 8fbc b0b7 cebb 0ee4 f0bb 5150 cdbb
000001e0: 480c d7bc 96f8 cabb 6275 58bc eb4b 093c
000001f0: 4132 ed3b 0231 673b c61d bfbc 1b6d b2bb
00000200: 1f63 643b a059 a9bc 2125 673b f958 45bc
00000210: 407d 98bc 7e8a edbc ed4b f73b 73d8 cbbc
00000220: 9749 a9bc 5884 893c 3359 bdbb da70 ccbb
00000230: ac4d 44bc 1818 c8bc 659b 823c 00d1 3f3c
00000240: d62c c2bc 1455 723c 2c32 fc3b b81a 563c
00000250: bca2 97bc 1ca8 e73b 8666 92bc 47fb 0d3c
00000260: 443c 223c 0c48 053b fe55 5fbc 8c02 7fbc
00000270: c5c5 febb e86a 8abb 966b 0dbc 3171 aabc
00000280: aa40 3d3b 68fc 9ebc c976 603a e181 3b3c
00000290: 6cb0 d8bc 6885 e5bc 0591 e6bc 9b62 2e3c
000002a0: c2e2 87bc 76b2 f4bc 7bb0 83bc 27e0 f7bc
000002b0: cb6e 10bd 2da4 26bc 88f2 55bc ba6d 05bb
000002c0: bda9 3b3c 2417 33bd 4d1b 34bd a786 b1bc
000002d0: be53 b5bd 96e3 123b 97b9 e63b 58dd 52bc
000002e0: 817f 94bb 7d0b 2fbc 0999 1a3c 117d 10bd
000002f0: 18fd 753d b00b aa3c cb3c 60bd 0dad 0bbd
00000300: e2d9 d3ba d0b2 05bd f902 e0bc cc3c 26bc
00000310: 259f 90bb e768 dbbd f40c f1ba 90a7 1f3c
00000320: 76f2 8fbd 0aba 94bc 0745 8bbd 5d80 d8bb
00000330: 9a20 513b aa99 5f3d f2d9 03bd 2e48 1c3c
00000340: acf1 c2bd ca00 72bc 09d2 823c 6a12 99bd
00000350: 3287 7b3b 3312 d2b9 8c27 15bd a96a 0d3b
00000360: 98fb a4bb da37 6dbc d6b8 26bd 34ca e4bc
00000370: b362 ffba bedf dbbd 250e 2ebb 02cc 55bd
00000380: dc7f 993c 5a3e 20bc 5276 76bd ec6d e5bd
00000390: 2f11 39bb afd7 ff3c efef 99bd fea7 3d3c
000003a0: 04b7 b83d ad4f f0bc 6b1d 07bc fed6 1cbc
000003b0: d62f 92bd ae05 2bbd 9dd4 8abd 5bd5 8dbc
000003c0: e0e9 6cbd c84f f339 46a7 2bbc 5f69 173c
000003d0: 8591 ad3d e4c0 363c 42df e4bb 580c e63c
000003e0: 7327 8a3c e361 a4bc b99a 8d3b a0e9 8f3c
000003f0: fbbe 423d bdbd 43bd efd5 cabc 4fb9 5dbd
0.030557688 -0.0077554127 -0.018425092 -0.06570478 -0.0052813776 0.0395496 -0.032668374 -0.01408263
-0.024615448 8.190248e-05 -0.13008979 0.014166198 -0.073664926 -0.06312582 -0.010991663 0.04880815
0.0099878935 -0.006627273 -0.08330954 -0.08216728 0.005135362 0.09511224 -0.013559818 -0.011829387
-0.011521711 -0.030594986 0.0051539177 0.031787008 -0.09904765 0.018995447 -0.02811235 -0.03680951
0.027475143 -0.07608106 -0.033745937 -0.0027270517 0.0005719272 0.080305174 0.0016487414 -0.07361909
0.018388383 -0.010188899 0.050018586 0.015525527 0.0077699013 0.08749207 0.08205381 -0.0558822
0.030481352 0.041544214 0.029123468 -0.06713367 0.003747971 -0.039269317 0.00011176926 0.07728342
-0.00035942733 -0.01130689 -0.10741432 0.0012099606 0.014052782 -0.02380442 -0.0111134695 -0.029396655
0.018074516 -0.019698666 -0.006781404 -0.041084137 -0.020017834 -0.1151654 -0.0767925 -0.0103506595
0.003950785 -0.05184636 0.0067355926 -0.004863995 -0.112248 -0.057164505 0.0011886428 -0.011420116
-0.0048120813 0.024903769 -0.044160828 0.03795902 -0.04063811 0.011727569 -0.02052686 -0.019013442
-0.0033152106 -0.019527333 -0.019959988 -0.013581703 -0.02143745 -0.0371625 -0.009129573 -0.003498866
-0.031451005 0.006368161 -0.012337685 -0.0142547535 -0.012464417 -0.0034957447 -0.01957237 0.008605945
-0.0062712156 0.016651701 -0.0016981554 -0.00720109 -0.019491943 0.004136337 -0.008233212 -0.04144765
-0.0052018454 -0.0036706151 0.015529189 -0.0059059258 -0.017577508 -0.0063085184 -0.007351405 -0.006265678
-0.026250973 -0.0061941845 -0.01321158 0.008379917 0.0072386567 0.0035277014 -0.023329627 -0.0054451353
0.003484912 -0.02067262 0.0035269933 -0.0120451385 -0.018614411 -0.028996702 0.007546893 -0.024883484
-0.020664973 0.01678674 -0.0057784556 -0.006239039 -0.011981409 -0.024425551 0.015943239 0.011707544
-0.02370302 0.014790792 0.0076964106 0.013067894 -0.018510215 0.0070696007 -0.017871153 0.008665866
0.009902064 0.0020337133 -0.013631342 -0.015564572 -0.007775041 -0.00422417 -0.0086316075 -0.020805927
0.0028877654 -0.019407466 0.0008562622 0.01144454 -0.026451312 -0.028017715 -0.028145323 0.010643627
-0.016587619 -0.029870253 -0.016075363 -0.030258251 -0.03526191 -0.0101709785 -0.013058312 -0.0020359592
0.011454043 -0.04372324 -0.04397135 -0.021670653 -0.08853863 0.0022413484 0.007041167 -0.012870155
-0.004531801 -0.010683891 0.0094359005 -0.035275523 0.060055822 0.020757526 -0.054745477 -0.03410058
-0.0016162957 -0.032641232 -0.027345167 -0.010146331 -0.0044135028 -0.10713368 -0.0018390701 0.00974454
-0.07028668 -0.018155117 -0.06800275 -0.006607099 0.0031910301 0.054589905 -0.03219027 0.009538693
-0.095187515 -0.014770696 0.015969293 -0.07474215 0.0038380143 -0.0004006788 -0.036414668 0.0021578467
-0.005034875 -0.014478648 -0.040703617 -0.02792845 -0.0019484371 -0.10736035 -0.0026558724 -0.05219651
0.018737726 -0.009780491 -0.060171433 -0.112026066 -0.0028239002 0.031230776 -0.07516467 0.011575697
0.090192825 -0.029334867 -0.00824676 -0.0095727425 -0.0713803 -0.041753463 -0.06778834 -0.01731365
-0.057840228 0.00046408013 -0.010476893 0.009241431 0.08475021 0.011154387 -0.006984622 0.028082058
0.016864514 -0.020066207 0.004321423 0.017567456 0.047545414 -0.04778837 -0.024760215 -0.054131802

model/v_stream/W f4 [1, 256]
00000000: ecc3 1abd b758 493d 54ab 123d 0528 cd3c
00000010: 8d7f 99bc e1df 58bd f500 a1bc be0f 42bd
00000020: 8c29 f23b 2337 12bc e768 f53c 56fb 7b3b
00000030: 3e2d 06bd 08c6 063d c935 18bd 9737 54bd
00000040: 2da0 a5bb d485 4e3d 2308 133d bf6f 61bd
00000050: d9b9 323c 1d84 5c3d 42b2 98bc 4324 66bc
00000060: 9697 64bd eeac 053d ba32 2b3d 8296 573d
00000070: c099 06bd b547 03bd c852 273d 5cc6 563c
00000080: 3137 533d 7810 593c b552 37bd daef 843c
00000090: 63b2 5c3d ad12 8f3c fe91 2cbd e0f4 a13c
000000a0: 707d 57bd a64d 2fbb 95f8 24bd f47a 29bd
000000b0: c0b3 fc3b b999 533d b54d 2b3d 435d f4bc
000000c0: b157 b83c 01b8 d8bc 37d5 623d 5542 ab3c
000000d0: ee55 db3c c21a edbc 0454 e73c 476b 02bc
000000e0: 5957 d83c ef38 ae3c d066 bebc 9f5a b63c
000000f0: 9ba5 863c 1489 ffbc f4ab c5bc e858 563d
00000100: 7396 4cbd 6f18 28bd 222c 443d ecc5 5a3d
00000110: 5c1c 403d 237c e93c 96f6 403d 1123 54bd
00000120: 5224 af3c 1e4c 203d 63bc 063d a9d1 093d
00000130: d043 1f3d f75c ea3b 7e69 193d 5c0a 8cbc
00000140: 9026 36bd 9aef f2bc bcc3 013d adb1 eabc
00000150: 1eda c3bc 2a24 2f3d f895 0dbd 574a 52bd
00000160: f8a7 8e3c b185 373d bd3b b13a 3a1a 84bd
00000170: d288 5abd 1fc7 d23c f52c 253d 557f 2abd
00000180: 82ba 743d 04bb 8bbb c427 7abd ab43 1b3d
00000190: e591 89bc 0b14 cd3c 0c27 133d db4a 5dbc
000001a0: 34e3 343d e98f 15bd c35c 493d 04ba dfbc
000001b0: 6fe9 883a 5a06 77bb ab56 1cbd 35f9 37bc
000001c0: 560e 1c3d 6c9a 8abc 085d 663d 08f8 683d
000001d0: e32c 343d 050c 293d a091 333c 4a00 5cbc
000001e0: f4b7 263d 300f e03c 1f45 29bd 7404 c5bc
000001f0: e078 043d 469f 5ebd 0c2c 5cbd 81e5 06bd
00000200: a0aa 153d 2166 203d f688 bf3c 4a2f 443d
00000210: 00e9 3ebd 9812 1f3d d13d bd3c 9701 5c3d
00000220: 7430 713d 3909 5cbd 6a35 5ebd 9e90 13bd
00000230: e0d4 3ebd 8408 753d 4af2 8eb9 ed88 45bc
00000240: d56d 6d3c 5869 1dbd 053d 47bd fb63 483d
00000250: 2e5a e5bc ff2f 1a3d 1211 5b3d 5ae1 3f39
00000260: 7f94 f13c 7c19 643d 8d1e 28bd f828 adba
00000270: 88c0 5a3d 1769 50bd 67f4 31bd cc94 d8bc
00000280: baef 11bd b8ba 59bd 17ac 3e3d 3888 b4bb
00000290: 0235 523d 6d8c f33c 490b e13c ccaf be3c
000002a0: b3d7 b0bc b183 943b 34b1 78bd 97dd 773c
000002b0: 1463 ceba 8b17 42bd 0434 91bc 94de 5dbc
000002c0: cbab 4cbd e0a1 853c ed40 2b3d 62c4 163c
000002d0: a8ab 0bbd a936 1ebc 1a49 3d3d f46c 263d
000002e0: 2b0d 33bd fac0 9a3c e081 cdbc 595a 1e3d
000002f0: 90bb 293d 3bb1 673d c32e 40bd fa80 de3c
00000300: b328 4fbd 476a b1bc 7578 47bd 3add 05bd
00000310: 11b6 26bd 5acd 163d ebd6 18bd 1392 6e3d
00000320: a637 a33c f81f 2fbd 1eff c9bc 6907 ed3c
00000330: 113b 883c e828 5a3d cbcc 28bd f8ea 02bd
00000340: 0f86 d93c 0add 1d3d db65 21bd 46e8 943c
00000350: 557c 533d 862c 5b3d 8c57 b8bb 5462 21bd
00000360: 9885 5ebd 6512 c73c 8d71 4d3d 7d50 1ebd
00000370: b2f1 49bd de3d 49bd 1874 08bd 2f35 aabc
00000380: fb66 6bbd c773 4d3d 2056 2fbd fbe5 303d
00000390: 536e ba3c acbb 30bd 642b 403d a672 44bd
000003a0: fd50 46bd 876a 35bc 9674 773c c0c0 303d
000003b0: fefe 213d 237d 063d cc6c 23bd 4270 1dbd
000003c0: 5e4a 4bbd 59ce 383d 58c9 2238 d3a3 343d
000003d0: f15c ea3c 46d3 6bbd 4b90 3cbd 5ead 3ebd
000003e0: c749 a23a 04f1 533d a122 25bd f894 88bc
000003f0: eca4 353d d840 43bd 73d8 133d 8497 a4bc
-0.037784502 0.04915687 0.035807922 0.025043497 -0.018737579 -0.052947883 -0.019653777 -0.047378294
0.0073902067 -0.008924278 0.029957248 0.0038449368 -0.03275799 0.0329037 -0.03716067 -0.051810827
-0.005054495 0.050420597 0.03589643 -0.05503821 0.010908567 0.05383693 -0.018639687 -0.014046731
-0.055808626 0.03263562 0.041796423 0.05263377 -0.03286147 -0.032050807 0.04085043 0.013108816
0.051566307 0.013248555 -0.04475661 0.016227651 0.05388106 0.01746496 -0.042131416 0.019770086
-0.05260986 -0.0026749163 -0.04027613 -0.041377023 0.0077118576 0.051660273 0.041822154 -0.029829627
0.022502752 -0.026454927 0.05537912 0.020905653 0.026774373 -0.028943423 0.028238304 -0.007960147
0.026408838 0.021267382 -0.023242384 0.022260008 0.016436389 -0.031193294 -0.024129845 0.05233088
-0.049948167 -0.041038927 0.04789365 0.05341141 0.046902046 0.028501576 0.047110163 -0.051791254
0.021379624 0.03913509 0.032894503 0.033647213 0.03888303 0.0071521956 0.03745412 -0.017094783
-0.04447037 -0.029655267 0.031680807 -0.028649176 -0.023907717 0.042759098 -0.03456685 -0.051340427
0.017414078 0.044805232 0.0013521832 -0.06450315 -0.05335314 0.025729714 0.040326077 -0.04162534
0.05974818 -0.0042642374 -0.06107308 0.03790633 -0.0167932 0.025033971 0.03592591 -0.0135066165
0.04416199 -0.036514197 0.04916073 -0.027310379 0.0010445545 -0.0037692995 -0.03816859 -0.011228849
0.03809961 -0.016919337 0.056241065 0.056877166 0.04398812 0.04127123 0.010960013 -0.013427803
0.040702775 0.027350992 -0.041325685 -0.024049975 0.032341838 -0.054351114 -0.053752944 -0.032933716
0.036539674 0.039159898 0.023380738 0.04789666 -0.046608925 0.03883609 0.023100765 0.053712454
0.0588841 -0.053719733 -0.05425016 -0.03602659 -0.046589732 0.059822574 -0.0002726487 -0.012056571
0.014491518 -0.03843054 -0.048642177 0.048923474 -0.027997103 0.03764343 0.053483076 0.0001829913
0.029489754 0.055688366 -0.04104476 -0.0013211062 0.05340627 -0.05088147 -0.04344597 -0.02643814
-0.03562901 -0.053156585 0.046550836 -0.0055094026 0.051320083 0.029730046 0.027471201 0.023277186
-0.021587228 0.0045323004 -0.06071587 0.015128515 -0.001574608 -0.047385734 -0.017724998 -0.013541836
-0.049968522 0.01631254 0.041809965 0.009202095 -0.03409925 -0.009656587 0.046212293 0.04063125
-0.04371373 0.018890847 -0.025086343 0.03866038 0.04143864 0.056565505 -0.046919595 0.02716111
-0.050575923 -0.021657122 -0.04869886 -0.03268168 -0.040700976 0.036816932 -0.037314337 0.058244776
0.019923996 -0.042755097 -0.024657782 0.028934198 0.016629728 0.053261667 -0.04121093 -0.031962365
0.026553182 0.038540877 -0.039403778 0.018177163 0.051632244 0.053509258 -0.005625671 -0.039400414
-0.054326624 0.024300763 0.05015712 -0.03865098 -0.049302764 -0.049131267 -0.03331384 -0.020777313
-0.057471257 0.050159242 -0.042806745 0.043188076 0.022757685 -0.043147728 0.04691638 -0.0479609
-0.04841708 -0.011072761 0.01510348 0.04315257 0.03954982 0.032834183 -0.03989868 -0.038437136
-0.04963147 0.045118663 3.8811326e-05 0.044101547 0.028608771 -0.057574533 -0.046036046 -0.046552055
0.0012381607 0.051743522 -0.040316228 -0.016672596 0.044346735 -0.04766926 0.036095094 -0.02009178
