ai_challenge/results/simulation_DoubleDQN_DuelingRecNN_2017-05-19T19:40:53.24/100011/target_model.npz (npz, 630590 bytes, 12 tensors)

model/hidden/input_layer/b f4 [256]
0	0xbc9d58a2	-0.019207302
1	0xbce55f5d	-0.027999574
2	0xbd02ca39	-0.031931136
3	0xbc4cff3c	-0.0125120245
4	0xb95e02cb	-0.0002117261
5	0xbca337a7	-0.019923998
6	0xbd0ee8ba	-0.034889914
7	0xbd33b05e	-0.04386937
8	0xbc1a49d5	-0.009417017
9	0xbcd7dac7	-0.026349438
10	0x3c8db4ad	0.017298067
11	0xbcaa693d	-0.020802135
12	0xbbe14142	-0.0068742344
13	0xbcc7eb77	-0.02440427
14	0xbd192ece	-0.037398152
15	0xbbaae4cf	-0.0052152644
16	0xbcb08335	-0.02154694
17	0xbd0d941c	-0.034565076
18	0xbc6be92b	-0.014398853
19	0xbce7d0a1	-0.028297724
20	0xbce41345	-0.02784122
21	0xbc4b0fcf	-0.012393906
22	0x3c3b0008	0.011413582
23	0xbc4d8dfb	-0.012546058
24	0xbd23614c	-0.03988771
25	0xbcdb0011	-0.02673343
26	0xbcfe9e57	-0.031081362
27	0xbc43132f	-0.011906429
28	0xbc893e92	-0.016753469
29	0xbc6f8533	-0.0146191595
30	0xbd15bded	-0.03655808
31	0xbc62369c	-0.013806965
32	0xbb8e06ff	-0.00433433
33	0xbd00f0a1	-0.03147948
34	0x3bf9f39e	0.0076279184
35	0xbc826ebc	-0.015921943
36	0xbd866cc8	-0.06563717
37	0xbc5a8a72	-0.013338672
38	0xbcf9ac71	-0.030477734
39	0xbba070de	-0.0048962673
40	0xbc14bd3b	-0.009078319
41	0xbcf34e1a	-0.029700328
42	0x3c741d86	0.014899617
43	0xbcce5ebd	-0.02519166
44	0xbd425525	-0.04744448
45	0xbc4dd87d	-0.012563822
46	0xbced03f7	-0.028932555
47	0xbd04ff8a	-0.032470264
48	0xbd16184b	-0.03664426
49	0xbd0334d9	-0.03203282
50	0xbca81357	-0.020517034
51	0xbcb90dff	-0.022589682
52	0xbbee643d	-0.007275133
53	0xbc9ebbfa	-0.019376744
54	0xbc8d98a0	-0.017284691
55	0xbc7199e9	-0.014746168
56	0xbc8d554f	-0.017252592
57	0xbcb4049d	-0.021974856
58	0xbc12e77d	-0.008966324
59	0xbc75aaaf	-0.014994307
60	0xbcaf1f5c	-0.021377258
61	0xbc8f0b9f	-0.017461596
62	0xbcceacf0	-0.025228947
63	0xbca38ba2	-0.019964043
64	0xbbf2a74f	-0.0074051986
65	0xbce57305	-0.028008947
66	0xbcfbcdb0	-0.030737728
67	0xbcc6a265	-0.024247358
68	0xbc91fb59	-0.017820047
69	0xbd14658a	-0.036229648
70	0xbd15aef5	-0.036543805
71	0xbd3197fb	-0.04335783
72	0xbc606227	-0.013695276
73	0xbcc374a5	-0.023859331
74	0xbd2cfe5f	-0.042234775
75	0xbc86ca89	-0.016453998
76	0xbc51d243	-0.012806478
77	0xbcf1cbe2	-0.029516164
78	0xbc369d8c	-0.011145961
79	0xbd2e6339	-0.042575095
80	0xbd51f3cb	-0.05125789
81	0xbd11e72a	-0.035620846
82	0xbd04c7bd	-0.032417048
83	0xbd0a7585	-0.03380348
84	0xbcc78772	-0.024356578
85	0xbd04d3bd	-0.03242849
86	0xbd1b729a	-0.03795109
87	0xbd3630b4	-0.04448004
88	0xbcaaf751	-0.020869883
89	0xbd24de4f	-0.040251072
90	0x3c825fd3	0.015914833
91	0x3b9016f3	0.004397267
92	0xbd220d5e	-0.03956353
93	0xbd12b978	-0.035821408
94	0xbcf8e979	-0.030384766
95	0xbb93d9bc	-0.00451204
96	0xbbd427a5	-0.0064744526
97	0xbad9b4ee	-0.0016609707
98	0x3c6b17ee	0.014348967
99	0x3c488efe	0.012241123
100	0xbca1566f	-0.019694535
101	0xbc9ddba2	-0.019269768
102	0x3c3a3b04	0.0113666095
103	0xbada4301	-0.0016652049
104	0x3bdff195	0.0068342187
105	0xbbf56996	-0.0074893935
106	0xbcfc538e	-0.03080156
107	0xbce3ab28	-0.027791575
108	0xbc9d8d13	-0.019232308
109	0xbd6d3d68	-0.05791989
110	0xbd61332e	-0.05498045
111	0xbcebca7c	-0.028783076
112	0xbcd27ca8	-0.025694206
113	0xbc8cf497	-0.017206473
114	0xbd174b36	-0.03693696
115	0xbbd7a3f0	-0.006580822
116	0xbcd36fd3	-0.025810158
117	0xbce7038d	-0.028199935
118	0xbd76a86a	-0.060219206
119	0xbcc6f25d	-0.02428549
120	0xbd19c76d	-0.037543703
121	0x3a875678	0.0010325452
122	0xbd34e02c	-0.0441591
123	0xbd5d7d34	-0.05407448
124	0xbd23a162	-0.03994883
125	0xbc403c45	-0.011733119
126	0xbd313a91	-0.043268744
127	0x3b84f309	0.0040572924
128	0x3afd00db	0.0019302623
129	0xbd5813d9	-0.052753303
130	0xbd158da1	-0.03651202
131	0xbcadee25	-0.02123172
132	0xbc462ca4	-0.012095604
133	0xbcf03202	-0.02932072
134	0xbc0e2316	-0.008675357
135	0xbd134e16	-0.03596314
136	0xbc6fa87a	-0.01462757
137	0xbcf198ef	-0.02949187
138	0xbcb96bd0	-0.022634417
139	0x3c079ec1	0.008277596
140	0xbce6105c	-0.028083973
141	0xbce1a2ac	-0.027543388
142	0xbcf5d268	-0.030007556
143	0xbb221514	-0.0024731802
144	0xbc4b6d6c	-0.012416225
145	0xbaed4430	-0.0018101986
146	0xbd04c18b	-0.03241114
147	0xbd527749	-0.05138329
148	0xbd33c2a1	-0.043886784
149	0xbcd53db6	-0.026030403
150	0xbc4ac3f8	-0.012375824
151	0xbcdb88c6	-0.026798617
152	0xbd19f7de	-0.0375899
153	0xbc721d9b	-0.014777566
154	0xbd122842	-0.035682924
155	0xbc22e8fe	-0.009943245
156	0xbd3dfe09	-0.046384845
157	0xbc7ef02e	-0.015560193
158	0xbb9a56f4	-0.0047100727
159	0xbca18c23	-0.019720143
160	0xbbb39e2e	-0.005481503
161	0xbd3cff02	-0.046141632
162	0x3b8a582e	0.0042219376
163	0xbc353608	-0.011060245
164	0xbd29c098	-0.041443437
165	0x3b3729d6	0.002794852
166	0xbd123d1c	-0.03570281
167	0x3b6499c4	0.003488169
168	0xbcb4397c	-0.022000067
169	0xbc6b3a02	-0.014357092
170	0xba21e1d4	-0.00061753136
171	0xb87db988	-6.049269e-05
172	0xbc509a37	-0.01273208
173	0xbcbe9fa1	-0.023269476
174	0x3b7cd764	0.0038580531
175	0xbc3ede5e	-0.011649696
176	0xbb81afc2	-0.0039577195
177	0xbd186c72	-0.037212797
178	0xbc64ac94	-0.013957161
179	0xbcc1f85e	-0.023678001
180	0xbcea5c63	-0.028608507
181	0xbc3623b0	-0.011116907
182	0x3b88f420	0.0041794926
183	0xbd023858	-0.031792015
184	0xbb16af47	-0.0022992657
185	0xbcd8d691	-0.0264695
186	0xbd2d6a92	-0.04233796
187	0xbd8d9a37	-0.0691418
188	0xbcbd88fa	-0.023136605
189	0xbcbffaf2	-0.02343509
190	0xbccedd3d	-0.025251979
191	0xbd29f53a	-0.041493632
192	0xbd05e5b8	-0.03268978
193	0xbcefd0b3	-0.02927432
194	0xbc5fe952	-0.013666468
195	0xbd1f16b2	-0.038840003
196	0xbca19f7c	-0.019729368
197	0xbcbe9206	-0.023262989
198	0xbcf74891	-0.03018597
199	0xbb25590f	-0.0025230085
200	0xbc71b908	-0.014753588
201	0xbc502598	-0.012704276
202	0xbcde0d40	-0.027105927
203	0xbd3193c6	-0.04335382
204	0xbd3a5785	-0.04549362
205	0xbbb8b050	-0.0056362525
206	0xbcea3130	-0.028587908
207	0xbcebf313	-0.02880243
208	0xbc8c1bf0	-0.017103165
209	0xbbaafe16	-0.0052182777
210	0xbd1ffad7	-0.03905758
211	0xbcf84491	-0.030306133
212	0xbd2c5ae2	-0.04207886
213	0xbcca4efb	-0.024695864
214	0xbd3ad39b	-0.04561196
215	0xbd41e5e5	-0.047338385
216	0xbca2e93d	-0.019886607
217	0xbce49938	-0.027905092
218	0xbd2e9fc1	-0.042632822
219	0xbcbb3278	-0.022851214
220	0xbc947e81	-0.018126728
221	0x3b438aad	0.0029837296
222	0xbcfdfc89	-0.031004207
223	0xbcaf5bd9	-0.021406101
224	0xbcca0485	-0.024660358
225	0x3cbaa06e	0.022781577
226	0xbd0e95d9	-0.034810875
227	0xbcd85119	-0.026405858
228	0xbc8acee4	-0.016944356
229	0xbc79f43e	-0.015255986
230	0xbd0536b7	-0.032522883
231	0xbd099cdf	-0.03359687
232	0xbd4d5c22	-0.050136693
233	0x3c10b8db	0.0088331355
234	0xbc9f5caf	-0.019453375
235	0xbbbdf086	-0.005796495
236	0xbd027125	-0.031846184
237	0xbc25cf11	-0.010120169
238	0xbcc3c75e	-0.023898777
239	0xbd0020a3	-0.031281125
240	0xbc840221	-0.016114296
241	0xbc2c194a	-0.010504076
242	0xbc191cc3	-0.009345236
243	0xbd08639d	-0.033298124
244	0xbcba70b0	-0.022758812
245	0xbc9f6664	-0.019458003
246	0xbcd882be	-0.02642953
247	0xbd42c1c9	-0.04754809
248	0xbce7301c	-0.028221183
249	0xbcd2011a	-0.02563529
250	0xbca80571	-0.020510407
251	0xbb0dbd4a	-0.0021627718
252	0x3c4ca05c	0.0124894045
253	0xbd24f8c2	-0.040276296
254	0xbd3eda57	-0.046594944
255	0xbce42eb6	-0.027854305

model/hidden/output_layer/b f4 [256]
0	0x3c3ef813	0.011655825
1	0xbbef8aa2	-0.0073102275
2	0x3c46585a	0.012106026
3	0xbc12c68d	-0.008958471
4	0x3a30b18c	0.0006740324
5	0x3bad659c	0.005291654
6	0x3b99b2e9	0.004690517
7	0x3c05dc93	0.008170265
8	0xbc3e7ced	-0.011626464
9	0x3c2880eb	0.010284643
10	0xbc5afd18	-0.013366006
11	0x3c0e837f	0.008698343
12	0x3b612046	0.0034351512
13	0x3ba0e2c3	0.0049098446
14	0x3c1d40a9	0.009597936
15	0x3c0b4a2b	0.00850157
16	0xbc4e7ab9	-0.012602502
17	0x3b7b8935	0.0038381342
18	0xbc03b31e	-0.00803831
19	0x3c1aa7cf	0.009439423
20	0xbc411784	-0.011785392
21	0xbc237485	-0.009976511
22	0x3a979ec5	0.0011567703
23	0xbb4a1fa8	-0.0030841623
24	0xbc668cbb	-0.014071639
25	0x3c84ab67	0.016195012
26	0xbbfeacb2	-0.0077720517
27	0x3b72b507	0.003703417
28	0xbc400322	-0.011719497
29	0x3c542b14	0.012949724
30	0xbc3f354a	-0.01167042
31	0xbbd8fffc	-0.0066223126
32	0x3b286237	0.0025693306
33	0xbc782d08	-0.015147455
34	0x3bea1151	0.0071431776
35	0xb716863a	-8.971949e-06
36	0xbbecdf97	-0.0072288024
37	0x3c2fe5e5	0.0107359635
38	0x3bd3e58d	0.0064665736
39	0x3b924208	0.004463438
40	0x3c0adb16	0.008475086
41	0x3c018e06	0.007907396
42	0xbc151027	-0.009098089
43	0x3c2d5501	0.010579349
44	0x3c7b5970	0.015341148
45	0xbbe96ab1	-0.0071233143
46	0xbc18e92f	-0.009332939
47	0x3bcdc9cb	0.006280159
48	0xbc2d07c0	-0.01056093
49	0xbafd1a2a	-0.0019310166
50	0xbc03d916	-0.008047363
51	0xbc23aa76	-0.0099893715
52	0xbc101a31	-0.008795307
53	0x3b5737f1	0.003283974
54	0xbaaf51a3	-0.001337577
55	0xbace349e	-0.0015732234
56	0xbc2d2488	-0.010567792
57	0xbb943fc2	-0.004524202
58	0x3ab7b400	0.0014015436
59	0x3b7a8926	0.003822872
60	0xbb2eb940	-0.002666071
61	0x3b83410e	0.004005558
62	0x3c1523f3	0.009102809
63	0xbb4451b1	-0.0029955918
64	0x3bfe84ef	0.0077673118
65	0x3b97ba36	0.0046303524
66	0xbc23058a	-0.009950051
67	0xbbb6a47e	-0.005573808
68	0xbbf66b95	-0.007520149
69	0xbbec1a1f	-0.0072052623
70	0xbc058930	-0.008150384
71	0x3c2a4a0d	0.010393632
72	0xbb3ee459	-0.0029127805
73	0xbc4eec84	-0.012629632
74	0xbb83b004	-0.0040187854
75	0x3b4f3589	0.0031617603
76	0x3a844461	0.0010091179
77	0x3c3372d0	0.010952666
78	0x3bbcf857	0.005766909
79	0x3bfabc06	0.0076518087
80	0xbc861729	-0.016368465
81	0xbbea831e	-0.0071567437
82	0x3b054a06	0.002033831
83	0xbb4823d8	-0.0030538943
84	0x3b91ff09	0.0044554514
85	0xbc3e989c	-0.011633065
86	0xbbd336d4	-0.006445745
87	0x3bbed402	0.005823613
88	0xbc4feb3a	-0.01269036
89	0xbc1eb3a9	-0.009686389
90	0x3c4714a2	0.012150915
91	0x3c15b5cf	0.009137585
92	0x3c22898c	0.009920489
93	0x3c19b624	0.009381805
94	0xbb8952df	-0.004190787
95	0x3bc7ca99	0.0060971496
96	0xbc1295e6	-0.008946871
97	0xbc58f18d	-0.013241184
98	0x3c287384	0.010281447
99	0xbb7154b1	-0.0036824162
100	0x3c2b7114	0.010463972
101	0x3796c8fc	1.7974984e-05
102	0xbc2fd0d6	-0.010730943
103	0x3b7ac2dc	0.0038263118
104	0x3b8e2be9	0.0043387306
105	0x3c1a9f16	0.009437343
106	0xbc27186b	-0.010198693
107	0xbb82fb66	-0.003997254
108	0x3c36a5bf	0.011147915
109	0xbb8e53a9	-0.004343469
110	0x3c36848b	0.011139999
111	0x3bdeeb1b	0.006802929
112	0xbc664087	-0.01405347
113	0x3bf4aa03	0.007466556
114	0xbbf6e2b6	-0.0075343503
115	0xbbf6e2e1	-0.0075343703
116	0xbc32f4cd	-0.010922623
117	0xbad4b808	-0.0016229162
118	0x3b4d8dc7	0.0031365023
119	0x3c40d1c1	0.011768759
120	0x3c1f4eb9	0.009723359
121	0x3c170867	0.009218312
122	0x3bd9257c	0.006626783
123	0xbb6ee466	-0.0036452054
124	0xbb1a8334	-0.0023576738
125	0x3bbeeb0d	0.00582636
126	0x3be83f2f	0.00708761
127	0xbb1f5ea7	-0.0024317892
128	0x3bdc4aa0	0.006722763
129	0xbc224f9e	-0.0099066775
130	0x3c6c0a3e	0.014406739
131	0xbba53b94	-0.0050425027
132	0x3c14bf7a	0.009078855
133	0x3b5d5c2f	0.003377687
134	0x3bd85712	0.0066021765
135	0xbc1dcc88	-0.009631284
136	0xbc0dfefa	-0.008666748
137	0x3b38218c	0.0028096167
138	0x3c3d8b43	0.011568847
139	0x392e8bda	0.00016646032
140	0x3c1779a9	0.009245315
141	0xbc0eea03	-0.008722785
142	0x3c4c4140	0.012466729
143	0xbbdcbf14	-0.0067366455
144	0xbc5370ee	-0.0129053425
145	0x3c110479	0.008851164
146	0x3c0708ef	0.008241876
147	0xbbd3be42	-0.0064618895
148	0x3b9134cb	0.0044313422
149	0xbbfc71ff	-0.007704019
150	0xbc1826fd	-0.009286639
151	0x3b6a1a8e	0.0035721394
152	0xbb2356b7	-0.0024923512
153	0xbc1f41ec	-0.009720307
154	0xbb3b139b	-0.0028545621
155	0x3bec1743	0.0072049215
156	0xbbf4e8f9	-0.0074740616
157	0xbb497590	-0.0030740239
158	0xba57f3e0	-0.00082379393
159	0x3b77a8f3	0.003778991
160	0xbbd8b8a3	-0.0066138073
161	0x3be96a7d	0.00712329
162	0xba0fffd3	-0.0005493138
163	0x3b9423b3	0.0045208572
164	0xbc021b9a	-0.007941151
165	0xbc52488a	-0.0128346775
166	0xbc26f72f	-0.010190769
167	0xbaf99955	-0.0019042889
168	0xbb3cdb38	-0.0028817188
169	0x3c8da429	0.017290192
170	0x3c283303	0.010266068
171	0xbc336508	-0.010949381
172	0xbb7aa719	-0.003824657
173	0x3c281153	0.010258037
174	0x3c7c21f0	0.015388951
175	0x3a339ba2	0.0006851499
176	0xbabe7529	-0.0014530766
177	0x3c2c5bf5	0.010519971
178	0x3c03a3d2	0.008034663
179	0x3afba3aa	0.0019198556
180	0x3c1b94f2	0.009495961
181	0x3c52d47f	0.012868046
182	0xbc235a26	-0.0099702235
183	0xbb71acb9	-0.0036876632
184	0x3c373185	0.01118124
185	0xbc0985ae	-0.008393688
186	0x3c07280b	0.008249293
187	0x3b35843a	0.0027697221
188	0xbbc5f543	-0.0060412004
189	0xbbe23c40	-0.006904155
190	0x3bd695e3	0.0065486296
191	0xbc2d8573	-0.010590899
192	0xbb950745	-0.0045479857
193	0x3b04a41f	0.0020239425
194	0xbb2ae2d0	-0.0026075132
195	0xbcf92466	-0.030412864
196	0x3c142f72	0.009044515
197	0x391335e1	0.00014039084
198	0x3bed2d05	0.0072380328
199	0xbc126eb8	-0.00893753
200	0x3c2511d9	0.010075056
201	0x3b8a1f8e	0.0042151874
202	0x3b7a0cf0	0.0038154684
203	0xbc28e001	-0.010307313
204	0x3c8f0d22	0.017462317
205	0xbc2e167d	-0.010625479
206	0x3ba4eea5	0.0050333315
207	0xbbb2e67e	-0.0054596057
208	0xbb632c8c	-0.0034664003
209	0x3b1de218	0.0024091061
210	0xbc013830	-0.007886931
211	0x3b8c17a7	0.0042752805
212	0xbc26bda4	-0.01017705
213	0xbc1068ec	-0.008814078
214	0x3c2f9d19	0.010718607
215	0x3a5248bc	0.00080217025
216	0x3c12b443	0.008954111
217	0x39dd603e	0.0004222411
218	0xbbfcc0ea	-0.007713427
219	0x3c0241da	0.007950271
220	0xbb91fe2d	-0.004455349
221	0x3c20afea	0.009807566
222	0x3c601979	0.013677948
223	0xbc6d2bbe	-0.014475761
224	0x3c165174	0.009174693
225	0x3b9deb3e	0.004819303
226	0x3aeb46f0	0.0017950218
227	0xbbcca305	-0.0062450194
228	0xbc592d2c	-0.013255399
229	0x3bb8ac23	0.0056357547
230	0xbc243bba	-0.010024006
231	0x3c3444fe	0.011002777
232	0x3c112ace	0.008860303
233	0xbc05c3c8	-0.008164354
234	0x3cb0c0cf	0.021576313
235	0xbbbdbc85	-0.0057902955
236	0xbba2aa72	-0.0049641663
237	0xba11b3ba	-0.00055580924
238	0x3c43ac7e	0.011942981
239	0x3a78e33d	0.00094943104
240	0x3c2ea417	0.010659239
241	0xbab16e2a	-0.001353686
242	0x3c661dc4	0.014045183
243	0xbb823d9d	-0.00397463
244	0x3ba21489	0.0049462956
245	0x3c0eda27	0.008719004
246	0xbb8ed58f	-0.0043589543
247	0xbaa8a82e	-0.0012867504
248	0x3c094b3e	0.008379756
249	0xbc188879	-0.009309881
250	0x3bd01d00	0.0063511133
251	0x3b7af9ae	0.0038295793
252	0x3c13fb67	0.009032107
253	0xb8c03926	-9.165918e-05
254	0x3b3fce05	0.0029267084
255	0x3b2c9d51	0.0026338885

model/a_stream/W f4 [3, 256]
0	0xbcae60aa	-0.021286327
1	0x3c5982f7	0.013275853
2	0xbd646a5c	-0.055765495
3	0x3d0883bc	0.033328757
4	0xbcb82cfc	-0.022482388
5	0xbccc9f37	-0.024978263
6	0x3d448115	0.047974665
7	0xbc6d4ffa	-0.0144844
8	0x3d37f7bb	0.04491399
9	0xbcb31551	-0.02186075
10	0x3cbcc45d	0.023042852
11	0xbc09a3e2	-0.008400889
12	0xbc9a5f8b	-0.018844387
13	0xbd766e75	-0.060163934
14	0xbc67643b	-0.014123018
15	0xbb581d3d	-0.0032976412
16	0x3cb8ce45	0.022559294
17	0xbcdb9a1f	-0.02680689
18	0x3cae7fa4	0.021301098
19	0xbc117fbb	-0.008880551
20	0x3c9d8bd8	0.019231722
21	0x3bb6ff83	0.0055846586
22	0xbbbf125f	-0.0058310474
23	0x3d0bc43f	0.0341227
24	0x3d16a511	0.036778513
25	0xbd705c5d	-0.058681834
26	0x3cbd900c	0.023139976
27	0xbd337f9f	-0.04382288
28	0x3d8a32a2	0.06747939
29	0xbcf04a04	-0.029332168
30	0x3c7ef023	0.015560183
31	0x3ca0ef49	0.01964535
32	0xbd226916	-0.039651
33	0x3ca0ddcf	0.019637017
34	0xbca641bd	-0.020295018
35	0xbd04f42b	-0.03245942
36	0x3cbb4c31	0.02286348
37	0xbd785216	-0.06062516
38	0x3b2ce662	0.0026382436
39	0xbd87aacd	-0.066243745
40	0xbc6ea1ea	-0.0145649705
41	0x3d61eca1	0.055157308
42	0x3d210378	0.03930995
43	0xbc0d69c5	-0.008631174
44	0x3d727792	0.059196062
45	0x3c7da828	0.015481986
46	0x3c8ba220	0.01704508
47	0x3d51b03c	0.05119346
48	0x3d388e8f	0.04505783
49	0xbce4122e	-0.0278407
50	0x3c0a8731	0.008455084
51	0x3cee15c0	0.029063106
52	0x3c29df1f	0.010368138
53	0x3d4efca8	0.05053392
54	0xbd13c3f7	-0.03607556
55	0x3cd0d081	0.025490047
56	0x3d280fd0	0.041030705
57	0x3c9702df	0.018433986
58	0x3d8de662	0.06928708
59	0xbc9a79c1	-0.018856885
60	0xbd15ce4c	-0.036573693
61	0x3cc87fb8	0.024474964
62	0xbca67ff8	-0.020324692
63	0xbc09c401	-0.008408547
64	0xbca3e3a0	-0.020006001
65	0xbce61510	-0.028086215
66	0x3c1b967e	0.009496329
67	0x39c87733	0.00038235783
68	0x3aff24dd	0.0019465942
69	0x3c9730e4	0.01845593
70	0x3c651cd2	0.013983922
71	0xbc020f72	-0.007938253
72	0x3d07c8f8	0.033150643
73	0x3c1b5e98	0.009483002
74	0xbd6107e3	-0.054939162
75	0xbd624ea3	-0.055250775
76	0x3cbeeeef	0.023307292
77	0xbd5198c3	-0.051171076
78	0xbd5798ef	-0.052636083
79	0x3d403698	0.046927065
80	0x3d009b49	0.03139809
81	0x3d89e013	0.06732192
82	0xbd352de9	-0.044233236
83	0xbce4cb3e	-0.027928945
84	0x3d6ce42e	0.057834797
85	0x3bc0cedd	0.005884035
86	0x3d3d1b14	0.0461684
87	0x3c916241	0.017747046
88	0x3cd1fe80	0.02563405
89	0x3c504d6e	0.012713773
90	0x3d839ab1	0.064259894
91	0x38c6f22f	9.486486e-05
92	0xbb979b47	-0.004626665
93	0xbd7f69ff	-0.062356945
94	0x3a6fe9c5	0.0009151961
95	0xbc113975	-0.0088637965
96	0x3c2ba416	0.010476133
97	0x3d40dd8a	0.047086276
98	0xbbac84aa	-0.005264838
99	0xbb1d1ee7	-0.0023974718
100	0xbc3daf04	-0.0115773715
101	0xbd25d1b9	-0.04048321
102	0x3ce59b09	0.028028028
103	0x3d58ea86	0.052958034
104	0xbd09c018	-0.03363046
105	0xbcf94ac1	-0.030431153
106	0x3c49a923	0.012308392
107	0x3d2d486a	0.042305388
108	0xbd5a7751	-0.053336445
109	0x3cc54a87	0.024083389
110	0xbcd45e75	-0.025923947
111	0x3d6bc278	0.057558507
112	0x3c3dab25	0.011576449
113	0x3d5e5a5e	0.0542854
114	0x3aa4f483	0.0012585077
115	0x3c3e0873	0.011598694
116	0x3caab553	0.020838415
117	0x3b90f828	0.004424114
118	0xbd86a650	-0.0657469
119	0xbcf37e97	-0.029723449
120	0xbce6a7df	-0.028156219
121	0xbd71f765	-0.059073824
122	0xbce06976	-0.027394038
123	0x3bf8037d	0.007568775
124	0x3d03c45e	0.032169692
125	0x3bd756dd	0.006571634
126	0xb92640d2	-0.00015855141
127	0x3cf3ffd1	0.029785069
128	0xbd64340e	-0.055713706
129	0x3cb2ced7	0.021827145
130	0xbd77be32	-0.06048412
131	0xbc0b6b1e	-0.008509425
132	0xbbb4da07	-0.005519155
133	0xbbfa0b47	-0.007630739
134	0x3d0fbbe9	0.035091314
135	0x3b722779	0.0036949797
136	0x3bc2a9c4	0.005940648
137	0x3c7641f9	0.015030378
138	0x3c21315b	0.009838427
139	0xbb35d63c	-0.0027746102
140	0xbbdc8100	-0.006729245
141	0x3c464c4f	0.012103154
142	0xbd1ba23b	-0.037996512
143	0x3d8372bb	0.064183675
144	0x3cc01444	0.023447163
145	0xbce115c7	-0.027476205
146	0xbc9a4973	-0.018833851
147	0x3c5c5162	0.013447138
148	0x3d20892b	0.039193314
149	0x3c735e82	0.014854075
150	0x3b3428e7	0.00274902
151	0xbcb28022	-0.021789614
152	0xbd7c2f08	-0.06156829
153	0x3c858a57	0.016301317
154	0x3c8d8356	0.01727454
155	0xbd2df5e3	-0.042470824
156	0x3c9783b5	0.01849542
157	0x3cf6cd78	0.030127272
158	0x3d333322	0.043749936
159	0xbd1330d3	-0.035935234
160	0x3d4e0b86	0.05030396
161	0xbcd5a290	-0.026078492
162	0xbbd152e5	-0.0063880556
163	0x3cff6608	0.031176582
164	0x3cae2d09	0.021261709
165	0x3c84034c	0.016114853
166	0x3b3191fb	0.0027095068
167	0xbd2d38c5	-0.042290468
168	0xbc9461c8	-0.018113032
169	0x3d6df88b	0.058098357
170	0x3bfe57dc	0.0077619385
171	0x3c56357b	0.013074274
172	0x3d3fdc48	0.046840936
173	0xbc2c1d73	-0.010505068
174	0xbc8794c2	-0.016550425
175	0xbcaaab6b	-0.020833692
176	0x3d22f22f	0.039781746
177	0xbce26773	-0.027637219
178	0xbd0b1ea7	-0.03396478
179	0xbcfea721	-0.031085553
180	0xbce05344	-0.027383454
181	0xbd077eef	-0.033080038
182	0x3c439fba	0.011939937
183	0x3c8b8605	0.017031679
184	0xbaeae8f9	-0.0017922214
185	0x3c8b1295	0.016976634
186	0xbc4bfcbd	-0.012450394
187	0xbd42fe28	-0.047605664
188	0x3ccb8d73	0.024847722
189	0xbbb6e518	-0.0055815093
190	0xbc9e3473	-0.01931212
191	0xbb926f4c	-0.004468834
192	0x3d235bdf	0.039882537
193	0x3d479152	0.048722573
194	0x3ce7e2ed	0.028306449
195	0xbd9d45d1	-0.07679332
196	0xbcdd65b2	-0.027026031
197	0x3c623059	0.013805472
198	0xbd00dbea	-0.031459726
199	0x3b9bf649	0.004759584
200	0xbd869399	-0.06571121
201	0xbb6d1cae	-0.0036180425
202	0xbd064b2e	-0.03278654
203	0x3d1f3a33	0.038873862
204	0x3d9ba807	0.07600408
205	0x39384d0d	0.00017576311
206	0xbce90cb0	-0.028448433
207	0x3ce2a5ae	0.027666893
208	0x3d044d6b	0.032300394
209	0xbc9184a6	-0.017763447
210	0x3d62f515	0.05540951
211	0xbd69322e	-0.05693262
212	0x3bc8b6d4	0.0061253104
213	0x3b6625e8	0.0035117809
214	0x3d7241c0	0.059144735
215	0xbc44fb2e	-0.0120227765
216	0xbb95b306	-0.0045684604
217	0xbd85b8c0	-0.06529379
218	0x3aecc544	0.0018064161
219	0xbc80c9ef	-0.01572129
220	0x3ccebb61	0.025235834
221	0xbc57aef9	-0.013164275
222	0xbc718dd0	-0.014743283
223	0x3d9442c0	0.07239294
224	0xbc1b7058	-0.009487234
225	0xbd346cc6	-0.044049047
226	0x3bd9f10c	0.0066510495
227	0x3cad5bee	0.021162
228	0x3ca9503d	0.020668143
229	0xbc844790	-0.016147405
230	0x3c5b18c8	0.0133726075
231	0xbc24b776	-0.010053506
232	0xbc05918c	-0.008152377
233	0x3d54dae0	0.051966548
234	0x3d92e51c	0.071726054
235	0xbbdd0a77	-0.0067456323
236	0x3cdd2c38	0.026998624
237	0xbb32483b	-0.0027203697
238	0xbca87ac6	-0.020566355
239	0x3c233054	0.009960253
240	0xbc424a58	-0.011858545
241	0xbc0349af	-0.008013173
242	0xbd382111	-0.04495341
243	0x3cebae4e	0.028769638
244	0xbd5c8e22	-0.053846486
245	0xbc46c40b	-0.012131701
246	0x3d3ee8cb	0.046608727
247	0x3d409050	0.047012627
248	0xbb8820a2	-0.0041542808
249	0x3bb9112a	0.005647798
250	0xbd033e07	-0.032041576
251	0x3d2c2712	0.042029448
252	0xbcac110d	-0.021004224
253	0x3cac4b84	0.021032102
254	0xbd5a1334	-0.05324097
255	0x3d41e83f	0.047340628

model/hidden/mid_rec_layer/upward/W f4 [80, 86]
0	0xbb8c13e0	-0.00427483
1	0x3c738f10	0.014865652
2	0x3c4d67bd	0.01253694
3	0x3b5ceb8f	0.003370974
4	0x3c9740cf	0.01846352
5	0xbbb075de	-0.0053851446
6	0xbb164d3f	-0.0022934226
7	0x3c036cab	0.008021514
8	0xbcb289bd	-0.021794194
9	0x3c23d70a	0.01
10	0x3c45ed20	0.012080461
11	0x3c23d70a	0.01
12	0x3cb5276a	0.02211352
13	0x3d9d6829	0.076858826
14	0x3c23d70a	0.01
15	0xbd34892c	-0.04407613
16	0x3dbfd9bc	0.093677014
17	0x3c23d70a	0.01
18	0xbdcdae3a	-0.10042997
19	0x3d809ad8	0.06279534
20	0x3c23d70a	0.01
21	0xbd24393d	-0.04009365
22	0x3db1986e	0.08671652
23	0x3c23d70a	0.01
24	0xbd89f4b9	-0.0673613
25	0xbb224d60	-0.0024765357
26	0x3c23d70a	0.01
27	0xbd2c16f0	-0.042014062
28	0x3dc6ef48	0.09713608
29	0x3c23d70a	0.01
30	0xbcbdfcaf	-0.023191778
31	0x3d84ba2b	0.06480821
32	0x3c23d70a	0.01
33	0x3bcff7f5	0.0063466975
34	0xbc342395	-0.010994812
35	0x3c23d70a	0.01
36	0xbc6cf84c	-0.014463495
37	0x3d27da13	0.040979456
38	0x3c23d70a	0.01
39	0xbd165adf	-0.036707755
40	0xbb9ede7f	-0.004848301
41	0x3c23d70a	0.01
42	0xbd4d6d6c	-0.05015318
43	0x3d02a1a5	0.031892437
44	0x3c23d70a	0.01
45	0x392a9907	0.0001626947
46	0x3b7ae9f0	0.003828641
47	0x3d8c1ca1	0.06841398
48	0xbc7f30d7	-0.015575609
49	0xbcb8c5d7	-0.022555275
50	0x3ce5d0cd	0.028053666
51	0x3d3baef2	0.045821138
52	0x3c16d06c	0.009204965
53	0x3d751e84	0.059843555
54	0xbc1cd26d	-0.009571654
55	0xbbf2bd9b	-0.0074078566
56	0x3c23d70a	0.01
57	0xbc8e002e	-0.01733407
58	0x3d7bd107	0.06147864
59	0x3c23d70a	0.01
60	0x3d371850	0.04470092
61	0x3c86ccff	0.016455172
62	0xbc7cd85b	-0.015432443
63	0x3d3a18fe	0.04543399
64	0xbd915078	-0.07095426
65	0x3dc295cd	0.095012285
66	0x3d9ba935	0.07600633
67	0xbbdc5091	-0.0067234715
68	0xbcd9f037	-0.026603801
69	0x3c4283e9	0.01187227
70	0xbd3044f0	-0.043034494
71	0x3c23d70a	0.01
72	0xbd5dd563	-0.05415858
73	0x3c23c5ef	0.0099959215
74	0x3c23d70a	0.01
75	0x3c6a97e5	0.014318441
76	0xbd47c4a8	-0.04877153
77	0x3d9a3bf3	0.07530966
78	0x3c892d1b	0.01674514
79	0xbd40e049	-0.047088895
80	0xbd2011b8	-0.039079398
81	0x3c8f6730	0.017505258
82	0xbd21483a	-0.03937552
83	0xbc9aec28	-0.018911436
84	0x3c5a4302	0.01332164
85	0xbd26769c	-0.04064046
86	0xbc0de462	-0.008660408
87	0xbe109569	-0.14119495
88	0xbdf02ea4	-0.11727646
89	0xbc5b61fe	-0.013390062
90	0xbd590b65	-0.052989382
91	0xbd4fc81c	-0.05072795
92	0xbd9b2a81	-0.07576466
93	0xbd45dedc	-0.04830824
94	0xbea3b97f	-0.3197746
95	0x3c23d70a	0.01
96	0xbd9cf50b	-0.07663926
97	0x3c23d70a	0.01
98	0xbdbc5c78	-0.091973245
99	0xbd4efc76	-0.050533734
100	0x3c23d70a	0.01
101	0x3da60ce3	0.08107927
102	0xbd1f2b69	-0.03885976
103	0x3c23d70a	0.01
104	0x3e17483a	0.14773646
105	0xbd9a5b6e	-0.0753697
106	0x3c23d70a	0.01
107	0x3d990845	0.074722804
108	0xbd9bce4a	-0.07607706
109	0x3c23d70a	0.01
110	0x3e32473a	0.17409983
111	0xbcff0c45	-0.03113378
112	0x3c23d70a	0.01
113	0x3d238767	0.03992405
114	0xbd53efc4	-0.05174233
115	0x3c23d70a	0.01
116	0x3aa2af9d	0.0012411956
117	0xbdde558d	-0.10856161
118	0x3c23d70a	0.01
119	0x3cf005c0	0.029299617
120	0xbdbb54f0	-0.0914706
121	0x3c23d70a	0.01
122	0x3d1e211a	0.038605787
123	0xbc43ad05	-0.011943107
124	0x3c23d70a	0.01
125	0x3d90e24b	0.07074412
126	0x3b4ca4e9	0.0031226224
127	0x3c23d70a	0.01
128	0x3d6acf86	0.057326816
129	0xbdc1c312	-0.09461035
130	0x3c23d70a	0.01
131	0x3d1b34af	0.03789204
132	0xbe0a6345	-0.13514431
133	0xbdadc7fc	-0.084854096
134	0x3daa5479	0.08316893
135	0xbe5f235e	-0.21790835
136	0xbe091290	-0.13385987
137	0xbe0210e3	-0.12701754
138	0xbe19bc77	-0.150133
139	0xbd9584fa	-0.07300754
140	0x3da2a6e1	0.07941986
141	0xbc77d60b	-0.015126715
142	0x3c23d70a	0.01
143	0x3c91aad5	0.017781654
144	0xbcd6efde	-0.026237424
145	0x3c23d70a	0.01
146	0xbd32fbce	-0.04369717
147	0x3be08426	0.006851691
148	0x3c35ec07	0.011103637
149	0xbde9dc1e	-0.11418937
150	0xbd40f8f5	-0.047112424
151	0xbe07425d	-0.1320891
152	0xbe48c046	-0.19604596
153	0x3cfd432d	0.030915821
154	0x3ce379fb	0.027768126
155	0x3ce26709	0.027637022
156	0x3d44893b	0.047982436
157	0x3c23d70a	0.01
158	0x3db238ca	0.08702238
159	0x3c82c7f4	0.015964486
160	0x3c23d70a	0.01
161	0xbd496b59	-0.04917464
162	0x3d9e7bd5	0.07738463
163	0xbe080dfb	-0.13286583
164	0xbd6d6477	-0.05795714
165	0x3ca81882	0.020519499
166	0x3d4c9ec8	0.049956113
167	0xbe4e0d96	-0.2012237
168	0x3d470bc0	0.04859519
169	0x3bdcb153	0.006735006
170	0xbdf67aec	-0.12035164
171	0x3dc4383f	0.095810406
172	0xbdc5dba3	-0.09661033
173	0xbe1c0023	-0.15234427
174	0xbe20fab2	-0.15720633
175	0xbd0b82cd	-0.03406029
176	0xbdfb66eb	-0.122754894
177	0xbd3fedc8	-0.046857625
178	0xbdc6aac2	-0.09700538
179	0xbdeb70ac	-0.114961
180	0xbe964fbe	-0.29357713
181	0x3c23d70a	0.01
182	0xbdbb1cd5	-0.09136359
183	0x3c23d70a	0.01
184	0xbd8389ba	-0.06422754
185	0xbd79c80e	-0.060981803
186	0x3c23d70a	0.01
187	0xbd20da39	-0.039270613
188	0xbd33aab1	-0.043863956
189	0x3c23d70a	0.01
190	0x3ded7630	0.11594808
191	0xbd72bfb0	-0.05926484
192	0x3c23d70a	0.01
193	0x3d44abf5	0.048015554
194	0xbd73bc3e	-0.059505694
195	0x3c23d70a	0.01
196	0x3e293df3	0.16527538
197	0xbd3f4891	-0.046700064
198	0x3c23d70a	0.01
199	0xbdd45185	-0.10367111
200	0xbd9e7e95	-0.07738987
201	0x3c23d70a	0.01
202	0xbcebf9a5	-0.028805563
203	0xbdddf279	-0.108372636
204	0x3c23d70a	0.01
205	0xbd92d61c	-0.07169744
206	0xbe077e0f	-0.13231681
207	0x3c23d70a	0.01
208	0xbcb7ac3e	-0.022420999
209	0xbc9f9dc1	-0.019484403
210	0x3c23d70a	0.01
211	0x3d3847aa	0.04499022
212	0xbd0d56d8	-0.03450665
213	0x3c23d70a	0.01
214	0x3c380658	0.011231981
215	0xbdd7a9e9	-0.10530455
216	0x3c23d70a	0.01
217	0xbbcf260b	-0.0063216737
218	0xbdfef65f	-0.12449335
219	0xbdc69dee	-0.096980914
220	0x3d5de9af	0.054177936
221	0xbe5dc65d	-0.21657701
222	0xbe123c4e	-0.14280817
223	0xbddcef17	-0.1078779
224	0xbded4f21	-0.11587358
225	0xbdb59bc1	-0.08867598
226	0x3d9a8e08	0.075466216
227	0xbd0cd43c	-0.03438209
228	0x3c23d70a	0.01
229	0xbcaf08e8	-0.021366552
230	0xbd24e21a	-0.04025469
231	0x3c23d70a	0.01
232	0xbd21702d	-0.03941362
233	0xbb10eb6d	-0.002211298
234	0xbc6b43be	-0.014359413
235	0xbdbd59d3	-0.09245648
236	0xbdae128d	-0.08499632
237	0xbe1ed6a5	-0.15511568
238	0xbe3746d5	-0.17898114
239	0x3ba8d09a	0.0051518204
240	0x3c19d066	0.009388065
241	0x3970c1a9	0.00022960328
242	0x3c33fb7c	0.0109852515
243	0x3c23d70a	0.01
244	0x3d8b0787	0.06788545
245	0xbd158b3e	-0.036509745
246	0x3c23d70a	0.01
247	0xbcfbaba7	-0.030721499
248	0x3d192ba6	0.037395142
249	0xbe079745	-0.13241298
250	0xbd98feda	-0.07470484
251	0xbd92a590	-0.07160485
252	0x3c6202e2	0.013794633
253	0xbe3fc732	-0.1872833
254	0x3cf6e587	0.030138744
255	0xbca3bbde	-0.019987043

model/hidden/mid_layer/W f4 [256, 256]
0	0x3c63bcc4	0.013899986
1	0xba1d70df	-0.0006005894
2	0x3a69b81f	0.0008915681
3	0xbc255489	-0.0100909555
4	0xbbc080cf	-0.00587473
5	0xbc6bfd2d	-0.0144036235
6	0xbc473b13	-0.0121600805
7	0xbc27ecd7	-0.010249338
8	0x3b293489	0.0025818667
9	0xbb6855d9	-0.003545156
10	0xbc28b73b	-0.010297592
11	0xbc6be475	-0.01439773
12	0xbccfbfa7	-0.025359942
13	0xbc7df809	-0.015501031
14	0xbc93db83	-0.018049007
15	0xbcadfb97	-0.021238131
16	0xbcb5bfc8	-0.022186175
17	0xbc9c687a	-0.019092787
18	0xbcb8f298	-0.022576615
19	0x3bf69529	0.0075251055
20	0xbd111e2c	-0.035429165
21	0xbb0dd02c	-0.0021638973
22	0xba8bdeb0	-0.0010671224
23	0xbc6760a0	-0.014122158
24	0xbd0d534e	-0.034503274
25	0xbc09440c	-0.00837804
26	0x3c347c90	0.011016026
27	0x391b3fb0	0.00014805677
28	0xbbb121b6	-0.00540563
29	0x3acfbb8f	0.0015848743
30	0xbc9704bb	-0.018434873
31	0x3c0c9f6f	0.008582934
32	0xbc30ff2d	-0.010803026
33	0xbb07bc4c	-0.00207116
34	0x3be476b0	0.0069721565
35	0xbcea7452	-0.028619919
36	0xbc0efef7	-0.008727781
37	0xbb269338	-0.002541734
38	0xbb94c351	-0.004539885
39	0xbc9e9658	-0.019358799
40	0xbc9612ab	-0.018319448
41	0xbcadc55f	-0.021212278
42	0x3b208421	0.0024492817
43	0xbc9e7ec9	-0.019347565
44	0x3c186696	0.009301802
45	0xba2847cf	-0.0006419392
46	0xbc164678	-0.0091720745
47	0x3c266f81	0.010158421
48	0x3c2a3ea3	0.01039091
49	0x3b90e5ee	0.004421941
50	0xbc3b7ece	-0.011443807
51	0x3b3c2415	0.002870803
52	0xbc146d78	-0.0090593025
53	0xbab7322b	-0.0013976743
54	0xbbded84b	-0.0068006865
55	0xbcda806d	-0.026672566
56	0x3b109d45	0.0022066396
57	0xbbef2b71	-0.00729888
58	0xbc8dd4da	-0.01731341
59	0x3c4f4056	0.012649616
60	0xbc6c13c4	-0.014409009
61	0x3b9e7e63	0.004836844
62	0xbc40272e	-0.011728091
63	0xbc752053	-0.01496132
64	0xbc0b740b	-0.0085115535
65	0xbc783800	-0.01515007
66	0xbc1edb29	-0.009695807
67	0x3bb2e266	0.0054591177
68	0xbc0bcb84	-0.008532409
69	0xbbf58a6c	-0.007493308
70	0xbc9440c1	-0.018097283
71	0xbc378f84	-0.01120365
72	0x3b2b53ac	0.0026142402
73	0xbc87bbb0	-0.016568989
74	0xbc4ab310	-0.012371793
75	0xbcedf8e0	-0.029049337
76	0xbc624a26	-0.013811624
77	0xbb2d81d9	-0.00264751
78	0xbcb10b1d	-0.021611745
79	0xbc379a2f	-0.011206194
80	0x3b13ac24	0.0022533024
81	0xbb8bc8de	-0.0042658886
82	0xbadbe2a2	-0.0016775916
83	0xbb438865	-0.0029835936
84	0xbc2ec728	-0.0106676
85	0xba6fba00	-0.00091448426
86	0xbc067486	-0.008206492
87	0xbb9722ed	-0.004612318
88	0xbc440142	-0.0119631905
89	0xbc5f53d3	-0.013630825
90	0xbcc41054	-0.023933567
91	0xbb1261f2	-0.0022336212
92	0x3a850011	0.0010147115
93	0xbc8b4397	-0.017000003
94	0xbc8cc8cb	-0.01718559
95	0x3cb19759	0.021678613
96	0xbb476d49	-0.003043013
97	0xbd2e812b	-0.042603653
98	0xbc3f2128	-0.01166562
99	0xbc8f1819	-0.017467545
100	0xbc48f0d4	-0.012264449
101	0xbcfa11a2	-0.030525986
102	0x39a63878	0.0003170406
103	0xbc0686b6	-0.0082108285
104	0xbc884236	-0.016633134
105	0xbd3956f9	-0.04524896
106	0x3cb643a8	0.022249058
107	0xbd0ecf53	-0.03486569
108	0xbcac0d09	-0.02100231
109	0xbce92ff9	-0.028465258
110	0x3ad99560	0.0016600303
111	0xbc54bc3c	-0.012984332
112	0xbcc1e9ac	-0.023670994
113	0xbc37d51f	-0.011220246
114	0x3ca3ffe7	0.020019485
115	0xbc4b77f8	-0.0124187395
116	0xbbb7168d	-0.005587405
117	0xbc923d21	-0.017851414
118	0xb9bf75eb	-0.00036518215
119	0xbb008a71	-0.0019613768
120	0x3b73eb21	0.0037219005
121	0x3b29669c	0.0025848513
122	0xbc1e388e	-0.009657038
123	0xbc6994a4	-0.01425663
124	0xbc2a1795	-0.010381599
125	0xbd1e0569	-0.03857938
126	0xb841850f	-4.6138706e-05
127	0x3951bfd0	0.00020003249
128	0xbc4a168d	-0.012334478
129	0xbc5807ff	-0.0131855
130	0xbc5a125c	-0.013310041
131	0x3be265ff	0.0069091315
132	0xbcdc7250	-0.026909977
133	0xbc69b44c	-0.0142641775
134	0xbcb3399d	-0.021878058
135	0xb9751896	-0.0002337418
136	0xbcaeb853	-0.021328127
137	0xbb92d0a4	-0.0044804383
138	0x3b5cd1df	0.003369443
139	0xb6e2f8ac	-6.764274e-06
140	0x3ae714d7	0.0017630112
141	0xbc1edf60	-0.009696811
142	0x3c24fb53	0.010069686
143	0x3be3b943	0.006949575
144	0xbc58ec22	-0.013239892
145	0xbc647776	-0.013944497
146	0xbc5c6e3c	-0.013454016
147	0xbaef0108	-0.001823456
148	0xbb5fca3f	-0.0034147648
149	0xbae93f1b	-0.0017795296
150	0xbc2471b9	-0.010036879
151	0xbb6ce4d5	-0.0036147137
152	0xbbc4a8d1	-0.00600157
153	0xbcd9ab8c	-0.026571058
154	0x3ca6cc64	0.020361133
155	0xbd008b21	-0.031382684
156	0xbcc7eab3	-0.024403905
157	0x3c3b4954	0.011431057
158	0xba36dc9e	-0.00069756235
159	0xbc0d9e0a	-0.0086436365
160	0x3b26c4e1	0.0025446939
161	0xbc7a57df	-0.015279739
162	0x3c242aff	0.010020017
163	0x3c7e9a18	0.0155396685
164	0x39c78072	0.00038051937
165	0xbbd16e14	-0.006391296
166	0x3c2b0ebe	0.0104405265
167	0x3ca5909a	0.020210553
168	0xbc10807a	-0.008819694
169	0xbcc3fd14	-0.023924388
170	0x3cc18f75	0.023627976
171	0xbc129860	-0.008947462
172	0x3b6092eb	0.0034267257
173	0x39d9452e	0.00041441008
174	0xbc77bdb5	-0.015120913
175	0x3c078464	0.0082713105
176	0xbc3f1f24	-0.011665139
177	0xbaa44311	-0.0012532194
178	0x39e3db10	0.00043460028
179	0xbd04dfbe	-0.03243994
180	0xbb92855d	-0.0044714645
181	0xbcb2a02e	-0.021804895
182	0xbc1a33be	-0.00941175
183	0xbc63e264	-0.013908956
184	0xbbaf7db2	-0.00535556
185	0xbca959c8	-0.020672694
186	0xbc013f22	-0.007888587
187	0xbc9400e0	-0.018066823
188	0xbd1067f1	-0.035255376
189	0xbcd2e85f	-0.025745569
190	0xbcc88e83	-0.024482017
191	0x3b8fa0b8	0.004383173
192	0x3c9b9714	0.018992938
193	0x3b511051	0.0031900594
194	0xba383b31	-0.0007027863
195	0xbc346e52	-0.011012631
196	0xbc1c6728	-0.009546079
197	0x3c020faf	0.00793831
198	0xbd21232f	-0.039340194
199	0x3c87f980	0.016598463
200	0xbbcb3ea8	-0.0062025376
201	0xbbdb8694	-0.0066993926
202	0xbc3ceb1e	-0.011530666
203	0xbd146feb	-0.036239546
204	0x3c486144	0.012230221
205	0x3abfb6ec	0.0014626659
206	0xbca78600	-0.020449638
207	0xbc48f7f1	-0.012266145
208	0xb9a6b6de	-0.00031798234
209	0xbc1b50b6	-0.009479692
210	0xbc861f4a	-0.016372342
211	0xbcbc2dd8	-0.022971079
212	0xbc961c8e	-0.018324163
213	0xbb469184	-0.0030299136
214	0xbcc889c9	-0.024479764
215	0xbccd56ac	-0.025065742
216	0xbcaab725	-0.020839283
217	0xbc4698ae	-0.012121363
218	0xbc04a2e9	-0.008095481
219	0xbcb50978	-0.022099242
220	0xbbbb5870	-0.0057173297
221	0xbb3070f3	-0.0026922792
222	0xbd021571	-0.03175873
223	0xbababc47	-0.0014246785
224	0x3c0775ac	0.008267801
225	0xbbca1925	-0.0061675482
226	0xbc80abea	-0.015706975
227	0x3abc4a9a	0.0014365495
228	0x3ab65ef7	0.00139138
229	0xbc1defb4	-0.009639669
230	0xbb864534	-0.004097605
231	0xbb71cd22	-0.003689595
232	0xbb1b1769	-0.0023665077
233	0xbd030ca6	-0.031994484
234	0xbc88cf95	-0.016700545
235	0xbbb03361	-0.0053772186
236	0x3ae072ba	0.0017124035
237	0xbc01d6a3	-0.007924709
238	0x3babf1ab	0.005247315
239	0xbcf31bde	-0.029676374
240	0xbbe39e46	-0.006946358
241	0xbc6ef043	-0.01458365
242	0x3abf59a0	0.0014598854
243	0xbd0f778d	-0.035026122
244	0xbc821603	-0.015879637
245	0xbb843611	-0.0040347655
246	0xbc62b3c7	-0.013836808
247	0xbd0bde9b	-0.03414784
248	0xbca1c80a	-0.019748706
249	0xbc09b4ed	-0.0084049525
250	0xbb288892	-0.0025716168
251	0xbc730fdf	-0.014835327
252	0xbc6bdb47	-0.0143955415
253	0xbbfa3861	-0.0076361154
254	0xbcd57449	-0.026056426
255	0x3c426369	0.011864522

model/a_stream/b f4 [3]
0	0x3c73cb71	0.014880047
1	0xb9e72376	-0.00044086174
2	0xbb53b4ad	-0.0032303736

model/hidden/mid_rec_layer/upward/b f4 [80]
0	0xbb7e3830	-0.0038790815
1	0xbdaaf6d1	-0.08347858
2	0x3f5fea38	0.87466764
3	0xbda821a6	-0.08209543
4	0xbb647101	-0.0034857395
5	0xbd9ef2e5	-0.07761172
6	0x3f61c36e	0.8818883
7	0xbd9d7bf1	-0.076896556
8	0xbb484bc8	-0.0030562747
9	0xbd9abb2b	-0.07555231
10	0x3f66add9	0.9010902
11	0xbd99a900	-0.07502937
12	0xbb819a3b	-0.0039551533
13	0xbd9f2a05	-0.077716865
14	0x3f5fe40a	0.87457335
15	0xbd9d58c2	-0.07682945
16	0xbb7a0207	-0.003814818
17	0xbdac0c90	-0.084008336
18	0x3f5ffd99	0.87496334
19	0xbda99662	-0.08280636
20	0xbb816e9d	-0.0039499537
21	0xbd92abb8	-0.07161659
22	0x3f621624	0.88315034
23	0xbd91b5b8	-0.07114738
24	0xbb97f3d5	-0.0046372213
25	0xbdbc2e16	-0.09188478
26	0x3f6082d9	0.8769966
27	0xbdb9d2fe	-0.09073447
28	0xbb64c9e0	-0.0034910366
29	0xbda73ac2	-0.08165504
30	0x3f651fd0	0.8950167
31	0xbda5ecb7	-0.081017904
32	0xbb8431aa	-0.0040342407
33	0xbdb6eccb	-0.089318834
34	0x3f6314ab	0.8870341
35	0xbdb55cf0	-0.08855617
36	0xbba38a0b	-0.0049908212
37	0xbdc14d20	-0.094385386
38	0x3f5eb34f	0.86992353
39	0xbdbdc433	-0.09265938
40	0xbb90c720	-0.004418269
41	0xbdb5c11a	-0.08874722
42	0x3f5e7758	0.86900854
43	0xbdb2c40d	-0.087288
44	0xbb81740a	-0.0039506005
45	0xbd9fb764	-0.07798651
46	0x3f61f9dd	0.88271886
47	0xbd9e1f94	-0.07720867
48	0xbbdd56e0	-0.006754741
49	0xbd7f4a7e	-0.0623269
50	0x3f5f2506	0.8716587
51	0xbd7ee39f	-0.062228795
52	0xbb7d28b3	-0.0038628995
53	0xbd95b703	-0.07310297
54	0x3f606df8	0.876678
55	0xbd94e3a8	-0.072699845
56	0xbb9d91c0	-0.0048086345
57	0xbd8da5ff	-0.06916427
58	0x3f61a065	0.8813537
59	0xbd8cfcff	-0.06884193
60	0xbb740a38	-0.0037237536
61	0xbd924b0d	-0.07143221
62	0x3f63b768	0.8895173
63	0xbd9162f5	-0.07098953
64	0xbb53a409	-0.0032293817
65	0xbd958249	-0.073002405
66	0x3f648776	0.89269197
67	0xbd94b92b	-0.072618805
68	0xbb86d61c	-0.0041148793
69	0xbdaf5efc	-0.08563039
70	0x3f5f6c14	0.8727429
71	0xbdabaf7d	-0.08383081
72	0xbb8a2d24	-0.004216807
73	0xbd99d9a3	-0.07512214
74	0x3f5e9857	0.869512
75	0xbd98ad3d	-0.074549176
76	0xbb71755a	-0.0036843629
77	0xbd98fe70	-0.07470405
78	0x3f630e54	0.8869374
79	0xbd9800e0	-0.07422042

model/hidden/input_layer/W f4 [256, 86]
0	0x3cf8e4e4	0.030382581
1	0xbc000494	-0.0078135915
2	0xbc95b1cc	-0.018273257
3	0xbd86ab39	-0.06575627
4	0xbbaf0871	-0.0053415825
5	0x3d21c48f	0.039494094
6	0xbd0563d2	-0.0325659
7	0xbc6a0ba3	-0.014285001
8	0xbcca40f2	-0.024689171
9	0x38abc30f	8.190248e-05
10	0xbe0519a5	-0.12998064
11	0x3c681957	0.014166198
12	0xbd960601	-0.07325364
13	0xbd815532	-0.06315078
14	0xbc341660	-0.010991663
15	0x3d465e29	0.048429642
16	0x3c183e4c	0.0092921965
17	0xbbd92998	-0.006627273
18	0xbdab3618	-0.08359927
19	0xbda8517a	-0.082186654
20	0x3ba8468a	0.005135362
21	0x3dc1595b	0.09440871
22	0xbc5a8c5e	-0.01333913
23	0xbc41d00c	-0.011829387
24	0xbc3ca6f6	-0.011514416
25	0xbcfa208d	-0.0305331
26	0x3ba8e232	0.0051539177
27	0x3d025ea4	0.031828538
28	0xbdcb157b	-0.099162064
29	0x3c9b9c57	0.018995447
30	0xbce5b712	-0.028041396
31	0xbd17e7b4	-0.037086204
32	0x3ce1138d	0.027475143
33	0xbd9bd07e	-0.07608126
34	0xbd0a2c4f	-0.033733662
35	0xbb32b856	-0.0027270517
36	0x3a185eab	0.00058124465
37	0x3da3829f	0.07983898
38	0x3ad81a95	0.0016487414
39	0xbd9628d4	-0.07332006
40	0x3c96f518	0.018427417
41	0xbc26ef57	-0.010188899
42	0x3d4ca23d	0.04995941
43	0x3c6cf64a	0.014463017
44	0x3bfe9aa8	0.0077699013
45	0x3db31d2a	0.08745797
46	0x3da8bb36	0.08238833
47	0xbd65e5f5	-0.056127507
48	0x3cfa7c21	0.030576767
49	0x3d2b0292	0.041750498
50	0x3cedf597	0.02904777
51	0xbd8952c0	-0.067052364
52	0x3b7bca73	0.003842023
53	0xbd208b35	-0.03919526
54	0xb9047c08	-0.00012634706
55	0x3d9e2911	0.077226765
56	0xb9bc7185	-0.00035942733
57	0xbc346777	-0.011010996
58	0xbddbc9d5	-0.10731856
59	0x3a9e978a	0.0012099606
60	0x3c669499	0.014073514
61	0xbcc4d893	-0.024029052
62	0xbc32e804	-0.010919575
63	0xbcf0c57b	-0.029391041
64	0x3c929927	0.017895294
65	0xbca17a37	-0.019711597
66	0xbbd24624	-0.006417053
67	0xbd2749b5	-0.040841777
68	0xbca6903f	-0.020332454
69	0xbdebdae3	-0.11516359
70	0xbd9df25f	-0.07712244
71	0xbc2995d0	-0.0103506595
72	0x3b75d10b	0.0037508633
73	0xbd53d2d0	-0.05171472
74	0x3bdcb63f	0.0067355926
75	0xbb9f210c	-0.0048562344
76	0xbde5dd61	-0.11223865
77	0xbd6b33d8	-0.05742249
78	0x3a8f3d0b	0.0010928226
79	0xbc3b029e	-0.011414198
80	0xbb9bb4d8	-0.004751783
81	0x3ccbee1b	0.024893811
82	0xbd3508d0	-0.044197857
83	0x3d1b1eda	0.03787122
84	0xbd265c6d	-0.040615488
85	0x3c3d707e	0.011562465
86	0xbca827f2	-0.02052686
87	0xbc9bc214	-0.019013442
88	0xbb594401	-0.0033152106
89	0xbc9ff7c9	-0.019527333
90	0xbca38321	-0.019959988
91	0xbc5e85cb	-0.013581703
92	0xbcaf9d97	-0.02143745
93	0xbd1837b5	-0.0371625
94	0xbc159434	-0.009129573
95	0xbb654d3b	-0.003498866
96	0xbd00d2c5	-0.031451005
97	0x3bd0ac02	0.006368161
98	0xbc4a2400	-0.012337685
99	0xbc698cc5	-0.0142547535
100	0xbc4c378e	-0.012464417
101	0xbb6518dd	-0.0034957447
102	0xbca0563c	-0.01957237
103	0x3c0cfff3	0.008605945
104	0xbbcd7ec5	-0.0062712156
105	0x3c886926	0.016651701
106	0xbade94a4	-0.0016981554
107	0xbbebf71f	-0.00720109
108	0xbc9fad91	-0.019491943
109	0x3b878a1c	0.004136337
110	0xbc06e498	-0.008233212
111	0xbd29c503	-0.04144765
112	0xbbaa743e	-0.0052018454
113	0xbb708eb4	-0.0036706151
114	0x3c7e6e24	0.015529189
115	0xbbc1867f	-0.0059059258
116	0xbc8ffeb5	-0.017577508
117	0xbbceb7b0	-0.0063085184
118	0xbbf0e40e	-0.007351405
119	0xbbcd5051	-0.006265678
120	0xbcd70c48	-0.026250973
121	0xbbcaf896	-0.0061941845
122	0xbc587562	-0.01321158
123	0x3c094beb	0.008379917
124	0x3bed3241	0.0072386567
125	0x3b673102	0.0035277014
126	0xbcbf1dc6	-0.023329627
127	0xbbb26d1b	-0.0054451353
128	0x3b64631f	0.003484912
129	0xbca959a0	-0.02067262
130	0x3b672521	0.0035269933
131	0xbc4558f9	-0.0120451385
132	0xbc987d40	-0.018614411
133	0xbced8a7e	-0.028996702
134	0x3bf74bed	0.007546893
135	0xbccbd873	-0.024883484
136	0xbca94997	-0.020664973
137	0x3c898458	0.01678674
138	0xbbbd5933	-0.0057784556
139	0xbbcc70da	-0.006239039
140	0xbc444dac	-0.011981409
141	0xbcc81818	-0.024425551
142	0x3c829b65	0.015943239
143	0x3c3fd100	0.011707544
144	0xbcc22cd6	-0.02370302
145	0x3c725514	0.014790792
146	0x3bfc322c	0.0076964106
147	0x3c561ab8	0.013067894
148	0xbc97a2bc	-0.018510215
149	0x3be7a81c	0.0070696007
150	0xbc926686	-0.017871153
151	0x3c0dfb47	0.008665866
152	0x3c223c44	0.009902064
153	0x3b05480c	0.0020337133
154	0xbc5f55fe	-0.013631342
155	0xbc7f028c	-0.015564572
156	0xbbfec5c5	-0.007775041
157	0xbb8a6ae8	-0.00422417
158	0xbc0d6b96	-0.0086316075
159	0xbcaa7131	-0.020805927
160	0x3b3d40aa	0.0028877654
161	0xbc9efc68	-0.019407466
162	0x3a6076c9	0.0008562622
163	0x3c3b81e1	0.01144454
164	0xbcd8b06c	-0.026451312
165	0xbce58568	-0.028017715
166	0xbce69105	-0.028145323
167	0x3c2e629b	0.010643627
168	0xbc87e2c2	-0.016587619
169	0xbcf4b276	-0.029870253
170	0xbc83b07b	-0.016075363
171	0xbcf7e027	-0.030258251
172	0xbd10ac22	-0.03532041
173	0xbc25b328	-0.010113515
174	0xbc557a0d	-0.013029587
175	0xbaffe81d	-0.0019524131
176	0x3c3b9641	0.011449398
177	0xbd331142	-0.04371763
178	0xbd33eb29	-0.043925438
179	0xbcb0def9	-0.021590697
180	0xbdb54d2c	-0.0885261
181	0x3b12e396	0.0022413484
182	0x3be73c23	0.0070567294
183	0xbc52dd58	-0.012870155
184	0xbb946494	-0.0045285914
185	0xbc2ec9b9	-0.010668212
186	0x3c1a9909	0.0094359005
187	0xbd0f7830	-0.03502673
188	0x3d730712	0.059332915
189	0x3caa0bb0	0.020757526
190	0xbd603ccd	-0.054745484
191	0xbd0c11f4	-0.03419681
192	0xbad3d9e2	-0.0016162957
193	0xbd0524f4	-0.032505944
194	0xbce21686	-0.02759863
195	0xbc263ccc	-0.010146331
196	0xbb900c50	-0.004395999
197	0xbddb68e7	-0.10713368
198	0xbaf10cf4	-0.0018390701
199	0x3c1d0b87	0.009585268
200	0xbd8ff29b	-0.07028695
201	0xbc94ba0a	-0.018155117
202	0xbd8b4507	-0.06800275
203	0xbbdd80c7	-0.006759736
204	0x3b51209a	0.0031910301
205	0x3d5fbc10	0.05462271
206	0xbd04057c	-0.032231793
207	0x3c1c482e	0.009538693
208	0xbdc2f1ac	-0.095187515
209	0xbc7ca00b	-0.015419017
210	0x3c82d209	0.015969293
211	0xbd997432	-0.074928656
212	0x3b94ec1a	0.004544747
213	0xb9d21233	-0.0004006788
214	0xbd153b2b	-0.03643338
215	0x3b27056d	0.0025485412
216	0xbba4fb98	-0.005034875
217	0xbc6d37dd	-0.014478651
218	0xbd255354	-0.04036267
219	0xbce4e7f9	-0.027942644
220	0xbb04ad1d	-0.0020244785
221	0xbddbdfbe	-0.10736035
222	0xbb2ad1fa	-0.0026065097
223	0xbd55cc02	-0.05219651
224	0x3c9ac610	0.018893272
225	0xbc200ce3	-0.009768697
226	0xbd767652	-0.060171433
227	0xbde56dec	-0.112026066
228	0xbb39112f	-0.0028239002
229	0x3d004afa	0.031321503
230	0xbd99f046	-0.07516532
231	0x3c3da7fe	0.011575697
232	0x3db8e979	0.090289064
233	0xbcf1f40f	-0.029535322
234	0xbc08659f	-0.00832501
235	0xbc208698	-0.009797715
236	0xbd925299	-0.071446605
237	0xbd2acbcb	-0.04169826
238	0xbd8ad49d	-0.06778834
239	0xbc8e3109	-0.017357366
240	0xbd6c550e	-0.057698302
241	0x3a053e2e	0.0005082813
242	0xbc2a44bd	-0.010392365
243	0x3c17695f	0.009241431
244	0x3dadc6b6	0.08485167
245	0x3c37de2e	0.011222405
246	0xbbe4df42	-0.006984622
247	0x3ce5e6ac	0.028064094
248	0x3c8a94b4	0.01691661
249	0xbca40c08	-0.020025268
250	0x3b8d5698	0.0043133013
251	0x3c8fd9d5	0.017559925
252	0x3d42e7be	0.047584288
253	0xbd43bdbd	-0.04778837
254	0xbccae16e	-0.024765696
255	0xbd5dbc09	-0.054134402
