ai_challenge/results/simulation_DoubleDQN_DuelingRecNN_2017-05-20T11:17:03.15/20010/model.npz (npz, 610411 bytes, 12 tensors)

model/hidden/input_layer/b f4 [256]
00000000: d50d 0b3a dadb a9bc 5a38 30bb c2ef 14bc
00000010: cb71 c9bb 3c69 633b 75c5 d3bc bee8 8ebb
00000020: 29d2 7cbb b081 47bb 8a59 d3ba 12b5 bfba
00000030: fd6a 01ba 1d4a 64bb 1c5f a7bc 5a54 893c
00000040: bbef e6bb 45ab 20bc 0eb9 dabb 314b 72bc
00000050: c3de 9abc 9634 a3bc 48cb 3b3b 996b ae39
00000060: b18d cd3b dfa8 bfbc ead4 77bc 0ff8 91bc
00000070: 0bfb c2bb 244b c1bb 1910 8fbb b36b 8ebc
00000080: 176e bfbb 1d61 1cbc d708 cebc 783e 1abc
00000090: 9d60 b2bc c6d5 6f3c 2ce1 03bd 1e62 f4bb
000000a0: 9db5 893c 580e 953c dfc1 0f3c 097a b1bc
000000b0: 48e5 063c 6621 17bc f02e 46bc 70c8 f7ba
000000c0: 453d 3fbb f309 78bc ee4c 053c 66fc a0bc
000000d0: ee10 22bc 5682 bb3b 03c1 92bc dabc c6bb
000000e0: 2533 1dbc 34c5 ea3c 0560 8fbb 18e1 d03a
000000f0: b50d 5abc 7d18 eebb d0d4 f4bb 156c 193c
00000100: f16f 6e3c e549 30bc 7d3d ccbc 166e 9e3b
00000110: 539c 88bc 7d63 e9bc ff3e 08bd 58bc 4c3a
00000120: 8c0b bcbc 6b2d fdbb b53b 6dbb 9247 25bc
00000130: ad7c 0ebd 4a19 c23a ef94 9d3c 8971 51bc
00000140: 2597 9cbc 9353 81bc 2e95 b0bc c078 ddbb
00000150: e3fd fbbb cc31 92bc 2202 d93b cd7e babc
00000160: c4f0 0abc b27b 00bc 76c4 b43a b4c8 85bb
00000170: db09 02bc ef95 a43c a863 a3bb 2358 803c
00000180: 8fca debb 1e05 37bc 7930 14bb ed7e 5b3c
00000190: 8463 43bc bf6a 5c39 6e4a 6cbb 648e eabb
000001a0: 9f82 b6bb bb3f 713b d241 70bc 6b86 763b
000001b0: f374 c43c f42c a1bc 27a2 2fbb d0cb 08bc
000001c0: f17b 9ebb 68c7 d9bc 72ee a13b 71d8 a9bc
000001d0: 63cb 24bb b228 aebc 4f02 70bc 467b 32ba
000001e0: ebad 17bc d4b0 a4ba cf21 93bc 1372 b1bc
000001f0: db70 73bc 96cd 01bd 757e 3abc dd18 b8bc
00000200: f061 a6bc 0f7a 793b 914f b7bc bbcc b23b
00000210: 2068 c13c 1f19 84bc 2a53 b3bc 021c 503c
00000220: 410c 043c 8e03 5fbc 5a14 abbc 7706 f0bb
00000230: 6766 b2bc dae1 89b9 0da6 6e3b 5f21 45bb
00000240: 6902 2bbc ab16 cbbc 5731 54bc af9c 85bc
00000250: cb1c 5dbc ddbe b7bc cbdd 97bc d699 b93c
00000260: 802f a4bc 5f65 d6bb 7447 d3bc 4031 163c
00000270: 6b95 ed3c 5c61 a73c f2e4 f3ba 00e5 47bc
00000280: 4f9c e9bc e4cc 8bbc 0163 a2bc dc7f 67bc
00000290: aba9 c93a 14d6 533c ce33 c1bb 6503 30bc
000002a0: 9b48 28bc ab03 903b 0abc 5b3c 0084 a2bc
000002b0: 8334 b6bc 10ab 41bc a911 b2bc 784b ffba
000002c0: 403b 13bd 113e 053d 50fc a23c 48c6 6cbc
000002d0: 7869 46bb e52a 49bc 835a 373b 4c5e c1bb
000002e0: 4c1f bc3b 82d5 0abc d242 20bc 950b b9bc
000002f0: 964c 223b 5a20 d5bc 4c85 41bc b67a 32bc
00000300: d77e b5ba 1a10 b7bb e23b 893b 7134 5b3b
00000310: 6489 88bb 8c09 443c f38b 4c3c 5152 62bb
00000320: e922 95bb 1af5 0cbc 4f6d bdbb 7e4e 333c
00000330: 234b 5abc 5046 323c e954 47bc b64a 7cbb
00000340: c18f 183c e58c 413b 0a0d ddba 9f6e aa3c
00000350: e15b 8c3c dec1 3abc 45a9 88bc ba55 80bb
00000360: 3b84 e13c 9db8 e6bc f230 f8bb 7af7 853b
00000370: bc02 373a 196f 8ebc a762 91bb 92a0 9ebb
00000380: 6724 b4bc da67 9ebc 4bb6 cbbc c15c e8bb
00000390: 886a dd36 0a47 86bc 0817 8fbc 0f8a a13b
000003a0: 28be c2bc 259c 4b3c ce14 e7bc cd06 adbb
000003b0: 867b 5bbb 0212 f43a 6009 0ebc ffbf d2bb
000003c0: 1bbb ffbc 8980 af3c f543 84bc 0afd febb
000003d0: f102 cfbc ec25 023d 4a3f e1b9 cf98 04bc
000003e0: ff26 dbba e74a 9cbb c2d9 b83a 9f5e ec3b
000003f0: 6b09 28bb b56a a53b 2964 4b3b 6110 27bc
0.00053044903 -0.020734716 -0.0026889057 -0.009090366 -0.0061475984 0.0034700176 -0.02585099 -0.004361241
-0.0038577414 -0.003044229 -0.0016124707 -0.0014626107 -0.0004936902 -0.0034834214 -0.020431094 0.016763855
-0.007047621 -0.009806459 -0.0066748923 -0.014788435 -0.01890505 -0.019922536 0.00286551 0.00033268033
0.0062729944 -0.023395954 -0.015126446 -0.017818479 -0.005950337 -0.00589885 -0.0043659327 -0.01738534
-0.005841981 -0.009544638 -0.0251507 -0.009414308 -0.021774584 0.01463837 -0.032197163 -0.0074579855
0.016810233 0.018195316 0.00877425 -0.021664636 0.008233376 -0.009224271 -0.012096152 -0.001890434
-0.0029180807 -0.015139091 0.008136017 -0.019651603 -0.009891732 0.0057223244 -0.0179143 -0.0060649933
-0.009594713 0.028658487 -0.00437546 0.0015936224 -0.013308932 -0.007266103 -0.0074716583 0.009364148
0.014553056 -0.010759805 -0.024931664 0.0048349006 -0.016676104 -0.028489823 -0.033263203 0.0007810048
-0.022954725 -0.0077263615 -0.0036198918 -0.0100878645 -0.03478687 0.0014808562 0.019236056 -0.012783417
-0.01911504 -0.015786922 -0.02155551 -0.0067587793 -0.0076901778 -0.01784601 0.0066225687 -0.022765541
-0.008480255 -0.007841991 0.001379146 -0.0040827636 -0.00793692 0.020091025 -0.004986245 0.015667027
-0.006799049 -0.011170654 -0.00226119 0.013396961 -0.011925582 0.00021020601 -0.0036055106 -0.0071580876
-0.0055697705 0.0036811668 -0.01466413 0.003761674 0.023981547 -0.019674756 -0.0026799531 -0.008349374
-0.0048365523 -0.026584342 0.004941755 -0.02073309 -0.0025145642 -0.02125964 -0.014648988 -0.00068085303
-0.009257774 -0.0012564906 -0.017960457 -0.02166084 -0.01485845 -0.031690203 -0.011382689 -0.022472793
-0.020310372 0.0038067137 -0.022376807 0.0054565347 0.023609221 -0.01612526 -0.021890242 0.01270199
0.008059562 -0.013611687 -0.020883728 -0.0073249894 -0.021777345 -0.0002629895 0.0036414892 -0.0030079705
-0.010437586 -0.024791082 -0.012951217 -0.016310064 -0.013495634 -0.022429878 -0.018538376 0.022656363
-0.020042181 -0.006542846 -0.025790907 0.009167016 0.029001912 0.020432167 -0.001860766 -0.012200594
-0.028516917 -0.017065473 -0.0198226 -0.014129605 0.0015385648 0.012929458 -0.005896068 -0.010742997
-0.010271217 0.0043949685 0.013411531 -0.019838333 -0.022241836 -0.01182057 -0.021736937 -0.0019477447
-0.035945177 0.032529894 0.019895703 -0.014451571 -0.0030275267 -0.012278293 0.0027977533 -0.0059011336
0.0057410356 -0.008473756 -0.009781556 -0.02258853 0.0024764887 -0.026016403 -0.011811566 -0.010893514
-0.0013847005 -0.0055866363 0.004188047 0.0033448006 -0.004166769 0.011965167 0.012484538 -0.0034533928
-0.0045512808 -0.008603359 -0.005780853 0.010944007 -0.013323578 0.010881022 -0.01216624 -0.003849668
0.009311617 0.0029533443 -0.0016864848 0.020804701 0.017133655 -0.011398761 -0.016682277 -0.0039164694
0.027528873 -0.028164202 -0.007574194 0.0040883394 0.00069813034 -0.01738696 -0.004436809 -0.004840919
-0.021990014 -0.01933663 -0.024867197 -0.0070911353 6.598715e-06 -0.016391296 -0.017467037 0.004929788
-0.023772314 0.0124273645 -0.028208163 -0.0052803517 -0.0033490374 0.0018621089 -0.008669227 -0.006431579
-0.031217149 0.021423595 -0.016145686 -0.0077816295 -0.025269957 0.031774446 -0.00042962498 -0.008093073
-0.0016719996 -0.0047696712 0.0014102983 0.007213428 -0.002564038 0.005048121 0.0031035042 -0.010196776

model/hidden/output_layer/b f4 [256]
00000000: 7c2c 343b 0bc9 37bc 5d76 4e3c e5af e7bb
00000010: 450e aebb 2b45 74bb a709 9f3b f1f1 a638
00000020: 126c c83a 134a b83b afb9 56ba da59 393a
00000030: 7ea5 3b3a 6707 e23b 0362 993b 8ce3 8b3a
00000040: 25ca d439 df14 92bb ba8b c939 2d55 87ba
00000050: ee78 033c f858 6439 0783 ebb9 3a35 39bb
00000060: 6203 ba3b 9cd4 0cbc 9f33 083b 3fbe 103b
00000070: 094c 9139 689c 38bb b323 a4ba 1c0f 8d3b
00000080: 8848 7bbb 0976 8e3b 51c3 92bb 5eff 9bba
00000090: 0faa abb9 90c4 fdbb 4aa8 46bc 1923 ee3b
000000a0: 3d37 b4b9 c7f9 bbbb a960 adbb 29b7 a6bb
000000b0: 4cb2 15bb 7cde 4cbb 3697 ed3b 07f3 873b
000000c0: 4169 0d3b 70ec bcb9 fac8 acbb 94e1 423b
000000d0: e45f 0f3b 8c0e 683b 60a6 e33b 2208 5f38
000000e0: 3b04 5dbb 70cb 7f3b 937b d2ba fec0 6b3b
000000f0: f91e c0bc 32d8 92ba 92f4 3e3c e162 8dbb
00000100: fe45 5cbb ed4e 043c 1008 efba 31c5 8d3b
00000110: d125 ffbb acd3 653b cf03 8d3b 7dba 083c
00000120: 4336 c1bb 8db0 9f3b cda1 64ba c476 233c
00000130: d04b 7dbc ac71 a4bc 54fe 913b 3de9 013a
00000140: ec09 833b f228 443c f363 c9ba f37b e5ba
00000150: a2c3 d1b9 e1fa 53bb 57e7 10bb 9cad 01bb
00000160: c588 7cbb d3d3 093c 6e10 e6ba 7b7c 933b
00000170: 0e79 063c af96 c23a 86fc 973b addc fa3b
00000180: 756b 08bb 3cc5 42bb 16de 313c 729c 233a
00000190: 284e 0f39 bebc a13a 0b6a 8b3b e015 1d3c
000001a0: 350a eebb 8117 833a f38b e0bb baf2 3fbb
000001b0: b7b9 c7bb 6fb7 323b c8af aabb 44dd 5bbc
000001c0: a510 f0ba f023 f2bb 5d3b 67bc c098 033c
000001d0: bc65 9e3b 3ab9 25bb b360 583c 5dee 8c3a
000001e0: dad0 84bb 5067 d1bb c6a5 b63b 9dd0 05bc
000001f0: cb46 3d3b 9ab7 0a3c f01c 363c 05b6 f9ba
00000200: f8d4 ddba df7d 19bc 6327 a93b af94 913a
00000210: a0b2 9fbb 59f1 813b 3cdc ea39 0319 bfbb
00000220: 1d6e b53b ba0d 003b caeb 673b ec6b 2c3c
00000230: de28 be3b 5121 9a3b 9cf8 c4bb 1b49 2b3a
00000240: afce 093c 2879 9f3b 2e2e 293b 94ee 453b
00000250: 5e3b 7a3b fbbb bfbb 4399 713b 69c9 293c
00000260: 7298 f9bb 3df3 c33b 9e31 8a3b 10f6 c2bc
00000270: ceb2 633a 34b9 9d3b cd90 a83b 889b 313b
00000280: b2de 37bb 5a24 8d3a 4cbd 12bb 281a 443c
00000290: 749c 213b 6bd8 8cbb d146 f0ba bdac 0a3b
000002a0: e1b4 c53c 46c2 b4bb 4025 e53b e06e 8fbb
000002b0: 0b20 2dbb a4b1 0bb9 0de8 87bb fd44 c2ba
000002c0: 39de 91bb 6388 6bbb eb3d 873b be63 203a
000002d0: 2025 c43a 7edc afba 660c 803b f1eb 94bb
000002e0: 797b d33b 2676 463c f37e 10bc 9d68 20bb
000002f0: f667 2639 bf57 9cb9 c40c 84bb da85 2ebb
00000300: 7b81 f43b 4d19 8fbb d6ea 053c 999b 8439
00000310: 5613 483c 1487 4f3b 981e 293b c8ab 77ba
00000320: dcf8 143b d5b4 513b 4da5 bfbb 6ad9 e3bb
00000330: 2021 a7b9 dffd 963b 4ba5 eebb a19e 013c
00000340: 008f b33b 30cc a53b 8f08 603b 93ab 373a
00000350: 2afa 37ba 64ca 073a 8fb0 3abb bcf3 b8bb
00000360: 44d0 613b 6029 3fbb f120 3ebb 129c df3b
00000370: 6319 8abb d025 873b d25e 1739 5cb1 ea3b
00000380: b337 60bb 4244 e8ba 6a2d 79ba 8079 c0bb
00000390: 73a7 cbbb f371 e63b 9223 6abb cf29 c33a
000003a0: 004c 2abc 722f 1cbb 501f 2dbb 7709 f6ba
000003b0: 99c7 5abb bd0b fc3b 540c e3bb 20ba baba
000003c0: f843 473b 376f 9cbb 62d3 0f3c 8237 393c
000003d0: f1d6 2c3b 0ee2 9cbb 113f 40bb 8242 d33b
000003e0: 5ec2 21bb 27a3 bd3a 5887 87ba 592e 75bc
000003f0: 4fee 383b 01b2 7cba f427 8c3b c638 a83b
0.0027492335 -0.011217366 0.012601462 -0.007070529 -0.0053117597 -0.0037272673 0.0048534456 7.960562e-05
0.0015290997 0.0056240647 -0.0008191121 0.0007070579 0.0007158144 0.006897855 0.0046808734 0.0010672673
0.000405864 -0.0044580544 0.00038441812 -0.0010325067 0.008024437 0.00021776918 -0.00044920316 -0.0028260485
0.005676673 -0.008595612 0.0020782722 0.0022086052 0.00027713206 -0.0028169397 -0.0012522846 0.0043047797
-0.0038342793 0.004347567 -0.00447885 -0.0011901667 -0.00032742365 -0.0077443793 -0.012125084 0.0072673676
-0.0003437343 -0.005736563 -0.005291064 -0.0050877524 -0.002284187 -0.003126054 0.0072506918 0.004148844
0.0021577629 -0.00036034314 -0.0052729817 0.0029736506 0.0021877224 0.0035409061 0.0069473237 5.3174917e-05
-0.0033724445 0.003903117 -0.0016058557 0.0035973187 -0.023452269 -0.0011203347 0.01165499 -0.004314766
-0.0033611055 0.008075458 -0.0018236656 0.0043264856 -0.0077864905 0.0035068793 0.0043034325 0.0083452435
-0.005896361 0.0048733414 -0.000872162 0.009977046 -0.01545997 -0.020073734 0.004455367 0.00049557147
0.0039989855 0.011972653 -0.001536487 -0.0017508253 -0.00040009344 -0.003234558 -0.0022110546 -0.0019787317
-0.003853367 0.008412319 -0.0017552504 0.004500923 0.008207573 0.0014845933 0.0046382574 0.007655701
-0.0020816003 -0.0029719612 0.010856172 0.0006241269 0.00013666658 0.0012339575 0.0042545847 0.009587735
-0.0072644004 0.0010001512 -0.0068526207 -0.0029288963 -0.006095137 0.002726998 -0.005208943 -0.013419453
-0.0018315507 -0.007389538 -0.014113274 0.008032024 0.004833905 -0.0025287406 0.013206649 0.001075219
-0.0040532174 -0.0063904896 0.005573961 -0.008167413 0.0028881307 0.008466626 0.011115298 -0.0019051438
-0.0016924432 -0.009368389 0.005162166 0.0011106933 -0.0048735887 0.0039655385 0.00044796045 -0.005831839
0.005536808 0.0019539432 0.0035388344 0.010523777 0.0058032116 0.0047036787 -0.006011082 0.0006534026
0.008411094 0.004866738 0.0025814879 0.0030202018 0.0038182358 -0.0058512664 0.0036865033 0.010362961
-0.00761705 0.005979924 0.0042173406 -0.023798972 0.0008686007 0.0048133377 0.0051442147 0.002710076
-0.002805632 0.001076828 -0.0022390662 0.011969127 0.0024659904 -0.00429826 -0.0018331652 0.002116009
0.024134101 -0.0055163233 0.006992966 -0.004377231 -0.0026416804 -0.0001332225 -0.0041475357 -0.0014821586
-0.00445154 -0.0035939447 0.0041272542 0.00061183784 0.0014964677 -0.0013417152 0.003907728 -0.004544728
0.006453928 0.01211313 -0.00881933 -0.0024476417 0.00015869722 -0.00029820015 -0.004029842 -0.0026630075
0.0074617243 -0.0043670298 0.008173665 0.0002529293 0.012211641 0.0031666206 0.0025805589 -0.00094478996
0.002273134 0.0031998653 -0.005848563 -0.006953408 -0.00031877402 0.0046079005 -0.007282888 0.007911355
0.0054796934 0.0050597414 0.0034184789 0.00070064625 -0.00070181733 0.000518 -0.0028486585 -0.00564429
0.0034456411 -0.0029168949 -0.0029011334 0.006824025 -0.004214452 0.0041243806 0.00014435805 0.007162256
-0.0034212887 -0.0017720538 -0.00095053634 -0.005873859 -0.00621503 0.007032627 -0.0035726768 0.0014889779
-0.010394096 -0.002383199 -0.0026416369 -0.0018771131 -0.003338313 0.007691829 -0.00692896 -0.0014246143
0.0030405503 -0.004774 0.008778425 0.011304738 0.0026373232 -0.00478769 -0.0029334466 0.0064471373
-0.0024682502 0.0014468179 -0.0010340018 -0.014964663 0.0028218215 -0.0009639562 0.0042772237 0.005133721

model/a_stream/W f4 [3, 256]
00000000: be7b 353d 3a80 45bd 8835 06bc f0c6 e33b
00000010: 31f2 6a3d c673 e939 88a0 9d3a 0a5f 373d
00000020: ac73 623d c85e b83c 484c 0ebd 36af 853a
00000030: 33fd 613b 4dd7 01bc 7447 b6bd 5f04 99bd
00000040: ff6f e83c c9fe d53d a8ff 373c 10e9 093d
00000050: ac7d 2e3d 86a1 8ebd 3c06 61be 551d 9d3d
00000060: b299 fbbb 014e 263d acdf d23c addc c43c
00000070: 988a a6bc 8cf1 9abd e321 afbd 93b9 703c
00000080: 34c2 9fbd a10f 2bbb d7a3 263d 6922 353d
00000090: add0 ffbc c4eb 18bc e6e9 b33c a571 0ebb
000000a0: e22e 24ba 763f febc 094f 38bc dce4 3c3d
000000b0: d532 db3d e9fa 92bd 055a 683c 200c 0e3e
000000c0: fd6b 9dbb fd6f 493d efef 413d 05cf 8c3c
000000d0: ce7d 0b3e 830c b53c 9489 0f3c 1115 ab3c
000000e0: 42a7 b03d 6ed4 d6bd 37d8 42bb 9686 c5bb
000000f0: 508b 963d d5ec c9bb 4ec3 443b d0d0 6ebd
00000100: bce7 6f3c 5a42 d03c a9ac 4e3d 4f6e 2fbd
00000110: 2347 21bc ca89 053d 6475 a5bc 7a81 b0ba
00000120: 9d77 9c3c b9af a3bc d09e c03c cfdf 923c
00000130: 0727 fabc 685a 933d 8bcb 6c3d 8ec9 fcbb
00000140: 11ce 70bc a17e 00be ae91 0bbd a857 933a
00000150: e012 d3bb 6d56 f7bc 547b 0c3d 061d 26bb
00000160: c40a 0d3e e2bf d33d e7ab 96bd 5093 88bd
00000170: 8b1d 8a3b 63fd afbb 94e3 47bd 9b2e 1ebc
00000180: feed 5e3e 0c76 413d 3e23 23bb bbc0 893c
00000190: a671 44bd d855 d93c 6fc6 a63c 6b0c 1bbd
000001a0: bc41 e83c 91ed a7bc 52e2 33be ee01 cebd
000001b0: b2d1 12bd 110c 3abc ae5e 73bc b4c2 5dbc
000001c0: ada3 bcbb 99dd 383c a3d5 f43c a8a9 60bd
000001d0: df16 b7bd 642f e03c f5f9 2dbd fc76 a7bd
000001e0: a758 01bd 8c98 8b3c 8b4f a33c 53e7 053d
000001f0: 1c90 ab3d a4d6 45bd bff5 73bd 8e87 f9bb
00000200: 1cbc 5dbd 1900 93bc 69cf 11be b7a7 bc3d
00000210: b88c 883d 4494 50b9 8aff b73c c2a7 1d3d
00000220: b613 323d a1b8 93bd 5c1b 9a3d a4df 023d
00000230: 90b7 9abd 6ec7 40bd 2556 71bd 00b1 f33b
00000240: 6779 63bc 2ea9 633d db30 37bd f99d 763c
00000250: acea bd3c 3edc 833d 6d49 52bd 80f3 e2bd
00000260: 814b 523d aa6b 6dbd 856e 75bb ec8d 8a3d
00000270: 9a83 563c 8e49 2d3b 8781 f23c d505 40bc
00000280: 8b08 23bc ec1a 17bd 2935 4dbd 6253 4bbd
00000290: 0002 04ba 4a84 11bd f9da 72bd 6152 70bc
000002a0: 8072 0cbd 778d 873d 86cd 543b 5faf b53b
000002b0: 4e4f 5ebc e8ba 91bc f291 5bbd 23f9 abbd
000002c0: bf24 4e3d 2344 1e3b 6604 a0bd e7be 40bd
000002d0: 59d5 353d 18c1 f3bd 4090 913d bc34 a53d
000002e0: 5124 aabc 5ede a03d e936 a3bc 3f22 39bd
000002f0: a803 b3bd 8a8b 4cbc 0b9e 81bd 0f59 e43d
00000300: 1752 d4bc 49ca 41bd 752c a83c 1ff7 07bb
00000310: 1ab3 84bb 3ea7 bbbd ac50 203d b44c 143e
00000320: ef3d 91bc c9c4 b23b 3cad 4abd 317c c3bc
00000330: d9a5 933d 1fbb 7c3d 9519 e93c 7fea adbd
00000340: 3a5e f13c c532 24bc c53b bfbb 54f1 1a3d
00000350: 6b6a 033e a0a3 c2bd 8a2f 123d cafa cb3c
00000360: c2b2 a83d efe7 25bd d153 ef3d 618c 803d
00000370: 3554 92bc 0fc1 0abc e5f1 243d 3a9d bebb
00000380: 9a78 223d 17cc e4bd 6fa1 293c 9807 a1bd
00000390: 2b36 153b 3b90 d5bc b8b9 283c 1759 2dbe
000003a0: 6683 213c 50ed dabc 0a39 833b 7e2d 38bd
000003b0: 6923 bebc 9c6d 0ebd 698b f13b 9059 c23d
000003c0: 1ec2 963d b26a 983c e37a 6f3c 1d87 2fbd
000003d0: a9be c3bd e281 b93d 35bd e13b 5152 eebc
000003e0: 2d8c c4bc d889 983d 9ee2 833d 3661 8e3b
000003f0: a05c 9bbd 3ec9 5abd 39a5 d9bc b779 7dbd
0.044307463 -0.04821799 -0.008191474 0.0069512054 0.057359878 0.0004452748 0.0012025991 0.04476837
0.055286095 0.022506133 -0.034740716 0.0010199312 0.0034483194 -0.007924867 -0.08900347 -0.07471537
0.028373716 0.10448987 0.011230387 0.03366953 0.04260032 -0.06964402 -0.21975034 0.0767161
-0.007678234 0.040601734 0.02574142 0.024031008 -0.020329759 -0.07565603 -0.08551385 0.014692682
-0.07800713 -0.0026101845 0.040683594 0.04422227 -0.031227434 -0.009333555 0.021962117 -0.0021735218
-0.00062630896 -0.03103612 -0.011249312 0.046116695 0.10703055 -0.071767636 0.014181619 0.13871813
-0.004804133 0.049179066 0.04734796 0.017188558 0.1362221 0.022100693 0.0087608285 0.020884069
0.08625652 -0.104897365 -0.0029730925 -0.006028007 0.073507905 -0.006162266 0.0030023637 -0.058304608
0.014642652 0.025422264 0.05045763 -0.042829808 -0.0098436205 0.03260211 -0.020197578 -0.0013466321
0.019100005 -0.019981252 0.023513228 0.017928986 -0.030536188 0.07194978 0.0578113 -0.007714457
-0.014697568 -0.12548305 -0.034074478 0.0011241334 -0.006441459 -0.030192578 0.034297302 -0.002534689
0.13773638 0.10339333 -0.073570065 -0.06668723 0.0042149476 -0.005370782 -0.04880102 -0.009654666
0.21770474 0.04723172 -0.0024892832 0.016815534 -0.047959946 0.026530191 0.020358292 -0.03785364
0.028351657 -0.020499023 -0.17566803 -0.10058962 -0.035844512 -0.011355416 -0.014854116 -0.01353519
-0.0057568164 0.011283302 0.029887026 -0.054849297 -0.08939909 0.027366348 -0.042474706 -0.08176991
-0.031578686 0.017040513 0.01993539 0.03269131 0.08377096 -0.0483004 -0.059560534 -0.0076150363
-0.054134473 -0.017944383 -0.14239277 0.092116766 0.06667465 -0.00019891659 0.022460718 0.038490064
0.04347583 -0.072129495 0.0752475 0.03195156 -0.07554543 -0.04706519 -0.058920044 0.0074368715
-0.013883925 0.055581264 -0.044724327 0.015052312 0.02318319 0.06438492 -0.051339556 -0.110816
0.051341537 -0.057964005 -0.0037449908 0.06765351 0.0130929 0.0026441547 0.02960278 -0.01172014
-0.009950767 -0.03689091 -0.050099526 -0.049640067 -0.00050356984 -0.03552655 -0.05929086 -0.014668078
-0.034288883 0.06618779 0.0032471134 0.0055445875 -0.013568712 -0.01778932 -0.05360598 -0.083971284
0.050328013 0.00241495 -0.07813339 -0.04705706 0.044392917 -0.11902064 0.07107592 0.08066699
-0.02076927 0.07854913 -0.019923644 -0.045198675 -0.08740932 -0.012484441 -0.063289724 0.11149799
-0.02591805 -0.047312055 0.020529011 -0.002074666 -0.004049671 -0.09162758 0.039139435 0.14482385
-0.017729728 0.0054555875 -0.049481615 -0.02386293 0.07209367 0.06170189 0.028454581 -0.08491992
0.029463876 -0.01002187 -0.0058359825 0.037827805 0.12833564 -0.09503865 0.035689868 0.024899859
0.0823722 -0.040504392 0.116859086 0.06276775 -0.017862419 -0.00846888 0.04026975 -0.0058170827
0.039665796 -0.111717395 0.01035343 -0.078627765 0.0022767882 -0.026069751 0.010298185 -0.16928516
0.009857988 -0.026724488 0.0040046023 -0.04496526 -0.023210244 -0.0347725 0.0073713553 0.09489739
0.07361244 0.018605564 0.014616701 -0.042853463 -0.0955785 0.09057976 0.0068890103 -0.029091986
-0.023992622 0.074481666 0.06439708 0.0043450845 -0.07586026 -0.053414576 -0.026568042 -0.061883654

model/hidden/mid_rec_layer/upward/W f4 [80, 86]
00000000: e208 7e3f 904b 7d3f 2510 7e3f 9797 7d3f
00000010: 9d73 7d3f a3f0 7d3f ffe1 7d3f 0dad 7d3f
00000020: 0000 803f 0000 803f dd24 7f3f 0000 803f
00000030: 1e6f 7f3f be6a 7f3f 0000 803f e190 7f3f
00000040: 59aa 7f3f 0000 803f deb7 7f3f f7c9 7f3f
00000050: 0000 803f cfa3 7f3f 9ec0 7f3f 0000 803f
00000060: e693 7f3f b7c6 7f3f 0000 803f b98b 7f3f
00000070: c5a1 7f3f 0000 803f b5ba 7f3f 47b7 7f3f
00000080: 0000 803f 87a7 7f3f 19b9 7f3f 0000 803f
00000090: b4c8 7f3f 7b6d 7f3f 0000 803f c1b7 7f3f
000000a0: 1d92 7f3f 0000 803f c680 7f3f 5165 7f3f
000000b0: 0000 803f ca9f 7f3f fd93 7f3f 0a87 7f3f
000000c0: 1c79 7f3f 4f84 7f3f a38d 7f3f 55c7 7f3f
000000d0: 05c1 7f3f bf8b 7f3f a656 7f3f 939f 7f3f
000000e0: 0000 803f 927b 7f3f 8e78 7f3f 0000 803f
000000f0: 3a9d 7f3f 85b5 7f3f ccca 7e3f 0487 7f3f
00000100: a8a5 7f3f 6549 7e3f e9d4 7f3f 30be 7f3f
00000110: 62ce 7e3f c4ad 7f3f d48f 7f3f 0000 803f
00000120: f397 7f3f cab9 7f3f 0000 803f dea9 7f3f
00000130: 947a 7f3f 8d78 7e3f d57b 7f3f 40a2 7f3f
00000140: b7b1 7e3f eab1 7f3f 1c94 7f3f d7e3 7e3f
00000150: 538f 7f3f 9156 7f3f e23d 6c3f e4b0 693f
00000160: 240d 6c3f 5a12 6b3f b580 6b3f da16 6a3f
00000170: 442a 693f 01d3 6b3f 0000 803f 0000 803f
00000180: e0e2 6b3f 0000 803f 2631 743f 7a3e 753f
00000190: 0000 803f 2872 763f 55da 763f 0000 803f
000001a0: 1bb7 783f 370b 793f 0000 803f 5d5f 763f
000001b0: ba7d 783f 0000 803f c47c 763f 4992 793f
000001c0: 0000 803f baf1 763f e5a0 763f 0000 803f
000001d0: 595a 7a3f b529 793f 0000 803f ecf4 783f
000001e0: 8578 783f 0000 803f 7b65 783f 71e2 753f
000001f0: 0000 803f 62a7 783f 1498 753f 0000 803f
00000200: 60cb 753f f04f 743f 0000 803f db08 773f
00000210: bd17 773f 2668 763f 0f34 753f 301d 763f
00000220: ca5d 773f 5386 783f 74c2 783f 6f4b 773f
00000230: aeaa 733f aba7 773f 0000 803f 9427 743f
00000240: 238b 753f 0000 803f 6088 773f f066 773f
00000250: 2fdd 6f3f 7aa5 763f 5141 783f 0497 6d3f
00000260: 51bd 7a3f 4493 793f 86e9 6e3f 5a30 783f
00000270: 2b28 763f 0000 803f 0526 763f a8cd 783f
00000280: 0000 803f 6d98 773f 9785 753f 4ba1 6e3f
00000290: aed4 753f 2096 763f dbfb 6d3f d3d3 783f
000002a0: c034 773f 11ff 6d3f 2c79 763f dec5 743f
000002b0: 0000 803f 0000 803f 0000 803f 0000 803f
000002c0: 0000 803f 0000 803f 0000 803f 0000 803f
000002d0: 0000 803f 0000 803f 0000 803f 0000 803f
000002e0: 0000 803f 0000 803f 0000 803f 0000 803f
000002f0: 0000 803f 0000 803f 0000 803f 0000 803f
00000300: 0000 803f 0000 803f 0000 803f 0000 803f
00000310: 0000 803f 0000 803f 0000 803f 0000 803f
00000320: 0000 803f 0000 803f 0000 803f 0000 803f
00000330: 0000 803f 0000 803f 0000 803f 0000 803f
00000340: 0000 803f 0000 803f 0000 803f 0000 803f
00000350: 0000 803f 0000 803f 0000 803f 0000 803f
00000360: 0000 803f 0000 803f 0000 803f 0000 803f
00000370: 0000 803f 0000 803f 0000 803f 0000 803f
00000380: 0000 803f 0000 803f 0000 803f 0000 803f
00000390: 0000 803f 0000 803f 0000 803f 0000 803f
000003a0: 0000 803f 0000 803f 0000 803f 0000 803f
000003b0: 0000 803f 0000 803f 0000 803f 0000 803f
000003c0: 0000 803f 0000 803f 0000 803f 0000 803f
000003d0: 0000 803f 0000 803f 0000 803f 0000 803f
000003e0: 0000 803f 0000 803f 0000 803f 0000 803f
000003f0: 0000 803f 0000 803f 0000 803f 0000 803f
0.99232304 0.98943424 0.99243385 0.9905943 0.99004537 0.9919531 0.9917297 0.9909218
1.0 1.0 0.99665624 1.0 0.99778926 0.9977225 1.0 0.9983044
0.99869305 1.0 0.99889934 0.9991755 1.0 0.9985933 0.99903286 1.0
0.9983505 0.9991259 1.0 0.99822575 0.99856216 1.0 0.9989427 0.99889034
1.0 0.99865 0.9989181 1.0 0.99915624 0.9977643 1.0 0.9988976
0.99832326 1.0 0.9980587 0.9976397 1.0 0.99853194 0.9983519 0.9981543
0.99794173 0.9981126 0.99825495 0.9991353 0.999039 0.9982261 0.9974159 0.99852866
1.0 0.9979793 0.99793327 1.0 0.99849284 0.9988635 0.99528193 0.9981539
0.99862146 0.9933074 0.9993425 0.9989958 0.99533665 0.9987452 0.9982884 1.0
0.9984123 0.99892867 1.0 0.9986857 0.99796414 0.99402696 0.9979833 0.9985695
0.9948992 0.9988085 0.9983537 0.99566406 0.9982807 0.99741465 0.92281926 0.9128554
0.9220755 0.9182488 0.91993266 0.9144112 0.9108012 0.9211884 1.0 1.0
0.9214306 1.0 0.95387495 0.95798457 1.0 0.9626794 0.964269 1.0
0.97154397 0.9728274 1.0 0.9623926 0.97066844 1.0 0.9628413 0.9748884
1.0 0.96462595 0.96339256 1.0 0.9779411 0.97329265 1.0 0.9724872
0.970589 1.0 0.97029847 0.9604865 1.0 0.97130406 0.9593518 1.0
0.9601345 0.95434475 1.0 0.9649789 0.96520597 0.9625267 0.9578256 0.96138287
0.96627486 0.9707996 0.9717171 0.9659948 0.9518231 0.96740216 1.0 0.9537289
0.9591543 1.0 0.96692467 0.96641445 0.93696874 0.9634625 0.96974665 0.92808557
0.97945124 0.97490335 0.9332508 0.9694878 0.9615504 1.0 0.96151763 0.97188807
1.0 0.9671696 0.95906967 0.93214864 0.9602765 0.9632282 0.92962426 0.9719822
0.96564865 0.92967325 0.96278644 0.9561442 1.0 1.0 1.0 1.0
1.0 1.0 1.0 1.0 1.0 1.0 1.0 1.0
1.0 1.0 1.0 1.0 1.0 1.0 1.0 1.0
1.0 1.0 1.0 1.0 1.0 1.0 1.0 1.0
1.0 1.0 1.0 1.0 1.0 1.0 1.0 1.0
1.0 1.0 1.0 1.0 1.0 1.0 1.0 1.0
1.0 1.0 1.0 1.0 1.0 1.0 1.0 1.0
1.0 1.0 1.0 1.0 1.0 1.0 1.0 1.0
1.0 1.0 1.0 1.0 1.0 1.0 1.0 1.0
1.0 1.0 1.0 1.0 1.0 1.0 1.0 1.0
1.0 1.0 1.0 1.0 1.0 1.0 1.0 1.0

model/hidden/mid_layer/W f4 [256, 256]
00000000: 53e1 2d3d be72 58bd a026 2cbe da0a 8e3b
00000010: 553c d13c 5fdf 8fbd 84f3 6f3c bbec 8dbc
00000020: 4a81 98bd dc0b a1bd feaa cfbc 8816 a1bd
00000030: 42d6 8bbc e95e 40bb cd7e 5cbb 95ec 12bd
00000040: 4928 a7bd 3a15 6fbd dced c13c 34a8 503d
00000050: 9094 a8bc 0f28 53bd c614 9cbd a1e2 2a3d
00000060: b516 7bbd 3d5f 80bd 5a57 c2bd 2ca3 79bd
00000070: 0223 23bd 2e33 9a3d 0a76 81bd b204 143d
00000080: 2f8e 9b3c f3ee 123d e3fd c3ba 42ac f43c
00000090: ed03 863b 4185 503d 1fdd 7cbc 5f4f a83d
000000a0: 0d85 9c3d 7abf 04bd 0cc9 16be e85f acbd
000000b0: 2cdf 9f3b 268c db3d dd00 af3c c758 26bd
000000c0: ee52 003e 3a40 a53d c211 95bd 08fd 0d3d
000000d0: 3e03 0e3d 3967 dc3c cac0 ac3b d249 60bd
000000e0: 9c2a 083e 721f 973c 910c 7bbd 205d 2cbc
000000f0: a9b4 ef3c 7713 bcbc e64c 4a3e 4d75 4bbc
00000100: 51cb 093e 0772 723d e4e8 b2bd 5f56 5cbc
00000110: 77bf 4c3d fb6a 3a3c 0976 5d3c 8578 30be
00000120: f6d5 3c3c e877 24bd 86fc 9cbd 62a8 de3d
00000130: 0e5c 203c 912e 0bbd afb9 b03c 42cc ef3d
00000140: cb80 3a3c 5f47 e5bc eec0 49bd 5b1c 673d
00000150: 5587 32bc c13c d83b 7d68 e2bd 953c 963c
00000160: a708 91bd 289f 04bd 356f a83d 1f50 f8bc
00000170: da5d a3bb 9e67 063d fb20 00bd 00ae 85bd
00000180: aab2 98bb fd8a 14be 7418 1ebd d51b 7fbd
00000190: 5ec1 013d 183c 2cbd 9227 eb3c e99c b5ba
000001a0: 56ae 2b3d be41 813d be28 093d a705 63bd
000001b0: 64eb d83d 39e2 d03d a6e2 dfbc 7dd2 463c
000001c0: a121 74bd 55c7 23bd 63d5 17bd 7c29 edbc
000001d0: dcdf 77bd 9b19 c33d 2c60 06bd fbee 6b3d
000001e0: 83ab c63b 4b6d be3c ca23 82bb 4927 17bc
000001f0: 7f6b 16bd c157 6d3d 9147 43bd 802e 84bd
00000200: f395 4b3d 1572 303d 06cf ba3c 781f 713c
00000210: 4e27 dfbc 9695 c23c d0f2 70bd 9930 41bb
00000220: ae21 84bc 6c6e 023d 2fbf 1a3d bf97 babd
00000230: f101 e83c 08da 333d 5dfe 66bd b743 fabc
00000240: c322 bfbc 4045 af3a 60fb d13c ea11 1abd
00000250: b43f 3fbc 64ef 563d 4a45 72bd 3e70 c03b
00000260: 41d8 d9bd 37ea d63c 7e0c 373c c9fd 36bc
00000270: 0b0e 1fbd 9a67 23bc 847c c6bc cc37 143d
00000280: eb80 fe3b 5410 e4bd 34a6 873c 48d4 69bb
00000290: ee3e 5b3d 7a13 70bd 05bc 77bd b869 c4bd
000002a0: 368d ca3c 9e2f 593d f855 95bd 92d3 973d
000002b0: 0533 db3d eb0d d73c 0ff4 24bb d887 f93c
000002c0: 54cd b93c b84e 53bd dcdf 4dbd 8a7e 38bd
000002d0: 693c dcbd 3593 e3bd c44e ffbc de92 303c
000002e0: 5248 8e3d 2665 cfbd 392e 343d 8f55 d83d
000002f0: f0a8 653d 6307 3c3d 7cc2 1b3d f548 553d
00000300: 88bf fb3c 39a2 bd3c b2b8 363c f531 c03c
00000310: 1bf8 c2bd 722b a2bd 2fd1 1a3c 0711 1fbc
00000320: 90d4 ee3a 6b06 d5bd f051 463c 44db bcbc
00000330: 30da 2e3d 5e54 69bc a2f7 b43c 4f9b 1a3d
00000340: c4c6 f4bc 4cc6 c4bd 595d e9bd 9ffe a63c
00000350: 442b a4bd fe6e e4bd f82a 913c 28f4 ad3d
00000360: 342f 4dbc d42c 123e b82a 6dbd 98d0 453c
00000370: a82e 19bd 975e 303d e99d 213c 493e 6fbc
00000380: 1612 e2bb 4d44 12bd 4d27 cb3d 1960 77bd
00000390: ce8c 483c 48b2 da3c db77 d1bd d39c 7fbd
000003a0: 9b51 89bd a4b1 efbc 0e15 8a3d c6a2 253d
000003b0: ce56 bebd edca 38bd 85fa 22bc 2c08 413d
000003c0: 6674 e83d 84b1 33bd 767a 673d d0bb 78bd
000003d0: 9346 3cbd 554c 12bd 9e33 863c f787 c73c
000003e0: 003e fd3c d005 84bd 9b7b d03d 051f 62bc
000003f0: f169 c1bd 2497 fabc cd5d ba3c 2f37 7d3d
0.042451214 -0.0528438 -0.1681161 0.0043347897 0.025541464 -0.070250265 0.014645461 -0.017324796
-0.07446535 -0.0786359 -0.02535009 -0.078656256 -0.01706994 -0.0029353446 -0.0033644915 -0.035870153
-0.08161981 -0.058369853 0.02367299 0.05094166 -0.020578653 -0.051551875 -0.0762115 0.041720036
-0.061300952 -0.06268165 -0.09489317 -0.06094663 -0.039828308 0.07529293 -0.06321342 0.03613729
0.018988697 0.03587241 -0.0014952983 0.029867295 0.0040898235 0.05090833 -0.015433579 0.08218264
0.07642565 -0.03240917 -0.14725131 -0.0841673 0.004878899 0.107200906 0.021362716 -0.04061201
0.12531635 0.08068891 -0.07278778 0.034665138 0.03467106 0.02690469 0.0052720057 -0.0547579
0.13297504 0.018447611 -0.06129128 -0.01052025 0.02926095 -0.0229585 0.19755897 -0.012418103
0.13456465 0.059190776 -0.087358266 -0.013448327 0.049987283 0.011378045 0.013516911 -0.17233475
0.011525622 -0.040153414 -0.076653525 0.1087196 0.009787573 -0.033979956 0.021572916 0.11708881
0.011383246 -0.027988134 -0.049256258 0.056423526 -0.0108965235 0.0065990393 -0.11055086 0.018339435
-0.070817284 -0.032378346 0.08224336 -0.030311642 -0.004985553 0.03281366 -0.031281453 -0.065273285
-0.0046599703 -0.14506145 -0.03859754 -0.062282402 0.03167855 -0.042049497 0.028705392 -0.0013855967
0.041914307 0.063113675 0.03348612 -0.055425312 0.10591772 0.101993985 -0.027329754 0.012135145
-0.059602384 -0.03998502 -0.037068736 -0.028950445 -0.060516223 0.09526368 -0.03280656 0.057600956
0.0060629263 0.023245474 -0.0039715515 -0.009225675 -0.03672361 0.057945017 -0.047675673 -0.06454182
0.04970355 0.043077547 0.022803795 0.014716975 -0.027240422 0.023752969 -0.058825314 -0.002947843
-0.016129341 0.031843588 0.037779983 -0.091109745 0.028321238 0.043909103 -0.056394923 -0.030549867
-0.023332005 0.0013372079 0.02563256 -0.03761474 -0.011672903 0.052474394 -0.05914811 0.0058727553
-0.1063695 0.02623473 0.011172412 -0.0111689055 -0.03883175 -0.009973431 -0.024229296 0.036186025
0.007766833 -0.11135927 0.016558744 -0.0035679508 0.05352681 -0.058612324 -0.060482044 -0.09590477
0.024725538 0.053023927 -0.07291788 0.07413401 0.107030906 0.026251754 -0.0025169884 0.030460283
0.022680916 -0.051588744 -0.050262317 -0.045042552 -0.1075371 -0.11112062 -0.031165488 0.010777203
0.06947388 -0.101267144 0.043989394 0.10563194 0.056069314 0.045905482 0.03802727 0.05207153
0.030730978 0.023148643 0.011152433 0.023461321 -0.095199786 -0.07918443 0.009449287 -0.0097086495
0.0018221308 -0.10401615 0.012104496 -0.023053773 0.04268855 -0.014241306 0.022090737 0.03774577
-0.029879935 -0.096081346 -0.11394758 0.020385085 -0.08016065 -0.111539826 0.017720684 0.08493835
-0.012523461 0.14274913 -0.057902068 0.012073658 -0.03739801 0.043058958 0.009864309 -0.014602252
-0.0068991287 -0.035709668 0.099196054 -0.06039438 0.012240602 0.02669634 -0.10227939 -0.06240542
-0.06705018 -0.02925951 0.06742297 0.040438436 -0.092939004 -0.0451154 -0.009947424 0.047126934
0.11350326 -0.043870464 0.056513272 -0.060725987 -0.045965742 -0.035717327 0.016382035 0.024356825
0.030913353 -0.06446421 0.10179826 -0.013801341 -0.09444035 -0.030589648 0.022749806 0.061820205

model/a_stream/b f4 [3]
00000000: 60ae efb9 ad1d 683b 5274 9eba
-0.00045715552 0.0035418079 -0.001208911

model/hidden/mid_rec_layer/upward/b f4 [80]
00000000: fcce e5bc 00c2 d5bd 0000 803f ebe7 d7bd
00000010: 6720 f8bc 28a8 b0bd 0000 803f c10c b6bd
00000020: ae5e 403c 234c a33c 0000 803f 6a3f e03c
00000030: 0f8d 8f3b ea90 1a3c 0000 803f 5dab 8d3c
00000040: 2262 993c 0971 de3c 0000 803f f13d 0c3d
00000050: d4b7 67bc 79ce 0bbd 0000 803f 791c eebc
00000060: fc2e 253c 0068 923c 0000 803f c5ec cf3c
00000070: 81df 4bbc 9603 2abd 0000 803f 8e88 0fbd
00000080: f478 3d3c 5219 993c 0000 803f 5d16 ce3c
00000090: 7ba9 ffbc d898 63bd 0000 803f 943e 7bbd
000000a0: e80f 0cbd cf84 55bd 0000 803f 638b 6fbd
000000b0: c58c 5fbc f343 1abd 0000 803f 79b5 fbbc
000000c0: b64e 38bc efea 06bd 0000 803f ccf9 e5bc
000000d0: 5641 8dbc 32da 8dbd 0000 803f 5939 87bd
000000e0: 8576 8ebc 5380 51bd 0000 803f 15cd 3bbd
000000f0: 99a7 c6bc a1d8 7fbd 0000 803f 5c63 7cbd
00000100: 5ae3 ecbc ebce bebd 0000 803f d9cd c5bd
00000110: 526c 8ebc dc39 66bd 0000 803f 4bc9 59bd
00000120: 1bc7 ab3b 4529 393c 0000 803f e64e a03c
00000130: 3047 b2bc 5645 6bbd 0000 803f 7ef0 61bd
-0.0280528 -0.10437393 1.0 -0.10542282 -0.030288888 -0.08625823 1.0 -0.08889151
0.011741323 0.019933766 1.0 0.027373988 0.004380829 0.009433964 1.0 0.017293626
0.018723551 0.027153509 1.0 0.03423876 -0.014142949 -0.034132455 1.0 -0.029066311
0.010082003 0.017871857 1.0 0.025381455 -0.012443424 -0.041507326 1.0 -0.035042338
0.011564482 0.018688831 1.0 0.025157148 -0.031208744 -0.055565685 1.0 -0.061338976
-0.034194857 -0.05212861 1.0 -0.05848254 -0.013644402 -0.037662458 1.0 -0.030726181
-0.011249235 -0.032938894 1.0 -0.028073214 -0.017243069 -0.06926383 1.0 -0.06602735
-0.017390499 -0.05114777 1.0 -0.04584988 -0.024249839 -0.062462453 1.0 -0.061618194
-0.028917003 -0.0931681 1.0 -0.09658403 -0.017385636 -0.056207523 1.0 -0.053170484
0.005242241 0.011301343 1.0 0.019568872 -0.02176246 -0.05743917 1.0 -0.05516099

model/hidden/input_layer/W f4 [256, 86]
00000000: 5cb1 85bd e014 f63c e1d2 8dbd 6bb7 1fbd
00000010: 517f d1bc e50a e1bc 2cd8 1cbb 6d9b 1bbe
00000020: a5b4 583c dab0 583e de06 963d b29d 3ebe
00000030: 5a5c 64bd 9cd6 25bc 210f 38bb 9334 bcbd
00000040: e088 323d cbf2 23bd 616d a63c 5414 233d
00000050: dde7 0b3d 0a65 003e a625 493d ca1d 123e
00000060: 89fc d73d 4e20 28bc 1fe7 63bd 12cb a63d
00000070: 9513 0b3d f35e 07bc 8e87 ac3d 9302 503c
00000080: 4497 bc3d 5636 76bd 80be 123e 328d d3bb
00000090: 2e1a 973d 8184 27bd ccd7 043d 9320 ef3c
000000a0: 0202 ec3d 0413 12bc d5cf ebbd a070 453d
000000b0: 1263 e3bd 3c35 1bbe 11e0 cc3d 145b adbc
000000c0: 4db6 3dbd 0bd0 a2bc 1bac a0ba 3317 04bb
000000d0: 40be 80bd c7b3 97bd 4f49 11be 9ecd 4bbc
000000e0: 123a ccbd 6eb1 4abd 6e68 1e3e 7e9f 393d
000000f0: bc0e 8fbc 0690 64be 688b 243e f225 473d
00000100: 6715 eb3c 2f9b 98bd e65c d93d 9c3f 79bd
00000110: 42ed 75be 12df 423e 1c19 613e 22a4 61be
00000120: 78cd 76bd 7706 f0bd 9af7 4fbb d7bf 88bd
00000130: c76e f1bd 0f44 713d 924c 0dbe 767a 3e3e
00000140: 3a6c c5bb f0a7 473e f1a4 79bb 1e2f 5e3c
00000150: f13a 9a3d 67cb cf3c 7f67 903b b6e8 a33c
00000160: 4447 1abe 5ae0 5bbd 22d8 fabd 88c2 93bd
00000170: 82d0 473d 9d87 75be f111 933e f2bb 04be
00000180: e3cb fabd 05a6 093e 3c98 f83a 2389 253e
00000190: 8dc4 cdbd fae3 d63c 95a9 0c3e 3955 38bd
000001a0: 5395 aebd 2e33 98bd 5b21 493e 667d 543c
000001b0: 168e 583d 2e97 083e 1f9e 3bbe 4592 7abd
000001c0: c031 40bb 39bb d2bd d62c d13d e87d ac3d
000001d0: 4969 febc c630 9dbd 6834 b5bd 2fa4 333d
000001e0: e9c2 20be a881 69be ecc8 bf3d 9934 163e
000001f0: 80c0 30be 4834 c03c 6c91 77bd f2dc 4cbd
00000200: ef7f 8abc 4441 06be 58c8 c13a b6e9 bbbc
00000210: af50 00be 8777 a73e c39c 10bd 99fa 1e3e
00000220: 7688 c5bc f22d b53d ee01 22be 2898 38bc
00000230: 335f ff3c ad06 d83d 5729 74be 9ebe dabc
00000240: f3d3 823d d30c 113e 47a9 123e c7ae 9abe
00000250: 88df 513e 5896 9b3b d2af 003d 214f abbd
00000260: d331 0c3e 5148 923c 887f 273e c25a 673d
00000270: 60e2 4dbd 42f9 05be d678 8dbc 6d33 31bd
00000280: 69c6 a43b 796d bfbd f05d 39bd c6dc 4b3e
00000290: 545e fabd 355c 463d f9c1 31be 5bb3 823e
000002a0: df19 383d 5509 70bc faf7 8ebc 31cf 7ebd
000002b0: 9032 53bc d991 513e 480c 9c3d ed0c 7dbd
000002c0: 7451 343e 6933 5e3d fbba 10be e0c3 a13d
000002d0: ddbb 87bd cb66 a5bb b740 64be 1624 febb
000002e0: 7673 e0bd d8fe 1f3d 6752 13be d12f bfbc
000002f0: be12 9abd 2734 993d 7843 5ebe 2c26 10be
00000300: c84c dd3d 38e6 f83d 0290 82bd 31e0 ffbc
00000310: 95b7 703e f369 d3bc b6d3 bd3d 25ee c63d
00000320: 2975 743e 06e0 2b3d 5f3d 2ebe 432f 81bd
00000330: 824a 23bd aef5 2dbd 9985 1b3b 2251 92bd
00000340: 77bd 383e 6cf7 f23c 67f8 b0bc 744f 053e
00000350: 1c43 f23d 681c e3bd fc76 45be 462c 0abd
00000360: 7325 ec3d 7ebe e3bd 5632 5bbe 7d37 4e3c
00000370: 0acd 373c 53c4 b63c d104 aa3c ef8b fa3d
00000380: b027 05bd 4ced f5bd 1d16 923d 0147 65bc
00000390: eda1 993d b9d2 aabd 090b 28bd c918 77bd
000003a0: 4e4a 85bd fc13 40be 54cc c4bd cd82 a33d
000003b0: a0f5 143d d1a1 c23c 64e7 363a 9039 42bd
000003c0: 1cfb d5bc 2125 c33c e095 15bd 5afe 86bc
000003d0: 2c9e f8bd 1f77 b93c 9525 e1bd 9fac 0a3e
000003e0: ce1b 84bd 9ad4 5ebd 8865 023d 7c58 febd
000003f0: 048e f03d 603b ca3d a398 b9bd 42ef 7a3d
-0.06527969 0.03003925 -0.069249876 -0.03899328 -0.025573405 -0.027471015 -0.002393256 -0.15196009
0.013226663 0.21161214 0.073255286 -0.18614843 -0.055752136 -0.010121968 -0.002808519 -0.09189715
0.043587565 -0.040026467 0.020315828 0.03981431 0.03415667 0.12538543 0.04910817 0.14269176
0.10546214 -0.010261608 -0.055640336 0.08144201 0.03395422 -0.008262384 0.084242925 0.012695926
0.09208539 -0.060110413 0.14330482 -0.006456041 0.0737804 -0.04089785 0.032432362 0.029190337
0.115238205 -0.0089156665 -0.1151425 0.04820311 -0.111028805 -0.15157026 0.10003675 -0.021161593
-0.046316434 -0.019874593 -0.0012258323 -0.002015543 -0.06286287 -0.07407337 -0.14188121 -0.01243916
-0.099720135 -0.049485616 0.15469524 0.04531812 -0.01746308 -0.22320566 0.16068804 0.04862017
0.028696729 -0.07451474 0.10613422 -0.06085168 -0.24016288 0.19030407 0.21982235 -0.22035268
-0.060254544 -0.11719983 -0.0031733275 -0.066772155 -0.11788707 0.058902796 -0.1379874 0.18601403
-0.0060248645 0.19497657 -0.0038092698 0.013561038 0.075307734 0.025365544 0.004406869 0.020008426
-0.15066248 -0.053680755 -0.12248255 -0.07214838 0.048782833 -0.23977514 0.28724626 -0.1296232
-0.122459196 0.13442238 0.0018966268 0.16165595 -0.10047255 0.026231755 0.13736565 -0.04500315
-0.08524575 -0.07431637 0.1964163 0.01296935 0.05286988 0.1333892 -0.18322037 -0.06117465
-0.0029326528 -0.10289616 0.1021363 0.08422452 -0.031056063 -0.076753184 -0.08847886 0.04385775
-0.15699352 -0.22803366 0.09364495 0.14668502 -0.17260933 0.02346243 -0.06044142 -0.050015397
-0.016906707 -0.13110834 0.0014784439 -0.02293859 -0.12530778 0.3270838 -0.03530575 0.15525283
-0.024112921 0.08846654 -0.15821049 -0.011266746 0.031173324 0.10548148 -0.23843895 -0.026702221
0.06388082 0.14165048 0.14322387 -0.3021147 0.20495427 0.004748147 0.031417675 -0.08364702
0.13690881 0.017856749 0.16357243 0.056483038 -0.050264716 -0.13083366 -0.017269533 -0.043261934
0.005028535 -0.09347052 -0.0452556 0.19908437 -0.12225023 0.04842778 -0.17359151 0.25527462
0.044946548 -0.014650662 -0.017452229 -0.062209312 -0.012890473 0.20465793 0.0761953 -0.061779905
0.17609197 0.054248247 -0.14133827 0.07898688 -0.06627629 -0.0050476543 -0.22290312 -0.0077557666
-0.109595224 0.039061397 -0.14386903 -0.02333823 -0.07523106 0.074806504 -0.21705425 -0.14077061
0.108056605 0.12153286 -0.063751236 -0.031234832 0.23507531 -0.025807356 0.09268896 0.09713391
0.23872818 0.041961692 -0.17015599 -0.063078426 -0.039865978 -0.042470627 0.0023730753 -0.07144381
0.18041025 0.029658996 -0.021602822 0.1301859 0.11829206 -0.110894024 -0.1928367 -0.03373363
0.1153058 -0.11120318 -0.2140592 0.012586472 0.011218319 0.022310412 0.02075425 0.122337215
-0.032508552 -0.120081514 0.07133124 -0.013993979 0.07501588 -0.083409734 -0.04102615 -0.06032637
-0.06508313 -0.18757623 -0.09609285 0.07983933 0.03636706 0.0237588 0.0006977229 -0.047418177
-0.026120715 0.023821415 -0.036519885 -0.016478706 -0.12139544 0.02263981 -0.10993496 0.13542412
-0.06450616 -0.05440197 0.03183511 -0.12419221 0.11745837 0.09874606 -0.09062316 0.06126333

model/v_stream/W f4 [1, 256]
00000000: 26b5 d0bc 2ff8 67bb fcc9 fe38 d7a4 ba3b
00000010: e565 893b 8405 c83d 8582 88bd ba71 3d3d
00000020: a2da 9c3a 4693 46bb 90b6 96ba 656b 683b
00000030: 36e8 8b3d 0629 a8bb 2311 29bc ff66 9c3d
00000040: b137 adb8 3ef4 f9bb 3601 513d 6c59 57bd
00000050: 6082 ef3c 1ff7 b23c e2a8 09bd a40a a63d
00000060: 9b2f 973c 0daf 22bc 3890 c23c 3bf0 0fbd
00000070: db0f b3ba 0cb7 8dbd 4d73 bebc 1dec c13c
00000080: b5d7 35bd 2584 513c 5680 753a e8be 3d3e
00000090: cc95 b9bb 7e76 e2bb b04c 323b 098f e43b
000000a0: 6422 dabd 9328 813c 4264 c8ba b2cf 093d
000000b0: f34f 1dbd 663d 63bd 07de 463c 0c16 3bbc
000000c0: 6235 443d 2311 6a3b 07b3 aebb 1fbb 76b9
000000d0: f04e 84bc f201 d73a f8cc 0b3d 066e d8b7
000000e0: c97d cbbc 4edf 20bc c6ef 803b 8852 66bc
000000f0: a418 a23a 47d0 b93a fa9a 633c c3dc 483b
00000100: 8606 a2bc 9010 5d3c b7ec 193b 0140 68bd
00000110: 0424 dcbb 675d 763d 516a 1e3d de79 123c
00000120: 55ec e9bc 12a4 d8bc 830f 293d 055c 1c3b
00000130: 7ad4 1ebc 9fa2 9e3b 7cc9 08bb a20d c63d
00000140: 2f57 8cbd 765e 2bbc 8c98 a4ba b20c 07be
00000150: 5aed 77bd b50d 14bd 9383 abbc f063 423b
00000160: 3532 8fbd 236b ef3b c6e3 cebb 4eb7 15bd
00000170: e333 a83c 000f f039 62c6 3abd 0f2e 02bb
00000180: 173f e53c a493 1bbd 55a2 a8bc dd44 e53b
00000190: 6c87 033e d401 75bc c4e4 83bd b4e0 6d3b
000001a0: be89 983a ec13 bb3c 39f8 aebb 4a15 89bb
000001b0: 9254 f13c 7d4b a4bd 0364 923c 91c0 553a
000001c0: d1c0 d93a e8e3 a8bb 20a5 86ba 738f 2abc
000001d0: 2e03 a8bb 8f7a 0d3a 8bd3 333c a7b7 833d
000001e0: 2125 4d3c 4b59 693a 6795 2fbd ac6b 4d39
000001f0: 1a1d 873d 609f 6c3c c1b7 c1bb 226c 1dba
00000200: 60d6 cdbc 08bb 893b 2fb9 04bd 50cc ed3d
00000210: a171 6f3d ca24 cfbc 83d5 b7bc eac7 a23a
00000220: bfd3 273d 4b97 9abd 3955 2ebd e843 1c3c
00000230: 283b 7abb 2a83 07bc 1da7 deba efdd 7bbb
00000240: d4ed 3fbc 424e 8cbd e3a6 293d 70f2 3cbb
00000250: b4d1 80bd 766a 27bd 9ad2 b43c 4466 c4bb
00000260: 2183 023d f33a a6bc 2273 85bc 14b5 883a
00000270: fde0 7f3d 5527 54bd d7b5 d3bc 117b e23c
00000280: f980 b7bd 73fe 363b 1649 b9bc 1e09 8c38
00000290: b369 363d f1f9 013d 5ba5 edbc e29b b8b8
000002a0: 9ace 0f3b 4027 96bb 39fb 3a3c 0427 5dbd
000002b0: 7fa7 693b b075 6dbd 5bb5 bcbb 7239 38bd
000002c0: ef2f 763d 5ab6 633d 21b6 073c aaa1 a2bc
000002d0: df9f 9ebc 8c43 26bc e384 50ba c7a8 9c3d
000002e0: f39d f2bc 5166 e1b9 1a23 1ebc 1435 943d
000002f0: 4ad6 0fbc d376 8dbc fd0d 03b9 5263 863d
00000300: 1f69 973c 240d 693d a24c 1bbb 2aca 02be
00000310: 9feb 87bb 214a 8fbc 661b a0bc e0cf d3bd
00000320: e51a 76bb 7422 01bb 1571 263d 6945 c03b
00000330: 56aa f63c 4550 f53c 96fe a7bc 1d43 31bc
00000340: c130 823c e2ac 16bc 9b5a 29bd b9f6 b03d
00000350: 3d14 a5bd cfdc 863d bdfb 96bd 6f07 5bbd
00000360: ceed 433d 2992 94bb 8aa0 c6bd c990 82bc
00000370: 11e7 a1bc b151 183d 8206 e63c 6d16 f83b
00000380: a27a 113d 82b0 05bb 19e8 b13b 498c bf3c
00000390: a4c6 05bc 5893 c33a 2a38 8a3c d704 a2bc
000003a0: d607 11bb 114b b9bd e7d5 29bb f36a 4a3b
000003b0: cce4 d13d 4d66 1dbb 3d51 7b3b 7d33 a73a
000003c0: 6511 c4ba cfc3 213d e101 9dbb 7223 9fbc
000003d0: 7c44 e53d fc23 703c 73d8 65bd 90c5 2a3d
000003e0: afe7 1abd 2372 2cbd ab86 d13c 79b4 ce3b
000003f0: 12a0 afbd a545 6d3c a06e 21bd ac78 6eba
-0.025477003 -0.0035395732 0.00012149286 0.00569592 0.004193055 0.09766677 -0.066655196 0.046251036
0.0011967013 -0.0030300184 -0.00114985 0.0035464403 0.068314 -0.0051318435 -0.010319027 0.076368324
-8.259656e-05 -0.007627993 0.051026545 -0.052575514 0.029236972 0.021846352 -0.033608325 0.08107498
0.018455317 -0.009929431 0.02375041 -0.03514121 -0.0013661342 -0.06919679 -0.02324834 0.023672158
-0.044395167 0.012787853 0.0009365132 0.18529856 -0.005663609 -0.006911098 0.0027206354 0.006975059
-0.10651091 0.015766418 -0.0015288668 0.03364534 -0.038406324 -0.055478476 0.012137896 -0.011418831
0.047902472 0.003571578 -0.0053314003 -0.00023530096 -0.016150922 0.0016403778 0.03413102 -2.580044e-05
-0.024840252 -0.009818865 0.003934833 -0.014057763 0.0012366963 0.0014176451 0.01389193 0.0030649162
-0.019778501 0.013492718 0.002348704 -0.056701664 -0.0067181606 0.06014767 0.03867561 0.008940188
-0.028555075 -0.026445422 0.04127456 0.002385856 -0.009694213 0.0048411633 -0.0020872047 0.09670569
-0.068525665 -0.010459533 -0.001255767 -0.13188437 -0.06052909 -0.036145885 -0.020936763 0.0029661618
-0.06991998 0.007306473 -0.006313774 -0.036551766 0.020532554 0.00045787543 -0.04559935 -0.001986388
0.027984185 -0.037982598 -0.020585218 0.0069967345 0.12844628 -0.014954049 -0.06440118 0.0036297264
0.001163773 0.022836648 -0.005339649 -0.004183446 0.029459272 -0.08022211 0.017869955 0.0008154
0.001661325 -0.0051541217 -0.00102726 -0.0104101775 -0.005127332 0.0005396986 0.010975729 0.06431513
0.012521059 0.00089015503 -0.04286709 0.00019590434 0.065973476 0.014442295 -0.0059117978 -0.0006005188
-0.025126636 0.004203204 -0.032403167 0.11611235 0.058457974 -0.025286097 -0.022440678 0.0012419198
0.04097342 -0.07548388 -0.042561743 0.0095376745 -0.0038182233 -0.008271018 -0.001698706 -0.0038431843
-0.0117144175 -0.06850864 0.04141892 -0.0028831027 -0.06289998 -0.040873013 0.022073079 -0.0059936363
0.031863336 -0.020291781 -0.016290251 0.0010429942 0.062470425 -0.051795322 -0.025843544 0.027646573
-0.089601465 0.002792266 -0.022617858 6.6774184e-05 0.044534396 0.031732503 -0.029009512 -8.802839e-05
0.0021943212 -0.0045823157 0.011412435 -0.053992286 0.0035652814 -0.057973564 -0.005758924 -0.04497666
0.060104307 0.055593826 0.008283169 -0.019852478 -0.019363342 -0.01014794 -0.0007954372 0.07649379
-0.029616332 -0.00042991576 -0.009651924 0.07236686 -0.008779118 -0.017268574 -0.00012498345 0.065619126
0.018482743 0.056897298 -0.00236968 -0.12772432 -0.0041479613 -0.017491402 -0.019544315 -0.103423834
-0.0037552651 -0.0019704374 0.040635187 0.0058676493 0.03011052 0.029945502 -0.020507138 -0.010819224
0.015892388 -0.009196492 -0.041346174 0.086408086 -0.08060501 0.06585085 -0.07372234 -0.053473886
0.04783421 -0.004534025 -0.09698589 -0.01593818 -0.019763501 0.037187282 0.028079275 0.0075710327
0.035517342 -0.0020399396 0.0054292795 0.023382323 -0.008165035 0.0014921231 0.016872484 -0.019777698
-0.0022129915 -0.09047521 -0.002591485 0.00308865 0.10248718 -0.0024017275 0.0038347982 0.0012756434
-0.0014958797 0.03949338 -0.0047914837 -0.019426081 0.11194703 0.014657017 -0.056114625 0.041692317
-0.037818607 -0.042101037 0.02557691 0.006308135 -0.08575453 0.014481937 -0.03941214 -0.0009096961
