ai_challenge/results/simulation_DoubleDQN_DuelingRecNN_2017-05-20T11:17:03.15/20010/target_model.npz (npz, 610494 bytes, 12 tensors)

model/hidden/input_layer/b f4 [256]
0.00051275594 -0.020753345 -0.002695189 -0.009078998 -0.0061660614 0.0034629013 -0.025839677 -0.004384047
-0.0038833476 -0.0030473173 -0.0015997625 -0.0014234404 -0.0004913353 -0.0034932867 -0.020375747 0.016722236
-0.0070473338 -0.0098216105 -0.006667831 -0.014789853 -0.018901704 -0.019920044 0.0028563577 0.00031977877
0.006211129 -0.023377009 -0.015129388 -0.017826108 -0.0059570097 -0.005893653 -0.004370188 -0.017361939
-0.0058129574 -0.009558318 -0.025129465 -0.009420611 -0.02177731 0.014695684 -0.032191005 -0.0074980767
0.016685266 0.01811075 0.008780624 -0.021649774 0.008219248 -0.009219194 -0.012094292 -0.0018680249
-0.0029314929 -0.01516557 0.008031449 -0.01962896 -0.0098901605 0.0057111583 -0.017921362 -0.0060836817
-0.009602749 0.028655443 -0.0043672924 0.0016221367 -0.013339014 -0.0072539398 -0.0074973563 0.009417938
0.014495545 -0.01079001 -0.024913194 0.0048177927 -0.016679786 -0.028486706 -0.033242732 0.00077329663
-0.022914413 -0.00774098 -0.0035423303 -0.010080294 -0.03478591 0.0015012297 0.01922352 -0.012790471
-0.019091893 -0.01577442 -0.021548012 -0.0067637917 -0.007694099 -0.017838541 0.006630583 -0.022748241
-0.00847024 -0.00783975 0.0013854722 -0.0041209557 -0.007905642 0.019995283 -0.004991054 0.015644524
-0.0067909793 -0.011169762 -0.0022923958 0.013393949 -0.011915792 0.00021060515 -0.0036223195 -0.0071631293
-0.005551477 0.003599651 -0.014641744 0.0037471368 0.023918336 -0.019656865 -0.0026938387 -0.008323365
-0.0048293285 -0.02655832 0.0049265674 -0.020685395 -0.0025505705 -0.021262463 -0.014649372 -0.00067819556
-0.009259881 -0.0012624938 -0.017970316 -0.021665242 -0.01485701 -0.031669643 -0.011412415 -0.022460343
-0.020303927 0.0037747389 -0.022342019 0.005432197 0.023569966 -0.016126467 -0.021871597 0.0126974275
0.0080432 -0.013650965 -0.02089163 -0.0073193884 -0.021737697 -0.00025868538 0.0036366447 -0.003001587
-0.01042416 -0.02477689 -0.012963831 -0.01632573 -0.013441672 -0.0223834 -0.018511161 0.02266543
-0.020039512 -0.0065461006 -0.025777914 0.0091967005 0.028954217 0.020390248 -0.0018828682 -0.012157251
-0.028510291 -0.017042218 -0.01983309 -0.014088105 0.0014738841 0.012896878 -0.0058598816 -0.010727931
-0.010272444 0.004394563 0.013409954 -0.01983381 -0.022271398 -0.011815164 -0.021709101 -0.0019547588
-0.03593918 0.032447573 0.019897755 -0.014489756 -0.003001142 -0.012277329 0.002787217 -0.0059053465
0.005699934 -0.008421954 -0.009795384 -0.02258921 0.0024491947 -0.026012985 -0.011867473 -0.010934817
-0.0014117471 -0.005569279 0.004186152 0.00330424 -0.004162772 0.011907546 0.012476916 -0.0034432753
-0.004566174 -0.008595532 -0.0057977634 0.010918525 -0.013321452 0.010881206 -0.012149878 -0.0038533318
0.009257417 0.0029490865 -0.0016785371 0.020718496 0.017018469 -0.011361302 -0.01666107 -0.003916242
0.027451305 -0.028153954 -0.0075841513 0.004090793 0.0006975618 -0.0173937 -0.004432062 -0.0048649013
-0.021939758 -0.01933213 -0.024866678 -0.0071047074 -3.1513046e-05 -0.016376724 -0.01745574 0.0049200947
-0.023793109 0.012381157 -0.028221892 -0.0052858586 -0.0033321795 0.0018254119 -0.008676803 -0.006436132
-0.031191578 0.021400483 -0.016133074 -0.007759088 -0.025332155 0.03177289 -0.00039380585 -0.0080745565
-0.0017255851 -0.004780459 0.0014063162 0.007226134 -0.0025601771 0.0051228027 0.0030685507 -0.010184178
00000000: 786a 063a eb02 aabc c5a1 30bb 14c0 14bc
00000010: ac0c cabb d8f1 623b bbad d3bc 0da8 8fbb
00000020: c37f 7ebb 80b5 47bb 1faf d1ba bc92 baba
00000030: f4cc 00ba a0ef 64bb 0aeb a6bc 12fd 883c
00000040: 52ed e6bb d2ea 20bc d27d dabb 2451 72bc
00000050: bfd7 9abc 5c2f a3bc bb31 3b3b fba7 a739
00000060: ba86 cb3b 2481 bfbc 41e1 77bc 0f08 92bc
00000070: 0533 c3bb 8b1f c1bb cb33 8fbb a03a 8ebc
00000080: 9f7a bebb 7e9a 1cbc 4fdc cdbc e858 1abc
00000090: 5466 b2bc 2bc6 703c b7da 03bd 6db2 f5bb
000000a0: 8aaf 883c ff5c 943c 9bdc 0f3c de5a b1bc
000000b0: 06aa 063c 1a0c 17bc 2327 46bc 84d8 f4ba
000000c0: 4a1e 40bb 0379 78bc 5796 033c eacc a0bc
000000d0: 570a 22bc ab24 bb3b d2cf 92bc 9f59 c7bb
000000e0: d954 1dbc d2be ea3c 811b 8fbb e09d d43a
000000f0: e18b 5abc 75b2 edbb 62ac f5bb b24d 1a3c
00000100: b97e 6d3c 95c8 30bc c116 ccbc 93de 9d3b
00000110: 0ca4 88bc f45c e9bc 8829 08bd 0fb7 4a3a
00000120: 02b7 bbbc 0ca8 fdbb 7126 68bb d127 25bc
00000130: ac7b 0ebd e9c4 c43a a57a 9d3c 208f 51bc
00000140: 9a66 9cbc 5b39 81bc 7585 b0bc cca2 ddbb
00000150: c81e fcbb 2222 92bc 5d45 d93b 855a babc
00000160: c3c6 0abc 4b72 00bc bc98 b53a 1509 87bb
00000170: aa86 01bc 26cd a33c ff8b a3bb f228 803c
00000180: dd86 debb 6101 37bc 053c 16bb 4b72 5b3c
00000190: 743a 43bc e4d5 5c39 7064 6dbb afb8 eabb
000001a0: 2ae9 b5bb 1fe8 6b3b ede3 6fbc 8692 753b
000001b0: 63f0 c33c 6f07 a1bc 1d8b 30bb b95e 08bc
000001c0: 583f 9ebb d590 d9bc 0b6f a13b 6b74 a9bc
000001d0: 7927 27bb 9e2e aebc eb03 70bc efc8 31ba
000001e0: c2b6 17bc 437a a5ba 7c36 93bc 4e7b b1bc
000001f0: d16a 73bc 07b8 01bd 23fb 3abc c1fe b7bc
00000200: 6c54 a6bc 9c61 773b 9c06 b7bc 9200 b23b
00000210: cd15 c13c a71b 84bc 102c b3bc df08 503c
00000220: a0c7 033c 4ca8 5fbc ec24 abbc 7bd7 efbb
00000230: 4113 b2bc 2aa0 87b9 c654 6e3b 46b6 44bb
00000240: 19ca 2abc e8f8 cabc 4066 54bc 8abd 85bc
00000250: 753a 5cbc 645d b7bc b8a4 97bc daac b93c
00000260: e729 a4bc ac80 d6bb 342c d3bc c2ad 163c
00000270: 6531 ed3c 7309 a73c 93ca f6ba 352f 47bc
00000280: 6a8e e9bc 1f9c 8bbc 0179 a2bc ccd1 66bc
00000290: 582f c13a 6d4d 533c 4004 c0bb 34c4 2fbc
000002a0: c14d 28bc 4400 903b 6cb5 5b3c 847a a2bc
000002b0: 8272 b6bc 6494 41bc 49d7 b1bc 691b 00bb
000002c0: f634 13bd bfe7 043d 9e00 a33c 7166 6dbc
000002d0: cfae 44bb da26 49bc bea9 363b a381 c1bb
000002e0: 83c6 ba3b 3cfc 09bc d17c 20bc 020d b9bc
000002f0: ab82 203b 2f19 d5bc ca6f 42bc f227 33bc
00000300: 5f0a b9ba 807e b6bb fd2b 893b f38b 583b
00000310: dd67 88bb de17 433c fb6b 4c3c 93a8 61bb
00000320: d89f 95bb 46d4 0cbc 2afb bdbb 9de3 323c
00000330: 3842 5abc 1647 323c 4810 47bc 2e88 7cbb
00000340: 6cac 173c 7645 413b 5c02 dcba d6b9 a93c
00000350: 516a 8b3c c124 3abc cc7c 88bc d253 80bb
00000360: 8fe1 e03c 1fa3 e6bc 7984 f8bb 0f0c 863b
00000370: 94dc 363a 3c7d 8ebc d53a 91bb c069 9fbb
00000380: 02bb b3bc 6a5e 9ebc 34b5 cbbc 9bce e8bb
00000390: e02c 04b8 7b28 86bc 57ff 8ebc bf38 a13b
000003a0: c4e9 c2bc 56da 4a3c 9931 e7bc ff34 adbb
000003b0: b260 5abb a942 ef3a 2629 0ebc 30e6 d2bb
000003c0: 7b85 ffbc 1150 af3c 8229 84bc f33f febb
000003d0: 6185 cfbc 4a24 023d ba77 ceb9 254b 04bc
000003e0: 072d e2ba 66a5 9cbb 2454 b83a 35c9 ec3b
000003f0: a5c8 27bb 2fdd a73b bd19 493b 8adb 26bc

model/hidden/output_layer/b f4 [256]
0.0026324375 -0.010953248 0.012660669 -0.0073100314 -0.0053441366 -0.00372205 0.0048415833 -1.3077719e-05
0.0013534621 0.0055148355 -0.00077883666 0.0005374283 0.0007381062 0.0069360626 0.0049227653 0.0011110652
0.0003440126 -0.0045234393 0.00042417934 -0.0010131166 0.00801538 0.00021639185 -0.00022727816 -0.0027833297
0.005635505 -0.008713629 0.0020256136 0.0020869074 0.00036469378 -0.0028257933 -0.0012082095 0.0042371266
-0.003845416 0.004383257 -0.0046743313 -0.0011510244 -3.603453e-05 -0.0077461917 -0.012243859 0.0072116214
-0.0003824227 -0.0056280093 -0.005252234 -0.0050311983 -0.0023316569 -0.0031295156 0.0070954887 0.0040771435
0.0021852013 -0.0004202256 -0.0054342076 0.0029713383 0.0019009233 0.003316238 0.006945012 5.520511e-05
-0.0034484789 0.0038986516 -0.0018204525 0.0035218417 -0.02340608 -0.001172501 0.011620312 -0.004325368
-0.0032926132 0.0081181545 -0.0017166378 0.004286729 -0.007540937 0.003549538 0.004398402 0.008438864
-0.006009205 0.00478668 -0.0008028522 0.009931135 -0.015380808 -0.020395797 0.004258916 0.00052045315
0.0039475365 0.012181929 -0.0014382335 -0.001791431 -0.00040176263 -0.0032126268 -0.002249318 -0.002123483
-0.0039392607 0.008421902 -0.0014820251 0.004486795 0.008274604 0.0013662599 0.0045968746 0.007868244
-0.0022420124 -0.0030256375 0.0108678 0.0003489118 0.00016463488 0.0012466384 0.0042208456 0.00969445
-0.007347064 0.0009853286 -0.006495913 -0.0028177232 -0.0060522836 0.0027028178 -0.0051762764 -0.013538885
-0.0018682211 -0.0075441897 -0.014140605 0.008131402 0.004940976 -0.0026554007 0.013495853 0.0011078307
-0.0038067535 -0.0064787124 0.005509522 -0.008209891 0.0028806864 0.008639973 0.010898658 -0.0018499242
-0.0016431739 -0.009352817 0.0052679656 0.0011626912 -0.004909464 0.00397042 0.0003168524 -0.0059378487
0.0055699735 0.0018713209 0.0035156342 0.010402517 0.005870477 0.0049850135 -0.006069701 0.0006385776
0.008341031 0.004823427 0.002629211 0.003066081 0.0037740334 -0.00598768 0.0037776968 0.0106572425
-0.007662212 0.00608132 0.004102608 -0.02415077 0.0008961243 0.004863091 0.005133581 0.0027839898
-0.0028328896 0.0010072396 -0.0021524576 0.012285933 0.0025680247 -0.0041958676 -0.0017753241 0.0021139586
0.024401452 -0.0056169946 0.00696479 -0.0044623804 -0.0025633017 -0.0001737172 -0.0040472657 -0.0014745821
-0.0044661607 -0.0035848122 0.004137529 0.00068475807 0.0014063133 -0.0012479771 0.003681333 -0.0045559704
0.006442066 0.011733072 -0.008812458 -0.0023560456 0.00030382807 -0.00033894874 -0.0038010315 -0.0026724
0.007529195 -0.0043668984 0.008016798 0.00023227921 0.01229026 0.0032121737 0.0025754939 -0.0010088269
0.0024115928 0.0031289472 -0.0058257165 -0.006815829 -0.00030324058 0.0046730004 -0.0073890323 0.008067632
0.0054620714 0.0049271043 0.0033400788 0.0007214694 -0.0007327191 0.0005386965 -0.002902279 -0.00574466
0.003434914 -0.0028301112 -0.0029479687 0.006710498 -0.004311694 0.0041446304 0.00012249686 0.007216153
-0.0033241007 -0.0017155806 -0.0011017849 -0.0057802247 -0.0062952223 0.0070383283 -0.0035029382 0.001553768
-0.010588565 -0.0024180338 -0.0025639783 -0.0017350005 -0.003292515 0.007813767 -0.007174581 -0.0014948053
0.0030362613 -0.004799164 0.009010344 0.011319507 0.0026971605 -0.0048220106 -0.0029111018 0.0065619494
-0.002476067 0.0014262898 -0.0010087193 -0.015001651 0.0027478416 -0.0008393127 0.0042117005 0.0053021396
00000000: f984 2c3b 4075 33bc b26e 4f3c fd88 efbb
00000010: de1d afbb a3ed 73bb 25a6 9e3b 6068 5bb7
00000020: a766 b13a cbb5 b43b d82a 4cba 34e2 0c3a
00000030: 787d 413a e947 e33b 264f a13b 29a1 913a
00000040: 975c b439 5c39 94bb 6364 de39 8dca 84ba
00000050: f152 033c 3fe7 6239 8451 6eb9 8668 36bb
00000060: 0baa b83b 9cc3 0ebc 28c0 043b 7fc4 083b
00000070: 5f34 bf39 f230 39bb c95c 9eba 98d7 8a3b
00000080: 6003 7cbb 6da1 8f3b 222b 99bb f8dd 96ba
00000090: c823 17b8 c4d3 fdbb 779a 48bc 774f ec3b
000000a0: e87f c8b9 2a6b b8bb ef1a acbb c0dc a4bb
000000b0: b6ce 18bb 8f18 4dbb 4681 e83b 8f99 853b
000000c0: 9835 0f3b ba51 dcb9 7011 b2bb c9ba 423b
000000d0: 6728 f93a 3e55 593b fc92 e33b 098c 6738
000000e0: e0ff 61bb 8580 7f3b 409c eeba b3ce 663b
000000f0: 1cbe bfbc 9bae 99ba 1f63 3e3c d1bb 8dbb
00000100: e2c8 57bb 0202 053c ce00 e1ba b077 8c3b
00000110: f719 f7bb 5e9f 683b 7820 903b 2943 0a3c
00000120: dde8 c4bb 95d9 9c3b 8076 52ba 33b6 223c
00000130: c9ff 7bbc 1615 a7bc 608e 8b3b 056f 083a
00000140: 565a 813b b796 473c 1c83 bcba 73ce eaba
00000150: aba3 d2b9 ef8a 52bb 4b69 13bb 222a 0bbb
00000160: ea14 81bb 04fc 093c 8340 c2ba f705 933b
00000170: 3492 073c 1314 b33a 61a1 963b cfe9 003c
00000180: baee 12bb c649 46bb db0e 323c 26ee b639
00000190: d7a1 2c39 3e66 a33a 054f 8a3b 78d5 1e3c
000001a0: a4bf f0bb 2426 813a abdb d4bb 8da9 38bb
000001b0: 3c52 c6bb c221 313b c19d a9bb 33d2 5dbc
000001c0: 19df f4ba 4035 f7bb ffad 67bc 9239 053c
000001d0: e9e7 a13b 3b06 2ebb b61d 5d3c a134 913a
000001e0: ba7a 79bb 614b d4bb 3889 b43b c782 06bc
000001f0: e6c9 3c3b ac8e 0d3c 4990 323c 2879 f2ba
00000200: c45f d7ba 8f3c 19bc e69e ac3b 7165 983a
00000210: 92df a0bb 4c1a 823b 361f a639 4992 c2bb
00000220: 5384 b63b 1c47 f53a 8e66 663b 526f 2a3c
00000230: 215d c03b 5359 a33b 58e4 c6bb 3866 273a
00000240: d2a8 083c d70d 9e3b d74e 2c3b 4ef0 483b
00000250: c655 773b 4d34 c4bb 3c93 773b b79b 2e3c
00000260: 4b13 fbbb cf45 c73b 2c6f 863b d6d7 c5bc
00000270: e2e9 6a3a 905a 9f3b 9937 a83b 9973 363b
00000280: 00a8 39bb 5a05 843a 3f10 0dbb f04a 493c
00000290: 4e4c 283b 7d7d 89bb feb1 e8ba 578a 0a3b
000002a0: 8ee5 c73c c40e b8bb e538 e43b 2939 92bb
000002b0: 11fd 27bb db27 36b9 ed9e 84bb c446 c1ba
000002c0: df58 92bb 2bef 6abb 1c94 873b 5681 333a
000002d0: 0b54 b83a 2a93 a3ba 8542 713b 404a 95bb
000002e0: f717 d33b 123c 403c 2162 10bc e367 1abb
000002f0: 1d4b 9f39 eeb4 b1b9 ba1a 79bb 6f23 2fbb
00000300: 77b7 f63b 3318 8fbb e358 033c fa8f 7339
00000310: 165d 493c 5583 523b 9ec9 283b 9d3a 84ba
00000320: d00b 1e3b 060f 4d3b a7e5 bebb 5157 dfbb
00000330: 43fc 9eb9 f81f 993b b21f f2bb 1a2e 043c
00000340: 2dfb b23b 8c73 a13b 39e5 5a3b fe20 3d3a
00000350: f213 40ba 4f37 0d3a 2934 3ebb b33d bcbb
00000360: 4b1c 613b 6379 39bb b532 41bb bde3 db3b
00000370: 1c49 8dbb aecf 873b 8072 0039 7b75 ec3b
00000380: 28d9 59bb 55dd e0ba c469 90ba 0a68 bdbb
00000390: 2748 cebb c7a1 e63b 8d91 65bb cda7 cb3a
000003a0: a97b 2dbc e077 1ebb 6b08 28bb f568 e3ba
000003b0: 3cc7 57bb 5005 003c bf18 ebbb 58ed c3ba
000003c0: 03fc 463b 4e42 9dbb 1fa0 133c 7475 393c
000003d0: d8c2 303b f501 9ebb 2fc8 3ebb 9f05 d73b
000003e0: 8345 22bb 58f2 ba3a 0137 84ba 7cc9 75bc
000003f0: 2215 343b 5205 5cba 4e02 8a3b 92bd ad3b

model/a_stream/W f4 [3, 256]
0.044424538 -0.04828838 -0.008193712 0.0071381563 0.05734656 0.00028229126 0.0013463218 0.04490598
0.055332724 0.022599136 -0.034796957 0.001118887 0.0035944642 -0.007896521 -0.0892842 -0.07455159
0.028387243 0.10443347 0.011313479 0.033507075 0.04273881 -0.06954732 -0.21990828 0.07653265
-0.007538059 0.04056622 0.025866816 0.024139576 -0.020360485 -0.07579537 -0.08559938 0.014862632
-0.07815597 -0.0025729472 0.040778153 0.044032566 -0.03138941 -0.009381748 0.02200437 -0.0021265333
-0.0008069314 -0.031169575 -0.011299219 0.04600723 0.10689356 -0.071931966 0.014310267 0.13887163
-0.0046436526 0.049268268 0.047350135 0.017194204 0.13634174 0.022151701 0.008931133 0.020874413
0.08614091 -0.104890905 -0.0028114086 -0.0060061677 0.073504 -0.006120821 0.0031286792 -0.058481295
0.014477638 0.025516197 0.050463323 -0.042697698 -0.00997325 0.032769658 -0.02008859 -0.0012979432
0.018994935 -0.019864563 0.02342429 0.01796079 -0.030655676 0.071928725 0.057898775 -0.007531942
-0.014566547 -0.12543629 -0.034121983 0.0009860256 -0.006571706 -0.030356543 0.034241766 -0.0024291754
0.13756932 0.10349055 -0.07369213 -0.06657421 0.0043188934 -0.0053470363 -0.0486924 -0.009750131
0.21778458 0.04709009 -0.0023665503 0.017016286 -0.047759414 0.026484922 0.02048531 -0.03784054
0.028295426 -0.020447863 -0.17576846 -0.100705884 -0.035983622 -0.011192921 -0.015000759 -0.013514463
-0.005713501 0.011301811 0.029862095 -0.05476952 -0.08949812 0.027393693 -0.042393796 -0.08161105
-0.031674758 0.017052647 0.020092575 0.032695662 0.08398629 -0.048254795 -0.05946006 -0.0076472615
-0.054273363 -0.018086202 -0.14229614 0.09225996 0.0665106 -0.00014397617 0.02251358 0.038556192
0.0436341 -0.072015695 0.075386964 0.032058552 -0.0755835 -0.04726871 -0.059043627 0.0074304817
-0.013735509 0.05574963 -0.04455926 0.015001833 0.023314174 0.064263225 -0.051249325 -0.11093541
0.051221404 -0.057978835 -0.003621511 0.067679085 0.013243885 0.0028160769 0.02971348 -0.011601392
-0.010131096 -0.036833916 -0.050255343 -0.049692683 -0.00046150514 -0.035670195 -0.059412092 -0.014674828
-0.034274127 0.066113226 0.0033360338 0.0054031494 -0.013558432 -0.017892228 -0.05369063 -0.084135436
0.050166115 0.0023216591 -0.07803744 -0.047158662 0.044440243 -0.11913477 0.07113487 0.08053638
-0.020619877 0.07864895 -0.02006033 -0.045364037 -0.08763838 -0.012478476 -0.06333167 0.1113885
-0.025776308 -0.047469378 0.020555086 -0.0022425607 -0.004053451 -0.09166319 0.03915897 0.14462483
-0.01789349 0.0055161556 -0.04965246 -0.02392826 0.07207045 0.061854623 0.028358258 -0.08491187
0.02954336 -0.009939433 -0.005743607 0.037999474 0.12816109 -0.09489543 0.03552429 0.02472829
0.08252981 -0.040561568 0.11667381 0.06291504 -0.017942326 -0.008344527 0.040329676 -0.0056834863
0.039541747 -0.1117706 0.010567113 -0.07878441 0.002249866 -0.026052287 0.010265071 -0.1693943
0.009739422 -0.026893064 0.003955963 -0.045073718 -0.023362134 -0.034816973 0.0075017414 0.09494973
0.073623866 0.018469397 0.014445268 -0.042723313 -0.09539114 0.09045531 0.006722192 -0.028945994
-0.024134982 0.07451122 0.06442554 0.0042500286 -0.075721614 -0.05346429 -0.02641404 -0.0619917
00000000: 81f6 353d 09ca 45bd eb3e 06bc 32e7 e93b
00000010: 3ae4 6a3d 7e00 9439 1077 b03a 55ef 373d
00000020: 91a4 623d d321 b93c 4187 0ebd 9ea7 923a
00000030: 1a91 6b3b 6960 01bc a2da b6bd 81ae 98bd
00000040: 5d8c e83c 37e1 d53d 2c5c 393c b73e 093d
00000050: e40e 2f3d d36e 8ebd a32f 61be 26bd 9c3d
00000060: d201 f7bb c428 263d a5e6 d33c 5cc0 c53c
00000070: 08cb a6bc 9a3a 9bbd ba4e afbd 6682 733c
00000080: 3d10 a0bd e49e 28bb fe06 273d 7e5b 343d
00000090: 2f92 00bd e7b5 19bc 8242 b43c 4f5d 0bbb
000000a0: 4088 53ba 5657 ffbc 5c20 39bc 1472 3c3d
000000b0: 03eb da3d 1151 93bd 9c75 6a3c 5d34 0e3e
000000c0: c829 98bb 86cd 493d 37f2 413d dcda 8c3c
000000d0: 2b9d 0b3e 7c77 b53c e353 123c d100 ab3c
000000e0: a56a b03d 0bd1 d6bd 9c3f 38bb 63cf c4bb
000000f0: 4489 963d 2b91 c8bb 870a 4d3b 158a 6fbd
00000100: 9d33 6d3c 5807 d13c a1b2 4e3d c8e3 2ebd
00000110: d866 23bc 7a39 063d d490 a4bc bf1f aaba
00000120: 449b 9b3c 02bb a2bc 4ce4 bf3c 8222 933c
00000130: 9d21 fbbc 5e4f 933d 4427 6d3d 82ce f6bb
00000140: 87a8 6ebc 5f72 00be 7ec3 0bbd 873d 813a
00000150: 7757 d7bb 49ae f8bc 1841 0c3d cd32 1fbb
00000160: f9de 0c3e daf2 d33d e6eb 96bd 0f58 88bd
00000170: 8185 8d3b 3136 afbb af71 47bd 03bf 1fbc
00000180: ec02 5f3e 8ae1 403d 2018 1bbb bd65 8b3c
00000190: 609f 43bd e8f6 d83c cfd0 a73c affe 1abd
000001a0: cfcb e73c 4782 a7bc a6fc 33be e33e cebd
000001b0: 9063 13bd 8362 37bc bec5 75bc c46b 5dbc
000001c0: 5238 bbbb 3b2b 393c 5aa1 f43c 0156 60bd
000001d0: ca4a b7bd bd68 e03c 1ea5 2dbd b223 a7bd
000001e0: 64bd 01bd feb1 8b3c 2f99 a43c e3eb 053d
000001f0: 0101 ac3d d2a6 45bd 648c 73bd e195 fabb
00000200: bf4d 5ebd 8429 94bc 14b6 11be caf2 bc3d
00000210: b636 883d 4ff8 16b9 666e b83c 19ed 1d3d
00000220: acb9 323d f77c 93bd 7b64 9a3d d44f 033d
00000230: 86cb 9abd d69c 41bd bbd7 71bd 667b f33b
00000240: e60a 61bc b959 643d c583 36bd 40ca 753c
00000250: 5efd be3c 709c 833d d0ea 51bd 1b32 e3bd
00000260: 89cd 513d 377b 6dbd df56 6dbb 559b 8a3d
00000270: e1fc 583c ee8d 383b af69 f33c c413 3ebc
00000280: e5fc 25bc 29df 16bd 8cd8 4dbd 8e8a 4bbd
00000290: 2cf6 f1b9 e91a 12bd 185a 73bd b16e 70bc
000002a0: 0763 0cbd 5f66 873d 5ca1 5a3b e70c b13b
000002b0: 3024 5ebc b992 92bc b5ea 5bbd 334f acbd
000002c0: fc7a 4d3d fa26 183b 18d2 9fbd 7129 41bd
000002d0: f906 363d eefc f3bd 29af 913d 42f0 a43d
000002e0: 04eb a8bc b312 a13d 9055 a4bc a4cf 39bd
000002f0: c07b b3bd 8672 4cbc 09b4 81bd a71f e43d
00000300: d628 d3bc 406f 42bd 2463 a83c edf7 12bb
00000310: d0d2 84bb e9b9 bbbd 2865 203d 8818 143e
00000320: 5e95 92bc dec0 b43b 6160 4bbd 3305 c4bc
00000330: ac99 933d 465b 7d3d 944f e83c 46e6 adbd
00000340: eb04 f23c 01d9 22bc de34 bcbb 56a5 1b3d
00000350: a93c 033e 8958 c2bd eb81 113d fc92 ca3c
00000360: 6405 a93d e323 26bd aef2 ee3d 9ad9 803d
00000370: c9fb 92bc 7cb7 08bc bb30 253d 8a3c babb
00000380: 87f6 213d fce7 e4bd af21 2d3c b959 a1bd
00000390: 7d72 133b 9b6b d5bc d42e 283c b375 2dbe
000003a0: 1992 1f3c d84e dcbc 06a1 813b 389f 38bd
000003b0: f261 bfbc 3e9c 0ebd 2bd1 f53b 0175 c23d
000003c0: 1cc8 963d 224d 973c d8ab 6c3c a4fe 2ebd
000003d0: 6e5c c3bd a240 b93d d545 dc3b 2620 edbc
000003e0: bab6 c5bc 5799 983d 8af1 833d d343 8b3b
000003f0: ef13 9bbd 5ffd 5abd 4262 d8bc 02eb 7dbd

model/hidden/mid_rec_layer/upward/W f4 [80, 86]
0.992335 0.9894666 0.99244654 0.9906204 0.9900718 0.9919706 0.99175435 0.9909371
1.0 1.0 0.9966667 1.0 0.99779236 0.9977244 1.0 0.99830896
0.9986971 1.0 0.99890274 0.9991768 1.0 0.99859846 0.9990386 1.0
0.9983534 0.9991315 1.0 0.9982323 0.99856883 1.0 0.9989488 0.9988967
1.0 0.9986538 0.99892324 1.0 0.99916106 0.9977689 1.0 0.9989012
0.9983253 1.0 0.9980642 0.99764746 1.0 0.9985409 0.99835366 0.99815905
0.99794644 0.99811524 0.9982571 0.99913794 0.9990439 0.99822444 0.9974219 0.9985337
1.0 0.99798214 0.9979334 1.0 0.9984976 0.9988656 0.9952945 0.9981641
0.9986214 0.9933233 0.999343 0.99900126 0.99535364 0.9987422 0.9982897 1.0
0.9984076 0.9989337 1.0 0.9986844 0.9979699 0.9940404 0.9979867 0.9985747
0.99491096 0.99880856 0.9983577 0.9956762 0.9982881 0.99741286 0.92293817 0.9131124
0.9222011 0.91845953 0.9201284 0.9145759 0.9110503 0.92133576 1.0 1.0
0.9216774 1.0 0.9539338 0.9580343 1.0 0.9627835 0.9643842 1.0
0.9716197 0.9728774 1.0 0.96250457 0.9708493 1.0 0.9629456 0.97502875
1.0 0.9647569 0.9635637 1.0 0.97805846 0.9734679 1.0 0.9725921
0.9707038 1.0 0.9704478 0.96057475 1.0 0.9713905 0.9594454 1.0
0.960248 0.95446765 1.0 0.96518785 0.96524316 0.9626199 0.9579235 0.96142745
0.9663122 0.97087854 0.97185814 0.9659614 0.9519357 0.9675012 1.0 0.95381147
0.9591754 1.0 0.9670366 0.96647406 0.9371299 0.9636761 0.9697617 0.92825943
0.97947663 0.9750243 0.9334556 0.9694352 0.96158713 1.0 0.9614412 0.9719978
1.0 0.9671539 0.95920706 0.9323012 0.9603459 0.96335566 0.9297813 0.97199035
0.9657191 0.92987984 0.96293616 0.95611936 1.0 1.0 1.0 1.0
1.0 1.0 1.0 1.0 1.0 1.0 1.0 1.0
1.0 1.0 1.0 1.0 1.0 1.0 1.0 1.0
1.0 1.0 1.0 1.0 1.0 1.0 1.0 1.0
1.0 1.0 1.0 1.0 1.0 1.0 1.0 1.0
1.0 1.0 1.0 1.0 1.0 1.0 1.0 1.0
1.0 1.0 1.0 1.0 1.0 1.0 1.0 1.0
1.0 1.0 1.0 1.0 1.0 1.0 1.0 1.0
1.0 1.0 1.0 1.0 1.0 1.0 1.0 1.0
1.0 1.0 1.0 1.0 1.0 1.0 1.0 1.0
1.0 1.0 1.0 1.0 1.0 1.0 1.0 1.0
00000000: ab09 7e3f af4d 7d3f fa10 7e3f 4c99 7d3f
00000010: 5875 7d3f c9f1 7d3f 9de3 7d3f 0eae 7d3f
00000020: 0000 803f 0000 803f 8d25 7f3f 0000 803f
00000030: 526f 7f3f de6a 7f3f 0000 803f 2d91 7f3f
00000040: 9daa 7f3f 0000 803f 17b8 7f3f 0dca 7f3f
00000050: 0000 803f 26a4 7f3f fec0 7f3f 0000 803f
00000060: 1794 7f3f 15c7 7f3f 0000 803f 278c 7f3f
00000070: 35a2 7f3f 0000 803f 1cbb 7f3f b2b7 7f3f
00000080: 0000 803f c7a7 7f3f 6fb9 7f3f 0000 803f
00000090: 05c9 7f3f c86d 7f3f 0000 803f fdb7 7f3f
000000a0: 3f92 7f3f 0000 803f 2381 7f3f d365 7f3f
000000b0: 0000 803f 60a0 7f3f 1b94 7f3f 5a87 7f3f
000000c0: 6b79 7f3f 7b84 7f3f c78d 7f3f 81c7 7f3f
000000d0: 57c1 7f3f a38b 7f3f 0b57 7f3f e89f 7f3f
000000e0: 0000 803f c27b 7f3f 9078 7f3f 0000 803f
000000f0: 8a9d 7f3f a8b5 7f3f 9fcb 7e3f af87 7f3f
00000100: a7a5 7f3f 704a 7e3f f1d4 7f3f 8cbe 7f3f
00000110: 7fcf 7e3f 92ad 7f3f ea8f 7f3f 0000 803f
00000120: a497 7f3f 1eba 7f3f 0000 803f c8a9 7f3f
00000130: f57a 7f3f 6f79 7e3f 0e7c 7f3f 97a2 7f3f
00000140: 7cb2 7e3f ebb1 7f3f 5f94 7f3f a3e4 7e3f
00000150: cf8f 7f3f 7356 7f3f ad45 6c3f bcc1 693f
00000160: 5f15 6c3f 2a20 6b3f 898d 6b3f a521 6a3f
00000170: 983a 693f a9dc 6b3f 0000 803f 0000 803f
00000180: 0df3 6b3f 0000 803f 0135 743f bc41 753f
00000190: 0000 803f fb78 763f e2e1 763f 0000 803f
000001a0: 12bc 783f 7e0e 793f 0000 803f b366 763f
000001b0: 9489 783f 0000 803f 9a83 763f 7c9b 793f
000001c0: 0000 803f 4ffa 763f 1cac 763f 0000 803f
000001d0: 0a62 7a3f 3135 793f 0000 803f ccfb 783f
000001e0: 0b80 783f 0000 803f 446f 783f 3ae8 753f
000001f0: 0000 803f 0cad 783f 379e 753f 0000 803f
00000200: d0d2 753f fe57 743f 0000 803f 8d16 773f
00000210: 2d1a 773f 426e 763f 793a 753f 1c20 763f
00000220: 3d60 773f 7f8b 783f b2cb 783f 3f49 773f
00000230: 0fb2 733f 29ae 773f 0000 803f fd2c 743f
00000240: 858c 753f 0000 803f b68f 773f d86a 773f
00000250: bfe7 6f3f 7ab3 763f 4e42 783f 69a2 6d3f
00000260: fbbe 7a3f 319b 793f f2f6 6e3f e82c 783f
00000270: 932a 763f 0000 803f 0321 763f d9d4 783f
00000280: 0000 803f 6697 773f 988e 753f 4bab 6e3f
00000290: 3bd9 753f 7a9e 763f 2606 6e3f 5cd4 783f
000002a0: 5e39 773f 9b0c 6e3f fc82 763f 3dc4 743f
000002b0: 0000 803f 0000 803f 0000 803f 0000 803f
000002c0: 0000 803f 0000 803f 0000 803f 0000 803f
000002d0: 0000 803f 0000 803f 0000 803f 0000 803f
000002e0: 0000 803f 0000 803f 0000 803f 0000 803f
000002f0: 0000 803f 0000 803f 0000 803f 0000 803f
00000300: 0000 803f 0000 803f 0000 803f 0000 803f
00000310: 0000 803f 0000 803f 0000 803f 0000 803f
00000320: 0000 803f 0000 803f 0000 803f 0000 803f
00000330: 0000 803f 0000 803f 0000 803f 0000 803f
00000340: 0000 803f 0000 803f 0000 803f 0000 803f
00000350: 0000 803f 0000 803f 0000 803f 0000 803f
00000360: 0000 803f 0000 803f 0000 803f 0000 803f
00000370: 0000 803f 0000 803f 0000 803f 0000 803f
00000380: 0000 803f 0000 803f 0000 803f 0000 803f
00000390: 0000 803f 0000 803f 0000 803f 0000 803f
000003a0: 0000 803f 0000 803f 0000 803f 0000 803f
000003b0: 0000 803f 0000 803f 0000 803f 0000 803f
000003c0: 0000 803f 0000 803f 0000 803f 0000 803f
000003d0: 0000 803f 0000 803f 0000 803f 0000 803f
000003e0: 0000 803f 0000 803f 0000 803f 0000 803f
000003f0: 0000 803f 0000 803f 0000 803f 0000 803f

model/hidden/mid_layer/W f4 [256, 256]
0.042446237 -0.05284702 -0.16812043 0.0043348987 0.025533583 -0.070251495 0.014649806 -0.017328566
-0.074469395 -0.07863938 -0.025349807 -0.07866419 -0.017086748 -0.002936491 -0.0033774737 -0.03588467
-0.08162203 -0.05837254 0.023668088 0.05093477 -0.020582478 -0.051560212 -0.07620729 0.04171478
-0.061303224 -0.06268439 -0.09489984 -0.060953133 -0.039828204 0.07529023 -0.06321918 0.036134142
0.01897637 0.035866953 -0.001503463 0.029865414 0.004087687 0.05088993 -0.015440037 0.08216644
0.07640519 -0.032420587 -0.14727777 -0.084167056 0.004866543 0.1071968 0.02136364 -0.04062306
0.12529877 0.08068241 -0.0727868 0.034663964 0.03466623 0.026880074 0.0052730227 -0.054761328
0.1329529 0.01843323 -0.061299276 -0.010523834 0.029261313 -0.02296874 0.19753757 -0.012425833
0.13454342 0.05918664 -0.08735798 -0.013462227 0.049985476 0.01137602 0.013517367 -0.17234913
0.011523812 -0.040171225 -0.07665929 0.10870993 0.009786829 -0.033995707 0.021549964 0.11708558
0.011372836 -0.027985701 -0.04926003 0.05641182 -0.010898835 0.006580415 -0.11055854 0.018335901
-0.070824794 -0.032379627 0.08223325 -0.030312689 -0.0049932078 0.032802798 -0.031282887 -0.06529833
-0.0046839486 -0.14506693 -0.038601264 -0.06228935 0.03167824 -0.04206182 0.028698042 -0.0013873487
0.041894138 0.063099906 0.033479623 -0.05544064 0.10589507 0.10198711 -0.027341202 0.012122973
-0.05961146 -0.039986193 -0.037077285 -0.028959148 -0.06051563 0.09525792 -0.032808084 0.057582524
0.0060510924 0.023232166 -0.003973341 -0.009225009 -0.03672045 0.057941798 -0.04768503 -0.06455403
0.049696412 0.043060385 0.022802502 0.014707704 -0.027260441 0.023746962 -0.058832403 -0.002988036
-0.0161446 0.031835377 0.03777022 -0.09111609 0.02831589 0.0439016 -0.056403972 -0.030558052
-0.023338897 0.0013356633 0.02562178 -0.037617743 -0.011673964 0.05247026 -0.059166756 0.0058593964
-0.10637202 0.02623008 0.011165429 -0.011193632 -0.038833298 -0.010004268 -0.02423419 0.036173917
0.007767105 -0.11136412 0.01654574 -0.0035823032 0.0535159 -0.058626395 -0.06048895 -0.09590547
0.024720255 0.05301201 -0.072942615 0.074133836 0.10703047 0.026238354 -0.002523083 0.03044113
0.022673924 -0.05159839 -0.050272074 -0.0450513 -0.10753267 -0.11112794 -0.031173145 0.010776056
0.06947257 -0.10127177 0.04397082 0.10562891 0.05606496 0.045904256 0.03802094 0.05207067
0.030718653 0.02313 0.011149128 0.02345746 -0.09520354 -0.079220414 0.009432265 -0.009718352
0.0018144345 -0.10401939 0.01209471 -0.023062503 0.04267968 -0.014242888 0.022090761 0.037733324
-0.029885521 -0.09608566 -0.113952935 0.020377053 -0.080199316 -0.11153724 0.017710803 0.084929995
-0.0125279315 0.14274557 -0.057906903 0.012061796 -0.03740561 0.04305293 0.009858535 -0.0146141965
-0.006902231 -0.035707485 0.09919595 -0.060401294 0.012210676 0.026693193 -0.10228034 -0.06240884
-0.06705244 -0.029281579 0.067419246 0.0404356 -0.09294408 -0.045115285 -0.009960613 0.04712143
0.11349386 -0.043886162 0.056510452 -0.06072282 -0.04597549 -0.03573957 0.016382322 0.024346719
0.03091083 -0.06447533 0.10179186 -0.013810319 -0.09444931 -0.030600958 0.022739671 0.061812572
00000000: 1bdc 2d3d 1e76 58bd c327 2cbe c40b 8e3b
00000010: ce2b d13c 04e0 8fbd bd05 703c a3f4 8dbc
00000020: 6983 98bd af0d a1bd 66aa cfbc b11a a1bd
00000030: 82f9 8bbc 2572 40bb 9b58 5dbb cefb 12bd
00000040: 7329 a7bd 0b18 6fbd 94e3 c13c faa0 503d
00000050: 969c a8bc cd30 53bd 9112 9cbd 1edd 2a3d
00000060: 1719 7bbd ac60 80bd d95a c2bd fea9 79bd
00000070: e622 23bd c431 9a3d 0f79 81bd 6501 143d
00000080: 5574 9b3c 3ae9 123d d90f c5ba 50a8 f43c
00000090: 01f2 853b f671 503d 35f8 7cbc e146 a83d
000000a0: 537a 9c3d 73cb 04bd fccf 16be c75f acbd
000000b0: 8677 9f3b ff89 db3d cd02 af3c 5e64 26bd
000000c0: 524e 003e d23c a53d 3f11 95bd cdfb 0d3d
000000d0: 2dfe 0d3d 9a33 dc3c 52c9 ac3b 6a4d 60bd
000000e0: ce24 083e 4901 973c f314 7bbd 296c 2cbc
000000f0: 6cb5 ef3c f028 bcbc 4a47 4a3e b995 4bbc
00000100: c0c5 093e b16d 723d bee8 b2bd ac90 5cbc
00000110: 92bd 4c3d 7c62 3a3c f277 5d3c 4a7c 30be
00000120: 5fce 3c3c 958a 24bd 8cff 9cbd 50a3 de3d
00000130: f058 203c 153f 0bbd 8d89 b03c 91ca ef3d
00000140: 2255 3a3c 4542 e5bc e3c4 49bd 1510 673d
00000150: 0791 32bc 86a0 d73b 846c e2bd 2c35 963c
00000160: 970c 91bd 80a0 04bd e869 a83d 5152 f8bc
00000170: 109e a3bb 3a5c 063d 7c22 00bd 21bb 85bd
00000180: cf7b 99bb 6d8c 14be 5c1c 1ebd 1e23 7fbd
00000190: 0bc1 013d 0449 2cbd 2818 eb3c b3d7 b5ba
000001a0: 3099 2b3d 863a 813d ee21 093d b915 63bd
000001b0: 84df d83d 9ede d03d a8fa dfbc 6f9f 463c
000001c0: 252b 74bd 90c8 23bd 5ade 17bd bc3b edbc
000001d0: 3ddf 77bd 9616 c33d c561 06bd a7db 6b3d
000001e0: 3e48 c63b 6251 be3c cd32 82bb 7e24 17bc
000001f0: 2f68 16bd 6154 6d3d 6151 43bd e734 84bd
00000200: 778e 4b3d 1660 303d 50cc ba3c 95f8 703c
00000210: 4a51 dfbc fd88 c23c 3ffa 70bd edd2 43bb
00000220: ae41 84bc d065 023d f2b4 1a3d 139b babd
00000230: baf6 e73c 2ad2 333d da07 67bd e154 fabc
00000240: 3731 bfbc 6c11 af3a c4e4 d13c 1015 1abd
00000250: 2744 3fbc 0eeb 563d d758 72bd 2e00 c03b
00000260: 93d9 d9bd 77e0 d63c 34ef 363c 7f65 37bc
00000270: aa0f 1fbd f1e8 23bc c886 c6bc 1a2b 143d
00000280: 3383 fe3b df12 e4bd ef8a 873c 13c5 6abb
00000290: 7d33 5b3d 3b22 70bd 43c3 77bd 166a c4bd
000002a0: 2282 ca3c 1f23 593d f062 95bd 7bd3 973d
000002b0: cb32 db3d d1f1 d63c 4f5a 25bb ad5f f93c
000002c0: aabe b93c d558 53bd 17ea 4dbd b687 38bd
000002d0: 173a dcbd 0c97 e3bd d35e ffbc 0e8e 303c
000002e0: a347 8e3d 9367 cfbd bf1a 343d f853 d83d
000002f0: 5fa4 653d 1a06 3c3d d8bb 1b3d 0e48 553d
00000300: afa5 fb3c 207b bd3c d5aa 363c dc29 c03c
00000310: 13fa c2bd 503e a2bd c989 1a3c b939 1fbc
00000320: 52d2 ed3a 1e08 d5bd e428 463c 93ed bcbc
00000330: e3d0 2e3d 015b 69bc aff7 b43c 428e 1a3d
00000340: 7bd2 f4bc 8fc8 c4bd 2860 e9bd c7ed a63c
00000350: 8a3f a4bd a36d e4bd 3f16 913c c7ef ad3d
00000360: f441 4dbc e52b 123e ca2f 6dbd d79e 453c
00000370: a036 19bd 4558 303d b185 213c 6270 6fbc
00000380: 1c2c e2bb 0342 12bd 3f27 cb3d 5967 77bd
00000390: 4a0f 483c afab da3c 5b78 d1bd 69a0 7fbd
000003a0: ca52 89bd ecdf efbc 1a13 8a3d cd9f 253d
000003b0: 7759 bebd ceca 38bd d731 23bc 6702 413d
000003c0: 786f e83d fac1 33bd 8177 673d 7eb8 78bd
000003d0: cc50 3cbd a863 12bd 3834 863c c572 c73c
000003e0: b538 fd3c a40b 84bd 4078 d03d ad44 62bc
000003f0: a46e c1bd dcae fabc 8c48 ba3c 2e2f 7d3d

model/a_stream/b f4 [3]
-0.0006482001 0.0037806027 -0.0012433544
00000000: f9eb 29ba fdc3 773b 0df8 a2ba

model/hidden/mid_rec_layer/upward/b f4 [80]
-0.027989082 -0.104147 1.0 -0.105176605 -0.030171793 -0.08597071 1.0 -0.088582
0.011618809 0.019744255 1.0 0.027160168 0.004302752 0.009295697 1.0 0.017124576
0.01858611 0.026962768 1.0 0.034017734 -0.0140951965 -0.033997003 1.0 -0.028913474
0.009993772 0.01773001 1.0 0.02520863 -0.012456307 -0.04155782 1.0 -0.035131443
0.011467728 0.01853879 1.0 0.024986936 -0.031090219 -0.055367418 1.0 -0.061111618
-0.03403243 -0.051893447 1.0 -0.05822086 -0.013645784 -0.037641834 1.0 -0.03069294
-0.011325485 -0.03314012 1.0 -0.02831573 -0.017266085 -0.06936096 1.0 -0.066188544
-0.017378973 -0.0510959 1.0 -0.0457982 -0.024202745 -0.06236222 1.0 -0.061520062
-0.028839238 -0.09292839 1.0 -0.09631745 -0.017342655 -0.05606473 1.0 -0.05302574
0.0051624924 0.011150613 1.0 0.019380607 -0.021744225 -0.05739815 1.0 -0.05511441
00000000: 5c49 e5bc 064b d5bd 0000 803f d566 d7bd
00000010: d62a f7bc 6911 b0bd 0000 803f 7b6a b5bd
00000020: d15c 3e3c b4be a13c 0000 803f 007f de3c
00000030: 1afe 8c3b fb4c 183c 0000 803f d748 8c3c
00000040: e641 983c 06e1 dc3c 0000 803f 2e56 0b3d
00000050: 8aef 66bc 7140 0bbd 0000 803f f3db ecbc
00000060: ebbc 233c 873e 913c 0000 803f 5482 ce3c
00000070: 8a15 4cbc 8838 2abd 0000 803f fde5 0fbd
00000080: 23e3 3b3c a9de 973c 0000 803f 67b1 cc3c
00000090: eab0 febc f2c8 62bd 0000 803f 2d50 7abd
000000a0: 9765 0bbd 398e 54bd 0000 803f ff78 6ebd
000000b0: 9192 5fbc 532e 1abd 0000 803f c36f fbbc
000000c0: 878e 39bc efbd 07bd 0000 803f 64f6 e7bc
000000d0: 9b71 8dbc 1e0d 8ebd 0000 803f dc8d 87bd
000000e0: 595e 8ebc ef49 51bd 0000 803f e596 3bbd
000000f0: d644 c6bc 876f 7fbd 0000 803f 76fc 7bbd
00000100: 4440 ecbc 3d51 bebd 0000 803f 1542 c5bd
00000110: 2f12 8ebc 21a4 65bd 0000 803f 8531 59bd
00000120: 202a a93b 10b1 363c 0000 803f 14c4 9e3c
00000130: f220 b2bc 531a 6bbd 0000 803f a6bf 61bd

model/hidden/input_layer/W f4 [256, 86]
-0.06531227 0.030036815 -0.0692682 -0.03900966 -0.02558143 -0.027504079 -0.0024115685 -0.151962
0.013212503 0.21161214 0.073230825 -0.18614843 -0.05576312 -0.010120796 -0.002808519 -0.092113584
0.043545615 -0.040026467 0.020306967 0.039810993 0.03415667 0.12536527 0.049068153 0.14269176
0.10549697 -0.010298824 -0.055640336 0.08143451 0.033921745 -0.008262384 0.084259935 0.01277235
0.09208539 -0.060138706 0.143319 -0.006456041 0.07375531 -0.040901124 0.032432362 0.02918723
0.11522561 -0.0089156665 -0.11518353 0.048243485 -0.111028805 -0.1514465 0.100024015 -0.02113663
-0.04632597 -0.019864589 -0.0011690209 -0.0020094116 -0.06289424 -0.074047446 -0.14186405 -0.012435635
-0.099720135 -0.049492333 0.15469596 0.04531812 -0.017472014 -0.22319002 0.16065468 0.048569392
0.028699623 -0.074534334 0.106117085 -0.06087075 -0.24021696 0.19029066 0.21980174 -0.22035268
-0.060302008 -0.11718825 -0.0031733275 -0.06678191 -0.11786946 0.0588957 -0.13812387 0.18597881
-0.0060281823 0.19496293 -0.0038066753 0.013546407 0.07532718 0.025325896 0.004444815 0.020000646
-0.1507104 -0.05376642 -0.12247902 -0.07218925 0.04876937 -0.2397701 0.28723094 -0.1296232
-0.12252337 0.13442238 0.0018265299 0.16170865 -0.10047255 0.026112791 0.13724425 -0.04500315
-0.08515171 -0.074356176 0.1964163 0.013084495 0.052857537 0.1333892 -0.18326856 -0.061285857
-0.0029326528 -0.10283656 0.10219808 0.08422452 -0.030731065 -0.0768209 -0.08847886 0.043948032
-0.15693882 -0.22803366 0.09355468 0.14675684 -0.17260933 0.023420192 -0.060442585 -0.050015397
-0.016941976 -0.13112582 0.0014784439 -0.022885628 -0.12530264 0.32710814 -0.035343155 0.15525727
-0.02414999 0.08847969 -0.15826038 -0.011247989 0.031142728 0.10546839 -0.23843895 -0.026685175
0.06382396 0.14165048 0.14338045 -0.3021826 0.2049773 0.004688928 0.03141465 -0.08364184
0.13690433 0.017897679 0.16354467 0.05642721 -0.050266996 -0.13083366 -0.017239228 -0.043264538
0.005028535 -0.093490124 -0.04537683 0.19905567 -0.12218947 0.048452497 -0.17358589 0.25527507
0.0449601 -0.014703659 -0.017455507 -0.062236644 -0.012862779 0.20465434 0.07617402 -0.06180182
0.17607588 0.0542683 -0.14135398 0.0789733 -0.06628447 -0.0050476543 -0.22290926 -0.0077557666
-0.10972162 0.039052404 -0.14386903 -0.023349622 -0.075239725 0.074806504 -0.21693127 -0.14073919
0.108056605 0.12156327 -0.06383977 -0.031234832 0.23505187 -0.02572022 0.09268896 0.09712744
0.23869123 0.041961692 -0.17016037 -0.0631234 -0.039865978 -0.04246814 0.0023704155 -0.07144381
0.18042372 0.029661374 -0.021602822 0.13007306 0.1182763 -0.110894024 -0.19310483 -0.03377739
0.1153058 -0.111222655 -0.21404535 0.012547981 0.011232902 0.02230199 0.020730324 0.12232158
-0.032483567 -0.12019996 0.07133917 -0.014021652 0.07501588 -0.08340681 -0.041024107 -0.06032637
-0.06522923 -0.18757501 -0.09609079 0.07984734 0.036382537 0.023757992 0.0006457674 -0.047425818
-0.026117641 0.023808733 -0.036523998 -0.016478706 -0.12135345 0.02263914 -0.10993496 0.13539174
-0.06454614 -0.05442618 0.031834595 -0.12416711 0.11746806 0.098760664 -0.09061885 0.061258648
00000000: 70c2 85bd c40f f63c 7cdc 8dbd 98c8 1fbd
00000010: 2690 d1bc 3c50 e1bc 680b 1ebb ed9b 1bbe
00000020: 4179 583c dab0 583e 0bfa 953d b29d 3ebe
00000030: df67 64bd b2d1 25bc 210f 38bb 0ca6 bcbd
00000040: e35c 323d cbf2 23bd cc5a a63c da10 233d
00000050: dde7 0b3d c15f 003e b0fb 483d ca1d 123e
00000060: cc0e d83d 66bc 28bc 1fe7 63bd 23c7 a63d
00000070: 87f1 0a3d f35e 07bc 7990 ac3d 1e43 513c
00000080: 4497 bc3d 0154 76bd 37c2 123e 328d d3bb
00000090: 060d 973d f087 27bd ccd7 043d 0f1a ef3c
000000a0: 68fb eb3d 0413 12bc 58e5 ebbd f69a 453d
000000b0: 1263 e3bd cb14 1bbe 64d9 cc3d ba26 adbc
000000c0: 4dc0 3dbd 10bb a2bc d539 99ba 55b0 03bb
000000d0: b2ce 80bd 30a6 97bd cf44 11be d5be 4bbc
000000e0: 123a ccbd 79b8 4abd 9e68 1e3e 7e9f 393d
000000f0: 7821 8fbc ed8b 64be a982 243e b3f0 463d
00000100: 791b eb3c 75a5 98bd ea53 d93d 9c53 79bd
00000110: 6ffb 75be 8edb 423e b513 613e 22a4 61be
00000120: 3dff 76bd 6500 f0bd 9af7 4fbb f4c4 88bd
00000130: 8b65 f1bd 9e3c 713d 5870 0dbe 3b71 3e3e
00000140: 0f88 c5bb 5da4 473e 6a79 79bb c0f1 5d3c
00000150: 2345 9a3d 4178 cf3c d0a5 913b 65d8 a33c
00000160: d453 1abe 2d3a 5cbd 48d6 fabd f5d7 93bd
00000170: 64c2 473d 4b86 75be ef0f 933e f2bb 04be
00000180: 88ed fabd 05a6 093e 2c68 ef3a f496 253e
00000190: 8dc4 cdbd 7eea d53c c289 0c3e 3955 38bd
000001a0: 0564 aebd 0d48 98bd 5b21 493e 5a60 563c
000001b0: 2581 583d 2e97 083e c1aa 3bbe e106 7bbd
000001c0: c031 40bb f99b d2bd 3a4d d13d e87d ac3d
000001d0: b7bf fbbc 4754 9dbd 6834 b5bd da02 343d
000001e0: 92b4 20be a881 69be 9999 bf3d 6d47 163e
000001f0: 80c0 30be b4db bf3c a592 77bd f2dc 4cbd
00000200: e6c9 8abc d945 06be 58c8 c13a a47a bbbc
00000210: 564f 00be b87a a73e fcc3 10bd c3fb 1e3e
00000220: 33d6 c5bc d734 b53d 020f 22be 7c49 38bc
00000230: 091f ff3c d0ff d73d 5729 74be de9a dabc
00000240: 23b6 823d d30c 113e 53d2 123e aeb7 9abe
00000250: 92e5 513e 94a5 993b a6ac 003d 6a4c abbd
00000260: a630 0c3e 279e 923c 4178 273e 3820 673d
00000270: c4e4 4dbd 42f9 05be 4839 8dbc 2836 31bd
00000280: 69c6 a43b c077 bfbd 0edd 39bd 40d5 4b3e
00000290: 793e fabd 2076 463d 80c0 31be 6ab3 823e
000002a0: 1528 383d 9ee7 70bc dafe 8ebc daeb 7ebd
000002b0: 68be 52bc e890 513e 2001 9c3d e823 7dbd
000002c0: 3c4d 343e 7048 5e3d 19bf 10be c1bc a13d
000002d0: 27c0 87bd cb66 a5bb 5342 64be 1624 febb
000002e0: bbb5 e0bd 6af5 1f3d 6752 13be b547 bfbc
000002f0: 4917 9abd 2734 993d 3b23 5ebe ef1d 10be
00000300: c84c dd3d 2af6 f83d 6dbe 82bd 31e0 ffbc
00000310: 70b1 703e 36b3 d2bc b6d3 bd3d c0ea c63d
00000320: 796b 743e 06e0 2b3d 853e 2ebe d746 81bd
00000330: 824a 23bd 13f3 2dbd f958 1b3b 2251 92bd
00000340: ffc0 383e 69fc f23c 67f8 b0bc df31 053e
00000350: d83a f23d 681c e3bd 46bd 45be 295a 0abd
00000360: 7325 ec3d b4c8 e3bd b42e 5bbe 0c96 4d3c
00000370: 350a 383c aab2 b63c a4d2 a93c bd83 fa3d
00000380: 7d0d 05bd 662b f6bd 451a 923d 12bb 65bc
00000390: eda1 993d 31d1 aabd e508 28bd c918 77bd
000003a0: e796 85bd aa13 40be 40cb c4bd 0187 a33d
000003b0: db05 153d 1fa0 c23c b748 293a 9341 42bd
000003c0: aaf4 d5bc 880a c33c 309a 15bd 5afe 86bc
000003d0: 2888 f8bd b875 b93c 9525 e1bd 22a4 0a3e
000003e0: c430 84bd fced 5ebd fe64 023d 534b febd
000003f0: 1893 f03d 0843 ca3d 6096 b9bd 59ea 7a3d

model/v_stream/W f4 [1, 256]
-0.025548667 -0.0035273824 0.00013054947 0.005690851 0.004206967 0.09771779 -0.06669519 0.0462349
0.0011592488 -0.003060746 -0.0011400521 0.003520426 0.06830976 -0.0051466296 -0.010271693 0.07635733
-0.000114685114 -0.0076315496 0.051052216 -0.05256213 0.029225996 0.021851359 -0.033588026 0.08112899
0.01844322 -0.009951773 0.023744207 -0.03522537 -0.0013363791 -0.06919375 -0.023267703 0.023651225
-0.04441452 0.012817648 0.000862667 0.18534552 -0.005640523 -0.006923649 0.002710527 0.0069820904
-0.10650753 0.015804654 -0.0015309012 0.03369687 -0.038398102 -0.055471737 0.012122775 -0.011454381
0.04789707 0.0035723923 -0.005358765 -0.00023469771 -0.01620182 0.0016121515 0.034109086 -2.4025292e-05
-0.0248366 -0.009857423 0.0039128345 -0.014111719 0.0012443938 0.0014122876 0.013882921 0.0030944608
-0.01975549 0.013492037 0.002381478 -0.05676157 -0.0066944053 0.060141128 0.03870004 0.008957884
-0.028564379 -0.026495669 0.041357484 0.0023827953 -0.009685709 0.0048437105 -0.0021423623 0.0966849
-0.06857874 -0.010477234 -0.0012411003 -0.13188785 -0.060526486 -0.03613172 -0.020954562 0.0029492911
-0.06991861 0.007301837 -0.0062920544 -0.03659846 0.020537144 0.00041916285 -0.045659803 -0.0019469719
0.027993621 -0.037977837 -0.020619651 0.0069668232 0.12842694 -0.015001547 -0.06445669 0.003658314
0.0011747865 0.022878766 -0.0053142253 -0.0041536335 0.029498333 -0.08026715 0.017903823 0.00080966606
0.0016434533 -0.0051917396 -0.0010285741 -0.010431711 -0.0051083304 0.00047151398 0.01098163 0.06430612
0.012570595 0.0008614984 -0.042909823 0.00018803866 0.06599006 0.014483589 -0.0059448355 -0.00059609604
-0.02513518 0.0042301435 -0.032442264 0.116173714 0.0584975 -0.025336936 -0.022516917 0.0012237224
0.040957645 -0.07554952 -0.04260131 0.009531105 -0.0038247565 -0.008215474 -0.0016810492 -0.0038655184
-0.0117469495 -0.06855118 0.041408945 -0.0028840029 -0.06295806 -0.04087444 0.022094136 -0.0059339753
0.03190656 -0.020319242 -0.016333422 0.0010208106 0.062482532 -0.051832225 -0.02589288 0.027682053
-0.089584626 0.0028044612 -0.02259387 0.000115040464 0.044604484 0.031784177 -0.029010093 -9.0073285e-05
0.0022057053 -0.0045765312 0.011409675 -0.05399316 0.0036040114 -0.058025513 -0.0057572103 -0.044982094
0.06014948 0.055649634 0.008273569 -0.019882374 -0.01943867 -0.01015845 -0.000841313 0.07654757
-0.029652825 -0.00046045028 -0.009636203 0.072422765 -0.008765987 -0.017316539 -8.612228e-05 0.06567053
0.018467277 0.056934476 -0.0024020632 -0.12771888 -0.004158313 -0.01753471 -0.019599292 -0.10340432
-0.0036949944 -0.0020121553 0.04067204 0.005902501 0.030171761 0.029951492 -0.020527204 -0.010834256
0.015906977 -0.009243203 -0.04141617 0.08639392 -0.0806007 0.065863915 -0.07372878 -0.053465027
0.047841698 -0.004527099 -0.096967846 -0.015981372 -0.01977696 0.03720384 0.028101427 0.007553268
0.035573743 -0.0020357221 0.005407687 0.023422481 -0.008194611 0.0014949468 0.016919654 -0.019810842
-0.0021972568 -0.090501346 -0.0025869026 0.0031490985 0.10254781 -0.002392706 0.003808778 0.0012685508
-0.0015000489 0.039532166 -0.0047715325 -0.01946177 0.11194091 0.014687622 -0.056100883 0.041685425
-0.03781287 -0.04216701 0.025626734 0.006332753 -0.08580901 0.014539395 -0.0394552 -0.0008596761
00000000: 704b d1bc a82b 67bb 1be4 0839 517a ba3b
00000010: 99da 893b 4420 c83d 7d97 88bd ce60 3d3d
00000020: eff1 973a cc96 48bb cd6d 95ba f3b6 663b
00000030: fde5 8b3d 0fa5 a8bb 9a4a 28bc 3b61 9c3d
00000040: 1a83 f0b8 1412 fabb 211c 513d 634b 57bd
00000050: 5b6b ef3c 9f01 b33c 9993 09bd f526 a63d
00000060: 3c16 973c c30c 23bc 3683 c23c 7a48 10bd
00000070: 7129 afba 74b5 8dbd e99b bebc 37c0 c13c
00000080: 00ec 35bd 1d01 523c 9a24 623a 37cb 3d3e
00000090: 23d4 b8bb c7df e2bb 19a3 313b 05ca e43b
000000a0: 9f20 dabd c378 813c 85a8 c8ba bb05 0a3d
000000b0: 5447 1dbd 5536 63bd 9b9e 463c 28ab 3bbc
000000c0: b82f 443d cc1e 6a3b 9498 afbb 3019 76b9
000000d0: aeb9 84bc d44e d33a f8b5 0b3d ec89 c9b7
000000e0: 2076 cbbc 0781 21bc 3c37 803b d734 67bc
000000f0: ed1a a33a 821c b93a 3175 633c 70cc 4a3b
00000100: 44d6 a1bc b40d 5d3c 9212 1c3b d27e 68bd
00000110: be5c dbbb 8b56 763d ef83 1e3d 17c4 123c
00000120: d8ff e9bc 720d d9bc 7766 293d ac28 1c3b
00000130: cfb0 1ebc fdb7 9e3b e066 0cbb bc02 c63d
00000140: 0373 8cbd b4a8 2bbc 6aac a2ba 9c0d 07be
00000150: 9fea 77bd dbfe 13bd e7a8 abbc e548 413b
00000160: 7d31 8fbd 4044 ef3b 942d cebb 44e8 15bd
00000170: 833d a83c 16c3 db39 c605 3bbd 8931 ffba
00000180: e152 e53c a68e 1bbd 8bea a8bc f349 e43b
00000190: 5a82 033e 0cc9 75bc de01 84bd 53c0 6f3b
000001a0: 4bfb 993a 406c bb3c f422 aebb 341b 88bb
000001b0: 7da6 f13c 1b63 a4bd 0aab 923c c53f 543a
000001c0: 2469 d73a 781f aabb 38d1 86ba c4e9 2abc
000001d0: c863 a7bb 8935 f739 4bec 333c edb2 833d
000001e0: e6f4 4d3c 2ed6 613a 36c2 2fbd 3e2c 4539
000001f0: cc25 873d 934c 6d3c e5cc c2bb 5443 1cba
00000200: 4be8 cdbc 049d 8a3b 2ee2 04bd 7cec ed3d
00000210: 139b 6f3d 688f cfbc 6675 b8bc 4f65 a03a
00000220: 34c3 273d b5b9 9abd b67e 2ebd 5a28 1c3c
00000230: c4a8 7abb 329a 06bc a756 dcba a354 7dbb
00000240: 4776 40bc 9064 8cbd 6d9c 293d 8a01 3dbb
00000250: 28f0 80bd f56b 27bd c3fe b43c cb71 c2bb
00000260: 74b0 023d 8a74 a6bc abcd 85bc b8cc 853a
00000270: afed 7f3d 074e 54bd 4e1d d4bc 79c5 e23c
00000280: 2578 b7bd 0dcb 373b c816 b9bc e141 f138
00000290: 31b3 363d 2030 023d 93a6 edbc bae5 bcb8
000002a0: 988d 103b baf6 95bb a5ef 3a3c ef27 5dbd
000002b0: 4731 6c3b 29ac 6dbd fba6 bcbb 253f 38bd
000002c0: 4d5f 763d dff0 633d dd8d 073c 5ce0 a2bc
000002d0: d83d 9fbc a16f 26bc 8f8b 5cba f9c4 9c3d
000002e0: 7bea f2bc 9768 f1b9 2ae1 1dbc 6352 943d
000002f0: 379f 0fbc 6adb 8dbc 8c9c b4b8 457e 863d
00000300: b048 973c 2034 693d ef6b 1dbb bdc8 02be
00000310: 7542 88bb f4a4 8fbc b28e a0bc a5c5 d3bd
00000320: b827 72bb 5dde 03bb ba97 263d c469 c13b
00000330: c52a f73c d55c f53c ab28 a8bc 2a82 31bc
00000340: 594f 823c ce70 17bc 00a4 29bd 4cef b03d
00000350: fb11 a5bd a9e3 863d 1dff 96bd 25fe 5abd
00000360: a8f5 433d 0f58 94bb 1497 c6bd 5eeb 82bc
00000370: 4b03 a2bc 0e63 183d f734 e63c 6881 f73b
00000380: c6b5 113d c069 05bb f732 b13b 81e0 bf3c
00000390: b142 06bc 17f2 c33a 169b 8a3c 594a a2bc
000003a0: daff 0fbb c558 b9bd 0689 29bb 1b61 4e3b
000003b0: 9604 d23d f2ce 1cbb b19c 793b 8045 a63a
000003c0: 4a9d c4ba 7bec 213d 845a 9cbb 4a6e 9fbc
000003d0: 4741 e53d 5aa4 703c 0aca 65bd 56be 2a3d
000003e0: abe1 1abd 51b7 2cbd 28ef d13c fc82 cf3b
000003f0: a2bc afbd a536 6e3c c79b 21bd e35b 61ba
