ai_challenge/results/simulation_DoubleDQN_DuelingRecNN_2017-05-20T11:17:03.15/40017/target_model.npz (npz, 610719 bytes, 12 tensors)

model/hidden/input_layer/b f4 [256]
000000 1a c3 ed 39 05 42 ab bc ca 73 0f bb ca 28 13 bc
       0.00045349525 -0.020905504 -0.0021889084 -0.008981893
000010 d0 de a7 bb 97 0d 9c 3b 48 86 e6 bc 62 fd 4b bb
       -0.005122997 0.004762362 -0.028140202 -0.003112637
000020 99 b4 5c bb de bc 3a bb 05 31 a7 ba 49 53 57 bb
       -0.003367698 -0.0028493921 -0.0012755698 -0.0032856038
000030 0d 48 57 ba 79 d0 7b bb c8 37 b1 bc 81 96 8a 3c
       -0.00082123355 -0.003842382 -0.021633044 0.016917469
000040 14 b1 aa bb 12 3c ee bb e5 61 f4 bb 4d 34 54 bc
       -0.0052090976 -0.0072703445 -0.007457959 -0.012951923
000050 d7 24 94 bc f2 4e a4 bc 7e 20 6f 3b ee 89 a9 3a
       -0.018083973 -0.020057175 0.0036487873 0.0012934783
000060 ee f3 df 3b a2 a8 bd bc e2 7a 74 bc 53 fd 90 bc
       0.0068344986 -0.0231517 -0.014921876 -0.01769892
000070 72 51 9b bb 9a ff ca bb 06 ff ad bb cd 88 93 bc
       -0.0047399336 -0.006195021 -0.005309942 -0.018009568
000080 1e b5 d8 bb 9b 22 11 bc 82 ab c4 bc f8 a8 0b bc
       -0.0066133877 -0.008858348 -0.024007563 -0.008524172
000090 38 ae b7 bc 69 f3 6b 3c ec 66 02 bd 95 12 ce bb
       -0.022421941 0.014401295 -0.031836435 -0.0062888362
0000a0 b3 cd 98 3c b1 ab 90 3c 63 f1 de 3b f9 d2 b4 bc
       0.018652773 0.017659994 0.006803678 -0.022073256
0000b0 d3 69 16 3c e4 ce 06 bc 35 9b 40 bc 54 92 3e ba
       0.009180504 -0.0082280375 -0.011755754 -0.00072697294
0000c0 57 20 9f ba af a9 52 bc b0 5e 35 3c 8f d1 99 bc
       -0.0012140375 -0.0128578385 0.011069939 -0.018776683
0000d0 4e ce 1d bc 2b 7e d5 3b af ec 8a bc 7b 58 b7 bb
       -0.009631706 0.0065152845 -0.016958563 -0.0055952645
0000e0 d0 05 03 bc 31 cc d9 3c e4 f7 a7 bb 8d fc a0 3a
       -0.007996991 0.026586624 -0.0051259864 0.0012282297
0000f0 1b 77 5d bc 3e b2 00 bc 7f 9f ae bb b1 ce fe 3b
       -0.0135171665 -0.007854996 -0.005329072 0.0077761044
000100 86 a9 68 3c 27 d0 28 bc aa 2a d4 bc 00 1d 67 3b
       0.014200574 -0.010303534 -0.02589925 0.0035265088
000110 70 69 81 bc 8d 1a f2 bc 20 fb 0b bd 76 40 0f 3a
       -0.015797347 -0.029553676 -0.03417504 0.00054646225
000120 40 86 b7 bc cc 3b f8 bb 50 ec 0a bc ca 1d 2a bc
       -0.022402883 -0.0075754877 -0.008479193 -0.010383079
000130 d1 fb 0d bd e1 ec 83 3a af 2a 96 3c 7d 0b 46 bc
       -0.03466398 0.0010065102 0.0183309 -0.0120877
000140 82 22 9f bc ba 29 6d bc b6 ab b2 bc 23 55 e0 bb
       -0.019425634 -0.01447528 -0.021810394 -0.0068460866
000150 3a 72 06 bc 7d 56 9d bc 1d 22 b4 3b c3 a2 b9 bc
       -0.008205945 -0.01920628 0.0054972307 -0.022660619
000160 da 9e 00 bc 95 08 bd bb 19 e9 98 3a 85 fa 1c bb
       -0.007850373 -0.0057688453 0.0011666148 -0.0023953032
000170 17 60 11 bc bd 50 ad 3c cb 91 9e bb 6a 54 8d 3c
       -0.008873007 0.021156663 -0.004839157 0.017252166
000180 44 e0 e8 bb c0 81 45 bc 60 b6 a9 ba 98 94 4b 3c
       -0.0071068127 -0.012054861 -0.0012948029 0.012425564
000190 bb 16 46 bc 0e 5a 2f bb c4 43 63 bb 5b 5b d6 bb
       -0.01209038 -0.0026756558 -0.0034677843 -0.006541652
0001a0 be 2e b6 bb 91 fc b1 3b c7 eb 76 bc b5 69 28 3b
       -0.0055597713 0.0054317196 -0.015070862 0.0025697772
0001b0 15 aa c0 3c 27 6a 97 bc b5 db 1c bb 5d 4a 11 bc
       0.023518601 -0.018483235 -0.0023934667 -0.008867827
0001c0 e3 ef 86 bb b1 12 da bc 91 e6 a4 3b a1 53 b5 bc
       -0.004117952 -0.02662024 0.0050323685 -0.022134604
0001d0 be 95 81 bb dc f5 b1 bc 2e 7e 70 bc 13 76 5c ba
       -0.0039546182 -0.02172368 -0.014678521 -0.00084099284
0001e0 01 9d 13 bc 80 89 ae ba 00 f8 87 bc 47 b9 a9 bc
       -0.009009601 -0.0013316125 -0.016597748 -0.02071823
0001f0 c6 54 66 bc ca 04 01 bd d8 a9 25 bc f7 ff b4 bc
       -0.0140582975 -0.031498708 -0.010111295 -0.02209471
000200 6f 13 9e bc 2e 07 50 3b 05 64 b3 bc cb cb ac 3b
       -0.019296376 0.003174256 -0.021898279 0.0052733175
000210 84 b6 b2 3c 50 3c 86 bc 41 1f c0 bc fe 0f 6d 3c
       0.021815546 -0.016386181 -0.023452403 0.014469145
000220 07 51 da 3b 59 8b 5c bc c6 34 af bc 25 11 ec bb
       0.0066624912 -0.013460957 -0.021387469 -0.007204192
000230 7c 1a bc bc d6 38 cd ba 70 d7 88 3b cf ac 0c bb
       -0.022961847 -0.0015657197 0.004176073 -0.0021465307
000240 f3 8a 2b bc 0f 46 c3 bc 5b 3c 46 bc a7 a5 80 bc
       -0.01047014 -0.023837117 -0.012099351 -0.01570399
000250 b6 b7 55 bc d6 ff c3 bc 45 ae 90 bc e9 45 c3 3c
       -0.013044288 -0.023925703 -0.017661223 0.023837047
000260 cb 64 ad bc 2c cb a3 bb 41 7e d1 bc 9c 1d dd 3b
       -0.021166226 -0.004998585 -0.025572898 0.0067479145
000270 f3 20 f7 3c 10 fd a5 3c 87 1c c4 ba 1a 97 53 bc
       0.030167079 0.020262271 -0.0014962115 -0.012914443
000280 0b 21 f1 bc 01 c8 92 bc bc c7 a4 bc d6 a9 47 bc
       -0.029434701 -0.017917635 -0.020114772 -0.012186488
000290 13 58 24 3c 65 f8 55 3c e1 b5 ee bb 5c 4a 51 bc
       0.010030764 0.01305971 -0.0072848652 -0.012774076
0002a0 e5 91 20 bc 5c 69 78 3b cd 1e 64 3c 39 44 a8 bc
       -0.009800409 0.0037904596 0.013923359 -0.020540344
0002b0 b5 36 a1 bc d9 f9 3e bc db 11 ad bc f7 ba e9 ba
       -0.019679407 -0.011656248 -0.021126678 -0.0017832209
0002c0 ec 53 16 bd d7 69 08 3d 02 1a ac 3c 7c a6 6a bc
       -0.036701128 0.03330406 0.021008495 -0.0143219195
0002d0 22 8c 88 ba 6a b7 4c bc 7c ec 9c 3a b2 d6 9b bb
       -0.0010417739 -0.012494901 0.0011972333 -0.0047558183
0002e0 06 d6 c7 3b 1b 04 3b bc 24 9b 36 bc ec bf b8 bc
       0.0060985116 -0.011414553 -0.011145387 -0.022552453
0002f0 26 90 35 3b a1 46 c4 bc 1e d1 52 bc cf bc 1c bc
       0.0027704327 -0.02395946 -0.01286724 -0.0095665
000300 4c 20 e6 ba 90 6c cb bb 7f 44 96 3b 74 e3 21 3b
       -0.0017557233 -0.00620801 0.004585802 0.0024702223
000310 5d 16 a9 bb d4 97 3e 3c 2e 9f 39 3c 3a 0d 9a bb
       -0.0051601366 0.011632878 0.011329455 -0.0047012838
000320 b6 34 97 bb 45 ea 1a bc f5 10 8a bb 36 a3 81 3c
       -0.004614438 -0.009455268 -0.004213447 0.015824895
000330 77 fe 5b bc 87 92 2a 3c fc e6 4b bc eb b4 83 bb
       -0.013427368 0.010410911 -0.012445208 -0.00401937
000340 10 41 39 3c 06 bc 01 3b 04 04 0f bb ab c1 ca 3c
       0.011307016 0.0019795909 -0.0021822462 0.024750551
000350 45 c2 84 3c 5a ca 4d bc 4c 53 84 bc 74 7e 8a bb
       0.016205916 -0.012560451 -0.016153 -0.0042265
000360 3e 42 e6 3c da 5f e5 bc 32 52 e1 bb e9 d4 cf 3b
       0.028107759 -0.027999807 -0.0068762535 0.0063425195
000370 f5 20 0f 3a ee 15 89 bc 6b bc 97 bb ec b2 8e bb
       0.0005459928 -0.01673409 -0.0046306155 -0.0043548252
000380 d3 ca ca bc 39 e2 a5 bc ce 08 cd bc b0 4d e2 bb
       -0.024754917 -0.020249473 -0.025028612 -0.0069062337
000390 ce 1f 91 3b d2 55 81 bc 19 d3 96 bc 11 dd bd 3b
       0.0044288402 -0.015787993 -0.018411206 0.0057941754
0003a0 fc 0a bd bc 52 9b 64 3c e8 05 e6 bc a5 ee 86 bb
       -0.023076527 0.013953047 -0.028078988 -0.004117804
0003b0 fd 30 36 bb ce d1 18 3b c4 e6 05 bc de 5c bd bb
       -0.0027800195 0.0023318413 -0.008172695 -0.005778893
0003c0 2e 4a fc bc 2a c5 b6 3c d3 19 7c bc 48 c2 fa bb
       -0.03079709 0.022310812 -0.015387016 -0.0076525547
0003d0 f3 1a c1 bc 95 e2 f0 3c 40 b6 c1 ba c4 e6 05 bc
       -0.02357242 0.029404918 -0.0014779046 -0.008172695
0003e0 17 18 e2 39 3a 43 8d bb 17 8f 08 3a b0 b3 cc 3b
       0.00043124027 -0.0043109925 0.00052093103 0.0062470064
0003f0 f0 93 86 bb 95 76 11 3b cb ac 4b 3b 85 1c 31 bc
       -0.004106991 0.0022195925 0.0031078334 -0.010810022

model/hidden/output_layer/b f4 [256]
000000 cc 23 6a 3b 96 ab 37 bc 8f ea 53 3c 89 82 f0 bb
       0.0035726903 -0.011210343 0.012934341 -0.0073397798
000010 3f d8 b5 bb bd 2d aa bb ae ad d1 3b 7b e7 93 ba
       -0.00554946 -0.0051934407 0.006398878 -0.0011284197
000020 f1 a3 b6 3a f1 59 b1 3b a3 0d 99 ba c5 66 f8 39
       0.0013934356 0.005412333 -0.0011677038 0.00047378815
000030 7f 93 15 ba 47 9b f2 3b c2 7d a4 3b 8a be 8c b9
       -0.00057058776 0.0074037644 0.0050198743 -0.00026844844
000040 ca d3 81 39 c3 f1 7e bb 22 33 36 ba 4f 29 53 39
       0.00024762593 -0.0038901425 -0.00069503684 0.00020137917
000050 41 16 f7 3b 87 1d 00 ba 98 27 cc 39 96 5e 8c bb
       0.0075404947 -0.00048872124 0.00038939412 -0.0042837365
000060 f6 13 9e 3b b5 07 07 bc a2 56 9f 3a 5f 88 44 3b
       0.004824157 -0.008241584 0.0012156556 0.002998851
000070 cb 09 05 3a cc e4 ca ba 0f 4f 19 ba 3a fb 57 3b
       0.00050750066 -0.0015479564 -0.00058482675 0.003295614
000080 28 a1 42 bb e2 98 81 3b c3 a7 9d bb f4 58 35 bb
       -0.0029698107 0.0039549926 -0.0048112585 -0.0027671428
000090 96 07 fc b7 cc 9e fe bb a5 c6 47 bc 23 35 f4 3b
       -3.0044273e-05 -0.007770395 -0.012193357 0.0074526235
0000a0 47 69 82 3a 7f 49 c7 bb 26 04 af bb 33 c0 cb bb
       0.0009949588 -0.0060817595 -0.0053410707 -0.0062179803
0000b0 d4 94 94 ba bf 11 08 bb 6b ce db 3b 7f 1b ab 3b
       -0.0011335858 -0.002076253 0.0067079565 0.0052217836
0000c0 04 69 84 3a d0 e2 cc b9 df cc a1 bb 25 e0 44 3b
       0.0010102098 -0.000390789 -0.0049377526 0.0030040827
0000d0 19 f8 33 3b 0a e5 48 3b 79 db c4 3b a9 09 c3 b6
       0.002746111 0.0030654096 0.0060076085 -5.8125775e-06
0000e0 0c 08 1d bb d8 ba 82 3b aa cc e9 ba ee 1f 75 3b
       -0.0023961095 0.0039895587 -0.0017837484 0.0037403065
0000f0 91 30 bf bc f1 77 92 ba 92 94 37 3c 6c dd ab bb
       -0.023338588 -0.0011174661 0.0112048555 -0.0052449014
000100 56 4f 1d bb 0e a9 07 3c 9c a1 b9 ba c4 bd b4 3b
       -0.0024003587 0.008280052 -0.0014162543 0.005515786
000110 7a 47 f1 bb 9c 4f 1f 3b e2 bc 6b 3b 33 35 03 3c
       -0.007363257 0.0024308925 0.0035970737 0.008008289
000120 68 0a a3 bb 08 5b b6 3b 35 27 c9 ba 4b 4b 1e 3c
       -0.0049756058 0.005565051 -0.0015346768 0.009661506
000130 21 27 7e bc 6a a3 a8 bc eb a3 98 3b 0a 54 71 ba
       -0.015512259 -0.020585734 0.0046582124 -0.0009205943
000140 37 67 b1 3b 38 58 4e 3c 33 db b9 ba 70 02 bc b9
       0.0054139155 0.012594275 -0.0014179706 -0.0003585997
000150 38 92 53 3a b9 eb 0a bb 7c ed b8 ba 5f b4 06 bb
       0.00080707995 -0.002119763 -0.0014108862 -0.0020554287
000160 9d 79 2b bb 69 3f 12 3c 81 a9 ca ba b2 c7 be 3b
       -0.0026165016 0.008926251 -0.0015461893 0.0058221454
000170 19 a1 fb 3b a1 90 94 3a 2b d1 b9 3b d5 84 03 3c
       0.0076791164 0.0011334607 0.0056706867 0.008027275
000180 60 d2 31 bb 5e e2 f3 ba ea d1 49 3c ee f9 ba 39
       -0.002713345 -0.0018606891 0.012318114 0.00035662897
000190 5b d5 a9 ba cd 84 b4 3a fc 13 b8 3b 7d 29 20 3c
       -0.0012957262 0.0013772488 0.0056176167 0.009775517
0001a0 12 ef e4 bb 09 ec 1f 3a 1a f0 e3 bb 14 fe 55 bb
       -0.006986507 0.00061005406 -0.0069561126 -0.0032652663
0001b0 8c bc f6 bb 55 d5 8b 3b 67 58 d3 bb 9e 2a 5e bc
       -0.0075298008 0.0042673745 -0.0064497474 -0.013559965
0001c0 3e 9b 05 bb 2d bd f3 bb 79 71 6e bc 59 af 13 3c
       -0.002038672 -0.007438323 -0.014553421 0.009013974
0001d0 c9 10 9e 3b 8d 08 40 bb c2 dc 51 3c cd 01 5a b9
       0.0048237783 -0.0029301972 0.01280898 -0.00020790771
0001e0 11 b5 92 bb 8c 48 db bb 8b 68 e8 3b 3a e7 07 bc
       -0.004477151 -0.006691998 0.0070925406 -0.008294875
0001f0 1c 94 00 3b 7d 65 0a 3c 6d 23 3c 3c 02 9b ee ba
       0.001961953 0.008447048 0.011483056 -0.0018204155
000200 65 3e 8b ba 0d 7a 2d bc 30 05 c3 3b b4 d6 a7 38
       -0.0010623453 -0.010588181 0.005951546 8.003172e-05
000210 60 f5 cf bb 9b 7e 9e 3b fd 8e 7a 3a ea 60 c3 bb
       -0.0063463897 0.00483687 0.000955805 -0.005962481
000220 d0 35 8e 3b e3 73 51 3b fd 08 9f 3b c6 d4 2f 3c
       0.004339911 0.0031959943 0.0048533664 0.0107318815
000230 7f 30 ba 3b 34 ce a2 3b 14 a7 df bb 48 80 3c 3a
       0.0056820507 0.004968429 -0.006825337 0.0007190746
000240 f0 27 21 3c 6f 67 d3 3b 71 02 bf 3a 89 77 42 3b
       0.009836182 0.006451539 0.0014572871 0.00296733
000250 b9 6b a8 3b 2b 03 9d bb a8 cd 43 3b 6a 26 31 3c
       0.0051397947 -0.0047916374 0.002987722 0.010812381
000260 04 a6 11 bc ba 82 d4 3b 08 78 8f 3b 6e ae c6 bc
       -0.008889679 0.0064853104 0.0043783225 -0.024253096
000270 4b e9 81 b9 c6 c6 cc 3b 9b 00 cb 3b 32 4a 09 3b
       -0.00024778614 0.0062492816 0.0061951405 0.0020948765
000280 fd 37 c1 ba 47 de 8b 3a eb ba a0 ba 6b 19 4a 3c
       -0.0014741417 0.0010671102 -0.0012262737 0.012335162
000290 f3 d0 ff 3a 18 6a b6 bb bf 41 6c ba e1 e0 0d 3b
       0.0019517228 -0.0055668466 -0.00090124825 0.002164893
0002a0 09 ee c7 3c a4 02 a2 bb d2 da d1 3b 4a d1 53 bb
       0.024405496 -0.0049441624 0.0064042592 -0.003232079
0002b0 bc f5 1a bb b0 a1 3f 3a f0 45 8e bb 4c 66 01 ba
       -0.0023645004 0.0007310165 -0.0043418333 -0.0004936203
0002c0 59 2a c0 bb fb 88 9e bb a7 6f 67 3b 83 7b 2d 3a
       -0.0058644232 -0.0048381067 0.0035314353 0.0006617831
0002d0 50 41 06 3b 00 c7 bf ba 51 5e 65 3b 8f b9 c2 bb
       0.0020485707 -0.001463145 0.0034998844 -0.0059425305
0002e0 c7 67 02 3c 88 a0 49 3c d0 18 19 bc fd b8 7c bb
       0.007959313 0.01230634 -0.009344295 -0.003856241
0002f0 af 84 51 39 65 f2 09 39 7f 82 6b bb 99 aa 82 bb
       0.00019981222 0.00013155637 -0.0035935936 -0.003987622
000300 06 f6 d5 3b a7 79 c0 bb 75 a6 00 3c cb 72 d7 3a
       0.0065295724 -0.005873877 0.007852186 0.0016437409
000310 61 c7 48 3c a8 c8 57 3b 51 82 46 3b 7f 51 ed 39
       0.012254567 0.0032925997 0.0030290077 0.00045264882
000320 00 b6 25 3b 92 47 56 3b 9f d3 f3 bb ae d3 e2 bb
       0.0025285482 0.0032696468 -0.0074409987 -0.006922207
000330 0e 7f 72 ba 78 d4 75 3b cb e2 e5 bb 11 64 04 3c
       -0.00092505 0.0037510674 -0.007015561 0.008080498
000340 7b 39 a8 3b 22 af bd 3b 5e d2 90 3b b5 c4 30 ba
       0.0051338053 0.0057886997 0.004419609 -0.0006743179
000350 53 9c 19 3a 49 a1 20 ba c3 6b e5 ba 7d a2 95 bb
       0.0005859781 -0.0006127549 -0.0017503429 -0.0045664893
000360 7d 2d 22 3b 65 ec 3e bb 40 33 c5 ba 4e 7c 03 3c
       0.0024746351 -0.0029132601 -0.0015045181 0.008025242
000370 d9 29 61 bb 39 43 56 3b 6e ad 36 ba f4 c4 d5 3b
       -0.0034357219 0.0032693876 -0.0006968592 0.006523723
000380 23 ee 96 bb d7 20 10 bb ea 20 94 ba 27 c8 ed bb
       -0.004606025 -0.002199223 -0.0011301313 -0.007256526
000390 d5 90 c7 bb a7 cd dd 3b 1a 35 8b bb d8 ed d6 3a
       -0.0060902634 0.0067689004 -0.0042482736 0.0016397787
0003a0 e1 30 25 bc ac 22 a7 ba d3 aa 2d bb d1 93 0c bb
       -0.010082454 -0.0012751422 -0.0026499524 -0.002145041
0003b0 5a d3 9b bb 1f 54 03 3c 19 15 f2 bb b1 67 bf ba
       -0.0047554197 0.0080156615 -0.007387769 -0.0014603046
0003c0 fe d8 69 3b 32 55 c9 bb f8 77 15 3c 8f 1c 51 3c
       0.0035682316 -0.0061441893 0.009122841 0.012763157
0003d0 10 97 a7 3a 92 bd 9c bb b6 b2 ee ba cf f3 b0 3b
       0.0012786109 -0.0047833407 -0.0018211219 0.005400158
0003e0 d7 17 b1 ba 90 5a 19 3b 24 ea d8 ba 58 01 7d bc
       -0.0013511133 0.0023399927 -0.0016549272 -0.015442215
0003f0 42 b1 88 3b d2 d4 bd ba e3 92 ac 3b 1c b8 b3 3b
       0.0041715214 -0.0014482981 0.0052665337 0.005484594

model/a_stream/W f4 [3, 256]
000000 e3 f6 2f 3d fa 85 40 bd 3d 3e 02 bc 49 a8 72 3b
       0.04296006 -0.04700277 -0.007949409 0.0037026575
000010 5d 0a 6a 3d c5 3b 87 3a 09 30 35 3a 83 c3 34 3d
       0.05713879 0.0010317495 0.000691176 0.044131767
000020 d7 72 5b 3d 39 2b b5 3c a6 d2 0f bd 23 9b 3c ba
       0.053576317 0.022115337 -0.035113 -0.0007194748
000030 6e c1 32 3b f6 94 07 bc a4 07 ad bd 87 53 9a bd
       0.0027275938 -0.008275261 -0.08448723 -0.07535463
000040 ea df ed 3c f1 66 d5 3d 66 21 39 3c 39 b9 0c 3d
       0.029037435 0.10420025 0.011299467 0.03435633
000050 bc 1b 2c 3d bd 5e 8f bd 13 2f 60 be c9 ac 9e 3d
       0.042018637 -0.07000492 -0.21892957 0.077478
000060 6a fd 07 bc 0f 58 22 3d 74 e5 cb 3c 39 b2 ba 3c
       -0.008300165 0.03963476 0.024889685 0.022790061
000070 a5 c6 a4 bc ce 90 9a bd b6 25 ae bd 8f df 65 3c
       -0.020114252 -0.075471506 -0.085032865 0.014030351
000080 12 e4 9f bd be 44 c7 ba e8 a6 0d 3d 5f f8 37 3d
       -0.07807173 -0.0015202982 0.034583002 0.0449146
000090 78 ce ec bc 18 b4 0e bc ca e1 a8 3c c9 03 38 bb
       -0.028907046 -0.00870993 0.020615477 -0.0028078428
0000a0 6c 5f f6 37 e7 37 fa bc 9a bc 40 bc 56 23 40 3d
       2.936992e-05 -0.030544234 -0.011763716 0.0469087
0000b0 66 1d dc 3d c2 e7 91 bd b9 5d 5c 3c 65 10 0d 3e
       0.10747795 -0.071242824 0.01345008 0.13775785
0000c0 79 31 b0 bb 83 dc 33 3d 45 8d 3e 3d 97 0f 82 3c
       -0.0053769914 0.04391147 0.046521444 0.015876574
0000d0 ef 6c 0a 3e f1 51 a9 3c 18 32 06 3c 07 10 ac 3c
       0.13518117 0.020668956 0.008190654 0.021003736
0000e0 6e 3a b1 3d bf 97 d5 bd a4 70 ab bb 18 b3 bc bb
       0.08653723 -0.10429334 -0.0052319337 -0.0057586543
0000f0 b0 9e 96 3d d5 5c d5 bb 36 2e 25 3b bf 1b 6c bd
       0.07354486 -0.0065113106 0.0025204546 -0.05764365
000100 67 6c 7a 3c 34 39 ce 3c ad 17 50 3d 1a 9c 30 bd
       0.015284634 0.025173761 0.05080383 -0.04311762
000110 cb 2c 16 bc 1f 54 02 3d b5 9f a5 bc cd 9c 67 ba
       -0.009165953 0.031818505 -0.020217756 -0.0008835316
000120 f6 c1 9b 3c ac b1 a9 bc 1a 8e c3 3c 65 3a 91 3c
       0.019013386 -0.020714603 0.02387147 0.01772804
000130 fd 49 f6 bc 63 9e 91 3d ea 06 69 3d 9c 8e 07 bc
       -0.030064577 0.07110288 0.05689136 -0.008273747
000140 b4 2a 7f bc f7 fd ff bd d0 b1 09 bd 9c 88 b8 3a
       -0.015574146 -0.12499612 -0.03361684 0.0014078799
000150 6f 6f c5 bb a8 dd f0 bc 2c 77 10 3d be bd 6b bb
       -0.006025247 -0.029402569 0.0352699 -0.003597125
000160 15 6a 0d 3e 8e 15 d3 3d 31 d5 90 bd 56 d0 89 bd
       0.13809998 0.103068456 -0.07071913 -0.0672919
000170 38 6a 7b 3b 6a df a8 bb 75 1e 4a bd 88 e8 d8 bb
       0.0038362872 -0.005153586 -0.049345452 -0.0066195168
000180 7e b3 5c 3e c5 e3 43 3d c8 a6 3a bb fc 66 55 3c
       0.21552846 0.04782464 -0.0028480757 0.013025042
000190 22 7a 46 bd 96 75 e2 3c 56 60 a2 3c 58 38 18 bd
       -0.04845632 0.02764396 0.019821327 -0.03716311
0001a0 94 26 e6 3c 9e 9b ac bc c7 8f 32 be bf f6 ca bd
       0.028094567 -0.021070298 -0.17437659 -0.09910344
0001b0 94 0c 10 bd 07 65 48 bc 32 81 67 bc 3f 60 69 bc
       -0.035168245 -0.012231118 -0.014129924 -0.014244138
0001c0 4d 8d da bb 76 6f 22 3c f1 af f6 3c 0e 65 61 bd
       -0.0066696764 0.00991427 0.030113192 -0.055028014
0001d0 57 af b3 bd f3 cd dc 3c 21 4d 2d bd 42 cc a8 bd
       -0.08773678 0.026953673 -0.042309884 -0.08242084
0001e0 25 22 f9 bc c0 43 82 3c f2 1a 9d 3c c1 00 05 3d
       -0.03041179 0.015901446 0.019177888 0.032471422
0001f0 af 25 aa 3d 21 20 42 bd df 40 76 bd 02 1b 0e bc
       0.08307969 -0.04739392 -0.06012046 -0.008673431
000200 22 de 56 bd 58 05 8f bc de 6a 11 be 5d 8b bd 3d
       -0.052457936 -0.017458603 -0.14200923 0.09255097
000210 00 f5 89 3d b9 21 1a b8 5f 46 ae 3c f4 6d 1a 3d
       0.06736183 -3.6747868e-05 0.02127379 0.037702516
000220 0d 8e 30 3d 5a 29 95 bd c6 70 99 3d 66 e3 fd 3c
       0.04310422 -0.07283278 0.07492213 0.030992221
000230 c3 1d 99 bd 75 3a 35 bd 22 78 6f bd 13 09 e4 3b
       -0.0747638 -0.044245202 -0.058464177 0.0069590895
000240 aa 4f 70 bc a0 71 60 3d 8d 36 38 bd 7b 45 87 3c
       -0.014667431 0.05479586 -0.0449739 0.016512623
000250 d7 0b b6 3c e7 e8 83 3d 6e eb 4f bd 70 cb db bd
       0.022222443 0.06440907 -0.050761633 -0.10732162
000260 2a 88 52 3d f2 89 66 bd a5 a5 8c bb 23 12 88 3d
       0.051399387 -0.0562839 -0.0042922073 0.06644084
000270 bc 66 52 3c 85 53 03 3b fe da f0 3c c6 aa 32 bc
       0.012841877 0.0020038795 0.029401299 -0.010904973
000280 59 83 17 bc 20 50 19 bd c6 af 4a bd 66 f2 42 bd
       -0.009247624 -0.03742993 -0.049484037 -0.04759445
000290 e2 43 b3 3a d8 fd 0e bd 53 c7 6f bd ed bc 5a bc
       0.0013676847 -0.034910053 -0.0585397 -0.0133507075
0002a0 2b 95 0a bd 3a de 86 3d eb a8 41 3b 6a b6 b9 3b
       -0.033833664 0.06585355 0.0029550146 0.0056674974
0002b0 82 1c 5f bc 0e 20 8b bc 6b 54 54 bd 72 fe a9 bd
       -0.013617637 -0.016983058 -0.05183832 -0.08300485
0002c0 57 e4 4f 3d 2e 9e 35 3b 59 62 9f bd da 13 3b bd
       0.05075487 0.002771269 -0.0778243 -0.04567323
0002d0 43 20 2e 3d 8a ce ed bd 87 96 8f 3d 89 48 a5 3d
       0.042511236 -0.1161166 0.07011133 0.080704756
0002e0 f6 7d af bc b1 1e 9f 3d d1 7c 9d bc 21 ab 35 bd
       -0.021422368 0.07769526 -0.019224556 -0.044352654
0002f0 33 ee ab bd 59 be 51 bc 46 8c 7d bd 81 0d e5 3d
       -0.08395042 -0.01280173 -0.061901353 0.11184216
000300 d1 45 d8 bc da 83 3e bd a2 0c a3 3c 18 ff ec ba
       -0.026400479 -0.046512462 0.019903485 -0.0018081395
000310 1b 93 77 bb 10 a7 b8 bd a8 a1 1d 3d b7 d5 14 3e
       -0.003777689 -0.0901624 0.038484246 0.1453465
000320 2b b0 62 bc 00 0f bd 3b e3 1e 48 bd db c2 be bc
       -0.013835947 0.0057696104 -0.04885758 -0.023286274
000330 cd 5e 93 3d fb 92 7b 3d ce d5 e7 3c 7e ee ab bd
       0.07195816 0.06141947 0.028300192 -0.08395098
000340 48 93 f1 3c 92 fa 32 bc 6c cb c9 bb 3b 1d 18 3d
       0.029489174 -0.010923998 -0.006158283 0.03713725
000350 69 a4 03 3e 3b 72 c3 bd f2 ec 13 3d 9e e4 ce 3c
       0.12855686 -0.09543272 0.03611464 0.025255498
000360 f8 ac a7 3d 94 98 22 bd 9b 13 f0 3d eb 69 7d 3d
       0.08187288 -0.03969629 0.117224894 0.06186859
000370 df 34 8f bc 3c c1 0f bc 0e 4c 25 3d ad c4 cb bb
       -0.017481266 -0.008774098 0.040355735 -0.006218514
000380 b8 51 26 3d d4 6d e2 bd 1f e2 84 3b 96 b3 9f bd
       0.040605277 -0.11056104 0.004055276 -0.07797925
000390 a2 75 1a 3b 0b 3e d3 bc 5a 21 30 3c 28 f1 29 be
       0.002356865 -0.02578642 0.010750139 -0.165959
0003a0 10 60 23 3c ff bc d3 bc 29 17 a6 3b 7d 09 2d bd
       0.009971634 -0.025846956 0.005068679 -0.042245377
0003b0 a3 8e b9 bc d9 25 05 bd 8e a0 68 3b e5 82 bc 3d
       -0.022651022 -0.032506797 0.0035496089 0.09204654
0003c0 dc f3 96 3d 1f 24 9a 3c 70 83 9c 3c 0c 9d 31 bd
       0.07370731 0.018816052 0.019105643 -0.043362662
0003d0 6d d6 c4 bd 69 27 ba 3d 94 1b ff 3b 63 d7 f0 bc
       -0.09611211 0.09089548 0.00778527 -0.02939958
0003e0 b9 af c2 bc b1 c2 97 3d 49 e8 83 3d c4 2b 95 3b
       -0.023765432 0.07410181 0.06440789 0.0045523364
0003f0 5c 83 9c bd 8b 40 54 bd 8c 38 de bc a3 b0 76 bd
       -0.07642242 -0.051819365 -0.027126573 -0.060227048

model/hidden/mid_rec_layer/upward/W f4 [80, 86]
000000 4d 9a 7d 3f 50 44 7d 3f 90 23 7e 3f a2 98 7d 3f
       0.9906357 0.9893236 0.99273014 0.99061024
000010 08 27 7d 3f 28 96 7d 3f 5a 10 7e 3f 01 c6 7d 3f
       0.9888768 0.99057245 0.992437 0.99130255
000020 00 00 80 3f 00 00 80 3f de 32 7f 3f 00 00 80 3f
       1.0 1.0 0.9968699 1.0
000030 da 87 7f 3f 1c 89 7f 3f 00 00 80 3f f7 8e 7f 3f
       0.9981667 0.9981859 1.0 0.9982752
000040 da 94 7f 3f 00 00 80 3f 83 b4 7f 3f 94 d8 7f 3f
       0.99836504 1.0 0.99884814 0.99939847
000050 00 00 80 3f c8 93 7f 3f b8 ad 7f 3f 00 00 80 3f
       1.0 0.9983487 0.9987445 1.0
000060 a6 89 7f 3f 25 c9 7f 3f 00 00 80 3f 1f 6c 7f 3f
       0.9981941 0.999163 1.0 0.99774355
000070 5d 89 7f 3f 00 00 80 3f 5c be 7f 3f f3 bd 7f 3f
       0.99818975 1.0 0.9989984 0.99899215
000080 00 00 80 3f 0f b7 7f 3f ba af 7f 3f 00 00 80 3f
       1.0 0.998887 0.9987751 1.0
000090 9a cb 7f 3f e4 6e 7f 3f 00 00 80 3f ed ae 7f 3f
       0.99920046 0.9977858 1.0 0.9987629
0000a0 f3 72 7f 3f 00 00 80 3f 3d 74 7f 3f ba 56 7f 3f
       0.99784774 1.0 0.9978674 0.9974171
0000b0 00 00 80 3f a8 b3 7f 3f 60 7f 7f 3f cf 72 7f 3f
       1.0 0.9988351 0.99803734 0.9978456
0000c0 d1 6b 7f 3f 3c 76 7f 3f a0 9f 7f 3f 81 ca 7f 3f
       0.9977389 0.99789786 0.99852943 0.9991837
0000d0 e2 cd 7f 3f 4e 90 7f 3f 65 40 7f 3f 56 81 7f 3f
       0.9992353 0.99829566 0.99707633 0.99806726
0000e0 00 00 80 3f 78 84 7f 3f 8a 83 7f 3f 00 00 80 3f
       1.0 0.99811506 0.9981009 1.0
0000f0 57 a3 7f 3f e3 a9 7f 3f bd db 7e 3f e3 77 7f 3f
       0.9985861 0.998686 0.99554044 0.9979231
000100 1f 9d 7f 3f 8f 68 7e 3f 24 c1 7f 3f 85 b5 7f 3f
       0.9984912 0.99378294 0.99904084 0.9988635
000110 4e b1 7e 3f ab a0 7f 3f 46 78 7f 3f 00 00 80 3f
       0.99489295 0.99854535 0.997929 1.0
000120 b5 95 7f 3f 62 af 7f 3f 00 00 80 3f 02 bc 7f 3f
       0.9983781 0.9987699 1.0 0.9989625
000130 43 6b 7f 3f e5 1b 7e 3f 9c 76 7f 3f 7d dd 7f 3f
       0.99773043 0.99261314 0.9979036 0.9994734
000140 45 bc 7e 3f 0d 99 7f 3f d0 8b 7f 3f 35 bb 7e 3f
       0.99506027 0.9984291 0.9982271 0.99504405
000150 7d 86 7f 3f f1 6f 7f 3f ab bc 68 3f d1 9c 69 3f
       0.9981459 0.99780184 0.90912884 0.9125491
000160 c0 51 6d 3f 45 11 6b 3f 72 62 69 3f bb d3 66 3f
       0.92702866 0.91823226 0.9116584 0.90166825
000170 43 6a 6b 3f cc dc 6c 3f 00 00 80 3f 00 00 80 3f
       0.9195902 0.9252441 1.0 1.0
000180 ec 48 6d 3f 00 00 80 3f 63 e4 75 3f fa 48 77 3f
       0.92689395 1.0 0.96051615 0.9659573
000190 00 00 80 3f 02 56 76 3f 46 2d 75 3f 00 00 80 3f
       1.0 0.9622499 0.95772207 1.0
0001a0 bd 4d 78 3f 08 84 7a 3f 00 00 80 3f bb 20 75 3f
       0.9699362 0.97857714 1.0 0.9575307
0001b0 98 a5 76 3f 00 00 80 3f 58 61 75 3f cd 68 7a 3f
       0.96346426 1.0 0.9585166 0.97816163
0001c0 00 00 80 3f 88 c0 74 3f ae ba 74 3f 00 00 80 3f
       1.0 0.9560628 0.9559735 1.0
0001d0 2a ed 7a 3f 6a 87 79 3f 00 00 80 3f f4 3d 7a 3f
       0.98018134 0.9747225 1.0 0.9775078
0001e0 b7 bb 77 3f 00 00 80 3f f1 e4 78 3f 6a 66 76 3f
       0.96770805 1.0 0.97224337 0.9625002
0001f0 00 00 80 3f 49 cf 77 3f 63 43 72 3f 00 00 80 3f
       1.0 0.9680067 0.94634074 1.0
000200 a7 de 74 3f 92 c3 73 3f 00 00 80 3f 84 20 78 3f
       0.9565224 0.9522029 1.0 0.96924615
000210 2d 38 75 3f d3 d6 74 3f 86 1d 74 3f e1 35 75 3f
       0.9578884 0.95640296 0.9535755 0.9578534
000220 06 a5 78 3f d9 c5 78 3f 3d de 79 3f c3 9f 77 3f
       0.97126806 0.9717689 0.97604734 0.9672815
000230 a4 42 72 3f 91 e8 75 3f 00 00 80 3f c2 31 75 3f
       0.94632936 0.96057993 1.0 0.9577905
000240 37 47 76 3f 00 00 80 3f ac d2 77 3f 25 78 76 3f
       0.96202415 1.0 0.96805835 0.96277076
000250 a5 ef 70 3f 82 8f 75 3f 1f 52 77 3f df ea 6e 3f
       0.9411567 0.959221 0.9660968 0.93327135
000260 33 df 78 3f 00 f6 78 3f e5 c0 6d 3f 47 80 77 3f
       0.97215575 0.97250366 0.9287246 0.9668011
000270 5b 09 74 3f 00 00 80 3f 9e 2b 76 3f 10 4b 78 3f
       0.95326775 1.0 0.96160305 0.96989536
000280 00 00 80 3f cd 58 79 3f e4 9d 74 3f 48 17 6b 3f
       1.0 0.97401124 0.9555342 0.918324
000290 b1 17 76 3f f7 9d 7a 3f 96 d8 6e 3f fc 02 77 3f
       0.961299 0.97897285 0.93299234 0.9648893
0002a0 58 22 76 3f 97 da 6b 3f 76 fd 75 3f d0 41 77 3f
       0.96146154 0.92130417 0.96089876 0.96584797
0002b0 00 00 80 3f 00 00 80 3f 00 00 80 3f 00 00 80 3f
       1.0 1.0 1.0 1.0
0002c0 00 00 80 3f 00 00 80 3f 00 00 80 3f 00 00 80 3f
       1.0 1.0 1.0 1.0
0002d0 00 00 80 3f 00 00 80 3f 00 00 80 3f 00 00 80 3f
       1.0 1.0 1.0 1.0
0002e0 00 00 80 3f 00 00 80 3f 00 00 80 3f 00 00 80 3f
       1.0 1.0 1.0 1.0
0002f0 00 00 80 3f 00 00 80 3f 00 00 80 3f 00 00 80 3f
       1.0 1.0 1.0 1.0
000300 00 00 80 3f 00 00 80 3f 00 00 80 3f 00 00 80 3f
       1.0 1.0 1.0 1.0
000310 00 00 80 3f 00 00 80 3f 00 00 80 3f 00 00 80 3f
       1.0 1.0 1.0 1.0
000320 00 00 80 3f 00 00 80 3f 00 00 80 3f 00 00 80 3f
       1.0 1.0 1.0 1.0
000330 00 00 80 3f 00 00 80 3f 00 00 80 3f 00 00 80 3f
       1.0 1.0 1.0 1.0
000340 00 00 80 3f 00 00 80 3f 00 00 80 3f 00 00 80 3f
       1.0 1.0 1.0 1.0
000350 00 00 80 3f 00 00 80 3f 00 00 80 3f 00 00 80 3f
       1.0 1.0 1.0 1.0
000360 00 00 80 3f 00 00 80 3f 00 00 80 3f 00 00 80 3f
       1.0 1.0 1.0 1.0
000370 00 00 80 3f 00 00 80 3f 00 00 80 3f 00 00 80 3f
       1.0 1.0 1.0 1.0
000380 00 00 80 3f 00 00 80 3f 00 00 80 3f 00 00 80 3f
       1.0 1.0 1.0 1.0
000390 00 00 80 3f 00 00 80 3f 00 00 80 3f 00 00 80 3f
       1.0 1.0 1.0 1.0
0003a0 00 00 80 3f 00 00 80 3f 00 00 80 3f 00 00 80 3f
       1.0 1.0 1.0 1.0
0003b0 00 00 80 3f 00 00 80 3f 00 00 80 3f 00 00 80 3f
       1.0 1.0 1.0 1.0
0003c0 00 00 80 3f 00 00 80 3f 00 00 80 3f 00 00 80 3f
       1.0 1.0 1.0 1.0
0003d0 00 00 80 3f 00 00 80 3f 00 00 80 3f 00 00 80 3f
       1.0 1.0 1.0 1.0
0003e0 00 00 80 3f 00 00 80 3f 00 00 80 3f 00 00 80 3f
       1.0 1.0 1.0 1.0
0003f0 00 00 80 3f 00 00 80 3f 00 00 80 3f 00 00 80 3f
       1.0 1.0 1.0 1.0

model/hidden/mid_layer/W f4 [256, 256]
000000 89 35 2e 3d 53 2b 58 bd de d4 2b be 7a e6 a7 3b
       0.042531524 -0.052775692 -0.16780421 0.0051239105
000010 6a cb d5 3c 81 e4 8d bd f7 fe 72 3c 1d 2b 8a bc
       0.026097972 -0.06928349 0.014831296 -0.016866261
000020 09 7b 97 bd 3b 71 9f bd 57 34 c0 bc a1 78 a1 bd
       -0.07396514 -0.07785269 -0.023462458 -0.07884336
000030 59 ea 81 bc a1 1d 1b bb 03 5a 2b bb 78 1a 0e bd
       -0.015858816 -0.0023668783 -0.002614618 -0.03469321
000040 9f 3e a6 bd 01 b1 68 bd d5 12 cc 3c 0e a2 54 3d
       -0.08117413 -0.05680943 0.024911324 0.05191236
000050 e0 48 a4 bc 89 5c 51 bd 9f d5 9a bd 2f d2 2f 3d
       -0.02005428 -0.05111364 -0.07560276 0.042925056
000060 82 5d 78 bd bc 64 7f bd 63 d3 c0 bd 7f f9 75 bd
       -0.06063605 -0.062351927 -0.09415319 -0.06005239
000070 75 0e 24 bd 59 9f 9a 3d e3 33 80 bd 5d 04 1b 3d
       -0.04005285 0.075499244 -0.062598966 0.037845958
000080 9c c0 a3 3c fc 34 16 3d 1f 98 20 b9 0f 64 ee 3c
       0.019989304 0.036671624 -0.00015315459 0.029100446
000090 ae 33 8a 3b 08 34 58 3d 11 0d 78 bc 8c 2b a8 3d
       0.0042175865 0.052783996 -0.015139834 0.08211431
0000a0 6e 8f 9f 3d 06 07 f4 bc 2a 92 14 be d8 79 ab bd
       0.07791029 -0.029788505 -0.14508882 -0.08372849
0000b0 82 71 c0 3b 0d 98 dc 3d 26 76 b6 3c 42 50 21 bd
       0.005872906 0.10771189 0.022273134 -0.03938318
0000c0 b4 35 02 3e fa 31 a7 3d f4 2c 92 bd d3 5a 11 3d
       0.12715799 0.08163829 -0.071374804 0.035487007
0000d0 a7 1b 0f 3d 61 5c f3 3c b9 71 b3 3b 34 09 5e bd
       0.03493848 0.029707136 0.0054762033 -0.054207996
0000e0 b8 c0 08 3e cd 5b a6 3c f2 b8 78 bd 0d 66 27 bc
       0.13354766 0.020307446 -0.060723253 -0.010217202
0000f0 be 4e f7 3c 9e c5 b1 bc b6 1d 4c 3e 56 89 47 bc
       0.030188914 -0.021700677 0.19933209 -0.0121787395
000100 1a 8f 0c 3e 05 6f 74 3d 59 cc b2 bd bb 4e 49 bc
       0.13726464 0.05967619 -0.087303825 -0.012286837
000110 8c f6 4e 3d 0e 4b 4d 3c 0e 1d 63 3c 43 a9 2f be
       0.050528094 0.012530101 0.013861908 -0.17154412
000120 e9 8b 44 3c 9d f5 21 bd e4 a9 9a bd 1c ea e0 3d
       0.011996248 -0.039540876 -0.07551935 0.10982153
000130 38 5e 27 3c 6c 3c 04 bd 19 cd c3 3c 3d 92 f2 3d
       0.010215335 -0.032284185 0.02390151 0.11844299
000140 c1 f7 4d 3c 0f 5e d7 bc 2d b3 49 bd c4 6c 6c 3d
       0.012571276 -0.026289968 -0.04924314 0.057720914
000150 26 b5 25 bc c1 dc f6 3b ce 20 df bd b5 f6 9b 3c
       -0.01011399 0.00753364 -0.10894929 0.019038538
000160 ca 66 8e bd 9b 44 ff bc 77 d3 ac 3d 4d 91 ed bc
       -0.06953199 -0.031160643 0.08438771 -0.028999949
000170 18 87 69 bb e4 d5 12 3d 20 16 05 bd 46 15 83 bd
       -0.00356335 0.035848513 -0.032491803 -0.06400542
000180 77 17 4f bb 2f a5 14 be 49 6d 1c bd d9 2b 7d bd
       -0.003159968 -0.14516138 -0.03819016 -0.061809395
000190 a9 a0 02 3d 04 cc 26 bd 15 d6 01 3d 4b 78 45 ba
       0.0318915 -0.04072191 0.031698305 -0.00075328787
0001a0 f1 50 33 3d d7 7b 83 3d c9 37 0b 3d e5 3e 5e bd
       0.043778364 0.06420105 0.033988748 -0.0542592
0001b0 5e 8d dd 3d 44 f4 d3 3d 69 e8 da bc 4d 93 43 3c
       0.10817979 0.10349324 -0.02672215 0.011936975
0001c0 2c 69 74 bd 17 81 23 bd 85 0b 13 bd 04 7e ea bc
       -0.059670612 -0.03991803 -0.035899658 -0.028624542
0001d0 e2 6b 76 bd 35 47 c3 3d c4 ff 04 bd f5 d2 71 3d
       -0.06016148 0.09535066 -0.03247048 0.059039075
0001e0 32 98 d8 3b c6 42 c9 3c d8 a9 4a bb 7c 59 13 bc
       0.00660994 0.024567973 -0.0030923989 -0.008993503
0001f0 4c 31 14 bd b3 df 6f 3d 4c 5c 3f bd 96 3d 83 bd
       -0.036179826 0.058562946 -0.04671888 -0.06408231
000200 29 4f 4d 3d cd 61 31 3d 8f f4 bc 3c 6c e7 7e 3c
       0.05012432 0.04330616 0.023065833 0.015558105
000210 06 19 d0 bc 36 a6 ce 3c 0e db 6d bd 05 39 85 ba
       -0.025402557 0.02522574 -0.058070235 -0.0010164088
000220 ea a0 75 bc fa 45 04 3d 1b 90 1d 3d 5a df b8 bd
       -0.014991978 0.032293297 0.038467508 -0.09026976
000230 39 d8 ed 3c 81 86 33 3d e3 73 66 bd 4a b7 f2 bc
       0.029033767 0.043829445 -0.056262862 -0.029628415
000240 43 13 b2 bc a2 8f d9 3a 40 22 d7 3c 2f 01 15 bd
       -0.0217377 0.0016598592 0.026261449 -0.036378082
000250 da 1d 28 bc 7b a7 56 3d 0b e1 6e bd 8d dc d0 3b
       -0.010261023 0.052405816 -0.058320086 0.006373948
000260 1f 78 d8 bd f2 ac e1 3c 06 ec 45 3c 3a af 19 bc
       -0.10569786 0.027548287 0.012080198 -0.009380156
000270 63 49 1b bd 24 47 08 bc 10 26 c0 bc 9a 8a 16 3d
       -0.037911784 -0.0083177425 -0.02345565 0.036753275
000280 63 9b 02 3c 22 bc e2 bd 4b 9f 8b 3c e4 ff 32 bb
       0.007971617 -0.1107104 0.01704373 -0.0027313167
000290 57 af 66 3d 59 b7 6c bd 31 50 76 bd 26 c2 c2 bd
       0.05631956 -0.05779204 -0.06013507 -0.09509687
0002a0 f3 95 d6 3c 3e ba 56 3d ba 48 90 bd ce 09 99 3d
       0.026194548 0.05242371 -0.070451215 0.07472573
0002b0 bf bc df 3d 8e 0b da 3c 2b fb 1a bb 67 3e fd 3c
       0.10924672 0.026616838 -0.0023648243 0.030913545
0002c0 fb 38 bf 3c a7 05 4e bd a4 79 4a bd 72 4c 33 bd
       0.0233426 -0.05029836 -0.04943241 -0.043774076
0002d0 aa 4e dc bd 92 90 e1 bd 29 a9 fc bc 3a 19 3b 3c
       -0.107571915 -0.11013903 -0.03084238 0.011419589
0002e0 6f 4a 96 3d ee 51 ce bd 2d 18 3b 3d f5 27 d8 3d
       0.07338416 -0.100742206 0.045677353 0.10554496
0002f0 de 2e 68 3d 38 c6 3d 3d 42 bd 1f 3d 69 aa 55 3d
       0.05668532 0.046331614 0.03899885 0.05216447
000300 a0 bb 01 3d 30 65 c4 3c c8 30 2e 3c 6b 6b c4 3c
       0.031673074 0.023974031 0.010631748 0.023977002
000310 06 3b c2 bd 1e 15 99 bd da ef 34 3c 9f e7 19 bc
       -0.09483914 -0.07474731 0.011043513 -0.009393602
000320 5e 39 0c 3b ee d7 d2 bd 47 d1 5e 3c 1d dd b0 bc
       0.0021396498 -0.102950916 0.0135997 -0.02158981
000330 84 66 2f 3d ae f7 5f bc 28 11 b6 3c 61 a8 1d 3d
       0.042822376 -0.013669891 0.022224978 0.038490657
000340 38 19 e7 bc e8 02 c5 bd 26 79 e9 bd 8a cf ad 3c
       -0.028210267 -0.09619695 -0.1140006 0.021217126
000350 04 1a 9f bd 20 9e e3 bd 3b ca 98 3c 34 72 af 3d
       -0.07768634 -0.11114144 0.018651119 0.085667044
000360 e7 f8 41 bc 2c 79 12 3e ea 4a 6c bd e2 77 5b 3c
       -0.011839128 0.14304036 -0.05768863 0.0133952815
000370 ee ac 19 bd ed 45 31 3d 37 5d 2f 3c a7 93 5d bc
       -0.037518434 0.043279577 0.0107033765 -0.013523973
000380 cc 0c 80 bb f8 3a 12 bd b3 61 cb 3d e2 7e 72 bd
       -0.0039077755 -0.03570077 0.09930744 -0.059203036
000390 91 5c 69 3c 4b 05 de 3c 26 be d0 bd 21 95 7d bd
       0.014243261 0.027102133 -0.10192518 -0.0619098
0003a0 ba 56 88 bd 6a be cc bc 3c c5 8b 3d cb 4d 2f 3d
       -0.06657167 -0.02499314 0.06824729 0.0427988
0003b0 a7 4e bd bd 02 94 38 bd 22 a5 1d bc 4b cf 47 3d
       -0.09243517 -0.045063026 -0.00962189 0.048781674
0003c0 90 91 e9 3d e3 2e 34 bd 54 1a 6a 3d e7 69 77 bd
       0.11404717 -0.043990027 0.057154015 -0.06040373
0003d0 e0 29 38 bd 16 09 0b bd ee 93 83 3c ce 6e cc 3c
       -0.04496181 -0.033944212 0.01606175 0.02495518
0003e0 c5 41 07 3d e1 01 82 bd d4 cc d1 3d 0e dd 51 bc
       0.033021707 -0.063480146 0.10244146 -0.012809051
0003f0 36 fb bd bd 59 e7 f0 bc a9 64 c7 3c 7a ad 81 3d
       -0.0927643 -0.02940719 0.02433999 0.06331916

model/a_stream/b f4 [3]
000000 a3 64 6a 39 20 a3 88 3b 84 ab 01 bb
       0.00022353469 0.0041698366 -0.001978607

model/hidden/mid_rec_layer/upward/b f4 [80]
000000 ca 07 ef bc a6 ea da bd 00 00 80 3f 8b f4 db bd
       -0.029178519 -0.10689287 1.0 -0.10740002
000010 ac 0a 27 bd 99 89 ee bd 00 00 80 3f 95 5f ff bd
       -0.040781662 -0.116473384 1.0 -0.12469403
000020 e4 42 59 3d 99 be a5 3d 00 00 80 3f 45 0d c2 3d
       0.053042307 0.08092994 1.0 0.09475187
000030 01 5f 36 3d da d7 97 3d 00 00 80 3f 02 24 b8 3d
       0.044524197 0.07414217 1.0 0.08991243
000040 7c 64 92 3d 89 78 c2 3d 00 00 80 3f 1f bb df 3d
       0.07148072 0.094956465 1.0 0.109243624
000050 a4 5b e4 bc b0 59 8d bd 00 00 80 3f 63 14 8d bd
       -0.027875729 -0.06901872 1.0 -0.06888654
000060 5a 39 5a 3d 5c 00 a6 3d 00 00 80 3f 32 62 c5 3d
       0.05327735 0.08105537 1.0 0.0963787
000070 6f 9e 7c 3c 31 31 22 3d 00 00 80 3f 4b a2 6d 3d
       0.015418633 0.039597694 1.0 0.058016103
000080 c4 ac 46 3d c5 7f 93 3d 00 00 80 3f a5 71 ac 3d
       0.048504606 0.072021045 1.0 0.084201135
000090 6c 63 71 bd c1 cb d8 bd 00 00 80 3f ac a9 f6 bd
       -0.058932707 -0.10585738 1.0 -0.12044081
0000a0 4c 3d 95 bd 97 66 e5 bd 00 00 80 3f 30 75 04 be
       -0.07287082 -0.11201208 1.0 -0.12935328
0000b0 a5 9a e0 bc 59 63 95 bd 00 00 80 3f 5c 34 8a bd
       -0.02741749 -0.0729434 1.0 -0.06748268
0000c0 cb 67 10 3d 1b 9f 83 3d 00 00 80 3f 1b 19 a2 3d
       0.035255235 0.06426831 1.0 0.07914945
0000d0 70 c6 d7 3c 91 24 45 3d 00 00 80 3f 27 41 84 3d
       0.02633974 0.048130576 1.0 0.06457739
0000e0 26 66 74 bc 9f 72 26 bd 00 00 80 3f 36 11 03 bd
       -0.014916932 -0.040636655 1.0 -0.031998836
0000f0 55 92 26 bc 3a 20 fc bc 00 00 80 3f 21 a2 cd bc
       -0.010166724 -0.030777086 1.0 -0.025101723
000100 b3 a2 21 bd bc 80 01 be 00 00 80 3f ca b5 0a be
       -0.039461803 -0.12646765 1.0 -0.1354591
000110 7f 73 fb bb aa 9d c3 bc 00 00 80 3f ef 7b 6d bc
       -0.0076736803 -0.023878891 1.0 -0.01449488
000120 de 97 4f 3d 19 a6 af 3d 00 00 80 3f 8d da d2 3d
       0.05068194 0.085766025 1.0 0.102955915
000130 d6 83 93 bc e4 07 44 bd 00 00 80 3f c4 74 2b bd
       -0.0180072 -0.047859088 1.0 -0.041859403

model/hidden/input_layer/W f4 [256, 86]
000000 fb 3f 85 bd 55 7f f0 3c 2e 11 8d bd a4 13 20 bd
       -0.06506344 0.029357592 -0.068880424 -0.03908123
000010 aa d5 d4 bc 23 f3 df bc 99 8e 11 bb b9 da 1b be
       -0.02598079 -0.027337616 -0.002221024 -0.15220155
000020 7e 62 5b 3c da b0 58 3e 77 f4 95 3d b2 9d 3e be
       0.013390182 0.21161214 0.073220186 -0.18614843
000030 29 b7 82 bd b9 39 05 bc 21 0f 38 bb 49 5c b3 bd
       -0.06382591 -0.008131438 -0.002808519 -0.08757836
000040 09 d7 35 3d cb f2 23 bd c6 79 a8 3c 91 3b 28 3d
       0.044394527 -0.040026467 0.020565879 0.041072432
000050 dd e7 0b 3d a6 72 03 3e 71 d5 4d 3d ca 1d 12 3e
       0.03415667 0.12836704 0.05025238 0.14269176
000060 59 be d8 3d b2 42 27 bc 1f e7 63 bd 11 7d aa 3d
       0.10583181 -0.0102087725 -0.055640336 0.08324636
000070 48 ca 0e 3d f3 5e 07 bc 08 08 a3 3d c9 c9 4a 3c
       0.03486088 -0.008262384 0.07960516 0.012377211
000080 44 97 bc 3d bd 7f 69 bd 7d d2 11 3e 32 8d d3 bb
       0.09208539 -0.057006586 0.14240451 -0.006456041
000090 27 61 8d 3d 1c b7 29 bd cc d7 04 3d 09 66 e9 3c
       0.06903296 -0.041434392 0.032432362 0.028491037
0000a0 a7 54 eb 3d 04 13 12 bc 76 7d f0 bd 11 11 28 3d
       0.114907555 -0.0089156665 -0.1174268 0.0410319
0000b0 12 63 e3 bd 0d 18 25 be 3e 28 cd 3d e2 dd b8 bc
       -0.111028805 -0.16122456 0.10017441 -0.02256674
0000c0 eb 45 40 bd eb d3 96 bc 15 80 47 ba f9 d2 2c bb
       -0.04694168 -0.018411597 -0.0007610333 -0.0026370867
0000d0 dc ba 81 bd 5f 1b 9b bd cf 33 11 be b4 97 a9 bc
       -0.06334469 -0.0757358 -0.1417992 -0.02070222
0000e0 12 3a cc bd b2 73 4a bd dc 5d 1e 3e 7e 9f 39 3d
       -0.099720135 -0.049426742 0.15465492 0.04531812
0000f0 73 bc 7a bc 47 67 61 be 8c ee 23 3e 3a c7 47 3d
       -0.015303719 -0.22012053 0.16008967 0.04877398
000100 f3 79 e5 3c 62 9c 98 bd 76 ec d6 3d 85 61 77 bd
       0.028012251 -0.07451703 0.1049432 -0.060395736
000110 fe ef 75 be 8e 69 43 3e 64 5e 61 3e 22 a4 61 be
       -0.24017331 0.19083235 0.22008663 -0.22035268
000120 29 1b 72 bd 3b 52 f1 bd 9a f7 4f bb 7e 79 87 bd
       -0.059107933 -0.11783262 -0.0031733275 -0.0661497
000130 49 4b f8 bd b6 47 72 3d 62 89 11 be fd 1b 3f 3e
       -0.121237345 0.05915042 -0.14212564 0.1866302
000140 ba c4 e4 bb 8d f7 47 3e 3c bf b7 bb 1b 3d 67 3c
       -0.0069814594 0.19528027 -0.0056075137 0.01411369
000150 5e d5 97 3d 49 da ca 3c bc b3 b5 3b 69 51 9b 3c
       0.074137434 0.02476229 0.0055451076 0.018959718
000160 8d 64 16 be f6 30 6b bd 03 96 fd bd ae 1f 93 bd
       -0.14686795 -0.05741974 -0.12382128 -0.07183777
000170 49 84 43 3d 63 4b 72 be 6f fe 92 3e f2 bb 04 be
       0.04773358 -0.2366157 0.28709742 -0.1296232
000180 21 ab f7 bd 05 a6 09 3e 06 67 de 3a 48 9b 20 3e
       -0.12093187 0.13442238 0.0016967959 0.15684235
000190 8d c4 cd bd b5 4e c3 3c f0 b2 11 3e 39 55 38 bd
       -0.10047255 0.023841241 0.14228415 -0.04500315
0001a0 81 a7 b0 bd 32 04 9f bd 5b 21 49 3e 9e 29 6f 3c
       -0.08625699 -0.07764472 0.1964163 0.014597325
0001b0 f5 fe 73 3d 2e 97 08 3e a2 ca 33 be 92 9f 82 bd
       0.059569318 0.1333892 -0.17557767 -0.06378092
0001c0 c0 31 40 bb 9b 22 c9 bd 28 f2 d2 3d e8 7d ac 3d
       -0.0029326528 -0.098210536 0.10300094 0.08422452
0001d0 38 32 63 bd 87 62 9a bd 68 34 b5 bd ab 63 1d 3d
       -0.055467814 -0.07538324 -0.08847886 0.03842513
0001e0 11 3d 1e be a8 81 69 be 97 9e d9 3d 9b a1 18 3e
       -0.15452982 -0.22803366 0.10625952 0.14905398
0001f0 80 c0 30 be e0 aa c5 3c c2 9f 72 bd f2 dc 4c bd
       -0.17260933 0.024129331 -0.05923439 -0.050015397
000200 3c 1f b3 bc b7 ba 0c be 58 c8 c1 3a 50 43 bb bc
       -0.02186548 -0.13743101 0.0014784439 -0.022859246
000210 c0 0e 00 be b5 c2 a8 3e de d9 20 bd 54 4c 22 3e
       -0.12505627 0.3296105 -0.039270274 0.1584943
000220 b5 b7 b0 bc af 0d b3 3d e4 e1 1f be cb e7 55 bc
       -0.021571973 0.08742844 -0.15613514 -0.013055752
000230 4f 37 f5 3c 32 dd d1 3d 57 29 74 be cd 2d f2 bc
       0.0299336 0.10247268 -0.23843895 -0.029562855
000240 4c 64 87 3d d3 0c 11 3e 0e 7d 0f 3e c7 51 94 be
       0.06610927 0.14165048 0.14012548 -0.2896864
000250 a6 0a 4e 3e ca 3a ad 3b d5 87 04 3d 80 20 aa bd
       0.2012125 0.005286549 0.032356102 -0.0830698
000260 1c 0e 0e 3e cb 73 91 3c c0 20 28 3e cf 86 6c 3d
       0.1387257 0.01775541 0.16418743 0.05774575
000270 78 61 44 bd 42 f9 05 be b4 e6 e5 bc ba bc 2d bd
       -0.047944516 -0.13083366 -0.02806411 -0.04241631
000280 69 c6 a4 3b 1e 2a bd bd 24 05 4e bd 1d 91 4b 3e
       0.005028535 -0.09236549 -0.05029787 0.19879575
000290 49 b7 03 be 22 f2 36 3d ec 97 36 be 9d 52 84 3e
       -0.12862886 0.04466451 -0.17831391 0.2584428
0002a0 92 85 34 3d 5f d8 42 bc 9e fc 52 bc 24 17 71 bd
       0.044072695 -0.011892407 -0.012877611 -0.05885996
0002b0 49 3b 44 bc 34 07 52 3e 81 75 9c 3d 19 96 7a bd
       -0.011977025 0.2051056 0.076395996 -0.0611783
0002c0 1a 70 34 3e 54 8a 5c 3d af cd 0f be 8c 28 a5 3d
       0.17620888 0.053842857 -0.14043306 0.08064374
0002d0 c2 b5 85 bd cb 66 a5 bb 37 78 64 be 16 24 fe bb
       -0.06528808 -0.0050476543 -0.22311483 -0.0077557666
0002e0 f8 e9 eb bd 0e b6 20 3d 67 52 13 be ce 1b e8 bc
       -0.115192354 0.03923612 -0.14386903 -0.02833357
0002f0 8e b3 9a bd 27 34 99 3d 4b 3a 66 be 07 68 11 be
       -0.075537786 0.074806504 -0.22483175 -0.1419984
000300 c8 4c dd 3d 95 6d fe 3d 1e d9 76 bd 31 e0 ff bc
       0.108056605 0.12423245 -0.060265653 -0.031234832
000310 3e a2 6f 3e 62 b6 de bc b6 d3 bd 3d a8 76 c1 3d
       0.23401734 -0.027186576 0.09268896 0.0944646
000320 7e 5e 76 3e 06 e0 2b 3d 58 d7 3d be 41 0c 8a bd
       0.24059483 0.041961692 -0.18539178 -0.067406185
000330 82 4a 23 bd e9 b6 42 bd 17 7a 75 3b 22 51 92 bd
       -0.039865978 -0.047537718 0.0037456804 -0.07144381
000340 c9 88 3a 3e 39 27 f7 3c 67 f8 b0 bc cd 4d 0b 3e
       0.18216242 0.03017007 -0.021602822 0.13603897
000350 17 f1 f2 3d 68 1c e3 bd 43 14 40 be 5e 96 00 bd
       0.118623905 -0.110894024 -0.18757729 -0.0313934
000360 73 25 ec 3d 2b 4c e9 bd 36 69 5a be 6e 7d 70 3c
       0.1153058 -0.11391481 -0.21329197 0.014678342
000370 03 f1 1e 3c 4c d2 bb 3c 37 bf 97 3c 6a b7 f9 3d
       0.009701016 0.022927426 0.018523796 0.121931866
000380 ea 36 f4 bc b3 f8 f3 bd 62 a2 94 3d 14 b9 65 bc
       -0.029811341 -0.1191267 0.072575346 -0.014021177
000390 ed a1 99 3d 54 78 b0 bd 5e 73 27 bd c9 18 77 bd
       0.07501588 -0.08616701 -0.040881507 -0.06032637
0003a0 02 be a4 bd ee 44 3f be c9 43 c2 bd 99 5b a8 3d
       -0.080440536 -0.18678638 -0.09485585 0.08220596
0003b0 aa 1c 10 3d 0b 36 c5 3c 8d 94 10 bc 3b a9 43 bd
       0.035183586 0.024073621 -0.00882448 -0.047768813
0003c0 70 18 d1 bc 88 00 d7 3c 1f ff 1e bd 5a fe 86 bc
       -0.025524348 0.02624537 -0.03881752 -0.016478706
0003d0 b2 6e 01 be 95 d6 c9 3c 95 25 e1 bd f7 8e 0b 3e
       -0.12639883 0.024638453 -0.10993496 0.13628756
0003e0 40 3d 8b bd c7 72 58 bd e4 85 02 3d 63 4c f2 bd
       -0.06798792 -0.052843835 0.03186597 -0.11830976
0003f0 23 30 eb 3d 5b 9f cb 3d 04 b2 b4 bd c4 a8 81 3d
       0.11483791 0.09942504 -0.08823016 0.063310176
