ai_challenge/results/simulation_DoubleDQN_DuelingRecNN_2017-05-19T19:40:53.24/540008/model.npz (npz, 632687 bytes, 12 tensors)

model/hidden/input_layer/b f4 [256]
000000 ef 60 39 bd 5d 5f e5 bc 57 e0 57 bd 2b 0a 24 bd
       -0.04525846 -0.027999574 -0.05270418 -0.04004876
000010 d5 ea b6 bc 1e 94 89 bd 2b 9e 5a bd 7b 47 f7 bd
       -0.022328774 -0.06717704 -0.053373497 -0.12074181
000020 d2 bf 37 bd a6 f1 02 bb c5 00 c8 3c de 43 3e bd
       -0.04486067 -0.001998046 0.02441443 -0.046451442
000030 5f 58 19 bd 8f 70 93 bc 03 b2 99 bd b2 cb aa bc
       -0.037437793 -0.017998008 -0.07504656 -0.020849083
000040 34 6c 3b bd be b8 7f bd 44 ff 4b bd 15 67 91 bd
       -0.045757487 -0.062432043 -0.049803987 -0.070997395
000050 6f e0 94 bd 5e b6 00 bd fd ba 85 3c 5c 2d 09 bd
       -0.0726937 -0.03142392 0.016324515 -0.033490524
000060 8d eb 88 bd a2 b9 2e bd 02 1a 35 bd 2f 13 43 bc
       -0.06685553 -0.042657502 -0.044214256 -0.011906429
000070 5c 9b 32 bd 1c f2 2c bd dd 49 9a bd b7 e0 1a bd
       -0.043605193 -0.04222308 -0.075336196 -0.03781196
000080 c9 21 b0 bb a1 f0 00 bd 95 25 3b 3d f7 8f 3b bd
       -0.0053751213 -0.03147948 0.045690138 -0.045791592
000090 3d fb 87 bd 2a d1 4f bd ba 8f 88 bd 78 9e ff bc
       -0.06639717 -0.050736584 -0.06668039 -0.031203493
0000a0 b9 a5 b0 bc e3 a3 8d bd 67 89 20 3d 36 a2 7e bd
       -0.021563398 -0.069160245 0.039193537 -0.062166415
0000b0 8f 68 4d bd d4 88 42 bd f7 03 ed bc 83 c7 71 bd
       -0.050148543 -0.04749377 -0.028932555 -0.05902816
0000c0 43 7c 05 3c b8 7b 94 bd a3 bc b6 bd ff 0d b9 bc
       0.008147302 -0.0725016 -0.08922698 -0.022589682
0000d0 3d bd 39 bd 9c 7d 56 bd 4b 91 32 bd 4a 4a 3e bd
       -0.045346487 -0.052365884 -0.043595593 -0.046457566
0000e0 4d f4 4a bd 2b 33 7f bd a1 ee 4e bd 4a 88 3f bd
       -0.04954939 -0.062304657 -0.050520543 -0.046760835
0000f0 3f d1 77 bd 61 c4 2a bd e2 67 59 bd 60 f4 eb bc
       -0.060502287 -0.041691188 -0.053077586 -0.02880305
000100 9c db a1 bc 7d 86 5d bd 26 0d 42 bd b2 5f 24 bd
       -0.019758038 -0.054083336 -0.04737582 -0.040130325
000110 62 4a 58 bd a6 fe 84 bd 3c 24 87 bd e3 16 d0 bd
       -0.052805312 -0.06493883 -0.06598708 -0.10160615
000120 49 d5 72 bd 06 86 ad bc cf 10 05 3b 45 0c 85 bd
       -0.059285436 -0.021182071 0.0020304208 -0.06496481
000130 de 53 31 bd e0 34 62 bd 6c cd aa bc 4a 51 9a bd
       -0.043292873 -0.055226207 -0.020849906 -0.07535036
000140 8b 36 88 bd 52 4c 84 bd 22 74 89 bd 31 6c 7c bd
       -0.06651028 -0.064598694 -0.06711604 -0.061626617
000150 41 97 7a bd 86 6c 8c bd e1 47 9a bd 8d 38 c0 bd
       -0.061179403 -0.06856637 -0.07533241 -0.09385786
000160 39 6e 2e bd 70 82 9a bd 7e 5b a6 3c 31 ee d3 bc
       -0.042585585 -0.0754441 0.020307299 -0.025870414
000170 05 97 71 bd 3b 09 29 bd 77 71 d0 bb 71 7e e6 bc
       -0.058981914 -0.04126857 -0.0063611823 -0.028136464
000180 f0 29 9f bc 49 5a 21 bc c4 e4 9b ba 63 51 a6 bc
       -0.019429177 -0.009848186 -0.0011893739 -0.02030248
000190 12 ca c2 bc 9f c2 68 bd f5 d1 c2 bc 06 71 88 bc
       -0.023777995 -0.05682623 -0.023781756 -0.016655456
0001a0 de c3 70 bc 1b b5 28 bc c2 34 df bb a3 08 8c bd
       -0.014695136 -0.010297085 -0.006811709 -0.06837585
0001b0 e7 ea be bc 8c 93 d0 bd 48 cf 88 bd 04 b9 95 bd
       -0.02330537 -0.10184392 -0.06680161 -0.073106796
0001c0 0e 31 50 bd e4 29 b9 bd d6 e7 83 bd 9a 08 30 bd
       -0.050828032 -0.09041193 -0.064407036 -0.042976953
0001d0 f1 32 9b bd 5e c7 82 bd e8 e8 ae bd 7e 53 7a bd
       -0.07578076 -0.063856825 -0.08540517 -0.06111478
0001e0 68 11 c1 bd c2 01 d8 bc 26 65 63 bd 80 56 b8 bd
       -0.09427148 -0.026368026 -0.055516385 -0.090008736
0001f0 fd e2 90 bd eb b3 db bc aa f2 b3 bd bb 3f bb 3c
       -0.070745446 -0.02681919 -0.08786519 0.022857537
000200 88 b1 99 bc 04 cd 4a bd bd 4a 92 bd ba 39 0d bd
       -0.018761411 -0.049511924 -0.071431614 -0.03447888
000210 d7 35 f8 bc 57 12 dc bc 11 8e 6d bc 34 46 43 bd
       -0.03029911 -0.026864214 -0.014499203 -0.047674373
000220 17 fa 51 bd d3 c8 3d bd 51 0a ba bd b2 69 74 3b
       -0.051263895 -0.0463341 -0.09083999 0.0037294445
000230 7d 0e 00 bd 05 2b 5c bc c5 73 30 bd bf bc 3a bc
       -0.031263817 -0.013437991 -0.043079156 -0.01139754
000240 f6 bd f4 bc 52 cf ce bc 71 9e 49 bd b2 b0 8f bd
       -0.029875737 -0.025245342 -0.049223367 -0.07016124
000250 f5 c6 a2 bd 7b 05 8c bd 24 e3 21 bd a6 ae af bd
       -0.07948104 -0.06836983 -0.03952326 -0.085782334
000260 4d 22 94 bd 3a 5d 39 bd 1b 11 31 bd e8 27 58 bc
       -0.07233105 -0.045254923 -0.043229204 -0.013193108
000270 46 75 88 bd cc 20 3a bd cd 2f 2c 3c a3 ad 20 bd
       -0.06662993 -0.045441434 0.0105094435 -0.039228093
000280 d5 8a 4d bd 5f 49 aa bd cf 33 cf ba 5a 65 6a bd
       -0.05018123 -0.08314776 -0.0015808287 -0.057225563
000290 9f 05 62 bd b2 4f c9 bc ea aa 5c bd dc 40 b3 3b
       -0.055181142 -0.024574134 -0.053873934 0.0054703783
0002a0 48 0b ef 3b 3d 3d 70 bd e7 d5 2b bc 50 d7 ac 3c
       0.007295046 -0.05865215 -0.01048801 0.021098763
0002b0 d1 07 ce bc ef 91 c9 bc 46 a6 65 bc a2 78 7b bc
       -0.025150212 -0.02460572 -0.014016693 -0.015348585
0002c0 bc 4e e4 bc 84 f4 57 bd 3c 09 48 bd 7a 27 9e bd
       -0.027869575 -0.052723423 -0.04883693 -0.07722373
0002d0 a4 bd 1f bd 16 3f 0b bd 96 40 26 bd 69 3f 50 bd
       -0.038999215 -0.03399571 -0.040588938 -0.050841723
0002e0 6b 46 09 bc fb 1e 88 bd 7c 86 1f bd 33 63 c8 bd
       -0.008378605 -0.06646534 -0.038946614 -0.09784546
0002f0 dc 0f 97 bd b1 5c 5d bd f5 86 83 bd 77 48 cf bd
       -0.07376072 -0.054043476 -0.064222254 -0.101212434
000300 a2 bd 57 bd 67 68 7b bd 6a 09 25 bd b3 d2 74 bd
       -0.052671082 -0.061378863 -0.04029218 -0.05977125
000310 9a 46 64 bd 49 e2 5b bd 5a 42 8b bd 79 e4 bd 3c
       -0.055731393 -0.0536826 -0.06799765 0.023180233
000320 39 e7 11 bd fc de 3e bd 4d 72 51 bd 61 4e 84 bd
       -0.0356209 -0.046599373 -0.051134396 -0.06460262
000330 5a 66 83 bd 2a 1a c8 bc d3 f8 40 bd 69 32 33 bd
       -0.064160064 -0.024426538 -0.047112297 -0.043749247
000340 e4 7c 3e bd b8 71 62 bd 2b b6 f4 bc e8 bb 60 bd
       -0.046505824 -0.055284232 -0.02987202 -0.0548667
000350 f9 56 56 bd fb 4e ca bc 45 2e b4 bd 09 20 91 bd
       -0.052329037 -0.024695864 -0.08797888 -0.07086188
000360 76 3f 09 bd d3 05 61 bd 01 11 c0 bc 79 32 4f bd
       -0.033507787 -0.054937195 -0.023445608 -0.050585244
000370 02 a5 12 bd f7 59 39 3c 76 c2 ce 3a d6 2a 88 bc
       -0.035801895 0.011312953 0.0015774507 -0.016621988
000380 cd 3d 1b bd 50 d9 e7 3b 9f f8 7d bd 48 02 5a bd
       -0.037900735 0.007075466 -0.06200468 -0.05322483
000390 31 5e 3e bd cb d7 37 bd 94 86 85 bd d6 bd 33 bd
       -0.046476547 -0.04488353 -0.06519809 -0.043882214
0003a0 80 5e 56 bd 32 03 76 3c a8 79 cb bb f1 b0 49 bc
       -0.052336216 0.01501541 -0.006209571 -0.0123102525
0003b0 ca 62 92 bd 7a 31 82 bc f9 4a 2b bd 3c 67 82 bd
       -0.07147749 -0.015892733 -0.041819546 -0.06367347
0003c0 6b 6d 4d bd ef ff aa bc 1d 91 73 bd 86 94 6d bd
       -0.050153177 -0.020873992 -0.059464563 -0.05800297
0003d0 06 76 96 bc 91 08 1f 3d 78 14 9c bd 54 e5 85 bd
       -0.018366825 0.03882653 -0.076210916 -0.065378815
0003e0 ac f3 02 bd 7a 85 3b bd c3 34 a0 3c 4c 2b 92 bc
       -0.031970665 -0.04578159 0.019556409 -0.017842911
0003f0 4f eb 01 bc 41 04 a5 bd 50 5e 58 bd b7 e4 89 bd
       -0.007929637 -0.08057452 -0.05282432 -0.06733077

model/hidden/output_layer/b f4 [256]
000000 1b 9e ba 3c 70 76 57 bc 2e ef 5e ba 79 8f 69 bc
       0.022780469 -0.013150796 -0.00085042685 -0.014255398
000010 ce 62 24 3c 02 88 22 3c 8d d3 dd 3b 44 02 84 3c
       0.0100333225 0.009920122 0.0067696036 0.016114362
000020 19 2d e8 bb b2 8f 86 3c 47 77 b8 bc ed f7 83 ba
       -0.007085454 0.016425941 -0.022517813 -0.0010068394
000030 28 92 9e 3c ef b3 a2 bb d2 01 bd 3c 4e 04 5c 3c
       0.019356802 -0.0049652974 0.023072157 0.013428761
000040 65 a3 ab 3a ac 4f 23 bb 5c 50 af bc 30 0f 56 3c
       0.001309496 -0.0024919314 -0.021400623 0.013065144
000050 c7 15 de bb c7 ef 68 bc c4 4d 34 3c b9 3c 79 bb
       -0.0067774984 -0.014217324 0.011004869 -0.0038030578
000060 17 f4 ee bb 53 09 f8 39 a9 e1 9a bc 97 13 92 ba
       -0.0072922814 0.00047309193 -0.018906431 -0.0011144754
000070 a7 dd 1d b9 54 f6 d1 3c 77 3d bd bc dd 50 77 bc
       -0.00015055259 0.025630154 -0.023100598 -0.015094963
000080 fa 99 5c bb 66 4d 2e bc 80 46 89 3c 82 1c 1b bc
       -0.0033661113 -0.01063857 0.01675725 -0.009467246
000090 cf df 48 bc 07 06 3c 39 25 50 87 3c d1 0c bd 39
       -0.012260391 0.00017931323 0.016517708 0.00036058438
0000a0 34 39 5e 3c 9a b8 b5 39 35 eb 83 3b 61 f8 b2 3c
       0.013563443 0.0003466055 0.0040258416 0.021846952
0000b0 61 6c e2 3a 9a 4d 5c bc c9 4e a6 bc 01 16 c0 3b
       0.0017274731 -0.013446236 -0.02030124 0.005861998
0000c0 6d 1e 88 bc cd b9 19 3c 00 0c 48 bc d4 b6 4c bc
       -0.01661607 0.009382677 -0.012209892 -0.0124947615
0000d0 ce 8c c3 bc 0d 4f 77 3b 7b 71 a8 bb 03 44 aa 3b
       -0.023870852 0.0037736327 -0.005140481 0.005196096
0000e0 1c 63 a5 bc a1 34 14 bc 76 9f b7 3b e4 6e 09 bc
       -0.02018886 -0.009045751 0.005603726 -0.008388255
0000f0 f3 aa 8a ba b0 2a 7e 3c dd ae 70 3c 2f d0 12 bc
       -0.0010579511 0.015513107 0.014690128 -0.008960768
000100 56 13 6d 3c 76 ad 82 3c f7 50 8e bc 81 d2 29 bc
       0.014469942 0.015951853 -0.017372591 -0.010365129
000110 86 36 81 bc 0d 1c 68 bc 3e 96 83 bc 1b ee 83 3c
       -0.01577307 -0.014166844 -0.016062852 0.016104748
000120 a7 df 1a bc 7e 11 c8 bc 10 db db bb 9b 86 b4 bb
       -0.009452737 -0.024422403 -0.006709464 -0.0055092103
000130 2b aa 31 bc 1f b5 14 ba 40 c1 a0 bb 62 04 e4 3b
       -0.010843794 -0.0005672741 -0.0049058497 0.0069585303
000140 d4 4e a5 bb a0 b4 20 bb 93 3e 0c bc ed 98 36 3c
       -0.0050447974 -0.0024521723 -0.008559841 0.011144859
000150 19 4a ed 3b 53 34 b7 bc db c6 c5 3b 01 be 3c 3c
       0.007241499 -0.022363817 0.0060356683 0.01151991
000160 b2 93 c0 bc 09 26 a0 bc 0c 02 02 3b 57 54 1d 3c
       -0.023507927 -0.019549387 0.0019837646 0.009602628
000170 7c fc 64 3c 91 6a 28 bb ef 06 70 bc 70 b6 8b 3c
       0.013976213 -0.0025698284 -0.014650091 0.017054766
000180 08 93 2a bc 47 79 dd ba 87 75 3c 3c 1e ac 49 bc
       -0.010411032 -0.0016897105 0.01150263 -0.012309102
000190 a1 b0 11 3c ee 8f b4 bb a6 aa c0 bc 00 1b c3 3b
       0.008892209 -0.005510322 -0.023518872 0.0059541464
0001a0 28 f0 b7 bb 13 f1 b0 3c d1 0f 8b bc 23 58 10 3c
       -0.0056133457 0.021599328 -0.016975315 0.008810076
0001b0 23 67 a1 3a dd 38 72 3a dc 8f c2 3c 22 bc 92 3b
       0.0012314062 0.00092400407 0.023750238 0.0044779936
0001c0 ba 60 d3 bc 3a d1 ca 3b 3c f4 42 bc 64 49 37 bc
       -0.025802959 0.0061894925 -0.01189905 -0.011186931
0001d0 7f 33 af bc a9 eb 40 bc fa 3f cd 39 88 2d 20 3c
       -0.02138686 -0.011774936 0.00039148313 0.0097764805
0001e0 bc d5 1c bb 05 82 de ba bd 2f 92 3c 8b d7 08 3c
       -0.0023931107 -0.0016976005 0.017845029 0.008352171
0001f0 67 87 85 bc a9 c7 2e 3c ec 0c 48 3c cb 38 d0 3b
       -0.016299916 0.01066772 0.012210112 0.0063544265
000200 2c 1b ab bb d3 14 b9 bc 15 d3 dd ba 24 ca 4c bc
       -0.005221745 -0.022592938 -0.0016923869 -0.012499366
000210 17 d6 8c 3c f5 ff 0b bc 2f 2e c0 bb 80 70 6b bc
       0.01719193 -0.008544912 -0.0058648805 -0.014370084
000220 97 b8 33 bc 38 77 fa 3b de 81 62 3c 9d 5e 6b 3c
       -0.010969303 0.0076436065 0.013824908 0.014365819
000230 40 8a 92 3c d4 85 2c bc 4a a3 07 3b c8 ee de ba
       0.017888188 -0.010529954 0.0020696693 -0.0017008418
000240 2c 64 1e bc 13 ab ac 3c d6 f4 84 3c cd d3 43 bc
       -0.0096674375 0.021077668 0.016230028 -0.011952353
000250 09 67 ff 3b b0 9e a8 bc b6 34 4f bc ef 5f dd 39
       0.007794265 -0.02058348 -0.012646845 0.0004222388
000260 b2 f1 fc bb 83 35 56 bc 27 f4 1b 3c 94 fb 65 39
       -0.007719242 -0.013074282 0.00951866 0.00021932862
000270 23 cc 42 bc ad 5f 5c 3b e2 ba 99 3b e1 f4 56 3c
       -0.01188949 0.0033626363 0.0046914676 0.013119907
000280 a6 7b b4 3b ce 38 46 3c f0 dc 05 bc cc 7f c2 3b
       0.005507904 0.012098504 -0.008170351 0.0059356447
000290 b6 f3 55 bc fe a1 97 bc 9a 02 86 bc 68 97 b3 bb
       -0.0130585935 -0.018509861 -0.016358662 -0.0054806955
0002a0 d4 ca cc 3b 49 cb 62 3b ca 91 3a 3c 52 3f 16 bc
       0.006249765 0.003460603 0.011387298 -0.00917037
0002b0 fb 90 85 b9 01 df 90 3c aa 68 56 3c b3 34 b0 3b
       -0.00025475756 0.017684462 0.013086477 0.005377376
0002c0 dc fe 66 3b 4c de 81 bb 2f 28 8c bb 48 58 dd bb
       0.0035247123 -0.0039632674 -0.004277251 -0.0067549087
0002d0 6b 5f b4 3c 70 cc 1a 3c 47 ba 9b bc 0f c1 80 bc
       0.022018155 0.009448156 -0.019009722 -0.015717058
0002e0 6c a5 a4 3c 2a 21 9c bc d2 b3 84 3c 6d 88 ba bb
       0.02009841 -0.019058783 0.016199026 -0.0056925328
0002f0 69 23 8d bc 58 0a 26 bc 6e 81 74 3c 21 c2 89 bc
       -0.017228799 -0.010134302 0.014923437 -0.0168162
000300 3c 37 f7 3a dc 7b d0 3b ed 03 74 3b 78 28 82 bc
       0.0018861066 0.0063624214 0.0037233785 -0.015888438
000310 9a 18 a8 3c f6 60 57 bc 1e 80 a0 3c 3b ee 3e bc
       0.020519543 -0.013145676 0.019592341 -0.011653478
000320 f4 6e 7f 39 ad f3 62 3c 2a cb 32 3c e0 c8 b1 bc
       0.00024360028 0.013852042 0.010912696 -0.02170223
000330 f7 c3 03 3b 0f b3 6f bc 24 7e 85 3c 7b 65 11 3c
       0.0020105818 -0.014630093 0.0162955 0.0088742925
000340 bd 46 5c bc 70 f5 2c bc 10 0e 1d 39 1e df 18 bb
       -0.0134446 -0.010556564 0.00014977925 -0.0023326348
000350 ba 23 78 bc 09 17 5b bc 4d 12 42 3b d0 ab 4f 3c
       -0.015145237 -0.013372191 0.002961296 0.012675241
000360 01 57 5a 3c 08 aa b7 ba 76 2e 66 bc 30 5c ad 3c
       0.013326407 -0.0014012465 -0.014049163 0.021162122
000370 dc d0 46 3b 8e a9 86 3c 28 77 d7 3c cd 9a 23 39
       0.0030336892 0.016438272 0.026301935 0.00015602559
000380 83 94 48 3c 4c 1d 56 bb 4d 85 44 3c 7a 05 86 bc
       0.012242439 -0.003267127 0.011994672 -0.016360033
000390 c7 65 d6 bc 7e 94 84 3c d2 31 90 bc a2 af 96 3c
       -0.026171578 0.016184088 -0.017601881 0.018394295
0003a0 91 04 84 3c ed f0 08 bb 95 b0 93 3b 9d 94 6f bc
       0.016115459 -0.0020895556 0.004507134 -0.0146228345
0003b0 d4 c1 8e bc 26 93 62 bc 1a 5f c2 3c 90 7a 42 3c
       -0.017426409 -0.013829028 0.023726989 0.0118700415
0003c0 33 1a 8c 3c d9 c3 18 bc a9 02 a3 3b f0 7f 5e bc
       0.017102337 -0.0093240375 0.0049746823 -0.013580307
0003d0 2c bd e9 bb f9 7f 3f 3c 61 fb 7c 3b d6 9d ad 3b
       -0.0071331467 0.011688226 0.0038601982 0.0052983565
0003e0 7d 78 ed b9 20 c5 66 bc 44 6e 93 3c 4f 12 2f 3c
       -0.00045293933 -0.014085084 0.017996915 0.010685517
0003f0 7c d9 eb ba eb f4 fd 3b c6 6e 0d bb cd 3c a1 3b
       -0.0017993893 0.0077501438 -0.0021580919 0.004920578

model/a_stream/W f4 [3, 256]
000000 dc 84 4b bc 01 b3 4c 3c a3 a8 1f bd bd db 59 3c
       -0.012421813 0.01249385 -0.038979184 0.013297019
000010 ad c8 8f bb 13 a4 cb bc d5 c4 38 3c fc ef 3f bc
       -0.004387936 -0.02485851 0.011277397 -0.011714932
000020 6e a9 3a 3c 6d 12 e2 bb 61 ec 07 3c 14 4c 9e bb
       0.011392934 -0.006899169 0.008296103 -0.0048308466
000030 48 f5 4c bc 8f 85 1d bd 97 28 f9 bb 83 59 45 bb
       -0.0125096515 -0.03845745 -0.0076037156 -0.0030113168
000040 8a 66 c1 3a d0 49 f9 bc b7 ef 27 3c e3 ed fb bb
       0.001475529 -0.030430704 0.010250024 -0.0076882704
000050 72 22 40 3b 14 25 96 3b e3 1a 83 ba e6 34 91 3c
       0.0029317406 0.004582057 -0.001000252 0.01772542
000060 19 67 0f 3d 15 50 23 bd 27 eb 8b 3c ea 08 3d bd
       0.03501043 -0.039871294 0.017079903 -0.04615108
000070 1c fa 38 3d 72 5d 91 bc 90 e8 1e 3c e3 10 1e 3c
       0.045160398 -0.017744754 0.009699002 0.009647581
000080 70 39 34 bd 2b 2e 47 3b 6a af 8b bc ec fc 28 bc
       -0.04400009 0.0030392508 -0.017051417 -0.0103142075
000090 c8 4b c0 3c 21 18 9c bc 74 88 51 3b 97 9a c3 bc
       0.023473635 -0.019054474 0.0031972202 -0.023877425
0000a0 bb 74 63 bc 85 37 b5 3c 9b 56 05 3d 34 45 15 bb
       -0.013882811 0.0221212 0.032553297 -0.0022776844
0000b0 2d bd fe 3c 33 75 55 3c 12 99 42 3c e5 43 1a 3d
       0.031096065 0.013028431 0.011877315 0.037662406
0000c0 7f ff ab 3c 10 38 7d bc 95 81 04 3c 0e 14 83 3b
       0.020995853 -0.015455261 0.008087535 0.0040001934
0000d0 5a 03 0a 3c 17 7c 07 3d ec 61 65 bc 26 54 ce 3b
       0.008423651 0.033077326 -0.014000397 0.0062966524
0000e0 41 52 b6 3c 69 ba 25 3c 82 fb 04 3d fe 06 bb ba
       0.022256019 0.010115244 0.03246642 -0.0014269052
0000f0 65 1f 26 bc 5e e7 80 3c c3 69 67 bb d1 f1 29 bc
       -0.010139321 0.015735324 -0.0035310842 -0.010372595
000100 c2 74 8d bc b8 f0 c8 bc fc 36 a5 3b 8c 9a 76 ba
       -0.017267589 -0.024528846 0.005041955 -0.00094071846
000110 73 e3 d6 ba ab 79 01 3c f4 8a 45 3c 3b 55 c7 bb
       -0.001639469 0.007902543 0.012057055 -0.0060831583
000120 56 40 3c 3c fa 95 fc 3a 9a 7e 25 bd 3b af 0d bd
       0.011489948 0.0019270771 -0.04040394 -0.03459094
000130 19 ec be 3c 5f ce af bc 7f a4 26 bd 5f 43 8b 3c
       0.02330594 -0.02146071 -0.04068422 0.016999898
000140 35 83 ce 3c 87 1e 32 3d 0c f4 b9 bc 07 70 98 bc
       0.025209049 0.043486144 -0.022699378 -0.018608106
000150 00 36 d0 3c ba ac 9e ba 0a 6a e9 3c a7 1e a0 3c
       0.025416374 -0.001210592 0.028492946 0.019545866
000160 8e 8f 48 3c 9c b8 08 3c 07 0c 0e 3d 4f da da ba
       0.012241257 0.008344796 0.03467944 -0.0016697141
000170 aa 27 e7 ba ce b4 fd bc c6 6a 1d 3a e7 e3 f2 bb
       -0.0017635722 -0.030970003 0.0006004985 -0.007412422
000180 65 b6 2a 3c c3 b2 08 3c 8c a7 8f bb e9 27 6d bb
       0.010419463 0.008343401 -0.004383987 -0.0036187118
000190 11 e4 3b 3b c8 a9 80 bc 05 c8 96 3c 53 22 8d 3c
       0.0028669874 -0.015705958 0.018405924 0.017228281
0001a0 d3 6f 0b bd 9f d4 b5 bc 0c 04 0a 3c be 1d b8 3c
       -0.03404219 -0.022196112 0.008423816 0.02247512
0001b0 97 2e 85 bc 2f 7f d2 3b 1d e8 84 bc 85 ba ac 3c
       -0.016257567 0.006423853 -0.016223961 0.021085033
0001c0 04 41 f4 3a 4e d3 c0 3c 0b d3 a9 b9 87 58 26 3c
       0.0018635099 0.023538258 -0.0003239143 0.0101529425
0001d0 d0 a5 73 3c 64 55 98 3b 99 f8 ad bc f2 b4 e7 39
       0.014871076 0.004648851 -0.021236705 0.00044194568
0001e0 ed b1 c0 bc 57 d0 e0 bc 41 5c ba bc 68 49 61 3b
       -0.023522342 -0.027443094 -0.022749068 0.003437603
0001f0 7b f1 a4 3c bc 64 c3 3b c0 79 f5 b5 cf 5f 8d 3c
       0.020134678 0.005962936 -1.8289356e-06 0.0172576
000200 de cd 13 bd 91 56 62 3c 3e 21 d1 bc 94 5c 40 bc
       -0.036085002 0.013814584 -0.025528546 -0.011740822
000210 84 0a 4e bb f1 db 1b bc b1 f3 ad 3c 16 a9 ec 3a
       -0.0031439373 -0.009512887 0.021234365 0.0018055763
000220 06 67 00 3c d3 55 72 3c 4c 06 03 3c 48 8f 5d bb
       0.007837063 0.01479097 0.007997107 -0.0033807326
000230 40 b2 d0 ba ed b4 3f 3c c8 42 18 bc c5 cc 79 3c
       -0.0015922263 0.011700851 -0.009293266 0.015246575
000240 cb 60 42 3b 3f 43 9b bc bc 17 7c bc de fe 4c 3c
       0.0029659744 -0.018952964 -0.015386518 0.012511937
000250 70 41 a8 3c 17 74 00 3c a4 74 24 3b 4f f2 32 bb
       0.020539016 0.007840178 0.0025093937 -0.0027305072
000260 f8 b2 16 bd 8f eb 81 3c a3 db b0 3c af c4 4f bc
       -0.03679177 0.015859393 0.021589106 -0.01268117
000270 80 5d 8b 3c a5 78 09 3d d8 26 38 3d 89 65 af bc
       0.017012358 0.03356232 0.04495892 -0.02141072
000280 b7 25 10 3d 34 97 c4 bc ef b8 04 bc d8 37 4d 3c
       0.035192218 -0.02399788 -0.008100732 0.012525521
000290 50 0c a6 3c 41 3f d8 3b af f1 2a 3b aa ce 80 bc
       0.020269543 0.0065993373 0.0026083996 -0.015723545
0002a0 78 81 7a bb 09 40 f9 3c c1 7e 06 3c d8 70 6c 3c
       -0.0038224142 0.030426042 0.008208931 0.014431201
0002b0 e3 f6 29 3c e7 c5 a8 bb 4a da 08 39 bb 44 86 ba
       0.010373804 -0.005150545 0.0001305129 -0.0010243872
0002c0 bb 37 2e 3d 7e 92 26 bb da fe ec bc 33 0e 0d bc
       0.042533617 -0.0025416906 -0.028930116 -0.008609342
0002d0 a7 63 90 bc 25 52 c2 bb 4a 6d dc 3b ff 1b 69 3c
       -0.017625643 -0.0059302025 0.0067268955 0.014227866
0002e0 2e 07 d6 3a 54 64 08 3c 3b 34 7c 3b 08 c1 29 bd
       0.0016329044 0.008324701 0.003848328 -0.041443855
0002f0 fa 33 a1 3c 15 c7 a5 bb 7b c7 87 bc da 09 4f bb
       0.019678105 -0.005059133 -0.016574612 -0.0031591565
000300 35 2c 2a 3d c2 ac 91 3c e4 d0 fb 3c f7 be 96 bd
       0.041546065 0.017782573 0.030739255 -0.073606424
000310 6c 89 a1 bc 5c b5 59 3c c6 cf cd bc bd d3 99 3b
       -0.019718848 0.013287868 -0.025123488 0.0046944306
000320 7c 53 af bc 96 6f 8b bb 8d b9 7a bc c7 ff aa 3c
       -0.021402113 -0.0042552454 -0.015303028 0.020873917
000330 32 ec 5d 3d ce e3 b8 ba fb 82 cb bc 9a 57 6b 3c
       0.05418033 -0.0014105977 -0.02484273 0.014364148
000340 d7 89 7a 3c 9d 15 8f bc ba a5 38 3d ef dd 6a bc
       0.015291653 -0.01746636 0.045079924 -0.01433514
000350 53 be a5 3b 9e ed 2c 3b 42 76 e0 3c 67 1b 3e bc
       0.005058089 0.0026386748 0.02740014 -0.011603213
000360 5c 01 a6 bb 8d a0 08 bd 01 ef 7f ba 3c 93 09 bc
       -0.00506608 -0.03335624 -0.00097630924 -0.00839692
000370 0f b5 ec 3c b2 f1 37 bc 2f 9b aa bb a2 8f 0a 3d
       0.02889493 -0.011227058 -0.0052064876 0.033828385
000380 4c 03 1b bc 6c ef 3c bd 9d 62 4b 3c b2 99 8c 3c
       -0.009461235 -0.046126768 0.012413648 0.017163131
000390 48 ad 07 3c 67 14 66 bc a7 1e 2b 3c 76 ac c8 bb
       0.00828106 -0.01404295 0.01044432 -0.0061240746
0003a0 ba dd 9b bb 08 55 22 3c c8 c3 64 3d 4e 65 eb bb
       -0.0047566565 0.009907968 0.055850774 -0.0071837073
0003b0 e1 30 ab 3c 92 ce 96 ba 2d 9b 21 bc 68 f8 69 3c
       0.02089733 -0.0011505655 -0.009863657 0.014280416
0003c0 08 74 34 bc 45 47 1b bc e2 04 9e bc bb 8c dc 3c
       -0.011013992 -0.009477441 -0.019289438 0.026922574
0003d0 55 ef fb bc d9 a3 30 bc 61 7c 3f 3d d9 4c 4c 3d
       -0.03075377 -0.010781252 0.046749476 0.049877975
0003e0 b9 c0 c2 bb d8 ae 97 3b fe 3c d8 bc 0d fe 6c 3c
       -0.0059433845 0.0046289973 -0.02639627 0.014464867
0003f0 01 de aa bc c9 e1 bc 3c c6 9a 27 bd 78 ee 9b 3c
       -0.020857813 0.023056882 -0.040919088 0.01903461

model/hidden/mid_rec_layer/upward/W f4 [80, 86]
000000 b3 d5 06 3d 16 05 fb 3a 2d b3 3b bd ac da 3a 3c
       0.032918643 0.0019151296 -0.045825172 0.0114046745
000010 a2 c3 48 3c 97 fa a7 3c 20 c9 5f 3c 58 d7 ab bc
       0.012253674 0.020505233 0.013658792 -0.020976707
000020 60 40 18 3d 0a d7 23 3c 4e 88 8f bc 0a d7 23 3c
       0.037170768 0.01 -0.01752105 0.01
000030 7a 10 69 3e a6 d3 84 3c 0a d7 23 3c 9a 37 30 3e
       0.22760192 0.016214203 0.01 0.1720871
000040 60 4e b3 3d 0a d7 23 3c ef e7 53 bd 2a f1 b5 ba
       0.08755183 0.01 -0.05173486 -0.0013881077
000050 0a d7 23 3c ee e9 b9 3d c1 ad 8c 3d 0a d7 23 3c
       0.01 0.09077822 0.068690784 0.01
000060 75 28 fd bd 3f 09 12 3d 0a d7 23 3c f3 41 30 3e
       -0.12361232 0.03565335 0.01 0.17212658
000070 0b c5 80 3d 0a d7 23 3c ac 5a 0d 3d c4 df 54 3d
       0.06287583 0.01 0.0345103 0.051971212
000080 0a d7 23 3c 6b 93 6b bd 55 48 39 bd 0a d7 23 3c
       0.01 -0.057513636 -0.045234997 0.01
000090 35 f9 0e 3e c8 e0 93 3b 0a d7 23 3c eb f3 06 be
       0.13962252 0.00451288 0.01 -0.13178985
0000a0 93 4a 43 3c 0a d7 23 3c ec 5e 27 be fc 2e 47 bb
       0.011919635 0.01 -0.16344804 -0.0030392995
0000b0 0a d7 23 3c 2e d2 b6 bd a9 af 2a bd 8a 33 10 3e
       0.01 -0.08926807 -0.04167143 0.1408216
0000c0 0a af 9b bb 6d 8c cf bc ac a9 92 bd 94 85 1a bc
       -0.004751091 -0.025335515 -0.071612686 -0.009431262
0000d0 c7 78 18 bd 93 df 1e 3e 3f 26 f8 bb 00 59 ff bc
       -0.037224557 0.15514974 -0.0075729187 -0.031170368
0000e0 0a d7 23 3c c3 ca a8 3d c4 0d 80 3d 0a d7 23 3c
       0.01 0.08241799 0.062526256 0.01
0000f0 d3 0f 41 3e 9c 38 92 bd 5a 96 9f bc 0d d9 d0 bc
       0.18853693 -0.07139704 -0.019480873 -0.025494123
000100 97 66 58 3c eb a3 03 3e 25 ca 19 3e f2 87 9c bc
       0.013208053 0.12855498 0.15018518 -0.019107793
000110 15 12 35 bc 56 94 4b 3d ac 0a 04 bd 0a d7 23 3c
       -0.011051674 0.04970201 -0.03223674 0.01
000120 5c 04 96 bd 8c 75 6c bd 0a d7 23 3c 6b 6f e9 bd
       -0.0732505 -0.05772929 0.01 -0.113982044
000130 7a 91 ec bc 5d 1f 0c 3e eb 66 81 3d 4a a2 4d bd
       -0.028877962 0.13683839 0.06318458 -0.0502036
000140 2b f6 8c bd a2 e4 84 3c 60 50 9c bc 2d d0 a2 bc
       -0.0688289 0.016222302 -0.019081295 -0.019874657
000150 67 a7 28 3d ac 4c bc 3b 24 b6 33 bb 45 e4 68 bd
       0.041175272 0.0057464447 -0.0027421797 -0.05685832
000160 24 b6 3a be 15 af 3d be f4 2c 0f 3c 14 38 1b be
       -0.18233544 -0.1852382 0.008738745 -0.15158111
000170 ff 84 43 be 25 3c c3 bd 3d 47 15 bf 0a d7 23 3c
       -0.19093703 -0.09532956 -0.58311826 0.01
000180 db 5f 5d bd 0a d7 23 3c 0a 1d f3 3c 96 92 fb bc
       -0.054046493 0.01 0.029676933 -0.030709546
000190 0a d7 23 3c e8 aa 12 3d 9d 4a 16 bd 0a d7 23 3c
       0.01 0.03580752 -0.03669225 0.01
0001a0 b2 cb 01 3d a6 e3 36 3b 0a d7 23 3c 32 98 29 be
       0.0316884 0.0027906685 0.01 -0.16561964
0001b0 05 12 b0 bd 0a d7 23 3c f7 c0 00 3e f1 93 9d bd
       -0.08597187 0.01 0.1257361 -0.07694233
0001c0 0a d7 23 3c 60 46 3c 3d 33 2d 80 bd 0a d7 23 3c
       0.01 0.045965552 -0.06258621 0.01
0001d0 9a cd aa 3b de c4 b0 bd 0a d7 23 3c 7c d1 8c 3d
       0.005212498 -0.086312994 0.01 0.068758935
0001e0 89 f1 7a 3c 0a d7 23 3c 36 c8 87 bd 27 cc d3 bb
       0.0153163755 0.01 -0.06629984 -0.006463546
0001f0 0a d7 23 3c 92 a6 34 3e 10 e1 17 be 0a d7 23 3c
       0.01 0.17641667 -0.14831948 0.01
000200 d9 93 0d 3e fb 50 b3 3c 0a d7 23 3c 38 16 e3 3d
       0.1382593 0.0218892 0.01 0.11088222
000210 37 e8 0a bd d6 ca f1 bd 04 dd 6f bd d8 ec 11 be
       -0.033912864 -0.11806266 -0.058560386 -0.14250505
000220 f3 5e 90 bc 76 32 81 be ff fb 0b be 3c 61 2d be
       -0.0176234 -0.2523381 -0.13670348 -0.16931623
000230 b3 cd 2c 3d 95 c2 94 bc 0a d7 23 3c bf fe d9 bc
       0.042188358 -0.01815919 0.01 -0.02661073
000240 1b dd 1d 3d 0a d7 23 3c fb d5 c5 3d 7f 18 11 3e
       0.03854094 0.01 0.09659954 0.14169501
000250 5a ad 86 bd 06 58 92 3c 45 47 2b be bc 1c 60 be
       -0.06576033 0.017864238 -0.16726406 -0.21885961
000260 b3 da de bd fe aa 14 3b 02 a2 26 bc cc 4e c7 bd
       -0.10881557 0.0022684927 -0.010170462 -0.09731826
000270 6d c1 e6 bc 0a d7 23 3c 2d f5 8d 3d c6 8f 76 3d
       -0.028168404 0.01 0.06931529 0.060195707
000280 0a d7 23 3c 7a 58 44 3e 37 57 e5 3b 98 48 7d be
       0.01 0.19174376 0.006998922 -0.24734724
000290 70 d9 2f be 36 49 5c 3d ba 7f 84 3d f4 31 98 be
       -0.1717279 0.053780757 0.064696744 -0.2972561
0002a0 18 12 24 bd 7f 37 b0 3c 05 fc 3e be b9 e8 ba bc
       -0.040056318 0.021510838 -0.18650825 -0.022816049
0002b0 d2 bd c1 be aa d6 35 be db bc 1f 3d 57 da 88 be
       -0.37840134 -0.17757669 0.038998466 -0.2672908
0002c0 5b 93 18 be 91 7b 26 be ea 02 25 be 22 15 7f be
       -0.14899962 -0.16258074 -0.16114393 -0.24910405
0002d0 87 78 10 bf 0a d7 23 3c fa a5 00 be 0a d7 23 3c
       -0.5643391 0.01 -0.12563315 0.01
0002e0 eb 1b 0b bd 5c 81 64 bd 0a d7 23 3c a3 35 00 3e
       -0.03396217 -0.05578743 0.01 0.12520461
0002f0 57 9b 8d bd 0a d7 23 3c 5e ed e2 3a 9e 08 94 bb
       -0.06914394 0.01 0.0017313173 -0.004517629
000300 0a d7 23 3c 26 a0 10 be ea c1 49 bd 0a d7 23 3c
       0.01 -0.14123592 -0.049257196 0.01
000310 89 d9 dc 3d d1 6f 05 be 0a d7 23 3c e0 78 2d bd
       0.10783679 -0.13030936 0.01 -0.042351604
000320 17 04 21 be 0a d7 23 3c 44 f6 88 bd 3e 09 18 be
       -0.15724216 0.01 -0.066875964 -0.14847276
000330 0a d7 23 3c 6b 6f 36 3b 10 a9 2c be 0a d7 23 3c
       0.01 0.0027837406 -0.16861367 0.01
000340 3a 4c 4f be b6 2e 09 be 0a d7 23 3c 3f 4c aa 3d
       -0.20243922 -0.13396725 0.01 0.08315324
000350 b9 77 25 be 0a d7 23 3c 55 06 b3 bc 44 05 b7 bd
       -0.16158952 0.01 -0.021853605 -0.08936551
000360 0a d7 23 3c 46 ee e5 3d 7d ec cd bd 62 64 18 be
       0.01 0.11227088 -0.10054872 -0.14882043
000370 dc 09 3e be c0 d4 19 be aa 36 89 bd 13 8d ac bd
       -0.18558449 -0.15022564 -0.066998795 -0.08425345
000380 73 f1 c5 bd 3a fd 04 be 30 0c 5a be a8 b7 56 bb
       -0.096651934 -0.12987223 -0.21293712 -0.0032763276
000390 0a d7 23 3c 4b 86 70 be 78 3d f7 bc 0a d7 23 3c
       0.01 -0.23488729 -0.030180678 0.01
0003a0 3f bd 9e bd 92 af 0d 3d 5c 63 d0 bd 0d 32 e8 3d
       -0.077509396 0.034591265 -0.10175201 0.113376714
0003b0 1b 26 5f be 3b 86 74 be 0b 89 51 be a4 10 95 be
       -0.2179188 -0.2387933 -0.20462434 -0.29114258
0003c0 73 e4 b8 bd ed 65 4f be b6 00 52 bd 0a d7 23 3c
       -0.09027948 -0.20253725 -0.05127021 0.01
0003d0 ce 91 22 3e 4d c6 ca 3b 0a d7 23 3c c2 a0 ac 3e
       0.15875933 0.00618819 0.01 0.33716398
0003e0 78 8b e2 bc f4 ee 5f be 48 17 a2 be 50 eb f5 bc
       -0.027654395 -0.21868497 -0.31658387 -0.030019432
0003f0 07 41 00 bd 75 3a a7 be 8d 9b 17 3b a2 76 47 3d
       -0.031312015 -0.32661787 0.0023133487 0.04869712

model/hidden/mid_layer/W f4 [256, 256]
000000 ff 80 68 3c df 70 1d ba 1c db b7 b7 89 54 25 bc
       0.014190911 -0.0006005894 -2.191733e-05 -0.0100909555
000010 0c 13 d2 bc b7 5e 2b bd 13 3b 47 bc f4 32 01 bc
       -0.025643848 -0.041838374 -0.0121600805 -0.007885683
000020 5d 2a 47 bb fb 63 12 3c 9f 13 dc 3b 98 90 56 ba
       -0.003039024 0.00893497 0.006716206 -0.00081849983
000030 d6 ec 4f bd da 74 79 bc 58 79 93 bc 9b 8a a7 bc
       -0.050762974 -0.0152256135 -0.018002197 -0.020451834
000040 5b f3 95 bc 99 5b 92 bc 2e 2c ba bc d7 e3 44 3c
       -0.018304517 -0.017865943 -0.022726145 0.012017212
000050 5a ed 35 bd 8b 7f dd bb 8b 98 49 bd 60 c6 59 bc
       -0.04441581 -0.006759589 -0.049217742 -0.013291925
000060 38 57 0d bd 2e e6 2e bc 49 b9 21 3b b0 3f 1b 39
       -0.034507006 -0.010674996 0.002467709 0.00014805677
000070 2d ff 25 3c b7 10 b1 3c bb 04 97 bc d8 39 cc bc
       0.010131639 0.021614416 -0.018434873 -0.024929926
000080 e5 92 2e bc 4c bc 07 bb 7e 5b 01 3c 97 6e 5a bd
       -0.01065514 -0.00207116 0.007895349 -0.053328123
000090 26 da 63 bc 68 c4 85 ba ba 7d 4d bc 3d 3c 6d bd
       -0.013906991 -0.0010205628 -0.012542183 -0.057918776
0000a0 3a 3f 4e bd e3 d7 27 bc 47 e8 bd bc 8c 02 62 bc
       -0.050353266 -0.0102443425 -0.023182048 -0.013794553
0000b0 d2 bb b7 3a d2 63 76 b9 78 46 16 bc 31 26 25 bc
       0.0014017767 -0.00023497574 -0.0091720745 -0.010079906
0000c0 b1 98 aa 3d 01 fe 90 3b fb 57 4d bc 15 24 3c 3b
       0.08329905 0.004424811 -0.012533183 0.002870803
0000d0 4a 0f de bb 7c 0f ac bc f1 d7 8d bc 9a 8a 57 bd
       -0.006776725 -0.021003477 -0.017314883 -0.052622415
0000e0 44 b8 60 3c e4 3d 1c bc 6e 80 9b bc 46 75 74 ba
       0.013715807 -0.00953624 -0.018982138 -0.00093253364
0000f0 6e 6c 22 bb cf 0b a0 3b 9d fa 9c bc dd 48 48 bd
       -0.0024783867 0.00488422 -0.01916247 -0.048897613
000100 24 23 c7 bc 38 14 5c bd 34 aa db bb f1 c1 fe 3b
       -0.024308749 -0.05373022 -0.0067036394 0.0077745845
000110 b5 12 18 bc ba 5a e4 bb 1d d8 6a ba 02 9b 24 bc
       -0.009281804 -0.0069688233 -0.0008958595 -0.010046722
000120 84 c9 b1 3a f3 e0 c1 bc a8 d4 7c bc 2a 32 f5 bc
       0.0013564085 -0.023666834 -0.015431561 -0.029931147
000130 c9 14 b3 bb eb 85 02 3d 11 95 da bb fe d4 42 bc
       -0.0054651243 0.031865995 -0.006670602 -0.011891602
000140 24 ac 13 3b 48 1a 39 bd 10 33 f9 ba 96 49 fe bc
       0.0022533024 -0.04519108 -0.001901241 -0.031040948
000150 a9 f2 29 bc 1a 78 05 bd c3 64 16 bc a3 52 c1 bb
       -0.010372796 -0.03258524 -0.009179297 -0.0058997436
000160 98 97 51 bc e7 5b 96 bc 59 d4 8f bc 8d 4b 00 bb
       -0.01279249 -0.01835437 -0.01755731 -0.0019576282
000170 09 89 92 3b f4 d8 a1 bc 14 65 ce bc 4f e1 a1 3c
       0.0044719023 -0.019756772 -0.025194682 0.019760756
000180 5c 21 12 bb 2b 81 2e bd 2d 4d 8c bc ef a9 53 bd
       -0.0022297716 -0.042603653 -0.017126644 -0.051675733
000190 fd a5 78 bc 57 a6 31 bd 28 7a 98 bb 70 50 a5 3c
       -0.015176293 -0.043371525 -0.004653234 0.020179957
0001a0 ae 73 a1 3c 5a 2a 29 bd 92 0d a4 3c 16 9e 0d bd
       0.01970848 -0.041300155 0.020026002 -0.03457459
0001b0 25 b9 eb bc 13 ca bb bc e3 e6 f2 3a 81 07 94 bc
       -0.028774807 -0.022923505 0.0018531944 -0.018069984
0001c0 23 e0 32 bc d7 b8 47 bc 2f b8 a3 3c 85 9b 7e bb
       -0.010917696 -0.012190065 0.019985287 -0.003885002
0001d0 05 87 e6 bb 57 ca d5 bc 3b 6c 4b ba 53 ed 54 bb
       -0.0070351386 -0.02609746 -0.0007759963 -0.003249009
0001e0 66 d9 b6 3c c0 2d b8 3b 25 29 1e bc 5e 8b 63 bc
       0.02232046 0.005620688 -0.009653364 -0.013888208
0001f0 95 17 2a bc fb 3e 13 bd 2d 7f 66 bb fa 60 0a bd
       -0.010381599 -0.035948735 -0.0035171018 -0.03378389
000200 fb 07 70 bc 49 4c 33 bd 6a ed 5b bc 3e 89 7e 3c
       -0.01465034 -0.043773923 -0.013423303 0.015535651
000210 c1 3f a1 bc 45 ff d6 bc 52 ef d2 bc 61 de f8 bc
       -0.01968372 -0.026244769 -0.025748882 -0.030379476
000220 3a f8 ff bc 68 07 66 bc 8e fb 96 bc d7 4c 76 bc
       -0.031246293 -0.014039852 -0.018430497 -0.0150329685
000230 8c b4 c3 3b ac 28 23 bc 2d 68 67 3c 43 56 90 bc
       0.0059724506 -0.009958427 0.014123959 -0.017619258
000240 95 e6 31 bc 94 13 68 bc 31 d4 68 bc dd d6 0a bb
       -0.010858198 -0.014164824 -0.014210747 -0.0021185197
000250 99 9a 55 bb ed 49 d0 b9 f3 80 2a bc 30 28 b3 bb
       -0.0032593368 -0.0003972793 -0.01040672 -0.005467437
000260 ad d0 a3 bb fc e2 04 bd a9 d2 08 ba 90 20 f5 bc
       -0.0049992413 -0.03244303 -0.0005219379 -0.029922754
000270 84 4a 3e bd 6f 9c ae 3a 14 ab 9d 3a e4 bb 44 bb
       -0.046457782 0.0013321767 0.0012029135 -0.0030019218
000280 06 a2 56 ba 16 3c 82 bc 2c bc 48 bc 1a 40 f8 ba
       -0.00081875955 -0.015897792 -0.012251895 -0.0018940002
000290 a4 55 16 3d 1f e8 c7 bc 89 5d 2b 3c 31 cf 4a bb
       0.036702767 -0.024402676 0.010459312 -0.003094625
0002a0 0e 80 92 bc c6 e2 52 bc fa 2a 50 ba 2a 20 57 bc
       -0.017883327 -0.01287145 -0.00079409743 -0.013130227
0002b0 0e bd 9e bc 2e 45 d9 39 6d 01 5e bc 7b b4 7f ba
       -0.019377258 0.00041441008 -0.013550145 -0.0009754372
0002c0 21 dd 32 bc 4d ae f6 ba 2a d3 9d 39 61 cf 8b bd
       -0.010916979 -0.0018820256 0.00030102703 -0.06826664
0002d0 00 76 2c bc cc 01 b0 bc 80 f2 be bc 30 33 c3 bc
       -0.01052618 -0.021485232 -0.023308992 -0.023828119
0002e0 77 8a c4 bc b2 56 e6 bc 92 73 1b bc e0 00 94 bc
       -0.023991806 -0.028117511 -0.009488003 -0.018066823
0002f0 0f 15 10 bd 65 34 cb bc 90 87 ea bc a6 4b 74 3b
       -0.035176333 -0.024805257 -0.028629094 0.0037276535
000300 a2 c8 e3 bc de 07 50 3b 45 86 cc b9 52 6e 34 bc
       -0.02780563 0.003174297 -0.0003900995 -0.011012631
000310 28 67 1c bc ca ab b4 3c 65 1d 48 bd c6 90 75 3b
       -0.009546079 0.022054572 -0.048856158 0.0037470325
000320 37 13 91 3b 89 7e 43 bc 78 ce 45 bb 91 32 12 bd
       0.0044273394 -0.011932024 -0.003018288 -0.035692755
000330 6c 2b b8 bb 9d b5 72 bc bc 4d 42 bc fb 66 a7 bc
       -0.0056204107 -0.014813808 -0.011859354 -0.020434847
000340 3f 14 f3 bc 0b a4 33 bc 63 81 8e bc 3f 33 de bc
       -0.02967274 -0.010964404 -0.01739568 -0.027124045
000350 c6 bc 99 bc 84 91 46 bb 43 c6 c9 bc 56 50 c4 bc
       -0.018766772 -0.0030299136 -0.024630671 -0.023964088
000360 7a 69 89 bd 7e c5 35 bc cc 4e 54 bc 74 95 e4 bc
       -0.06709571 -0.011094449 -0.01295824 -0.027903296
000370 ef c0 cd bb fd c4 69 bb 78 e3 85 bc 2d 8b 19 3c
       -0.006279103 -0.0035670393 -0.016343817 0.009371561
000380 c7 4d c6 3b 73 a2 d3 bb dd 53 bf bc 6a a7 0f bd
       0.0060517523 -0.0064585744 -0.023355419 -0.035071768
000390 5b 08 9c 3a 7f 66 66 bc 88 95 54 ba 22 cd 71 bb
       0.0011904346 -0.014062523 -0.000810944 -0.003689595
0003a0 69 17 1b bb 1c 12 07 bd 89 a6 38 bd 8c c5 47 bc
       -0.0023665077 -0.032976255 -0.045080695 -0.012193095
0003b0 47 5c cb ba 08 e2 09 bd a9 b7 ed ba c5 84 f4 bc
       -0.0015515172 -0.033662826 -0.00181364 -0.029848466
0003c0 24 10 92 bd ad a9 a8 bc 7e a1 a6 3a 7b af 42 bd
       -0.07131985 -0.02058872 0.0012712923 -0.047530632
0003d0 c7 33 7b bc 33 bd a7 bb 81 14 99 bb 5a ed 7b bd
       -0.015332169 -0.00511899 -0.0046716337 -0.061505653
0003e0 03 db 36 bd 99 e4 17 bc 2b 4e a3 3b c7 94 cd bc
       -0.04464246 -0.0092708105 0.0049836836 -0.025095357
0003f0 ce 80 ab bb 0c 90 83 bc 49 74 d5 bc 24 8a 82 3c
       -0.0052338606 -0.016059898 -0.026056426 0.015935011

model/a_stream/b f4 [3]
000000 36 e5 91 3c 7a ee c8 bb 43 b2 9a ba
       0.017809492 -0.0061319442 -0.0011802394

model/hidden/mid_rec_layer/upward/b f4 [80]
000000 f3 f7 e4 bb a9 a8 0e be 61 4c 41 3f fe b2 27 be
       -0.0069875657 -0.13931526 0.7550717 -0.16376874
000010 86 3d a6 bc 0b c6 3a 3c ad 57 69 3f 3c b1 91 3b
       -0.020293009 0.011399756 0.9114941 0.004446177
000020 af 87 0e 3c e7 9c 27 be f1 5b 60 3f 15 e4 2d be
       0.008699342 -0.16368447 0.8764029 -0.16981538
000030 99 93 02 bc e1 30 42 be 4e 8f 3c 3f b1 c9 49 be
       -0.00796976 -0.18963958 0.73656166 -0.19705845
000040 80 df 47 bb e9 8b 05 be 6f 22 51 3f 92 d6 10 be
       -0.0030498207 -0.13041653 0.81693166 -0.14144352
000050 50 cf 46 bb b0 6a 3e be e6 d2 41 3f 7f c9 46 be
       -0.003033597 -0.18595386 0.7571243 -0.19412802
000060 72 4a 09 3c 17 cd 30 be 90 7a 42 3f e8 41 31 be
       0.008379566 -0.17265736 0.75968266 -0.17310297
000070 e9 0a 12 3c a0 76 29 be 3b 1f 5f 3f 54 89 2f be
       0.008913734 -0.16549158 0.8715703 -0.1714223
000080 35 7c 37 bc fd e4 5d be ff 14 51 3f 73 17 66 be
       -0.011199047 -0.21669383 0.8167266 -0.22469883
000090 32 a5 8b bc 2f c5 4c be 0c c3 3b 3f a5 ec 66 be
       -0.017046545 -0.19997095 0.7334449 -0.2255121
0000a0 43 3e 51 bb 08 19 0c be ab 83 4f 3f 92 6c 18 be
       -0.003192798 -0.13681424 0.81060284 -0.14885166
0000b0 5a af 33 bc 8b e2 53 bd ba 6f 5b 3f f6 64 7b bd
       -0.0109671 -0.05172972 0.85717356 -0.06137558
0000c0 cf 7b 8e bc e6 bd 27 be 0a c3 44 3f 92 b2 35 be
       -0.01739302 -0.16381034 0.76860106 -0.177439
0000d0 97 54 78 bc b8 4c 20 bd 4a 89 5b 3f 07 c8 69 bd
       -0.015156887 -0.039135665 0.8575636 -0.057075527
0000e0 bd 2e 4e bb 71 ad 5f be f7 69 42 3f b1 65 68 be
       -0.0031460964 -0.21843506 0.7594294 -0.22695042
0000f0 67 a7 87 ba 86 2f 37 be 40 16 41 3f 6b f0 3c be
       -0.0010349572 -0.17889223 0.75424576 -0.18451087
000100 ce 18 52 bc 3a 04 2f be b5 02 5f 3f 60 dd 22 be
       -0.012823297 -0.17091456 0.87113506 -0.1590476
000110 10 41 1d 3a b0 41 1e be 77 3a 37 3f de 6d 27 be
       0.000599877 -0.15454745 0.71573585 -0.16350505
000120 8f c4 83 bc 9f 8e 04 be 17 15 45 3f 7b d0 1c be
       -0.016084937 -0.1294503 0.76985306 -0.15313904
000130 4a 83 92 bc ae dc b8 bc 6f 62 65 3f a1 6d df bc
       -0.01788487 -0.022566166 0.8960332 -0.027273955

model/hidden/input_layer/W f4 [256, 86]
000000 0f cf 45 3d 17 b4 87 bd ac f8 b8 bc d0 68 ef bd
       0.04829317 -0.06626146 -0.022579513 -0.11689913
000010 73 94 04 bd e6 96 ae bc bb e4 7f 3d 57 3f 87 3c
       -0.032368135 -0.021312188 0.062473994 0.016509695
000020 be 82 03 be 0f c3 ab 38 74 ce 08 be 57 19 68 3c
       -0.12842843 8.190248e-05 -0.13360006 0.014166198
000030 0d 03 cf bd 7a 5e b1 bd 60 16 34 bc 02 dc eb 3d
       -0.10108004 -0.08660598 -0.010991663 0.115165725
000040 0a 80 44 3d 98 29 d9 bb 77 93 88 bc bc 75 18 be
       0.04797367 -0.006627273 -0.01667188 -0.14888662
000050 8a 46 a8 3b 60 5a d6 3d d5 40 ac 3d 0c d0 41 bc
       0.005135362 0.104664564 0.08410803 -0.011829387
000060 a9 77 87 bd a5 23 53 3d 32 e2 a8 3b 8a a7 31 3d
       -0.0661462 0.051547665 0.0051539177 0.04337267
000070 da c7 13 be 57 9c 9b 3c bc 5c 14 be 00 00 3d bb
       -0.14431706 0.018995447 -0.144885 -0.0028839111
000080 8d 13 e1 3c 1e ff d5 bc 01 8b 9e bc 56 b8 32 bb
       0.027475143 -0.026122626 -0.019353392 -0.0027270517
000090 41 41 0d bd ae 6c 0f 3d 95 1a d8 3a 83 3a c9 bc
       -0.03448606 0.035015754 0.0016487414 -0.024564033
0000a0 71 2e 2b bb 57 ef 26 bc f8 a2 72 3d 80 f9 0f 3e
       -0.002612021 -0.010188899 0.05923745 0.1406002
0000b0 a8 9a fe 3b 89 1a ea 3d 61 c7 b9 3d cc 80 fa bd
       0.0077699013 0.114308424 0.09071232 -0.12231597
0000c0 8e 5f 9f 3c fb 13 13 3d f8 d5 a4 3d 18 e2 f8 bd
       0.019454744 0.035907727 0.08048624 -0.12152499
0000d0 a3 e0 7a 3d 8d 0b 1a be 41 a6 a5 3d 3d 41 8d 3c
       0.061249387 -0.15043469 0.08088351 0.017243022
0000e0 85 71 bc b9 a2 01 5c bd ec 2e 73 bd 8a 97 9e 3a
       -0.00035942733 -0.053712495 -0.05937092 0.0012099606
0000f0 ce f6 0b 3d 47 6c 02 3d c8 8f 2f bd fb cc da 3c
       0.03417092 0.031841543 -0.04286173 0.02670907
000100 de 6a 32 bc ff eb be bd b9 97 ff bd 0a 25 b2 bc
       -0.010889737 -0.093223564 -0.12480111 -0.021746177
000110 89 3f d9 3b 96 43 d4 bd 2f 2d 30 bd d0 95 29 bc
       0.0066298884 -0.103644535 -0.04301184 -0.0103506595
000120 6d a8 65 3d 28 0c 8b bd 3f b6 dc 3b 0a 13 c1 bc
       0.056068826 -0.06789428 0.0067355926 -0.023568649
000130 ab 9e d7 bd 84 c9 8c bd 20 a9 86 bd ba 6e cf bc
       -0.105283104 -0.068743736 -0.06575227 -0.025321353
000140 ba fe 6e 39 32 96 5e bc 37 17 fc bc 33 7a c6 bc
       0.00022792342 -0.013585614 -0.030772788 -0.024228191
000150 77 2d b2 3a fa 1f b6 3b f2 27 a8 bc 14 c2 9b bc
       0.0013593872 0.005558011 -0.02052686 -0.019013442
000160 01 44 59 bb c9 f7 9f bc 21 83 a3 bc cb 85 5e bc
       -0.0033152106 -0.019527333 -0.019959988 -0.013581703
000170 97 9d af bc b5 37 18 bd 34 94 15 bc 3b 4d 65 bb
       -0.02143745 -0.0371625 -0.009129573 -0.003498866
000180 c5 d2 00 bd 02 ac d0 3b 00 24 4a bc c5 8c 69 bc
       -0.031451005 0.006368161 -0.012337685 -0.0142547535
000190 8e 37 4c bc dd 18 65 bb 3c 56 a0 bc f3 ff 0c 3c
       -0.012464417 -0.0034957447 -0.01957237 0.008605945
0001a0 c5 7e cd bb 26 69 88 3c a4 94 de ba 1f f7 eb bb
       -0.0062712156 0.016651701 -0.0016981554 -0.00720109
0001b0 91 ad 9f bc 1c 8a 87 3b 98 e4 06 bc 03 c5 29 bd
       -0.019491943 0.004136337 -0.008233212 -0.04144765
0001c0 3e 74 aa bb b4 8e 70 bb 24 6e 7e 3c 7f 86 c1 bb
       -0.0052018454 -0.0036706151 0.015529189 -0.0059059258
0001d0 b5 fe 8f bc b0 b7 ce bb 0e e4 f0 bb 51 50 cd bb
       -0.017577508 -0.0063085184 -0.007351405 -0.006265678
0001e0 48 0c d7 bc 96 f8 ca bb 62 75 58 bc eb 4b 09 3c
       -0.026250973 -0.0061941845 -0.01321158 0.008379917
0001f0 41 32 ed 3b 02 31 67 3b c6 1d bf bc 1b 6d b2 bb
       0.0072386567 0.0035277014 -0.023329627 -0.0054451353
000200 1f 63 64 3b a0 59 a9 bc 21 25 67 3b f9 58 45 bc
       0.003484912 -0.02067262 0.0035269933 -0.0120451385
000210 40 7d 98 bc 7e 8a ed bc ed 4b f7 3b 73 d8 cb bc
       -0.018614411 -0.028996702 0.007546893 -0.024883484
000220 97 49 a9 bc 58 84 89 3c 33 59 bd bb da 70 cc bb
       -0.020664973 0.01678674 -0.0057784556 -0.006239039
000230 ac 4d 44 bc 18 18 c8 bc 65 9b 82 3c 00 d1 3f 3c
       -0.011981409 -0.024425551 0.015943239 0.011707544
000240 d6 2c c2 bc 14 55 72 3c 2c 32 fc 3b b8 1a 56 3c
       -0.02370302 0.014790792 0.0076964106 0.013067894
000250 bc a2 97 bc 1c a8 e7 3b 86 66 92 bc 47 fb 0d 3c
       -0.018510215 0.0070696007 -0.017871153 0.008665866
000260 44 3c 22 3c 0c 48 05 3b fe 55 5f bc 8c 02 7f bc
       0.009902064 0.0020337133 -0.013631342 -0.015564572
000270 c5 c5 fe bb e8 6a 8a bb 96 6b 0d bc 31 71 aa bc
       -0.007775041 -0.00422417 -0.0086316075 -0.020805927
000280 aa 40 3d 3b 68 fc 9e bc c9 76 60 3a e1 81 3b 3c
       0.0028877654 -0.019407466 0.0008562622 0.01144454
000290 6c b0 d8 bc 68 85 e5 bc 05 91 e6 bc 9b 62 2e 3c
       -0.026451312 -0.028017715 -0.028145323 0.010643627
0002a0 c2 e2 87 bc 76 b2 f4 bc 7b b0 83 bc 27 e0 f7 bc
       -0.016587619 -0.029870253 -0.016075363 -0.030258251
0002b0 90 f3 d4 bc 45 c5 ad bc 16 a4 9c bc 49 18 09 bd
       -0.025995046 -0.02121223 -0.019121211 -0.033470426
0002c0 4b 78 53 bd 25 6c 21 3d 81 de d2 bd b6 dd 03 b9
       -0.051628392 0.039409775 -0.102963455 -0.00012575727
0002d0 ff d3 36 be 96 e3 12 3b cf a8 99 bb 58 dd 52 bc
       -0.17854308 0.0022413484 -0.004689313 -0.012870155
0002e0 8f 73 c1 3d 3c e6 d2 3d 09 99 1a 3c 2e 5f ad bd
       0.09445869 0.1029782 0.0094359005 -0.0846542
0002f0 47 64 d8 3d b0 0b aa 3c b3 5c b4 3c 56 e2 74 bd
       0.105660014 0.020757526 0.022016859 -0.059786163
000300 e2 d9 d3 ba ef 28 b8 bc 35 97 94 3c cc 3c 26 bc
       -0.0016162957 -0.022480456 0.018138507 -0.010146331
000310 38 95 6c 3d 4c 7c b1 3d f4 0c f1 ba 92 ce d1 3d
       0.057759494 0.08666286 -0.0018390701 0.10244478
000320 79 c7 26 be 0a ba 94 bc 84 7d a2 bb 9d ff 17 bd
       -0.1628703 -0.018155117 -0.0049588103 -0.037109006
000330 9a 20 51 3b 2d 99 b3 3c 11 23 ad 3c 2e 48 1c 3c
       0.0031910301 0.021923626 0.021134885 0.009538693
000340 8d 94 ca bd fd 33 78 38 09 d2 82 3c 2f 72 7e 3c
       -0.09891615 5.9176225e-05 0.015969293 0.015530153
000350 be 92 27 3d 33 12 d2 b9 9d dd 9b 3d 3b 1d 68 3d
       0.04091143 -0.0004006788 0.07610629 0.0566685
000360 98 fb a4 bb bf eb 6c bd bf 07 ad 3c 00 7c ff bc
       -0.005034875 -0.057842012 0.021121858 -0.031187057
000370 c5 18 92 bd f4 e7 07 be c5 7d ef 3d 34 a3 c4 bd
       -0.07133631 -0.13272077 0.116939105 -0.09601441
000380 c2 d0 05 bd 23 d0 a5 bc ae 00 c3 bd 16 ec 08 be
       -0.03266979 -0.020240849 -0.09521614 -0.1337131
000390 2f 11 39 bb d6 d8 99 3d b3 08 26 be fe a7 3d 3c
       -0.0028239002 0.07512061 -0.16214256 0.011575697
0003a0 1f 25 0d 3e d9 29 8a bd ab 8d 65 3c 57 d2 de bb
       0.13783692 -0.06746263 0.014010827 -0.006799977
0003b0 5e 71 40 bd 90 ba aa bd 71 f9 e3 bd 1b 4f e0 bb
       -0.046983115 -0.08336365 -0.111315615 -0.0068453676
0003c0 49 0d 15 be a1 a1 fa 3d fb 64 ab 3d 5f 69 17 3c
       -0.14555849 0.122378595 0.0836887 0.009241431
0003d0 fc d3 87 3d 2b f0 5b 3d 42 df e4 bb 5c 7d e0 bc
       0.0663223 0.05369584 -0.006984622 -0.027403526
0003e0 50 26 fb 3b 71 3b b3 bd 64 ae 44 bd 5f 83 c0 bc
       0.0076644793 -0.08751572 -0.048017874 -0.023500143
0003f0 e2 d3 8d 3d 73 3e 88 bd 25 42 62 3d 78 76 67 bd
       0.06925179 -0.06652536 0.05523886 -0.056509465
