ai_challenge/results/simulation_DoubleDQN_DuelingRecNN_2017-05-19T19:40:53.24/540008/target_model.npz (npz, 632719 bytes, 12 tensors)

model/hidden/input_layer/b f4 [256]
00000000: 8fdb 3abd 5d5f e5bc a25b 57bd 3149 24bd
00000010: 7879 b9bc c495 89bd 9169 5abd aaeb f6bd
00000020: 1b41 38bd 17dd f5ba e2f7 c73c 79e0 3dbd
00000030: df0c 19bd b187 93bc a598 99bd 233e aabc
00000040: 3946 3bbd 17a3 7fbd 3cb7 4cbd 5a2e 91bd
00000050: 1eb2 94bd 57d5 00bd 083f 863c 1e3c 09bd
00000060: 201e 89bd 5e1f 2ebd 6ce1 34bd 2f13 43bc
00000070: dd19 32bd f143 2dbd 72e8 9abd 391e 1bbd
00000080: eda9 b0bb a1f0 00bd 4d31 393d 4229 3bbd
00000090: 6e86 87bd b9b1 4fbd 6b78 88bd 9268 febc
000000a0: f389 b0bc 7c74 8dbd 699e 203d 5a87 7ebd
000000b0: 3931 4fbd 6a0e 42bd f703 edbc 96fd 70bd
000000c0: 8505 043c 796a 94bd 1fa3 b6bd ff0d b9bc
000000d0: 76fb 39bd b76a 56bd 9282 30bd ee26 3ebd
000000e0: 9367 4abd 275d 7fbd 03e1 4ebd 01f1 3fbd
000000f0: f9b8 77bd 7931 2bbd 8f11 59bd 883d ecbc
00000100: f477 a2bc 9805 5dbd f866 41bd 0566 23bd
00000110: f349 58bd 3833 85bd 5f17 87bd 4d12 d0bd
00000120: f7d3 72bd aed2 acbc cdb6 053b aca2 84bd
00000130: 47d7 31bd 04ff 61bd 664a aabc 8a37 9abd
00000140: 7062 88bd 0d33 84bd 524b 89bd 6c68 7cbd
00000150: 662a 7abd f8a4 8cbd 41d3 98bd e431 c0bd
00000160: c775 2ebd 3222 9abd 446e a63c e288 d5bc
00000170: aa84 71bd 17f9 28bd e9a6 d6bb fd83 e7bc
00000180: e093 9ebc 5ed8 22bc 9966 a5ba 50a3 a6bc
00000190: 2b84 c3bc 624b 68bd 46aa c2bc 6486 88bc
000001a0: 3156 70bc 3fe3 2abc 82b2 e3bb 75f8 8bbd
000001b0: cc40 bfbc 9f8b d0bd bb35 89bd d1dd 95bd
000001c0: 93f6 4fbd 7636 b9bd e07c 83bd b92f 30bd
000001d0: 4573 9bbd b77e 82bd 2aff aebd 968e 7abd
000001e0: 0e8f c0bd 4332 d8bc 46e6 63bd f98d b8bd
000001f0: ba0d 91bd f95e d9bc 0fc2 b3bd a431 bb3c
00000200: 2d4d 99bc 3aa9 4bbd 0c45 92bd eb11 0dbd
00000210: 472c f8bc 5e18 ddbc 7228 71bc 930c 43bd
00000220: be7e 50bd 9c70 3ebd d1f5 b9bd 8523 6d3b
00000230: b554 00bd 5720 5cbc 5639 31bd 39fe 3abc
00000240: f0e0 f4bc 85a3 cdbc 7e26 4abd 1bc1 8fbd
00000250: abae a2bd a8ce 8bbd 5096 21bd c780 afbd
00000260: 30c7 93bd 82be 39bd c614 31bd 865e 57bc
00000270: eb37 88bd 508a 39bd 6be3 2e3c 4c1b 22bd
00000280: 45b5 4dbd 075c aabd b4ee eeba 99eb 6abd
00000290: f699 61bd a58c c6bc 5821 5ebd e286 ad3b
000002a0: 6249 ee3b 3329 70bd d39c 2cbc 0c46 ac3c
000002b0: 5b07 d0bc ef91 c9bc f210 66bc 4a68 7cbc
000002c0: f3d9 e4bc e2e1 57bd 9cfc 47bd 3f27 9ebd
000002d0: ecbf 1fbd 6bed 0abd 5303 26bd 169c 4fbd
000002e0: e4f6 07bc 0dfc 87bd 4d41 1fbd e36f c8bd
000002f0: 7ecd 96bd e13c 5dbd 8b82 83bd 4f4b cfbd
00000300: 7c06 58bd 1958 7bbd 1613 26bd 6dfb 74bd
00000310: f278 64bd b82c 5bbd 1c49 8bbd 4c47 bd3c
00000320: 8bce 11bd 7373 3ebd 657a 50bd fada 85bd
00000330: 5d8c 83bd d737 c9bc 08c7 40bd a119 33bd
00000340: 01d2 3dbd 4282 62bd b769 f5bc 318e 60bd
00000350: 38cd 56bd fb4e cabc 2b27 b4bd 210d 91bd
00000360: 6b30 09bd bfa4 61bd 6d04 c1bc 728d 4ebd
00000370: 6ba6 12bd 124e 393c 5eaf dc3a ff3c 88bc
00000380: 7284 1abd 9bb1 e33b bd24 7ebd 92cd 59bd
00000390: d304 3fbd 8d7d 37bd d9db 85bd a8f9 33bd
000003a0: 805e 56bd ed25 753c e37e ccbb f91f 4abc
000003b0: a479 92bd 4b6d 82bc 0959 2bbd cc87 82bd
000003c0: 22fb 4cbd ceef aabc ed18 73bd 5bb1 6dbd
000003d0: 7cf0 94bc 8d08 1e3d a0f8 9bbd cffc 85bd
000003e0: ba1d 03bd 3509 3dbd 31be 9e3c 5c25 91bc
000003f0: cd62 02bc 2c68 a4bd c8d7 58bd 7cf8 89bd
-0.045619544 -0.027999574 -0.052577622 -0.040108863 -0.022640929 -0.06718019 -0.053323332 -0.12056668
-0.044983964 -0.0018757907 0.024410192 -0.046356652 -0.03736579 -0.018009039 -0.07499818 -0.020781582
-0.045721266 -0.062411394 -0.049979433 -0.07088919 -0.07260536 -0.031453457 0.016387478 -0.033504598
-0.06695199 -0.042510383 -0.04416029 -0.011906429 -0.043481696 -0.042301122 -0.07563867 -0.03787062
-0.0053913505 -0.03147948 0.045213033 -0.045693643 -0.06617437 -0.0507066 -0.06663593 -0.031055722
-0.021550154 -0.06906983 0.03921357 -0.0621408 -0.05058405 -0.047377028 -0.028932555 -0.05883559
0.008057957 -0.072468705 -0.08917832 -0.022589682 -0.045405827 -0.052347865 -0.04309327 -0.046423845
-0.049415182 -0.062344696 -0.050507557 -0.0468607 -0.060479138 -0.041795228 -0.05299526 -0.028837934
-0.019832589 -0.053960413 -0.04721734 -0.039892215 -0.0528049 -0.0650391 -0.065962546 -0.101597406
-0.059284177 -0.021096554 0.0020403147 -0.0647634 -0.043418195 -0.055174842 -0.020787429 -0.075301245
-0.066594005 -0.0645505 -0.06703819 -0.061623022 -0.06107559 -0.06867403 -0.074621685 -0.09384516
-0.04259279 -0.075260535 0.02031625 -0.026066247 -0.05896441 -0.041253176 -0.006550659 -0.02826118
-0.019357622 -0.009939281 -0.0012619077 -0.020341545 -0.023866734 -0.056712516 -0.023762833 -0.016665645
-0.014668987 -0.010430156 -0.00694877 -0.06834499 -0.023346327 -0.101828806 -0.066997014 -0.07317699
-0.05077226 -0.09043591 -0.064203024 -0.043014262 -0.07590345 -0.06371825 -0.085447624 -0.061171137
-0.094022855 -0.026391154 -0.055639528 -0.09011454 -0.07082696 -0.026534544 -0.08777248 0.022850819
-0.018713558 -0.049721934 -0.07142076 -0.034440916 -0.03029455 -0.026989158 -0.014719116 -0.047619414
-0.05090212 -0.04649411 -0.09080089 0.0036184501 -0.031330783 -0.013435445 -0.04326757 -0.0114131505
-0.029892415 -0.025102386 -0.049353115 -0.07019254 -0.079434715 -0.06826526 -0.03944999 -0.08569484
-0.072157264 -0.045347698 -0.0432327 -0.013145095 -0.066512905 -0.04529792 0.010674338 -0.039576814
-0.0502217 -0.08318334 -0.0018229098 -0.05735359 -0.05507847 -0.024236986 -0.054231018 0.0052956203
0.0072719315 -0.05863304 -0.010535437 0.021029495 -0.025394132 -0.02460572 -0.014042126 -0.015405724
-0.027935958 -0.052705653 -0.04882489 -0.07722329 -0.03900139 -0.033917826 -0.040530514 -0.050685965
-0.008298609 -0.06639872 -0.038880635 -0.09786966 -0.07363413 -0.054013137 -0.064213835 -0.10121786
-0.05274056 -0.061363313 -0.040545546 -0.05981009 -0.055779405 -0.053509444 -0.06801054 0.023105286
-0.035597365 -0.04649682 -0.050897975 -0.06535907 -0.064232565 -0.02456276 -0.04706481 -0.043725614
-0.046342853 -0.055300005 -0.029957635 -0.054823104 -0.052441806 -0.024695864 -0.08796533 -0.07082582
-0.03349344 -0.055088755 -0.02356168 -0.05042786 -0.03580324 0.011310117 0.0016836931 -0.016630648
-0.037723966 0.0069486625 -0.062046755 -0.053174563 -0.04663546 -0.04479747 -0.06536073 -0.043939263
-0.052336216 0.0149626555 -0.006240712 -0.012336724 -0.07152107 -0.015921256 -0.041832957 -0.063735574
-0.050044186 -0.0208663 -0.059349943 -0.058030467 -0.018181078 0.038582373 -0.07615781 -0.0654236
-0.03201077 -0.04615136 0.0193778 -0.01771801 -0.007958126 -0.08027682 -0.05294016 -0.06736848

model/hidden/output_layer/b f4 [256]
00000000: 9aab bb3c 8e59 59bc ee61 60ba ec8c 6abc
00000010: ba40 243c 131a 243c 4398 dd3b 15d7 843c
00000020: 9837 e9bb f658 863c f51d b9bc fba3 78ba
00000030: 893d 9f3c c365 a2bb 08db bd3c 58c7 5d3c
00000040: 462b a13a a88b 28bb 8119 b0bc f9de 573c
00000050: 7ec3 e0bb e2a9 6abc 9722 343c 01c0 74bb
00000060: 0807 eebb c78a 053a f0aa 9bbc 4f01 9dba
00000070: d373 39b9 e781 d23c 8632 bebc 3cfa 76bc
00000080: baee 61bb 8468 2fbc 8407 8a3c 0d74 1abc
00000090: 983c 4abc be5f 4f39 7256 883c c64b b939
000000a0: dfdf 5f3c b284 c839 34f8 833b e5bd b33c
000000b0: 6db5 e23a 7c6b 5dbc 2924 a7bc 20b0 c23b
000000c0: 243c 88bc c9e0 1a3c 366a 49bc 825f 4dbc
000000d0: c5e7 c3bc 47f5 7c3b db5d aabb bea9 a93b
000000e0: e1ba a5bc 35e6 15bc 61c8 b73b 64ae 08bc
000000f0: 7c96 95ba 7362 803c 5835 713c 8dd0 13bc
00000100: 86aa 6e3c 488c 833c 9924 8fbc 831f 2bbc
00000110: 69e0 81bc dec3 69bc 7378 84bc 3eb2 843c
00000120: 8a6f 1bbc 6704 c9bc b026 debb 7c99 b4bb
00000130: c29f 33bc 3188 05ba 0494 a0bb c828 e53b
00000140: 3511 a4bb d4c6 19bb 41e6 0bbc a9bc 373c
00000150: e342 ed3b 2e19 b8bc c518 c53b 7228 3e3c
00000160: 1855 c0bc 030e a1bc 7af5 013b f0c6 1e3c
00000170: 72c3 663c fa08 25bb 722d 72bc 19b9 8c3c
00000180: c234 2cbc 889f e6ba e718 3e3c 79fd 49bc
00000190: 3287 133c 98c3 b5bb 753a c1bc ad1f c23b
000001a0: bafd b9bb 88b0 b13c 9ce9 8bbc ca87 0f3c
000001b0: a6cb a63a acb6 6c3a 675a c33c d9e8 923b
000001c0: 0e5a d4bc 23c9 cb3b 633e 44bc a0a5 38bc
000001d0: 7002 b0bc d10a 43bc 0e50 d539 55cc 203c
000001e0: 979b 1ebb 2701 e0ba 3f23 933c adb0 083c
000001f0: af15 86bc f71c 303c 0153 493c 2bb0 d13b
00000200: 1ccb aabb 0acb b9bc 1c62 d6ba 96eb 4dbc
00000210: d0cc 8d3c 9a7f 0cbc c062 c1bb 3bfe 6cbc
00000220: 362d 35bc fbf6 fc3b d267 643c b693 6d3c
00000230: d11d 933c 6723 2ebc 03d2 0c3b 24bb dfba
00000240: 1cb6 1fbc 5925 ad3c c2bb 853c d6c2 45bc
00000250: 54a8 003c b976 a9bc 7b1e 51bc 0cd9 de39
00000260: 3eaf fcbb dbd3 57bc 0be4 1c3c b2a7 9d39
00000270: 8d84 44bc 9af6 613b a5bf 9c3b 7056 583c
00000280: 2aba b33b e1d8 473c 30b5 06bc e1fa c33b
00000290: 64b0 57bc abb9 98bc fa4b 87bc 7198 b4bb
000002a0: fd0a ce3b b37d 633b 3f3b 3c3c fa70 18bc
000002b0: 332e 91b9 0099 913c 56b2 573c 50ec b03b
000002c0: b502 6d3b b26f 7fbb 9ae8 8cbb 97b8 dcbb
000002d0: 9531 b53c c7d8 1a3c d371 9cbc 8fbc 81bc
000002e0: 4f97 a53c 0d1e 9cbc c1eb 843c 5756 bcbb
000002f0: 4409 8ebc 4586 27bc 5335 763c 2f16 8bbc
00000300: 2c4a 003b 8a64 d03b b724 7a3b 38a8 81bc
00000310: 47df a83c 5b65 59bc a55b a13c b478 40bc
00000320: dc00 8e39 b732 653c 9c13 343c e81a b2bc
00000330: 829a 013b c37b 71bc 414e 863c 03f8 103c
00000340: 6c63 5dbc e146 2ebc 9431 4239 36a6 17bb
00000350: e7d1 79bc 4f9d 5cbc e98f 453b 24d6 513c
00000360: 72e6 5b3c aa9b bdba b279 67bc 2535 ae3c
00000370: 2af5 4a3b 376d 873c ce3d d83c 86c2 b338
00000380: a616 4a3c 251e 5abb 57ab 453c 14d8 86bc
00000390: 1255 d6bc 016a 853c 06f7 90bc 7475 973c
000003a0: 42ca 843c 5e2e 08bb 4ec6 923b 76b8 71bc
000003b0: 8987 8fbc 0619 65bc b327 c33c 942f 433c
000003c0: 3dfb 8c3c 7c92 19bc f7e4 a53b f120 60bc
000003d0: 88aa e8bb 120c 413c b466 803b a6f4 af3b
000003e0: f295 ceb9 2c76 68bc e90c 943c 1057 2e3c
000003f0: ef6a efba 6457 003c 470c 13bb af4c a23b
0.022908974 -0.01326598 -0.00085595145 -0.014315825 0.010025198 0.010015982 0.006762536 0.01621584
-0.007117223 0.016399842 -0.022597292 -0.0009484884 0.019438522 -0.0049559786 0.023175731 0.013536297
0.0012296222 -0.0025718007 -0.021496536 0.013175719 -0.006859242 -0.01432273 0.010994575 -0.0037345889
-0.007264022 0.0005094227 -0.019002408 -0.0011978539 -0.00017686123 0.025696708 -0.02321745 -0.015074309
-0.0034474568 -0.010706071 0.016849287 -0.009427083 -0.012343548 0.00019776725 0.016642783 0.00035342405
0.013664215 0.00038245838 0.004027391 0.021941135 0.0017296501 -0.013514396 -0.020402985 0.005941406
-0.01663024 0.009453007 -0.012293389 -0.012534978 -0.023914227 0.0038598345 -0.0051991767 0.0051777055
-0.020230712 -0.009149124 0.005608604 -0.008342359 -0.0011412646 0.015671944 0.014722191 -0.00902189
0.014567023 0.016058102 -0.017473506 -0.010444525 -0.015854077 -0.01426789 -0.016170716 0.016198274
-0.009487042 -0.024538232 -0.0067795143 -0.005511461 -0.010963382 -0.00050938415 -0.0049004573 0.006993387
-0.005006934 -0.0023464458 -0.0085387835 0.011214414 0.0072406395 -0.022472944 0.0060149156 0.011606323
-0.023478076 -0.019660002 0.0019830153 0.009690985 0.014084684 -0.0025182352 -0.014781343 0.017178105
-0.010510625 -0.0017595151 0.011602617 -0.012328499 0.009004401 -0.005546998 -0.023587445 0.005924186
-0.0056759985 0.021690622 -0.017079167 0.008760402 0.0012725487 0.0009029906 0.023846818 0.004483324
-0.025921848 0.0062190457 -0.011977765 -0.011269957 -0.021485537 -0.011904434 0.0004068617 0.009814342
-0.0024201625 -0.0017090187 0.017961143 0.008342904 -0.016367761 0.010749093 0.012287856 0.0063991747
-0.005212201 -0.022679824 -0.0016356143 -0.012568375 0.017309576 -0.008575344 -0.0059016645 -0.01446491
-0.011058142 0.007719872 0.013940768 0.014500549 0.017958554 -0.010628558 0.0021487481 -0.0017069322
-0.009748008 0.021135973 0.016324881 -0.012070378 0.007852633 -0.020686494 -0.012763615 0.00042504852
-0.00771132 -0.013173069 0.009575854 0.00030070316 -0.011994493 0.0034479261 0.004783588 0.013204202
0.005484839 0.012197704 -0.008221909 0.005980835 -0.013164613 -0.01864322 -0.01651572 -0.0055113365
0.006287931 0.0034712374 0.011488735 -0.009304279 -0.00027690976 0.017773151 0.013165077 0.0053992644
0.0036164944 -0.0038976488 -0.004300189 -0.006735872 0.02211837 0.009451098 -0.019097244 -0.015836982
0.020213751 -0.019057298 0.016225697 -0.005747597 -0.017338403 -0.010224883 0.015027362 -0.016978351
0.001957546 0.0063596414 0.0038168856 -0.015827283 0.02061428 -0.013268794 0.01969702 -0.011747528
0.0002708499 0.013989142 0.010991003 -0.021741346 0.0019775932 -0.01473898 0.016394736 0.008848193
-0.013512474 -0.010637016 0.00018519751 -0.002313984 -0.0152477985 -0.01346524 0.0030145592 0.012807403
0.013421642 -0.0014465947 -0.0141281355 0.021265576 0.0030968883 0.01653157 0.026396658 8.571618e-05
0.012334501 -0.0033282128 0.012064776 -0.016460456 -0.026163612 0.016285898 -0.017695915 0.018488623
0.016209725 -0.002077959 0.004479206 -0.014753452 -0.017520683 -0.013983017 0.023822641 0.011913199
0.017209643 -0.0093733035 0.005062695 -0.013679729 -0.007100407 0.011782663 0.003918493 0.0053697405
-0.000394031 -0.014188331 0.018072562 0.0106408745 -0.0018266122 0.007833336 -0.0022437738 0.004952989

model/a_stream/W f4 [3, 256]
00000000: 9997 4dbc cef2 4d3c 73a7 1fbd c022 5c3c
00000010: f88a 94bb 141e ccbc 2904 3a3c 5b2e 41bc
00000020: 4def 3c3c 0663 e1bb a61c 0a3c 3d33 a1bb
00000030: 5bf9 4ebc 29a3 1dbd b225 fdbb 70c7 49bb
00000040: 5542 cf3a adce f8bc 63ec 293c de26 febb
00000050: 4376 493b 8a4f 983b 6f31 79ba af63 903c
00000060: 1751 0f3d 6670 23bd 87a6 8c3c 38cf 3cbd
00000070: 171e 393d 4f44 92bc 22ba 203c aaae 1d3c
00000080: e1fd 33bd d142 513b 464e 8cbc c0f5 29bc
00000090: 0fc2 c03c 18b5 9cbc 5743 4b3b 8c09 c4bc
000000a0: c17c 64bc 42a1 b53c c760 053d e84e 1bbb
000000b0: 552e ff3c 3356 563c 382a 443c 2237 1a3d
000000c0: 6516 ad3c 2837 7fbc fd68 053c 6650 873b
000000d0: 383a 0c3c 2f6c 073d f18f 65bc 2851 d13b
000000e0: 2857 b73c 0171 283c 6330 053d 1229 c6ba
000000f0: 12c8 26bc 687a 7e3c fb7e 70bb 273e 29bc
00000100: ed06 8ebc f0b1 c9bc 3b8d a73b fc1c 69ba
00000110: 7cc4 ceba df05 043c e7d0 463c cb6e c9bb
00000120: b46a 3e3c 3bb4 053b 9c65 25bd adce 0dbd
00000130: d4c4 bf3c 25bb b0bc caad 26bd 12ae 8b3c
00000140: 1552 ce3c 0377 313d b048 babc bb74 99bc
00000150: 60a5 d03c bf72 91ba dea6 e93c 42a2 9f3c
00000160: 8d1c 493c 7e2e 0a3c 9b4b 0e3d 2406 e1ba
00000170: 02e5 efba 4448 febc 8333 393a 7808 f6bb
00000180: 9e9a 2b3c e682 0a3c f985 91bb 4b25 6bbb
00000190: dcf7 303b b6ed 80bc 1492 973c b3e1 8d3c
000001a0: 3744 0bbd a1c7 b6bc 534a 0b3c fccb b83c
000001b0: 6c29 86bc 9f91 d63b b0d8 85bc 9235 ad3c
000001c0: 0ea6 023b 0e4b c13c 812a 8fb9 8933 273c
000001d0: dd08 753c 85bd 9b3b 8598 aebc cefd 9539
000001e0: e883 c0bc 19f4 e0bc 5928 bbbc e899 663b
000001f0: 4cd7 a53c 919b c13b aa86 66b8 dd6c 8d3c
00000200: 7ee5 13bd 3eea 633c 46b4 d1bc 2a77 3fbc
00000210: a9a6 53bb 6d89 1bbc 60e5 ae3c 799e f43a
00000220: 6741 013c 2e80 713c 1af2 013c 26a4 65bb
00000230: 0da9 d8ba dfa3 403c 41fc 19bc 6931 7b3c
00000240: 0d0c 4c3b 4ade 9bbc 4e46 7dbc 233d 4e3c
00000250: ef43 a83c c82d 023c 8204 293b 6a53 3bbb
00000260: 25dc 16bd 3771 823c 487b b03c 109e 51bc
00000270: 99e4 8b3c 8e3a 093d 6ae3 373d 0197 b0bc
00000280: da45 103d 5d26 c5bc 720c 04bc e8e4 4d3c
00000290: e0a3 a63c 00b2 dd3b b0e3 373b 471c 81bc
000002a0: e4a0 81bb 86b9 f93c 1f8e 053c 0ac1 6f3c
000002b0: 0e98 2b3c 0523 abbb c0ad e1b7 247f 9aba
000002c0: 92f8 2d3d b326 2dbb 70cd ecbc bb17 0ebc
000002d0: ee7b 91bc 359b c7bb 4bc9 de3b a0cb 6a3c
000002e0: 3ffa c93a 11a7 083c 6ea3 723b 8aac 29bd
000002f0: 6efe a13c a507 a4bb 5160 88bc aee9 40bb
00000300: 2df8 293d 382d 923c c84f fb3c 56d8 96bd
00000310: 335d a2bc 408c 5b3c 37ae cebc 60c9 9b3b
00000320: 59df afbc eddf 8ebb cde9 7cbc 97ee ab3c
00000330: cb35 5e3d e7d4 afba a746 ccbc edfb 6b3c
00000340: 18bf 7c3c 2874 8ebc dd94 383d 751d 6cbc
00000350: c5fc a73b 7ad3 303b eecf e03c 09d9 3fbc
00000360: ba0b a8bb f9c1 08bd 314a 70ba 5667 0bbc
00000370: 7955 ec3c 3e1f 39bc 4195 aebb 5cd3 0a3d
00000380: 3af6 1bbc c9c2 3cbd 2789 4a3c 3053 8d3c
00000390: 7eb2 083c a36a 67bc fa4d 2c3c 44f9 cabb
000003a0: da21 9ebb 82d7 233c a0fd 643d e019 e8bb
000003b0: fdf8 ab3c 8619 81ba 1833 23bc d447 693c
000003c0: 85a7 35bc 419a 1abc 3f56 9fbc fa33 dd3c
000003d0: 326a fcbc 2b9e 31bc 1651 3f3d fc15 4c3d
000003e0: 7593 c6bb 4208 9a3b a9ea d8bc 13e9 6d3c
000003f0: fbb8 aabc 1562 bc3c 1871 27bd 914b 9c3c
-0.012548351 0.012570096 -0.03897805 0.013436019 -0.004533168 -0.024916686 0.011353531 -0.011790837
0.011531663 -0.0068782596 0.008429682 -0.004919438 -0.012632693 -0.03848568 -0.007725441 -0.003078904
0.0015812615 -0.030371988 0.0103713 -0.007756098 0.0030740655 0.0046481537 -0.00095059624 0.017625658
0.034989443 -0.039902113 0.01716925 -0.046096057 0.04519471 -0.017854838 0.0098100025 0.009624163
-0.04394329 0.0031930695 -0.017127167 -0.010373533 0.023530034 -0.019129321 0.003101548 -0.023930334
-0.013945759 0.02217162 0.032562997 -0.0023698155 0.031150023 0.013082075 0.011972956 0.037650235
0.021128843 -0.015577115 0.008142707 0.0041294573 0.008558802 0.033062156 -0.014011369 0.0063878484
0.022380427 0.0102808485 0.03251685 -0.0015118441 -0.010179536 0.015532114 -0.003669678 -0.01032976
-0.017337287 -0.02462098 0.0051132715 -0.00088925636 -0.001577511 0.00805804 0.012134767 -0.0061472408
0.01162212 0.0020401615 -0.040380105 -0.03462093 0.023409285 -0.021573612 -0.040693082 0.017050777
0.025185624 0.04332639 -0.022739738 -0.01873242 0.025469482 -0.0011096819 0.028521951 0.01948655
0.012274873 0.008433936 0.03474007 -0.0017167968 -0.0018302503 -0.031040318 0.0007064866 -0.007508334
0.010473875 0.00845406 -0.0044410196 -0.0035880383 0.0027003204 -0.01573835 0.018502273 0.017319536
-0.0340006 -0.022311987 0.008501607 0.022558205 -0.016377173 0.006548121 -0.016338676 0.021143708
0.0019935402 0.02359536 -0.00027306753 0.010205158 0.014955726 0.004752817 -0.021312961 0.00028608594
-0.023500398 -0.027460145 -0.022846388 0.003518695 0.020244263 0.0059084375 -5.496169e-05 0.017263824
-0.036107533 0.013910828 -0.025598656 -0.011686126 -0.0032295382 -0.009493214 0.021349609 0.0018662951
0.007889128 0.014740033 0.007931257 -0.0035040467 -0.0016529873 0.01175782 -0.009398521 0.0153316045
0.0031135113 -0.019026894 -0.0154586565 0.012587818 0.020540206 0.007945485 0.002579004 -0.0028583654
-0.03683104 0.015923126 0.02154316 -0.012794033 0.017076777 0.033503108 0.044894613 -0.02155638
0.035222866 -0.024066145 -0.008059608 0.0125667825 0.020341814 0.006765604 0.0028059296 -0.015760554
-0.0039559472 0.030483972 0.00815156 0.014633426 0.010473264 -0.0052226805 -2.6902999e-05 -0.0011787158
0.042473383 -0.0026420772 -0.028906554 -0.00867265 -0.01775929 -0.0060915 0.0067988983 0.014330775
0.0015409662 0.008340613 0.0037023681 -0.04142431 0.019774642 -0.005005794 -0.01664749 -0.002943616
0.041496444 0.017843828 0.030677691 -0.073654816 -0.019819831 0.013400137 -0.025229556 0.0047542304
-0.021468805 -0.00436019 -0.015436602 0.020987792 0.05425052 -0.001341489 -0.024936033 0.0144033255
0.01542642 -0.017389372 0.045063842 -0.01441132 0.005126568 0.0026981519 0.027442899 -0.01170946
-0.005128351 -0.03338811 -0.0009166329 -0.008508524 0.02884935 -0.011298953 -0.005327851 0.033892974
-0.009519154 -0.0460842 0.012361801 0.017251581 0.008343337 -0.014124545 0.010516638 -0.0061942656
-0.0048258128 0.010000112 0.05590594 -0.0070831627 0.02099275 -0.0009849526 -0.009960912 0.014238317
-0.011087303 -0.009436191 -0.019450305 0.027002323 -0.030812357 -0.010840933 0.04670819 0.049825653
-0.0060600587 0.0047006914 -0.026479082 0.014520901 -0.020840159 0.022995988 -0.04087934 0.019079002

model/hidden/mid_rec_layer/upward/W f4 [80, 86]
00000000: 5198 063d 8a9e e33a 909a 3cbd 7ef1 383c
00000010: 7aae 483c 0c67 a73c 4637 5b3c a6fb acbc
00000020: e7e5 173d 0ad7 233c d340 90bc 0ad7 233c
00000030: 1037 693e 0207 853c 0ad7 233c 2051 303e
00000040: 293e b33d 0ad7 233c 67d6 53bd 63d1 a1ba
00000050: 0ad7 233c c438 ba3d bc47 8d3d 0ad7 233c
00000060: abc6 fdbd 852b 123d 0ad7 233c 847b 303e
00000070: 18ae 803d 0ad7 233c 52a3 0d3d 4145 553d
00000080: 0ad7 233c 8684 6cbd 3bab 39bd 0ad7 233c
00000090: 4cc2 0e3e b7e4 8e3b 0ad7 233c 26f2 06be
000000a0: 7116 403c 0ad7 233c ad0b 27be fb38 3ebb
000000b0: 0ad7 233c 17e1 b6bd c52a 2bbd f620 103e
000000c0: 38f0 a0bb 37d9 d3bc dea0 92bd 1728 1bbc
000000d0: 725a 19bd a10b 1f3e f4ce fdbb a743 00bd
000000e0: 0ad7 233c f6c6 a83d 5140 803d 0ad7 233c
000000f0: 97f7 403e 0c2d 92bd 04c6 9fbc 3ae0 cfbc
00000100: 9e61 563c 2986 033e 9fb3 193e d7a6 9dbc
00000110: 8f6f 36bc 9787 4c3d 961e 04bd 0ad7 233c
00000120: f1dd 95bd 001d 6dbd 0ad7 233c 40a5 e9bd
00000130: 11b5 ebbc ca20 0c3e 1c55 813d f629 4dbd
00000140: 724c 8dbd 7d12 843c f01a 9cbc d12d a3bc
00000150: 4a49 283d 2558 bb3b f5a0 27bb 1408 67bd
00000160: 726d 3abe b660 3dbe 31b3 103c 9205 1bbe
00000170: ab32 43be a861 c2bd c737 15bf 0ad7 233c
00000180: 1c07 5cbd 0ad7 233c 4faa f43c 363c fcbc
00000190: 0ad7 233c 14b2 133d 6e34 16bd 0ad7 233c
000001a0: c0ad 013d a073 323b 0ad7 233c 925a 29be
000001b0: 30fe afbd 0ad7 233c 2a56 013e 8cc2 9dbd
000001c0: 0ad7 233c ef31 3d3d 2719 80bd 0ad7 233c
000001d0: a0c1 ad3b 51b2 b0bd 0ad7 233c 7e81 8d3d
000001e0: df9d 7b3c 0ad7 233c d598 87bd c57e d4bb
000001f0: 0ad7 233c a4b7 343e 53a9 17be 0ad7 233c
00000200: 3f35 0d3e 2e7c b23c 0ad7 233c 7dff e23d
00000210: 0703 09bd 69f7 f1bd d7f4 6dbd da45 11be
00000220: a012 91bc 662a 81be a1df 0bbe db0d 2dbe
00000230: b741 2d3d e410 93bc 0ad7 233c 4eb8 d9bc
00000240: 71a4 1d3d 0ad7 233c b207 c63d 5505 113e
00000250: 2e41 86bd ab60 903c edc2 2abe 6d18 60be
00000260: a315 dfbd f85f 273b 9c21 23bc de41 c7bd
00000270: 085b e6bc 0ad7 233c b4c6 8d3d 5f8c 773d
00000280: 0ad7 233c 1c81 443e 4d67 e13b 9a54 7dbe
00000290: 0ac2 2fbe 3208 5c3d c44d 853d 6e1a 98be
000002a0: 3d74 24bd 04af b03c a60c 3fbe d2cf babc
000002b0: 95a4 c1be e7af 35be ab94 1f3d bdba 88be
000002c0: b6a8 18be ff4e 26be 52d0 24be ebd4 7ebe
000002d0: 076d 10bf 0ad7 233c 597c 00be 0ad7 233c
000002e0: 0ec3 0abd 4fa6 64bd 0ad7 233c dc7a 003e
000002f0: da7c 8dbd 0ad7 233c faaf ee3a 86fc 94bb
00000300: 0ad7 233c 7094 10be da74 49bd 0ad7 233c
00000310: 20ae dd3d 6474 05be 0ad7 233c 9b8c 2cbd
00000320: 910a 21be 0ad7 233c 66a8 88bd 85f6 17be
00000330: 0ad7 233c 8c73 353b 8088 2cbe 0ad7 233c
00000340: 0156 4fbe f331 09be 0ad7 233c d442 aa3d
00000350: 2142 25be 0ad7 233c 61b1 b2bc 8fd7 b7bd
00000360: 0ad7 233c 93bb e53d 9c9f cdbd 4c72 18be
00000370: 988d 3dbe a440 19be 8d79 89bd 148a acbd
00000380: 149e c5bd 6ffd 04be 44c0 59be 9650 57bb
00000390: 0ad7 233c 127e 70be e317 f7bc 0ad7 233c
000003a0: 16bc 9ebd 68c2 0d3d 7575 d0bd 159a e73d
000003b0: 62ef 5ebe 6da4 74be 7b8d 51be e6fc 94be
000003c0: 639b b8bd 8c1d 4fbe dade 51bd 0ad7 233c
000003d0: ef8b 223e 6029 d03b 0ad7 233c 2c92 ac3e
000003e0: f9ae e3bc 75e9 5fbe 1c0a a2be 2cf8 f6bc
000003f0: aa38 ffbc 2823 a7be 6fe2 163b 37ef 473d
0.032860104 0.0017365974 -0.04604584 0.011288045 0.01224863 0.020434879 0.013379877 -0.02111609
0.037084486 0.01 -0.017609036 0.01 0.22774911 0.016238693 0.01 0.17218447
0.087520905 0.01 -0.051718142 -0.0012345727 0.01 0.090928584 0.06898448 0.01
-0.123914085 0.035686035 0.01 0.17234617 0.06283206 0.01 0.034579583 0.052068
0.01 -0.05774357 -0.045329314 0.01 0.13941306 0.004360761 0.01 -0.1317831
0.0117241 0.01 -0.16313048 -0.0029025662 0.01 -0.08929651 -0.041788835 0.14075074
-0.004911449 -0.025860412 -0.07159589 -0.009470007 -0.03743977 0.1553178 -0.007745618 -0.03131452
0.01 0.08241074 0.062622674 0.01 0.18844448 -0.07137498 -0.0195036 -0.025375474
0.013084797 0.12844147 0.15009926 -0.019244594 -0.011134996 0.049933996 -0.03225573 0.01
-0.073177226 -0.057888985 0.01 -0.11408472 -0.028772863 0.13684383 0.063150615 -0.050088845
-0.068993464 0.016122097 -0.019055814 -0.019919308 0.04108552 0.0057172948 -0.0025578116 -0.05640419
-0.18205813 -0.18493924 0.008831785 -0.15138844 -0.19062297 -0.09491283 -0.58288234 0.01
-0.053717718 0.01 0.029866366 -0.03079043 0.01 0.0360585 -0.036671095 0.01
0.03165984 0.0027229562 0.01 -0.16538456 -0.08593404 0.01 0.12630525 -0.077031225
0.01 0.0461902 -0.062547974 0.01 0.005302623 -0.08627761 0.01 0.06909464
0.015357464 0.01 -0.06620947 -0.0064848387 0.01 0.17648178 -0.14810686 0.01
0.13789843 0.02178773 0.01 0.11083887 -0.033450153 -0.11814768 -0.058094826 -0.14186803
-0.017709076 -0.2522766 -0.13659526 -0.16899817 0.042299 -0.01795239 0.01 -0.026577141
0.0384869 0.01 0.096694365 0.1416219 -0.06555401 0.01762422 -0.16675921 -0.21884318
-0.10892799 0.002553938 -0.009956744 -0.0972936 -0.028119579 0.01 0.06922665 0.060436603
0.01 0.19189876 0.0068787695 -0.24739304 -0.17163864 0.053718753 0.06508973 -0.29707664
-0.040149916 0.021567829 -0.18657169 -0.022804175 -0.3782088 -0.17742883 0.03896014 -0.2670497
-0.14908108 -0.16241072 -0.16095093 -0.2488591 -0.5641636 0.01 -0.12547435 0.01
-0.033877425 -0.055822667 0.01 0.12546867 -0.06908579 0.01 0.0018210404 -0.0045467047
0.01 -0.14119124 -0.049183704 0.01 0.10824227 -0.13032681 0.01 -0.04212628
-0.15726687 0.01 -0.066727445 -0.14840133 0.01 0.002768728 -0.16848946 0.01
-0.20247652 -0.1339796 0.01 0.08313528 -0.16138507 0.01 -0.021813096 -0.089766614
0.01 0.112174176 -0.10040209 -0.14887351 -0.18511045 -0.14966065 -0.06712637 -0.08424774
-0.09649292 -0.12987302 -0.2126475 -0.003285443 0.01 -0.23485592 -0.030162757 0.01
-0.07750718 0.03460923 -0.10178653 0.11308686 -0.21771005 -0.23890848 -0.20464127 -0.29099196
-0.09014013 -0.20226115 -0.05123792 0.01 0.15873693 0.0063525885 0.01 0.3370527
-0.027793394 -0.218664 -0.31648338 -0.030147634 -0.03115495 -0.3264401 0.0023023149 0.048812117

model/hidden/mid_layer/W f4 [256, 256]
00000000: ff80 683c df70 1dba 1cdb b7b7 8954 25bc
00000010: 0c13 d2bc b75e 2bbd 133b 47bc f432 01bc
00000020: 5d2a 47bb fb63 123c 9f13 dc3b 9890 56ba
00000030: d6ec 4fbd da74 79bc 5879 93bc 9b8a a7bc
00000040: 5bf3 95bc 995b 92bc 2e2c babc d7e3 443c
00000050: 5aed 35bd 8b7f ddbb 8b98 49bd 60c6 59bc
00000060: 3857 0dbd 2ee6 2ebc 49b9 213b b03f 1b39
00000070: 2dff 253c b710 b13c bb04 97bc d839 ccbc
00000080: e592 2ebc 4cbc 07bb 7e5b 013c 976e 5abd
00000090: 26da 63bc 68c4 85ba ba7d 4dbc 3d3c 6dbd
000000a0: 3a3f 4ebd e3d7 27bc 47e8 bdbc 8c02 62bc
000000b0: d2bb b73a d263 76b9 7846 16bc 3126 25bc
000000c0: b198 aa3d 01fe 903b fb57 4dbc 1524 3c3b
000000d0: 4a0f debb 7c0f acbc f1d7 8dbc 9a8a 57bd
000000e0: 44b8 603c e43d 1cbc 6e80 9bbc 4675 74ba
000000f0: 6e6c 22bb cf0b a03b 9dfa 9cbc dd48 48bd
00000100: 2423 c7bc 3814 5cbd 34aa dbbb f1c1 fe3b
00000110: b512 18bc ba5a e4bb 1dd8 6aba 029b 24bc
00000120: 84c9 b13a f3e0 c1bc a8d4 7cbc 2a32 f5bc
00000130: c914 b3bb eb85 023d 1195 dabb fed4 42bc
00000140: 24ac 133b 481a 39bd 1033 f9ba 9649 febc
00000150: a9f2 29bc 1a78 05bd c364 16bc a352 c1bb
00000160: 9897 51bc e75b 96bc 59d4 8fbc 8d4b 00bb
00000170: 0989 923b f4d8 a1bc 1465 cebc 4fe1 a13c
00000180: 5c21 12bb 2b81 2ebd 2d4d 8cbc efa9 53bd
00000190: fda5 78bc 57a6 31bd 287a 98bb 7050 a53c
000001a0: ae73 a13c 5a2a 29bd 920d a43c 169e 0dbd
000001b0: 25b9 ebbc 13ca bbbc e3e6 f23a 8107 94bc
000001c0: 23e0 32bc d7b8 47bc 2fb8 a33c 859b 7ebb
000001d0: 0587 e6bb 57ca d5bc 3b6c 4bba 53ed 54bb
000001e0: 66d9 b63c c02d b83b 2529 1ebc 5e8b 63bc
000001f0: 9517 2abc fb3e 13bd 2d7f 66bb fa60 0abd
00000200: fb07 70bc 494c 33bd 6aed 5bbc 3e89 7e3c
00000210: c13f a1bc 45ff d6bc 52ef d2bc 61de f8bc
00000220: 3af8 ffbc 6807 66bc 8efb 96bc d74c 76bc
00000230: 8cb4 c33b ac28 23bc 2d68 673c 4356 90bc
00000240: 95e6 31bc 9413 68bc 31d4 68bc ddd6 0abb
00000250: 999a 55bb ed49 d0b9 f380 2abc 3028 b3bb
00000260: add0 a3bb fce2 04bd a9d2 08ba 9020 f5bc
00000270: 844a 3ebd 6f9c ae3a 14ab 9d3a e4bb 44bb
00000280: 06a2 56ba 163c 82bc 2cbc 48bc 1a40 f8ba
00000290: a455 163d 1fe8 c7bc 895d 2b3c 31cf 4abb
000002a0: 0e80 92bc c6e2 52bc fa2a 50ba 2a20 57bc
000002b0: 0ebd 9ebc 2e45 d939 6d01 5ebc 7bb4 7fba
000002c0: 21dd 32bc 4dae f6ba 2ad3 9d39 61cf 8bbd
000002d0: 0076 2cbc cc01 b0bc 80f2 bebc 3033 c3bc
000002e0: 778a c4bc b256 e6bc 9273 1bbc e000 94bc
000002f0: 0f15 10bd 6534 cbbc 9087 eabc a64b 743b
00000300: a2c8 e3bc de07 503b 4586 ccb9 526e 34bc
00000310: 2867 1cbc caab b43c 651d 48bd c690 753b
00000320: 3713 913b 897e 43bc 78ce 45bb 9132 12bd
00000330: 6c2b b8bb 9db5 72bc bc4d 42bc fb66 a7bc
00000340: 3f14 f3bc 0ba4 33bc 6381 8ebc 3f33 debc
00000350: c6bc 99bc 8491 46bb 43c6 c9bc 5650 c4bc
00000360: 7a69 89bd 7ec5 35bc cc4e 54bc 7495 e4bc
00000370: efc0 cdbb fdc4 69bb 78e3 85bc 2d8b 193c
00000380: c74d c63b 73a2 d3bb dd53 bfbc 6aa7 0fbd
00000390: 5b08 9c3a 7f66 66bc 8895 54ba 22cd 71bb
000003a0: 6917 1bbb 1c12 07bd 89a6 38bd 8cc5 47bc
000003b0: 475c cbba 08e2 09bd a9b7 edba c584 f4bc
000003c0: 2410 92bd ada9 a8bc 7ea1 a63a 7baf 42bd
000003d0: c733 7bbc 33bd a7bb 8114 99bb 5aed 7bbd
000003e0: 03db 36bd 99e4 17bc 2b4e a33b c794 cdbc
000003f0: ce80 abbb 0c90 83bc 4974 d5bc 248a 823c
0.014190911 -0.0006005894 -2.191733e-05 -0.0100909555 -0.025643848 -0.041838374 -0.0121600805 -0.007885683
-0.003039024 0.00893497 0.006716206 -0.00081849983 -0.050762974 -0.0152256135 -0.018002197 -0.020451834
-0.018304517 -0.017865943 -0.022726145 0.012017212 -0.04441581 -0.006759589 -0.049217742 -0.013291925
-0.034507006 -0.010674996 0.002467709 0.00014805677 0.010131639 0.021614416 -0.018434873 -0.024929926
-0.01065514 -0.00207116 0.007895349 -0.053328123 -0.013906991 -0.0010205628 -0.012542183 -0.057918776
-0.050353266 -0.0102443425 -0.023182048 -0.013794553 0.0014017767 -0.00023497574 -0.0091720745 -0.010079906
0.08329905 0.004424811 -0.012533183 0.002870803 -0.006776725 -0.021003477 -0.017314883 -0.052622415
0.013715807 -0.00953624 -0.018982138 -0.00093253364 -0.0024783867 0.00488422 -0.01916247 -0.048897613
-0.024308749 -0.05373022 -0.0067036394 0.0077745845 -0.009281804 -0.0069688233 -0.0008958595 -0.010046722
0.0013564085 -0.023666834 -0.015431561 -0.029931147 -0.0054651243 0.031865995 -0.006670602 -0.011891602
0.0022533024 -0.04519108 -0.001901241 -0.031040948 -0.010372796 -0.03258524 -0.009179297 -0.0058997436
-0.01279249 -0.01835437 -0.01755731 -0.0019576282 0.0044719023 -0.019756772 -0.025194682 0.019760756
-0.0022297716 -0.042603653 -0.017126644 -0.051675733 -0.015176293 -0.043371525 -0.004653234 0.020179957
0.01970848 -0.041300155 0.020026002 -0.03457459 -0.028774807 -0.022923505 0.0018531944 -0.018069984
-0.010917696 -0.012190065 0.019985287 -0.003885002 -0.0070351386 -0.02609746 -0.0007759963 -0.003249009
0.02232046 0.005620688 -0.009653364 -0.013888208 -0.010381599 -0.035948735 -0.0035171018 -0.03378389
-0.01465034 -0.043773923 -0.013423303 0.015535651 -0.01968372 -0.026244769 -0.025748882 -0.030379476
-0.031246293 -0.014039852 -0.018430497 -0.0150329685 0.0059724506 -0.009958427 0.014123959 -0.017619258
-0.010858198 -0.014164824 -0.014210747 -0.0021185197 -0.0032593368 -0.0003972793 -0.01040672 -0.005467437
-0.0049992413 -0.03244303 -0.0005219379 -0.029922754 -0.046457782 0.0013321767 0.0012029135 -0.0030019218
-0.00081875955 -0.015897792 -0.012251895 -0.0018940002 0.036702767 -0.024402676 0.010459312 -0.003094625
-0.017883327 -0.01287145 -0.00079409743 -0.013130227 -0.019377258 0.00041441008 -0.013550145 -0.0009754372
-0.010916979 -0.0018820256 0.00030102703 -0.06826664 -0.01052618 -0.021485232 -0.023308992 -0.023828119
-0.023991806 -0.028117511 -0.009488003 -0.018066823 -0.035176333 -0.024805257 -0.028629094 0.0037276535
-0.02780563 0.003174297 -0.0003900995 -0.011012631 -0.009546079 0.022054572 -0.048856158 0.0037470325
0.0044273394 -0.011932024 -0.003018288 -0.035692755 -0.0056204107 -0.014813808 -0.011859354 -0.020434847
-0.02967274 -0.010964404 -0.01739568 -0.027124045 -0.018766772 -0.0030299136 -0.024630671 -0.023964088
-0.06709571 -0.011094449 -0.01295824 -0.027903296 -0.006279103 -0.0035670393 -0.016343817 0.009371561
0.0060517523 -0.0064585744 -0.023355419 -0.035071768 0.0011904346 -0.014062523 -0.000810944 -0.003689595
-0.0023665077 -0.032976255 -0.045080695 -0.012193095 -0.0015515172 -0.033662826 -0.00181364 -0.029848466
-0.07131985 -0.02058872 0.0012712923 -0.047530632 -0.015332169 -0.00511899 -0.0046716337 -0.061505653
-0.04464246 -0.0092708105 0.0049836836 -0.025095357 -0.0052338606 -0.016059898 -0.026056426 0.015935011

model/a_stream/b f4 [3]
00000000: 053e 913c 0e1a c3bb 5eb1 a3ba
0.017729769 -0.0059540337 -0.0012488773

model/hidden/mid_rec_layer/upward/b f4 [80]
00000000: 6534 eabb ee3f 0ebe 5558 413f 1341 27be
00000010: 3be0 a8bc 4160 403c f35d 693f 6c6a 9e3b
00000020: e085 103c 1d6f 27be 3764 603f d5b7 2dbe
00000030: 541d 03bc bdf4 41be eb96 3c3f e58e 49be
00000040: 404e 4dbb 3c4e 05be 6a28 513f 2a90 10be
00000050: 0692 46bb 7b47 3ebe f8d6 413f bfa6 46be
00000060: 8cb9 0b3c 2ccd 30be f977 423f d341 31be
00000070: cc48 143c bd40 29be 8c29 5f3f 8d55 2fbe
00000080: a84b 36bc 5cba 5dbe e01b 513f 0bec 65be
00000090: 59c6 89bc 2146 4cbe bcde 3b3f 9b6c 66be
000000a0: 2fd6 57bb 36d9 0bbe 3c8a 4f3f 5a23 18be
000000b0: a0e0 37bc f52e 52bd 8276 5b3f 7190 79bd
000000c0: d665 8dbc 2a57 27be 60d7 443f 833c 35be
000000d0: 8028 7dbc bfbe 1ebd 9894 5b3f f705 68bd
000000e0: 53c3 51bb c49a 5fbe 756c 423f a852 68be
000000f0: dd89 8cba 6ded 36be fe1a 413f 11b0 3cbe
00000100: 426a 54bc 7dbd 2ebe 7d16 5f3f 3999 22be
00000110: 3bd0 1d3a fde4 1dbe 9946 373f 160b 27be
00000120: 55d4 85bc 1d0d 04be a327 453f 5848 1cbe
00000130: ff43 95bc d9dc b5bc e66c 653f 8b1d dcbc
-0.007147359 -0.13891575 0.7552541 -0.16333418 -0.020614734 0.011741699 0.9115898 0.004834464
0.008820981 -0.1635098 0.87652916 -0.16964658 -0.008002598 -0.18941016 0.7366778 -0.19683416
-0.0031327158 -0.13018125 0.8170229 -0.14117494 -0.003029944 -0.18581955 0.7571864 -0.19399546
0.008528125 -0.17265767 0.75964314 -0.17310266 0.009050559 -0.16528602 0.8717277 -0.17122479
-0.011126436 -0.21653122 0.8168316 -0.22453324 -0.016818212 -0.19948627 0.7338674 -0.22502367
-0.003293406 -0.13657078 0.81070304 -0.14857236 -0.011222988 -0.051314313 0.85727704 -0.060928766
-0.017260473 -0.16341844 0.76891136 -0.17698865 -0.0154515505 -0.03875613 0.8577361 -0.056646314
-0.0032007291 -0.21836382 0.7594674 -0.22687781 -0.0010722239 -0.17864008 0.7543181 -0.18426539
-0.012964787 -0.17064472 0.8714369 -0.15878762 0.00060201035 -0.15419383 0.715921 -0.16312823
-0.0163366 -0.12895627 0.77013606 -0.15261972 -0.0182209 -0.022200035 0.8961929 -0.026869556

model/hidden/input_layer/W f4 [256, 86]
00000000: adf7 433d c9ce 87bd c977 babc 3052 efbd
00000010: d1c7 03bd a74d aebc 526e 7d3d c08e 833c
00000020: e0cf 03be 0fc3 ab38 fb03 09be 5719 683c
00000030: 70d6 cebd c2b6 b3bd 6016 34bc 7357 eb3d
00000040: 887d 443d 9829 d9bb 02b9 88bc bc75 18be
00000050: 8a46 a83b bba1 d53d 0e37 ad3d 0cd0 41bc
00000060: cc9d 87bd 77b0 533d 32e2 a83b 64e0 303d
00000070: dac7 13be 579c 9b3c bc5c 14be a7a4 45bb
00000080: 8d13 e13c 7df9 d5bc d66d a1bc 56b8 32bb
00000090: 4341 0dbd e135 0f3d 951a d83a 8183 cabc
000000a0: 9fbc 2dbb 57ef 26bc 1854 723d 3520 103e
000000b0: a89a fe3b cdbf e93d b7dd b93d 37bb fabd
000000c0: e0c1 9f3c 67f0 123d e917 a43d 68d1 f8bd
000000d0: ee7f 783d 2aec 19be 5da9 a43d cfb0 8b3c
000000e0: 8571 bcb9 2621 5cbd 772b 73bd 8a97 9e3a
000000f0: 7c97 0b3d 25a0 023d 10a8 2fbd 577f da3c
00000100: d1e9 32bc cbea bebd 909c ffbd 4718 b3bc
00000110: 8387 d83b 0443 d4bd 5510 30bd d095 29bc
00000120: 0691 663d 5a15 8bbd 3fb6 dc3b d42b c1bc
00000130: f89c d7bd c3cf 8dbd 7c95 86bd af03 d4bc
00000140: 3851 f038 8034 5bbc 1a01 fcbc 726f c8bc
00000150: fc3e bb3a 1497 b73b f227 a8bc 14c2 9bbc
00000160: 0144 59bb c9f7 9fbc 2183 a3bc cb85 5ebc
00000170: 979d afbc b537 18bd 3494 15bc 3b4d 65bb
00000180: c5d2 00bd 02ac d03b 0024 4abc c58c 69bc
00000190: 8e37 4cbc dd18 65bb 3c56 a0bc f3ff 0c3c
000001a0: c57e cdbb 2669 883c a494 deba 1ff7 ebbb
000001b0: 91ad 9fbc 1c8a 873b 98e4 06bc 03c5 29bd
000001c0: 3e74 aabb b48e 70bb 246e 7e3c 7f86 c1bb
000001d0: b5fe 8fbc b0b7 cebb 0ee4 f0bb 5150 cdbb
000001e0: 480c d7bc 96f8 cabb 6275 58bc eb4b 093c
000001f0: 4132 ed3b 0231 673b c61d bfbc 1b6d b2bb
00000200: 1f63 643b a059 a9bc 2125 673b f958 45bc
00000210: 407d 98bc 7e8a edbc ed4b f73b 73d8 cbbc
00000220: 9749 a9bc 5884 893c 3359 bdbb da70 ccbb
00000230: ac4d 44bc 1818 c8bc 659b 823c 00d1 3f3c
00000240: d62c c2bc 1455 723c 2c32 fc3b b81a 563c
00000250: bca2 97bc 1ca8 e73b 8666 92bc 47fb 0d3c
00000260: 443c 223c 0c48 053b fe55 5fbc 8c02 7fbc
00000270: c5c5 febb e86a 8abb 966b 0dbc 3171 aabc
00000280: aa40 3d3b 68fc 9ebc c976 603a e181 3b3c
00000290: 6cb0 d8bc 6885 e5bc 0591 e6bc 9b62 2e3c
000002a0: c2e2 87bc 76b2 f4bc 7bb0 83bc 27e0 f7bc
000002b0: b29d d6bc b105 aebc 954b 9bbc 1bcb 07bd
000002c0: 0eb5 52bd 2b06 213d 8e0f d3bd c0f0 a3b6
000002d0: 5ac7 36be 96e3 123b e44e 97bb 58dd 52bc
000002e0: 5c49 c23d 8a9e d23d 0999 1a3c 7512 adbd
000002f0: d853 d83d b00b aa3c 8593 b33c e8fe 74bd
00000300: e2d9 d3ba 5263 b9bc 3db7 953c cc3c 26bc
00000310: 83ba 6c3d 7fe4 b13d f40c f1ba bc13 d23d
00000320: 0fbb 26be 0aba 94bc 55b5 9fbb 695a 18bd
00000330: 9a20 513b 71cc b33c 4098 ac3c 2e48 1c3c
00000340: 7ea1 cabd 7034 9636 09d2 823c 028d 813c
00000350: 7182 283d 3312 d2b9 11ad 9b3d 4a78 683d
00000360: 98fb a4bb 004b 71bd c971 ae3c 33e8 febc
00000370: 8945 92bd 36ea 07be bba9 ef3d bc8a c4bd
00000380: a1e2 05bd 8450 a5bc 8805 c3bd 16ec 08be
00000390: 2f11 39bb d6de 993d b308 26be fea7 3d3c
000003a0: de09 0d3e 4244 8abd 7653 653c 98f7 d2bb
000003b0: fc45 40bd b99f aabd 4fad e3bd a44b e0bb
000003c0: 7806 15be 90ca fa3d 8d5f ab3d 5f69 173c
000003d0: ec83 873d 65d0 5c3d 42df e4bb d616 debc
000003e0: 9c40 fb3b 358e b3bd 256f 45bd b47c c0bc
000003f0: 5105 8e3d 485d 86bd 4277 633d 4935 67bd
0.047843624 -0.06631238 -0.022762196 -0.11685598 -0.03217298 -0.021277262 0.061872788 0.01605928
-0.12872267 8.190248e-05 -0.13380425 0.014166198 -0.100994945 -0.08775093 -0.010991663 0.11491289
0.04797128 -0.006627273 -0.016689781 -0.14888662 0.005135362 0.10431238 0.084577665 -0.011829387
-0.06621894 0.051681962 0.0051539177 0.043182746 -0.14431706 0.018995447 -0.144885 -0.0030157955
0.027475143 -0.026119942 -0.019705694 -0.0027270517 -0.034486067 0.034963492 0.0016487414 -0.02472091
-0.0026510132 -0.010188899 0.05916223 0.14074786 0.0077699013 0.11413536 0.09075492 -0.1224274
0.019501626 0.035873797 0.08012373 -0.12149316 0.06066888 -0.15031496 0.08040116 0.017052082
-0.00035942733 -0.05374255 -0.059367623 0.0012099606 0.034080014 0.031891007 -0.042884886 0.026672048
-0.010920004 -0.09322127 -0.12481034 -0.021862162 0.006607951 -0.10364345 -0.042984325 -0.0103506595
0.05629065 -0.06791182 0.0067355926 -0.02358047 -0.10527986 -0.06924393 -0.06571481 -0.025880663
0.0001145922 -0.013379216 -0.030762244 -0.024467204 0.0014285739 0.0056027267 -0.02052686 -0.019013442
-0.0033152106 -0.019527333 -0.019959988 -0.013581703 -0.02143745 -0.0371625 -0.009129573 -0.003498866
-0.031451005 0.006368161 -0.012337685 -0.0142547535 -0.012464417 -0.0034957447 -0.01957237 0.008605945
-0.0062712156 0.016651701 -0.0016981554 -0.00720109 -0.019491943 0.004136337 -0.008233212 -0.04144765
-0.0052018454 -0.0036706151 0.015529189 -0.0059059258 -0.017577508 -0.0063085184 -0.007351405 -0.006265678
-0.026250973 -0.0061941845 -0.01321158 0.008379917 0.0072386567 0.0035277014 -0.023329627 -0.0054451353
0.003484912 -0.02067262 0.0035269933 -0.0120451385 -0.018614411 -0.028996702 0.007546893 -0.024883484
-0.020664973 0.01678674 -0.0057784556 -0.006239039 -0.011981409 -0.024425551 0.015943239 0.011707544
-0.02370302 0.014790792 0.0076964106 0.013067894 -0.018510215 0.0070696007 -0.017871153 0.008665866
0.009902064 0.0020337133 -0.013631342 -0.015564572 -0.007775041 -0.00422417 -0.0086316075 -0.020805927
0.0028877654 -0.019407466 0.0008562622 0.01144454 -0.026451312 -0.028017715 -0.028145323 0.010643627
-0.016587619 -0.029870253 -0.016075363 -0.030258251 -0.026198242 -0.021242948 -0.018956939 -0.03315268
-0.0514422 0.039312523 -0.10305701 -4.8858055e-06 -0.17849484 0.0022413484 -0.004617559 -0.012870155
0.094866484 0.10284145 0.0094359005 -0.08450786 0.10562867 0.020757526 0.021920929 -0.05981341
-0.0016162957 -0.022630367 0.018275851 -0.010146331 0.05779506 0.0868616 -0.0018390701 0.1025767
-0.16282295 -0.018155117 -0.0048739114 -0.037195597 0.0031910301 0.021948071 0.021068692 0.009538693
-0.098940834 4.476453e-06 0.015969293 0.015814308 0.041140024 -0.0004006788 0.07601369 0.05675534
-0.005034875 -0.058909416 0.021294491 -0.03111658 -0.07142169 -0.13272938 0.117022954 -0.09596774
-0.032686833 -0.020179994 -0.095225394 -0.1337131 -0.0028239002 0.07513206 -0.16214256 0.011575697
0.13773295 -0.067513004 0.013996949 -0.006438207 -0.046941742 -0.08331246 -0.1111704 -0.0068449546
-0.14553249 0.12245667 0.08367834 0.009241431 0.06616959 0.053909678 -0.006984622 -0.027110498
0.007667614 -0.08767358 -0.0482017 -0.023496963 0.06934608 -0.06560761 0.055533655 -0.0564473

model/v_stream/W f4 [1, 256]
00000000: b379 b3bc dc6f 5a3d 3e3e 073d e8ae f2b9
00000010: d3eb 0f3a 282a 7dbd 2482 e8bb fbaa 4ebd
00000020: 5686 19bb 2dc4 61bc 0d8c 8e3b 7c4f 783c
00000030: 9f6b 49bc c4c9 d23c 35d9 b3bc 79bb 83bd
00000040: 28cd a3bb 7d96 8f3d ae82 4c3c b90a 87bd
00000050: 1649 0c3a 6d6c 833d 351f 03bc 3f23 973c
00000060: 4159 a3bd c814 0c3d ac0b 113d 3db3 963d
00000070: f9ec 07bd c41f 61bc 9013 183d 60ba cd3c
00000080: 07bb 853d 44aa e63a 789d 34bd c78d 3f3b
00000090: 4918 8a3d 5c2e e33b 24a0 3bbd 4d14 753c
000000a0: ad92 82bd e808 10bc 1564 1abd 9e80 1ebd
000000b0: cf4b 31bc 0e21 863d ff44 113d c89b e3bc
000000c0: 7d6f 09bb 80e3 7339 a53e 933d be35 e3b9
000000d0: e628 1f3c f45d dcbc de91 5f3c f5fe e5ba
000000e0: 5da3 133a 7352 313b ef1e 65bc 3423 ad3b
000000f0: 0bc8 363c 2931 e4bc bb45 1bba c63c 9b3d
00000100: d6ae 64bd 51b7 04bd 088b 5e3d a746 983d
00000110: 11c8 793d 2054 f13a 29a5 503d 94f6 87bd
00000120: 921f 5aba cdbd ec3c d734 f13c a2bd ca3c
00000130: 7ee6 f63c 7ac5 0c3b fddd 113d 01a0 0dbc
00000140: 1395 80bd 35f1 bcbb cc66 843c 0682 c3ba
00000150: 30a2 5fbc bac1 283d 9730 d6bc a236 92bd
00000160: ea7e 173c 5873 343d d050 53bc d459 aebd
00000170: e841 82bd 3ef1 903c 40f4 133d 3d57 30bd
00000180: 7d1b 993d 837e 3dbb 3bac 9ebd 0a60 7d3d
00000190: fb39 0439 a50a 2b3c f114 ba3c c602 4cbb
000001a0: ca97 3d3d 4001 8fbc 60dd 5e3d 031d 03bc
000001b0: 5c0e 1a3b 414d dcba c2ef acbc 37e1 39bc
000001c0: cf10 ca3c a319 24bc 6e7f 963d edfe 993d
000001d0: c005 303d 920f 193d 260d 233c cd91 ad3a
000001e0: 340f 4f3d 809f 873c 6c96 09bd f569 dfbb
000001f0: b8af 953b 07f7 99bd b1c8 93bd 7d15 7cbc
00000200: aae9 f43c a597 e23c 828c 893c 2c9f 8a3d
00000210: fc0b 54bd 10bf 493d 80c2 48ba 6529 8d3d
00000220: 396c 9f3d fea1 9fbd 481f 8abd 8250 e5bc
00000230: b4c2 6dbd 6577 923d c32d 173a 6329 f6bb
00000240: ecf1 143a 1dc3 13bd 9785 4dbd c89a 5a3d
00000250: 85f3 8ebc 8a28 c43c 49dd 843d 0bc0 eb39
00000260: a4e4 993c 3f1f 8c3d 85a2 3abd e810 f039
00000270: 6214 753d 4ca1 8fbd d32a 52bd 860d 2a3a
00000280: 5a83 f2bc 9372 67bd 014e 8e3d 14dd 19bb
00000290: ec06 6e3d 8f36 c43b fe14 e43b 453e 183c
000002a0: 9809 f7b9 b067 09bc 472a a5bd aac6 163b
000002b0: 8b37 14bb 4fb1 64bd 72fb e4ba 4c65 7337
000002c0: cd5a 8cbd 7178 a33b 2b53 3d3d c65c cb3a
000002d0: ba2d 33bc acc0 f13a c3e9 4c3d 4213 ff3c
000002e0: e69c 53bd 85c2 ba3c 24cd dcb9 55a4 0a3d
000002f0: 22f7 013d 9e8f 9d3d f1a3 43bd 9c5c 1e3c
00000300: c1f8 84bd f035 eabb 6a58 8bbd c690 a1bc
00000310: 8b55 f2bc 51e4 c73c e782 c4bc 3ae2 993d
00000320: 6e1d 283c 4efb 38bd 4257 3b3b e28c 433a
00000330: 7854 34bc 45f6 863d 1cc3 03bd 4950 9bbc
00000340: 3f7b 9bba b3ad 433d 1e5f 40bd dde7 f13b
00000350: 3f01 823d 2b4b 8c3d 322d 2ebc a986 11bd
00000360: a8a0 88bd ba0b ae3c 4948 8c3d 96c6 d6bc
00000370: 8941 8fbd 3a11 64bd bd51 99bc af66 6dbc
00000380: dfd6 96bd faf7 853d 0b37 65bd 0bfa 203d
00000390: ed55 833c 965e 2abd ac49 643d b9a6 68bd
000003a0: c1c1 5bbd 5adc cbbb 3085 26bc 05ea 2c3d
000003b0: b6a1 e23c 4562 993c 219e d5bc c4e7 52bd
000003c0: b744 6bbd ac32 8b3d 31b1 7e3a b19b 2a3d
000003d0: 242c 813c eafe 91bd 63b9 61bd 9ed2 57bd
000003e0: 0244 333c 29a7 743d 7f7a 09bd a8c8 3dbb
000003f0: 23c0 633d 2fec 89bd 973e 093d 1989 ecbb
-0.021908617 0.053329334 0.033018343 -0.00046288152 0.00054901576 -0.06180778 -0.007095592 -0.05045603
-0.0023426018 -0.013779682 0.0043501914 0.015155669 -0.012293725 0.025730975 -0.021954158 -0.06432242
-0.0049988218 0.07011125 0.012482328 -0.06593842 0.0005351467 0.06417165 -0.008003046 0.018449424
-0.07976008 0.034199506 0.03541152 0.07358406 -0.03318498 -0.013740484 0.03712803 0.025113285
0.06529813 0.001759835 -0.044095486 0.0029228793 0.06742913 0.0069330167 -0.04580702 0.014958453
-0.063756324 -0.008791186 -0.037693102 -0.038696878 -0.010821297 0.065492734 0.03546619 -0.027784243
-0.0020970993 0.00023259036 0.07189683 -0.00043336855 0.009714341 -0.02690027 0.013645617 -0.0017547297
0.0005631948 0.00270572 -0.013984426 0.0052837376 0.011156092 -0.027855473 -0.00059231714 0.07579951
-0.0558308 -0.032401387 0.05433181 0.07435351 0.060981814 0.0018411912 0.05093876 -0.06638828
-0.00083207444 0.028899098 0.029444141 0.024748627 0.030139204 0.002148001 0.035612095 -0.008644105
-0.06278434 -0.005766059 0.016162299 -0.0014916069 -0.013649508 0.041200377 -0.026146216 -0.07139327
0.009246567 0.044055313 -0.012897685 -0.08513227 -0.06360227 0.017693158 0.036121607 -0.043051947
0.07475946 -0.0028914518 -0.07747694 0.061859168 0.000126101 0.01043955 0.022715064 -0.0031129583
0.046287335 -0.01745665 0.05441034 -0.008002522 0.0023507094 -0.0016807691 -0.02111042 -0.011345199
0.024666218 -0.010015878 0.07348524 0.07519326 0.042974234 0.037368365 0.009951865 0.0013242305
0.05055161 0.016555548 -0.03359072 -0.006818051 0.0045680664 -0.0751782 -0.07216013 -0.015385983
0.029896576 0.0276602 0.016790632 0.06768641 -0.05176924 0.049254477 -0.0007658377 0.06892661
0.07784314 -0.077945694 -0.06744248 -0.02799249 -0.05804701 0.07151679 0.0005767012 -0.007512258
0.0005681801 -0.036074746 -0.05017623 0.053370267 -0.017450104 0.023945112 0.06487519 0.00044965776
0.018785782 0.06841897 -0.045565147 0.00045788963 0.05983389 -0.07013187 -0.05131037 0.00064870005
-0.029603649 -0.05650575 0.06948472 -0.002347772 0.05811207 0.005987949 0.0069605103 0.00929219
-0.0004711866 -0.008386537 -0.080647044 0.0023006597 -0.0022616114 -0.055833157 -0.0017469956 1.4507514e-05
-0.068532564 0.004988723 0.046221893 0.001551532 -0.010936195 0.0018444262 0.05002762 0.031137113
-0.051663302 0.022797832 -0.00042114512 0.033848125 0.031729825 0.076934084 -0.04776377 0.0096656345
-0.064927585 -0.007147543 -0.06803973 -0.019722354 -0.029581806 0.024400862 -0.0239882 0.075138524
0.010260923 -0.045161538 0.0028585945 0.0007459653 -0.011006467 0.06589941 -0.032168493 -0.018959181
-0.0011862292 0.047773074 -0.04696571 0.0073823766 0.06347894 0.06850275 -0.010630893 -0.035528813
-0.06671268 0.021245826 0.06849725 -0.02621774 -0.06994922 -0.05568049 -0.018715734 -0.014489814
-0.07365202 0.065414384 -0.055960696 0.03930096 0.016032184 -0.04159411 0.05573432 -0.056799624
-0.053651575 -0.0062213363 -0.01016359 0.042215366 0.027665 0.018723616 -0.026076378 -0.05149056
-0.05743858 0.06796774 0.00097157346 0.041652385 0.015768118 -0.07128699 -0.05510844 -0.052691095
0.010941507 0.05972973 -0.033564087 -0.0028958712 0.055603158 -0.067345016 0.033506956 -0.0072184918
