ai_challenge/results/simulation_DoubleDQN_DuelingRecNN_2017-05-19T19:40:53.24/180012/model.npz (npz, 631601 bytes, 12 tensors)

model/hidden/input_layer/b f4 [256]
000000 b0 d0 db bc 5d 5f e5 bc eb 2d bc bc a0 24 ac bb
       -0.026832908 -0.027999574 -0.022971114 -0.0052533895
000010 eb ca 87 3b 54 43 fa bc c3 1f 38 bd 34 71 95 bd
       0.0041440628 -0.030549683 -0.044952165 -0.072969824
000020 c4 83 cf bc b5 e8 06 bd eb 87 90 3c 3f ea 01 bd
       -0.025331385 -0.03293677 0.017642936 -0.031717535
000030 c3 7e 90 bc 9b e3 0b bd 76 02 44 bd 75 9a 04 bd
       -0.01763857 -0.03415261 -0.04785391 -0.032373864
000040 0d e3 14 bd a9 c0 5f bd 7c c8 b9 bc 57 ba 2f bd
       -0.036349345 -0.054627094 -0.022678606 -0.042902317
000050 2d d4 0a bd d4 4d 86 bc 17 90 9d 3c 44 3e 17 bc
       -0.033893753 -0.016394533 0.019233746 -0.009231154
000060 e9 fa 0e bd 91 67 07 bd 83 d3 bc bc 2f 13 43 bc
       -0.034907255 -0.033057753 -0.023050075 -0.011906429
000070 d3 7e d3 bc c1 f3 d6 bc f9 d8 57 bd c9 21 35 bc
       -0.02581731 -0.026239278 -0.052697156 -0.011055418
000080 d4 d5 5f bc a1 f0 00 bd b0 63 f3 3c a2 cd d2 bc
       -0.01366182 -0.03147948 0.02971062 -0.025732819
000090 cb 3d 65 bd 95 c8 e5 bc a2 69 54 bd a9 d9 a7 bc
       -0.055967133 -0.028049747 -0.05185855 -0.02048953
0000a0 b7 07 1a bb 4d 79 13 bd 5a 7c c7 3c 61 4d 2b bd
       -0.0023503134 -0.036004353 0.024351288 -0.04182184
0000b0 5c d3 4c bd dc 65 7a bc f7 03 ed bc ec bb 1c bd
       -0.050006256 -0.015283074 -0.028932555 -0.038265154
0000c0 f7 0b 80 39 7e a4 10 bd 92 57 28 bd ff 0d b9 bc
       0.00024422977 -0.035313122 -0.04109914 -0.022589682
0000d0 86 3e 1e bc 61 70 bc bc fe f4 d7 bc ab 42 b9 bc
       -0.009658461 -0.023002805 -0.026361939 -0.022614798
0000e0 72 de f1 bc 1b 56 0d bd e7 5f e9 bc 3d f6 a0 bc
       -0.029525016 -0.034505945 -0.028488113 -0.019648666
0000f0 af 06 15 bd 14 31 96 bc 05 ac 0e bd ea fd 2a bc
       -0.036383327 -0.01833395 -0.03483202 -0.010436514
000100 be 2e 9a 3a 0d f0 0a bd 3c 93 38 bd b4 3e df bc
       0.0011763198 -0.033920337 -0.04506229 -0.027251579
000110 bd 1b fb bc 7d 3d 24 bd d2 e8 4d bd 63 89 69 bd
       -0.030652875 -0.040097702 -0.050270863 -0.057015788
000120 f8 e9 a1 bc 4e b0 d8 bc 1a 70 ba bc bc f1 1d bd
       -0.019764885 -0.026451256 -0.022758532 -0.038560614
000130 77 86 41 bc 42 07 51 bd e3 b8 63 bc c2 71 59 bd
       -0.011811844 -0.051032312 -0.013899061 -0.053087004
000140 bb 10 8b bd 57 db 32 bd 57 1e 3a bd 51 ca 23 bd
       -0.067903005 -0.04366621 -0.04543909 -0.039987866
000150 34 ac 0d bd 5c f7 1e bd 92 de 28 bd 2f a7 18 bd
       -0.034588054 -0.03881012 -0.041227885 -0.037268814
000160 63 a7 da bc de b0 9e bd 07 61 b4 3c 22 17 e7 bb
       -0.026691144 -0.077485785 0.022018922 -0.007052318
000170 4c e2 2a bd 73 1d 24 bd 7f ba 3f bc 31 a3 1d bc
       -0.04171972 -0.040067147 -0.011702179 -0.009621427
000180 ac fa 31 3b df 44 17 3c 7b f4 90 3c 42 73 98 3b
       0.0027157469 0.009232729 0.017694702 0.0046524117
000190 42 8e 1d bd 30 38 25 bd 16 2e 25 3c f7 c8 84 bc
       -0.038465746 -0.040336788 0.0100817885 -0.016209109
0001a0 f2 4a 08 3c 09 e6 3d bc b1 ef dc bc 64 13 6c bd
       0.00831865 -0.011590489 -0.026969763 -0.05763568
0001b0 a8 07 f1 bc 74 5f 84 bd cd 83 82 bd e0 00 28 bd
       -0.029422596 -0.06463519 -0.06372795 -0.04101646
0001c0 5b 6d b5 bc 6a bf 66 bc 22 e0 4f bd c1 e5 81 bc
       -0.022146871 -0.014083723 -0.05075086 -0.015856626
0001d0 d3 4d 70 bd 20 e7 42 bd f3 74 7e bd 07 2a 13 bd
       -0.05866797 -0.0475837 -0.06212325 -0.035928752
0001e0 8a 53 84 bd 70 89 93 bb b2 c1 2f bd a6 85 84 bd
       -0.06461246 -0.004502468 -0.04290933 -0.06470804
0001f0 75 07 3b bd 32 23 5e bc bc 9b 37 bd cc 4c 92 3c
       -0.04566141 -0.013558196 -0.044826254 0.017858885
000200 5d 70 c6 3a 73 51 4c bd 60 e9 16 bd ce 8d bb bc
       0.0015139688 -0.049882364 -0.036843657 -0.022894766
000210 73 0c 4e bb 03 97 9d bc fc e6 99 3a 97 98 3b bd
       -0.0031440526 -0.019237047 0.0011741812 -0.045799818
000220 ee 96 64 bc 79 1c 27 bd c4 20 02 bd cb d3 5d 3c
       -0.013952 -0.040798638 -0.03176953 0.013539265
000230 93 3a fc bc 34 5f 80 bc ce d9 15 bd 26 4b 98 bb
       -0.03078965 -0.015670396 -0.036584668 -0.0046476303
000240 a9 37 0c bd be 74 0c bc 9d b8 59 bd 4e ad 80 bd
       -0.03423277 -0.008572755 -0.053154577 -0.06283055
000250 cf 08 81 bd 25 e7 52 bd 1e 7d 7a bc 4b 13 4c bd
       -0.06300508 -0.051489968 -0.015288619 -0.049823087
000260 05 2d 2a bd 90 1a f3 bc 44 23 10 bd 0a f2 8d bc
       -0.04154684 -0.029675752 -0.035189882 -0.017327327
000270 6e 00 73 bd 4d c2 a8 bc cd 08 c0 ba 78 30 cd bc
       -0.05932658 -0.020600462 -0.001465106 -0.025047526
000280 34 db 90 bc d0 98 8d bd ef 27 fc 3b e2 b1 13 bd
       -0.01768265 -0.06913912 0.00769519 -0.036058314
000290 d2 88 32 bd cc b6 0e bc d2 75 5e bd 8b 77 d8 3b
       -0.043587513 -0.008710574 -0.05431158 0.0066060475
0002a0 64 d2 3a bb b9 3a af bc 10 b4 40 bb e5 6f cf 3b
       -0.002850675 -0.021390306 -0.00294042 0.0063304775
0002b0 e3 f6 16 bd 71 e7 bd bc b6 41 54 bc d2 f8 16 bc
       -0.036856543 -0.023181649 -0.01295512 -0.009214597
0002c0 f7 fd 8f bc 31 0b 40 bd 40 e4 fc bc 35 4a 0f bd
       -0.017577155 -0.046885673 -0.030870557 -0.03498288
0002d0 5e 28 18 bd be 94 48 bc 49 be a6 bb 6e fa fc bc
       -0.037147872 -0.012242494 -0.0050886017 -0.030881133
0002e0 70 f0 4d bb a1 66 50 bd 8a 0d 0d bd cf 6e a2 bd
       -0.003142383 -0.050879125 -0.03443674 -0.07931291
0002f0 c9 7c cd bc ab ec 97 bc 5a d2 1f bd 91 ef 62 bd
       -0.025083916 -0.01854547 -0.039018966 -0.05540425
000300 bb ac 1b bd 5c 66 1a bd 7e 5a a9 bc 10 f7 77 bd
       -0.038006525 -0.037695274 -0.020673033 -0.06053835
000310 cc 70 22 bd d3 b4 ee bc d3 76 1d bd fc eb 54 3c
       -0.039658353 -0.029138958 -0.038443398 0.012995716
000320 62 1b 9a 3c a5 ac 10 bd bc 5f 19 bd b3 44 6e bd
       0.018811885 -0.035320897 -0.037444815 -0.058170985
000330 d3 b2 5c bd 4d bb 3e 3a 66 5e 06 bd 22 fb 62 bd
       -0.053881478 0.0007275835 -0.03280487 -0.05541528
000340 74 06 d8 bc b6 96 68 bc 20 49 0e bd 8c 47 ea bc
       -0.026370265 -0.014196089 -0.034737706 -0.02859857
000350 d8 1e ea bc fb 4e ca bc ea d2 54 bd 10 8b 6f bd
       -0.02857916 -0.024695864 -0.051958956 -0.05848223
000360 8a f3 ca bc c8 ba 03 bd 11 f4 12 bd ed a8 00 bd
       -0.024774332 -0.03216055 -0.03587729 -0.0314111
000370 c7 ea e6 bc 3e 61 96 3c 1a d6 e8 bc 81 04 1f bc
       -0.028188122 0.018356916 -0.028422404 -0.009705664
000380 22 6e d3 bc f1 78 80 3c e9 c4 2c bd 7f fb 4d bd
       -0.025809351 0.01568267 -0.042179976 -0.050288673
000390 ca 78 da bc 82 48 c6 bc ee 87 5e bd 6a 61 06 bd
       -0.026668925 -0.024204496 -0.05432885 -0.032807745
0003a0 49 f7 51 bd 29 01 80 3c 41 e1 04 bc b6 e2 3b bc
       -0.05126122 0.015625553 -0.008110345 -0.011467626
0003b0 60 31 75 bd a1 63 eb bc 4b c5 01 bd 1f 5a 40 bd
       -0.05986154 -0.02873403 -0.031682294 -0.046960946
0003c0 9f e1 da bc 09 f3 13 bb 7a b0 fa bc 59 df 5c bd
       -0.026718913 -0.002257528 -0.030601729 -0.05392394
0003d0 eb 47 d4 bc ac d4 64 bb 61 f1 3b bd 9c 47 3e bd
       -0.0259132 -0.0034916801 -0.045884494 -0.04645501
0003e0 58 fb e3 bc 33 82 3c bd 27 36 db bc be 1d 66 bc
       -0.027829811 -0.046022605 -0.02675922 -0.014045177
0003f0 4b a7 2f 3c 26 fb 71 bd 96 d3 81 bd 66 8b 2f bd
       0.010721038 -0.059077404 -0.06339185 -0.04285755

model/hidden/output_layer/b f4 [256]
000000 b6 52 77 3c 9f 77 20 bc 50 e8 6e 3b b4 5f 4c bc
       0.015095403 -0.009794145 0.0036454387 -0.012473989
000010 fc 1e d0 3b 76 e3 00 3c 3f 89 04 3c 58 88 3a 3c
       0.00635135 0.007866731 0.008089363 0.011385046
000020 58 41 4b bc ec 5d 5b 3c 2e 57 8e bc f0 77 a5 3b
       -0.012405716 0.013389092 -0.017375555 0.005049698
000030 90 be 05 3c 40 e3 17 bb d1 a5 5e 3c d7 35 40 3c
       0.008163109 -0.0023176223 0.013589338 0.011731586
000040 31 e4 f2 bb 52 4a 28 bb cd 59 3f bc 43 ab 47 3c
       -0.0074124564 -0.0025679064 -0.011679125 0.012186828
000050 77 bc 4f bc 10 72 51 bc 3a 65 ca 3b fa 0d 75 bb
       -0.012679211 -0.012783542 0.006176618 -0.0037392364
000060 cf cd ed bb be 08 f4 3b 9a df 37 bc e7 29 18 bb
       -0.0072572003 0.007447331 -0.011222744 -0.0023218335
000070 f0 a3 81 bb 2d cc 8b 3c ec 01 83 bc 34 07 2b bc
       -0.0039563105 0.017065132 -0.015992127 -0.010438729
000080 5c 35 65 bb 77 29 90 bc 04 22 2f 3c 93 79 d9 bb
       -0.0034974432 -0.017597897 0.010689262 -0.006636807
000090 4e dd 2e bc 4e e4 a9 3b 9d 1a 2e 3c 8f fd 15 3a
       -0.01067288 0.0051846867 0.010626462 0.0005721682
0000a0 8b fe 40 3c c7 d4 bd 3b 67 27 d1 ba 24 5d 72 3c
       0.011779438 0.0057931873 -0.0015957177 0.014792714
0000b0 ef 5c 48 3c ab 60 37 bc 8b 41 54 bc d3 e9 26 3c
       0.012229188 -0.011192481 -0.01295508 0.010187584
0000c0 4d 05 67 bc 9b 90 0b 3b a2 b6 3f bc 07 66 5f bc
       -0.014100385 0.0021295908 -0.011701258 -0.013635165
0000d0 49 29 82 bc de 66 f7 3b e4 d7 e2 bb a0 de 50 3b
       -0.015888827 0.0075501045 -0.006922709 0.0031870976
0000e0 3a 08 6a bc 9f 77 22 bc e0 40 bf 3b 0e 9b 42 bb
       -0.014284188 -0.009916215 0.005836591 -0.002969447
0000f0 9a 8a 90 bb 0c 10 27 3c dd 7d 5f 3c 51 36 09 bc
       -0.004411054 0.010196697 0.013640848 -0.008374766
000100 0e ad 31 3c 35 73 01 3c 11 f3 5c bc 6b 6a 26 bc
       0.010844482 0.007901003 -0.013485686 -0.010157208
000110 6e 02 4e bc 0a 9f 37 bc 47 de 3a bc 44 bb 6b 3c
       -0.0125738215 -0.011207351 -0.011405534 0.014387909
000120 91 22 e9 bb f3 72 88 bc 52 25 19 bc ea e2 73 bb
       -0.0071147163 -0.016656375 -0.009347277 -0.0037214109
000130 7b 4a 10 bb 9d 0b fd 3b dd 3f ef ba 0a c3 20 3c
       -0.002201705 0.0077223317 -0.0018253286 0.009812126
000140 97 08 11 bc 5b 07 bc bb 6b c6 a6 bb 3e dc b6 3a
       -0.008852146 -0.0057381815 -0.0050895712 0.0013951135
000150 7b 9b 0e 3c 97 c0 80 bc 26 f6 a9 3a 4c 2b 30 3c
       0.008704062 -0.015716834 0.0012967035 0.01075251
000160 37 5b 8c bc a0 0b 5a bc 67 94 26 3c c7 b6 46 3c
       -0.017133338 -0.013308436 0.010167218 0.012128538
000170 85 2e 4f 3c 9e 7f 04 3b 90 4c f8 bb 58 0c 27 3c
       0.012645368 0.0020217667 -0.0075774863 0.010195814
000180 96 bd 39 bc 44 7a 12 bc fc a3 54 3c 61 91 1a bc
       -0.011336705 -0.008940283 0.01297855 -0.009434075
000190 d3 88 4d 3c 2e cf b6 bb 5e f0 70 bc 1b ca c2 3b
       0.0125448285 -0.005578897 -0.0147057455 0.005944503
0001a0 95 bf 26 bb 2e 89 4f 3c 8a 18 5b bc 86 a4 5f 3b
       -0.0025443782 0.0126669835 -0.01337255 0.0034125163
0001b0 2f 02 1d 3c a3 63 8a ba 2f 90 71 3c e4 0f f9 3b
       0.00958304 -0.0010558259 0.014743849 0.0076007713
0001c0 ba 11 93 bc 78 77 17 3c fb 70 3a bc 6c 98 35 bc
       -0.017952789 0.009244792 -0.011379476 -0.0110837035
0001d0 cf ca 72 bc 4e 94 95 bb 2c b9 93 3a ad ea 64 3c
       -0.014818861 -0.0045647984 0.0011270395 0.013971967
0001e0 68 9d 3a 3b 52 16 ec 3a f5 70 24 3c e8 76 30 3b
       0.002847517 0.0018012023 0.010036697 0.0026926342
0001f0 f4 33 c5 bb 87 c0 2a 3c a7 22 39 3c 5f e0 94 3b
       -0.006018156 0.010421879 0.011299766 0.0045433487
000200 a2 bd 52 ba 8f c5 60 bc 99 79 c3 3b c8 eb 2c bc
       -0.0008039122 -0.013718977 0.0059654233 -0.0105542615
000210 b9 e8 50 3c 8a c9 42 bb bc 2c f3 3a bc e1 59 bc
       0.012750798 -0.0029722177 0.0018552761 -0.013298448
000220 de 44 43 bc 21 e0 03 3c 5f cf 61 3c db 6b a3 3b
       -0.011918275 0.008049042 0.013782351 0.0049872226
000230 3f 2c 64 3c 2d 1e 34 bc a3 41 0c 3c 4f 50 87 bb
       0.013926565 -0.010993523 0.008560571 -0.0041294466
000240 88 a2 73 bc d3 19 57 3c 33 44 3a 3c 65 a2 0f bc
       -0.014870293 0.013128716 0.011368799 -0.008766745
000250 b3 89 1e 3c 4f 28 3b bc 82 21 41 bc 44 5e 18 3b
       0.009676385 -0.011423185 -0.011787774 0.0023249546
000260 31 1f 01 bc fb d9 4e bc e7 4c 84 3b c4 8a ac 3b
       -0.007880972 -0.012625213 0.004037488 0.0052655656
000270 bc 13 21 bc fd d2 40 3b ca 94 ae 3b 14 b9 ed 3b
       -0.009831365 0.0029422634 0.0053277956 0.007254729
000280 93 7f 99 3a 6e 8a 19 3c ec 9f d4 bb 9d 95 c4 3b
       0.0011710994 0.009371383 -0.0064887907 0.0059992806
000290 6a b4 2c bc 60 54 8a bc 74 ca 77 bc b5 28 df bb
       -0.010541061 -0.016885936 -0.015123952 -0.0068102726
0002a0 dc 3b 21 3b e3 87 61 3c 9c 46 5b 3c 28 8e 64 bc
       0.002460233 0.013765308 0.013383534 -0.013949908
0002b0 29 ef 5b bb 25 2e 69 3c 8a f1 98 3c 74 a6 a9 3b
       -0.0033559299 0.014232193 0.018669862 0.0051773135
0002c0 0e a4 8f 3b 2a b7 74 3b 0b 81 18 3a 66 80 49 bb
       0.0043835705 0.003734062 0.0005817569 -0.0030746697
0002d0 19 7f 5b 3c 2b 15 74 3c 7c 6a 65 bc 9f 41 e6 bb
       0.013397002 0.014897625 -0.014002439 -0.0070268656
0002e0 8f 49 80 3c 66 27 58 bc 50 d9 58 3c 7d ed 88 bb
       0.015660075 -0.013192987 0.013235405 -0.0041787014
0002f0 a1 7c 17 bc f9 bd 31 bc a8 d8 1d 3c 42 c2 81 bc
       -0.009246022 -0.010848516 0.009634174 -0.0158397
000300 16 88 e2 3a 0c 6a d8 3b a2 70 5f 3b 93 ad e2 bc
       0.0017282988 0.0066044386 0.0034094234 -0.027670657
000310 80 74 4b 3c 1f 38 6c bb 07 9c 32 3c 61 3f 47 bc
       0.0124179125 -0.0036044193 0.010901458 -0.012161107
000320 cd 48 97 3b 84 6a 06 3c 1c d8 dd 3b e2 01 63 bc
       0.004616833 0.008204106 0.006770147 -0.013855429
000330 17 ee 75 3c 5e 2c 5f bc 7e 5c 06 3c 75 b9 f4 3a
       0.015010378 -0.013621418 0.008200763 0.0018670993
000340 cc c2 e3 bb 47 4b a3 bb 2e 63 3d ba e2 4d dc 38
       -0.006950712 -0.004983339 -0.0007224557 0.00010504924
000350 2a d8 5d bc 12 ac 4a bc f7 62 12 3c 9a 87 97 3b
       -0.013540307 -0.012370126 0.008934728 0.0046243193
000360 48 f8 44 3c 57 f9 5e bb 52 e0 4b bc a6 7e 41 3c
       0.0120220855 -0.003402313 -0.012443619 0.0118099805
000370 c2 67 ed 3a b7 ef 57 3c 23 69 98 3c dc f4 d7 bb
       0.0018112587 0.013179711 0.01860482 -0.006590469
000380 33 4b 4b 3c f7 ce e4 ba 74 9f 01 3c a7 73 1c bc
       0.012408066 -0.00174567 0.007911552 -0.009549058
000390 8c 17 97 bc 4e ae 17 3c 80 da 64 bc 60 9a 72 3c
       -0.018443845 0.009257866 -0.01396811 0.014807314
0003a0 17 42 47 3c c8 c2 c5 bb c4 00 96 3c 0a 0c 11 bc
       0.012161753 -0.0060351826 0.018310912 -0.008852968
0003b0 01 aa 07 bc 31 2e c5 bb 1e 0d 7b 3c 75 aa e9 3b
       -0.008280278 -0.0060174693 0.015322952 0.0071309158
0003c0 e7 b1 63 3c e6 4b ee bb be 35 74 3c 0d 3c e9 bb
       0.013897396 -0.0072722314 0.014905391 -0.0071177543
0003d0 37 6f 30 bb e7 28 3f 3c 21 34 1b 3b 11 5b a7 3b
       -0.0026921758 0.011667467 0.0023682194 0.0051072915
0003e0 a4 6a b0 3b 64 52 45 bc 93 a7 20 3c a5 8b 0b 3c
       0.0053838063 -0.012043569 0.009805578 0.008517181
0003f0 d6 82 22 3b 42 2a c7 3b 87 5a 5a bb 2a ab c3 3b
       0.0024797223 0.0060780356 -0.0033318119 0.005971332

model/a_stream/W f4 [3, 256]
000000 05 16 93 bc a2 a6 59 3c 1f c0 4d bd 13 47 d9 3c
       -0.017954836 0.013284357 -0.05023205 0.026523149
000010 9e ee 8c bc b1 09 cc bc 7b 90 19 3d 2a 6e 54 bc
       -0.017203625 -0.024906965 0.037491303 -0.012965718
000020 2e b7 02 3d 58 c9 8d bc 3f 01 94 3c 4c 01 d7 bb
       0.031912975 -0.017307922 0.018067 -0.006561434
000030 fc 3c 86 bc 99 3c 5c bd d1 91 36 bc 6c 2e 4a bb
       -0.016386501 -0.053768728 -0.011143164 -0.0030850423
000040 dd d4 95 3c db d0 ce bc 0f f4 87 3c a7 c3 06 bc
       0.018289978 -0.025246074 0.016595868 -0.008225358
000050 b8 c4 88 3c 92 57 a3 3b 70 85 84 bb b6 91 08 3d
       0.016695365 0.0049848044 -0.0040442273 0.033342086
000060 27 2c 09 3d 3b 2d 54 bd ed 71 ab 3c 0e 5a 2a bd
       0.033489373 -0.051800948 0.020928347 -0.04158979
000070 08 02 74 3d 0d 25 ca bc 6d 9c 5f 3c 86 59 8e 3c
       0.05957225 -0.02467587 0.013648135 0.017376672
000080 16 06 1c bd 1e 63 7c 3c 07 f5 98 bc 42 97 e6 bc
       -0.03809174 0.015404491 -0.018671526 -0.028148297
000090 bd b4 b7 3c e6 fe 36 bd 09 1f 41 3b d3 65 56 bd
       0.02242505 -0.044676684 0.0029467961 -0.0523432
0000a0 15 98 67 bc 93 5e 41 3d 42 dc 13 3d 2c 8d cb bb
       -0.01413538 0.047209334 0.036098726 -0.0062118974
0000b0 0d 7c 5e 3d db 39 63 3c 86 45 74 3c 77 96 3f 3d
       0.054317523 0.013868774 0.014909154 0.046774354
0000c0 d3 eb 17 3d 6e 82 d0 bc 18 27 fc 3b f4 17 b7 3c
       0.037090134 -0.025452819 0.00769509 0.022350289
0000d0 7c 94 ee 3b 9e 45 33 3d a0 2b f2 bc ab 19 ab 3c
       0.0072808843 0.043767564 -0.029561818 0.020886263
0000e0 ef 22 0f 3d 1b 1a 92 3c aa ff 6d 3d f0 53 80 bc
       0.034945425 0.017834714 0.05810515 -0.015665025
0000f0 44 d5 d0 bc 04 84 cb 3c 14 b7 7a bc bd f9 0c bc
       -0.025492318 0.024843223 -0.015302438 -0.008604464
000100 31 e6 98 bc 00 12 d3 bc d7 c6 04 3c e7 fe 4e 39
       -0.018664451 -0.025765419 0.008104048 0.0001974065
000110 b3 2f 24 3a 92 05 68 3c 79 8f 5c 3c 80 1b e6 bb
       0.0006263211 0.014161484 0.013461941 -0.007022321
000120 d6 68 e0 3c 7c 32 db 3b 27 2b 4d bd a1 06 47 bd
       0.02739374 0.006689368 -0.05008998 -0.048590306
000130 2c 75 c4 3c c2 5a 0a bd 61 36 4b bd 64 63 20 3d
       0.023981653 -0.03377796 -0.049612407 0.039157286
000140 2f 33 d4 3c 16 6f 8a 3d a8 8d 21 bd be 9b d4 bc
       0.025903312 0.06759469 -0.039441735 -0.02595317
000150 71 26 47 3d 4e 55 53 3b 5f 54 28 3d a0 c1 92 3c
       0.048620645 0.003224689 0.041096088 0.017914593
000160 92 92 92 3c 1c ee 31 3c c7 0a 70 3d 2d ce eb b9
       0.017892156 0.010859992 0.058604028 -0.00044976306
000170 64 41 61 bb 72 bf 54 bd ee 69 6c 3a f1 7c 0d bc
       -0.0034371251 -0.05194039 0.00090184703 -0.008635745
000180 49 84 28 3c 08 80 0b 3d dc 19 92 bb 87 ef 7d bb
       0.0102854455 0.034057647 -0.004458649 -0.0038747506
000190 f6 8d 0b bc eb b1 00 bd 67 0e c5 3c 6d 59 29 3d
       -0.008517733 -0.031419676 0.02405472 0.04134505
0001a0 b9 96 02 bd 09 55 d9 bc a7 fc 37 3c 71 24 1d 3d
       -0.03188202 -0.026529806 0.011229671 0.03836483
0001b0 7e db 19 bd aa 48 79 3c 7f 51 ab bc 28 35 44 3d
       -0.03756284 0.015215078 -0.020912884 0.047902256
0001c0 b3 ca 08 3c 4f c5 3d 3d 0a 93 7d 3a b6 94 3a 3c
       0.0083491085 0.046330746 0.00096730946 0.0113879945
0001d0 3b 5d 96 3c 13 18 b4 3b 46 61 57 bd 93 4b a3 bc
       0.018355003 0.005496034 -0.052583 -0.019933498
0001e0 87 b6 ce bc f6 3f 43 bd f9 fb d1 bc c3 e0 f6 3b
       -0.02523352 -0.04766842 -0.025632845 0.007534118
0001f0 e0 fb e8 3c 74 f9 db 3b 0e 1b 67 38 7b 07 db 3c
       0.028440416 0.0067130867 5.509989e-05 0.026736965
000200 77 6a 4b bd fc 66 9a 3c b6 b2 4e bd 28 70 1e bc
       -0.04966208 0.018847935 -0.0504634 -0.009670295
000210 7a 6b 8a bb d1 7b ae bb c0 28 04 3d 2c 98 42 3b
       -0.004224238 -0.0053248187 0.032265425 0.0029692752
000220 9b 67 cc 3b 14 35 71 3c 88 25 0f 3c f2 47 39 bb
       0.0062379367 0.0147221275 0.0087369755 -0.0028271643
000230 50 ba a3 bb 39 5e 39 3c bb 39 00 bd 78 a6 3a 3d
       -0.0049965754 0.011313968 -0.031305056 0.045568913
000240 c3 08 91 3c aa 80 c4 bc 56 e0 8d bc ca c5 58 3c
       0.017704373 -0.023987133 -0.017318886 0.01323075
000250 56 31 0f 3d d4 73 4c 3c f1 38 33 3b a9 85 74 bc
       0.03495916 0.012478787 0.0027347172 -0.014924445
000260 b5 52 66 bd 49 b2 7a 3c 0b 82 83 3c a5 8f 0a bd
       -0.05623122 0.015301296 0.01605322 -0.033828396
000270 f4 ed 91 3c 41 17 e8 3c 70 74 29 3d 16 05 05 bd
       0.01781366 0.0283314 0.04137081 -0.032475553
000280 3e 32 3d 3d b2 71 cd bc fa 88 cf bb 61 85 d2 3c
       0.046190493 -0.025078628 -0.0063334676 0.025698366
000290 93 f2 a7 3c bd 58 60 3c 4c 95 5a 3a e6 37 0b bd
       0.02050141 0.013693032 0.0008338287 -0.033988856
0002a0 b3 6b 86 bc cc 84 5c 3d 6f c9 01 3c aa 57 61 3c
       -0.016408777 0.053837582 0.007921561 0.013753811
0002b0 e5 d2 0d 3d 17 f0 0c bc 71 e0 48 bc 63 83 88 bc
       0.034624953 -0.008602164 -0.012260542 -0.016664213
0002c0 a7 9b 1b 3d a8 b7 a4 bc c6 36 ff bc 36 8c d6 bc
       0.03799024 -0.020107105 -0.031154048 -0.026189905
0002d0 6d 8a ca bc 03 71 a9 bc 18 c9 1c 3c 44 a8 85 3c
       -0.02472421 -0.020683771 0.009569429 0.016315587
0002e0 5b 69 e6 ba 20 7e 65 3c 52 20 e3 bb 62 91 35 bd
       -0.0017579006 0.014007121 -0.006931343 -0.0443281
0002f0 fc 83 be 3c 54 51 b1 bb 03 8f 91 bc e0 0a a5 bb
       0.023256294 -0.0054113064 -0.017768389 -0.005036697
000300 b7 0b 1a 3d b9 27 22 3d 17 3e da 3c 0e 4b a2 bd
       0.03760883 0.039588664 0.026640935 -0.07924472
000310 7f f8 c0 bc d0 57 61 3c 5c 29 eb bc 97 55 90 3b
       -0.023555992 0.013753846 -0.028706245 0.0044047344
000320 bd 1f 4b bd a9 cb 82 bb 40 c8 ea bc 80 d0 07 3d
       -0.049590815 -0.0039915633 -0.02865994 0.033157825
000330 e2 20 95 3d d7 9f 4f ba f1 9c d2 bc 4b 8d cd 3c
       0.072816625 -0.00079202413 -0.025709601 0.025091788
000340 27 2f e8 3c f1 0c 8b bc ff 2d 4c 3d dd 48 2e bd
       0.028342796 -0.016973944 0.049848553 -0.042549957
000350 83 08 c6 3b cc b1 36 3b 12 3c 56 3d b7 b8 48 bc
       0.006043495 0.0027876971 0.05230338 -0.012251071
000360 4b b7 8b bb bd 38 5b bd d1 98 7c 3a 58 a2 4d bc
       -0.0042637936 -0.053520907 0.00096358085 -0.012550913
000370 28 0c bf 3c 06 9f 4b bc c3 ea 48 bc 79 1b 7b 3d
       0.023321226 -0.012428051 -0.012263003 0.061305497
000380 3c 0c 11 bc f3 4f 2b bd 26 03 d3 3b 54 8c a5 3c
       -0.008853015 -0.041824292 0.0064395843 0.020208515
000390 41 93 6a 3c 46 19 73 bc 96 91 40 3c 50 6a 0b bc
       0.014317335 -0.014837569 0.01175346 -0.008509234
0003a0 e9 c1 d9 bb c4 56 06 3d 54 c3 91 3d e2 ba dd bb
       -0.0066454303 0.03279759 0.07117334 -0.006766663
0003b0 5f c4 c8 3c 9e 62 21 bb 2b b6 8c bc 23 bb 26 3c
       0.0245077 -0.002462543 -0.017176708 0.010176453
0003c0 30 0d 31 bc ee 72 00 bc 46 1f df bc a5 cb e2 3c
       -0.010806367 -0.007839901 -0.027236592 0.027684996
0003d0 9e fa 49 bd cb a6 3b bc b9 db 35 3d f2 fe 3b 3d
       -0.049311273 -0.011453341 0.044398997 0.04589743
0003e0 15 26 29 bb 72 f3 b4 3b 43 c5 f1 bc 02 ed 0c 3d
       -0.0025810052 0.005522185 -0.029513007 0.034405716
0003f0 25 a7 90 bc ee 23 a3 3c f2 37 41 bd 00 62 17 3d
       -0.017657826 0.019914594 -0.047172494 0.036958694

model/hidden/mid_rec_layer/upward/W f4 [80, 86]
000000 de d8 0b bb 46 02 4e 3c 3b ac 19 3c 75 fb a7 3a
       -0.002133898 0.012573784 0.009379442 0.0012816029
000010 8d 8b b6 3c a2 b1 0d bc 0b 3f a8 ba a8 ba 29 3b
       0.02228334 -0.008648308 -0.0012836171 0.002589861
000020 38 9b 13 bc 0a d7 23 3c c0 4f 97 3c 0a d7 23 3c
       -0.009009175 0.01 0.018470645 0.01
000030 4e 3d 01 3c ee 16 74 3d 0a d7 23 3c 3a cb 48 bd
       0.007888151 0.05959218 0.01 -0.049021937
000040 df 75 9c 3d 0a d7 23 3c 03 7f b0 bd 82 e8 51 3d
       0.076396696 0.01 -0.086179756 0.051247127
000050 0a d7 23 3c 2e bd f2 bc 09 65 96 3d 0a d7 23 3c
       0.01 -0.029631224 0.0734349 0.01
000060 67 a4 a6 bd 62 b0 84 3b 0a d7 23 3c 36 22 fc bc
       -0.08136826 0.004049347 0.01 -0.030778032
000070 9e 58 bb 3d 0a d7 23 3c 72 c0 09 bd 28 e0 24 3d
       0.09147762 0.01 -0.033630796 0.040252835
000080 0a d7 23 3c a0 ff 14 3c 13 61 92 bc 0a d7 23 3c
       0.01 0.009094149 -0.017868554 0.01
000090 8c 41 43 bc 5e 3e 76 3c 0a d7 23 3c 34 22 eb bc
       -0.011917483 0.015029518 0.01 -0.028702833
0000a0 30 f8 9e bb 0a d7 23 3c f6 66 41 bd 2f bf d5 3c
       -0.0048513636 0.01 -0.04721733 0.02609214
0000b0 0a d7 23 3c 21 38 a8 bb 40 d8 f0 bb de 16 9e 3d
       0.01 -0.005133644 -0.0073499978 0.07719205
0000c0 8f cd b2 bc fd f0 22 bc fa 3e 49 bb f9 cc 5b 3d
       -0.021826534 -0.009945151 -0.0030707703 0.053662274
0000d0 a4 26 03 3c 94 97 88 3d cb f4 7d bc 16 69 c9 bb
       0.008004818 0.06669536 -0.015500258 -0.0061465604
0000e0 0a d7 23 3c 23 9b 64 ba fe 41 33 3d 0a d7 23 3c
       0.01 -0.0008720627 0.043764107 0.01
0000f0 ed 05 61 3d 7b 78 4a ba a1 b9 6a bc a8 3f 37 3d
       0.054937292 -0.00077236415 -0.014326484 0.04473844
000100 ef ee 7f bd de d2 c8 3d 3e 62 d5 3d 05 ec 94 bc
       -0.062483724 0.09805845 0.10419129 -0.01817895
000110 6e 5f c9 bc d6 6a 73 3c 86 2a e9 bc 0a d7 23 3c
       -0.024581637 0.014857015 -0.02846266 0.01
000120 f9 ec 7c bd c6 c1 07 3c 0a d7 23 3c db c7 89 3b
       -0.061749432 0.008285945 0.01 0.004204733
000130 5f 08 2b bd b0 26 9e 3d 2a 2e 49 3c 0e a8 32 bd
       -0.04175603 0.07722223 0.012279073 -0.0436173
000140 71 09 24 bd 60 4b c0 3c 79 81 10 bd 2c 38 a5 bc
       -0.040048067 0.023473442 -0.035279725 -0.020168386
000150 52 83 91 3b a1 37 05 bd 09 a3 9c bc 16 79 2d be
       0.0044407034 -0.032523755 -0.01912071 -0.16940722
000160 a7 b7 15 be 6f bb 6c bd e5 7f 9a bd 06 64 89 bd
       -0.14620839 -0.057795938 -0.07543925 -0.06708531
000170 bc 31 b4 bd 45 e6 af bd ae a4 ca be 0a d7 23 3c
       -0.087985486 -0.08588842 -0.39578766 0.01
000180 2e 7e ab bd 0a d7 23 3c 25 7c c1 bd 76 c4 48 bd
       -0.08373676 0.01 -0.09447507 -0.049015485
000190 0a d7 23 3c fc 34 af 3d 42 ac 21 bd 0a d7 23 3c
       0.01 0.08555028 -0.03947092 0.01
0001a0 f8 3b 09 3e fc c0 69 bd 0a d7 23 3c cf 27 4f 3d
       0.13401783 -0.05706881 0.01 0.050575074
0001b0 58 48 a3 bd 0a d7 23 3c b7 92 3b 3e c5 32 e9 bc
       -0.07972783 0.01 0.18317686 -0.028466592
0001c0 0a d7 23 3c 24 af 20 3c de ff 4b bd 0a d7 23 3c
       0.01 0.009807382 -0.04980456 0.01
0001d0 b4 d4 86 3b 41 32 0c be 0a d7 23 3c 5d 15 7f 3c
       0.0041147117 -0.13691045 0.01 0.015569058
0001e0 6d e0 f6 bd 0a d7 23 3c 0b 9c fb 3c 62 7d 82 39
       -0.120545246 0.01 0.030714056 0.0002488895
0001f0 0a d7 23 3c 43 c3 8f 3d 1f 1d 29 bc 0a d7 23 3c
       0.01 0.07019665 -0.010321884 0.01
000200 44 b5 21 3d 5c d9 bd bd 0a d7 23 3c d3 6b db 3c
       0.03947951 -0.09269974 0.01 0.026784813
000210 04 68 34 be 54 62 c4 bd 7f ad 9c 3d db 78 79 be
       -0.17617804 -0.09589067 0.07650279 -0.24362509
000220 c7 a9 f1 bd a0 75 20 be b4 8f 35 be 0b a8 89 bd
       -0.117999606 -0.1566987 -0.177306 -0.06721505
000230 df 95 9e 3d 42 a5 fc bc 0a d7 23 3c 15 21 d4 bb
       0.077434294 -0.03084052 0.01 -0.0064736702
000240 29 a2 40 bc 0a d7 23 3c c3 ba 6f bd ed be 32 3c
       -0.011757412 0.01 -0.05852772 0.010909778
000250 f0 a6 1f bc cc 59 05 be b1 5d 8e bd 09 3e 11 be
       -0.009744391 -0.13022536 -0.06951464 -0.14183821
000260 30 54 48 be 02 d0 85 3d db aa 4e 3c 06 a6 84 3c
       -0.19563365 0.06533815 0.012613977 0.016192447
000270 29 bb 2b 3d 0a d7 23 3c 86 a8 cc 3d 25 b5 a5 ba
       0.041926537 0.01 0.09993081 -0.0012642486
000280 0a d7 23 3c 41 93 95 bd a0 03 83 3d 7f 8d 07 be
       0.01 -0.07303477 0.06397176 -0.1323757
000290 3e 5b 8d bd a4 be 57 3c f6 b5 89 3c 13 7e 5b be
       -0.06902169 0.013168011 0.016810399 -0.21434812
0002a0 f5 3f 24 3d c4 31 7c bc ff 9b 11 be 6b 6a 5c 3d
       0.040100057 -0.015392724 -0.14219664 0.053812426
0002b0 e5 10 e3 bd 90 51 42 be 89 c4 44 be ab 3e 3c bd
       -0.11087207 -0.18976426 -0.19215597 -0.045958202
0002c0 e0 f8 05 be 3b f3 9e bd b9 d2 c3 bd 1c 8c 1a be
       -0.1308322 -0.07761236 -0.095616765 -0.1509251
0002d0 cb d9 b4 be 0a d7 23 3c 40 2e be bd 0a d7 23 3c
       -0.35322413 0.01 -0.09286165 0.01
0002e0 e2 a4 8e bd 09 46 5b bd 0a d7 23 3c bb 78 b9 bd
       -0.06965043 -0.053533588 0.01 -0.09056231
0002f0 75 7d 58 bd 0a d7 23 3c 54 63 89 3d dd 08 50 bd
       -0.05285402 0.01 0.067083985 -0.050789703
000300 0a d7 23 3c ac ad 04 3d 34 d5 74 bd 0a d7 23 3c
       0.01 0.03239219 -0.05977364 0.01
000310 64 34 2a 3e 7f 1b 43 bd 0a d7 23 3c 70 6e 1d be
       0.16621548 -0.047633644 0.01 -0.1537416
000320 e8 ab 9e bd 0a d7 23 3c 57 00 06 bd d8 2b 07 be
       -0.07747632 0.01 -0.032715168 -0.13200319
000330 0a d7 23 3c 0e 15 5a bd cc ba 43 be 0a d7 23 3c
       0.01 -0.053242736 -0.19114226 0.01
000340 31 25 f7 bc ed b6 08 bd 0a d7 23 3c 80 96 0a 3d
       -0.030169101 -0.033377577 0.01 0.033834934
000350 91 c9 31 bd 0a d7 23 3c b8 3d be bb 4a 08 cc bd
       -0.04340512 0.01 -0.0058056973 -0.099625185
000360 0a d7 23 3c 33 80 a1 bc c2 cb 1b be 1d ab dd bd
       0.01 -0.01971445 -0.15214446 -0.10823653
000370 dc aa 2b 3d 4c 1c 70 be 55 e2 0d be 0e 84 00 be
       0.04191099 -0.23448294 -0.1385587 -0.12550375
000380 df b1 04 be 53 2e bf bd 94 da 94 3d a8 34 08 bd
       -0.12958477 -0.093350075 0.07268253 -0.033253342
000390 0a d7 23 3c eb 49 1a bd 4c ac fd bc 0a d7 23 3c
       0.01 -0.03766815 -0.030965947 0.01
0003a0 85 ce b0 bc a4 dd 06 bc fd 4b 05 bd d2 e9 b2 bd
       -0.021582851 -0.008231554 -0.03254317 -0.08736004
0003b0 b0 61 d8 bd be fd 33 be d5 a4 2f be c1 16 6f 3c
       -0.105655074 -0.17577264 -0.17152722 0.014592827
0003c0 f2 df 08 38 8a ac 85 bc 49 de e4 ba 0a d7 23 3c
       3.2633492e-05 -0.016317625 -0.0017461266 0.01
0003d0 69 16 5c 3d ca 47 47 bd 0a d7 23 3c d3 c1 ea bc
       0.05373231 -0.048652448 0.01 -0.028656876
0003e0 27 02 aa 3c de 3b 11 be 69 02 b0 bd 72 79 94 bd
       0.02075298 -0.14182994 -0.0859421 -0.07249726
0003f0 dc dd 76 3b e5 06 45 be e9 68 a0 3c ef a1 fc bc
       0.003766886 -0.19240911 0.019581275 -0.030838935

model/hidden/mid_layer/W f4 [256, 256]
000000 c4 bc 63 3c df 70 1d ba a6 b8 69 3a 89 54 25 bc
       0.013899986 -0.0006005894 0.00089157594 -0.0100909555
000010 62 15 d3 bb 90 b5 81 bc 13 3b 47 bc d7 ec 27 bc
       -0.006441758 -0.015833646 -0.0121600805 -0.010249338
000020 8d b9 cc 3a d9 55 68 bb a4 2d 3e bc 75 e4 6b bc
       0.0015619263 -0.003545156 -0.011607561 -0.01439773
000030 0c 97 d5 bc 61 a7 79 bc 83 db 93 bc 97 fb ad bc
       -0.026073001 -0.01523766 -0.018049007 -0.021238131
000040 c8 bf b5 bc 7a 68 9c bc 98 f2 b8 bc 29 95 f6 3b
       -0.022186175 -0.019092787 -0.022576615 0.0075251055
000050 4b 46 13 bd 33 36 27 bb 78 80 8b ba a0 60 67 bc
       -0.03595571 -0.0025514483 -0.0010643145 -0.014122158
000060 4e 53 0d bd 0c 44 09 bc bf d2 3c 3c b0 3f 1b 39
       -0.034503274 -0.00837804 0.011524855 0.00014805677
000070 65 48 c8 bb 16 2f 9a bb bb 04 97 bc 0c a7 c6 3b
       -0.0061121457 -0.00470532 -0.018434873 0.006062394
000080 2d ff 30 bc 4c bc 07 bb 4b 78 e4 3b df 4c f6 bc
       -0.010803026 -0.00207116 0.006972348 -0.030065952
000090 f7 fe 0e bc 38 93 26 bb 50 c3 94 bb 58 96 9e bc
       -0.008727781 -0.002541734 -0.0045398846 -0.019358799
0000a0 ab 12 96 bc ae 62 ab bc 71 bd 3e ba 32 7f 9e bc
       -0.018319448 -0.020921078 -0.0007276154 -0.01934776
0000b0 1e 63 18 3c cf 47 28 ba 78 46 16 bc fc 6f 26 3c
       0.009300975 -0.0006419392 -0.0091720745 0.010158535
0000c0 a3 3e 2a 3c 01 fe 90 3b 92 01 47 bc 15 24 3c 3b
       0.01039091 0.004424811 -0.0121463705 0.002870803
0000d0 78 6d 14 bc 2b 31 b7 ba 4b d8 de bb 6d 80 da bc
       -0.0090593025 -0.0013976445 -0.0068006865 -0.026672566
0000e0 01 a2 10 3b c9 e5 1a bc da d4 8d bc 2e 4d 3d 3c
       0.0022069218 -0.009454199 -0.01731341 0.011554046
0000f0 92 78 69 bc 81 96 77 3b 2e 27 40 bc 53 20 75 bc
       -0.014249938 0.0037778916 -0.011728091 -0.01496132
000100 0b 74 0b bc c1 76 78 bc 29 db 1e bc 66 e2 b2 3b
       -0.0085115535 -0.015165032 -0.009695807 0.0054591177
000110 84 cb 0b bc a7 44 ff bb c1 40 94 bc 84 8f 37 bc
       -0.008532409 -0.0077901664 -0.018097283 -0.01120365
000120 09 54 2b 3b b0 bb 87 bc 10 b3 4a bc 0c aa ed bc
       0.0026142618 -0.016568989 -0.012371793 -0.029011749
000130 6c 89 60 bc d9 81 2d bb 17 0b b1 bc 2f 9a 37 bc
       -0.013704639 -0.00264751 -0.021611733 -0.011206194
000140 24 ac 13 3b de c8 8b bb a2 e2 db ba 65 88 43 bb
       0.0022533024 -0.0042658886 -0.0016775916 -0.0029835936
000150 28 c7 2e bc 4a 9d 6f ba 86 74 06 bc ed 22 97 bb
       -0.0106676 -0.00091405644 -0.008206492 -0.004612318
000160 fa 0c 47 bc d3 53 5f bc e2 0e c4 bc fb 20 4a bb
       -0.01214909 -0.013630825 -0.023932878 -0.0030842412
000170 6f 95 e5 38 e0 5a 8e bc cb c8 8c bc 59 97 b1 3c
       0.00010947405 -0.017377317 -0.01718559 0.021678613
000180 49 6d 47 bb 2b 81 2e bd a1 6f 3b bc 53 75 90 bc
       -0.003043013 -0.042603653 -0.011440189 -0.01763407
000190 85 e7 72 bc 4e 11 fa bc 54 92 db b9 b6 86 06 bc
       -0.014825706 -0.03052583 -0.00041879958 -0.0082108285
0001a0 02 42 88 bc f9 56 39 bd 91 d8 b7 3c 53 cf 0e bd
       -0.016633037 -0.04524896 0.022442134 -0.03486569
0001b0 e4 0c ac bc f9 2f e9 bc 60 95 d9 3a 79 bb 54 bc
       -0.02100224 -0.028465258 0.0016600303 -0.01298415
0001c0 ac e9 c1 bc 1f d5 37 bc e7 ff a3 3c 66 76 4e bc
       -0.023670994 -0.011220246 0.020019485 -0.012601471
0001d0 8d 16 b7 bb 21 3d 92 bc eb 75 bf b9 71 8a 00 bb
       -0.005587405 -0.017851414 -0.00036518215 -0.0019613768
0001e0 21 eb 73 3b b9 6b 29 3b 8e 38 1e bc a4 94 69 bc
       0.0037219005 0.0025851561 -0.009657038 -0.01425663
0001f0 95 17 2a bc 52 05 1e bd e5 84 41 b8 22 13 0a bb
       -0.010381599 -0.038579293 -4.6138553e-05 -0.0021068533
000200 8d 16 4a bc ff 07 58 bc 5c 12 5a bc ff 65 e2 3b
       -0.012334478 -0.0131855 -0.013310041 0.0069091315
000210 50 72 dc bc c6 60 69 bc 9d 39 b3 bc d3 87 96 ba
       -0.026909977 -0.014244264 -0.021878058 -0.001148457
000220 53 b8 ae bc a4 d0 92 bb 7f 79 2a 3b c1 3a e9 ba
       -0.021328127 -0.0044804383 0.0026012359 -0.0017793999
000230 d7 14 e7 3a 60 df 1e bc 53 fb 24 3c 43 b9 e3 3b
       0.0017630112 -0.009696811 0.010069686 0.006949575
000240 22 ec 58 bc 76 77 64 bc 3c 6e 5c bc 08 01 ef ba
       -0.013239892 -0.013944497 -0.013454016 -0.001823456
000250 3f ca 5f bb a8 e5 e7 ba b9 71 24 bc d5 e4 6c bb
       -0.0034147648 -0.0017692344 -0.010036879 -0.0036147137
000260 d1 a8 c4 bb 67 7c d9 bc 03 cd a6 3c 21 8b 00 bd
       -0.00600157 -0.026548577 0.02036143 -0.031382684
000270 db 2b d6 bc 67 e9 19 3c 50 34 28 ba 0a 9e 0d bc
       -0.026143959 0.009394026 -0.00064164866 -0.0086436365
000280 40 9d 7c 3a df 57 7a bc 71 d8 ee 3b 63 c0 65 3c
       0.0009636469 -0.015279739 0.0072889854 0.014022919
000290 72 80 c7 39 5c 94 d2 bb 3e 0d 38 3c c7 95 96 3c
       0.00038051937 -0.006426377 0.011233626 0.018381966
0002a0 0c 85 1b bc 14 fd c3 bc 19 e2 a8 3c 60 98 12 bc
       -0.00949217 -0.023924388 0.020615624 -0.008947462
0002b0 eb 92 60 3b 2e 45 d9 39 b5 bd 77 bc 4d 41 03 3c
       0.0034267257 0.00041441008 -0.015120913 0.008011174
0002c0 24 1f 3f bc 11 43 a4 ba 10 db e3 39 be df 04 bd
       -0.011665139 -0.0012532194 0.00043460028 -0.03243994
0002d0 ff 89 93 bb 2e a0 b2 bc be 33 1a bc 73 c0 5d bc
       -0.0045025344 -0.021804895 -0.00941175 -0.013534653
0002e0 b2 7d af bb c8 59 a9 bc e6 4c 01 bc e0 00 94 bc
       -0.00535556 -0.020672694 -0.007891869 -0.018066823
0002f0 f1 67 10 bd 5f e8 d2 bc 83 8e c8 bc b6 fe 8b 3b
       -0.035255376 -0.025745569 -0.024482017 0.0042723073
000300 9e ac 75 3c 51 10 51 3b 31 3b 38 ba 52 6e 34 bc
       0.014994768 0.0031900594 -0.0007027863 -0.011012631
000310 28 67 1c bc f2 f5 10 3c 2f 23 21 bd 80 f9 87 3c
       -0.009546079 0.0088477 -0.039340194 0.016598463
000320 a8 3e cb bb ea f4 ec bb 14 e6 39 bc eb 6f 14 bd
       -0.0062025376 -0.0072313445 -0.011346359 -0.036239546
000330 44 61 48 3c 27 1e 30 b9 00 86 a7 bc 10 63 4c bc
       0.012230221 -0.000167959 -0.020449638 -0.01247479
000340 37 fd 6c bb e9 c3 21 bc bd aa 87 bc b5 5e bc bc
       -0.003616167 -0.009873369 -0.016560907 -0.022994379
000350 8e 1c 96 bc 84 91 46 bb 43 c6 c9 bc ac 56 cd bc
       -0.018324163 -0.0030299136 -0.024630671 -0.025065742
000360 25 b7 aa bc ae 98 46 bc e9 a2 04 bc 35 50 b5 bc
       -0.020839283 -0.012121363 -0.008095481 -0.022132972
000370 70 58 bb bb d9 bc 82 bb d9 a0 01 bd 47 bc ba ba
       -0.0057173297 -0.0039897976 -0.031647537 -0.0014246785
000380 44 50 db 3b 25 19 ca bb 11 02 8d bc 9a 4a bc 3a
       0.006692918 -0.0061675482 -0.0172129 0.0014365495
000390 f7 5e b6 3a 6b f4 1e bc 34 45 86 bb 22 cd 71 bb
       0.00139138 -0.0097018285 -0.004097605 -0.003689595
0003a0 69 17 1b bb a6 0c 03 bd 95 cf 88 bc 61 33 b0 bb
       -0.0023665077 -0.031994484 -0.016700545 -0.0053772186
0003b0 80 20 a7 3a fb 87 27 bc ab f1 ab 3b de 1b f3 bc
       0.0012750775 -0.010225291 0.005247315 -0.029676374
0003c0 8e 09 50 bc ee dd 80 bc a0 59 bf 3a 8d 77 0f bd
       -0.0126975905 -0.015730824 0.0014598854 -0.035026122
0003d0 a7 c1 7e bc 46 d5 83 bb d2 06 65 bc 9b de 0b bd
       -0.0155491 -0.004023227 -0.013978677 -0.03414784
0003e0 0a c8 a1 bc ed b4 09 bc 92 88 28 bb df 0f 73 bc
       -0.019748706 -0.0084049525 -0.0025716168 -0.014835327
0003f0 47 db 6b bc 61 38 fa bb 49 74 d5 bc dc 13 ff 3b
       -0.0143955415 -0.0076361154 -0.026056426 0.00778435

model/a_stream/b f4 [3]
000000 d7 f2 96 3c ab 56 b1 bb af b0 3c bb
       0.018426342 -0.005411943 -0.0028791835

model/hidden/mid_rec_layer/upward/b f4 [80]
000000 16 57 a6 bb 07 e8 ec bd df 3c 59 3f d4 45 e8 bd
       -0.0050762994 -0.11567693 0.84858507 -0.11341444
000010 82 4b bc bb 04 d6 cf bd 3f 9e 5d 3f 35 3c ce bd
       -0.005746306 -0.10148242 0.8656959 -0.10070077
000020 d8 1b 49 3b 36 ab d6 bd 29 7f 68 3f f9 3e d3 bd
       0.0030686762 -0.10481875 0.9081903 -0.103147455
000030 c9 8b 82 bb e9 71 e0 bd e6 b6 59 3f 00 dc dc bd
       -0.003983949 -0.10959227 0.85044706 -0.10784149
000040 87 46 e3 bb f4 6a de bd a4 eb 5c 3f bc b6 db bd
       -0.0069358977 -0.108602434 0.8629706 -0.10728213
000050 74 ed 67 bb 25 94 d0 bd 45 03 5d 3f 10 a2 ce bd
       -0.0035389336 -0.10184506 0.86333114 -0.10089505
000060 4b f8 af bb b5 46 06 be bd 30 5b 3f 17 4e 04 be
       -0.005370175 -0.1311291 0.85621244 -0.12920414
000070 ee 2f 17 3b 5c 9b e2 bd 4d 6a 67 3f 58 92 df bd
       0.002306934 -0.11064789 0.9039658 -0.10916585
000080 ae 08 a4 ba e8 03 01 be 60 e3 61 3f 79 40 ff bd
       -0.0012514794 -0.12599146 0.8823757 -0.12463469
000090 39 5d 86 bb db 5d 07 be 31 1a 5b 3f 8b 6e 04 be
       -0.0041004685 -0.13219397 0.8558684 -0.12932794
0000a0 14 21 f4 bb 07 66 ec bd c3 a3 5a 3f 6c da e8 bd
       -0.0074502323 -0.11542898 0.8540613 -0.11369786
0000b0 0c fc b2 bb f5 a8 d9 bd 6f ae 5c 3f 4f 69 d7 bd
       -0.0054621752 -0.10627929 0.86203665 -0.10518133
0000c0 df 6a 0d bb 86 a1 ac bd 21 7f 5d 3f bc 81 aa bd
       -0.0021578593 -0.08429246 0.8652211 -0.08325526
0000d0 58 0d c6 bb d7 2e c1 bd 9b c3 5c 3f f1 d6 c0 bd
       -0.006044071 -0.09432762 0.8623597 -0.09415997
0000e0 02 65 80 bb 1a 7a c9 bd ad 13 5d 3f 1f f6 c7 bd
       -0.003918291 -0.09837742 0.8635815 -0.09763741
0000f0 e8 3c 92 bb 2e af ce bd 21 d2 5e 3f f0 07 cd bd
       -0.004462827 -0.100920066 0.8703938 -0.100112796
000100 d6 1b 05 bc 2a 42 bb bd 6e 0e 66 3f 98 14 ba bd
       -0.008124312 -0.09143479 0.8986577 -0.09085959
000110 ee a4 ab bb bc 79 f5 bd bf 18 58 3f 79 73 ef bd
       -0.005238167 -0.119861096 0.8441276 -0.116919465
000120 ad e5 9d bb 8b a6 d3 bd 11 79 58 3f 00 58 d1 bd
       -0.0048186393 -0.103345 0.8455973 -0.10221863
000130 5b 5a d8 bb 54 f8 c4 bd bd 49 60 3f f3 33 c4 bd
       -0.006602568 -0.09617677 0.87612516 -0.09580221

model/hidden/input_layer/W f4 [256, 86]
000000 45 20 af 3c 0a b7 13 bd 66 84 dc bb a0 4f 56 bd
       0.021377692 -0.03606323 -0.0067296503 -0.05232203
000010 89 f7 0b bd 46 a7 ee 3c 58 f0 b5 ba 17 9c d2 3c
       -0.034171615 0.029132497 -0.0013880832 0.025709195
000020 d6 e2 97 bd 0f c3 ab 38 ea 81 03 be 57 19 68 3c
       -0.074163124 8.190248e-05 -0.12842527 0.014166198
000030 f4 5c b0 bd 2e 90 f9 bd 60 16 34 bc 30 0c 8b 3d
       -0.086114794 -0.12185703 -0.010991663 0.06789434
000040 26 2e c2 bc 98 29 d9 bb d5 5f 2a 3b b7 ab 12 be
       -0.023703646 -0.006627273 0.0025997062 -0.14323317
000050 8a 46 a8 3b a3 12 f0 3d 58 17 8a 3c 0c d0 41 bc
       0.005135362 0.11722305 0.016856834 -0.011829387
000060 fc 44 b6 bc 86 1a b3 bc 32 e2 a8 3b 58 85 f0 bb
       -0.022249691 -0.021863233 0.0051539177 -0.0073401146
000070 27 ce 20 be 57 9c 9b 3c 46 15 c3 bd 02 e5 c2 bd
       -0.15703641 0.018995447 -0.09525542 -0.09516336
000080 8d 13 e1 3c 43 cd 0c bd ac ec 55 bd 56 b8 32 bb
       0.027475143 -0.03437544 -0.05222766 -0.0027270517
000090 63 97 24 bd 58 7e 11 3e 95 1a d8 3a 22 92 45 bd
       -0.040183436 0.14208353 0.0016487414 -0.048235066
0000a0 24 69 b4 3c 57 ef 26 bc f2 e3 a1 3d c3 37 03 3e
       0.022022791 -0.010188899 0.07904805 0.1281424
0000b0 a8 9a fe 3b 89 80 d0 3d 01 a4 cb 3d f1 54 8d bd
       0.0077699013 0.10180766 0.09943391 -0.06900967
0000c0 09 1c b6 3c e2 63 87 3d 03 98 ac 3d ef d6 95 bd
       0.022230165 0.06610848 0.084274314 -0.07316386
0000d0 ea cb 08 3d 54 e8 df bd 9e 83 22 3d cf 0e 56 3d
       0.033397593 -0.10932985 0.0396763 0.052260216
0000e0 85 71 bc b9 bf b0 ef bc f4 16 f5 bd 8a 97 9e 3a
       -0.00035942733 -0.029259084 -0.119672686 0.0012099606
0000f0 20 a2 68 3c be 14 cc bc a2 f6 06 bd 46 cf 3b 3d
       0.01419881 -0.024912234 -0.03295005 0.04585197
000100 37 6d 25 3b da e0 a9 bd 3b 5a b4 bd 82 f1 0a bd
       0.00252421 -0.0829484 -0.088062726 -0.033921726
000110 2a 64 dd ba 7d 25 e1 bd 86 c3 78 bd d0 95 29 bc
       -0.0016890813 -0.109934784 -0.06073334 -0.0103506595
000120 1d ce bc 3d 0a 2e 99 bc 3f b6 dc 3b d3 c8 d4 3b
       0.092190005 -0.018698711 0.0067355926 0.0064936667
000130 f3 b5 f6 bd e6 0a 94 bd c1 1e cb bc 75 5c 12 bd
       -0.12046423 -0.07228641 -0.024794938 -0.035732705
000140 de 1d 81 bc 13 ea 50 bc 3b cf 68 bd 08 2d 54 3c
       -0.015761312 -0.01275112 -0.056838255 0.012950189
000150 0f ce 42 bd 47 6a 96 3b f2 27 a8 bc 14 c2 9b bc
       -0.047559794 0.004590306 -0.02052686 -0.019013442
000160 01 44 59 bb c9 f7 9f bc 21 83 a3 bc cb 85 5e bc
       -0.0033152106 -0.019527333 -0.019959988 -0.013581703
000170 97 9d af bc b5 37 18 bd 34 94 15 bc 3b 4d 65 bb
       -0.02143745 -0.0371625 -0.009129573 -0.003498866
000180 c5 d2 00 bd 02 ac d0 3b 00 24 4a bc c5 8c 69 bc
       -0.031451005 0.006368161 -0.012337685 -0.0142547535
000190 8e 37 4c bc dd 18 65 bb 3c 56 a0 bc f3 ff 0c 3c
       -0.012464417 -0.0034957447 -0.01957237 0.008605945
0001a0 c5 7e cd bb 26 69 88 3c a4 94 de ba 1f f7 eb bb
       -0.0062712156 0.016651701 -0.0016981554 -0.00720109
0001b0 91 ad 9f bc 1c 8a 87 3b 98 e4 06 bc 03 c5 29 bd
       -0.019491943 0.004136337 -0.008233212 -0.04144765
0001c0 3e 74 aa bb b4 8e 70 bb 24 6e 7e 3c 7f 86 c1 bb
       -0.0052018454 -0.0036706151 0.015529189 -0.0059059258
0001d0 b5 fe 8f bc b0 b7 ce bb 0e e4 f0 bb 51 50 cd bb
       -0.017577508 -0.0063085184 -0.007351405 -0.006265678
0001e0 48 0c d7 bc 96 f8 ca bb 62 75 58 bc eb 4b 09 3c
       -0.026250973 -0.0061941845 -0.01321158 0.008379917
0001f0 41 32 ed 3b 02 31 67 3b c6 1d bf bc 1b 6d b2 bb
       0.0072386567 0.0035277014 -0.023329627 -0.0054451353
000200 1f 63 64 3b a0 59 a9 bc 21 25 67 3b f9 58 45 bc
       0.003484912 -0.02067262 0.0035269933 -0.0120451385
000210 40 7d 98 bc 7e 8a ed bc ed 4b f7 3b 73 d8 cb bc
       -0.018614411 -0.028996702 0.007546893 -0.024883484
000220 97 49 a9 bc 58 84 89 3c 33 59 bd bb da 70 cc bb
       -0.020664973 0.01678674 -0.0057784556 -0.006239039
000230 ac 4d 44 bc 18 18 c8 bc 65 9b 82 3c 00 d1 3f 3c
       -0.011981409 -0.024425551 0.015943239 0.011707544
000240 d6 2c c2 bc 14 55 72 3c 2c 32 fc 3b b8 1a 56 3c
       -0.02370302 0.014790792 0.0076964106 0.013067894
000250 bc a2 97 bc 1c a8 e7 3b 86 66 92 bc 47 fb 0d 3c
       -0.018510215 0.0070696007 -0.017871153 0.008665866
000260 44 3c 22 3c 0c 48 05 3b fe 55 5f bc 8c 02 7f bc
       0.009902064 0.0020337133 -0.013631342 -0.015564572
000270 c5 c5 fe bb e8 6a 8a bb 96 6b 0d bc 31 71 aa bc
       -0.007775041 -0.00422417 -0.0086316075 -0.020805927
000280 aa 40 3d 3b 68 fc 9e bc c9 76 60 3a e1 81 3b 3c
       0.0028877654 -0.019407466 0.0008562622 0.01144454
000290 6c b0 d8 bc 68 85 e5 bc 05 91 e6 bc 9b 62 2e 3c
       -0.026451312 -0.028017715 -0.028145323 0.010643627
0002a0 c2 e2 87 bc 76 b2 f4 bc 7b b0 83 bc 27 e0 f7 bc
       -0.016587619 -0.029870253 -0.016075363 -0.030258251
0002b0 c1 62 ea bc 85 3e 8f bc 00 e9 07 3b d4 f8 04 3c
       -0.028611543 -0.017485866 0.0020738244 0.008115966
0002c0 f4 17 57 3a 2f 2c 8b bc 86 c8 ad bd 59 02 2b 3c
       0.00082051684 -0.016988842 -0.084855124 0.010437571
0002d0 58 d1 c9 bd 96 e3 12 3b 4c 19 10 bc 58 dd 52 bc
       -0.09854382 0.0022413484 -0.008795094 -0.012870155
0002e0 27 42 d6 3d cc f9 23 bb 09 99 1a 3c 78 40 83 bd
       0.10461836 -0.0025020717 0.0094359005 -0.06408781
0002f0 e1 fa 05 3d b0 0b aa 3c e8 54 92 bd 41 2e 00 bd
       0.03270996 0.020757526 -0.07145101 -0.03129411
000300 e2 d9 d3 ba d5 68 8c bd 20 c1 ec 3c cc 3c 26 bc
       -0.0016162957 -0.068559326 0.028900683 -0.010146331
000310 16 20 0e 3d e5 9e f2 bd f4 0c f1 ba 4a 5a 9e 3d
       0.03469857 -0.11846713 -0.0018390701 0.07732065
000320 db dd f2 bd 0a ba 94 bc a1 ed a3 bd 81 49 ae bd
       -0.11858722 -0.018155117 -0.080043085 -0.085101135
000330 9a 20 51 3b 66 c0 8d 3d 98 c7 2f bd 2e 48 1c 3c
       0.0031910301 0.06921463 -0.042914957 0.009538693
000340 ac f1 c2 bd 64 71 f0 bb 09 d2 82 3c 73 65 a0 bd
       -0.095187515 -0.007337736 0.015969293 -0.0783185
000350 9a 9c a0 bb 33 12 d2 b9 aa cd 6e bd 0c c7 2a bd
       -0.004901481 -0.0004006788 -0.058301605 -0.041693732
000360 98 fb a4 bb 82 22 1c bd 6f b7 a9 bc 0f 1f 4b 3c
       -0.005034875 -0.038118847 -0.02071735 0.012397542
000370 10 42 0d 3a 99 59 e8 bd 57 18 9e bd bb 73 6a bd
       0.0005388567 -0.113452144 -0.07719486 -0.057239275
000380 7e c6 11 3d b3 eb 1f 3d 0d 48 75 bd 4f b3 e8 bd
       0.035589688 0.03904314 -0.059883166 -0.113623254
000390 2f 11 39 bb 22 48 54 3d 40 f3 b1 bd fe a7 3d 3c
       -0.0028239002 0.051826604 -0.086889744 0.011575697
0003a0 36 e0 87 3d f4 cc f0 bb 09 f1 eb bc 1a 3b 06 3c
       0.06634562 -0.007348651 -0.028801458 0.008192802
0003b0 97 39 2e 3d 6f c4 2f bc 6f d5 97 bd 59 6f 3c bc
       0.04253539 -0.010727986 -0.07413756 -0.011501157
0003c0 e1 74 9f bd 2f 73 01 3e 4a 90 a1 3c 5f 69 17 3c
       -0.07785965 0.12641595 0.019722123 0.009241431
0003d0 ff 66 c8 3d bc a0 31 3d 42 df e4 bb 6f fc a8 3b
       0.0978527 0.04336618 -0.006984622 0.0051570456
0003e0 f9 7f ad 3c cd 39 48 bd 1a c6 ec bc 85 57 25 3c
       0.021179186 -0.048883248 -0.028903056 0.010091667
0003f0 30 83 72 3d 0c 4b 8e bd c3 6d 17 bd 34 43 17 bc
       0.05920714 -0.06947908 -0.03696991 -0.009232331
