ai_challenge/results/simulation_DoubleDQN_DuelingRecNN_2017-05-19T19:40:53.24/180012/target_model.npz (npz, 631662 bytes, 12 tensors)

model/hidden/input_layer/b f4 [256]
00000000: be2f dbbc 5d5f e5bc 6fae bbbc 1592 b1bb
00000010: 695f 803b f164 fabc d30e 38bd 8f7b 95bd
00000020: d299 d0bc 885e 07bd a485 913c deb4 01bd
00000030: 22ef 91bc 2431 0cbd 3f2f 44bd 41a8 04bd
00000040: 9fb9 14bd ed61 5fbd d717 babc 396a 31bd
00000050: 2594 0bbd 82f0 86bc 334c 9d3c 52ea 15bc
00000060: 18bb 0fbd 18fa 06bd e8c1 bfbc 2f13 43bc
00000070: f827 d4bc 525b d8bc c79b 57bd 3926 37bc
00000080: 1d54 62bc a1f0 00bd 4066 f43c 7c80 d2bc
00000090: e13c 65bd 2361 e6bc d4b9 54bd ae03 a8bc
000000a0: 8682 0bbb caad 13bd 9062 c83c a843 2bbd
000000b0: 948a 4cbd c4f8 7dbc f703 edbc e51e 1ebd
000000c0: ca87 123a c543 0fbd d505 27bd ff0d b9bc
000000d0: 82dc 1dbc 2c65 bcbc ad0c d7bc 8453 b8bc
000000e0: 7cdf f1bc 6578 0cbd fcf2 e8bc aabd a1bc
000000f0: b1c0 16bd 44a2 96bc 66e1 0ebd 7605 2cbc
00000100: 3cb0 8f3a a25f 0bbd 94b7 37bd 8fb4 debc
00000110: ddbc fbbc 747d 24bd ab02 4fbd f500 68bd
00000120: 4544 a1bc a6e3 d7bc 97f9 b9bc be82 1dbd
00000130: 6a36 3cbc 2e3a 51bd 65bd 5fbc 24b9 58bd
00000140: b815 8bbd 011f 33bd 4b32 3abd 263b 24bd
00000150: cc0d 0ebd e070 1dbd f1b5 28bd bc82 17bd
00000160: 3f44 dbbc 62e2 9ebd 4011 b43c 1fca e9bb
00000170: 3db7 2abd 6bfd 23bd 569f 3dbc 1a6a 1bbc
00000180: 8ce2 3d3b 5b88 163c ecc0 913c f542 9f3b
00000190: 2021 1ebd ebef 25bd fe4d 233c 3038 84bc
000001a0: 5d76 093c 6aa0 3abc 04b3 dabc 343a 6cbd
000001b0: c83b f1bc 0c15 84bd 5c3e 82bd 0670 27bd
000001c0: 146b b1bc 9a9b 67bc 60b8 4fbd d812 7ebc
000001d0: a750 70bd 6f20 42bd 5227 7ebd e0f3 13bd
000001e0: 53eb 83bd e690 90bb 7cdc 2fbd 52c5 84bd
000001f0: 9087 3abd 6f82 5dbc 9cc1 36bd c4c3 923c
00000200: 93ad c63a f133 4cbd 97ad 16bd e645 bbbc
00000210: 3816 3fbb 6324 9ebc 8bb2 823a 478e 3bbd
00000220: f112 69bc 11bc 26bd 9ea8 03bd 3ab2 5f3c
00000230: 53ef fabc 87e5 7fbc 48d9 15bd 698c 94bb
00000240: 6e3a 0bbd 79d4 0abc d9b7 59bd 4dc5 80bd
00000250: 6433 81bd b427 53bd b239 78bc d682 4cbd
00000260: 4832 2abd 428d f4bc 7327 11bd 2da6 8ebc
00000270: 7647 73bd 7e70 aabc 0da5 c4ba 611f cdbc
00000280: 6de8 90bc ae5e 8dbd 7bf0 ff3b 4913 14bd
00000290: 9249 32bd 073c 0dbc ac2f 5ebd b19e de3b
000002a0: bc3e 34bb 4515 afbc a8c9 4dbb 3250 d83b
000002b0: 0398 17bd 17e8 bdbc a7f8 54bc ed23 18bc
000002c0: 57c4 90bc f2fc 3fbd cb17 fdbc ca7f 0fbd
000002d0: 835b 18bd d7ab 48bc a450 a0bb e5c9 fdbc
000002e0: 7f22 5cbb 011a 50bd 9077 0dbd 9270 a2bd
000002f0: df68 cbbc 1945 95bc 18e1 1fbd 55b0 63bd
00000300: 100b 1cbd e091 1abd c515 a8bc c0ce 77bd
00000310: c055 21bd 6f81 edbc 98f1 1dbd 14c1 583c
00000320: 5d89 9a3c 1775 11bd b93a 19bd 991b 6ebd
00000330: a7dd 5cbd 9c22 673a 6787 05bd dfce 62bd
00000340: d41d d9bc bc18 67bc 759d 0ebd da96 eabc
00000350: 9033 eabc fb4e cabc 8f09 54bd ff52 6fbd
00000360: 4a64 cabc 0087 03bd 8fe6 12bd a6b7 02bd
00000370: 9262 e7bc 8ffe 953c 9bc7 e6bc c88e 23bc
00000380: 41cf d2bc d681 803c 7e90 2cbd f357 4ebd
00000390: 2568 dabc 40f9 c6bc 0b9c 5ebd f96e 06bd
000003a0: faf2 51bd 9bff 803c d056 fdbb 81a9 3bbc
000003b0: 0f1b 75bd a48d eebc 7444 01bd c0b9 3fbd
000003c0: bd7f dabc 287f 1cbb ec1d fbbc 068a 5dbd
000003d0: 5f87 d5bc bf7b 4dbb 0bc3 3bbd d80c 3dbd
000003e0: b507 e3bc 89f6 3bbd a905 dbbc 7873 66bc
000003f0: 6f3d 2a3c f9a0 72bd c9ea 81bd 1fa0 30bd
-0.026756164 -0.027999574 -0.022910325 -0.0054190257 0.003917624 -0.03056571 -0.044936012 -0.072989576
-0.025463972 -0.033049136 0.01776392 -0.03166663 -0.017814223 -0.03422655 -0.04789662 -0.032387022
-0.036309835 -0.05453675 -0.022716446 -0.043314192 -0.03407683 -0.016472105 0.019201374 -0.009150105
-0.035090536 -0.03295335 -0.023407891 -0.011906429 -0.025897965 -0.026410732 -0.052638795 -0.011178547
-0.0138139995 -0.03147948 0.029833913 -0.025696032 -0.05596626 -0.02812249 -0.051935032 -0.020509567
-0.0021287515 -0.03605441 0.02446106 -0.04181257 -0.049936846 -0.015501205 -0.028932555 -0.038603682
0.0005589692 -0.03497674 -0.040777046 -0.022589682 -0.009635093 -0.022997461 -0.026251161 -0.02250076
-0.029525511 -0.034294505 -0.028436176 -0.01974376 -0.03680486 -0.018387921 -0.034882925 -0.010499349
0.0010962556 -0.03402675 -0.044852808 -0.027185706 -0.030729705 -0.040158704 -0.050539654 -0.056641538
-0.019685874 -0.026353668 -0.022702022 -0.038454764 -0.011487583 -0.051080875 -0.013655995 -0.05291094
-0.06791252 -0.04373074 -0.04545812 -0.04009547 -0.034681126 -0.038437724 -0.041189138 -0.036989912
-0.02676594 -0.07758023 0.021980882 -0.0071346904 -0.041678656 -0.0400366 -0.011573633 -0.009485746
0.0028974144 0.009187783 0.017792188 0.004860277 -0.03860581 -0.040512007 0.009967325 -0.016140074
0.008390036 -0.011390785 -0.02669669 -0.057672694 -0.029447451 -0.06449327 -0.0635955 -0.04087832
-0.021657504 -0.014136219 -0.050712943 -0.015507422 -0.058670666 -0.047394212 -0.062049218 -0.03612125
-0.06441369 -0.0044118045 -0.04293488 -0.06482948 -0.04553944 -0.013519867 -0.044618234 0.017915614
0.001515793 -0.049854223 -0.036786642 -0.022860479 -0.002915753 -0.01930446 0.0009971423 -0.045789983
-0.014225707 -0.040706698 -0.032143228 0.013653332 -0.030631697 -0.015618688 -0.03658417 -0.0045333398
-0.03399127 -0.008473509 -0.053153846 -0.06287632 -0.0630863 -0.051551536 -0.015150474 -0.049929462
-0.04155186 -0.029852513 -0.035438012 -0.017413223 -0.059394322 -0.020805594 -0.0015002802 -0.025039377
-0.017688954 -0.06902824 0.00781065 -0.036151204 -0.043527193 -0.008620269 -0.054244682 0.00679382
-0.0027503213 -0.021372447 -0.0031400714 0.006601357 -0.037010204 -0.023181958 -0.012998736 -0.009285909
-0.017671747 -0.046872087 -0.030895134 -0.03503398 -0.037196647 -0.012248001 -0.0048924256 -0.03098006
-0.0033589897 -0.05080605 -0.03453785 -0.07931627 -0.02483028 -0.018221425 -0.039033026 -0.055588085
-0.038096488 -0.037736773 -0.020518193 -0.060499907 -0.03938842 -0.028992383 -0.03856048 0.013229627
0.018864328 -0.035512056 -0.037409518 -0.058131788 -0.05392232 0.0008817108 -0.032599833 -0.05537307
-0.026503481 -0.014105018 -0.03481813 -0.028636385 -0.02858904 -0.024695864 -0.05176693 -0.05842876
-0.024706025 -0.032111168 -0.03586441 -0.031913422 -0.028245244 0.01830986 -0.028171351 -0.009982772
-0.025733592 0.01568691 -0.042129986 -0.050376844 -0.026660988 -0.024288774 -0.054348033 -0.032820676
-0.05125711 0.015746882 -0.007731296 -0.011453987 -0.05984026 -0.029120274 -0.031559423 -0.046808004
-0.026672238 -0.0023879502 -0.030653916 -0.054086708 -0.026065527 -0.0031354276 -0.045840304 -0.046154827
-0.027713636 -0.04588941 -0.026736097 -0.014065616 0.0103906235 -0.059235547 -0.0634361 -0.043121453

model/hidden/output_layer/b f4 [256]
00000000: 392d 743c 652c 1dbc 889b 7e3b d18c 4abc
00000010: 70dc cd3b 6dc9 fb3b 6737 013c 0c80 373c
00000020: b3a4 4bbc b120 5b3c 4f37 8dbc 8ba0 a53b
00000030: ed36 033c ace7 08bb 30bc 5b3c 10ba 3c3c
00000040: 22c2 f3bb 539c 16bb 4dcf 3cbc b024 443c
00000050: 81a3 4dbc 1b1c 4ebc 64e6 c73b e2aa 7abb
00000060: e1e0 f4bb 0445 fa3b 6c37 35bc 47a8 05bb
00000070: 7bac 88bb edd1 8a3c 1f49 81bc 3a7d 2abc
00000080: 8385 53bb 14df 8ebc 7e5f 2c3c 55a8 d3bb
00000090: afe1 2bbc 3018 b13b a01d 2a3c fa99 483a
000000a0: 4aa6 3d3c be2b ba3b 4f6b edba 3162 6f3c
000000b0: 3fc7 473c 9f90 34bc 996b 51bc 0ccb 223c
000000c0: 4fe1 65bc b347 033b d274 3cbc f9e3 5dbc
000000d0: 8ee2 80bc ab1f ef3b fc5f dabb 5a9f 4b3b
000000e0: 1d91 68bc ccff 1ebc 6e81 b83b f2de 39bb
000000f0: 5f78 89bb 2f2b 223c 3978 5d3c 4ddc 05bc
00000100: 3faa 2e3c aa73 fd3b c4d6 59bc 2bef 22bc
00000110: 50a0 4abc 8fbc 34bc e3b0 37bc a945 683c
00000120: ade8 e5bb 3de1 86bc c6c4 14bc 237d 64bb
00000130: 7cd3 03bb 5e2f 013c deb7 d0ba c701 1d3c
00000140: 1668 14bc 6c09 c1bb 0b84 9fbb 3cc3 a53a
00000150: c227 0b3c 5f28 7ebc 119c 8e3a bc57 2c3c
00000160: 4cf3 8bbc 49db 56bc d766 253c 5243 433c
00000170: 2a96 4b3c 6b13 113b 2c14 f1bb 125f 233c
00000180: 2665 36bc d55f 14bc 2124 513c 4b4f 18bc
00000190: 9c10 4b3c d1a7 aebb ddd1 6ebc f1bf bc3b
000001a0: 700b 16bb d237 4d3c a9e6 57bc 0a6f 523b
000001b0: 17fa 1e3c 018a 96ba f3e0 6e3c 0969 f33b
000001c0: 3178 91bc d21c 143c 3429 37bc b977 32bc
000001d0: 12b9 6fbc d89c 8ebb 7a60 a83a 373f 643c
000001e0: 8e80 463b 62f4 063b e057 213c 9f82 283b
000001f0: 24ff c0bb 5b21 273c 2ae4 353c f6a5 8c3b
00000200: 96a5 18ba 6349 5ebc f058 c93b 6d88 29bc
00000210: 973c 4d3c 1c78 38bb aeae 003b 747e 56bc
00000220: 11df 3fbc a309 003c 25fe 5d3c 1bd2 9b3b
00000230: a038 613c abd9 30bc ee66 0c3c 7f59 8cbb
00000240: 0e9a 71bc 0df8 543c 9372 373c 6e3e 0cbc
00000250: 3232 1a3c ca76 38bc 3e57 3dbc e3fd 1a3b
00000260: e5a2 fabb 677a 4bbc d66a 7a3b c072 ad3b
00000270: bff5 1dbc c7c0 2f3b d623 a53b 9ff7 e93b
00000280: ba2b 7c3a 63bf 163c 9c68 cebb 11d9 c03b
00000290: 029c 29bc 39b5 88bc 139c 73bc 4353 d7bb
000002a0: c414 173b 12b9 603c 046c 573c 4517 61bc
000002b0: 5feb 61bb 291a 663c 86ae 973c f5dc a63b
000002c0: 5777 863b 74fa 7a3b baff 4f3a 22be 43bb
000002d0: eaf8 583c 1e03 743c 5654 62bc 0bcd dfbb
000002e0: 10ff 7c3c 8611 57bc b8cc 563c 6a07 80bb
000002f0: 5d99 14bc f40b 2ebc a4d4 1a3c 0231 7fbc
00000300: bd89 bf3a 44f2 d03b febe 4d3b 0524 e3bc
00000310: d4f2 483c a6a0 5fbb dffb 2f3c f9cd 43bc
00000320: 6a1d 9e3b 9457 023c 0d92 da3b cb78 61bc
00000330: d805 763c 9d78 5bbc ded1 033c 0259 dd3a
00000340: 8e92 e0bb 6550 9bbb 66cd 80ba ced6 9c39
00000350: db57 5abc 1f4b 47bc 512c 103c 4a58 903b
00000360: dcd0 413c 47e2 4fbb 3c85 48bc 6097 3e3c
00000370: b727 d03a 9ff2 543c dc07 973c e4d8 ddbb
00000380: ace8 473c bc3f c5ba 4a7f fc3b 5bb9 19bc
00000390: d067 96bc 33cd 143c 17b6 61bc a756 6f3c
000003a0: 2e40 443c f3eb cbbb 530c 963c a21e 0dbc
000003b0: 8e21 05bc c99b bcbb 6073 783c a41f e43b
000003c0: d26c 603c 4b63 e8bb 0683 763c f8cb e3bb
000003d0: b867 22bb 38e6 3b3c 164a 0a3b 503e 9e3b
000003e0: adaf af3b 9826 42bc 5b77 1e3c a74b 083c
000003f0: ae9a 2e3b ce19 bf3b c01a 48bb ad19 bc3b
0.01490336 -0.009593104 0.0038850028 -0.012362675 0.0062823817 0.007683924 0.007886744 0.011199962
-0.012429404 0.013374493 -0.017238287 0.0050545386 0.008008701 -0.002089004 0.013411567 0.01151897
-0.007438914 -0.002298136 -0.011524034 0.011971638 -0.012551189 -0.012579943 0.0061004627 -0.0038248827
-0.0074730967 0.007637622 -0.011060577 -0.002039449 -0.004170952 0.016945804 -0.015781937 -0.010405833
-0.0032275624 -0.017440356 0.010520814 -0.0064592757 -0.010490819 0.0054044947 0.01038304 0.0007652339
0.011575291 0.005681484 -0.0018113645 0.014610813 0.0121935 -0.0110208085 -0.012782001 0.009936105
-0.014030769 0.002003175 -0.0115024615 -0.013543122 -0.01573303 0.0072974763 -0.0066642743 0.0031070323
-0.014194754 -0.009704541 0.0056306636 -0.0028361646 -0.0041952576 0.009897991 0.013517433 -0.0081702
0.010660707 0.0077347355 -0.013295833 -0.009944717 -0.012367323 -0.011031284 -0.011211607 0.0141767645
-0.0070162625 -0.016464824 -0.009080118 -0.0034864626 -0.0020115068 0.007884828 -0.0015923937 0.009582943
-0.009058019 -0.0058910158 -0.0048680357 0.0012646685 0.008493366 -0.015512555 0.0010880252 0.010518964
-0.017083786 -0.013113805 0.01009532 0.011917906 0.012425939 0.0022136818 -0.007357141 0.009971397
-0.011132514 -0.009056051 0.012764961 -0.009296249 0.012394097 -0.005330064 -0.0145764025 0.005760186
-0.0022895 0.012525516 -0.013177552 0.0032109641 0.009703181 -0.001148522 0.014579999 0.0074282927
-0.017757507 0.009040074 -0.011179257 -0.010892802 -0.014631527 -0.0043521933 0.0012846135 0.013931087
0.0030289027 0.002059244 0.009847611 0.0025712622 -0.00588979 0.010200824 0.011101762 0.004292245
-0.0005823014 -0.013567301 0.0061446354 -0.010347468 0.012526653 -0.0028147763 0.0019635367 -0.013091672
-0.011710898 0.007814798 0.013549362 0.004755271 0.013746411 -0.010794084 0.008569462 -0.0042831297
-0.014746202 0.012998593 0.01119675 -0.008559806 0.009411382 -0.01125879 -0.011556445 0.0023649863
-0.007648813 -0.01241932 0.0038210652 0.0052932203 -0.00964111 0.0026817785 0.0050396724 0.0071401144
0.0009619553 0.009200904 -0.0062990915 0.0058852513 -0.010352137 -0.016687976 -0.014868754 -0.006571205
0.0023053149 0.013715999 0.0131483115 -0.013738458 -0.0034472567 0.014044323 0.018515836 0.005092258
0.004103582 0.0038296254 0.00079345296 -0.0029867967 0.0132429395 0.014893321 -0.013814053 -0.006829863
0.015441671 -0.0131267365 0.013110332 -0.003907134 -0.009069768 -0.010622967 0.009450112 -0.015575649
0.0014613193 0.0063765366 0.0031394358 -0.027727136 0.012264926 -0.0034122854 0.010741203 -0.011950963
0.004825284 0.007955451 0.0066702426 -0.013761709 0.015016042 -0.013395456 0.008045642 0.0016887488
-0.006853408 -0.0047398084 -0.0009826839 0.0002991468 -0.01332661 -0.012163906 0.008799628 0.004405056
0.011829581 -0.0031720565 -0.012238797 0.01163277 0.0015880977 0.0129972985 0.018436365 -0.00677024
0.012201469 -0.0015048902 0.0077056037 -0.009382571 -0.018360049 0.009082126 -0.013776324 0.014608062
0.011978192 -0.0062231957 0.018316424 -0.00861326 -0.008125676 -0.0057558757 0.015164226 0.0069617797
0.01369782 -0.007091915 0.015045887 -0.006951805 -0.002478106 0.011468463 0.0021101288 0.0048292056
0.0053615184 -0.011850022 0.009672011 0.008318818 0.002664249 0.0058319336 -0.0030533522 0.0057403655

model/a_stream/W f4 [3, 256]
00000000: dad2 93bc 29b9 5a3c 4ae5 4dbd 3af3 d93c
00000010: 3018 8dbc 346a ccbc 588e 193d fd5e 55bc
00000020: 7e23 033d f89a 8cbc 9077 943c ac43 dfbb
00000030: 0296 86bc 345e 5cbd 51b5 37bc f504 4ebb
00000040: 64f8 973c a8b6 cebc a585 883c 2fd1 07bc
00000050: 9c9d 8a3c b931 a53b 5139 80bb 9156 073d
00000060: c252 093d 388f 54bd e4e7 ab3c d73f 2abd
00000070: 3742 743d 5f56 cabc b5b4 603c ad34 8d3c
00000080: 7cf9 1bbd 66c6 7f3c b153 99bc 5322 e7bc
00000090: f6ff b73c 4a02 37bd d829 3c3b ce55 56bd
000000a0: 815a 68bc 6f14 413d bb11 143d 702f cdbb
000000b0: ac6b 5e3d 459e 633c 043b 753c 014b 3f3d
000000c0: 2b16 183d 8511 d1bc 6d70 fd3b 7bb7 b73c
000000d0: ef13 ef3b 7ff9 323d c9e7 f1bc 374e ac3c
000000e0: e64e 0f3d 1a58 933c 1a0d 6e3d e753 81bc
000000f0: bd25 d0bc ec31 ca3c 289d 7bbc 59cd 0cbc
00000100: 8b54 99bc 3d90 d3bc e4a2 053c e683 7039
00000110: e3be 2c3a afd2 693c bc73 5d3c b58e e7bb
00000120: f804 e13c 5b73 dd3b e1fd 4cbd 8510 47bd
00000130: 27f7 c43c fe70 0abd 7253 4bbd 770b 203d
00000140: 7db3 d43c a6de 893d 7fbd 21bd e611 d5bc
00000150: ac26 473d a369 573b 7096 283d 4d74 923c
00000160: 351b 923c aaea 323c bafa 6f3d 541c 01ba
00000170: cf8e 65bb bf1d 55bd 34ab 803a 8a98 0ebc
00000180: f66a 293c 8007 0c3d b7f3 93bb 4052 80bb
00000190: 4cbf 0ebc 4598 00bd 4f4b c53c e456 293d
000001a0: 7d9b 02bd 2cd0 d9bc 94ea 383c ff6a 1d3d
000001b0: a52e 1abd ab01 7b3c 32d9 abbc 3003 443d
000001c0: e5fd 093c 4978 3d3d e532 833a 7d32 3b3c
000001d0: c9cd 963c e991 b63b f26f 57bd 4a23 a4bc
000001e0: 1e3e cfbc ae4f 43bd 348a d2bc 4832 fa3b
000001f0: af67 e93c 11ed da3b 61f0 e437 2008 db3c
00000200: b19a 4bbd 64ca 9a3c e92a 4fbd 2a1e 1ebc
00000210: 82ac 8cbb f172 b0bb 5561 043d b995 453b
00000220: c49f cd3b b1d8 703c 4b05 0e3c e6ae 3ebb
00000230: e972 a4bb 2d4b 3a3c 8f45 01bd 8cce 3a3d
00000240: 8464 923c 24ab c4bc 463e 8ebc 12e8 593c
00000250: 1bf6 0e3d f972 4d3c 5de9 373b f3bc 75bc
00000260: df52 66bd 178d 7b3c 5da5 833c fa29 0bbd
00000270: 0b66 923c 99fc e73c b548 293d 9f50 05bd
00000280: 3c64 3d3d 64db cdbc 33f6 cfbb 8be6 d23c
00000290: 736b a83c 2c2c 623c 388d 813a 4317 0bbd
000002a0: fc33 87bc 1265 5c3d 77e3 003c 1fdb 653c
000002b0: 5b20 0e3d 6fab 0dbc fe48 4bbc 305c 89bc
000002c0: d382 1b3d c523 a6bc b493 ffbc 19d8 d7bc
000002d0: be0b cbbc 6528 aabc c987 1d3c db39 863c
000002e0: 4372 edba 2ddc 633c 11c5 e4bb b38a 35bd
000002f0: 8107 bf3c 5c00 b0bb 9309 92bc 146e 9fbb
00000300: 1207 1a3d 5f0f 223d c91f da3c 0b4f a2bd
00000310: 6171 c1bc b485 623c 95a9 ebbc a3d4 913b
00000320: 2c40 4bbd 1773 85bb f085 ebbc c1f4 073d
00000330: c226 953d 62e2 3dba 8419 d3bc af23 ce3c
00000340: b1b2 e83c 2b04 8bbc 844c 4c3d 1355 2ebd
00000350: 39d0 c73b 70b0 393b 24e4 553d 14f2 49bc
00000360: 5635 8dbb c41b 5bbd 683c 823a fab5 4ebc
00000370: 9a24 bf3c 9f58 4cbc a198 49bc cc80 7b3d
00000380: 1dc6 11bc f95c 2bbd ee3e d33b 77f7 a53c
00000390: 2116 6a3c 93ee 73bc 4556 413c 9f3a 0cbc
000003a0: 033c dbbb a74e 063d 11be 913d 41f8 dabb
000003b0: 8c3a c93c 5e0b 1abb fd2c 8dbc 8c43 273c
000003c0: 11fb 31bc bebd 00bc 26f1 debc 3c3a e33c
000003d0: 013b 4abd 8472 3cbc 61e1 353d fcf2 3b3d
000003e0: 5115 3cbb 5edd b63b 7911 f2bc bd0e 0d3d
000003f0: f115 91bc 0c06 a33c 361b 41bd 3834 173d
-0.018044878 0.01334981 -0.050267495 0.026605237 -0.017223448 -0.024952985 0.037489265 -0.013023135
0.03201627 -0.017163739 0.018123418 -0.006813487 -0.016428951 -0.053800777 -0.011212663 -0.003143606
0.018551059 -0.025233582 0.01666529 -0.008289619 0.016920857 0.005041328 -0.0039130826 0.03304154
0.03352619 -0.051894397 0.020984598 -0.04156479 0.05963346 -0.024699388 0.013714959 0.017237032
-0.038079724 0.015611267 -0.018716665 -0.02821461 0.022460919 -0.044679917 0.0028711464 -0.052327923
-0.014181734 0.047138628 0.03614972 -0.0062617585 0.054301903 0.013892715 0.014967684 0.04670239
0.037130516 -0.02552105 0.0077343495 0.022426357 0.0072960774 0.04369497 -0.02952947 0.02103339
0.034987353 0.017986346 0.058117963 -0.015787078 -0.02540862 0.024682008 -0.015357293 -0.008593881
-0.018717071 -0.025825614 0.008156512 0.0002293732 0.00065897236 0.014271422 0.013516363 -0.0070665726
0.02746819 0.006758136 -0.050046805 -0.04859974 0.024043633 -0.033799164 -0.049640127 0.039073434
0.025964493 0.0673192 -0.03948736 -0.026009511 0.048620865 0.003286936 0.041159093 0.017877722
0.017835239 0.010920206 0.05858872 -0.00049251807 -0.0035027748 -0.05203032 0.0009816648 -0.00870336
0.010340443 0.03418684 -0.004515137 -0.003916055 -0.008712601 -0.031395216 0.024083761 0.04134263
-0.031886566 -0.026588522 0.0112863965 0.038432118 -0.03764214 0.015320222 -0.02097759 0.047854602
0.00842235 0.04625729 0.0010009675 0.011425612 0.018408673 0.005571593 -0.052596994 -0.020036358
-0.025298174 -0.04768341 -0.025700666 0.0076353885 0.028491823 0.0066810925 2.7291653e-05 0.026737273
-0.049708072 0.018895335 -0.05057803 -0.009650746 -0.0042930255 -0.005384796 0.032319386 0.0030149056
0.006275149 0.014700101 0.008668254 -0.0029095947 -0.005018581 0.011370462 -0.031560477 0.045607135
0.017870195 -0.024007387 -0.017363679 0.013299959 0.034902673 0.012539619 0.002806268 -0.014998662
-0.056231376 0.015353463 0.016070062 -0.03397558 0.017870924 0.02831869 0.041329104 -0.03254759
0.04623817 -0.025129028 -0.006346488 0.025744697 0.020559048 0.013804477 0.0009884005 -0.03395773
-0.01650428 0.053807326 0.007866732 0.014029293 0.034698825 -0.00864683 -0.012407539 -0.016767591
0.03796656 -0.020280728 -0.03119836 -0.02634816 -0.024785873 -0.020771215 0.009614893 0.01638501
-0.0018115718 0.0139074745 -0.0069815 -0.044321727 0.023319008 -0.0053711366 -0.017826831 -0.0048654173
0.0376044 0.03956544 0.026626484 -0.079252325 -0.023613634 0.013825823 -0.028767386 0.004450397
-0.049621746 -0.0040725577 -0.02875039 0.0331924 0.07282783 -0.00072435115 -0.025769003 0.0251635
0.02840552 -0.01696976 0.04987766 -0.0425616 0.00609782 0.0028333925 0.052219525 -0.012325782
-0.0043093367 -0.053493276 0.0009936215 -0.012616629 0.023332883 -0.012472301 -0.012304456 0.061402127
-0.008897332 -0.041836713 0.006446711 0.020259602 0.0142875025 -0.0148884235 0.011800353 -0.008558898
-0.0066905036 0.032789852 0.071163304 -0.006682426 0.02456405 -0.002350531 -0.017233366 0.0102089755
-0.010863082 -0.007857738 -0.027214598 0.02773773 -0.049372677 -0.011501912 0.04440439 0.045886025
-0.002869923 0.0055805882 -0.029549347 0.034437884 -0.017710658 0.019900344 -0.04714509 0.036915034

model/hidden/mid_rec_layer/upward/W f4 [80, 86]
00000000: ad9f 0cbb c325 4e3c 9fab 193c 63ef a83a
00000010: 4a92 b63c 219f 0dbc 24f8 a9ba 15f1 293b
00000020: 1e95 13bc 0ad7 233c 2b53 973c 0ad7 233c
00000030: 9b7f fe3b 3005 743d 0ad7 233c 903a 49bd
00000040: df7f 9c3d 0ad7 233c d37d b0bd 9af4 513d
00000050: 0ad7 233c d36d f3bc 006d 963d 0ad7 233c
00000060: 0ea3 a6bd 4ad9 843b 0ad7 233c 599b fcbc
00000070: 985b bb3d 0ad7 233c fd96 09bd 59dc 243d
00000080: 0ad7 233c 19df 143c 244f 92bc 0ad7 233c
00000090: 98d7 42bc 0b58 763c 0ad7 233c fbc4 eabc
000000a0: d22c 9fbb 0ad7 233c 2f9a 41bd d57b d53c
000000b0: 0ad7 233c 5171 a7bb 117f f0bb dd10 9e3d
000000c0: cfc9 b2bc ff46 23bc f424 48bb beed 5b3d
000000d0: 8dce 023c b18a 883d b2ba 7dbc 8948 c9bb
000000e0: 0ad7 233c 9105 68ba 094f 333d 0ad7 233c
000000f0: 200d 613d 9fa3 49ba 63ef 6abc df42 373d
00000100: a401 80bd 98bf c83d f875 d53d 61de 94bc
00000110: 2161 c9bc 623b 733c 8744 e9bc 0ad7 233c
00000120: a7ef 7cbd 3772 073c 0ad7 233c abae 8a3b
00000130: d207 2bbd c531 9e3d 4c10 493c 4ca4 32bd
00000140: 5f0a 24bd 502e c03c 7e61 10bd b4fb a4bc
00000150: 2fbd 913b a833 05bd 0e7e 9cbc ec78 2dbe
00000160: cdc3 15be 97a5 6cbd 558c 9abd e05f 89bd
00000170: 4736 b4bd b3da afbd 02a4 cabe 0ad7 233c
00000180: 0180 abbd 0ad7 233c 1c78 c1bd ef02 49bd
00000190: 0ad7 233c 8477 af3d b9b0 21bd 0ad7 233c
000001a0: d636 093e 0a92 69bd 0ad7 233c 144c 4f3d
000001b0: 7847 a3bd 0ad7 233c 9297 3b3e 8c28 e9bc
000001c0: 0ad7 233c caae 203c 0cec 4bbd 0ad7 233c
000001d0: c0dd 863b 403c 0cbe 0ad7 233c 13b0 7e3c
000001e0: c9d0 f6bd 0ad7 233c b2f5 fa3c 5c9b 8339
000001f0: 0ad7 233c 8ebc 8f3d 9030 29bc 0ad7 233c
00000200: 89b6 213d c5e6 bdbd 0ad7 233c be2d db3c
00000210: 836f 34be 746d c4bd 55a5 9c3d ec7f 79be
00000220: 23a1 f1bd 2c69 20be 5c8f 35be f3b1 89bd
00000230: c295 9e3d fd38 fcbc 0ad7 233c d397 d3bb
00000240: bc7d 40bc 0ad7 233c 2ab2 6fbd 9589 323c
00000250: fc56 1fbc cf59 05be de59 8ebd b946 11be
00000260: 8c48 48be 1dab 853d e407 4f3c 093c 843c
00000270: 93d8 2b3d 0ad7 233c c2a2 cc3d dfb5 a9ba
00000280: 0ad7 233c 1166 95bd e805 833d 818a 07be
00000290: 145c 8dbd d4ab 573c b1f3 893c eb86 5bbe
000002a0: 753e 243d 10b9 7cbc 489c 11be a662 5c3d
000002b0: 0509 e3bd d950 42be 18ce 44be 6e2a 3cbd
000002c0: f9fc 05be 6ce4 9ebd a8d2 c3bd cd8b 1abe
000002d0: 53d9 b4be 0ad7 233c 6736 bebd 0ad7 233c
000002e0: 929c 8ebd e47e 5bbd 0ad7 233c 135a b9bd
000002f0: c175 58bd 0ad7 233c 914d 893d 6bdb 4fbd
00000300: 0ad7 233c e3f7 043d f0cd 74bd 0ad7 233c
00000310: 0037 2a3e 1a14 43bd 0ad7 233c 2e6c 1dbe
00000320: a0ab 9ebd 0ad7 233c 3904 06bd 802a 07be
00000330: 0ad7 233c 941f 5abd ddb0 43be 0ad7 233c
00000340: 433b f7bc 0dc1 08bd 0ad7 233c 0577 0a3d
00000350: b9bb 31bd 0ad7 233c cd79 bebb 4c1d ccbd
00000360: 0ad7 233c 165a a1bc a9d1 1bbe f7ac ddbd
00000370: 30a8 2b3d b813 70be cbdd 0dbe 897e 00be
00000380: 60b1 04be 852b bfbd f4da 943d 7005 08bd
00000390: 0ad7 233c dc3a 1abd 7183 fdbc 0ad7 233c
000003a0: a1f9 b0bc 589d 06bc c649 05bd 9beb b2bd
000003b0: 5a6e d8bd 7204 34be d797 2fbe 4fbf 6e3c
000003c0: 8655 5138 22f5 85bc d9a3 e2ba 0ad7 233c
000003d0: 2f18 5c3d 0e50 47bd 0ad7 233c eb0a eabc
000003e0: e501 aa3c 8f33 11be e5fc afbd d17a 94bd
000003f0: d04f 773b 1f11 45be 6261 a03c fce3 fcbc
-0.002145748 0.012582245 0.009379297 0.0012888726 0.022286553 -0.008643896 -0.0012967628 0.002593105
-0.00900772 0.01 0.018472275 0.01 0.0077666766 0.05957526 0.01 -0.049128115
0.07641577 0.01 -0.08617749 0.05125866 0.01 -0.029715454 0.07345009 0.01
-0.08136569 0.004054223 0.01 -0.030835794 0.091483295 0.01 -0.03359126 0.040249202
0.01 0.009086394 -0.017860003 0.01 -0.011892222 0.0150356395 0.01 -0.02865838
-0.004857638 0.01 -0.04726618 0.026060024 0.01 -0.005109944 -0.0073393662 0.0771806
-0.021824745 -0.009965657 -0.0030539604 0.053693525 0.007983816 0.06667078 -0.015486406 -0.00614268
0.01 -0.0008850927 0.043776546 0.01 0.054944158 -0.0007691923 -0.014339301 0.044741508
-0.06250313 0.098021686 0.104228914 -0.018172445 -0.024582447 0.014845701 -0.02847506 0.01
-0.061751988 0.008266977 0.01 0.004232248 -0.041755505 0.077243365 0.012271952 -0.043613717
-0.040048953 0.023459584 -0.035249226 -0.020139553 0.0044476013 -0.032519966 -0.019103076 -0.1694066
-0.14625473 -0.057775106 -0.075462975 -0.0670774 -0.08799415 -0.085866354 -0.39578253 0.01
-0.08374024 0.01 -0.09446737 -0.049075063 0.01 0.08567718 -0.039475176 0.01
0.13399825 -0.05702404 0.01 0.050609663 -0.07972616 0.01 0.18319538 -0.028461717
0.01 0.009807298 -0.04978566 0.01 0.00411579 -0.13694859 0.01 0.015544909
-0.12051541 0.01 0.030634735 0.0002510202 0.01 0.07018386 -0.01032652 0.01
0.03948072 -0.092725314 0.01 0.02675521 -0.17620663 -0.09591189 0.07648722 -0.24365205
-0.117983125 -0.1566512 -0.17730469 -0.06723394 0.07743408 -0.030788893 0.01 -0.006457308
-0.011748727 0.01 -0.05851952 0.01089706 -0.009725329 -0.1302254 -0.069507346 -0.14187135
-0.19558924 0.06526778 0.012636159 0.016141908 0.04195459 0.01 0.09991981 -0.0012947879
0.01 -0.07294858 0.06397611 -0.13236429 -0.06902328 0.013163526 0.016839834 -0.21438186
0.040098626 -0.015424982 -0.14219773 0.053805016 -0.11085705 -0.18976153 -0.19219244 -0.0459389
-0.13084783 -0.07758412 -0.09561664 -0.15092392 -0.35322055 0.01 -0.0928772 0.01
-0.06963457 -0.05358781 0.01 -0.090503834 -0.052846674 0.01 0.06704248 -0.050746363
0.01 0.032462966 -0.05976671 0.01 0.16622543 -0.047626592 0.01 -0.15373299
-0.077475786 0.01 -0.03271887 -0.13199806 0.01 -0.05325277 -0.19110437 0.01
-0.030179625 -0.033387233 0.01 0.033804912 -0.043391917 0.01 -0.0058128596 -0.099665254
0.01 -0.019696277 -0.15216698 -0.10824006 0.041908443 -0.23445022 -0.13854139 -0.1254827
-0.12958288 -0.093344726 0.072683245 -0.03320831 0.01 -0.03765379 -0.030946465 0.01
-0.021603407 -0.008216225 -0.03254106 -0.087363444 -0.10567923 -0.17579821 -0.17147766 0.014571979
4.9909133e-05 -0.01635224 -0.0017291262 0.01 0.053734 -0.04866033 0.01 -0.02856966
0.020752857 -0.14179824 -0.08593158 -0.07249988 0.003773678 -0.19244812 0.019577686 -0.03087043

model/hidden/mid_layer/W f4 [256, 256]
00000000: c4bc 633c df70 1dba a6b8 693a 8954 25bc
00000010: 6215 d3bb 90b5 81bc 133b 47bc d7ec 27bc
00000020: 8db9 cc3a d955 68bb a42d 3ebc 75e4 6bbc
00000030: 0c97 d5bc 61a7 79bc 83db 93bc 97fb adbc
00000040: c8bf b5bc 7a68 9cbc 98f2 b8bc 2995 f63b
00000050: 4b46 13bd 3336 27bb 7880 8bba a060 67bc
00000060: 4e53 0dbd 0c44 09bc bfd2 3c3c b03f 1b39
00000070: 6548 c8bb 162f 9abb bb04 97bc 0ca7 c63b
00000080: 2dff 30bc 4cbc 07bb 4b78 e43b df4c f6bc
00000090: f7fe 0ebc 3893 26bb 50c3 94bb 5896 9ebc
000000a0: ab12 96bc ae62 abbc 71bd 3eba 327f 9ebc
000000b0: 1e63 183c cf47 28ba 7846 16bc fc6f 263c
000000c0: a33e 2a3c 01fe 903b 9201 47bc 1524 3c3b
000000d0: 786d 14bc 2b31 b7ba 4bd8 debb 6d80 dabc
000000e0: 01a2 103b c9e5 1abc dad4 8dbc 2e4d 3d3c
000000f0: 9278 69bc 8196 773b 2e27 40bc 5320 75bc
00000100: 0b74 0bbc c176 78bc 29db 1ebc 66e2 b23b
00000110: 84cb 0bbc a744 ffbb c140 94bc 848f 37bc
00000120: 0954 2b3b b0bb 87bc 10b3 4abc 0caa edbc
00000130: 6c89 60bc d981 2dbb 170b b1bc 2f9a 37bc
00000140: 24ac 133b dec8 8bbb a2e2 dbba 6588 43bb
00000150: 28c7 2ebc 4a9d 6fba 8674 06bc ed22 97bb
00000160: fa0c 47bc d353 5fbc e20e c4bc fb20 4abb
00000170: 6f95 e538 e05a 8ebc cbc8 8cbc 5997 b13c
00000180: 496d 47bb 2b81 2ebd a16f 3bbc 5375 90bc
00000190: 85e7 72bc 4e11 fabc 5492 dbb9 b686 06bc
000001a0: 0242 88bc f956 39bd 91d8 b73c 53cf 0ebd
000001b0: e40c acbc f92f e9bc 6095 d93a 79bb 54bc
000001c0: ace9 c1bc 1fd5 37bc e7ff a33c 6676 4ebc
000001d0: 8d16 b7bb 213d 92bc eb75 bfb9 718a 00bb
000001e0: 21eb 733b b96b 293b 8e38 1ebc a494 69bc
000001f0: 9517 2abc 5205 1ebd e584 41b8 2213 0abb
00000200: 8d16 4abc ff07 58bc 5c12 5abc ff65 e23b
00000210: 5072 dcbc c660 69bc 9d39 b3bc d387 96ba
00000220: 53b8 aebc a4d0 92bb 7f79 2a3b c13a e9ba
00000230: d714 e73a 60df 1ebc 53fb 243c 43b9 e33b
00000240: 22ec 58bc 7677 64bc 3c6e 5cbc 0801 efba
00000250: 3fca 5fbb a8e5 e7ba b971 24bc d5e4 6cbb
00000260: d1a8 c4bb 677c d9bc 03cd a63c 218b 00bd
00000270: db2b d6bc 67e9 193c 5034 28ba 0a9e 0dbc
00000280: 409d 7c3a df57 7abc 71d8 ee3b 63c0 653c
00000290: 7280 c739 5c94 d2bb 3e0d 383c c795 963c
000002a0: 0c85 1bbc 14fd c3bc 19e2 a83c 6098 12bc
000002b0: eb92 603b 2e45 d939 b5bd 77bc 4d41 033c
000002c0: 241f 3fbc 1143 a4ba 10db e339 bedf 04bd
000002d0: ff89 93bb 2ea0 b2bc be33 1abc 73c0 5dbc
000002e0: b27d afbb c859 a9bc e64c 01bc e000 94bc
000002f0: f167 10bd 5fe8 d2bc 838e c8bc b6fe 8b3b
00000300: 9eac 753c 5110 513b 313b 38ba 526e 34bc
00000310: 2867 1cbc f2f5 103c 2f23 21bd 80f9 873c
00000320: a83e cbbb eaf4 ecbb 14e6 39bc eb6f 14bd
00000330: 4461 483c 271e 30b9 0086 a7bc 1063 4cbc
00000340: 37fd 6cbb e9c3 21bc bdaa 87bc b55e bcbc
00000350: 8e1c 96bc 8491 46bb 43c6 c9bc ac56 cdbc
00000360: 25b7 aabc ae98 46bc e9a2 04bc 3550 b5bc
00000370: 7058 bbbb d9bc 82bb d9a0 01bd 47bc baba
00000380: 4450 db3b 2519 cabb 1102 8dbc 9a4a bc3a
00000390: f75e b63a 6bf4 1ebc 3445 86bb 22cd 71bb
000003a0: 6917 1bbb a60c 03bd 95cf 88bc 6133 b0bb
000003b0: 8020 a73a fb87 27bc abf1 ab3b de1b f3bc
000003c0: 8e09 50bc eedd 80bc a059 bf3a 8d77 0fbd
000003d0: a7c1 7ebc 46d5 83bb d206 65bc 9bde 0bbd
000003e0: 0ac8 a1bc edb4 09bc 9288 28bb df0f 73bc
000003f0: 47db 6bbc 6138 fabb 4974 d5bc dc13 ff3b
0.013899986 -0.0006005894 0.00089157594 -0.0100909555 -0.006441758 -0.015833646 -0.0121600805 -0.010249338
0.0015619263 -0.003545156 -0.011607561 -0.01439773 -0.026073001 -0.01523766 -0.018049007 -0.021238131
-0.022186175 -0.019092787 -0.022576615 0.0075251055 -0.03595571 -0.0025514483 -0.0010643145 -0.014122158
-0.034503274 -0.00837804 0.011524855 0.00014805677 -0.0061121457 -0.00470532 -0.018434873 0.006062394
-0.010803026 -0.00207116 0.006972348 -0.030065952 -0.008727781 -0.002541734 -0.0045398846 -0.019358799
-0.018319448 -0.020921078 -0.0007276154 -0.01934776 0.009300975 -0.0006419392 -0.0091720745 0.010158535
0.01039091 0.004424811 -0.0121463705 0.002870803 -0.0090593025 -0.0013976445 -0.0068006865 -0.026672566
0.0022069218 -0.009454199 -0.01731341 0.011554046 -0.014249938 0.0037778916 -0.011728091 -0.01496132
-0.0085115535 -0.015165032 -0.009695807 0.0054591177 -0.008532409 -0.0077901664 -0.018097283 -0.01120365
0.0026142618 -0.016568989 -0.012371793 -0.029011749 -0.013704639 -0.00264751 -0.021611733 -0.011206194
0.0022533024 -0.0042658886 -0.0016775916 -0.0029835936 -0.0106676 -0.00091405644 -0.008206492 -0.004612318
-0.01214909 -0.013630825 -0.023932878 -0.0030842412 0.00010947405 -0.017377317 -0.01718559 0.021678613
-0.003043013 -0.042603653 -0.011440189 -0.01763407 -0.014825706 -0.03052583 -0.00041879958 -0.0082108285
-0.016633037 -0.04524896 0.022442134 -0.03486569 -0.02100224 -0.028465258 0.0016600303 -0.01298415
-0.023670994 -0.011220246 0.020019485 -0.012601471 -0.005587405 -0.017851414 -0.00036518215 -0.0019613768
0.0037219005 0.0025851561 -0.009657038 -0.01425663 -0.010381599 -0.038579293 -4.6138553e-05 -0.0021068533
-0.012334478 -0.0131855 -0.013310041 0.0069091315 -0.026909977 -0.014244264 -0.021878058 -0.001148457
-0.021328127 -0.0044804383 0.0026012359 -0.0017793999 0.0017630112 -0.009696811 0.010069686 0.006949575
-0.013239892 -0.013944497 -0.013454016 -0.001823456 -0.0034147648 -0.0017692344 -0.010036879 -0.0036147137
-0.00600157 -0.026548577 0.02036143 -0.031382684 -0.026143959 0.009394026 -0.00064164866 -0.0086436365
0.0009636469 -0.015279739 0.0072889854 0.014022919 0.00038051937 -0.006426377 0.011233626 0.018381966
-0.00949217 -0.023924388 0.020615624 -0.008947462 0.0034267257 0.00041441008 -0.015120913 0.008011174
-0.011665139 -0.0012532194 0.00043460028 -0.03243994 -0.0045025344 -0.021804895 -0.00941175 -0.013534653
-0.00535556 -0.020672694 -0.007891869 -0.018066823 -0.035255376 -0.025745569 -0.024482017 0.0042723073
0.014994768 0.0031900594 -0.0007027863 -0.011012631 -0.009546079 0.0088477 -0.039340194 0.016598463
-0.0062025376 -0.0072313445 -0.011346359 -0.036239546 0.012230221 -0.000167959 -0.020449638 -0.01247479
-0.003616167 -0.009873369 -0.016560907 -0.022994379 -0.018324163 -0.0030299136 -0.024630671 -0.025065742
-0.020839283 -0.012121363 -0.008095481 -0.022132972 -0.0057173297 -0.0039897976 -0.031647537 -0.0014246785
0.006692918 -0.0061675482 -0.0172129 0.0014365495 0.00139138 -0.0097018285 -0.004097605 -0.003689595
-0.0023665077 -0.031994484 -0.016700545 -0.0053772186 0.0012750775 -0.010225291 0.005247315 -0.029676374
-0.0126975905 -0.015730824 0.0014598854 -0.035026122 -0.0155491 -0.004023227 -0.013978677 -0.03414784
-0.019748706 -0.0084049525 -0.0025716168 -0.014835327 -0.0143955415 -0.0076361154 -0.026056426 0.00778435

model/a_stream/b f4 [3]
00000000: 0ea5 963c 91b1 b1bb 5c69 38bb
0.018389251 -0.005422779 -0.002813897

model/hidden/mid_rec_layer/upward/b f4 [80]
00000000: 5153 a6bb 70e7 ecbd 013d 593f bb44 e8bd
00000010: ec41 babb a2e0 cfbd 129d 5d3f da45 cebd
00000020: a863 3d3b 170d d7bd f270 683f 099f d3bd
00000030: cf05 85bb 9d7d e0bd 73b5 593f 67e6 dcbd
00000040: 69a2 debb fea4 debd 46e5 5c3f e2ee dbbd
00000050: fd88 6dbb a390 d0bd 1803 5d3f 4a9d cebd
00000060: cc18 b2bb cc51 06be ae2c 5b3f 1e58 04be
00000070: fa3d 0a3b 0015 e3bd 6a58 673f e709 e0bd
00000080: 5ee1 b8ba 7634 01be 02d5 613f 4f9f ffbd
00000090: b1d3 8abb 2187 07be cb0d 5b3f 6395 04be
000000a0: 4fac efbb de90 ecbd 629f 5a3f a104 e9bd
000000b0: b7b2 b2bb 0da1 d9bd 1caf 5c3f e560 d7bd
000000c0: b98e 1dbb 6fef acbd df73 5d3f 6dca aabd
000000d0: b955 c3bb 7c68 c1bd 8dbd 5c3f 020e c1bd
000000e0: 54c2 83bb 0c75 c9bd 7413 5d3f 6fef c7bd
000000f0: 6e33 93bb bb9a cebd f7d3 5e3f f3f2 ccbd
00000100: f501 01bc e5ce bbbd c5fc 653f e39e babd
00000110: 228d abbb 2b77 f5bd 2719 583f a570 efbd
00000120: c2e3 9ebb 32c2 d3bd 6e76 583f 2f72 d1bd
00000130: a9ef d4bb fc09 c5bd 9b47 603f 9844 c4bd
-0.00507585 -0.11567581 0.8485871 -0.11341234 -0.005684128 -0.10150267 0.86567795 -0.10071917
0.002889851 -0.105005436 0.9079734 -0.10333068 -0.0040595303 -0.10961459 0.85042495 -0.10786133
-0.006794263 -0.108713135 0.86287344 -0.10738923 -0.0036244981 -0.10183837 0.86332846 -0.10088594
-0.005435085 -0.1311714 0.8561505 -0.12924239 0.002109407 -0.1108799 0.90369284 -0.10939389
-0.0014105251 -0.12617669 0.8821565 -0.124815576 -0.0042366614 -0.13235141 0.8556792 -0.12947612
-0.007314242 -0.11551069 0.8539945 -0.11377836 -0.0054534334 -0.10626421 0.86204696 -0.10516528
-0.0024041368 -0.08444106 0.8650493 -0.08339391 -0.0059611467 -0.09443757 0.8622673 -0.094265
-0.0040209685 -0.09836778 0.8635781 -0.09762465 -0.004492215 -0.10088106 0.8704218 -0.100072764
-0.007874002 -0.091703214 0.8983882 -0.091123365 -0.00523533 -0.1198562 0.8441338 -0.11691407
-0.004848928 -0.10339774 0.8455571 -0.10226857 -0.0064982963 -0.09621045 0.8760926 -0.09583396

model/hidden/input_layer/W f4 [256, 86]
00000000: 6ad5 ae3c e291 13bd caff d3bb 9e29 56bd
00000010: 3002 0cbd 1715 f13c 6a6d 98ba eaf2 d03c
00000020: 34bd 97bd 0fc3 ab38 9281 03be 5719 683c
00000030: 8f5f b0bd 3390 f9bd 6016 34bc c600 8b3d
00000040: dd90 c1bc 9829 d9bb 8cb7 393b b7ab 12be
00000050: 8a46 a83b 5e8c f03d 2f64 8a3c 0cd0 41bc
00000060: fef3 b6bc c8d0 b2bc 32e2 a83b 48b9 eebb
00000070: 27ce 20be 579c 9b3c 1b20 c3bd 3ec2 c2bd
00000080: 8d13 e13c b6b0 07bd dbd9 55bd 56b8 32bb
00000090: 8bc3 25bd b582 113e 951a d83a c2b9 45bd
000000a0: 7d4d b43c 57ef 26bc 04dd a13d 1aca 033e
000000b0: a89a fe3b cd9c d03d 5af5 ca3d d263 8dbd
000000c0: 2637 b53c 8791 873d f1f4 ac3d d105 96bd
000000d0: b88d 083d 478b e0bd bc8c 223d 5072 563d
000000e0: 8571 bcb9 5a35 f2bc e839 f5bd 8a97 9e3a
000000f0: acd2 683c 06a5 cbbc f2c0 07bd e864 3c3d
00000100: 92c6 313b 0de5 a9bd 6863 b3bd 9802 0cbd
00000110: 28f2 ceba 1722 e1bd 7bf9 77bd d095 29bc
00000120: 0d41 bc3d 063a 9abc 3fb6 dc3b 1f1f d83b
00000130: 2375 f6bd 0d2a 94bd 75bc ccbc 19d3 12bd
00000140: 6e69 81bc 2778 4ebc 530c 69bd 75af 553c
00000150: 8ee7 42bd 27ae 9a3b f227 a8bc 14c2 9bbc
00000160: 0144 59bb c9f7 9fbc 2183 a3bc cb85 5ebc
00000170: 979d afbc b537 18bd 3494 15bc 3b4d 65bb
00000180: c5d2 00bd 02ac d03b 0024 4abc c58c 69bc
00000190: 8e37 4cbc dd18 65bb 3c56 a0bc f3ff 0c3c
000001a0: c57e cdbb 2669 883c a494 deba 1ff7 ebbb
000001b0: 91ad 9fbc 1c8a 873b 98e4 06bc 03c5 29bd
000001c0: 3e74 aabb b48e 70bb 246e 7e3c 7f86 c1bb
000001d0: b5fe 8fbc b0b7 cebb 0ee4 f0bb 5150 cdbb
000001e0: 480c d7bc 96f8 cabb 6275 58bc eb4b 093c
000001f0: 4132 ed3b 0231 673b c61d bfbc 1b6d b2bb
00000200: 1f63 643b a059 a9bc 2125 673b f958 45bc
00000210: 407d 98bc 7e8a edbc ed4b f73b 73d8 cbbc
00000220: 9749 a9bc 5884 893c 3359 bdbb da70 ccbb
00000230: ac4d 44bc 1818 c8bc 659b 823c 00d1 3f3c
00000240: d62c c2bc 1455 723c 2c32 fc3b b81a 563c
00000250: bca2 97bc 1ca8 e73b 8666 92bc 47fb 0d3c
00000260: 443c 223c 0c48 053b fe55 5fbc 8c02 7fbc
00000270: c5c5 febb e86a 8abb 966b 0dbc 3171 aabc
00000280: aa40 3d3b 68fc 9ebc c976 603a e181 3b3c
00000290: 6cb0 d8bc 6885 e5bc 0591 e6bc 9b62 2e3c
000002a0: c2e2 87bc 76b2 f4bc 7bb0 83bc 27e0 f7bc
000002b0: ff28 ebbc c31d 90bc bda9 1c3b 4823 063c
000002c0: c87e d439 b20a 89bc 3387 adbd 8317 313c
000002d0: 0262 cabd 96e3 123b 48ed 0dbc 58dd 52bc
000002e0: f07a d73d 9f57 27bb 0999 1a3c 7840 83bd
000002f0: a182 053d b00b aa3c 5749 92bd 792e 00bd
00000300: e2d9 d3ba d568 8cbd f85d ed3c cc3c 26bc
00000310: ef9a 0d3d d69b f2bd f40c f1ba 96dd 9e3d
00000320: dbdd f2bd 0aba 94bc a1ed a3bd d151 aebd
00000330: 9a20 513b b28d 8d3d 8452 30bd 2e48 1c3c
00000340: acf1 c2bd 594c febb 09d2 823c 7365 a0bd
00000350: 1410 b2bb 3312 d2b9 794e 6fbd 5987 2abd
00000360: 98fb a4bb 0add 1bbd 441b a9bc 6fcf 513c
00000370: f128 143a e75f e8bd 4067 9ebd 0918 6abd
00000380: bec1 123d 6d4d 223d 73ea 74bd b444 e9bd
00000390: 2f11 39bb 173a 543d 552f b1bd fea7 3d3c
000003a0: 173f 883d 8064 c8bb ecea eabc 8591 033c
000003b0: c111 2b3d 9918 2abc 6fd5 97bd 4546 44bc
000003c0: 4670 9fbd e741 023e 8f4b a33c 5f69 173c
000003d0: 9a99 c83d c83e 313d 42df e4bb ff6a ae3b
000003e0: fb73 ad3c 17ff 48bd be50 ecbc a1ca 283c
000003f0: 770e 713d 684c 8ebd b600 17bd fea3 07bc
0.021341998 -0.036027797 -0.0064697014 -0.052285783 -0.034181774 0.029429002 -0.0011629288 0.025506455
-0.074091345 8.190248e-05 -0.12842396 0.014166198 -0.08611976 -0.12185707 -0.010991663 0.06787257
-0.023628647 -0.006627273 0.0028338162 -0.14323317 0.005135362 0.11745523 0.016893474 -0.011829387
-0.022333141 -0.02182807 0.0051539177 -0.007285271 -0.15703641 0.018995447 -0.09527608 -0.09509705
0.027475143 -0.03312751 -0.052209716 -0.0027270517 -0.040469687 0.14210017 0.0016487414 -0.048272856
0.022009606 -0.010188899 0.079034835 0.12870064 0.0077699013 0.101861574 0.09910078 -0.06903805
0.022121023 0.06619554 0.08445156 -0.07325328 0.03333828 -0.10964065 0.039684996 0.05235511
-0.00035942733 -0.029566456 -0.11973935 0.0012099606 0.014210384 -0.024858963 -0.03314299 0.04599467
0.0027126414 -0.08295641 -0.087591946 -0.03418216 -0.0015788721 -0.1099283 -0.060540657 -0.0103506595
0.09192095 -0.018826496 0.0067355926 0.006595507 -0.12034061 -0.07234583 -0.024992207 -0.03584585
-0.015797343 -0.012601889 -0.05689652 0.0130423205 -0.04758411 0.0047204676 -0.02052686 -0.019013442
-0.0033152106 -0.019527333 -0.019959988 -0.013581703 -0.02143745 -0.0371625 -0.009129573 -0.003498866
-0.031451005 0.006368161 -0.012337685 -0.0142547535 -0.012464417 -0.0034957447 -0.01957237 0.008605945
-0.0062712156 0.016651701 -0.0016981554 -0.00720109 -0.019491943 0.004136337 -0.008233212 -0.04144765
-0.0052018454 -0.0036706151 0.015529189 -0.0059059258 -0.017577508 -0.0063085184 -0.007351405 -0.006265678
-0.026250973 -0.0061941845 -0.01321158 0.008379917 0.0072386567 0.0035277014 -0.023329627 -0.0054451353
0.003484912 -0.02067262 0.0035269933 -0.0120451385 -0.018614411 -0.028996702 0.007546893 -0.024883484
-0.020664973 0.01678674 -0.0057784556 -0.006239039 -0.011981409 -0.024425551 0.015943239 0.011707544
-0.02370302 0.014790792 0.0076964106 0.013067894 -0.018510215 0.0070696007 -0.017871153 0.008665866
0.009902064 0.0020337133 -0.013631342 -0.015564572 -0.007775041 -0.00422417 -0.0086316075 -0.020805927
0.0028877654 -0.019407466 0.0008562622 0.01144454 -0.026451312 -0.028017715 -0.028145323 0.010643627
-0.016587619 -0.029870253 -0.016075363 -0.030258251 -0.028706072 -0.017592316 0.0023904883 0.008187123
0.0004053025 -0.016728733 -0.08473053 0.010808828 -0.09881975 0.0022413484 -0.008662529 -0.012870155
0.10521495 -0.0025534404 0.0094359005 -0.06408781 0.03259528 0.020757526 -0.07142895 -0.03129432
-0.0016162957 -0.068559326 0.028975472 -0.010146331 0.034571584 -0.118461296 -0.0018390701 0.07757108
-0.11858722 -0.018155117 -0.080043085 -0.08511699 0.0031910301 0.06911792 -0.043047443 0.009538693
-0.095187515 -0.007760566 0.015969293 -0.0783185 -0.0054340456 -0.0004006788 -0.058424447 -0.041632984
-0.005034875 -0.038052596 -0.020642884 0.012805804 0.00056518527 -0.11346417 -0.07734537 -0.057151828
0.0358293 0.03962462 -0.0597939 -0.11390057 -0.0028239002 0.05181321 -0.08651606 0.011575697
0.066526584 -0.006115496 -0.028676473 0.0080303 0.04176498 -0.010381841 -0.07413756 -0.011979644
-0.07785086 0.12720452 0.01993349 0.009241431 0.09794922 0.043272763 -0.006984622 0.0053228135
0.021173468 -0.049071398 -0.028847095 0.010302217 0.058851685 -0.06948167 -0.036865912 -0.008278845

model/v_stream/W f4 [1, 256]
00000000: 9d0c 17bd 3b83 483d 9bba 233d b003 a63c
00000010: 3c0c 41bc f17e 59bd 1059 d1bc e427 41bd
00000020: 24a0 3cbb aaba 4cbc b65b d63c fca6 3c3c
00000030: 1d74 febc 3823 173d d655 13bd 4ba2 57bd
00000040: 5b1a 1cbc faa0 593d b8b3 053d 10bc 63bd
00000050: a5df 1f3c 216d 5e3d baa9 98bc e0cd cdbb
00000060: ff96 78bd 83ea 1c3d abe9 283d 4323 633d
00000070: b80b 23bd bff7 e9bc 0d1a 253d 2b8c 923c
00000080: 853d 583d 8d9d 483c 1003 33bd 0a34 9a3c
00000090: 6911 623d 2f0d e93c a1a2 30bd a3bf f53c
000000a0: 9809 59bd 67a0 57bc 15c0 2cbd caaa 26bd
000000b0: 0e48 2bb9 e6b1 593d 6695 243d 576c 0abd
000000c0: 4d5e 823c a11e b7bc 80fa 6a3d 6f14 673c
000000d0: 7ed0 d63c e50a 09bd 1fe9 f73c 5c28 0abc
000000e0: d6f0 af3c 9cec a93c 164f f1bc 2312 ad3c
000000f0: f70f b93c afbf 19bd db29 a0bc 32a7 643d
00000100: 3b8b 4dbd 5e4c 22bd e9aa 443d cf5d 663d
00000110: c16c 473d 2179 d03c 78cc 413d 8944 58bd
00000120: 97ad 7a3c 7d26 183d 698a 173d dc35 183d
00000130: ee15 1d3d 2efa 863c 90a0 2a3d 3775 d6bc
00000140: 80e9 47bd 6b6b d4bc e167 0a3d 5462 cebc
00000150: ce25 edbc 97ae 2c3d 814f 16bd 89e0 5cbd
00000160: 9435 933c fe51 363d 5798 ffbb d087 87bd
00000170: b0e0 5cbd a748 013d 84a8 233d a1a5 2bbd
00000180: a3fb 773d cfa7 7cbc aca0 7fbd 0a79 363d
00000190: 5db7 75bc 1466 e63c fcc9 093d 5873 a9bc
000001a0: f79d 363d 574d 0dbd 805b 483d 3ed4 e9bc
000001b0: a541 6b3c 9098 efbb 234d 14bd 7841 c9bc
000001c0: 637f 153d 3ccd ccbc b411 6f3d 6eb5 703d
000001d0: 2b2f 333d cfbc 273d 881c bf3c 6a8d bbbb
000001e0: a5d6 363d aa88 153d 296a 24bd 61be b0bc
000001f0: 5260 e43c c79f 69bd dcbd 63bd 0092 05bd
00000200: 2f24 233d 195a 163d 300f 023d 5438 503d
00000210: c34a 41bd e8d0 273d eff9 9c3c 916c 603d
00000220: 8b02 783d e576 69bd 328c 60bd 1ec0 15bd
00000230: 3212 43bd 0a13 7a3d b481 6b3b 1fed b5bc
00000240: f14f 3c3c c8e9 19bd a0e2 41bd 5534 493d
00000250: 3bd2 05bd d95d 133d f1a0 5e3d aeff 5c3b
00000260: d7d5 0c3d ffeb 673d d4a9 2dbd c855 8d3b
00000270: 03c1 593d b34a 59bd 1e94 38bd 1e8a babc
00000280: d66e 19bd 4f81 55bd 8aa8 513d 704c 06bc
00000290: dbf8 533d 6637 e23c 9848 f53c 6b12 da3c
000002a0: 846c 98bc dbdd 23bb c0c5 80bd 125e a13c
000002b0: 7b7d 24bc df04 44bd 4a81 71bc 21cb 09bc
000002c0: c0ae 55bd 179c 913c 3f2d 373d ef84 233c
000002d0: c2de fabc 52f7 e7b9 dc9d 3b3d 3195 203d
000002e0: 699d 35bd 86b0 b63c 397e aabc e8da 243d
000002f0: dd5e 243d 80bd 703d 52c3 3ebd 1b5d f73c
00000300: 772e 57bd 6226 ddbc b0fa 50bd 4136 fcbc
00000310: 1504 1fbd 85f5 133d d289 14bd 0aec 753d
00000320: be16 003d 420b 33bd 79dc 9dbc 0b54 bf3c
00000330: 488d 3a3c f3be 5f3d 1670 22bd bb5a 07bd
00000340: 9a57 aa3c 17d6 283d 616c 31bd d278 d73c
00000350: c766 553d 9823 613d 40b2 87bc 02b1 22bd
00000360: be54 61bd 3b31 073d a444 583d b44e 19bd
00000370: fa2d 5abd 5983 47bd d4dc febc 6fd3 febc
00000380: 3f39 70bd 62b2 523d 2697 37bd 65f1 2d3d
00000390: 5fda c43c 2be3 2dbd ca51 433d 8620 48bd
000003a0: e7bc 45bd 7f95 bdbc b16f 223c 0972 303d
000003b0: b113 1d3d 0bd5 0e3d 7e5a 17bd 871e 2bbd
000003c0: c8c7 4cbd c65d 4b3d 3ef8 513c 2d1c 313d
000003d0: 6a44 083d cca7 70bd effc 43bd f9fe 44bd
000003e0: 5731 bf3b 9c66 553d a031 1fbd 53de a8bc
000003f0: 0010 423d 6b61 4fbd 65ed 1c3d 77c6 ccbc
-0.036877263 0.048953276 0.039972883 0.02026543 -0.011782702 -0.053099576 -0.025555164 -0.047157183
-0.0028781975 -0.012495676 0.026166778 0.011514422 -0.031061227 0.03689882 -0.03597053 -0.05264501
-0.009527768 0.053132035 0.032642096 -0.055599272 0.009757911 0.054303292 -0.01863562 -0.0062806457
-0.060690876 0.038309585 0.04123847 0.05545355 -0.039806098 -0.028560517 0.040308047 0.017889103
0.052793045 0.012244594 -0.043704093 0.018823642 0.055192385 0.02844867 -0.043123845 0.029998606
-0.052987665 -0.0131608015 -0.04217537 -0.04069022 -0.00016334673 0.053148173 0.04018154 -0.033794727
0.015914107 -0.022353472 0.0573678 0.014103993 0.026222464 -0.033457655 0.030262528 -0.008432474
0.021477144 0.020742707 -0.029456656 0.021126812 0.02259062 -0.03753632 -0.019551208 0.055823512
-0.05018161 -0.03962361 0.048014555 0.056241807 0.0486877 0.025448384 0.047314137 -0.052799735
0.015300176 0.03714608 0.036997233 0.03716074 0.038350992 0.016476717 0.04165703 -0.02617894
-0.048806667 -0.025930127 0.033790473 -0.02519337 -0.02894869 0.04215869 -0.036696915 -0.05392507
0.017969884 0.044511788 -0.0078001427 -0.06617701 -0.053925216 0.031563427 0.03995563 -0.041906003
0.060542714 -0.015420868 -0.062409088 0.044549026 -0.0149973305 0.028124847 0.033639893 -0.020684883
0.04458424 -0.034497585 0.048915386 -0.028543588 0.014358913 -0.007311888 -0.036206376 -0.02456735
0.03649844 -0.025000207 0.058366492 0.058766775 0.043746155 0.040951546 0.023329034 -0.005723645
0.044638295 0.036507286 -0.040140305 -0.021575155 0.02787796 -0.05703714 -0.055600986 -0.03260994
0.03982943 0.036707018 0.031752765 0.05083497 -0.04719044 0.040970713 0.019162146 0.054791037
0.0605493 -0.056998152 -0.0548212 -0.03656017 -0.047624774 0.061053313 0.0035935463 -0.022207795
0.011493669 -0.037576467 -0.047335267 0.049122173 -0.032671195 0.035978172 0.054352704 0.0033721733
0.03438362 0.056621548 -0.04239829 0.0043132044 0.053162586 -0.053049754 -0.04506313 -0.022770938
-0.037459217 -0.05212527 0.051186122 -0.008196935 0.051751 0.027614307 0.029941842 0.02662011
-0.018606432 -0.0025004062 -0.06287718 0.019698177 -0.0100396825 -0.047856208 -0.014740298 -0.008410246
-0.052168608 0.017774625 0.044720884 0.009980424 -0.030623797 -0.0004424402 0.045804843 0.03920478
-0.04433957 0.02230097 -0.02081214 0.040247828 0.04012953 0.05877447 -0.04657299 0.030195763
-0.052534547 -0.026995841 -0.051020324 -0.030787589 -0.038822252 0.036122818 -0.03626425 0.060039558
0.03127169 -0.04371191 -0.019270169 0.023355504 0.011386223 0.054625463 -0.039657675 -0.03304551
0.020793725 0.041219797 -0.04331625 0.026302729 0.05209997 0.054965585 -0.016564488 -0.03971959
-0.055012457 0.033005934 0.052799836 -0.037428573 -0.053266503 -0.048709247 -0.031111158 -0.031106679
-0.058648344 0.05143965 -0.04482188 0.04246654 0.024029909 -0.042452972 0.047685422 -0.04885914
-0.048275854 -0.023142574 0.009914325 0.043077502 0.038348857 0.034871142 -0.036951534 -0.04177716
-0.049995214 0.049649976 0.012815533 0.04323976 0.03326837 -0.058753774 -0.04784864 -0.048094723
0.005834739 0.05209981 -0.038865685 -0.020613825 0.04737854 -0.050630014 0.038312335 -0.02499698
