ai_challenge/results/simulation_DoubleDQN_DuelingRecNN_2017-05-19T19:40:53.24/1000000_finish/target_model.npz (npz, 632778 bytes, 12 tensors)

model/hidden/input_layer/b f4 [256]
0	0xbd99a9b9	-0.07503075
1	0xbce55f5d	-0.027999574
2	0xbda40ea3	-0.08010604
3	0xbd913fb9	-0.07092232
4	0xbcbb53e4	-0.02286715
5	0xbdcc16d4	-0.099652916
6	0xbd96b8a6	-0.07359438
7	0xbe147eac	-0.14501446
8	0xbd75d148	-0.06001404
9	0xbb4a1d5a	-0.0030840249
10	0x3c672df1	0.014110074
11	0xbd4c5704	-0.049887672
12	0xbd0ecd64	-0.034863845
13	0xbc9f6336	-0.019456487
14	0xbddf5667	-0.10905152
15	0xbdb0ff73	-0.08642473
16	0xbd5cc5a6	-0.05389943
17	0xbd81cb4c	-0.06337604
18	0xbd90fb4b	-0.0707918
19	0xbdaef03b	-0.08541914
20	0xbda5b2f2	-0.08090772
21	0xbd050123	-0.032471787
22	0x3ae36462	0.0017348642
23	0xbcec782a	-0.028865892
24	0xbd932f7c	-0.07186791
25	0xbd059303	-0.032610904
26	0xbd7cc88f	-0.061714705
27	0xbc43132f	-0.011906429
28	0xbd6fc73d	-0.058539618
29	0xbd7f01a8	-0.06225744
30	0xbdfe66c5	-0.124219455
31	0xbd28ae02	-0.04118157
32	0xbc770db5	-0.015078952
33	0xbd00f0a1	-0.03147948
34	0x3cb9fecd	0.022704506
35	0xbd6274d1	-0.055287186
36	0xbd90ae37	-0.07064479
37	0xbd7f5f9a	-0.062347032
38	0xbd95fa85	-0.073231734
39	0xbd538d03	-0.05164815
40	0xbcd1d47f	-0.025614021
41	0xbdb3393a	-0.087511495
42	0x3d0eedc7	0.03489473
43	0xbd94f69a	-0.07273598
44	0xbd7fbf55	-0.062438328
45	0xbd2cf25b	-0.042223316
46	0xbced03f7	-0.028932555
47	0xbd87fc48	-0.06639916
48	0x3c66cbfa	0.014086718
49	0xbdad6bf2	-0.084678546
50	0xbdb19fda	-0.086730674
51	0xbd8e4c44	-0.0694814
52	0xbd92501c	-0.07144186
53	0xbd563b37	-0.052302565
54	0xbd8fa5bb	-0.070140325
55	0xbdb22e3e	-0.08700226
56	0xbd8467a5	-0.06465081
57	0xbda3020f	-0.07959377
58	0xbd84fe00	-0.06493759
59	0xbd99c557	-0.07508343
60	0xbd899f72	-0.06719865
61	0xbd87e801	-0.06636048
62	0xbd8cb752	-0.06870903
63	0xbd462a0d	-0.048379947
64	0xbc8d83b3	-0.017274713
65	0xbd7b6ed8	-0.061385006
66	0xbd328d34	-0.043591693
67	0xbd6f5520	-0.05843079
68	0xbd9fa2df	-0.07794737
69	0xbd7c67c2	-0.06162239
70	0xbd832459	-0.06403417
71	0xbe0ccc2c	-0.1374976
72	0xbd563d7f	-0.05230474
73	0xbb87c791	-0.004143663
74	0x3b9a2dc6	0.0047051637
75	0xbddfd736	-0.1092972
76	0xbc80aa89	-0.015706317
77	0xbd574d86	-0.052564166
78	0x3bb2190d	0.005435115
79	0xbdb62106	-0.088930175
80	0xbdf20b43	-0.11818554
81	0xbdb4a878	-0.08821195
82	0xbda58b6b	-0.080832325
83	0xbd9628ca	-0.07331999
84	0xbd9dfd2f	-0.077143066
85	0xbdccac22	-0.09993769
86	0xbddb125f	-0.106968634
87	0xbdad34a9	-0.0845731
88	0xbd19fa58	-0.037592262
89	0xbdd2a2ec	-0.10284981
90	0x3cd29ca1	0.025709452
91	0xbd8af1e4	-0.06784418
92	0xbd98dbea	-0.0746382
93	0xbd7cc73f	-0.061713453
94	0xbc96bf2c	-0.018401705
95	0xbd77f7e8	-0.060539156
96	0xbcce1870	-0.025158137
97	0xbd00b169	-0.03141919
98	0xbd103adc	-0.035212383
99	0xbd0434d8	-0.03227696
100	0xbcee14ed	-0.029062713
101	0xbd88a492	-0.06672014
102	0xbcea32d3	-0.028588688
103	0xbd4ef699	-0.050528143
104	0xbd1911b1	-0.037370387
105	0xbceeb99e	-0.029141244
106	0xbc4c0435	-0.012452175
107	0xbd9c5937	-0.07634204
108	0xbd020fb1	-0.031753246
109	0xbdd2c2cd	-0.102910616
110	0xbd8b2724	-0.06794575
111	0xbd925b85	-0.07146362
112	0xbd9aeda2	-0.07564856
113	0xbde9d204	-0.114170104
114	0xbd7fe684	-0.062475696
115	0xbd6a3625	-0.057180542
116	0xbde03d6b	-0.109492145
117	0xbd8927d7	-0.06697052
118	0xbdcab096	-0.09896962
119	0xbdc66b67	-0.09688454
120	0xbdd5b0de	-0.10434125
121	0xbce7f753	-0.028316176
122	0xbd8dcfdb	-0.06924411
123	0xbddf400c	-0.10900888
124	0xbdb64d38	-0.08901447
125	0xbd3c7c36	-0.046016894
126	0xbde9d64c	-0.11417827
127	0x3c24adb8	0.010051183
128	0xbca235b4	-0.019800998
129	0xbd068b05	-0.032847423
130	0xbdb2266d	-0.086987354
131	0xbd3618f6	-0.0444574
132	0xbce0b12d	-0.027428234
133	0xbd1a2780	-0.037635326
134	0xbd7bbb32	-0.06145782
135	0xbd8a6ccd	-0.06759033
136	0xbd9582d8	-0.07300347
137	0xbd5d996c	-0.054101393
138	0xbda44e34	-0.080227286
139	0x3c612d2a	0.013743678
140	0xbd83bc5b	-0.0643241
141	0xbc9f9f84	-0.019485243
142	0xbd3d3d40	-0.04620099
143	0xbce947f7	-0.028476698
144	0xbd06fde1	-0.03295696
145	0xbc294eac	-0.010333698
146	0xbdb5fbdb	-0.08885928
147	0xbd8b65e9	-0.06806547
148	0xbdf20e4f	-0.118191354
149	0xbdb1bcc2	-0.08678581
150	0xbd605ae6	-0.054774188
151	0xbdc8d023	-0.09805324
152	0xbdb33414	-0.087501675
153	0xbd4b1751	-0.049582783
154	0xbd8a5bb4	-0.06755772
155	0xbd75db8c	-0.06002383
156	0xbd60f979	-0.054925416
157	0xbd7f2aba	-0.062296607
158	0xbcf7f682	-0.030268911
159	0xbd69e12f	-0.057099517
160	0xbd998de3	-0.07497766
161	0xbdd93153	-0.10605111
162	0xbc295700	-0.010335684
163	0xbdc36090	-0.09539902
164	0xbd692d07	-0.056927707
165	0xbd5d1d9a	-0.05398331
166	0xbdbbb8ca	-0.09166105
167	0xbb88a72c	-0.004170319
168	0x3c4e2509	0.012582072
169	0xbd9ffedf	-0.07812285
170	0xbc572ba2	-0.0131329615
171	0xba3c8bda	-0.00071924704
172	0xbc40ee16	-0.011775514
173	0xbcda765b	-0.026667764
174	0xbc63d8cc	-0.013906669
175	0xbd216cbe	-0.039410345
176	0xbd520391	-0.051272932
177	0xbd91653b	-0.07099386
178	0xbdc98d1a	-0.09841366
179	0xbdc2b085	-0.09506325
180	0xbd94827f	-0.07251453
181	0xbd93f71b	-0.07224866
182	0xbd3121b7	-0.043245044
183	0xbd3fd748	-0.046836168
184	0xbcf2c8f8	-0.029636845
185	0xbd876804	-0.06611636
186	0xbd2b6c0b	-0.041851085
187	0xbdaed3b0	-0.0853647
188	0xbdc6d023	-0.09707668
189	0xbd8fc366	-0.07019691
190	0xbd79de0a	-0.06100277
191	0xbde3680c	-0.1110383
192	0xbd7f12e7	-0.062273886
193	0xbdd7615d	-0.105166174
194	0xbda23723	-0.07920673
195	0xbd902f9b	-0.0704033
196	0xbd77364f	-0.060354527
197	0xbd9566d0	-0.072950006
198	0xbdc3d820	-0.09562707
199	0x3c8b3303	0.016992098
200	0xbd5c848f	-0.053837355
201	0xbdbe699e	-0.09297489
202	0xbd72f8a5	-0.059319157
203	0xbdcd97a9	-0.100386925
204	0xbd9d2378	-0.07672781
205	0xbd6afa6b	-0.057367723
206	0xbd40c3f9	-0.047061894
207	0xbd4c5771	-0.049888078
208	0xbd6d5664	-0.057943717
209	0xbd7147e3	-0.058906447
210	0xbd4bd2ce	-0.049761586
211	0xbd8785b7	-0.06617301
212	0xbd9b7fad	-0.075927116
213	0xbcca4efb	-0.024695864
214	0xbdc2178d	-0.09477148
215	0xbdce073b	-0.10059973
216	0xbd349cd4	-0.044094875
217	0xbdcc7db9	-0.09984917
218	0xbbfca039	-0.0077095297
219	0xbd70732e	-0.058703594
220	0xbd83c950	-0.06434882
221	0xbb5b9f4b	-0.0033511694
222	0x3d195fb8	0.0374448
223	0xba28a081	-0.00064326084
224	0xbd2e205b	-0.042511325
225	0xbcc1e076	-0.023666602
226	0xbd3b37b0	-0.045707405
227	0xbda9e867	-0.0829628
228	0xbd967276	-0.073460504
229	0xbd1554a6	-0.03645768
230	0xbd96b755	-0.073591866
231	0xbd548cd5	-0.05189212
232	0xbd565e80	-0.052336216
233	0x3b054103	0.002033294
234	0x3b806fa9	0.003919561
235	0xbc905224	-0.017617293
236	0xbdaf3b67	-0.08556252
237	0xbd1dd7f4	-0.038536027
238	0xbd5364f2	-0.05160994
239	0xbdb14429	-0.08655579
240	0xbd74b9f8	-0.059747666
241	0xbce725d9	-0.02821629
242	0xbd9b517a	-0.075839
243	0xbd87405b	-0.06604072
244	0xbccf440f	-0.025301008
245	0x3d2bbe2f	0.04192942
246	0xbdab821e	-0.08374427
247	0xbdbeaa5f	-0.093098395
248	0xbce3a04a	-0.027786393
249	0xbd7153b7	-0.058917727
250	0x3d30d2e8	0.043169886
251	0xbd22d0f3	-0.03975005
252	0xbb5d4bc0	-0.0033767074
253	0xbdceb973	-0.100939654
254	0xbdabdabc	-0.0839133
255	0xbda697d2	-0.08134426

model/hidden/output_layer/b f4 [256]
0	0x3c9b5573	0.018961644
1	0xbc81ba07	-0.015835775
2	0x3af6f13b	0.0018840203
3	0xbc5feb9b	-0.013667013
4	0x3c461e1a	0.012092138
5	0x3c2d8fd3	0.010593372
6	0x3c0e401a	0.008682275
7	0x3c9e3f3b	0.01931726
8	0xbc6bc4cf	-0.014390185
9	0x3c0c3e3f	0.0085597625
10	0xbc8a2f2e	-0.0168682
11	0x3ba41619	0.005007517
12	0x3c6c2f7f	0.014415621
13	0xbad6af4c	-0.0016379147
14	0x3c958237	0.018250568
15	0x3c5b9e26	0.013404405
16	0xbc11ce32	-0.008899258
17	0x3807e104	3.239607e-05
18	0xbc86fc6c	-0.016477786
19	0x3c501020	0.012699157
20	0xbc85def6	-0.016341668
21	0xbc6be28d	-0.014397276
22	0x3a877552	0.0010334647
23	0xbb0e0151	-0.0021668265
24	0xbc33d0b9	-0.010975056
25	0x3b8d7cc2	0.004317851
26	0xbcb7a040	-0.02241528
27	0x3b2018b4	0.0024428787
28	0xbb8768ca	-0.004132365
29	0x3c8ae8db	0.016956737
30	0xbcc11deb	-0.023573836
31	0xbc14db22	-0.009085448
32	0xbab96984	-0.0014145826
33	0xbc97a2ea	-0.0185103
34	0x3ca301a3	0.019898241
35	0x3c0c3aaa	0.0085589085
36	0xbc409944	-0.011755291
37	0x39d09b07	0.00039788356
38	0x3ca229d1	0.01979533
39	0x3a8169a2	0.00098734
40	0x3c61f8c2	0.013792219
41	0x3b3942cc	0.0028268574
42	0x3a490a78	0.00076691015
43	0x3cc4e2b4	0.024033882
44	0x3a72f991	0.00092687557
45	0xbc552dae	-0.013011379
46	0xbcb3902f	-0.021919338
47	0x3b73fac7	0.0037228332
48	0xbc52b310	-0.012860075
49	0x3c15a143	0.009132686
50	0xbc2ba77d	-0.010476944
51	0xbc7e9be4	-0.015540097
52	0xbc7e0a9f	-0.015505462
53	0x3b1f4037	0.002429975
54	0xbbe5428e	-0.0069964593
55	0xbc55f3ba	-0.013058597
56	0xbc628a4a	-0.013826916
57	0xbc7b0b58	-0.015322529
58	0x3b3ce181	0.0028820934
59	0x3b9d3b39	0.0047983197
60	0xbbd2b7ed	-0.006430617
61	0x3c6d734c	0.014492821
62	0x3c6dc99b	0.0145133985
63	0xbbd5a985	-0.0065204524
64	0x3c8a3642	0.016871575
65	0x3c960b4f	0.01831594
66	0xbca25bab	-0.019819101
67	0xbc07fafe	-0.008299587
68	0xbc863203	-0.01638127
69	0xbc6d2c70	-0.014475927
70	0xbc9c2b9b	-0.019063761
71	0x3c819908	0.015820041
72	0xbc5f0489	-0.013611921
73	0xbcab1ae6	-0.02088685
74	0xbb905a6c	-0.0044053104
75	0xbb0abe40	-0.0021170527
76	0xbc487785	-0.012235527
77	0x3c12e0e7	0.008964754
78	0xba94011b	-0.0011291833
79	0x3c0f88eb	0.008760671
80	0xbbc8e5f4	-0.006130928
81	0xbae088f0	-0.0017130654
82	0xbbaa3306	-0.0051940707
83	0x3c04e342	0.008110823
84	0x3b810f5e	0.0039385995
85	0xbcd08058	-0.025451824
86	0x3b095f76	0.002096144
87	0x3c208e05	0.009799485
88	0xbc3532c8	-0.0110594705
89	0xbcc16c69	-0.023611264
90	0x3a6b137c	0.0008967442
91	0x3bb50646	0.0055244295
92	0x3c6a9a6e	0.0143190455
93	0x3b4a9f66	0.0030917763
94	0xbc84eed5	-0.016227165
95	0x3caa809f	0.020813284
96	0xbc084d97	-0.00831928
97	0xbc3fe314	-0.0117118545
98	0x3c1161fa	0.008873457
99	0xbc342773	-0.010995734
100	0x3c70ebe2	0.014704676
101	0xbc06841a	-0.008210206
102	0xbc92443d	-0.017854804
103	0x397f60fc	0.00024354825
104	0xbb6f46a5	-0.0036510613
105	0x3c89a955	0.016804377
106	0xbc9fb00a	-0.019493122
107	0x3bb0dfcd	0.005397773
108	0x3c29c317	0.010361454
109	0xbc4d43e8	-0.012528397
110	0x3c9bcf05	0.019019613
111	0x3b139fe3	0.002252572
112	0xbcac24df	-0.021013675
113	0x3c08e36c	0.008355003
114	0xbc258d9f	-0.010104566
115	0xbc167057	-0.009182057
116	0xbcd4916a	-0.025948245
117	0xbc71de38	-0.014762454
118	0xb8f906fc	-0.00011874546
119	0x3c7fad5e	0.015605299
120	0xbb15547d	-0.0022785955
121	0xb8bf7f8b	-9.1313465e-05
122	0x3c9fd1e8	0.01950927
123	0xba69cb05	-0.0008918497
124	0xbc35fc77	-0.011107556
125	0x3c0c0df0	0.008548245
126	0x3c2a43cb	0.01039214
127	0x3bf4ff48	0.007476721
128	0xbaeb3d53	-0.0017947353
129	0xbc9c8085	-0.019104252
130	0x3b6da0b5	0.003625912
131	0xbc3dbf36	-0.011581233
132	0x3ca80f59	0.02051513
133	0xbc033f40	-0.008010685
134	0xbbe96b9c	-0.0071234237
135	0xbc5cc5fb	-0.013474937
136	0xbc04fab5	-0.008116414
137	0x3b96f49b	0.004606796
138	0x3c567451	0.013089255
139	0x3c49c781	0.012315632
140	0x3c99ea2e	0.018788423
141	0xbc171cbf	-0.009223162
142	0x3c5aa318	0.013344549
143	0xbac94ce8	-0.0015358003
144	0xbc88675b	-0.016650846
145	0x3cbae5fe	0.022814747
146	0x3c9eecd8	0.019400045
147	0xbc6c45e6	-0.014420962
148	0x3bc55ae6	0.006022799
149	0xbc89c59b	-0.016817858
150	0xbc50018e	-0.012695683
151	0x3c6bfb28	0.014403142
152	0xbb60d34f	-0.0034305637
153	0xbc49509e	-0.012287287
154	0x3c0e8c56	0.008700451
155	0x3c41abfd	0.01182079
156	0xbc538bf3	-0.012911784
157	0x3aab4877	0.0013067861
158	0x3b1964bb	0.0023405987
159	0x3c3599d3	0.011084038
160	0x3a89af2c	0.0010504476
161	0x3c610518	0.013734125
162	0xbbd946e6	-0.006630766
163	0xbc28e79d	-0.010309127
164	0xbc715aff	-0.014731168
165	0xbc8e3693	-0.017360007
166	0xbc7c7210	-0.015408054
167	0xbc09935b	-0.008396949
168	0x3c83e4b7	0.01610027
169	0x3b1880bd	0.0023270093
170	0x3c06b769	0.008222439
171	0xbc6eab63	-0.014567229
172	0xbc1bd53d	-0.009511289
173	0x3ca136fd	0.01967954
174	0x3c91db62	0.017804805
175	0x3c8e879f	0.017398654
176	0x3a5578ea	0.0008143323
177	0x3bed9f4c	0.0072516557
178	0xbad50b08	-0.0016253898
179	0x3c49a84a	0.01230819
180	0x3c845dda	0.016158033
181	0x3c7f3d40	0.015578568
182	0xbcb15127	-0.021645142
183	0xbc74b7f8	-0.01493644
184	0x3cb748fe	0.022373673
185	0xbc3b1ed6	-0.011420926
186	0x3c65eeca	0.0140339825
187	0xbb4633fe	-0.0030243392
188	0xbc97c388	-0.018525854
189	0xbbf2e3a8	-0.0074123926
190	0x3c9872e3	0.01860947
191	0xbc882c31	-0.016622635
192	0xba50fd55	-0.000797232
193	0x3bf32372	0.007419997
194	0x3aed4552	0.0018102324
195	0xbc116c85	-0.008875971
196	0x3ca9307f	0.020653008
197	0xbc3838d0	-0.011244014
198	0x3c8b028d	0.01696899
199	0xbc1b1245	-0.009464805
200	0x3b0be0e4	0.0021343762
201	0x3c905269	0.017617421
202	0x3c21ab55	0.009867509
203	0xbc6ea305	-0.014565234
204	0x3a107ed8	0.0005512065
205	0xbc6e4b36	-0.014544299
206	0x3c9fb93c	0.019497506
207	0x3b1590d4	0.002282192
208	0xbc3f8421	-0.011689217
209	0xbc242cb3	-0.010020423
210	0xbb5d0700	-0.0033726096
211	0xbb640cbb	-0.0034797627
212	0xbc7df4cb	-0.015500258
213	0xbc499839	-0.012304359
214	0x3b8d3ed0	0.0043104663
215	0x3c807170	0.015679091
216	0x3c52b550	0.012860611
217	0xb8609116	-5.3540884e-05
218	0xbc570590	-0.013123885
219	0x3c992e6f	0.0186989
220	0x3a9f4fda	0.0012154535
221	0x3c959a9f	0.018262206
222	0x3c986cb5	0.018606523
223	0xbb94d8a7	-0.0045424285
224	0x3c282fcb	0.010265301
225	0xbadd6f4a	-0.0016894129
226	0x3c4f232b	0.012642662
227	0xbca6b05f	-0.020347772
228	0xbc776b71	-0.0151013
229	0x3ca6b4e8	0.020349935
230	0xbc9f8529	-0.019472675
231	0x3ca6a812	0.020343814
232	0x3c96f519	0.018427419
233	0xbb1448ba	-0.0022626356
234	0x3b43549c	0.002980507
235	0xbc930430	-0.017946333
236	0xbc900eb0	-0.017585129
237	0xbc3f36cd	-0.01167078
238	0x3ca0c3a3	0.019624537
239	0x3c427053	0.0118676005
240	0x3c972efb	0.01845502
241	0xbbfdc094	-0.0077439044
242	0x3bfae871	0.0076571037
243	0xbc9315be	-0.017954703
244	0xbb16173f	-0.002290204
245	0x3c2b1641	0.010442317
246	0x3abe2ff0	0.0014510136
247	0x3b4a7460	0.0030892119
248	0x3bb4db43	0.005519302
249	0xbc7a3225	-0.015270744
250	0x3ca8d2da	0.020608354
251	0xbb855a10	-0.004069574
252	0xba33c81e	-0.0006858128
253	0x3bdcbb23	0.0067361756
254	0xb955b1a5	-0.0002037944
255	0x3b99b2c8	0.004690502

model/a_stream/W f4 [3, 256]
0	0xbc0ccdf8	-0.008594029
1	0x3c4d80dc	0.0125429295
2	0xbcacc590	-0.021090299
3	0x3bba8804	0.005692484
4	0x38e361c4	0.00010842414
5	0xbcda27c1	-0.026630284
6	0xbada871c	-0.0016672346
7	0xbc3926af	-0.011300727
8	0x3beaf57f	0.0071703787
9	0x3aac119e	0.0013127809
10	0x3a260fe4	0.00063347653
11	0xbc2acb03	-0.010424378
12	0xbb5d8750	-0.0033802576
13	0xbc9e95f3	-0.01935861
14	0xbafa1784	-0.0019080495
15	0xbb946a7b	-0.004529295
16	0xbb002fb4	-0.0019559683
17	0xbd1438cf	-0.03618699
18	0x3b06c28b	0.0020562734
19	0xbc143e57	-0.009048066
20	0x3b07d08e	0.0020723674
21	0x3bc145ed	0.0058982284
22	0xb9ca8a71	-0.0003863159
23	0x3ac4e939	0.0015023119
24	0x3d2fe9dc	0.042947635
25	0xbced3866	-0.028957557
26	0x3c5123a0	0.012764841
27	0xbd5ad33c	-0.053424105
28	0x3d065dc9	0.032804284
29	0xbbe066fa	-0.0068482133
30	0x3c10a125	0.008827482
31	0x3af4d3e1	0.0018678867
32	0xbd4c66da	-0.049902774
33	0x3b9c4141	0.004768521
34	0xbc6d87dc	-0.014497723
35	0x3b0ca7f2	0.0021462408
36	0x3cd26e34	0.025687315
37	0xbc013aa3	-0.007887515
38	0x3b807eee	0.003921381
39	0xbba90f50	-0.005159296
40	0xbc71203f	-0.014717161
41	0x3b9fb8a5	0.0048743063
42	0x3c9b2f11	0.018943341
43	0x3a3b4383	0.0007143544
44	0x3c521088	0.012821324
45	0x3c6825d3	0.014169174
46	0x3bea2784	0.007145824
47	0x3ca0f90e	0.019650009
48	0x3c619e26	0.013770616
49	0xbbc5806e	-0.006027273
50	0x3c20ea04	0.009821419
51	0x3a8c0522	0.0010682682
52	0x3b69b0cd	0.003565836
53	0x3c5c8c0c	0.013461124
54	0x3acc4699	0.0015585005
55	0xbba2a16f	-0.004963092
56	0x3c34fc58	0.011046492
57	0x3c36273d	0.011117754
58	0x3c6cc227	0.014450586
59	0x3c0e4374	0.008683074
60	0x3b5424bc	0.0032370528
61	0xbb1b34f0	-0.0023682676
62	0x3ab91c1f	0.0014122761
63	0xbc38b42a	-0.011273423
64	0xbc922452	-0.017839584
65	0xbc9e119b	-0.019295504
66	0x3b8dd465	0.004328298
67	0xba28e545	-0.0006442855
68	0xbb59d4b4	-0.0033238353
69	0x3b35d5fd	0.0027745955
70	0x3c36a4cd	0.01114769
71	0xbbcf862f	-0.0063331346
72	0x3be85697	0.0070904004
73	0xb9bbae4a	-0.00035797275
74	0xbcb56a33	-0.022145366
75	0xbc5ee09a	-0.013603354
76	0x3c941923	0.018078392
77	0xbc1ff435	-0.009762813
78	0xbce26f4f	-0.027640967
79	0x3b7ce686	0.003858955
80	0x3d03c7f7	0.032173123
81	0x3ccab07c	0.024742357
82	0xbb6a6dfb	-0.003577112
83	0xbc0a77a3	-0.008451375
84	0x3be486e2	0.006974087
85	0xbafe8b4c	-0.0019420176
86	0x3c0e0a7e	0.008669494
87	0x3ca5776b	0.020198544
88	0x3b1da64e	0.0024055424
89	0x3bde823b	0.006790427
90	0x3c882903	0.016621118
91	0xbb9fc354	-0.00487558
92	0xbb502968	-0.0031762961
93	0xbc5f9b97	-0.013647935
94	0xba266a83	-0.0006348269
95	0xbbc8c7a5	-0.006127315
96	0x3c57c92f	0.0131705245
97	0x3a0166c6	0.0004936274
98	0xbbde19d2	-0.0067779804
99	0xbbb00744	-0.00537196
100	0x3bc65565	0.0060526603
101	0xba9fd710	-0.0012194831
102	0x3bf0537d	0.0073341713
103	0x3be3f978	0.006957229
104	0xbcccd541	-0.025004031
105	0xbc2cd377	-0.010548464
106	0x3bec37f4	0.0072088186
107	0x3be15575	0.0068766424
108	0xbc0c2fd2	-0.008556323
109	0xbba43ee6	-0.005012381
110	0xbc09e5af	-0.008416577
111	0x3b224903	0.0024762757
112	0x3a19f6ab	0.0005873243
113	0x3c0ae0e1	0.008476467
114	0x3aa967bd	0.0012924593
115	0x3c4c3746	0.01246435
116	0x3c4f26b4	0.012643505
117	0x3b49b8e4	0.003078037
118	0xbbd05887	-0.0063582095
119	0x3b6702d8	0.0035249498
120	0xbcc58733	-0.02411232
121	0xbc152335	-0.009102632
122	0xbc9f8d83	-0.019476658
123	0xbb839b9c	-0.004016353
124	0x3c274702	0.010209801
125	0x3ba7dbc2	0.0051226327
126	0xba9fed59	-0.0012201472
127	0x3a125fa8	0.0005583712
128	0xbc92df43	-0.017928725
129	0x3bbd5af6	0.0057786657
130	0xbbfdeb82	-0.007749022
131	0xbc576ff6	-0.013149252
132	0xbb4cde81	-0.0031260552
133	0xbc3e4e87	-0.011615402
134	0x3c4c5ea7	0.012473739
135	0x3b4e5a0a	0.0031486773
136	0x3c290e62	0.010318371
137	0x3c80f304	0.015740879
138	0x3ba1216b	0.004917314
139	0xbb957aea	-0.0045617716
140	0xb9ac2e05	-0.00032840684
141	0x3c5fa89f	0.013651042
142	0xbba4120e	-0.005007035
143	0x3b52b57b	0.0032151628
144	0x3b046aad	0.0020205185
145	0xbc5d8289	-0.013519892
146	0xbc758589	-0.014985451
147	0x3c4fc07b	0.012680168
148	0x3915103e	0.00014215798
149	0x39ae9219	0.00033296717
150	0x3b84bf55	0.004051129
151	0x3b85e018	0.004085552
152	0xbc874077	-0.016510231
153	0x3c900d8d	0.017584587
154	0x3c6edcef	0.014579042
155	0xbbdbdd54	-0.006709734
156	0x3c935bd0	0.017988116
157	0x3d1efa8f	0.03881317
158	0x3d26cbc0	0.040721655
159	0xbc2625c8	-0.010140844
160	0x3c955a5f	0.018231569
161	0xbcca27bb	-0.024677148
162	0xbc30795d	-0.010771123
163	0x3b94253c	0.0045210402
164	0x3cb24614	0.021761931
165	0x3b8deed6	0.00433145
166	0x3b628335	0.0034563069
167	0xbad9b7e1	-0.0016610586
168	0xbaae37f8	-0.0013291826
169	0x3c4fc5c0	0.012681425
170	0x3bd624eb	0.0065351627
171	0x3c6faad2	0.014628129
172	0x3ba808dd	0.0051280097
173	0xbb800c85	-0.0039077424
174	0xb9eb9690	-0.0004493487
175	0x3a8484a9	0.0010110337
176	0x3d47fe56	0.048826538
177	0x3b82712c	0.0039807763
178	0xbcbf653a	-0.023363698
179	0x3aeb5a5f	0.001795601
180	0xbc1ae1f4	-0.0094532855
181	0xbb27336d	-0.002551283
182	0x3b9e6b3a	0.0048345597
183	0x3c3cc5b4	0.0115217455
184	0x3b5b853d	0.0033496164
185	0x3ac36b49	0.0014909293
186	0x3c0a65a7	0.008447087
187	0xbcb2b4ed	-0.021814788
188	0x3c780d4d	0.01513989
189	0xbb73a7b1	-0.003717881
190	0xbc899466	-0.016794395
191	0x3b861a3c	0.004092483
192	0x3d3e52f7	0.04646584
193	0x3b898a8c	0.0041974243
194	0x3d15dade	0.03658568
195	0xbd844dca	-0.064601496
196	0xbc4ab5e8	-0.012372471
197	0x3c00a0a6	0.007850802
198	0xbc87f4c4	-0.016596206
199	0x3bd48cdd	0.006486519
200	0xbbc08280	-0.005874932
201	0xbb8b01b9	-0.0042421487
202	0xbb89f761	-0.004210398
203	0x3c1e24cb	0.009652327
204	0x3d1d2d37	0.0383732
205	0x3943b6ca	0.00018664743
206	0xbc9ae1e8	-0.018906549
207	0xbb245179	-0.0025072976
208	0x3b49a0c6	0.0030765994
209	0xbc738eaf	-0.014865561
210	0x3d2ff42f	0.04295748
211	0xbacbd37b	-0.0015550697
212	0x3bbe86db	0.005814416
213	0x3b4c3380	0.0031158626
214	0x3c1cfe7a	0.009582156
215	0xbc35a401	-0.011086465
216	0xbbfb7397	-0.0076736915
217	0xbc456d15	-0.012049933
218	0xbac3b688	-0.0014931718
219	0xbb4ebd56	-0.0031545958
220	0x3d0d2242	0.0344565
221	0xbc30a2c5	-0.010780995
222	0xbaa81a16	-0.0012825157
223	0x3c817477	0.015802605
224	0xbc3ccd72	-0.011523591
225	0xbd51d15b	-0.051225048
226	0x3c74bcd4	0.014937598
227	0x3c4f9c36	0.012671521
228	0x3a4eadc0	0.0007884167
229	0xbc407b7c	-0.011748191
230	0x3c2233c6	0.009900039
231	0xbbb1dcd9	-0.0054279384
232	0xbb89fb11	-0.0042108377
233	0xb99b4b5f	-0.0002962006
234	0x3d235947	0.039880063
235	0xbbe2b295	-0.0069182613
236	0x3c5cc00c	0.013473522
237	0x3b1fa8f7	0.0024362186
238	0xbb3a3b69	-0.002841676
239	0x3c8b4a70	0.017003268
240	0xbc4cf8b5	-0.012510468
241	0xbc4721ce	-0.012154056
242	0xbc128bb0	-0.008944437
243	0x3cc7e5cf	0.024401573
244	0xbc414c84	-0.011798028
245	0xbc4b9618	-0.012425922
246	0x3d3ea28b	0.04654173
247	0x3d40133f	0.046893355
248	0xbc40095a	-0.01172098
249	0x3bae4aac	0.00531896
250	0xbca6178e	-0.020274904
251	0x3b734a5a	0.0037123174
252	0xbccbc9f8	-0.02487658
253	0x3cdb3ca6	0.026762318
254	0xbcc76daf	-0.024344293
255	0x3be052bd	0.0068458007

model/hidden/mid_rec_layer/upward/W f4 [80, 86]
0	0xbe5e713b	-0.21722881
1	0xbdf2afba	-0.118499234
2	0x3e6e768b	0.23287408
3	0x3e1d1ae1	0.15342285
4	0xbc8c2ff8	-0.017112717
5	0x3dd812b5	0.10550443
6	0x3c3dfe59	0.011596286
7	0xbd50de51	-0.050993267
8	0x3ddcf0ec	0.1078814
9	0x3c23d70a	0.01
10	0xbd37dad5	-0.04488643
11	0x3c23d70a	0.01
12	0x3d52d259	0.051470134
13	0xbcabbc7e	-0.020963904
14	0x3c23d70a	0.01
15	0x3deb96b9	0.115033574
16	0xbd60da0f	-0.054895457
17	0x3c23d70a	0.01
18	0xbe89d17b	-0.26917633
19	0x3ce09a91	0.027417453
20	0x3c23d70a	0.01
21	0x3e3d16cc	0.18465728
22	0xbb3809d6	-0.0028082035
23	0x3c23d70a	0.01
24	0xbd7dadfe	-0.06193351
25	0x3d69f50d	0.057118464
26	0x3c23d70a	0.01
27	0xbd9c07fd	-0.07618711
28	0xbcb29d6d	-0.021803582
29	0x3c23d70a	0.01
30	0xbe9ac715	-0.30230013
31	0xbcb7b9fc	-0.022427551
32	0x3c23d70a	0.01
33	0xbe4a1496	-0.19734415
34	0xbd404ccd	-0.046948243
35	0x3c23d70a	0.01
36	0x3e13f7df	0.14450024
37	0x3d13313d	0.03593563
38	0x3c23d70a	0.01
39	0xbdcb84b9	-0.09937424
40	0xbb5d9d72	-0.0033815769
41	0x3c23d70a	0.01
42	0xbe4c05f5	-0.19924147
43	0x3c362b7e	0.011118768
44	0x3c23d70a	0.01
45	0x3d81ac3d	0.0633168
46	0xbd06a3a7	-0.032870915
47	0x3e50fd61	0.20409156
48	0xbde4972a	-0.11161645
49	0x3d2a8238	0.041628093
50	0x3d37caf5	0.04487129
51	0x3e53b47e	0.20674321
52	0x3cb5f9f0	0.022213906
53	0x3e8f546e	0.27994102
54	0xbdd6ffe0	-0.10498023
55	0x3cfdee3a	0.030997384
56	0x3c23d70a	0.01
57	0x3d2a26f6	0.041541062
58	0x3d157c39	0.03649542
59	0x3c23d70a	0.01
60	0x3c767f11	0.015044943
61	0xbdbf9d5a	-0.09356184
62	0x3d77fb0e	0.06054216
63	0xbdd94d21	-0.10610414
64	0xbcb1f071	-0.021721097
65	0x3e7a4aca	0.24442592
66	0x3e2a9773	0.16659336
67	0xbd89024e	-0.06689893
68	0x3d82b26d	0.06381688
69	0x3d8eb314	0.0696775
70	0xbd7613c1	-0.060077433
71	0x3c23d70a	0.01
72	0xbd12bf12	-0.03582675
73	0xbcbcad00	-0.023031712
74	0x3c23d70a	0.01
75	0x3d74c3de	0.059757106
76	0xbda76404	-0.08173373
77	0x3e674f05	0.22588737
78	0x3e0e65e8	0.13906062
79	0x3d0ec36f	0.03485435
80	0xbe0fbc52	-0.14036682
81	0x3d841e79	0.06451125
82	0xbc80df38	-0.015731439
83	0xbe36878d	-0.17825146
84	0x3d91ae07	0.07113271
85	0xbc238a3d	-0.009981689
86	0x3e1e54f9	0.15462102
87	0x3e27bc4f	0.16380428
88	0xbe81020f	-0.25196883
89	0xbf347332	-0.70488274
90	0xbd0ba62b	-0.034094017
91	0xbea70a15	-0.3262488
92	0xbead2e0e	-0.338242
93	0x3d41c1ba	0.047303893
94	0xbf6ec9f9	-0.93276936
95	0x3c23d70a	0.01
96	0xbda7a6af	-0.08186089
97	0x3c23d70a	0.01
98	0xbeae76e8	-0.34075093
99	0x3c87520c	0.016518615
100	0x3c23d70a	0.01
101	0xbe195545	-0.14973934
102	0x3d8644fe	0.06556128
103	0x3c23d70a	0.01
104	0x3eac6f91	0.33678868
105	0xbe251a31	-0.16123272
106	0x3c23d70a	0.01
107	0x3db70c89	0.08937938
108	0x3c90eabb	0.017690053
109	0x3c23d70a	0.01
110	0x3d3967c1	0.045264963
111	0x3d55d203	0.052202236
112	0x3c23d70a	0.01
113	0x3da2724d	0.079319574
114	0xbc9a78db	-0.018856457
115	0x3c23d70a	0.01
116	0x3eb94336	0.3618409
117	0x3e0ca206	0.13733682
118	0x3c23d70a	0.01
119	0x3e402ace	0.18766329
120	0x3e2f69bb	0.17130177
121	0x3c23d70a	0.01
122	0xbe5e5ef5	-0.2171591
123	0xbd3f2eb6	-0.046675406
124	0x3c23d70a	0.01
125	0x3dae08be	0.08497761
126	0xbd8756af	-0.066083305
127	0x3c23d70a	0.01
128	0x3e8aaeba	0.2708643
129	0xbd20b608	-0.0392361
130	0x3c23d70a	0.01
131	0xbe15b017	-0.14617954
132	0xb9c6a64e	-0.0003788941
133	0xbef83137	-0.48475048
134	0x3dc79458	0.09745091
135	0xbdefcff0	-0.11709583
136	0xbddd697f	-0.108111374
137	0xbf17bf0a	-0.5927588
138	0xbeb82323	-0.35964307
139	0xbe483bdb	-0.19554083
140	0x3ef6ecba	0.48227483
141	0xbe335a7e	-0.17514989
142	0x3c23d70a	0.01
143	0x3ec470fb	0.38367447
144	0xbd879f1d	-0.06622145
145	0x3c23d70a	0.01
146	0x3e42eb12	0.19034985
147	0x3dd1a92e	0.102373466
148	0xbd814cbe	-0.063134655
149	0x3e4b985c	0.19882339
150	0xbcefe023	-0.029281681
151	0xbee65151	-0.44983914
152	0xbe96aa40	-0.29426765
153	0xbcdeb2a7	-0.027184797
154	0xbebb1fd0	-0.3654771
155	0xbeb148b6	-0.34625787
156	0xbd159eea	-0.036528505
157	0x3c23d70a	0.01
158	0x3d02ef78	0.031966656
159	0x3d5bd534	0.053670123
160	0x3c23d70a	0.01
161	0xbddaac9f	-0.10677456
162	0xba993465	-0.0011688588
163	0xbee8fb8e	-0.4550442
164	0xbedd0379	-0.43166712
165	0xbd71660c	-0.05893521
166	0x3e61e91c	0.2206158
167	0xbf16a9a5	-0.58852607
168	0xbd2fb9f8	-0.042901963
169	0x3de8ae4a	0.11361368
170	0xbee3b751	-0.44475797
171	0xbd899a63	-0.067189
172	0xbf83474f	-1.0256137
173	0x3eaaeb34	0.3338257
174	0x3f321a28	0.6957116
175	0xbf6a61df	-0.9155559
176	0xbe448515	-0.19191392
177	0xbe679c5b	-0.22618239
178	0xbe23ec26	-0.16008052
179	0xbe826a21	-0.25471595
180	0xbf566d75	-0.8376077
181	0x3c23d70a	0.01
182	0xbdfb1c37	-0.12261241
183	0x3c23d70a	0.01
184	0xbe677d6a	-0.22606435
185	0xbd8c4111	-0.06848348
186	0x3c23d70a	0.01
187	0x3e3b7897	0.1830772
188	0x3d7039bf	0.05864882
189	0x3c23d70a	0.01
190	0x3e8e2a58	0.2776668
191	0xbce46ddf	-0.027884422
192	0x3c23d70a	0.01
193	0xbe593832	-0.21212843
194	0xbda05d3d	-0.07830284
195	0x3c23d70a	0.01
196	0xbe2e4458	-0.17018259
197	0xbde6542c	-0.11246523
198	0x3c23d70a	0.01
199	0x3e422e68	0.18963015
200	0xbe52e4b2	-0.20595053
201	0x3c23d70a	0.01
202	0xbd8b5342	-0.068029895
203	0xbb020d1f	-0.0019844247
204	0x3c23d70a	0.01
205	0x3e7e09d3	0.24808435
206	0xbcc4f7e7	-0.02404399
207	0x3c23d70a	0.01
208	0xbeb193ef	-0.34683177
209	0xbe79c22f	-0.24390481
210	0x3c23d70a	0.01
211	0xbdd8ccb3	-0.10585918
212	0xbcc11edd	-0.023574287
213	0x3c23d70a	0.01
214	0x3e799d51	0.24376418
215	0xbc2b2c6f	-0.0104476055
216	0x3c23d70a	0.01
217	0x3e87976a	0.26482707
218	0xbe10c793	-0.14138632
219	0xbf030a22	-0.51187336
220	0xbe860265	-0.26173702
221	0xbcb33bda	-0.021879125
222	0xbc998621	-0.018740715
223	0xbe88afcb	-0.2669662
224	0xbe8bcdca	-0.27305442
225	0xbe129170	-0.14313293
226	0xbcbb5726	-0.022868704
227	0xbd9e60ee	-0.077333316
228	0x3c23d70a	0.01
229	0xbd862cb9	-0.06551499
230	0xbe0458b5	-0.12924464
231	0x3c23d70a	0.01
232	0xbd82f9b1	-0.06395281
233	0x3d3f1484	0.046650425
234	0x3c531281	0.01288283
235	0x3dfc3a60	0.12315822
236	0xbe3106eb	-0.17287795
237	0xbec8b8d8	-0.39203525
238	0xbebd0549	-0.36918095
239	0xbee0026d	-0.4375185
240	0xbef5114f	-0.47864768
241	0xbf066d1c	-0.5251024
242	0xbd896005	-0.067077674
243	0x3c23d70a	0.01
244	0x3ea775e4	0.3270713
245	0x3d0dcce9	0.034619246
246	0x3c23d70a	0.01
247	0x3e5fe24f	0.21863674
248	0xbd273b1e	-0.040827863
249	0xbed6905a	-0.41907007
250	0xbf2ef726	-0.6834587
251	0xbe07df10	-0.13268685
252	0x3e34bfd0	0.17651296
253	0xbf36fa99	-0.7147613
254	0x3b3d60c0	0.0028896779
255	0xbdef0d48	-0.11672455

model/hidden/mid_layer/W f4 [256, 256]
0	0x3c6880ff	0.014190911
1	0xba1d70df	-0.0006005894
2	0xb7b7db1c	-2.191733e-05
3	0xbc255489	-0.0100909555
4	0xbcd2130c	-0.025643848
5	0xbd2b5eb7	-0.041838374
6	0xbc473b13	-0.0121600805
7	0xbc0132f4	-0.007885683
8	0xbb472a5d	-0.003039024
9	0x3c1263fb	0.00893497
10	0x3bdc139f	0.006716206
11	0xba569098	-0.00081849983
12	0xbd4fecd6	-0.050762974
13	0xbc7974da	-0.0152256135
14	0xbc937958	-0.018002197
15	0xbca78a9b	-0.020451834
16	0xbc95f35b	-0.018304517
17	0xbc925b99	-0.017865943
18	0xbcba2c2e	-0.022726145
19	0x3c44e3d7	0.012017212
20	0xbd35ed5a	-0.04441581
21	0xbbdd7f8b	-0.006759589
22	0xbd49988b	-0.049217742
23	0xbc59c660	-0.013291925
24	0xbd0d5738	-0.034507006
25	0xbc2ee62e	-0.010674996
26	0x3b21b949	0.002467709
27	0x391b3fb0	0.00014805677
28	0x3c25ff2d	0.010131639
29	0x3cb110b7	0.021614416
30	0xbc9704bb	-0.018434873
31	0xbccc39d8	-0.024929926
32	0xbc2e92e5	-0.01065514
33	0xbb07bc4c	-0.00207116
34	0x3c015b7e	0.007895349
35	0xbd5a6e97	-0.053328123
36	0xbc63da26	-0.013906991
37	0xba85c468	-0.0010205628
38	0xbc4d7dba	-0.012542183
39	0xbd6d3c3d	-0.057918776
40	0xbd4e3f3a	-0.050353266
41	0xbc27d7e3	-0.0102443425
42	0xbcbde847	-0.023182048
43	0xbc62028c	-0.013794553
44	0x3ab7bbd2	0.0014017767
45	0xb97663d2	-0.00023497574
46	0xbc164678	-0.0091720745
47	0xbc252631	-0.010079906
48	0x3daa98b1	0.08329905
49	0x3b90fe01	0.004424811
50	0xbc4d57fb	-0.012533183
51	0x3b3c2415	0.002870803
52	0xbbde0f4a	-0.006776725
53	0xbcac0f7c	-0.021003477
54	0xbc8dd7f1	-0.017314883
55	0xbd578a9a	-0.052622415
56	0x3c60b844	0.013715807
57	0xbc1c3de4	-0.00953624
58	0xbc9b806e	-0.018982138
59	0xba747546	-0.00093253364
60	0xbb226c6e	-0.0024783867
61	0x3ba00bcf	0.00488422
62	0xbc9cfa9d	-0.01916247
63	0xbd4848dd	-0.048897613
64	0xbcc72324	-0.024308749
65	0xbd5c1438	-0.05373022
66	0xbbdbaa34	-0.0067036394
67	0x3bfec1f1	0.0077745845
68	0xbc1812b5	-0.009281804
69	0xbbe45aba	-0.0069688233
70	0xba6ad81d	-0.0008958595
71	0xbc249b02	-0.010046722
72	0x3ab1c984	0.0013564085
73	0xbcc1e0f3	-0.023666834
74	0xbc7cd4a8	-0.015431561
75	0xbcf5322a	-0.029931147
76	0xbbb314c9	-0.0054651243
77	0x3d0285eb	0.031865995
78	0xbbda9511	-0.006670602
79	0xbc42d4fe	-0.011891602
80	0x3b13ac24	0.0022533024
81	0xbd391a48	-0.04519108
82	0xbaf93310	-0.001901241
83	0xbcfe4996	-0.031040948
84	0xbc29f2a9	-0.010372796
85	0xbd05781a	-0.03258524
86	0xbc1664c3	-0.009179297
87	0xbbc152a3	-0.0058997436
88	0xbc519798	-0.01279249
89	0xbc965be7	-0.01835437
90	0xbc8fd459	-0.01755731
91	0xbb004b8d	-0.0019576282
92	0x3b928909	0.0044719023
93	0xbca1d8f4	-0.019756772
94	0xbcce6514	-0.025194682
95	0x3ca1e14f	0.019760756
96	0xbb12215c	-0.0022297716
97	0xbd2e812b	-0.042603653
98	0xbc8c4d2d	-0.017126644
99	0xbd53a9ef	-0.051675733
100	0xbc78a5fd	-0.015176293
101	0xbd31a657	-0.043371525
102	0xbb987a28	-0.004653234
103	0x3ca55070	0.020179957
104	0x3ca173ae	0.01970848
105	0xbd292a5a	-0.041300155
106	0x3ca40d92	0.020026002
107	0xbd0d9e16	-0.03457459
108	0xbcebb925	-0.028774807
109	0xbcbbca13	-0.022923505
110	0x3af2e6e3	0.0018531944
111	0xbc940781	-0.018069984
112	0xbc32e023	-0.010917696
113	0xbc47b8d7	-0.012190065
114	0x3ca3b82f	0.019985287
115	0xbb7e9b85	-0.003885002
116	0xbbe68705	-0.0070351386
117	0xbcd5ca57	-0.02609746
118	0xba4b6c3b	-0.0007759963
119	0xbb54ed53	-0.003249009
120	0x3cb6d966	0.02232046
121	0x3bb82dc0	0.005620688
122	0xbc1e2925	-0.009653364
123	0xbc638b5e	-0.013888208
124	0xbc2a1795	-0.010381599
125	0xbd133efb	-0.035948735
126	0xbb667f2d	-0.0035171018
127	0xbd0a60fa	-0.03378389
128	0xbc7007fb	-0.01465034
129	0xbd334c49	-0.043773923
130	0xbc5bed6a	-0.013423303
131	0x3c7e893e	0.015535651
132	0xbca13fc1	-0.01968372
133	0xbcd6ff45	-0.026244769
134	0xbcd2ef52	-0.025748882
135	0xbcf8de61	-0.030379476
136	0xbcfff83a	-0.031246293
137	0xbc660768	-0.014039852
138	0xbc96fb8e	-0.018430497
139	0xbc764cd7	-0.0150329685
140	0x3bc3b48c	0.0059724506
141	0xbc2328ac	-0.009958427
142	0x3c67682d	0.014123959
143	0xbc905643	-0.017619258
144	0xbc31e695	-0.010858198
145	0xbc681394	-0.014164824
146	0xbc68d431	-0.014210747
147	0xbb0ad6dd	-0.0021185197
148	0xbb559a99	-0.0032593368
149	0xb9d049ed	-0.0003972793
150	0xbc2a80f3	-0.01040672
151	0xbbb32830	-0.005467437
152	0xbba3d0ad	-0.0049992413
153	0xbd04e2fc	-0.03244303
154	0xba08d2a9	-0.0005219379
155	0xbcf52090	-0.029922754
156	0xbd3e4a84	-0.046457782
157	0x3aae9c6f	0.0013321767
158	0x3a9dab14	0.0012029135
159	0xbb44bbe4	-0.0030019218
160	0xba56a206	-0.00081875955
161	0xbc823c16	-0.015897792
162	0xbc48bc2c	-0.012251895
163	0xbaf8401a	-0.0018940002
164	0x3d1655a4	0.036702767
165	0xbcc7e81f	-0.024402676
166	0x3c2b5d89	0.010459312
167	0xbb4acf31	-0.003094625
168	0xbc92800e	-0.017883327
169	0xbc52e2c6	-0.01287145
170	0xba502afa	-0.00079409743
171	0xbc57202a	-0.013130227
172	0xbc9ebd0e	-0.019377258
173	0x39d9452e	0.00041441008
174	0xbc5e016d	-0.013550145
175	0xba7fb47b	-0.0009754372
176	0xbc32dd21	-0.010916979
177	0xbaf6ae4d	-0.0018820256
178	0x399dd32a	0.00030102703
179	0xbd8bcf61	-0.06826664
180	0xbc2c7600	-0.01052618
181	0xbcb001cc	-0.021485232
182	0xbcbef280	-0.023308992
183	0xbcc33330	-0.023828119
184	0xbcc48a77	-0.023991806
185	0xbce656b2	-0.028117511
186	0xbc1b7392	-0.009488003
187	0xbc9400e0	-0.018066823
188	0xbd10150f	-0.035176333
189	0xbccb3465	-0.024805257
190	0xbcea8790	-0.028629094
191	0x3b744ba6	0.0037276535
192	0xbce3c8a2	-0.02780563
193	0x3b5007de	0.003174297
194	0xb9cc8645	-0.0003900995
195	0xbc346e52	-0.011012631
196	0xbc1c6728	-0.009546079
197	0x3cb4abca	0.022054572
198	0xbd481d65	-0.048856158
199	0x3b7590c6	0.0037470325
200	0x3b911337	0.0044273394
201	0xbc437e89	-0.011932024
202	0xbb45ce78	-0.003018288
203	0xbd123291	-0.035692755
204	0xbbb82b6c	-0.0056204107
205	0xbc72b59d	-0.014813808
206	0xbc424dbc	-0.011859354
207	0xbca766fb	-0.020434847
208	0xbcf3143f	-0.02967274
209	0xbc33a40b	-0.010964404
210	0xbc8e8163	-0.01739568
211	0xbcde333f	-0.027124045
212	0xbc99bcc6	-0.018766772
213	0xbb469184	-0.0030299136
214	0xbcc9c643	-0.024630671
215	0xbcc45056	-0.023964088
216	0xbd89697a	-0.06709571
217	0xbc35c57e	-0.011094449
218	0xbc544ecc	-0.01295824
219	0xbce49574	-0.027903296
220	0xbbcdc0ef	-0.006279103
221	0xbb69c4fd	-0.0035670393
222	0xbc85e378	-0.016343817
223	0x3c198b2d	0.009371561
224	0x3bc64dc7	0.0060517523
225	0xbbd3a273	-0.0064585744
226	0xbcbf53dd	-0.023355419
227	0xbd0fa76a	-0.035071768
228	0x3a9c085b	0.0011904346
229	0xbc66667f	-0.014062523
230	0xba549588	-0.000810944
231	0xbb71cd22	-0.003689595
232	0xbb1b1769	-0.0023665077
233	0xbd07121c	-0.032976255
234	0xbd38a689	-0.045080695
235	0xbc47c58c	-0.012193095
236	0xbacb5c47	-0.0015515172
237	0xbd09e208	-0.033662826
238	0xbaedb7a9	-0.00181364
239	0xbcf484c5	-0.029848466
240	0xbd921024	-0.07131985
241	0xbca8a9ad	-0.02058872
242	0x3aa6a17e	0.0012712923
243	0xbd42af7b	-0.047530632
244	0xbc7b33c7	-0.015332169
245	0xbba7bd33	-0.00511899
246	0xbb991481	-0.0046716337
247	0xbd7bed5a	-0.061505653
248	0xbd36db03	-0.04464246
249	0xbc17e499	-0.0092708105
250	0x3ba34e2b	0.0049836836
251	0xbccd94c7	-0.025095357
252	0xbbab80ce	-0.0052338606
253	0xbc83900c	-0.016059898
254	0xbcd57449	-0.026056426
255	0x3c828a24	0.015935011

model/a_stream/b f4 [3]
0	0x3ca106d9	0.019656586
1	0xbbb65631	-0.005564474
2	0xbb3fd6c8	-0.0029272307

model/hidden/mid_rec_layer/upward/b f4 [80]
0	0xbc907b82	-0.017637018
1	0xbe244393	-0.16041403
2	0x3f371f7e	0.7153243
3	0xbe3a048c	-0.18165797
4	0xbcf61215	-0.030037919
5	0xbcc98eb0	-0.024604172
6	0x3f696191	0.911645
7	0xbd1bfac6	-0.038080953
8	0x3bc13b41	0.005896956
9	0xbe53e8cb	-0.20694272
10	0x3f4b1a2d	0.79336816
11	0xbe6b9354	-0.2300542
12	0xbc15b419	-0.009137177
13	0xbda11201	-0.07864762
14	0x3ef0b83e	0.47015566
15	0xbdd0e92f	-0.10200726
16	0xbc801cd1	-0.01563874
17	0xbd909887	-0.07060342
18	0x3f5d4d2b	0.86445874
19	0xbe198ae0	-0.14994383
20	0xbbbb7add	-0.0057214336
21	0xbe18dc9d	-0.14927907
22	0x3f0aa808	0.54162645
23	0xbe3b09a9	-0.18265404
24	0x3ca9c369	0.020723062
25	0xbe77a716	-0.24184832
26	0x3f26e25e	0.6518916
27	0xbe81d452	-0.253573
28	0x3bf61fcc	0.0075111147
29	0xbe57b23a	-0.21064082
30	0x3f46df24	0.77684236
31	0xbe7395ed	-0.23787661
32	0xbc929313	-0.017892396
33	0xbe7a0600	-0.24416351
34	0x3f483d39	0.7821842
35	0xbe8bfad8	-0.27339816
36	0xbd11cf42	-0.035598047
37	0xbe743d18	-0.2385143
38	0x3f0092d5	0.5022405
39	0xbe93d74b	-0.28875193
40	0xbcd5ea8f	-0.026112823
41	0xbd9069c7	-0.070514254
42	0x3f5e5c69	0.86859757
43	0xbe255203	-0.16144566
44	0xbd316caa	-0.04331652
45	0xbc5aa8e8	-0.013345934
46	0x3f6aa2e9	0.9165483
47	0xbd754b59	-0.05988631
48	0xbd56c6a0	-0.052435517
49	0xbe48df18	-0.19616354
50	0x3f339774	0.70152974
51	0xbe73977c	-0.23788255
52	0xbcd911ca	-0.02649774
53	0xbdaf78c9	-0.0856796
54	0x3f55250c	0.83259654
55	0xbde9cf2b	-0.11416467
56	0x3c75d0d3	0.015003401
57	0xbd9a8c6b	-0.07546314
58	0x3f2cb9a4	0.67470765
59	0xbdeb2a8c	-0.114827245
60	0xbb42ca20	-0.0029722527
61	0xbde08295	-0.109624065
62	0x3ee70102	0.45117956
63	0xbe12ee59	-0.14348735
64	0xbc27b6d3	-0.01023646
65	0xbe819bb4	-0.25314105
66	0x3f55f8c8	0.83582735
67	0xbe7652fb	-0.24055092
68	0x3ce30e15	0.027716676
69	0xbe800400	-0.25003052
70	0x3f1ec6ad	0.62021905
71	0xbe76c97f	-0.24100302
72	0xbcd83e1a	-0.0263968
73	0xbe153074	-0.14569265
74	0x3f3d2f63	0.7390043
75	0xbe00092c	-0.12503499
76	0xbcd3d9c9	-0.025860684
77	0xbd94d59e	-0.07267307
78	0x3f5daeb9	0.8659473
79	0xbd8fd593	-0.07023158

model/hidden/input_layer/W f4 [256, 86]
0	0xbcac71cf	-0.021050362
1	0x3d0f8049	0.03503445
2	0xbbec4609	-0.0072104973
3	0xbd7053e4	-0.058673754
4	0xbdf295ed	-0.11845002
5	0x3c84b49d	0.016199404
6	0x3dfcbfda	0.1234128
7	0xbc64ee62	-0.0139728505
8	0xbe8c60dc	-0.27417648
9	0x38abc30f	8.190248e-05
10	0xbd37c80c	-0.044868514
11	0x3c681957	0.014166198
12	0x3caf4c1f	0.021398602
13	0xbd6c67a1	-0.057716016
14	0xbc341660	-0.010991663
15	0x3e302e46	0.17205152
16	0x3da3a394	0.079901844
17	0xbbd92998	-0.006627273
18	0x3d2bd7d4	0.041953877
19	0x3d385edc	0.04501234
20	0x3ba8468a	0.005135362
21	0x3e07b5b9	0.13252915
22	0x3d86e677	0.065869264
23	0xbc41d00c	-0.011829387
24	0xbe576ff1	-0.21038796
25	0x3cb26142	0.021774892
26	0x3ba8e232	0.0051539177
27	0x3e65fcfe	0.2245979
28	0xbe01d8a8	-0.12680304
29	0x3c9b9c57	0.018995447
30	0xbdc352fb	-0.09537312
31	0xbe5c0be8	-0.21488917
32	0x3ce1138d	0.027475143
33	0xbd13fc53	-0.036129307
34	0xbd3eb492	-0.046558924
35	0xbb32b856	-0.0027270517
36	0xbc9d3cdb	-0.019194057
37	0x3d8ff469	0.070290394
38	0x3ad81a95	0.0016487414
39	0xbd138da5	-0.036023755
40	0xbbebee4a	-0.007200037
41	0xbc26ef57	-0.010188899
42	0x3d9db8d7	0.07701271
43	0x3e1e51ab	0.15460841
44	0x3bfe9aa8	0.0077699013
45	0x3dfb6b42	0.12276317
46	0x3d99d031	0.075104125
47	0xbe37708e	-0.1791403
48	0x3ca2d244	0.019875653
49	0x3d49acbe	0.049237005
50	0x3d30925c	0.04310833
51	0xbe388253	-0.18018465
52	0x3d00a14e	0.031403832
53	0xbe01ff9f	-0.12695168
54	0x3d5c6adc	0.053812847
55	0x3dcb4489	0.099251814
56	0xb9bc7185	-0.00035942733
57	0x3d86bb29	0.06578667
58	0xbdfd1a7a	-0.12358566
59	0x3a9e978a	0.0012099606
60	0x3cc14a77	0.023595078
61	0xbd06f946	-0.03295257
62	0xbd686c51	-0.056743924
63	0xbd487fe4	-0.04895009
64	0xbdf571ed	-0.1198462
65	0xbe89670f	-0.2683644
66	0xbe559889	-0.20858969
67	0x3dfe52fe	0.12418173
68	0x3cefbaa3	0.0292638
69	0xbe1fb29c	-0.15595478
70	0xbe0e7abc	-0.13914007
71	0xbc2995d0	-0.0103506595
72	0x3df42ceb	0.1192263
73	0x3d7b8e80	0.061415195
74	0x3bdcb63f	0.0067355926
75	0x3da364e9	0.079782315
76	0xbd66f268	-0.05638352
77	0xbdb31c91	-0.08745683
78	0xbde10fba	-0.10989328
79	0xbdd22523	-0.102609895
80	0xbc5b64d0	-0.013390735
81	0xbdc3cd67	-0.09560662
82	0x3d164f02	0.03669644
83	0x3d2b0826	0.041755818
84	0xbdeef20b	-0.1166726
85	0xbc81dc8d	-0.015852237
86	0xbca827f2	-0.02052686
87	0xbc9bc214	-0.019013442
88	0xbb594401	-0.0033152106
89	0xbc9ff7c9	-0.019527333
90	0xbca38321	-0.019959988
91	0xbc5e85cb	-0.013581703
92	0xbcaf9d97	-0.02143745
93	0xbd1837b5	-0.0371625
94	0xbc159434	-0.009129573
95	0xbb654d3b	-0.003498866
96	0xbd00d2c5	-0.031451005
97	0x3bd0ac02	0.006368161
98	0xbc4a2400	-0.012337685
99	0xbc698cc5	-0.0142547535
100	0xbc4c378e	-0.012464417
101	0xbb6518dd	-0.0034957447
102	0xbca0563c	-0.01957237
103	0x3c0cfff3	0.008605945
104	0xbbcd7ec5	-0.0062712156
105	0x3c886926	0.016651701
106	0xbade94a4	-0.0016981554
107	0xbbebf71f	-0.00720109
108	0xbc9fad91	-0.019491943
109	0x3b878a1c	0.004136337
110	0xbc06e498	-0.008233212
111	0xbd29c503	-0.04144765
112	0xbbaa743e	-0.0052018454
113	0xbb708eb4	-0.0036706151
114	0x3c7e6e24	0.015529189
115	0xbbc1867f	-0.0059059258
116	0xbc8ffeb5	-0.017577508
117	0xbbceb7b0	-0.0063085184
118	0xbbf0e40e	-0.007351405
119	0xbbcd5051	-0.006265678
120	0xbcd70c48	-0.026250973
121	0xbbcaf896	-0.0061941845
122	0xbc587562	-0.01321158
123	0x3c094beb	0.008379917
124	0x3bed3241	0.0072386567
125	0x3b673102	0.0035277014
126	0xbcbf1dc6	-0.023329627
127	0xbbb26d1b	-0.0054451353
128	0x3b64631f	0.003484912
129	0xbca959a0	-0.02067262
130	0x3b672521	0.0035269933
131	0xbc4558f9	-0.0120451385
132	0xbc987d40	-0.018614411
133	0xbced8a7e	-0.028996702
134	0x3bf74bed	0.007546893
135	0xbccbd873	-0.024883484
136	0xbca94997	-0.020664973
137	0x3c898458	0.01678674
138	0xbbbd5933	-0.0057784556
139	0xbbcc70da	-0.006239039
140	0xbc444dac	-0.011981409
141	0xbcc81818	-0.024425551
142	0x3c829b65	0.015943239
143	0x3c3fd100	0.011707544
144	0xbcc22cd6	-0.02370302
145	0x3c725514	0.014790792
146	0x3bfc322c	0.0076964106
147	0x3c561ab8	0.013067894
148	0xbc97a2bc	-0.018510215
149	0x3be7a81c	0.0070696007
150	0xbc926686	-0.017871153
151	0x3c0dfb47	0.008665866
152	0x3c223c44	0.009902064
153	0x3b05480c	0.0020337133
154	0xbc5f55fe	-0.013631342
155	0xbc7f028c	-0.015564572
156	0xbbfec5c5	-0.007775041
157	0xbb8a6ae8	-0.00422417
158	0xbc0d6b96	-0.0086316075
159	0xbcaa7131	-0.020805927
160	0x3b3d40aa	0.0028877654
161	0xbc9efc68	-0.019407466
162	0x3a6076c9	0.0008562622
163	0x3c3b81e1	0.01144454
164	0xbcd8b06c	-0.026451312
165	0xbce58568	-0.028017715
166	0xbce69105	-0.028145323
167	0x3c2e629b	0.010643627
168	0xbc87e2c2	-0.016587619
169	0xbcf4b276	-0.029870253
170	0xbc83b07b	-0.016075363
171	0xbcf7e027	-0.030258251
172	0xbdc55d9c	-0.09636995
173	0x3b315f76	0.0027064956
174	0x3c84af26	0.016196799
175	0xbd62c93b	-0.05536769
176	0xbd5d7880	-0.054069996
177	0xbd6dc445	-0.058048505
178	0xbcb3dbe5	-0.02195544
179	0x3c60d0b4	0.013721634
180	0xbec6442f	-0.38723895
181	0x3b12e396	0.0022413484
182	0x3d0c90b1	0.034317676
183	0xbc52dd58	-0.012870155
184	0xbd8320e0	-0.06402755
185	0x3d9cdcde	0.076593146
186	0x3c1a9909	0.0094359005
187	0xbd1a376c	-0.03765051
188	0x3e7dcceb	0.24785201
189	0x3caa0bb0	0.020757526
190	0x3ce9afa2	0.028526131
191	0x3cb0d498	0.021585748
192	0xbad3d9e2	-0.0016162957
193	0x3e272545	0.16322811
194	0x3d37c1ad	0.044862438
195	0xbc263ccc	-0.010146331
196	0xbcac5f9c	-0.021041684
197	0x3cb2fecf	0.021850018
198	0xbaf10cf4	-0.0018390701
199	0x3ceecde8	0.029150918
200	0x3c714bfa	0.014727587
201	0xbc94ba0a	-0.018155117
202	0x3d9cda04	0.07658771
203	0xbd2441d5	-0.040101845
204	0x3b51209a	0.0031910301
205	0x3a515606	0.0007985536
206	0x3dbd1ef6	0.09234421
207	0x3c1c482e	0.009538693
208	0xbd879114	-0.06619468
209	0xbd72314e	-0.059129052
210	0x3c82d209	0.015969293
211	0xbde2d227	-0.1107524
212	0xbc4275fc	-0.01186895
213	0xb9d21233	-0.0004006788
214	0x3bd720b6	0.0065651787
215	0x3d08323a	0.033251025
216	0xbba4fb98	-0.005034875
217	0x3dc7107b	0.0971994
218	0x3ca75a39	0.020428764
219	0xbdbbaba3	-0.091635965
220	0x3d842f50	0.06454337
221	0xbde769a6	-0.11299448
222	0x3e3d1d99	0.18468322
223	0xbe0aba00	-0.13547516
224	0x3caaf010	0.020866424
225	0xbd4159a2	-0.04720462
226	0xbe21dc18	-0.15806615
227	0xbd52e42d	-0.051487137
228	0xbb39112f	-0.0028239002
229	0x3e10a9aa	0.14127222
230	0xbdbba7a5	-0.09162835
231	0x3c3da7fe	0.011575697
232	0x3d94c775	0.07264606
233	0xbdbd7a38	-0.09251827
234	0xbd359f38	-0.044341296
235	0xbd40cd00	-0.047070503
236	0xbdcd7188	-0.1003142
237	0xbe34c09e	-0.17651603
238	0xbd8aa7e9	-0.067703076
239	0xbd052cd5	-0.03251346
240	0xbe40b3d9	-0.18818606
241	0x3e0bbab5	0.13645442
242	0x3d262e6f	0.040571626
243	0x3c17695f	0.009241431
244	0x3d80d97c	0.06291482
245	0xbcd7e92b	-0.0263563
246	0xbbe4df42	-0.006984622
247	0xbdb0df4b	-0.0863634
248	0xbd84ae6c	-0.06478581
249	0xbe661cb5	-0.22471888
250	0x3d115126	0.03547778
251	0x3d34e78f	0.044166144
252	0x3daa6ad4	0.08321157
253	0xbca24916	-0.01981024
254	0x3dced3ac	0.10098967
255	0xbdac3d0f	-0.084100835
