ai_challenge/results/simulation_DoubleDQN_DuelingRecNN_2017-05-20T11:17:03.15/60014/target_model.npz (npz, 610926 bytes, 12 tensors)

model/hidden/input_layer/b f4 [256]
000000 e4 f1 b5 3b 51 e5 c4 bc 70 d0 02 bb 29 22 88 3b
       0.0055525173 -0.024035128 -0.0019960664 0.004154463
000010 0f 63 aa bb a9 b4 7d 3b 34 b2 f7 bc c7 81 95 bb
       -0.005199797 0.0038712418 -0.030236341 -0.00456259
000020 8e 9a 96 bb aa 0a 61 bb 80 94 36 3b 24 de 22 3a
       -0.004596061 -0.0034338632 0.002785951 0.0006212911
000030 fb ac a1 3b db f2 ce ba dc e8 a9 bc f6 df 42 3c
       0.004933951 -0.0015788929 -0.020740919 0.011894217
000040 c9 f7 05 bb 2c a9 bb 3b 9f d8 15 bb 06 29 57 bc
       -0.002044188 0.005726954 -0.0022864712 -0.013132339
000050 8f ca a1 bc 4f 3c 8b bc 5f ea e2 3b ea 5e 1e 3b
       -0.019749908 -0.01699653 0.006924912 0.002416546
000060 b6 b3 b1 3b 31 4c c8 bc ae fc 53 bc 18 49 85 bc
       0.0054230345 -0.024450393 -0.0129386615 -0.016270205
000070 da e1 ac bb 40 ab d2 bb 95 1a 17 bc 3e 85 12 bc
       -0.005275947 -0.006429106 -0.009222646 -0.0089429
000080 a7 99 ff bb 9d 4a ec bb e2 9a c3 bc ea 54 00 bc
       -0.007800299 -0.007211043 -0.023877565 -0.007832745
000090 d0 c3 ad bc 63 1b 97 3c 19 54 c5 bc 51 41 df bb
       -0.021211535 0.018445676 -0.024087952 -0.0068132062
0000a0 c1 cf cd 3c dd 24 b7 3c 16 91 16 ba e6 dc b5 bc
       0.025123479 0.022356445 -0.00057436654 -0.02220006
0000b0 5c 6e 03 3c 61 3f a3 bb 18 7f df bb b8 2a db 3b
       0.008021917 -0.0049819206 -0.0068205707 0.006688442
0000c0 84 72 5a ba d1 5f 06 bc 50 60 91 3c fb cd a1 bc
       -0.0008333104 -0.008201555 0.01774612 -0.01975154
0000d0 96 a1 b0 bb d2 7f bd 3b 5a 35 8e bc 7c db 76 bb
       -0.0053903563 0.0057830596 -0.017359424 -0.0037667444
0000e0 b7 b9 0a bb b8 4f f4 3c 38 22 61 bb 02 b3 37 3a
       -0.0021167824 0.02982317 -0.0034352671 0.000700757
0000f0 68 89 6e bc d4 46 a6 bb 66 93 b1 3b 95 72 06 3b
       -0.014559127 -0.0050743613 0.0054191826 0.0020515074
000100 cf 90 87 3c d0 e6 fe bb ec e0 cc bc a0 eb 4d 39
       0.016548542 -0.00777898 -0.025009595 0.000196381
000110 ad e0 5a bc 6d 3b c3 bc 98 3a 10 bd 07 2a 71 3b
       -0.013359231 -0.023832047 -0.03521213 0.0036798732
000120 a4 3d c4 bc d1 4a 02 bc df 0f df 3b b8 55 15 bc
       -0.023955174 -0.007952408 0.006807312 -0.009114675
000130 f3 b0 12 bd ed 48 b4 b9 4e 69 80 3c 27 22 44 bc
       -0.035813283 -0.0003438661 0.015675213 -0.011971033
000140 81 95 8c bc 27 5d 96 bb 6f aa bf bc bd 0b 0c bb
       -0.017161133 -0.0045887413 -0.023396699 -0.0021369301
000150 ef 43 b5 bb c5 4f 8d bc f4 85 e5 3b 13 b5 a9 bc
       -0.00553178 -0.017249951 0.007004494 -0.020716226
000160 34 78 d4 bb 13 f4 d4 ba da c6 0c 3c df 83 da 3c
       -0.006484056 -0.0016247056 0.008592332 0.02667421
000170 b3 2a 1e bb 1d 5f e1 3c 22 33 81 b9 fd f8 9f 3c
       -0.0024134337 0.027511174 -0.00024642894 0.019527907
000180 6e 76 f4 bb c8 bf 6e bc 39 5b ac bb 64 fd 13 3c
       -0.007460407 -0.014572091 -0.005259898 0.009032581
000190 f8 5d e1 bb 23 13 26 bb 98 02 46 bb 53 43 c6 bb
       -0.006877657 -0.0025340996 -0.0030213948 -0.006050506
0001a0 70 c6 06 bb b7 7b 57 3a df e3 6c bc 43 47 30 3b
       -0.0020565055 0.0008220034 -0.014458626 0.0026897944
0001b0 e1 67 ea 3c 8f 4e 89 bc 74 d7 13 bb 4a ce 69 bc
       0.028613986 -0.016761092 -0.002255884 -0.014270375
0001c0 94 56 90 bb 24 4b d5 bc c9 bd 7a 3b bc bc aa bc
       -0.004404852 -0.026036806 0.0038260093 -0.020841949
0001d0 6c ab eb ba ea 9b a8 bc 53 fc 63 bc be 2b e6 b9
       -0.0017980165 -0.020582158 -0.013915139 -0.0004390161
0001e0 72 97 20 bc 3d 90 8a bb 93 58 85 bc 73 79 94 bc
       -0.009801732 -0.0042286203 -0.016277587 -0.018124318
0001f0 a6 8c 38 bc ef 36 ed bc 85 26 ae bb 86 dd 95 bc
       -0.011264002 -0.028956858 -0.0053146505 -0.018294107
000200 cb 23 8b bc 2c ff 0a 3c 45 f3 96 bc e8 1f b3 3b
       -0.01698484 0.008483689 -0.018426547 0.00546645
000210 89 11 ef 3c 02 ca 08 bc 20 d6 c3 bc ac 9d c0 3c
       0.029183166 -0.008348944 -0.023905814 0.023512684
000220 4f 9f 1e bb 0d d6 65 bc 06 23 b9 bc 3d 28 95 bb
       -0.0024203842 -0.014028084 -0.022599708 -0.004551916
000230 06 05 c4 bc bd 89 9f ba 77 2c 6a 3b 87 f0 71 bb
       -0.023928177 -0.0012171787 0.003573207 -0.0036917047
000240 05 6f 04 bc 8c f4 ff bc d4 54 55 bc 3f e7 41 bc
       -0.00808311 -0.031244539 -0.013020713 -0.0118349185
000250 85 a5 62 3c 56 dc d0 bc a5 48 4c bc d8 14 18 3d
       0.013833408 -0.02549569 -0.012468492 0.037129253
000260 6d 24 99 bc 9b 59 b7 ba a7 e1 cb bc 0f 29 d0 3b
       -0.018694127 -0.0013988497 -0.024887873 0.006352551
000270 c7 93 0d 3d 43 9b 09 3c 56 dd 28 b9 66 4e 0c bc
       0.03456476 0.008398834 -0.00016104183 -0.0085636135
000280 85 1f e3 bc 9a 11 8a bc 17 3b af bc 0c 30 05 bb
       -0.02772499 -0.016854096 -0.02139048 -0.0020322828
000290 26 b5 1f 3d cf 10 d1 3b f3 59 e8 bb 1a 21 33 bc
       0.038991116 0.0063801776 -0.007090801 -0.010933185
0002a0 91 75 fd bb 3e 14 2c 3b 83 b1 a5 3c c0 72 52 bc
       -0.0077349623 0.0026257182 0.020226246 -0.012844741
0002b0 4c 16 8f bc 08 c1 3e bc 18 55 94 bc e4 f1 2c bb
       -0.017466687 -0.011642702 -0.018106982 -0.0026389295
0002c0 dc 5a 15 bd 6f 7b 08 3d a7 f8 89 3c 2e 64 8e bb
       -0.036463603 0.03332084 0.0168422 -0.0043454384
0002d0 98 0b 97 3b d3 cb 2f bc 24 86 4c 3a e7 33 58 bb
       0.0046095364 -0.010729748 0.0007801971 -0.003298992
0002e0 74 e5 9e 3c dc bf 66 bc 54 8b 5e bc ad 32 c8 bc
       0.019396521 -0.014083829 -0.013583023 -0.024438227
0002f0 22 a4 d8 3a 45 a4 9f bc 24 00 37 bc 6b d4 f8 bb
       0.0016528408 -0.01948751 -0.011169467 -0.0075936816
000300 59 f8 21 bb 8d 46 c8 bb 63 fa 9d 3b 09 91 cb 3b
       -0.0024714677 -0.006111926 0.004821108 0.006212358
000310 37 80 c3 bb 64 03 6e 3c 4c ed 79 3c a9 5c df bb
       -0.005966212 0.014527176 0.01525433 -0.006816466
000320 c6 4c 80 bb fb db fb bb e0 4a ba bb 0b 7e b4 3c
       -0.003915402 -0.007686136 -0.0056851953 0.022032758
000330 9d 2d 65 bc df a1 2a 3c 71 7d 3e bc e1 7b 7c bb
       -0.013987926 0.01041457 -0.011626587 -0.0038525986
000340 eb 53 02 3c 4b 5b 29 3b f5 67 3c bb b0 e1 07 3d
       0.007954578 0.0025841768 -0.0028748487 0.033174217
000350 23 ac b3 3c 94 9a 1d bc de cb 43 bc 79 34 bd bb
       0.021932667 -0.009619374 -0.011950461 -0.0057740775
000360 67 df 1f 3d 04 67 d9 bc c3 0a f8 bb 56 6e 1f 3c
       0.039031412 -0.02653838 -0.0075696423 0.009730896
000370 57 8e 29 ba 11 9b 8e bc 79 53 5d bb ae 08 a7 bb
       -0.00064680487 -0.017407926 -0.0033771677 -0.0050974702
000380 3c 84 92 bc 14 7a b2 bc 95 ae cc bc c5 59 88 bb
       -0.01788532 -0.021786727 -0.024985591 -0.004161092
000390 e8 93 e3 3c 8f f1 82 bc 47 27 98 bc 8a 4d 3b 3c
       0.027780488 -0.015984325 -0.018573416 0.011432061
0003a0 9b 39 c7 bc e8 c1 e3 3c d2 de e5 bc 9c 9c 3a b8
       -0.02431946 0.027802423 -0.02806035 -4.449171e-05
0003b0 6d ae 28 3b fa 8b 38 3b 7c 01 0c bc 82 42 ca bb
       0.0025738731 0.0028159604 -0.008545276 -0.006172479
0003c0 53 7c bd bc 05 97 bd 3c 91 5a 6e bc 20 0c 07 bc
       -0.023130571 0.0231433 -0.01454796 -0.008242637
0003d0 26 02 98 bc 68 dd 04 3d e0 15 1d bb 16 67 fb bb
       -0.018555712 0.032437712 -0.0023969337 -0.007672201
0003e0 b8 70 40 3c 36 46 68 bb 40 06 3e 3a 9d e1 e1 3b
       0.011745624 -0.003544224 0.0007248856 0.0068933503
0003f0 03 00 2a bb 0b 11 98 ba fd bc 0f 3c 37 a3 13 bc
       -0.0025939948 -0.0011601759 0.008773086 -0.009011081

model/hidden/output_layer/b f4 [256]
000000 95 7d 64 3b 3c d0 34 bc 20 f9 4f 3c f3 9d f0 bb
       0.0034864892 -0.011035975 0.012693673 -0.0073430478
000010 4b a5 b4 bb 0c 92 9f bb 13 b1 c8 3b 42 3a 4a ba
       -0.0055128685 -0.004869705 0.0061246245 -0.00077143696
000020 f4 81 be 3a de b3 bd 3b 52 9d 75 ba fe a0 1d 3a
       0.0014534579 0.005789264 -0.0009369451 0.00060130644
000030 2c b4 85 b9 9b 42 ee 3b 5f 34 a2 3b 2f 74 7c 38
       -0.00025501975 0.0072711236 0.004950091 6.0189686e-05
000040 83 0a c3 39 ac 90 89 bb 3b 68 e3 b9 f8 22 2f b9
       0.0003720113 -0.0041981544 -0.00043374472 -0.00016702327
000050 70 4f f2 3b 64 5f 13 b9 d0 ce 89 39 b0 bc 86 bb
       0.0073947236 -0.00014054548 0.00026284764 -0.004111849
000060 21 c2 a6 3b 17 45 07 bc a2 db c7 3a 70 3b 44 3b
       0.00508906 -0.008256218 0.0015247951 0.0029942654
000070 9f 4a d6 39 fc a1 e7 ba be 0d 2f ba 7b f7 6f 3b
       0.00040872858 -0.0017672176 -0.0006677768 0.0036616016
000080 40 75 49 bb b9 65 81 3b f0 ca 96 bb ba 49 24 bb
       -0.0030740052 0.003948894 -0.0046018288 -0.0025068359
000090 8a db 52 b8 e4 53 f6 bb 45 3e 49 bc 95 c1 e8 3b
       -5.0272363e-05 -0.0075173248 -0.012282913 0.007103155
0000a0 4f 53 39 3a 8a 53 d3 bb f7 21 ab bb 2a e4 ca bb
       0.0007069604 -0.0064491676 -0.005222555 -0.00619175
0000b0 1e f7 c3 ba 8a 40 0d bb c3 79 e0 3b e0 69 9d 3b
       -0.0014950966 -0.002155336 0.0068504526 0.004803881
0000c0 f0 89 a7 3a 1b f0 b8 b9 5f 37 a7 bb 13 73 45 3b
       0.0012782197 -0.00035274107 -0.0051030363 0.0030128404
0000d0 e6 28 3f 3b 99 0e 59 3b c2 37 c7 3b b6 db 30 b8
       0.0029168664 0.0033120273 0.006079645 -4.216629e-05
0000e0 65 83 34 bb b0 2a 8a 3b 16 2d e0 ba 6c ee 83 3b
       -0.0027544138 0.0042165145 -0.001710328 0.004026225
0000f0 5c b8 c1 bc b2 35 9e ba 1e da 37 3c b3 3c 9d bb
       -0.02364748 -0.0012070446 0.011221437 -0.0047984957
000100 14 99 39 bb 46 09 02 3c 82 a1 e6 ba ff 8c b3 3b
       -0.0028320001 0.007936781 -0.001759574 0.0054794545
000110 29 8c fa bb 94 1e 25 3b ac fa 69 3b d1 df 03 3c
       -0.007646103 0.0025195228 0.003570239 0.008048967
000120 02 59 aa bb 13 13 be 3b 3c 3b d3 ba 87 70 21 3c
       -0.005198599 0.0058006137 -0.0016115676 0.009853489
000130 05 f1 7a bc b7 c9 a9 bc f2 ad 98 3b 58 01 16 ba
       -0.015316253 -0.020726068 0.004659408 -0.0005722246
000140 09 c5 a9 3b a1 14 51 3c 64 03 c7 ba 21 bf 25 ba
       0.005180959 0.012761266 -0.0015183506 -0.0006322731
000150 7d 8c e2 39 1d 88 1b bb 6e 4b d5 ba 79 08 09 bb
       0.0004321075 -0.0023732253 -0.001627309 -0.002090959
000160 09 e0 3d bb 6e 04 0c 3c 6c 6d c0 ba cd d0 b9 3b
       -0.0028972647 0.008545978 -0.0014681048 0.005670643
000170 a0 96 f9 3b d8 0b b1 3a 84 ec ba 3b 87 28 00 3c
       0.007616833 0.0013507558 0.0057044644 0.0078221625
000180 25 75 32 bb ba 9f 0b bb bf bb 48 3c ee f9 d1 39
       -0.0027230468 -0.0021304921 0.012251793 0.000400498
000190 9c 5e 7d ba a9 ab c8 3a 56 aa b0 3b 6b c0 1c 3c
       -0.0009665282 0.0015309948 0.0053913994 0.00956736
0001a0 a5 e0 f0 bb d0 f8 02 3a db 5d e0 bb 10 bb 45 bb
       -0.0073509985 0.00049961824 -0.006847126 -0.0030171312
0001b0 86 93 ec bb 94 10 84 3b cf 4a c6 bb bc c5 5d bc
       -0.0072197346 0.0040302966 -0.0060513983 -0.013535913
0001c0 18 1a fd ba 52 33 ef bb b0 13 6a bc 16 5a 0f 3c
       -0.0019310145 -0.007299819 -0.01428692 0.0087495055
0001d0 64 09 a2 3b 3e f0 2e bb 76 ee 53 3c 0a 22 05 39
       0.004944967 -0.0026693488 0.0129352715 0.00012696549
0001e0 f0 33 9a bb b6 51 d5 bb 03 fd de 3b 0d cb 05 bc
       -0.0047058985 -0.006509985 0.0068050637 -0.008166087
0001f0 ed 3e 06 3b fa 80 06 3c 76 b9 41 3c 38 0c ed ba
       0.0020484284 0.008209461 0.0118240025 -0.0018085307
000200 37 5f 98 ba c2 f7 26 bc b7 a0 c8 3b 75 16 22 39
       -0.0011625056 -0.010190906 0.0061226743 0.0001545789
000210 67 72 c4 bb 8b 70 9d 3b 02 ea 80 3a 48 2e c0 bb
       -0.005995083 0.004804676 0.0009835365 -0.005864892
000220 6a 4a 96 3b 2d 1b 4c 3b 5d dd 91 3b 86 08 2b 3c
       0.0045865076 0.0031144128 0.0044514374 0.010439044
000230 84 51 c2 3b 15 c7 a2 3b 28 3c d2 bb d8 f3 47 3a
       0.0059301276 0.00496758 -0.0064158626 0.0007627583
000240 d9 33 1b 3c 00 a2 ca 3b ce ae ea 3a e4 4e 48 3b
       0.009472811 0.0061838627 0.0017904879 0.00305646
000250 51 51 9f 3b 5f a4 a3 bb 3b 41 4e 3b be f7 2e 3c
       0.0048619886 -0.00499396 0.0031471986 0.0106791835
000260 1c 29 10 bc d8 90 d5 3b 03 ef 9b 3b aa 5e c5 bc
       -0.008798864 0.006517511 0.004758717 -0.02409299
000270 10 26 1a 38 c6 16 c0 3b d2 cb c2 3b 58 9b 0f 3b
       3.675191e-05 0.00586209 0.0059447074 0.002191266
000280 7d 7d db ba 50 c8 82 3a d4 d3 d9 ba 8c 33 46 3c
       -0.0016745772 0.0009977911 -0.0016618916 0.012097251
000290 10 d2 f0 3a 31 95 b0 bb 4e 8c 92 ba 07 42 0b 3b
       0.001837315 -0.0053888788 -0.001118073 0.0021249072
0002a0 b8 97 c6 3c e9 da ae bb ad fc d5 3b ee dd 61 bb
       0.024242267 -0.0053361547 0.0065303654 -0.0034464556
0002b0 4a 72 2c bb 84 a2 1b 3a 33 4f 85 bb 86 bd 33 ba
       -0.0026313239 0.00059369975 -0.004068279 -0.00068565493
0002c0 27 e5 b4 bb c8 63 95 bb 22 61 7e 3b 0f 45 75 3a
       -0.005520481 -0.004559014 0.003881522 0.0009356299
0002d0 f0 96 fc 3a 85 ad 9b ba 7b 64 7c 3b c1 f8 ba bb
       0.0019271057 -0.0011877274 0.003851204 -0.0057059233
0002e0 75 d4 f9 3b 07 d4 4c 3c b6 f0 12 bc 25 64 72 bb
       0.007624204 0.012501723 -0.008968523 -0.003698596
0002f0 58 61 90 39 33 b7 28 39 b7 82 80 bb 8d e8 7a bb
       0.00027538347 0.00016089976 -0.0039218324 -0.0038285584
000300 39 2a e0 3b dd 76 b4 bb 93 e4 06 3c 47 0b ab 3a
       0.006840971 -0.0055073337 0.008233207 0.0013049626
000310 10 8d 4e 3c d4 9b 68 3b 38 05 44 3b 51 89 e6 38
       0.012606874 0.0035493271 0.0029910337 0.00010992832
000320 1e 8a 1b 3b 38 a3 57 3b 05 89 e8 bb 32 bf ef bb
       0.0023733447 0.0032903682 -0.007096412 -0.0073164934
000330 7a 3c 7b ba 10 6d 81 3b e3 4b e0 bb 55 68 09 3c
       -0.0009583902 0.003949769 -0.006844984 0.008386691
000340 f7 8f a4 3b e7 d9 b7 3b 0b b7 8b 3b d5 32 cb b9
       0.0050220448 0.005610693 0.004263764 -0.0003875705
000350 e7 58 8a 39 e9 7e a4 b9 c0 44 f3 ba c9 c9 99 bb
       0.00026387649 -0.00031375073 -0.0018559918 -0.004693244
000360 0b bf 29 3b 09 31 39 bb d6 f7 ea ba f3 fa fd 3b
       0.0025901224 -0.0028257987 -0.0017926644 0.0077508627
000370 b7 ca 6f bb 31 1f 5c 3b f2 49 fd b9 3a e2 e3 3b
       -0.0036589333 0.0033587927 -0.00048311014 0.0069544585
000380 73 43 93 bb e2 94 f8 ba ce 44 88 ba 35 ae e2 bb
       -0.0044941246 -0.0018965269 -0.0010396482 -0.0069177398
000390 5d 14 c3 bb c7 27 e4 3b 58 0b 89 bb 1c 57 f1 3a
       -0.005953355 0.0069627496 -0.0041822605 0.0018412801
0003a0 10 8c 2b bc d1 36 bb ba f9 30 26 bb ce 0c 07 bb
       -0.010470405 -0.0014283304 -0.002535878 -0.0020606997
0003b0 02 cb 92 bb 13 74 02 3c eb 3a ee bb 27 da b9 ba
       -0.004479767 0.007962245 -0.007270207 -0.0014179394
0003c0 98 08 56 3b 9d 8f bd bb 1b 55 14 3c d1 96 4e 3c
       0.003265893 -0.0057849423 0.009053494 0.0126092
0003d0 19 1e cc 3a 3c 64 aa bb 63 6c fd ba f5 8b b5 3b
       0.0015572935 -0.005199937 -0.001933467 0.005540366
0003e0 05 e3 d2 ba 10 ce 08 3b 3e 25 d2 ba a2 c5 81 bc
       -0.0016089386 0.0020874776 -0.0016032828 -0.015841309
0003f0 e7 b4 85 3b 5b b5 bc ba a5 03 b2 3b 68 e3 ac 3b
       0.004080403 -0.001439731 0.0054325634 0.0052761324

model/a_stream/W f4 [3, 256]
000000 6d 54 30 3d 38 21 45 bd 0d e0 0d bc c5 e2 f0 3b
       0.043049265 -0.048127383 -0.008659375 0.007351252
000010 61 ba 68 3d 49 3f 19 3a ac b4 49 3a d9 21 38 3d
       0.05681837 0.0005845917 0.0007694464 0.044954155
000020 fb 2e 63 3d b3 ce ba 3c 52 1d 1f bd 20 8c b7 3a
       0.055464726 0.02280364 -0.03884632 0.0014003552
000030 b0 65 0c 3b 0a e0 27 bc 83 f6 b7 bd 8a 84 9b bd
       0.0021422915 -0.010246286 -0.08982565 -0.07593639
000040 58 95 f9 3c f1 0a d7 3d 89 c2 3b 3c f9 de 0b 3d
       0.03046672 0.10500134 0.011459955 0.03414819
000050 2a 71 30 3d 93 e8 96 bd bd f9 60 be 2b a4 9e 3d
       0.04307667 -0.07368579 -0.21970268 0.07746156
000060 e7 7f f0 bb 6b 61 1b 3d 67 0b cc 3c 15 e4 c4 3c
       -0.007339466 0.037934702 0.02490778 0.02403454
000070 e6 f5 bd bc f8 66 9d bd ed a3 af bd 09 b3 6d 3c
       -0.023188543 -0.07685655 -0.08576188 0.014508017
000080 89 58 a2 bd 5a e1 bc b9 a2 8e 14 3d 92 1b 38 3d
       -0.07927043 -0.00036026054 0.036268838 0.044948168
000090 d6 c9 14 bd 95 5c 1a bc fb 7e aa 3c e5 1d 05 bb
       -0.0363253 -0.009421487 0.020812502 -0.0020312008
0000a0 d7 0e 45 39 5c ea fb bc 9b 04 5a bc 4d f9 3f 3d
       0.00018792912 -0.0307514 -0.013306762 0.04686861
0000b0 2a c9 db 3d 41 45 94 bd 14 fd 6b 3c 6c 80 0d 3e
       0.107317284 -0.07239772 0.0144036 0.1381852
0000c0 f5 31 9a bb f4 07 3c 3d 96 04 47 3d 69 6e 81 3c
       -0.0047056624 0.045906022 0.048588358 0.015799718
0000d0 3f ef 0a 3e b4 a9 b0 3c 3f 1e 14 3c 06 7f ac 3c
       0.13567828 0.021565296 0.009040414 0.021056663
0000e0 50 3d b0 3d 11 dd d4 bd 90 a2 18 bb fe ae c1 bb
       0.086054444 -0.103937276 -0.0023290254 -0.0059107533
0000f0 35 41 95 3d e1 54 99 bb 45 a2 58 3b e0 fc 6e bd
       0.07287828 -0.004679308 0.0033055705 -0.05834663
000100 f0 81 71 3c 21 25 d5 3c 55 43 4a 3d a0 10 33 bd
       0.014740452 0.026018681 0.04938062 -0.043717027
000110 5e 9f 24 bc 43 d4 06 3d 5f d2 a1 bc 8c 92 77 ba
       -0.010047762 0.032917272 -0.019753633 -0.00094441394
000120 74 7f 97 3c 4f 12 ab bc b8 46 ca 3c 1f f9 92 3c
       0.018493392 -0.020882754 0.024691924 0.017941056
000130 03 48 f9 bc 0d da 92 3d 2e 18 6f 3d b4 6c fc bb
       -0.030429846 0.07170496 0.05837267 -0.007703388
000140 8f 70 77 bc 0a a8 00 be ae d6 06 bd c7 dc 29 3a
       -0.01510252 -0.12564102 -0.03291958 0.0006479737
000150 77 ee c0 bb 86 d8 f3 bc 0b 49 10 3d d7 9d 43 bb
       -0.005887802 -0.029766332 0.03522591 -0.0029848719
000160 57 f2 0c 3e ea de d3 3d 17 e6 94 bd 74 83 8a bd
       0.1376432 0.10345252 -0.07270449 -0.06763354
000170 b0 5a 75 3b 34 6c 10 bb df ad 4f bd 5d 48 d7 bb
       0.0037438087 -0.002203715 -0.050702926 -0.0065699057
000180 af 9f 5e 3e e0 dc 43 3d a8 37 33 bb 76 59 7f 3c
       0.21740602 0.047818065 -0.0027346406 0.015585294
000190 71 01 44 bd b4 6a c2 3c fe 81 9f 3c d4 6c 12 bd
       -0.047852937 0.02373252 0.019471165 -0.035748318
0001a0 0e 70 e4 3c fa 5c 86 bc 41 61 34 be 4e bf d2 bd
       0.027885463 -0.016401757 -0.17615224 -0.10290395
0001b0 70 de 10 bd d9 0f 4d bc a4 d0 73 bc 2d 3a 6b bc
       -0.035368383 -0.012515985 -0.014881287 -0.014357132
0001c0 56 12 16 bb 6c 9f 46 3c 80 72 f8 3c f7 72 65 bd
       -0.0022899113 0.01212297 0.030328035 -0.056017842
0001d0 a2 a6 ba bd e8 97 ea 3c 1d 0b 2f bd 50 08 a9 bd
       -0.09113814 0.028636888 -0.042735208 -0.082535386
0001e0 97 3d f8 bc 31 1b 9a 3c be 3c a2 3c ef 2a 03 3d
       -0.030302806 0.018811794 0.019804355 0.032023367
0001f0 ee 5d ac 3d ef c5 46 bd c1 d7 73 bd 0e b3 51 bc
       0.08416353 -0.048528608 -0.05953193 -0.012799038
000200 34 6a 5f bd d2 61 94 bc fa 0c 12 be 3e d5 c4 3d
       -0.054544643 -0.01811305 -0.14262763 0.09610985
000210 dd 68 8a 3d ad e5 46 ba dc 7f b1 3c 27 86 23 3d
       0.06758282 -0.0007587325 0.021667413 0.03992286
000220 6e 28 34 3d 9d b1 95 bd 75 66 9a 3d 89 88 06 3d
       0.04398387 -0.07309268 0.075390734 0.032845054
000230 64 30 9a bd 99 f1 47 bd 97 33 72 bd 8c ed 8f 3b
       -0.07528761 -0.04881439 -0.05913123 0.0043923315
000240 d0 3f 6e bc b0 21 60 3d 9a c7 38 bd 7e d3 86 3c
       -0.014541581 0.054719627 -0.04511223 0.01645827
000250 72 70 bb 3c 47 60 82 3d 7d 76 4b bd 9a 4d e0 bd
       0.022880767 0.0636602 -0.049673546 -0.10952301
000260 fd c3 52 3d 45 03 6f bd 5e 94 62 bb 25 45 8a 3d
       0.05145644 -0.058352727 -0.0034573297 0.067514695
000270 cd b8 5f 3c 2b 0c 13 3b 11 6b f2 3c 05 36 23 bc
       0.0136549 0.0022437673 0.029592069 -0.00996161
000280 df ce 1d bc f5 49 0e bd b4 10 4c bd ec 90 47 bd
       -0.009631841 -0.0347385 -0.049820617 -0.048722193
000290 99 58 3d 3b 79 93 17 bd d0 f6 73 bd 17 4c 42 bc
       0.002889192 -0.037005875 -0.05956155 -0.011858962
0002a0 69 fc 0b bd 94 05 87 3d ff 6e 72 3b 39 5b ae 3b
       -0.034176264 0.06592861 0.0036992428 0.005320933
0002b0 14 c7 71 bc c7 fc 75 bc 08 87 56 bd f2 80 ad bd
       -0.014756937 -0.01501388 -0.05237487 -0.0847186
0002c0 86 a9 4f 3d 11 0d 41 3b 65 33 9f bd 5b 8c 62 bd
       0.05069878 0.002945725 -0.077734746 -0.055309635
0002d0 90 66 32 3d 0a 8d f5 bd e2 64 94 3d 1f 5f a6 3d
       0.043554842 -0.11989792 0.07245804 0.08123612
0002e0 23 a7 ae bc da 60 a0 3d a6 8b a1 bc 5a 7a 37 bd
       -0.021319931 0.07830973 -0.01971991 -0.044794418
0002f0 f2 52 a8 bd 7b ac 57 bc 61 42 80 bd fd 8d e7 3d
       -0.082189456 -0.013163681 -0.06262661 0.11306379
000300 97 51 d5 bc 2d 4f 3d bd cd 0f a5 3c 40 9f 49 bb
       -0.026039882 -0.046218086 0.020149136 -0.0030765086
000310 ff aa 94 bb 68 9a bc bd 89 29 15 3d 9e 25 14 3e
       -0.004536986 -0.09209138 0.036416564 0.14467475
000320 80 b7 15 bc 02 df 00 3c 5f b5 49 bd d9 64 bf bc
       -0.009137988 0.007865669 -0.049245235 -0.023363518
000330 42 55 93 3d 14 8f 7c 3d c3 c9 dd 3c 23 80 ae bd
       0.07193996 0.061659887 0.027073747 -0.08520534
000340 60 d6 03 3d db 78 16 bc 29 f8 b9 bb c5 f5 1a 3d
       0.032186866 -0.009184088 -0.005675335 0.03783204
000350 28 2b 02 3e 8c 27 c6 bd d6 24 0d 3d 49 59 cc 3c
       0.12711775 -0.09675512 0.034458958 0.024944918
000360 ff 99 a9 3d 42 c1 32 bd d7 0d ee 3d d8 e9 7f 3d
       0.082813255 -0.043641336 0.116237335 0.06247887
000370 71 8c 8b bc 16 56 09 bc 7a be 25 3d 1b 59 cb bb
       -0.017034741 -0.008382341 0.040464856 -0.0062056906
000380 f3 2c 27 3d 82 d6 e4 bd 43 6a 00 3b 9c 67 a1 bd
       0.04081435 -0.111737266 0.0019594587 -0.0788109
000390 9f ab 55 3b 1c b5 d3 bc b3 09 38 3c 61 7a 28 be
       0.0032603515 -0.025843196 0.011232781 -0.16452934
0003a0 58 98 23 3c 14 15 da bc a8 77 aa 3b 0e 38 22 bd
       0.009985052 -0.026621379 0.0052022524 -0.03960424
0003b0 58 28 c5 bc 3b ea 06 bd ce 28 ca 3b fd 36 b9 3d
       -0.024067089 -0.032938223 0.006169415 0.09043691
0003c0 36 9a 9a 3d e4 63 92 3c 26 ae 82 3c c2 10 33 bd
       0.07548945 0.017869897 0.015952181 -0.043717153
0003d0 12 9a c3 bd 4f 59 b9 3d e8 ae ea 3b 53 1f ea bc
       -0.09550871 0.090502374 0.0071619637 -0.02857939
0003e0 16 e6 c6 bc 4e 1e 9b 3d e0 a6 86 3d 2c f2 93 3b
       -0.024279635 0.075741395 0.06574798 0.004514953
0003f0 55 55 9b bd e1 56 4c bd c4 6c df bc fb ea 81 bd
       -0.07584635 -0.04988754 -0.027273543 -0.06343647

model/hidden/mid_rec_layer/upward/W f4 [80, 86]
000000 6f 47 7d 3f 62 39 7d 3f b2 fd 7d 3f 77 50 7d 3f
       0.98937124 0.98915684 0.99215233 0.98950905
000010 96 a7 7c 3f 34 49 7d 3f 17 14 7e 3f b4 c4 7d 3f
       0.98693216 0.98939824 0.99249405 0.9912827
000020 00 00 80 3f 00 00 80 3f 78 34 7f 3f 00 00 80 3f
       1.0 1.0 0.99689436 1.0
000030 82 83 7f 3f 9c a5 7f 3f 00 00 80 3f b3 88 7f 3f
       0.9981004 0.99862075 1.0 0.9981796
000040 89 74 7f 3f 00 00 80 3f bf af 7f 3f 8a c8 7f 3f
       0.99787194 1.0 0.9987754 0.99915373
000050 00 00 80 3f 6c 87 7f 3f b1 9b 7f 3f 00 00 80 3f
       1.0 0.9981601 0.9984694 1.0
000060 6b 7a 7f 3f 8f d5 7f 3f 00 00 80 3f 28 52 7f 3f
       0.9979617 0.9993524 1.0 0.99734735
000070 8e 8a 7f 3f 00 00 80 3f 30 b5 7f 3f d2 ae 7f 3f
       0.9982079 1.0 0.99885845 0.9987613
000080 00 00 80 3f da c6 7f 3f cf aa 7f 3f 00 00 80 3f
       1.0 0.999128 0.9987001 1.0
000090 e4 c8 7f 3f 3c 76 7f 3f 00 00 80 3f d4 9c 7f 3f
       0.9991591 0.99789786 1.0 0.99848676
0000a0 d2 67 7f 3f 00 00 80 3f dd 57 7f 3f 80 4d 7f 3f
       0.9976779 1.0 0.99743444 0.9972763
0000b0 00 00 80 3f 55 b7 7f 3f 64 7a 7f 3f d6 66 7f 3f
       1.0 0.9988912 0.9979613 0.9976629
0000c0 72 55 7f 3f 6e 6f 7f 3f ae 87 7f 3f e6 bd 7f 3f
       0.99739754 0.99779403 0.99816406 0.9989914
0000d0 24 df 7f 3f 1c 88 7f 3f 16 32 7f 3f 66 44 7f 3f
       0.9994986 0.9981706 0.996858 0.9971374
0000e0 00 00 80 3f 67 68 7f 3f a3 77 7f 3f 00 00 80 3f
       1.0 0.9976868 0.99791926 1.0
0000f0 da a1 7f 3f bc a2 7f 3f 94 f6 7e 3f d2 80 7f 3f
       0.9985634 0.9985769 0.99595 0.9980594
000100 49 94 7f 3f fc 62 7e 3f e2 ca 7f 3f 7b ab 7f 3f
       0.9983564 0.9936979 0.9991895 0.99871033
000110 f3 8a 7e 3f c5 98 7f 3f 1d 34 7f 3f 00 00 80 3f
       0.9943077 0.9984248 0.99688894 1.0
000120 ae 7d 7f 3f fd a1 7f 3f 00 00 80 3f 4b d3 7f 3f
       0.99801147 0.9985655 1.0 0.9993178
000130 0a 6e 7f 3f ce 02 7e 3f 63 69 7f 3f 88 01 80 3f
       0.9977728 0.9922303 0.9977018 1.0000467
000140 97 81 7e 3f 7a 73 7f 3f 74 71 7f 3f bb 75 7e 3f
       0.9941649 0.9978558 0.9978249 0.9939839
000150 23 8d 7f 3f b1 6c 7f 3f 0c 93 65 3f 89 3f 69 3f
       0.9982473 0.99775225 0.896775 0.9111257
000160 e2 2c 6c 3f 51 c7 68 3f af 66 65 3f 33 8c 63 3f
       0.92255986 0.9092913 0.8960981 0.888858
000170 73 6b 6c 3f cb 84 6c 3f 00 00 80 3f 00 00 80 3f
       0.92351454 0.92390126 1.0 1.0
000180 1f 5e 6d 3f 00 00 80 3f a6 7a 75 3f bf 39 79 3f
       0.9272174 1.0 0.9589027 0.9735374
000190 00 00 80 3f 3b dd 75 3f 1c f1 71 3f 00 00 80 3f
       1.0 0.96040696 0.9450853 1.0
0001a0 cd 78 77 3f 65 a9 78 3f 00 00 80 3f 5b f7 73 3f
       0.966687 0.97133476 1.0 0.9529931
0001b0 c4 c4 74 3f 00 00 80 3f 7a 2f 74 3f cc de 7b 3f
       0.9561274 1.0 0.95384943 0.98386836
0001c0 00 00 80 3f 2d 7c 72 3f 7d ac 74 3f 00 00 80 3f
       1.0 0.9472073 0.95575696 1.0
0001d0 fe 25 7a 3f 5e d3 77 3f 00 00 80 3f f5 94 7b 3f
       0.9771422 0.96806896 1.0 0.98274165
0001e0 ed 72 77 3f 00 00 80 3f 5b a0 78 3f 81 45 77 3f
       0.9665974 1.0 0.97119683 0.9659043
0001f0 00 00 80 3f 51 a9 75 3f 61 ca 70 3f 00 00 80 3f
       1.0 0.9596148 0.94058806 1.0
000200 98 90 72 3f 04 db 74 3f 00 00 80 3f a3 05 78 3f
       0.9475188 0.9564669 1.0 0.968836
000210 39 8a 74 3f bd cc 73 3f dc 63 72 3f 51 c3 74 3f
       0.9552341 0.9523428 0.94683623 0.9561053
000220 0c e8 76 3f e1 8e 77 3f 93 2f 7b 3f ba f0 76 3f
       0.96447825 0.9670239 0.9811947 0.9646107
000230 7c d3 71 3f 38 89 71 3f 00 00 80 3f ea df 73 3f
       0.94463325 0.94350004 1.0 0.9526354
000240 4c 0e 75 3f 00 00 80 3f cd 6d 77 3f eb 9a 75 3f
       0.9572494 1.0 0.9665192 0.9593951
000250 8f 59 72 3f e3 30 76 3f e5 20 76 3f 71 be 6e 3f
       0.94667906 0.96168345 0.96143943 0.9325934
000260 ec ff 79 3f 7d 05 78 3f ea 96 6b 3f 02 db 76 3f
       0.9765613 0.96883374 0.9202715 0.9642793
000270 67 19 6e 3f 00 00 80 3f 23 29 74 3f 8d 38 77 3f
       0.9300751 1.0 0.9537527 0.96570665
000280 00 00 80 3f 1b 41 7b 3f 99 d0 74 3f 22 16 6a 3f
       1.0 0.9814622 0.95630795 0.9144002
000290 8b 39 75 3f cd 63 7d 3f b7 6c 6c 3f 9f 7e 73 3f
       0.9579093 0.9898041 0.92353386 0.95115083
0002a0 4b 57 73 3f 98 d1 67 3f 62 29 76 3f 43 36 77 3f
       0.95055073 0.9055419 0.96156895 0.9656717
0002b0 00 00 80 3f 00 00 80 3f 00 00 80 3f 00 00 80 3f
       1.0 1.0 1.0 1.0
0002c0 00 00 80 3f 00 00 80 3f 00 00 80 3f 00 00 80 3f
       1.0 1.0 1.0 1.0
0002d0 00 00 80 3f 00 00 80 3f 00 00 80 3f 00 00 80 3f
       1.0 1.0 1.0 1.0
0002e0 00 00 80 3f 00 00 80 3f 00 00 80 3f 00 00 80 3f
       1.0 1.0 1.0 1.0
0002f0 00 00 80 3f 00 00 80 3f 00 00 80 3f 00 00 80 3f
       1.0 1.0 1.0 1.0
000300 00 00 80 3f 00 00 80 3f 00 00 80 3f 00 00 80 3f
       1.0 1.0 1.0 1.0
000310 00 00 80 3f 00 00 80 3f 00 00 80 3f 00 00 80 3f
       1.0 1.0 1.0 1.0
000320 00 00 80 3f 00 00 80 3f 00 00 80 3f 00 00 80 3f
       1.0 1.0 1.0 1.0
000330 00 00 80 3f 00 00 80 3f 00 00 80 3f 00 00 80 3f
       1.0 1.0 1.0 1.0
000340 00 00 80 3f 00 00 80 3f 00 00 80 3f 00 00 80 3f
       1.0 1.0 1.0 1.0
000350 00 00 80 3f 00 00 80 3f 00 00 80 3f 00 00 80 3f
       1.0 1.0 1.0 1.0
000360 00 00 80 3f 00 00 80 3f 00 00 80 3f 00 00 80 3f
       1.0 1.0 1.0 1.0
000370 00 00 80 3f 00 00 80 3f 00 00 80 3f 00 00 80 3f
       1.0 1.0 1.0 1.0
000380 00 00 80 3f 00 00 80 3f 00 00 80 3f 00 00 80 3f
       1.0 1.0 1.0 1.0
000390 00 00 80 3f 00 00 80 3f 00 00 80 3f 00 00 80 3f
       1.0 1.0 1.0 1.0
0003a0 00 00 80 3f 00 00 80 3f 00 00 80 3f 00 00 80 3f
       1.0 1.0 1.0 1.0
0003b0 00 00 80 3f 00 00 80 3f 00 00 80 3f 00 00 80 3f
       1.0 1.0 1.0 1.0
0003c0 00 00 80 3f 00 00 80 3f 00 00 80 3f 00 00 80 3f
       1.0 1.0 1.0 1.0
0003d0 00 00 80 3f 00 00 80 3f 00 00 80 3f 00 00 80 3f
       1.0 1.0 1.0 1.0
0003e0 00 00 80 3f 00 00 80 3f 00 00 80 3f 00 00 80 3f
       1.0 1.0 1.0 1.0
0003f0 00 00 80 3f 00 00 80 3f 00 00 80 3f 00 00 80 3f
       1.0 1.0 1.0 1.0

model/hidden/mid_layer/W f4 [256, 256]
000000 73 76 33 3d 20 22 53 bd 09 85 2a be 35 ec ab 3b
       0.043814134 -0.051546216 -0.16652311 0.005246664
000010 4f bb d7 3c 4d b8 8f bd a6 78 71 3c 66 a4 82 bc
       0.026334433 -0.070175745 0.0147382375 -0.015947532
000020 aa 53 95 bd c9 f6 9c bd f6 63 ba bc ea 9e a7 bd
       -0.07291348 -0.07664258 -0.022752743 -0.08184607
000030 d6 6a 79 bc 5e 6a 00 bb c0 65 2f bb 98 1f 04 bd
       -0.015223226 -0.001959465 -0.0026763529 -0.032256693
000040 a8 bf a6 bd 55 d8 68 bd a6 3d d0 3c e2 fc 57 3d
       -0.08142024 -0.056846935 0.025420021 0.052731402
000050 a2 de 9c bc ae c9 51 bd 55 8b a4 bd 13 06 35 3d
       -0.019149128 -0.051217727 -0.08034388 0.044195246
000060 f8 cb 78 bd 9f 59 7e bd 4a 95 c0 bd 81 68 79 bd
       -0.060741395 -0.062097188 -0.09403475 -0.06089068
000070 d2 2a 25 bd 99 00 98 3d d4 5a 80 bd f5 be 21 3d
       -0.04032404 0.07421989 -0.06267324 0.03948875
000080 0f 3d a5 3c 90 4b 19 3d f7 c5 9e 3a cd d9 e9 3c
       0.020170717 0.037425578 0.0012113441 0.028546238
000090 f6 8b 84 3b ec 06 64 3d 30 d7 71 bc ea 93 a6 3d
       0.004045005 0.055670664 -0.014760777 0.08133681
0000a0 37 bc a0 3d be ad e7 bc d8 2a 14 be bf 3b ab bd
       0.07848399 -0.028281089 -0.14469469 -0.08361005
0000b0 66 b6 a2 3b 99 11 dd 3d 92 a3 be 3c e2 58 1a bd
       0.0049655912 0.10794372 0.023271356 -0.03768242
0000c0 24 7f 03 3e 48 67 a7 3d 53 0a 8e bd 08 14 15 3d
       0.12841469 0.08173996 -0.06935563 0.036396056
0000d0 ad 51 13 3d 0f 85 f8 3c a6 d6 a3 3b 3b 08 5b bd
       0.035966564 0.030336885 0.0049999533 -0.053474646
0000e0 87 31 09 3e 81 60 b2 3c 1d 8f 79 bd 64 65 29 bc
       0.133978 0.021774532 -0.0609275 -0.010339115
0000f0 16 51 01 3d 6c 6e a9 bc fa 31 4d 3e de a2 37 bc
       0.03157147 -0.020682536 0.20038596 -0.011208264
000100 f6 48 0d 3e d6 5f 73 3d a8 00 b2 bd 55 f2 45 bc
       0.13797364 0.05941757 -0.086915314 -0.012081702
000110 a3 fb 50 3d b3 70 62 3c 09 83 65 3c d9 02 31 be
       0.05102123 0.013820815 0.014008292 -0.17286243
000120 f4 cb 52 3c 1a 90 24 bd 32 02 98 bd 96 4a e2 3d
       0.012866009 -0.04017649 -0.07422294 0.110493824
000130 7f 4f 26 3c e8 4e ff bc 68 9f cd 3c c0 1c f3 3d
       0.010150789 -0.031165555 0.025100425 0.11870718
000140 a8 00 5b 3c a3 ea ce bc a7 73 47 bd 3b 81 70 3d
       0.013366856 -0.025258368 -0.04869428 0.058716994
000150 78 59 1a bc 75 99 fc 3b 0b 17 df bd 99 d8 a5 3c
       -0.009420745 0.007708723 -0.10893067 0.020244883
000160 fc 4c 8c bd 61 cb ed bc 2f 46 b0 3d 3e 9f d5 bc
       -0.06850621 -0.029027643 0.086071365 -0.02607691
000170 1e 69 17 bb e2 26 15 3d 3c ae 03 bd 9e 0a 84 bd
       -0.0023103426 0.036414035 -0.032148585 -0.064473376
000180 ac 10 85 ba a8 4d 15 be 6c d4 1d bd 37 59 7b bd
       -0.0010152063 -0.14580405 -0.03853266 -0.06136438
000190 f5 27 06 3d 52 27 21 bd de ad 08 3d 8c 86 29 ba
       0.03275295 -0.03934414 0.033368938 -0.00064668874
0001a0 51 23 33 3d 37 59 82 3d 9c af 0d 3d 82 90 5a bd
       0.043734852 0.06364673 0.034591302 -0.05336047
0001b0 22 b1 de 3d 19 77 d4 3d b6 24 d7 bc ce c7 44 3c
       0.10873629 0.103742786 -0.026262622 0.012010528
0001c0 b6 b7 77 bd 59 03 22 bd 65 3e 0e bd 4e a5 ee bc
       -0.060477935 -0.039553974 -0.034727473 -0.029131558
0001d0 8d 05 79 bd 88 df c2 3d 97 60 05 bd c2 4a 75 3d
       -0.06079631 0.095152915 -0.03256282 0.059885748
0001e0 8f a4 aa 3b 94 5d d0 3c 60 74 34 bb 23 c8 06 bc
       0.005207605 0.025435247 -0.0027535185 -0.008226427
0001f0 e0 49 12 bd a0 ab 6f 3d 6c c4 3a bd f8 f2 82 bd
       -0.035714984 0.058513284 -0.04559748 -0.06393999
000200 ab e0 4d 3d e2 5a 31 3d 7b 70 ba 3c 05 75 81 3c
       0.05026309 0.043299563 0.022758713 0.01580287
000210 40 ed be bc 29 b5 d8 3c 9c d7 6c bd 89 4c ad ba
       -0.023306489 0.026453571 -0.05782281 -0.0013221662
000220 c1 96 72 bc 39 be 04 3d 90 2d 1e 3d 8b 05 b8 bd
       -0.01480645 0.032407973 0.03861767 -0.08985432
000230 de 14 f6 3c 90 58 34 3d df ac 5f bd bc 5a ea bc
       0.030039247 0.044029772 -0.054608222 -0.028607719
000240 08 b7 a6 bc 4b 2a cf 3a 7a fd dd 3c 66 ba 0f bd
       -0.020350948 0.0015805451 0.027098406 -0.035089873
000250 83 3a 10 bc aa 64 5a 3d 95 3c 6a bd a0 ea c6 3b
       -0.008803013 0.053318657 -0.05718668 0.00607045
000260 fd 36 d7 bd a3 4a eb 3c 6c 62 59 3c 34 10 13 bc
       -0.10508535 0.028722113 0.0132680945 -0.008976031
000270 db c2 17 bd c5 88 06 bc a8 33 c1 bc c1 88 1a 3d
       -0.037051063 -0.008211319 -0.023584202 0.037728075
000280 94 ef 08 3c 3b da e3 bd e6 32 8b 3c 6a 34 3a bb
       0.008357901 -0.111256085 0.016992044 -0.002841259
000290 71 7c 5f 3d d5 d7 67 bd c7 46 78 bd 11 d5 c2 bd
       0.054562036 -0.056602318 -0.060614374 -0.095132954
0002a0 e9 1d e2 3c 18 58 55 3d 76 28 8a bd d2 6b 9a 3d
       0.027602153 0.052085966 -0.067459986 0.07540096
0002b0 54 87 df 3d cc 76 de 3c c6 a4 15 bb 04 a2 00 3d
       0.10914484 0.027156256 -0.0022833808 0.03140451
0002c0 a1 4d c8 3c a1 66 48 bd d0 f0 47 bd fc 46 32 bd
       0.024451079 -0.048926 -0.04881364 -0.043524727
0002d0 0e 39 de bd 2b 05 e0 bd 6b 6c f4 bc c5 3b 4a 3c
       -0.10850726 -0.10938486 -0.029836854 0.012343352
0002e0 a4 b4 9c 3d a9 89 cd bd 34 b7 3c 3d a2 57 d7 3d
       0.07651642 -0.10036022 0.046073154 0.105147615
0002f0 5a 54 6b 3d c1 f9 3d 3d 15 02 21 3d 65 1a 50 3d
       0.05745349 0.046380762 0.039308626 0.05080642
000300 47 5f 03 3d cd 98 c6 3c 1b 4f 3b 3c 70 b5 cd 3c
       0.032073285 0.024242783 0.011432434 0.02511093
000310 f5 08 c3 bd ee e0 9a bd fe f1 3c 3c 5d f7 0e bc
       -0.09523193 -0.07562433 0.011532305 -0.008725968
000320 cf 49 3d 3a 53 a0 d0 bd da 6c 79 3c 1e e2 ad bc
       0.0007220776 -0.101868294 0.015223706 -0.021225985
000330 b0 56 2e 3d a2 a3 59 bc 01 bc b5 3c ce 2b 1f 3d
       0.04256314 -0.013283642 0.022184374 0.038860135
000340 06 65 ce bc 87 78 c6 bd da ce e9 bd de 8b a5 3c
       -0.025194656 -0.096909575 -0.11416407 0.020208295
000350 f8 eb 9e bd d9 e7 e1 bd 4e cc 9f 3c 38 1e b3 3d
       -0.07759851 -0.110305496 0.0195066 0.08745998
000360 18 68 47 bc 6d 8c 12 3e f1 51 6d bd 77 d1 80 3c
       -0.012170814 0.1431138 -0.057939474 0.01572488
000370 ff 02 1a bd 4c 3e 30 3d 05 53 40 3c b4 f8 57 bc
       -0.037600514 0.04302816 0.011738543 -0.013181854
000380 9d f7 3d bb a8 d7 10 bd a1 b3 ca 3d aa c7 70 bd
       -0.00289867 -0.035361916 0.09897543 -0.058784164
000390 57 8e 0f 3c bc 3f dd 3c 96 05 d0 bd 39 7a 78 bd
       0.008761964 0.02700793 -0.101573154 -0.060663436
0003a0 8e 02 88 bd 28 cd c7 bc 02 ac 8d 3d a3 23 37 3d
       -0.06641112 -0.024389818 0.069175735 0.04471172
0003b0 3c 1a bc bd d8 ec 35 bd 99 a6 1b bc fe e1 4e 3d
       -0.09184691 -0.044415325 -0.009500169 0.05050849
0003c0 ae ff ea 3d 09 0e 34 bd ad d8 6e 3d a3 f8 77 bd
       0.11474548 -0.043958697 0.058312107 -0.060539853
0003d0 80 52 36 bd 30 1c fe bc 5f bf 82 3c 78 31 c7 3c
       -0.044512272 -0.0310193 0.015960393 0.02431558
0003e0 f5 53 06 3d 3d 3c 7f bd d1 86 d2 3d 26 9c 49 bc
       0.03279491 -0.062313307 0.102796204 -0.012305295
0003f0 37 33 bd bd 33 fa ec bc 11 12 ce 3c ab bc 81 3d
       -0.09238284 -0.028927898 0.0251551 0.06334814

model/a_stream/b f4 [3]
000000 02 b8 48 b9 b4 33 78 3b 6e c6 c4 ba
       -0.00019142035 0.0037872614 -0.001501275

model/hidden/mid_rec_layer/upward/b f4 [80]
000000 ae 86 01 bd 84 04 ec bd 00 00 80 3f 6f ca f3 bd
       -0.03162258 -0.11524299 1.0 -0.119038455
000010 58 42 4a bd 44 3c 15 be 00 00 80 3f 02 f6 27 be
       -0.049379677 -0.14573771 1.0 -0.16402438
000020 26 8c 9a 3d 9f 74 e6 3d 00 00 80 3f fd 83 06 3e
       0.075462624 0.112527125 1.0 0.13136287
000030 b4 35 88 3d 2d 8c db 3d 00 00 80 3f ce de 03 3e
       0.06650868 0.10720096 1.0 0.12877962
000040 99 e9 c9 3d 10 d8 03 3e 00 00 80 3f 22 2e 18 3e
       0.09859008 0.1287539 1.0 0.14861348
000050 f8 7d 1f bd c0 b7 cd bd 00 00 80 3f 5e 33 e3 bd
       -0.038938493 -0.10044813 1.0 -0.11093782
000060 25 ae 9d 3d 50 24 e9 3d 00 00 80 3f df 67 0a 3e
       0.07699231 0.11383879 1.0 0.13516186
000070 09 9c ff 3c 8a 0c a2 3d 00 00 80 3f 1d 60 d6 3d
       0.031202333 0.07912548 1.0 0.10467551
000080 79 8e 8c 3d 1b cb cc 3d 00 00 80 3f 87 3c ef 3d
       0.06863112 0.09999677 1.0 0.116814665
000090 42 9d a4 bd 42 97 19 be 00 00 80 3f 0a f5 38 be
       -0.08037807 -0.14999107 1.0 -0.18062225
0000a0 72 00 d3 bd 67 fc 28 be 00 00 80 3f 17 d8 4e be
       -0.10302819 -0.16502534 1.0 -0.20199619
0000b0 9c 22 21 bd 0f 00 d9 bd 00 00 80 3f fe 0a df bd
       -0.039339647 -0.10595714 1.0 -0.108907685
0000c0 71 83 72 3d 38 b8 dc 3d 00 00 80 3f 19 e0 03 3e
       0.059207384 0.107773244 1.0 0.12878455
0000d0 4e 9d 4e 3d b7 4a cd 3d 00 00 80 3f 06 fb fe 3d
       0.050442986 0.10024016 1.0 0.12450223
0000e0 74 02 70 bc f1 55 1a bd 00 00 80 3f 5a d7 ec bc
       -0.014649022 -0.037679616 1.0 -0.028911281
0000f0 65 5b 44 bb 6e a7 80 bc 00 00 80 3f 20 0e e8 bb
       -0.0029961702 -0.015704837 1.0 -0.007081762
000100 99 a7 42 bd cd 99 1f be 00 00 80 3f 20 20 34 be
       -0.047523115 -0.15586014 1.0 -0.1759038
000110 a4 3c 14 bb 04 ca e0 bb 00 00 80 3f d6 7a dc 3b
       -0.0022619152 -0.0068600196 1.0 0.0067285104
000120 3a f0 99 3d 14 e6 fa 3d 00 00 80 3f 03 89 15 3e
       0.07516523 0.12250915 1.0 0.14603047
000130 d8 65 8d bc 0a d4 38 bd 00 00 80 3f 98 32 1e bd
       -0.017260477 -0.04512409 1.0 -0.03862247

model/hidden/input_layer/W f4 [256, 86]
000000 8a cb 6b bd 5e 8a 10 3d 73 37 88 bd c5 19 10 bd
       -0.057567157 0.035288207 -0.06651201 -0.035180826
000010 35 d6 83 bc 10 0b d5 bc 41 b4 fc ba 6e 2f 10 be
       -0.016093353 -0.026006252 -0.0019279794 -0.14080593
000020 03 55 89 3c da b0 58 3e 49 3b 9c 3d b2 9d 3e be
       0.01676417 0.21161214 0.07628495 -0.18614843
000030 80 91 18 bd 1a 5f cf bb 21 0f 38 bb f1 a8 a5 bd
       -0.037248135 -0.0063284757 -0.002808519 -0.08088864
000040 e7 cd 2c 3d cb f2 23 bd 15 b2 9f 3c 30 a4 12 3d
       0.04218855 -0.040026467 0.019494096 0.035801113
000050 dd e7 0b 3d 4d ed f7 3d b0 07 5c 3d ca 1d 12 3e
       0.03415667 0.121058084 0.05371827 0.14269176
000060 4d 8a c7 3d 8f 73 d9 bb 1f e7 63 bd 1c 59 af 3d
       0.09743176 -0.00663609 -0.055640336 0.08561918
000070 3e 17 22 3d f3 5e 07 bc 06 43 c4 3d 8e ac 7f 3c
       0.039572947 -0.008262384 0.09583096 0.015605105
000080 44 97 bc 3d 96 46 4e bd e5 1a 14 3e 32 8d d3 bb
       0.09208539 -0.050360285 0.14463384 -0.006456041
000090 2c 58 a3 3d 67 32 26 bd cc d7 04 3d ab 72 1d 3d
       0.07975802 -0.04057541 0.032432362 0.038439434
0000a0 31 d3 fe 3d 04 13 12 bc 3c b0 d0 bd 7a 90 2e bc
       0.12442625 -0.0089156665 -0.10189864 -0.010654563
0000b0 12 63 e3 bd e8 89 1f be 63 6e a8 3d 3a 82 03 bd
       -0.111028805 -0.15579951 0.082241796 -0.032106616
0000c0 21 8e 23 bd 18 33 7e bc 06 d1 8c 3c 86 2e 84 3b
       -0.039930467 -0.015515111 0.017189514 0.0040338663
0000d0 f5 33 7e bd 7e 4f 70 bd c6 f8 14 be 42 a5 89 bd
       -0.06206127 -0.05866956 -0.14548025 -0.067209736
0000e0 12 3a cc bd 9b ec 55 bd b2 f6 1f 3e 7e 9f 39 3d
       -0.099720135 -0.052227598 0.1562145 0.04531812
0000f0 34 f5 07 bd 81 d5 5e be cc 50 24 3e 8e 51 64 3d
       -0.03319283 -0.21761133 0.16046447 0.05574184
000100 fe ec 09 3d 43 20 92 bd b5 81 ce 3d db 08 80 bd
       0.03367328 -0.0713506 0.100833334 -0.06251689
000110 53 2d 80 be 08 da 42 3e 66 d1 84 3e 22 a4 61 be
       -0.2503458 0.19028485 0.25941008 -0.22035268
000120 f2 82 70 bd 07 e9 f5 bd 9a f7 4f bb 9e 45 6d bd
       -0.05871863 -0.12007337 -0.0031733275 -0.05792772
000130 14 a6 05 be 59 a9 8e 3d 53 fa f0 bd d8 7a 39 3e
       -0.13051635 0.06965894 -0.117664956 0.18113267
000140 37 e9 84 3c b4 2a 48 3e 2a 92 58 3d 3e 01 36 3c
       0.016224487 0.1954754 0.052873768 0.011108695
000150 d0 48 9a 3d b4 3c 0a 3d bd 74 a4 bb ec 0e 97 3c
       0.07533419 0.033749297 -0.005018799 0.018439732
000160 06 ed 07 be f1 be 81 bd a5 71 fa bd fe 72 90 bd
       -0.13274011 -0.06335247 -0.12228707 -0.07053183
000170 c5 f6 12 3d 93 4c 6c be d6 14 a8 3e f2 bb 04 be
       0.03587987 -0.23076086 0.32828397 -0.1296232
000180 aa 5c ea bd 05 a6 09 3e 54 43 ab 3c 86 15 2d 3e
       -0.114434555 0.13442238 0.020906128 0.16902742
000190 8d c4 cd bd 86 dc 8e 3c 84 2e 0a 3e 39 55 38 bd
       -0.10047255 0.017439138 0.13494307 -0.04500315
0001a0 b3 67 b5 bd e1 a8 63 bd 5b 21 49 3e 1a e9 31 3c
       -0.0885767 -0.055580977 0.1964163 0.010858798
0001b0 53 0d 73 3d 2e 97 08 3e d1 65 2e be d8 7e 4f bd
       0.05933888 0.1333892 -0.17031027 -0.050658077
0001c0 c0 31 40 bb 50 c3 d0 bd 92 c2 c3 3d e8 7d ac 3d
       -0.0029326528 -0.10193503 0.09558596 0.08422452
0001d0 3e 7d a0 bd 9a fb 82 bd 68 34 b5 bd 9e 7c 22 3d
       -0.07836388 -0.063956454 -0.08847886 0.039669625
0001e0 2f 5c 17 be a8 81 69 be 60 aa c6 3d ac 7f 17 3e
       -0.14781259 -0.22803366 0.09700465 0.14794797
0001f0 80 c0 30 be b0 7c 89 3c 5f 62 6e bd f2 dc 4c bd
       -0.17260933 0.016783088 -0.058199283 -0.050015397
000200 b4 1a 6a bc 28 21 13 be 58 c8 c1 3a da 39 3f bd
       -0.014288593 -0.14368117 0.0014784439 -0.04668603
000210 93 49 ff bd 36 81 ab 3e 02 58 34 bd f9 d7 18 3e
       -0.12465205 0.33497018 -0.044029243 0.14926137
000220 30 ab 83 ba 3c 37 c3 3d 81 c6 16 be 5a 70 a8 bc
       -0.0010045525 0.095320195 -0.1472416 -0.020561386
000230 2b e7 31 3c b6 f1 a1 3d 57 29 74 be f7 c1 18 bd
       0.010858337 0.07907431 -0.23843895 -0.037294354
000240 6d cf 7b 3d d3 0c 11 3e 2e 62 0f 3e f3 7d a3 be
       0.061477114 0.14165048 0.14002296 -0.3193203
000250 91 53 4b 3e 35 57 bf 3b 0b 6f c3 3b 7c 23 8d bd
       0.19856097 0.0058392533 0.005964165 -0.06891534
000260 80 97 0e 3e b4 e9 b6 3c 2d a6 10 3e fb cb 77 3d
       0.1392498 0.022328235 0.14125891 0.060497265
000270 46 c5 81 bd 42 f9 05 be 25 f5 e7 bc 18 7d 8d bc
       -0.06336455 -0.13083366 -0.028315136 -0.017271563
000280 69 c6 a4 3b 0d 3d b7 bd e8 a6 74 bc 12 c5 3e 3e
       0.005028535 -0.089471914 -0.014932372 0.18629864
000290 ce 44 f2 bd 01 90 3d 3d b1 f6 0c be f7 4a 84 3e
       -0.1182953 0.04627991 -0.1376598 0.25838444
0002a0 56 38 13 3d 5d a5 dc bb 7b 09 b5 bc 18 5f 80 bd
       0.035942398 -0.00673358 -0.022099247 -0.06268138
0002b0 b2 b6 1e bc 88 f3 51 3e bc 40 9a 3d bb 20 78 bd
       -0.009687113 0.20503056 0.07531878 -0.06057809
0002c0 3a 0e 39 3e 37 16 5a 3d da d3 0c be 5d fc 98 3d
       0.18071833 0.053243842 -0.1375269 0.074700095
0002d0 49 c5 84 bd cb 66 a5 bb 0c e0 64 be 16 24 fe bb
       -0.06482942 -0.0050476543 -0.22351092 -0.0077557666
0002e0 47 e6 ea bd 25 a7 37 3d 67 52 13 be de bb 2e bd
       -0.11469703 0.044837136 -0.14386903 -0.042659633
0002f0 bb 71 98 bd 27 34 99 3d 87 70 69 be 5a 82 1d be
       -0.07443567 0.074806504 -0.22796832 -0.15381756
000300 c8 4c dd 3d 5c a6 fb 3d d7 9e 78 bd 31 e0 ff bc
       0.108056605 0.1228759 -0.060698356 -0.031234832
000310 c5 44 79 3e 8c 70 e0 bc b6 d3 bd 3d bd 2b c1 3d
       0.2434264 -0.027397417 0.09268896 0.094321705
000320 e3 78 76 3e 06 e0 2b 3d ce 9e 4c be c2 6a 93 bd
       0.24069552 0.041961692 -0.19982454 -0.07198097
000330 82 4a 23 bd 79 7a 72 bd 97 44 9f ba 22 51 92 bd
       -0.039865978 -0.05919883 -0.0012151179 -0.07144381
000340 50 83 38 3e 04 a1 f3 3c 67 f8 b0 bc ee 0d 13 3e
       0.18018842 0.029739864 -0.021602822 0.14360783
000350 09 7e ec 3d 68 1c e3 bd f8 b6 30 be 8a ec 5f bb
       0.11547477 -0.110894024 -0.17257297 -0.0034168088
000360 73 25 ec 3d b2 09 ee bd 1a 1e 61 be 80 13 ad 3c
       0.1153058 -0.11622943 -0.21984139 0.021127462
000370 4b ae 09 3c 34 f1 c6 3c de e2 97 3c 44 7c fb 3d
       0.008403371 0.024284936 0.018540796 0.12279561
000380 1e 35 f6 bc 1d d1 dc bd d3 4d 94 3d 73 58 9a bc
       -0.030054625 -0.10782073 0.07241406 -0.018841004
000390 ed a1 99 3d bc 76 d3 bd 7e 08 23 bd c9 18 77 bd
       0.07501588 -0.10325381 -0.03980302 -0.06032637
0003a0 3a 6e a8 bd 57 1e 43 be 27 ab be bd f3 32 af 3d
       -0.08224149 -0.19054542 -0.093099885 0.0855464
0003b0 8a 12 19 3d 3c 04 b2 3c 5a c1 33 bc f9 b0 48 bd
       0.037371196 0.021730535 -0.010971392 -0.0489969
0003c0 16 49 eb bc 93 5e cf 3c bf d6 54 bd 5a fe 86 bc
       -0.028721374 0.025313651 -0.05196261 -0.016478706
0003d0 31 70 00 be b3 ad fe 3b 95 25 e1 bd ba 53 0c 3e
       -0.12542798 0.0077721714 -0.10993496 0.13703814
0003e0 35 e4 84 bd 7f 6f 43 bd a9 2f e4 3c 74 69 c0 bd
       -0.064888395 -0.047713753 0.027854757 -0.093951136
0003f0 18 a9 de 3d 02 f6 cc 3d 92 2a bb bd 00 cd 90 3d
       0.10872096 0.1000786 -0.09138979 0.07070351
