ai_challenge/results/simulation_DoubleDQN_DuelingRecNN_2017-05-19T19:40:53.24/300000/model.npz (npz, 632111 bytes, 12 tensors)

model/hidden/input_layer/b f4 [256]
-0.041231204 -0.027999574 -0.039662663 -0.020402035 -0.0052645262 -0.050621517 -0.05678985 -0.091951765
-0.024598759 -0.010691741 0.024436299 -0.045786366 -0.031372 -0.033305895 -0.075931154 -0.019794758
-0.047093607 -0.039494522 -0.04088748 -0.056779668 -0.047977474 -0.021310072 0.015928933 -0.024296012
-0.057192106 -0.036697358 -0.03076353 -0.011906429 -0.048312332 -0.032626677 -0.07025738 -0.017975753
-0.009557482 -0.03147948 0.038928464 -0.026851676 -0.06987612 -0.036014408 -0.05809226 -0.025156703
-0.02141841 -0.045981918 0.03676889 -0.052452143 -0.060304776 -0.021982456 -0.028932555 -0.04893224
0.010352665 -0.046394665 -0.070727825 -0.022589682 -0.017682975 -0.033073485 -0.03714467 -0.042477082
-0.0396267 -0.04158578 -0.029315913 -0.034860052 -0.049701285 -0.035354618 -0.043654516 -0.011665022
-0.011626178 -0.04185806 -0.04956456 -0.028807616 -0.034660622 -0.06463417 -0.05872619 -0.07863413
-0.02775328 -0.034863025 -0.006232828 -0.049089752 -0.017796053 -0.045602404 -0.023113439 -0.052648377
-0.058307104 -0.046193194 -0.05137334 -0.053638842 -0.051744435 -0.04932585 -0.06294844 -0.058176
-0.030976713 -0.08014763 0.023215158 -0.017409226 -0.06286023 -0.040871117 -0.010466961 -0.018486675
-0.00045863137 0.0049523953 0.011381304 -0.0041807876 -0.02465413 -0.05013113 0.011176641 -0.028383318
0.005716624 -0.008855438 -0.0130973905 -0.06005807 -0.044264402 -0.082149066 -0.07059984 -0.04932374
-0.037953507 -0.053988263 -0.049241066 -0.02435082 -0.04215732 -0.05051589 -0.065274544 -0.04521608
-0.07889575 -0.016256668 -0.03599273 -0.078095555 -0.048174184 -0.020213218 -0.061876968 0.020239476
-0.009267853 -0.037687156 -0.057924174 -0.03192027 -0.016254025 -0.026358128 -0.008037865 -0.05191808
-0.031936478 -0.049309812 -0.047249656 0.011235701 -0.034323372 -0.015959928 -0.03639181 -0.0042096577
-0.03224406 -0.017091163 -0.055895813 -0.059407778 -0.07683967 -0.05844028 -0.023618296 -0.07210089
-0.04784495 -0.03898633 -0.020325497 -0.015521306 -0.057088632 -0.019634953 -0.0032518264 -0.027445585
-0.01801946 -0.07046638 0.0070717228 -0.036873925 -0.03242015 -0.005515201 -0.060360093 0.009411501
0.010123421 -0.03108527 0.0002847996 0.0023495448 -0.016770644 -0.022962699 -0.0010778678 -0.024667839
-0.022626339 -0.04710545 -0.04284008 -0.052443665 -0.047577947 -0.02652825 -0.026655704 -0.038105812
-0.011375056 -0.048353426 -0.0422165 -0.06388122 -0.042314924 -0.023686964 -0.048927564 -0.041710787
-0.038409192 -0.04857182 -0.02993583 -0.062083192 -0.039769143 -0.044898365 -0.04158559 0.016950669
-0.006011458 -0.03996293 -0.03672492 -0.085783385 -0.05335826 -0.0039359815 -0.03897644 -0.054147694
-0.033802073 -0.026140086 -0.036838036 -0.043846443 -0.028597947 -0.024695864 -0.06796801 -0.057560205
-0.028172435 -0.045120113 -0.013393616 -0.039849415 -0.017857207 0.013041385 -0.01471342 -0.009033386
-0.022649022 0.010579153 -0.04718279 -0.047387674 -0.01817313 -0.021084847 -0.05863942 -0.056042984
-0.05139306 0.02010498 -0.019893456 -0.013748561 -0.06760803 -0.04269875 -0.031325277 -0.049211323
-0.02946416 -0.0042975186 -0.037384965 -0.059395976 -0.018150482 0.023189526 -0.058476403 -0.047212563
-0.028155463 -0.057021555 0.0014064701 -0.022819718 -5.5220466e-05 -0.06203726 -0.054834463 -0.049833126
00000000: 0de2 28bd 5d5f e5bc 5175 22bd 2b22 a7bc
00000010: 0c82 acbb 8258 4fbd 799c 68bd 3551 bcbd
00000020: 5683 c9bc 692c 2fbc a22e c83c 7c8a 3bbd
00000030: ed7f 00bd c36b 08bd cb81 9bbd 9e28 a2bc
00000040: 3ae5 40bd 02c5 21bd a179 27bd cc91 68bd
00000050: 0784 44bd 7692 aebc 657d 823c 6e08 c7bc
00000060: 4542 6abd f84f 16bd cc03 fcbc 2f13 43bc
00000070: 27e3 45bd 8da3 05bd 1ae3 8fbd e341 93bc
00000080: fc96 1cbc a1f0 00bd 7473 1f3d 0cf8 dbbc
00000090: 361b 8fbd d883 13bd 26f2 6dbd 6e15 cebc
000000a0: a975 afbc 8957 3cbd fa9a 163d 0fd8 56bd
000000b0: 2402 77bd 8d14 b4bc f703 edbc 2c6d 48bd
000000c0: 399e 293c 5508 3ebd c0d9 90bd ff0d b9bc
000000d0: e3db 90bc 1078 07bd 0225 18bd 73fc 2dbd
000000e0: 9b4f 22bd da55 2abd ed27 f0bc 6ac9 0ebd
000000f0: 9393 4bbd 01d0 10bd 14cf 32bd a61e 3fbc
00000100: ba7b 3ebc 5b73 2bbd 3504 4bbd f3fd ebbc
00000110: 4cf8 0dbd eb5e 84bd e08a 70bd ee0a a1bd
00000120: d95a e3bc 88cc 0ebd c03c ccbb 5612 49bd
00000130: 07c9 91bc 96c9 3abd 6558 bdbc d3a5 57bd
00000140: 6ed3 6ebd 1335 3dbd da6c 52bd 67b4 5bbd
00000150: f9f1 53bd e709 4abd 1deb 80bd f549 6ebd
00000160: e0c2 fdbc 7124 a4bd b72d be3c cb9d 8ebc
00000170: ddbc 80bd 7968 27bd 9e7d 2bbc 5e71 97bc
00000180: 7674 f0b9 b447 a23b a678 3a3c fdfe 88bb
00000190: 75f7 c9bc 4d56 4dbd 3b1e 373c 2284 e8bc
000001a0: 8552 bb3b 6616 11bc 7096 56bc 73ff 75bd
000001b0: 974e 35bd c53d a8bd a696 90bd b107 4abd
000001c0: 2375 1bbd cc22 5dbd 00b1 49bd 5f7b c7bc
000001d0: 27ad 2cbd c0e9 4ebd a9ae 85bd 7f34 39bd
000001e0: 1894 a1bd b42c 85bc 1d6d 13bd 90f0 9fbd
000001f0: 4b52 45bd 3196 a5bc b472 7dbd 42cd a53c
00000200: 31d8 17bc d95d 1abd e641 6dbd d4be 02bd
00000210: 2927 85bc 00ed d7bc 40b1 03bc 0da8 54bd
00000220: d3cf 02bd 16f9 49bd db88 41bd f215 383c
00000230: aa96 0cbd 65be 82bc 940f 15bd 2bf1 89bb
00000240: 5912 04bd c402 8cbc 02f3 64bd 9255 73bd
00000250: 1e5e 9dbd 135f 6fbd 287b c1bc a2a9 93bd
00000260: 11f9 43bd 21b0 1fbd a881 a6bc 134d 7ebc
00000270: c5d5 69bd 7bd9 a0bc 981c 55bb 90d5 e0bc
00000280: 8c9d 93bc ad50 90bd e9b9 e73b 1d09 17bd
00000290: feca 04bd dcb8 b4bb 253c 77bd b232 1a3c
000002a0: b5dc 253c 89a6 febc 2851 9539 d2fa 193b
000002b0: 9762 89bc 451c bcbc 3e47 8dba 3514 cabc
000002c0: df5a b9bc a5f1 40bd 1479 2fbd 2bcf 56bd
000002d0: 18e1 42bd c651 d9bc 105d dabc d714 1cbd
000002e0: 715e 3abc 3e0e 46bd 35eb 2cbd 28d4 82bd
000002f0: 6a52 2dbd 2a0b c2bc 4568 48bd eed8 2abd
00000300: f552 1dbd 3ff3 46bd fc3b f5bc f24a 7ebd
00000310: f8e4 22bd 59e7 37bd a755 2abd 21dc 8a3c
00000320: c4fb c4bb 2bb0 23bd df6c 16bd 33af afbd
00000330: 318e 5abd 68f9 80bb c2a5 1fbd f9c9 5dbd
00000340: 0b74 0abd bc23 d6bc 7be3 16bd 5498 33bd
00000350: 3e46 eabc fb4e cabc d032 8bbd 40c4 6bbd
00000360: e1c9 e6bc decf 38bd e670 5bbc 2439 23bd
00000370: 4749 92bc 89ab 553c 8e10 71bc c400 14bc
00000380: 718a b9bc 2f54 2d3c be42 41bd 9419 42bd
00000390: d1df 94bc 21ba acbc e32f 70bd 548d 65bd
000003a0: 8781 52bd 33b3 a43c 9af7 a2bc a541 61bc
000003b0: 1476 8abd e2e4 2ebd ef4e 00bd d091 49bd
000003c0: d25e f1bc 33d2 8cbb fa20 19bd 3249 73bd
000003d0: 52b0 94bc f6f7 bd3c f484 6fbd f661 41bd
000003e0: 49a6 e6bc 6f8f 69bd 4e59 b83a 6bf0 babc
000003f0: 869c 67b8 c81a 7ebd 1a9a 60bd d21d 4cbd

model/hidden/output_layer/b f4 [256]
0.020696476 -0.01377854 -0.0024736633 -0.017850097 0.012998533 0.011524075 0.009302782 0.016099354
-0.0093640275 0.017371614 -0.02370347 0.0005039311 0.015755076 -0.0069776624 0.019985622 0.01560029
-0.0014710963 -0.0068560364 -0.018121494 0.015554796 -0.009263944 -0.01634584 0.011565691 -0.004736086
-0.0026485543 0.00045990324 -0.016680896 -0.005984549 0.0013613203 0.023511356 -0.021841336 -0.01525501
-0.007494505 -0.0145536205 0.015844569 -0.008532491 -0.014571393 0.0011211671 0.01606638 -0.0015430328
0.015721861 0.0025175617 0.0047107786 0.020570323 0.006360971 -0.015576074 -0.018521577 0.0110647
-0.019680038 0.00929513 -0.015385078 -0.017520186 -0.023830242 0.008452402 -0.008476996 0.0047737956
-0.020619215 -0.013644412 0.007998948 -0.007973439 -0.0042099077 0.015461933 0.019589107 -0.012851148
0.015165427 0.013565154 -0.018111935 -0.014152535 -0.017669678 -0.017582312 -0.016098421 0.018612076
-0.012545267 -0.022585524 -0.011370464 -0.0079356935 -0.008046438 0.0035120104 -0.0068814694 0.01013959
-0.0025297403 -0.004153057 -0.010073492 0.009267519 0.010487404 -0.021345975 0.0069407797 0.015041465
-0.022813154 -0.018609783 0.006059869 0.0145830205 0.016148623 -0.003237961 -0.012992581 0.016075136
-0.014061169 -0.0040634796 0.015622809 -0.014600473 0.012745531 -0.0076227784 -0.02074504 0.0067676846
-0.007857712 0.018473076 -0.01775171 0.008447511 0.004592204 0.00086667266 0.020782117 0.0075235707
-0.023871794 0.009599946 -0.01518613 -0.014654494 -0.020306252 -0.009879341 -0.0004550484 0.013237611
-0.003375391 -0.0027831139 0.015613054 0.008296649 -0.013162205 0.014417741 0.015402285 0.008303927
-0.0061985115 -0.019795151 -0.0009184523 -0.015473211 0.017555216 -0.009318369 -0.005707606 -0.017169189
-0.015013823 0.012084618 0.016634576 0.01184305 0.019140711 -0.013734667 0.004095144 -0.002056347
-0.012974338 0.01915504 0.016088793 -0.012616903 0.011620755 -0.017532421 -0.015064567 -0.0005259757
-0.010626841 -0.015927095 0.010419866 0.0017990882 -0.013403829 0.007371188 0.008890063 0.013234173
0.0067479727 0.01311028 -0.011437507 0.0062349294 -0.0143056465 -0.022077383 -0.019999627 -0.0077647115
0.008169156 0.008003392 0.016061766 -0.013209533 -0.00067672937 0.018868145 0.017780477 0.005393941
0.008137094 -0.0022187969 -0.0055200136 -0.004911056 0.01997079 0.011408639 -0.019191878 -0.01293845
0.020861583 -0.018973203 0.020298216 -0.008728966 -0.014653347 -0.014311434 0.0144893555 -0.020263936
0.005969708 0.008270059 0.007736824 -0.02142548 0.017968476 -0.009961729 0.016647203 -0.015315153
0.0005940199 0.013349954 0.011731704 -0.020369764 0.008603677 -0.017140599 0.01377627 0.008315848
-0.013514445 -0.011791286 0.003906306 -0.0025952454 -0.017357703 -0.016186293 0.0063785263 0.01058295
0.015664611 -0.004856919 -0.01692578 0.018075565 0.0067576547 0.017490216 0.025161495 -0.00054955407
0.015719471 -0.006740477 0.013743294 -0.014804989 -0.024734367 0.014769898 -0.018672332 0.019452225
0.016672548 -0.0032844122 0.0111015085 -0.013697016 -0.014159754 -0.012666227 0.021064986 0.013121694
0.0182204 -0.012442241 0.010168529 -0.012208113 -0.008069498 0.014873643 0.0070977006 0.009094056
0.0012047117 -0.015706018 0.015496904 0.0104404725 -0.0033846272 0.011044519 -0.006443235 0.00694698
00000000: a88b a93c 63bf 61bc 2f1d 22bb 5e3a 92bc
00000010: cdf7 543c 79cf 3c3c b26a 183c cbe2 833c
00000020: 946b 19bc ea4e 8e3c c82d c2bc 3e1a 043a
00000030: ca10 813c e0a4 e4bb e3b8 a33c 5c98 7f3c
00000040: cdd1 c0ba 9aa8 e0bb 8773 94bc 8bd9 7e3c
00000050: ccc7 17bc b6e7 85bc 067e 3d3c 2b31 9bbb
00000060: 5e93 2dbb 2b1f f139 60a6 88bc 091a c4bb
00000070: 546e b23a e39a c03c 9aec b2bc 26f0 79bc
00000080: 7794 f5bb 4f72 6ebc 78cc 813c dccb 0bbc
00000090: dabc 6ebc 20f4 923a a49d 833c 973f caba
000000a0: 22cb 803c adfd 243b e05c 9a3b 1883 a83c
000000b0: b16f d03b ca32 7fbc 90ba 97bc b748 353c
000000c0: 0838 a1bc 9a4a 183c b211 7cbc 7e86 8fbc
000000d0: a437 c3bc f27b 0a3c 19e3 0abc 806d 9c3b
000000e0: a1e9 a8bc d08c 5fbc 050e 033c 07a3 02bc
000000f0: 44f3 89bb 0c54 7d3c 5679 a03c 9f8d 52bc
00000100: 6978 783c 6140 5e3c 7b5f 94bc 09e0 67bc
00000110: 00c0 90bc c808 90bc d6e0 83bc 5a78 983c
00000120: aa8a 4dbc 4705 b9bc 2f4b 3abc b604 02bc
00000130: 35d5 03bc c229 663b f37d e1bb 8620 263c
00000140: 00ca 25bb 5e16 88bb 4a0b 25bc cbd6 173c
00000150: 5cd3 2b3c c1dd aebc 7b6f e33b 7a70 763c
00000160: a7e2 babc 8b73 98bc de91 c63b 9fed 6e3c
00000170: 1e4a 843c f933 54bb d6de 54bc 01b0 833c
00000180: d160 66bc f026 85bb cff6 7f3c d336 6fbc
00000190: a2d2 503c 80c8 f9bb 81f1 a9bc 74c3 dd3b
000001a0: a2bd 00bc d954 973c 096c 91bc 6e67 0a3c
000001b0: 337a 963b 6b31 633a 423f aa3c 4988 f63b
000001c0: c88e c3bc 1849 1d3c 3fcf 78bc 6719 70bc
000001d0: 4c59 a6bc f6dc 21bc 9093 eeb9 91e2 583c
000001e0: aa35 5dbb e764 36bb e5cd 7f3c abee 073c
000001f0: 4aa6 57bc 6438 6c3c de59 7c3c 320d 083c
00000200: e21c cbbb 7129 a2bc 4ac4 70ba 5a83 7dbc
00000210: f5cf 8f3c 13ac 18bc df06 bbbb 66a6 8cbc
00000220: 8afc 75bc 90fe 453c 3c45 883c 5a09 423c
00000230: fbcc 9c3c 5e07 61bc 8f30 863b c7c3 06bb
00000240: 5192 54bc 08eb 9c3c a5cc 833c 20b7 4ebc
00000250: fb64 3e3c 27a0 8fbc 60d1 76bc a2e1 09ba
00000260: 341c 2ebc 8a79 82bc 16b8 2a3c 62cf eb3a
00000270: bc9b 5bbc 028a f13b a0a7 113c 25d4 583c
00000280: 191e dd3b 80cc 563c 6264 3bbc 614e cc3b
00000290: 3b62 6abc a1db b4bc 42d6 a3bc 1f6f febb
000002a0: ecd7 053c a920 033c f793 833c cc6c 58bc
000002b0: 8a66 31ba 5e91 9a3c 5da8 913c a8bf b03b
000002c0: 7251 053c 3c69 11bb 3be1 b4bb ecec a0bb
000002d0: c899 a33c 4deb 3a3c 4938 9dbc cbfb 53bc
000002e0: e9e5 aa3c b16d 9bbc 7248 a63c f003 0fbc
000002f0: 9814 70bc 817a 6abc c364 6d3c 8e00 a6bc
00000300: 8a9d c33b 247f 073c 2f85 fd3b 7d84 afbc
00000310: a032 933c 8536 23bc b75f 883c 68ec 7abc
00000320: 00b8 1b3a c4b9 5a3c 5536 403c 7ede a6bc
00000330: 70f6 0c3c 716a 8cbc ddb5 613c 323f 083c
00000340: b16b 5dbc 3d30 41bc 7800 803b fe14 2abb
00000350: be31 8ebc 1e99 84bc f502 d13b 1c64 2d3c
00000360: 1253 803c ca26 9fbb efa7 8abc 3513 943c
00000370: 516f dd3b a447 8f3c 7b1f ce3c f30f 10ba
00000380: 1fc6 803c 38df dcbb 8e2b 613c a090 72bc
00000390: ba9f cabc 71fd 713c b8f6 98bc 465a 9f3c
000003a0: de94 883c 4b3f 57bb 1ae3 353c 7369 60bc
000003b0: 50fe 67bc 0286 4fbc 7a90 ac3c 60fc 563c
000003c0: f342 953c 8bda 4bbc e799 263c 8a04 48bc
000003d0: ee35 04bc 95b0 733c d493 e83b 3cff 143c
000003e0: 6be7 9d3a e8a9 80bc bae6 7d3c 840e 2b3c
000003f0: 9fd0 5dbb 12f4 343c c621 d3bb 7ea3 e33b

model/a_stream/W f4 [3, 256]
-0.014587676 0.011730318 -0.044775218 0.016885016 -0.006134175 -0.022841278 0.01936293 -0.010687779
0.01742926 0.004146417 0.010246177 -0.02599328 -0.01005805 -0.043629307 -0.0072277216 -0.002184927
0.020901185 -0.026478754 0.011122034 -0.0073254807 0.009731197 0.0037371912 0.015800597 0.004955173
0.03581772 -0.048251387 0.01692307 -0.0409576 0.05136215 -0.016983414 0.010542175 -0.0012287359
-0.039022136 0.009043756 -0.015117582 -0.014569411 0.0209367 -0.028967153 0.0033488348 -0.033237442
-0.012763984 0.024341632 0.037129086 -0.0023058155 0.03419775 0.010638994 0.011189001 0.034922503
0.025523718 -0.017180713 0.0062580053 0.011134008 0.0012668271 0.031264096 -0.019817777 0.009271121
0.02463642 0.015071262 0.040392067 -0.0156125 -0.012445712 0.014816236 -0.006293972 -0.011458109
-0.016131707 -0.022242805 0.004952667 -0.0020171744 -0.0024874783 0.010455696 0.011190174 -0.005402623
0.01669632 0.0028075106 -0.039620835 -0.03900006 0.021016333 -0.019221585 -0.044097953 0.020484243
0.030302156 0.041471858 -0.031888604 -0.018274449 0.0322691 0.00022939223 0.03521587 0.019410726
0.004429206 0.008495064 0.038044225 -0.00010314677 -0.0020706714 -0.04151032 -0.00038388444 -0.0071565933
0.009132621 0.018190933 -0.0035850042 -0.009737856 -0.004308595 -0.020691017 0.017113782 0.022884287
-0.03272738 -0.02117111 0.008570832 0.032368496 -0.020688932 0.0042075766 -0.016506014 0.026760066
0.0046329126 0.028684074 -0.0012087174 0.009000451 0.015377382 0.0038001966 -0.031330526 -0.0064562587
-0.031434495 -0.038155917 -0.022807553 0.017687317 0.021179426 0.007516616 0.0021721255 0.023407517
-0.04222827 0.013128536 -0.04113241 -0.012830574 -0.003369725 -0.014408732 0.022463305 0.0011975649
0.0056196484 0.01565049 0.008339287 -0.0019500181 -0.00075927196 0.010195314 -0.020182367 0.026119735
0.011053648 -0.016862545 -0.01420967 0.011706356 0.023474954 0.007877574 0.0024870157 -0.002624428
-0.04266338 0.01443939 0.022163372 -0.018885974 0.015659291 0.030526206 0.038925856 -0.023641786
0.04106644 -0.022122493 -0.010896099 0.011449438 0.018628703 0.009990583 0.0026208246 -0.020441638
-0.009043521 0.03242933 0.008286921 0.01663918 0.018186823 -0.0047992533 -0.006233849 -0.0070185997
0.03833275 -0.020685062 -0.033587947 -0.014050868 -0.018694852 -0.009170671 0.0060282433 0.013960504
0.001084166 -0.0026962238 0.0015716399 -0.040610015 0.019782422 -0.006523248 -0.015265 -0.0011793459
0.03820038 0.024189672 0.02789451 -0.06850917 -0.01874543 0.011181769 -0.02443543 0.0035493746
-0.033547897 -0.0042711953 -0.019064363 0.023105863 0.055965606 -0.0011600361 -0.022195032 0.025946718
0.018005645 -0.020122714 0.04494562 -0.024924079 0.0046507264 0.0013090472 0.02885498 -0.010868548
-0.0027949568 -0.03798643 -0.0021887422 -0.008981637 0.02883673 -0.009560265 -0.0052127712 0.04808457
-0.007904505 -0.044245146 0.01263325 0.016390966 0.0024553323 -0.011666185 0.009182636 -0.005981698
-0.0038276876 0.016467799 0.05496378 -0.006765479 0.019698918 -0.0016724187 -0.011576996 0.018821485
-0.009291345 -0.013235601 -0.013475073 0.024506541 -0.041259013 -0.009637554 0.044622723 0.04473853
-0.026459679 0.003407743 -0.023969565 0.019338744 -0.024728222 0.0225224 -0.041507654 0.022253092
00000000: 2601 6fbc 8530 403c 3866 37bd 7252 8a3c
00000010: 3101 c9bb a21d bbbc 029f 9e3c cb1b 2fbc
00000020: cfc7 8e3c abde 873b 95df 273c dcef d4bc
00000030: 85ca 24bc a5b4 32bd 86d6 ecbb fe30 0fbb
00000040: f638 ab3c f9e9 d8bc 3139 363c 960a f0bb
00000050: 996f 1f3c aaeb 743b 4170 813c 015f a23b
00000060: 9ab5 123d 3fa3 45bd 40a2 8a3c 28c3 27bd
00000070: 1e61 523d cd20 8bbc 16b9 2c3c 890d a1ba
00000080: add5 1fbd 432c 143c bcaf 77bc 8ab4 6ebc
00000090: 7183 ab3c 864c edbc 2078 5b3b fc23 08bd
000000a0: 0720 51bc 1a68 c73c ab14 183d 2a1d 17bb
000000b0: f112 0c3d 2d4f 2e3c 1252 373c e60a 0f3d
000000c0: 1e17 d13c 91be 8cbc f40f cd3b 6a6b 363c
000000d0: aa0b a63a c80e 003d e458 a2bc e6e5 173c
000000e0: 51d2 c93c 74ed 763c 2772 253d 92cb 7fbc
000000f0: 1ae9 4bbc ccbf 723c aa3d cebb cbba 3bbc
00000100: a426 84bc 8b36 b6bc fb49 a23b 9232 04bb
00000110: f604 23bb 5e4e 2b3c fe56 373c 7d08 b1bb
00000120: b9c6 883c 36fe 373b 7549 22bd 87be 1fbd
00000130: 722a ac3c 9676 9dbc 0ea0 34bd 92ce a73c
00000140: 3a3c f83c 65de 293d a09d 02bd 4cb4 95bc
00000150: 9b2c 043d 0289 7039 843e 103d 3e03 9f3c
00000160: df22 913b e22e 0b3c 43d4 1b3d 8050 d8b8
00000170: 1ab4 07bb ba06 2abd 1944 c9b9 db81 eabb
00000180: fda0 153c 2705 953c 64f2 6abb 878b 1fbc
00000190: 1d2f 8dbb 3580 a9bc 3432 8c3c d477 bb3c
000001a0: 250d 06bd 096f adbc ad6c 0c3c d494 043d
000001b0: d67b a9bc b6df 893b 9f37 87bc ed37 db3c
000001c0: b0cf 973b ddfa ea3c d36d 9eba a176 133c
000001d0: 6af1 7b3c b80c 793b 7054 00bd 068f d3bb
000001e0: 75c1 00bd 6149 1cbd e8d6 babc fee4 903c
000001f0: 7a80 ad3c f24d f63b 385a 0e3b 1fc1 bf3c
00000200: 8df7 2cbd 1219 573c 757a 28bd 5437 52bc
00000210: 9bd6 5cbb 9a12 6cbc f704 b83c 9cf7 9c3a
00000220: 0725 b83b 7535 803c 81a1 083c c097 ffba
00000230: e109 47ba 3f0a 273c 7e55 a5bc 0ef9 d53c
00000240: 5c1a 353c 5223 8abc adcf 68bc 04cc 3f3c
00000250: 8c4e c03c f110 013c 33fd 223b 98fe 2bbb
00000260: ccbf 2ebd 3193 6c3c f68f b53c c2b6 9abc
00000270: ea47 803c 1812 fa3c b870 1f3d 6bac c1bc
00000280: 4935 283d 3b3a b5bc 8d85 32bc 6c96 3b3c
00000290: 399b 983c 8baf 233c 24c2 2b3b 3975 a7bc
000002a0: 472b 14bc 9ed4 043d dec5 073c e44e 883c
000002b0: 88fc 943c 0e43 9dbb 5145 ccbb 48fc e5bb
000002c0: cd02 1d3d b873 a9bc 8493 09bd 9d35 66bc
000002d0: f225 99bc 9540 16bc 9288 c53b 99ba 643c
000002e0: 931a 8e3a 21b3 30bb 7cff cd3a b056 26bd
000002f0: bf0e a23c f8c0 d5bb 0d1a 7abc 4894 9aba
00000300: 0078 1c3d 6b29 c63c 0783 e43c 894e 8cbd
00000310: 0490 99bc bd33 373c d02c c8bc a09c 683b
00000320: 8569 09bd 62f5 8bbb de2c 9cbc 8248 bd3c
00000330: 313c 653d 5a0c 98ba 5bd2 b5bc 368e d43c
00000340: 9380 933c 64d8 a4bc e618 383d 952d ccbc
00000350: 1f65 983b 5694 ab3a 4761 ec3c ff11 32bc
00000360: 982b 37bb a997 1bbd 0071 0fbb b727 13bc
00000370: 023b ec3c a8a2 1cbc e5cf aabb 53f4 443d
00000380: e681 01bc 663a 35bd b1fb 4e3c 5946 863c
00000390: a4e9 203b 8723 3fbc c472 163c 1f02 c4bb
000003a0: f1d9 7abb 7ae7 863c b321 613d f4b0 ddbb
000003b0: a05f a13c 0f35 dbba 71ad 3dbc 842f 9a3c
000003c0: ba3a 18bc 22da 58bc 8dc6 5cbc f1c1 c83c
000003d0: 36ff 28bd d5e6 1dbc 51c6 363d c03f 373d
000003e0: f8c1 d8bc 7154 5f3b d25b c4bc 496c 9e3c
000003f0: d792 cabc e580 b83c ee03 2abd 1e4c b63c

model/hidden/mid_rec_layer/upward/W f4 [80, 86]
0.021847103 0.0025695593 -0.01820478 0.00960437 0.036725733 -0.004217342 -0.019915463 0.0012600551
-0.0031685557 0.01 0.01484472 0.01 0.07113347 0.065826684 0.01 0.00822537
0.0913137 0.01 -0.029241517 0.036548097 0.01 0.026174298 0.07586865 0.01
-0.06544272 0.00916304 0.01 0.08327229 0.103943266 0.01 -0.0073199803 0.012013734
0.01 -0.036602534 -0.04256636 0.01 -0.0025704592 0.0052792365 0.01 -0.08616096
-0.008239635 0.01 -0.011818744 0.032142296 0.01 -0.030656869 -0.0071331356 0.078755215
-0.019809727 -0.046853986 -0.007872205 -0.0022291662 -0.005704638 0.063157156 -0.0073893014 -0.009831943
0.01 0.0505576 0.053686462 0.01 0.056263056 -0.020486308 -0.013997081 0.02365912
-0.06904003 0.07815232 0.100350596 -0.06041375 -0.018953938 0.012081092 -0.019551966 0.01
-0.08771216 0.0145351635 0.01 -0.048058633 -0.032858197 0.06561286 0.024318963 -0.040628646
-0.025212537 0.02195906 -0.046463724 -0.02286147 0.0147325 0.0012248819 -0.0707505 -0.16658519
-0.13705471 -0.10491145 -0.110570624 -0.10344956 -0.086136654 -0.09873569 -0.4428688 0.01
-0.1136299 0.01 -0.10216007 -0.048823982 0.01 0.029676693 -0.024918156 0.01
0.06509747 -0.075623885 0.01 0.010477606 -0.083520986 0.01 0.13560171 -0.027186424
0.01 -0.0060343677 -0.04030085 0.01 0.015446913 -0.11397271 0.01 0.05244389
-0.062222905 0.01 0.0148297185 0.005025696 0.01 0.12068046 -0.027007582 0.01
0.012822375 -0.10099747 0.01 0.020051667 -0.18770815 -0.09246664 0.08619966 -0.20038266
-0.11617944 -0.16463897 -0.19988166 -0.07743077 0.06636442 -0.052479483 0.01 -0.0058184
-0.0071980786 0.01 -0.027211046 0.02646617 -0.011380595 -0.1501413 -0.06538492 -0.16516821
-0.17939109 0.06403453 0.0008267752 -0.006813911 -0.007455892 0.01 0.12373417 -0.0015562777
0.01 -0.029502487 0.026044397 -0.14989598 -0.0875277 0.0020453248 -0.0014035879 -0.22792833
0.045326017 -0.020501683 -0.15822913 -0.0045607537 -0.13851807 -0.19320762 -0.18487364 -0.0497033
-0.14641054 -0.10203276 -0.0884913 -0.14359 -0.38676432 0.01 -0.09922276 0.01
-0.099848166 -0.056871463 0.01 -0.047416184 -0.049265567 0.01 0.032617737 -0.05333715
0.01 0.005604012 -0.06311192 0.01 0.14452 -0.03808717 0.01 -0.17106636
-0.07683194 0.01 -0.018146154 -0.13222957 0.01 -0.030080657 -0.14842829 0.01
-0.06007285 -0.034553487 0.01 0.07434195 -0.044474922 0.01 0.008268672 -0.10057482
0.01 -0.035814367 -0.17577283 -0.11417859 0.042616528 -0.18860355 -0.14226541 -0.11632773
-0.12378417 -0.10625442 0.0636381 -0.022183552 0.01 -0.055007618 -0.02605108 0.01
-0.025672747 -0.021017842 -0.024385113 -0.09312196 -0.108063295 -0.20241612 -0.18287224 -0.03245866
-0.009452542 -0.031413503 -0.028413223 0.01 0.119546525 -0.049147982 0.01 0.040025372
0.0010897208 -0.15943266 -0.09515609 -0.0718013 0.0138893165 -0.20697102 0.028227886 -0.007857335
00000000: b2f8 b23c 0d66 283b 3122 95bc a65b 1d3c
00000010: b96d 163d a131 8abb c125 a3bc 6f28 a53a
00000020: 8ba7 4fbb 0ad7 233c 4537 733c 0ad7 233c
00000030: 6dae 913d 24d0 863d 0ad7 233c b4c3 063c
00000040: ad02 bb3d 0ad7 233c e88b efbc 75b3 153d
00000050: 0ad7 233c 7b6b d63c 0661 9b3d 0ad7 233c
00000060: d506 86bd 9320 163c 0ad7 233c aa8a aa3d
00000070: 35e0 d43d 0ad7 233c 72dc efbb 41d5 443c
00000080: 0ad7 233c 8aec 15bd 105a 2ebd 0ad7 233c
00000090: 2675 28bb 72fd ac3b 0ad7 233c 2875 b0bd
000000a0: 89ff 06bc 0ad7 233c 68a3 41bc a4a7 033d
000000b0: 0ad7 233c 1d24 fbbc 14bd e9bb 6a4a a13d
000000c0: 0248 a2bc f7e9 3fbd 6cfa 00bc 3417 12bb
000000d0: f9ed babb 8a58 813d f421 f2bb 2816 21bc
000000e0: 0ad7 233c 7c15 4f3d 56e6 5b3d 0ad7 233c
000000f0: 1774 663d e7d2 a7bc 0354 65bc c5d0 c13c
00000100: dc64 8dbd 530e a03d 9d84 cd3d 6974 77bd
00000110: 4a45 9bbc c6ef 453c 722b a0bc 0ad7 233c
00000120: 6fa2 b3bd e524 6e3c 0ad7 233c 21d9 44bd
00000130: 5196 06bd 0960 863d 9038 c73c 396a 26bd
00000140: 868a cebc 7de3 b33c bf50 3ebd fa47 bbbc
00000150: 9560 713c 378c a03a a3e5 90bd 4f95 2abe
00000160: 1258 0cbe d0db d6bd da72 e2bd 5ddd d3bd
00000170: 6a68 b0bd f035 cabd b3bf e2be 0ad7 233c
00000180: cbb6 e8bd 0ad7 233c 4c39 d1bd a8fb 47bd
00000190: 0ad7 233c 891c f33c 2921 ccbc 0ad7 233c
000001a0: d351 853d b2e0 9abd 0ad7 233c 44aa 2b3c
000001b0: 0d0d abbd 0ad7 233c 2ddb 0a3e 10b6 debc
000001c0: 0ad7 233c f2bb c5bb 8112 25bd 0ad7 233c
000001d0: 0d15 7d3c 866a e9bd 0ad7 233c 68cf 563d
000001e0: 72dd 7ebd 0ad7 233c 59f8 723c 98ae a43b
000001f0: 0ad7 233c 5127 f73d 013f ddbc 0ad7 233c
00000200: f014 523c c3d7 cebd 0ad7 233c 6543 a43c
00000210: 9136 40be 265f bdbd 7389 b03d 1d31 4dbe
00000220: 7cef edbd 1e97 28be c7ad 4cbe 0694 9ebd
00000230: 12ea 873d baf4 56bd 0ad7 233c 47a8 bebb
00000240: dcdd ebbb 0ad7 233c b3e9 debc 95cf d83c
00000250: ad75 3abc a4be 19be 87e8 85bd db21 29be
00000260: 4cb2 37be 8924 833d f2bb 583a 3a47 dfbb
00000270: 8e50 f4bb 0ad7 233c 5768 fd3d 04fc cbba
00000280: 0ad7 233c 33af f1bc 0f5b d53c 557e 19be
00000290: b941 b3bd db0a 063b 98f8 b7ba 0b66 69be
000002a0: c6a7 393d 25f3 a7bc d106 22be 6072 95bb
000002b0: aed7 0dbe 38d8 45be 844f 3dbe b095 4bbd
000002c0: a5ec 15be 8df6 d0bd ed3a b5bd 4209 13be
000002d0: f905 c6be 0ad7 233c 4d35 cbbd 0ad7 233c
000002e0: 327d ccbd 0df2 68bd 0ad7 233c 7937 42bd
000002f0: b1ca 49bd 0ad7 233c 2d9a 053d 0e78 5abd
00000300: 0ad7 233c dca1 b73b d340 81bd 0ad7 233c
00000310: 0dfd 133e 4b01 1cbd 0ad7 233c 052c 2fbe
00000320: 105a 9dbd 0ad7 233c 3ea7 94bc 3067 07be
00000330: 0ad7 233c b66b f6bc 96fd 17be 0ad7 233c
00000340: f30e 76bd f587 0dbd 0ad7 233c 9840 983d
00000350: 562b 36bd 0ad7 233c 5379 073c 2cfa cdbd
00000360: 0ad7 233c 16b2 12bd cbfd 33be 77d6 e9bd
00000370: ab8e 2e3d 4a21 41be 06ae 11be 3c3d eebd
00000380: 8e82 fdbd eb9b d9bd b154 823d 48ba b5bc
00000390: 0ad7 233c ab4f 61bd 1369 d5bc 0ad7 233c
000003a0: a74f d2bc 9c2d acbc 4ac3 c7bc bab6 bebd
000003b0: 4a50 ddbd 2c46 4fbe dc42 3bbe 5ff3 04bd
000003c0: d6de 1abc 72ab 00bd d9c2 e8bc 0ad7 233c
000003d0: cfd4 f43d 654f 49bd 0ad7 233c a5f1 233d
000003e0: f6d4 8e3a 5142 23be 32e1 c2bd 8f0c 93bd
000003f0: 0490 633c 36f0 53be 2b3e e73c 0dbc 00bc

model/hidden/mid_layer/W f4 [256, 256]
0.013693589 -0.0006005894 0.00089157594 -0.0100909555 -0.006115163 -0.015342637 -0.0121600805 -0.010249338
0.0015474978 -0.003545156 -0.011607561 -0.014292051 -0.025795061 -0.01523766 -0.018049007 -0.021238131
-0.02134621 -0.019092787 -0.022576615 0.0075251055 -0.036031477 -0.0025514483 -0.006792 -0.014441538
-0.034507006 -0.008369901 0.011524855 0.00014805677 -0.0061883563 -0.00470532 -0.018434873 0.0050874725
-0.010803026 -0.00207116 0.006559888 -0.02996464 -0.008727781 -0.0025996435 -0.0045398846 -0.019427879
-0.019328065 -0.020962622 -0.005025155 -0.01934776 0.0085109 -0.0006467984 -0.0091720745 0.010158535
0.04131718 0.004424811 -0.0121463705 0.002870803 -0.0090593025 -0.0012885305 -0.0068006865 -0.026161285
0.0022069218 -0.008991899 -0.01731341 0.011137287 -0.014249938 0.0037778916 -0.011728091 -0.01496132
-0.008435716 -0.015165032 -0.0048058503 0.0054591177 -0.008565181 -0.0077901664 -0.017942306 -0.01120365
0.0022547941 -0.016568989 -0.01343146 -0.029931147 -0.013704639 -0.00264751 -0.020806896 -0.011066872
0.0022533024 -0.0042658886 -0.0016554845 -0.0029835936 -0.0106676 -0.002610233 -0.008206492 -0.004612318
-0.01214909 -0.013630825 -0.023932878 -0.00350056 0.00010947405 -0.015405842 -0.017692653 0.020647172
-0.003043013 -0.042603653 -0.011648629 -0.017339166 -0.014825706 -0.03052583 -0.00067825743 -0.0082108285
-0.017699279 -0.04524896 0.022442134 -0.03486569 -0.02100224 -0.028465258 0.0012581088 -0.01298415
-0.023736784 -0.011540997 0.019905183 -0.012601471 -0.0057223253 -0.017851414 -0.0007303903 -0.0019613768
0.020829646 0.0027071459 -0.009665779 -0.01425663 -0.010381599 -0.038579293 -4.6138553e-05 -0.0058896025
-0.01236634 -0.0131855 -0.013310041 0.0069091315 -0.027228594 -0.014244264 -0.021904891 -0.001148457
-0.021328127 -0.0044804383 0.0026012359 -0.0058327336 0.0017630112 -0.009879282 0.010542627 0.006949575
-0.013239892 -0.013944497 -0.013454016 -0.001823456 -0.0034147648 -0.0003733624 -0.010036879 -0.0036147137
-0.00600157 -0.026548577 0.017942946 -0.031382684 -0.026143959 0.01001902 -0.0019477615 -0.0086436365
0.00092045154 -0.015279739 0.0049804784 0.017008567 0.00038051937 -0.006426377 0.011233626 0.016971987
-0.0075289155 -0.023924388 0.019344026 -0.0107154315 0.0031764857 0.00041441008 -0.013988375 0.008011174
-0.011665139 -0.0016105319 0.00043460028 -0.03243994 -0.0045025344 -0.021804895 -0.00941175 -0.013534653
-0.00535556 -0.020672694 -0.007891869 -0.018066823 -0.035228495 -0.025745569 -0.024193859 0.0042723073
0.020372165 0.003174297 -0.00036368205 -0.011012631 -0.009546079 0.009801805 -0.039340194 0.018872557
-0.008586452 -0.005379491 -0.011318992 -0.036239546 0.012230221 -0.0006636416 -0.020449638 -0.01247479
-0.003616167 -0.009873369 -0.01739568 -0.022994379 -0.018324163 -0.0030299136 -0.024630671 -0.025065742
-0.020839283 -0.012121363 -0.010887228 -0.022132972 -0.0057173297 -0.004750568 -0.031647537 -0.0014338426
0.00662929 -0.008892102 -0.0172129 0.0014365495 0.00139138 -0.009189444 -0.0042009847 -0.003689595
-0.0023665077 -0.031994484 -0.013199179 -0.0053772186 0.0016341015 -0.010379104 0.005247315 -0.029676374
-0.01313984 -0.015730824 0.0014598854 -0.035026122 -0.0155491 -0.004023227 -0.012994339 -0.03414784
-0.019748706 -0.0084349215 -0.0025716168 -0.014835327 -0.0143955415 -0.0075134523 -0.026056426 0.0077090976
00000000: 135b 603c df70 1dba a6b8 693a 8954 25bc
00000010: b561 c8bb af5f 7bbc 133b 47bc d7ec 27bc
00000020: 69d5 ca3a d955 68bb a42d 3ebc 3529 6abc
00000030: 2a50 d3bc 61a7 79bc 83db 93bc 97fb adbc
00000040: 3fde aebc 7a68 9cbc 98f2 b8bc 2995 f63b
00000050: be95 13bd 3336 27bb 6d8f debb 339c 6cbc
00000060: 3857 0dbd e921 09bc bfd2 3c3c b03f 1b39
00000070: b2c7 cabb 162f 9abb bb04 97bc d0b4 a63b
00000080: 2dff 30bc 4cbc 07bb 54f4 d63b 6878 f5bc
00000090: f7fe 0ebc c85e 2abb 50c3 94bb 3727 9fbc
000000a0: e455 9ebc ceb9 abbc 0eaa a4bb 327f 9ebc
000000b0: 4d71 0b3c e88d 29ba 7846 16bc fc6f 263c
000000c0: 343c 293d 01fe 903b 9201 47bc 1524 3c3b
000000d0: 786d 14bc e9e3 a8ba 4bd8 debb 3150 d6bc
000000e0: 01a2 103b c252 13bc dad4 8dbc 2b79 363c
000000f0: 9278 69bc 8196 773b 2e27 40bc 5320 75bc
00000100: f535 0abc c176 78bc 657a 9dbb 66e2 b23b
00000110: f954 0cbc a744 ffbb befb 92bc 848f 37bc
00000120: 2bc5 133b b0bb 87bc a00f 5cbc 2a32 f5bc
00000130: 6c89 60bc d981 2dbb 3973 aabc d351 35bc
00000140: 24ac 133b dec8 8bbb d8fc d8ba 6588 43bb
00000150: 28c7 2ebc 7110 2bbb 8674 06bc ed22 97bb
00000160: fa0c 47bc d353 5fbc e20e c4bc a769 65bb
00000170: 6f95 e538 c968 7cbc 2ff0 90bc 4224 a93c
00000180: 496d 47bb 2b81 2ebd e4d9 3ebc de0a 8ebc
00000190: 85e7 72bc 4e11 fabc 16cd 31ba b686 06bc
000001a0: 14fe 90bc f956 39bd 91d8 b73c 53cf 0ebd
000001b0: e40c acbc f92f e9bc 20e7 a43a 79bb 54bc
000001c0: a573 c2bc 7316 3dbc 3210 a33c 6676 4ebc
000001d0: 5882 bbbb 213d 92bc aa77 3fba 718a 00bb
000001e0: efa2 aa3c 5f6a 313b 375d 1ebc a494 69bc
000001f0: 9517 2abc 5205 1ebd e584 41b8 91fd c0bb
00000200: 309c 4abc ff07 58bc 5c12 5abc ff65 e23b
00000210: 800e dfbc c660 69bc e371 b3bc d387 96ba
00000220: 53b8 aebc a4d0 92bb 7f79 2a3b 8420 bfbb
00000230: d714 e73a b6dc 21bc fcba 2c3c 43b9 e33b
00000240: 22ec 58bc 7677 64bc 3c6e 5cbc 0801 efba
00000250: 3fca 5fbb dabf c3b9 b971 24bc d5e4 6cbb
00000260: d1a8 c4bb 677c d9bc 16fd 923c 218b 00bd
00000270: db2b d6bc d126 243c 084c ffba 0a9e 0dbc
00000280: 754a 713a df57 7abc 4833 a33b 8d55 8b3c
00000290: 7280 c739 5c94 d2bb 3e0d 383c d608 8b3c
000002a0: 1fb5 f6bb 14fd c3bc 5d77 9e3c c78f 2fbc
000002b0: 962c 503b 2e45 d939 7f2f 65bc 4d41 033c
000002c0: 241f 3fbc 7c18 d3ba 10db e339 bedf 04bd
000002d0: ff89 93bb 2ea0 b2bc be33 1abc 73c0 5dbc
000002e0: b27d afbb c859 a9bc e64c 01bc e000 94bc
000002f0: c14b 10bd 5fe8 d2bc 3332 c6bc b6fe 8b3b
00000300: 87e3 a63c de07 503b 94ac beb9 526e 34bc
00000310: 2867 1cbc c097 203c 2f23 21bd 9f9a 9a3c
00000320: 31ae 0cbc 7146 b0bb 4b73 39bc eb6f 14bd
00000330: 4461 483c 3cf8 2dba 0086 a7bc 1063 4cbc
00000340: 37fd 6cbb e9c3 21bc 6381 8ebc b55e bcbc
00000350: 8e1c 96bc 8491 46bb 43c6 c9bc ac56 cdbc
00000360: 25b7 aabc ae98 46bc 5860 32bc 3550 b5bc
00000370: 7058 bbbb a7aa 9bbb d9a0 01bd c6ef bbba
00000380: 843a d93b 2eb0 11bc 1102 8dbc 9a4a bc3a
00000390: f75e b63a 528f 16bc 6aa8 89bb 22cd 71bb
000003a0: 6917 1bbb a60c 03bd 5f41 58bc 6133 b0bb
000003b0: 592f d63a 1e0d 2abc abf1 ab3b de1b f3bc
000003c0: 7c48 57bc eedd 80bc a059 bf3a 8d77 0fbd
000003d0: a7c1 7ebc 46d5 83bb 35e6 54bc 9bde 0bbd
000003e0: 0ac8 a1bc a032 0abc 9288 28bb df0f 73bc
000003f0: 47db 6bbc 6833 f6bb 4974 d5bc 999c fc3b

model/a_stream/b f4 [3]
0.018040957 -0.007110641 -0.0007272601
00000000: a1ca 933c 6100 e9bb 99a5 3eba

model/hidden/mid_rec_layer/upward/b f4 [80]
-0.0034532098 -0.14429337 0.8403982 -0.1443774 -0.005972043 -0.10104093 0.88178164 -0.10322579
0.016916014 -0.12334682 0.9433178 -0.1264008 -0.0028035177 -0.15393327 0.8303922 -0.15341674
-0.008401512 -0.13949881 0.8741117 -0.13914813 -0.0040811766 -0.15404224 0.8461781 -0.15460694
-0.0063696895 -0.18693943 0.8316281 -0.18599512 0.016728835 -0.124949165 0.9447024 -0.1289494
0.0026752658 -0.17319998 0.8810972 -0.17491198 -0.0020524152 -0.18162845 0.85012543 -0.1818619
-0.008970557 -0.14519736 0.866315 -0.14469847 -0.005337834 -0.12821478 0.8630171 -0.1303844
0.0012382988 -0.12201765 0.8709171 -0.12421942 -0.005133316 -0.10112166 0.86970586 -0.103679925
-0.0053976625 -0.15465774 0.8464431 -0.15536493 -0.005070288 -0.15368015 0.8558157 -0.15484837
-0.024121262 -0.12323045 0.94076097 -0.124440864 -0.0031542922 -0.15139636 0.8318592 -0.15005532
-0.002734325 -0.13200985 0.82932585 -0.13269854 -0.008204665 -0.10332913 0.89280474 -0.1055186
00000000: 3f4f 62bb a4c1 13be 5624 573f abd7 13be
00000010: 21b1 c3bb 8cee cebd 71bc 613f 0b68 d3bd
00000020: 7493 8a3c 429d fcbd 467d 713f 366f 01be
00000030: 39bb 37bb afa0 1dbe 9594 543f 4719 1dbe
00000040: 7fa6 09bc c7d8 0ebe c9c5 5f3f d97c 0ebe
00000050: 64bb 85bb 40bd 1dbe 219f 583f 4851 1ebe
00000060: d4b8 d0bb 0d6d 3fbe 94e5 543f 8175 3ebe
00000070: e90a 893c 59e5 ffbd 04d8 713f 500b 04be
00000080: 8353 2f3b 565b 31be 968f 613f 201c 33be
00000090: d081 06bb cffc 39be d2a1 593f 023a 3abe
000000a0: 3ef9 12bc 9eae 14be d2c6 5d3f d62b 14be
000000b0: ffe8 aebb bc4a 03be b0ee 5c3f 7d83 05be
000000c0: 6a4e a23a 64e4 f9bd 6cf4 5e3f c066 febd
000000d0: 6035 a8bb df18 cfbd 0ba5 5e3f 2456 d4bd
000000e0: e0de b0bb 995e 1ebe 7fb0 583f fc17 1fbe
000000f0: a924 a6bb 545e 1dbe bd16 5b3f 9290 1ebe
00000100: f499 c5bc 3f60 fcbd b6d5 703f dada febd
00000110: 3eb8 4ebb a607 1bbe b9f4 543f 1aa8 19be
00000120: 5c32 33bb 972d 07be b34e 543f 20e2 07be
00000130: dc6c 06bc 399e d3bd da8e 643f 231a d8bd

model/hidden/input_layer/W f4 [256, 86]
0.02009007 -0.06566157 0.0019203478 -0.08090209 -0.03898262 0.011460081 0.011194171 0.011879329
-0.11740888 8.190248e-05 -0.12002204 0.014166198 -0.08001768 -0.120349705 -0.010991663 0.13248667
0.014739259 -0.006627273 0.037031498 -0.14464062 0.005135362 0.11980466 0.038055908 -0.011829387
-0.05387956 -0.028695472 0.0051539177 -0.016824305 -0.15236053 0.018995447 -0.13226093 -0.021627096
0.027475143 -0.043377798 -0.033287976 -0.0027270517 -0.0637253 0.13612224 0.0016487414 -0.014770798
0.0038840233 -0.010188899 0.020746602 0.116570406 0.0077699013 0.08693418 0.10858887 -0.07895997
0.023576535 0.021536607 0.06721819 -0.090205975 0.028949281 -0.13347311 0.060319897 0.02248883
-0.00035942733 -0.02739573 -0.05892517 0.0012099606 0.00620453 0.03638364 -0.040355153 0.019566443
0.010831261 -0.06997026 -0.11177275 0.0015184784 0.004345183 -0.08046755 0.006563485 -0.0103506595
0.05036996 -0.068000935 0.0067355926 -0.0019622578 -0.09269642 -0.090100504 -0.042034786 -0.015437981
0.012516803 -0.015936669 -0.052164126 -0.0044471645 -0.03366934 -0.0029793747 -0.02052686 -0.019013442
-0.0033152106 -0.019527333 -0.019959988 -0.013581703 -0.02143745 -0.0371625 -0.009129573 -0.003498866
-0.031451005 0.006368161 -0.012337685 -0.0142547535 -0.012464417 -0.0034957447 -0.01957237 0.008605945
-0.0062712156 0.016651701 -0.0016981554 -0.00720109 -0.019491943 0.004136337 -0.008233212 -0.04144765
-0.0052018454 -0.0036706151 0.015529189 -0.0059059258 -0.017577508 -0.0063085184 -0.007351405 -0.006265678
-0.026250973 -0.0061941845 -0.01321158 0.008379917 0.0072386567 0.0035277014 -0.023329627 -0.0054451353
0.003484912 -0.02067262 0.0035269933 -0.0120451385 -0.018614411 -0.028996702 0.007546893 -0.024883484
-0.020664973 0.01678674 -0.0057784556 -0.006239039 -0.011981409 -0.024425551 0.015943239 0.011707544
-0.02370302 0.014790792 0.0076964106 0.013067894 -0.018510215 0.0070696007 -0.017871153 0.008665866
0.009902064 0.0020337133 -0.013631342 -0.015564572 -0.007775041 -0.00422417 -0.0086316075 -0.020805927
0.0028877654 -0.019407466 0.0008562622 0.01144454 -0.026451312 -0.028017715 -0.028145323 0.010643627
-0.016587619 -0.029870253 -0.016075363 -0.030258251 -0.012350394 -0.02234157 -0.026781552 -0.012231112
-0.019521115 -0.019584732 -0.075956054 0.009808062 -0.1289271 0.0022413484 -0.006570611 -0.012870155
0.09940142 0.06493931 0.0094359005 -0.07160766 0.05867512 0.020757526 -0.06820737 -0.0617446
-0.0016162957 -0.09162919 0.018971337 -0.010146331 0.029295133 -0.08371786 -0.0018390701 0.10645044
-0.1747782 -0.018155117 -0.032219503 -0.055600088 0.0031910301 0.03835949 0.0019567194 0.009538693
-0.08951521 -0.032335326 0.015969293 -0.020241586 -0.008187254 -0.0004006788 -0.0047878516 0.050334934
-0.005034875 -0.04881243 -0.05975551 -0.02205228 -0.013329684 -0.14444715 0.057371896 -0.048688058
-0.0028678633 -0.007037498 -0.033945248 -0.11543589 -0.0028239002 0.09282687 -0.14754929 0.011575697
0.03451382 -0.023583611 -0.0025420683 0.0141133 0.0022046056 -0.07737526 -0.084435344 0.00029990176
-0.11476056 0.11888103 0.03367761 0.009241431 0.06614211 0.06538627 -0.006984622 -0.021622408
0.07138506 -0.044625476 -0.060603917 0.005571594 0.067553535 -0.084196605 -0.010242943 -0.033859048
00000000: ee93 a43c 9379 86bd 2eb4 fb3a ffaf a5bd
00000010: 3dac 1fbd 10c3 3b3c c267 373c 84a1 423c
00000020: 1174 f0bd 0fc3 ab38 1ece f5bd 5719 683c
00000030: 4fe0 a3bd e879 f6bd 6016 34bc 96aa 073e
00000040: ef7c 713c 9829 d9bb 57ae 173d ac1c 14be
00000050: 8a46 a83b 255c f53d 83e0 1b3d 0cd0 41bc
00000060: d0b0 5cbd c412 ebbc 32e2 a83b 20d3 89bc
00000070: 6604 1cbe 579c 9b3c 696f 07be 4f2b b1bc
00000080: 8d13 e13c ebac 31bd f958 08bd 56b8 32bb
00000090: 6982 82bd a163 0b3e 951a d83a 3801 72bc
000000a0: 198b 7e3b 57ef 26bc c7f4 a93c 77bc ee3d
000000b0: a89a fe3b 8c0a b23d d763 de3d c4b5 a1bd
000000c0: 9423 c13c 8a6d b03c b1a9 893d e9bd b8bd
000000d0: 0b27 ed3c 2dad 08be ff11 773d 7f3a b83c
000000e0: 8571 bcb9 036d e0bc 855b 71bd 8a97 9e3a
000000f0: 5f4f cb3b 0307 153d 724b 25bd ce49 a03c
00000100: 9a75 313c 914c 8fbd 1de9 e4bd ae07 c73a
00000110: 0962 8e3b 2ccc a4bd 8112 d73b d095 29bc
00000120: bb50 4e3d 1344 8bbd 3fb6 dc3b 3999 00bb
00000130: 9fd7 bdbd 9d86 b8bd ab2c 2cbd 96ef 7cbc
00000140: 4713 4d3c 9e8d 82bc 0daa 55bd 85b9 91bb
00000150: dde8 09bd 9d41 43bb f227 a8bc 14c2 9bbc
00000160: 0144 59bb c9f7 9fbc 2183 a3bc cb85 5ebc
00000170: 979d afbc b537 18bd 3494 15bc 3b4d 65bb
00000180: c5d2 00bd 02ac d03b 0024 4abc c58c 69bc
00000190: 8e37 4cbc dd18 65bb 3c56 a0bc f3ff 0c3c
000001a0: c57e cdbb 2669 883c a494 deba 1ff7 ebbb
000001b0: 91ad 9fbc 1c8a 873b 98e4 06bc 03c5 29bd
000001c0: 3e74 aabb b48e 70bb 246e 7e3c 7f86 c1bb
000001d0: b5fe 8fbc b0b7 cebb 0ee4 f0bb 5150 cdbb
000001e0: 480c d7bc 96f8 cabb 6275 58bc eb4b 093c
000001f0: 4132 ed3b 0231 673b c61d bfbc 1b6d b2bb
00000200: 1f63 643b a059 a9bc 2125 673b f958 45bc
00000210: 407d 98bc 7e8a edbc ed4b f73b 73d8 cbbc
00000220: 9749 a9bc 5884 893c 3359 bdbb da70 ccbb
00000230: ac4d 44bc 1818 c8bc 659b 823c 00d1 3f3c
00000240: d62c c2bc 1455 723c 2c32 fc3b b81a 563c
00000250: bca2 97bc 1ca8 e73b 8666 92bc 47fb 0d3c
00000260: 443c 223c 0c48 053b fe55 5fbc 8c02 7fbc
00000270: c5c5 febb e86a 8abb 966b 0dbc 3171 aabc
00000280: aa40 3d3b 68fc 9ebc c976 603a e181 3b3c
00000290: 6cb0 d8bc 6885 e5bc 0591 e6bc 9b62 2e3c
000002a0: c2e2 87bc 76b2 f4bc 7bb0 83bc 27e0 f7bc
000002b0: 4f59 4abc ab05 b7bc fc64 dbbc 0165 48bc
000002c0: bfea 9fbc 2970 a0bc d98e 9bbd feb1 203c
000002d0: 7705 04be 96e3 123b 484e d7bb 58dd 52bc
000002e0: f992 cb3d e7fe 843d 0999 1a3c 09a7 92bd
000002f0: 5355 703d b00b aa3c 4eb0 8bbd e8e7 7cbd
00000300: e2d9 d3ba 16a8 bbbd c769 9b3c cc3c 26bc
00000310: 59fc ef3c 4574 abbd f40c f1ba b002 da3d
00000320: 0ef9 32be 0aba 94bc 99f8 03bd ebbc 63bd
00000330: 9a20 513b d71e 1d3d 4e3c 003b 2e48 1c3c
00000340: c053 b7bd 0c72 04bd 09d2 823c afd1 a5bc
00000350: d523 06bc 3312 d2b9 69e3 9cbb 012c 4e3d
00000360: 98fb a4bb 8bef 47bd 32c2 74bd fca6 b4bc
00000370: bf64 5abc f4e9 13be cbfe 6a3d 216d 47bd
00000380: c3f2 3bbb d09a e6bb 2c0a 0bbd a769 ecbd
00000390: 2f11 39bb 041c be3d 2917 17be fea7 3d3c
000003a0: 5d5e 0d3d 6b32 c1bc d498 26bb 783b 673c
000003b0: 257b 103b ec76 9ebd 70ec acbd 223c 9d39
000003c0: 9607 ebbd e677 f33d 89f1 093d 5f69 173c
000003d0: 8475 873d 3de9 853d 42df e4bb 7a21 b1bc
000003e0: 5532 923d 34c9 36bd d03b 78bd eb91 b63b
000003f0: 8259 8a3d 456f acbd 04d2 27bc c9af 0abd

model/v_stream/W f4 [1, 256]
-0.03863746 0.054828074 0.041907255 0.015964635 -0.0055867312 -0.06048281 -0.02096447 -0.052803427
-0.0025940365 -0.02582423 0.025909068 0.021524407 -0.031178992 0.03758276 -0.037457276 -0.060987044
-0.01301878 0.06340683 0.032783315 -0.063174844 0.0034567253 0.062038846 -0.024438819 0.011759284
-0.07088257 0.04070526 0.04485171 0.065718554 -0.041398294 -0.031491682 0.044741966 0.0326767
0.060887545 0.005844513 -0.04889576 0.012292602 0.0641788 0.01864503 -0.048512973 0.025895257
-0.06148348 -0.014170534 -0.045271873 -0.04585612 -0.0069425786 0.062439967 0.044478945 -0.03503197
0.011541234 -0.01738308 0.06675908 0.009266636 0.029169353 -0.03457093 0.026032925 -0.004809706
0.019915786 0.0127521 -0.02759962 0.019804481 0.018680803 -0.04123405 -0.015408074 0.06818242
-0.056460265 -0.042473122 0.05518239 0.067565575 0.05828236 0.02078075 0.053201616 -0.062402915
0.007453155 0.04093982 0.038745265 0.037306745 0.040295508 0.006062856 0.043736264 -0.02147187
-0.05782997 -0.016577106 0.032679986 -0.020982347 -0.026972353 0.047475584 -0.03848182 -0.06482878
0.026151264 0.049460433 -0.012683301 -0.077071205 -0.06123567 0.029899618 0.04380201 -0.047046352
0.06950684 -0.009261355 -0.07181129 0.058270015 -0.006672535 0.022980778 0.0369431 -0.013174896
0.049781866 -0.034786545 0.05534349 -0.025760649 0.0062396294 -0.003129648 -0.037767053 -0.022125287
0.03917463 -0.021602524 0.06803551 0.06909879 0.04893829 0.04424345 0.019843265 -0.0014645464
0.052363906 0.032350983 -0.043342095 -0.021318294 0.02512303 -0.06807799 -0.066023044 -0.030588986
0.0415352 0.039904583 0.030572524 0.062113035 -0.0537339 0.050260596 0.011799131 0.064293765
0.070746705 -0.06922569 -0.063289486 -0.03936893 -0.056521606 0.06865261 0.0040519424 -0.017504876
0.004692705 -0.04327033 -0.053181164 0.054592792 -0.030514816 0.038183562 0.061769594 0.0002562016
0.03281864 0.06498375 -0.04945156 0.0031660309 0.05946983 -0.06333418 -0.051218778 -0.01852492
-0.040095337 -0.057964213 0.06366288 -0.0027786128 0.058422297 0.026783483 0.028139986 0.02191947
-0.009032526 -0.008963542 -0.073183395 0.013603655 -0.0069372663 -0.05574742 -0.008535444 -0.0009090788
-0.061728846 0.017469747 0.049641613 0.0062058805 -0.030434141 0.00059092377 0.052196085 0.0413578
-0.052030247 0.0342064 -0.016267477 0.042269684 0.042712327 0.06928546 -0.051603556 0.02945707
-0.060796235 -0.021054776 -0.06146193 -0.029250557 -0.041734084 0.03743082 -0.038867466 0.069592975
0.023718778 -0.04888132 -0.013733695 0.022143628 0.004329466 0.062422782 -0.042529494 -0.034556694
0.017001266 0.049728107 -0.048635785 0.020673444 0.06072732 0.06392464 -0.018189788 -0.043531153
-0.063408904 0.031908795 0.063409105 -0.039630093 -0.06337449 -0.055920362 -0.035015758 -0.026800038
-0.06798433 0.0607253 -0.054727986 0.046444844 0.031225853 -0.04723122 0.055603314 -0.056594823
-0.054860298 -0.015024145 0.0028428612 0.047225635 0.040178243 0.035238378 -0.039565757 -0.051995855
-0.056953114 0.06181761 0.0033268847 0.0476824 0.032536607 -0.06723842 -0.055202708 -0.0539307
0.016035277 0.05918341 -0.0423768 -0.013832644 0.05439902 -0.061451316 0.039535984 -0.017248418
00000000: 5042 1ebd 6793 603d f1a6 2b3d 44c8 823c
00000010: e610 b7bb d3bc 77bd aebd abbc 6848 58bd
00000020: b600 2abb 568d d3bc 413f d43c f453 b03c
00000030: 166b ffbc 61f0 193d cd6c 19bd 8dcd 79bd
00000040: b94c 55bc 71db 813d cc47 063d d061 81bd
00000050: 3a8a 623b 721c 7e3d eb33 c8bc 03aa 403c
00000060: e22a 91bd 8fba 263d 6db6 373d 7397 863d
00000070: 4291 29bd 6cfd 00bd 5a43 373d 01d8 053d
00000080: 3865 793d 5483 bf3b ec46 48bd e966 493c
00000090: 2d70 833d 76bd 983c 8ab5 46bd 4a22 d43c
000000a0: 1ad6 7bbd 872b 68bc 006f 39bd a0d3 3bbd
000000b0: 927e e3bb 0dc1 7f3d 8e2f 363d af7d 0fbd
000000c0: 7217 3d3c f666 8ebc fcb8 883d 17d3 173c
000000d0: 91f4 ee3c 3f9a 0dbd 0043 d53c bd9a 9dbb
000000e0: 6e26 a33c 2fee 503c 9918 e2bc 023d a23c
000000f0: 7c08 993c 09e5 28bd 2572 7cbc 3aa3 8b3d
00000100: e142 67bd 4cf8 2dbd ee06 623d d25f 8a3d
00000110: 7cb9 6e3d 643c aa3c f0e9 593d 339a 7fbd
00000120: 9839 f43b 83b0 273d 5bb3 1e3d f5ce 183d
00000130: e70c 253d ecaa c63b cc24 333d c6e5 afbc
00000140: 1edf 6cbd b6cc 87bc 73db 053d 2ce3 abbc
00000150: 20f5 dcbc c275 423d 1d9f 1dbd f4c4 84bd
00000160: 2d3b d63c 0697 4a3d 9fcd 4fbc 82d7 9dbd
00000170: 41d2 7abd 0bf0 f43c bd69 333d adb3 40bd
00000180: 9a59 8e3d f0bc 17bc cc11 93bd 8aac 6e3d
00000190: 48a5 dabb 2f42 bc3c a651 173d 85db 57bc
000001a0: 12e8 4b3d 567c 0ebd dbaf 623d ff07 d3bc
000001b0: ce75 cc3b c81a 4dbb a0b1 1abd 1740 b5bc
000001c0: 9475 203d c7f7 b0bc 3456 8b3d ab83 8d3d
000001d0: 8473 483d 9f38 353d 588e a23c 06f6 bfba
000001e0: 897b 563d 7782 043d 7b87 31bd b4a3 aebc
000001f0: d0ce cd3c 796c 8bbd 1737 87bd c195 fabc
00000200: d020 2a3d fd72 233d 3b73 fa3c 3d6a 7e3d
00000210: 1418 5cbd 0ede 4d3d 2451 413c 73ac 833d
00000220: a6e3 903d 33c6 8dbd eb9d 81bd 5141 21bd
00000230: 3383 67bd bd99 8c3d 28c6 843b 6366 8fbc
00000240: 43c5 993b 3b3c 31bd 7ed4 59bd b19c 5f3d
00000250: 35fa f9bc 5e66 1c3d 1d02 7d3d cc52 8639
00000260: d76c 063d 3316 853d b88d 4abd 2f7d 4f3b
00000270: a396 733d 5ab5 81bd c8ca 51bd 93c1 97bc
00000280: 023b 24bd e26b 6dbd af61 823d 6319 36bb
00000290: 384c 6f3d 0969 db3c d485 e63c 7690 b33c
000002a0: 29fd 13bc d2db 12bc 2de1 95bd dde1 5e3c
000002b0: 0252 e3bb 6857 64bd 3fd8 0bbc 3f4f 6eba
000002c0: 63d7 7cbd b71c 8f3c 0155 4b3d b35a cb3b
000002d0: 0551 f9bc 39e8 1a3a 90cb 553d cc66 293d
000002e0: ab1d 55bd 031c 0c3d 5f43 85bc fa22 2d3d
000002f0: 1ff3 2e3d 89e5 8d3d 405e 53bd f44f f13c
00000300: 7905 79bd 117b acbc 81bf 7bbd dd9e efbc
00000310: 5cf1 2abd 0f51 193d 7e33 1fbd c386 8e3d
00000320: e24d c23c c737 48bd 4b03 61bc 8e66 b53c
00000330: 31de 8d3b 08af 7f3d 6833 2ebd 528b 0dbd
00000340: 3d46 8b3c b3af 4b3d 5136 47bd 5b5b a93c
00000350: 36bd 783d ecea 823d c002 95bc b94d 32bd
00000360: 87dc 81bd ccb2 023d a2dc 813d 2a53 22bd
00000370: 7cca 81bd c00c 65bd af6c 0fbd c18b dbbc
00000380: 5e3b 8bbd 18bb 783d 742a 60bd f33c 3e3d
00000390: 5ccd ff3c 8675 41bd 4dc0 633d f9cf 67bd
000003a0: 31b5 60bd d527 76bc 4c4f 3a3b ab6f 413d
000003b0: f191 243d 1e56 103d b40f 22bd 9bf9 54bd
000003c0: ab47 69bd 7634 7d3d dd07 5a3b 9f4e 433d
000003d0: 1b45 053d 4cb4 89bd 3c1c 62bd 70e6 5cbd
000003e0: 6a5c 833c 4e6a 723d 4c93 2dbd 50a2 62bc
000003f0: 82d1 5e3d 60b4 7bbd 7cf0 213d 8e4c 8dbc
