ai_challenge/results/simulation_DoubleDQN_DuelingRecNN_2017-05-19T19:40:53.24/300000/target_model.npz (npz, 632168 bytes, 12 tensors)

model/hidden/input_layer/b f4 [256]
-0.041330926 -0.027999574 -0.03971392 -0.020407151 -0.0051670866 -0.05076445 -0.056788776 -0.09199379
-0.024499657 -0.010515601 0.024620933 -0.045918014 -0.03160988 -0.033193327 -0.07592638 -0.019827746
-0.04729051 -0.03939655 -0.04090044 -0.056824323 -0.04780139 -0.021489413 0.016031427 -0.024427976
-0.05715292 -0.03672101 -0.030913731 -0.011906429 -0.048360895 -0.03269814 -0.07024509 -0.017883098
-0.009288949 -0.03147948 0.038831208 -0.027070919 -0.06959138 -0.035928097 -0.058207154 -0.0254165
-0.021162778 -0.046191666 0.036841374 -0.052417085 -0.06034872 -0.022201251 -0.028932555 -0.0489196
0.010486466 -0.046197657 -0.0708688 -0.022589682 -0.017440792 -0.032997187 -0.037421584 -0.042308982
-0.039725162 -0.041896135 -0.029347284 -0.03477413 -0.04969188 -0.035395276 -0.043622833 -0.0117482655
-0.011551071 -0.042354684 -0.04829394 -0.029022932 -0.034653444 -0.064672805 -0.058738988 -0.07864698
-0.027779631 -0.03477108 -0.0060714507 -0.049092185 -0.018216815 -0.04548565 -0.022871956 -0.052759126
-0.058428507 -0.04638357 -0.051692303 -0.053634755 -0.051918335 -0.049260613 -0.06261694 -0.058138933
-0.03091455 -0.08044546 0.023376163 -0.01744521 -0.062771186 -0.04075723 -0.010456877 -0.0182612
-0.00058853126 0.0048130592 0.011443953 -0.0040948656 -0.024774825 -0.050704665 0.011221008 -0.028213907
0.0058854213 -0.008863342 -0.013197721 -0.06019548 -0.044210423 -0.082248926 -0.07051544 -0.049509868
-0.037984375 -0.05399967 -0.049239174 -0.024502894 -0.042312387 -0.050365414 -0.06517366 -0.044947796
-0.07848188 -0.016370857 -0.03602973 -0.07801408 -0.047978487 -0.020215655 -0.06180439 0.020151168
-0.009319574 -0.03752454 -0.057851102 -0.032016296 -0.016297761 -0.02663056 -0.007815866 -0.051965915
-0.031879567 -0.049456876 -0.047396265 0.011316783 -0.034369383 -0.015949583 -0.036420956 -0.00404919
-0.032160982 -0.017031688 -0.05591129 -0.059550527 -0.07692282 -0.058473114 -0.023593228 -0.07199217
-0.04795996 -0.038903955 -0.020495363 -0.01526686 -0.05746934 -0.019530782 -0.0032789453 -0.027217483
-0.01821452 -0.0704963 0.0073654065 -0.036684718 -0.03264568 -0.0052051265 -0.060459927 0.009316263
0.010096473 -0.030915022 0.00016019725 0.0025442634 -0.016929286 -0.022962699 -0.0010167042 -0.024661226
-0.022661932 -0.047152206 -0.042867713 -0.05255272 -0.047777716 -0.026644908 -0.026940195 -0.038288124
-0.011372754 -0.04815508 -0.042041153 -0.06380255 -0.042343386 -0.02373689 -0.04896302 -0.041605875
-0.038728133 -0.048586916 -0.030038092 -0.06164618 -0.04000749 -0.04491588 -0.04149612 0.017167104
-0.0060210386 -0.040375356 -0.036866613 -0.085893765 -0.053044103 -0.003892091 -0.039057765 -0.054194756
-0.033799887 -0.0262194 -0.036898844 -0.044019062 -0.028358577 -0.024695864 -0.06796171 -0.05748258
-0.028001094 -0.0453082 -0.013237481 -0.039781626 -0.018067598 0.013160377 -0.014729248 -0.009028416
-0.022924816 0.010583277 -0.047142416 -0.04742363 -0.017964935 -0.021319909 -0.05870225 -0.056036107
-0.05139308 0.020438435 -0.019836044 -0.013537561 -0.06766329 -0.042710226 -0.03141073 -0.04910187
-0.029432833 -0.00418854 -0.037450466 -0.059328984 -0.018241517 0.023055367 -0.057991806 -0.047157086
-0.028121868 -0.057196695 0.0015196509 -0.02279909 1.2380207e-05 -0.062192157 -0.05496818 -0.049760252
00000000: 9e4a 29bd 5d5f e5bc 10ab 22bd e62c a7bc
00000010: aa50 a9bb 62ee 4fbd 599b 68bd 3d67 bcbd
00000020: 81b3 c8bc a149 2cbc d7b1 c93c 8714 3cbd
00000030: 5d79 01bd baf5 07bd 4a7f 9bbd cc6d a2bc
00000040: b2b3 41bd 475e 21bd 3887 27bd 9fc0 68bd
00000050: 64cb 43bd 910a b0bc 5754 833c 2e1d c8bc
00000060: 2e19 6abd c568 16bd cb3e fdbc 2f13 43bc
00000070: 1316 46bd 7cee 05bd a8dc 8fbd 937f 92bc
00000080: ad30 18bc a1f0 00bd 790d 1f3d d5c3 ddbc
00000090: ed85 8ebd 5729 13bd a06a 6ebd 4436 d0bc
000000a0: 905d adbc 7933 3dbd fbe6 163d 4cb3 56bd
000000b0: 3830 77bd 66df b5bc f703 edbc eb5f 48bd
000000c0: 6dcf 2b3c c139 3dbd a923 91bd ff0d b9bc
000000d0: fedf 8ebc 0f28 07bd 6047 19bd 2f4c 2dbd
000000e0: dab6 22bd 489b 2bbd b769 f0bc 516f 0ebd
000000f0: b689 4bbd a3fa 10bd dbad 32bd cc7b 40bc
00000100: b440 3dbc 1b7c 2dbd decf 45bd 80c1 edbc
00000110: c5f0 0dbd 2d73 84bd 4b98 70bd ab11 a1bd
00000120: 1c92 e3bc 1f6c 0ebd 05f3 c6bb e314 49bd
00000130: 6e3b 95bc 294f 3abd f85d bbbc f419 58bd
00000140: bb52 6fbd b3fc 3dbd 4fbb 53bd 1eb0 5bbd
00000150: 52a8 54bd 7fc5 49bd 4f3d 80bd 1723 6ebd
00000160: 8340 fdbc 97c0 a4bd 5e7f bf3c 42e9 8ebc
00000170: 2e8e 80bd 0ef1 26bd 5253 2bbc 8398 95bc
00000180: aa47 1aba deb6 9d3b 6b7f 3b3c 392e 86bb
00000190: 93f4 cabc b2af 4fbd 52d8 373c da20 e7bc
000001a0: 7eda c03b 8d37 11bc 413b 58bc 898f 76bd
000001b0: fd15 35bd 2072 a8bd 666a 90bd dcca 4abd
000001c0: 8195 1bbd c22e 5dbd 04af 49bd 4bba c8bc
000001d0: c14f 2dbd f74b 4ebd c579 85bd 2e1b 38bd
000001e0: 1cbb a0bd 2d1c 86bc e993 13bd d9c5 9fbd
000001f0: 1785 44bd 4d9b a5bc 9a26 7dbd 1014 a53c
00000200: 20b1 18bc 55b3 19bd 47f5 6cbd 8523 03bd
00000210: e282 85bc 5528 dabc 1e0e 00bc 36da 54bd
00000220: 2694 02bd 4b93 4abd 9622 42bd 076a 393c
00000230: e9c6 0cbd b3a8 82bc 242e 15bd 11af 84bb
00000240: 3cbb 03bd 0a86 8bbc 3d03 65bd 41eb 73bd
00000250: b689 9dbd 8181 6fbd 9646 c1bc a170 93bd
00000260: aa71 44bd c159 1fbd e4e5 a7bc da21 7abc
00000270: f864 6bbd 05ff 9fbc 93e3 56bb 33f7 debc
00000280: 9e36 95bc 5d60 90bd 8259 f13b b742 16bd
00000290: 7ab7 05bd c48f aabb d4a4 77bd 3da3 183c
000002a0: ad6b 253c 8041 fdbc 9ffa 2739 a8bd 263b
000002b0: 49af 8abc 451c bcbc ef42 85ba 5706 cabc
000002c0: 84a5 b9bc ac22 41bd 0e96 2fbd 8541 57bd
000002d0: 91b2 43bd 6c46 dabc afb1 dcbc 02d4 1cbd
000002e0: ca54 3abc 433e 45bd 5833 2cbd e9aa 82bd
000002f0: 4270 2dbd de73 c2bc 738d 48bd ec6a 2abd
00000300: 64a1 1ebd 1303 47bd 7212 f6bc b480 7cbd
00000310: e5de 23bd b7f9 37bd d6f7 29bd 07a2 8c3c
00000320: 224c c5bb a160 25bd 7201 17bd 12e9 afbd
00000330: c644 59bd 7412 7fbb 09fb 1fbd 52fb 5dbd
00000340: c071 0abd 11ca d6bc 3e23 17bd 554d 34bd
00000350: 3f50 e8bc fb4e cabc 822f 8bbd db72 6bbd
00000360: 8d62 e5bc 1795 39bd 05e2 58bc 0ff2 22bd
00000370: 8002 94bc 9f9e 573c f252 71bc eceb 13bc
00000380: d3cc bbbc 7b65 2d3c 6818 41bd 483f 42bd
00000390: 332b 93bc 17a7 aebc c571 70bd 1e86 65bd
000003a0: 8d81 52bd 816e a73c 337f a2bc a5cc 5dbc
000003b0: 0d93 8abd ebf0 2ebd 8aa8 00bd 0b1f 49bd
000003c0: 201d f1bc 0540 89bb a965 19bd f302 73bd
000003d0: 3c6f 95bc 9cde bc3c d188 6dbd ca27 41bd
000003e0: d55f e6bc 1547 6abd 062f c73a 28c5 babc
000003f0: 96b4 4f37 34bd 7ebd 5026 61bd 68d1 4bbd

model/hidden/output_layer/b f4 [256]
0.020387614 -0.013459791 -0.0020428607 -0.01768008 0.012932287 0.01123096 0.008932066 0.015803669
-0.009398487 0.01723771 -0.023470895 0.0006077913 0.015506077 -0.0065558073 0.01969944 0.01525973
-0.0015942742 -0.0063953795 -0.017865261 0.01521025 -0.009106769 -0.01601934 0.011310314 -0.0048046256
-0.0030359859 0.00081470923 -0.0164215 -0.0055069295 0.00096256577 0.023299329 -0.021497218 -0.015106678
-0.007026458 -0.014335977 0.015569743 -0.008265318 -0.014276907 0.0014617821 0.015686087 -0.0011688473
0.015389259 0.0022325017 0.0043049 0.02026695 0.0061801183 -0.015291854 -0.018236337 0.01060739
-0.019591132 0.009119906 -0.015062679 -0.017384516 -0.023541735 0.007997478 -0.008038694 0.004675351
-0.02048212 -0.013383089 0.0076004495 -0.0076762657 -0.0038255975 0.015016112 0.019394787 -0.012502101
0.014870725 0.013301192 -0.017801162 -0.013799904 -0.017322447 -0.017323354 -0.01578843 0.018265339
-0.012438164 -0.022264838 -0.010898942 -0.007500766 -0.007752516 0.0036666472 -0.006457955 0.009743108
-0.0029086838 -0.004395736 -0.009663822 0.009080639 0.01008259 -0.02100668 0.0065462333 0.014655212
-0.022672243 -0.01829638 0.0058157453 0.0142424395 0.015796997 -0.0028854439 -0.012646337 0.015720574
-0.013733526 -0.004202935 0.015279485 -0.01434156 0.012588172 -0.0071971044 -0.02052433 0.006466793
-0.0073999437 0.018252749 -0.017435748 0.008069749 0.00471696 0.00082161266 0.020513615 0.0071650455
-0.023548296 0.009212299 -0.014859615 -0.014343469 -0.02000056 -0.009548911 -0.00013163955 0.013196827
-0.0030281132 -0.00235624 0.015308712 0.007984078 -0.012969598 0.014053674 0.015074877 0.007848455
-0.0057871602 -0.0195411 -0.00059808296 -0.015119872 0.017197229 -0.009006356 -0.0055842684 -0.016831815
-0.014679429 0.011694006 0.016265528 0.011486302 0.018835435 -0.013417757 0.004115489 -0.0023660737
-0.012827278 0.018932039 0.015809147 -0.01229051 0.011168563 -0.017265748 -0.014698431 -0.0006213192
-0.010205385 -0.015595537 0.010018826 0.001817766 -0.013099821 0.006926082 0.008398067 0.013075995
0.0063507645 0.012838446 -0.011101607 0.0061649955 -0.014005333 -0.02176151 -0.019637577 -0.0073507586
0.007993621 0.007792739 0.015683942 -0.012936162 -0.0008234864 0.01855296 0.017559515 0.005333799
0.0076650446 -0.0019970085 -0.0051267035 -0.004785046 0.019719565 0.011381709 -0.018877901 -0.012627198
0.020503283 -0.018777119 0.020104025 -0.008253534 -0.014373296 -0.013943845 0.014195754 -0.01988504
0.0055055814 0.0078778 0.007280704 -0.021465547 0.017719364 -0.009665839 0.016387738 -0.014977021
0.0009459165 0.012964212 0.0116095375 -0.020222759 0.008520622 -0.01678145 0.0135308085 0.007962392
-0.01338023 -0.011371107 0.0034367414 -0.002241087 -0.017010655 -0.015852833 0.006046295 0.010241532
0.015354932 -0.0044222563 -0.016584836 0.017789304 0.006365851 0.01719137 0.024860851 -0.00084781914
0.015385796 -0.0063092965 0.013370953 -0.0145396795 -0.024548281 0.01448597 -0.01835753 0.019126527
0.016374841 -0.003606386 0.011013351 -0.013322229 -0.013916994 -0.012281513 0.020799804 0.0127995955
0.017900804 -0.012120853 0.010276865 -0.011943179 -0.0076839635 0.014552099 0.0066376966 0.00861028
0.0012801227 -0.015395706 0.015285091 0.010125052 -0.0030375472 0.010627786 -0.005965113 0.006573429
00000000: ed03 a73c 7586 5cbc 84e1 05bb d1d5 90bc
00000010: f1e1 533c 0f02 383c cd57 123c b276 813c
00000020: 1dfc 19bc 1936 8d3c 0946 c0bc 2f54 1f3a
00000030: 330d 7e3c 19d2 d6bb b860 a13c f203 7a3c
00000040: f7f6 d0ba 5590 d1bb 2b5a 92bc 6a34 793c
00000050: 8f34 15bc fe3a 83bc e54e 393c 1f70 9dbb
00000060: 64f7 46bb 3692 553a 6286 86bc 7973 b4bb
00000070: b254 7c3a 3cde be3c ef1a b0bc 0082 77bc
00000080: 343e e6bb 72e1 6abc 3c18 7f3c 426b 07bc
00000090: b0e9 69bc 4599 bf3a 1c80 803c 0234 99ba
000000a0: 3b23 7c3c 2a4f 123b 1e10 8d3b e006 a63c
000000b0: 9782 ca3b af8a 7abc 5f64 95bc 9eca 2d3c
000000c0: 957d a0bc a96b 153c 74c9 76bc f969 8ebc
000000d0: 99da c0bc db07 033c bab4 03bc b033 993b
000000e0: 1eca a7bc be44 5bbc 310d f93b 2f89 fbbb
000000f0: e0b6 7abb 2306 763c d1e1 9e3c 9dd5 4cbc
00000100: 57a4 733c 3eed 593c bed3 91bc fe18 62bc
00000110: cee7 8dbc b5e9 8dbc bd56 81bc 31a1 953c
00000120: 71c9 4bbc c064 b6bc 7a91 32bc fcc8 f5bb
00000130: d108 febb 224c 703b 419d d3bb 8fa1 1f3c
00000140: 9e9f 3ebb 1b0a 90bb 0255 1ebc f6c6 143c
00000150: 7331 253c 3316 acbc c981 d63b 6a1c 703c
00000160: 24bb b9bc 4ae2 95bc 0292 be3b 1f59 693c
00000170: b468 813c b719 3dbb 9532 4fbc 6fc8 803c
00000180: 9502 61bc c6b8 89bb ce56 7a3c ddf8 6abc
00000190: 9f3e 4e3c b0d5 ebbb a422 a8bc 64e7 d33b
000001a0: 3a7b f2bb ca86 953c 6ad5 8ebc fb36 043c
000001b0: ba90 9a3b 7e61 573a 2b0c a83c c2c8 ea3b
000001c0: 5be8 c0bc 2fef 163c be75 73bc df00 6bbc
000001d0: 37d8 a3bc 0973 1cbc b908 0ab9 8137 583c
000001e0: 4f73 46bb 266b 1abb 64d1 7a3c a6cf 023c
000001f0: 707e 54bc 6241 663c 9efc 763c ce96 003c
00000200: 38a2 bdbb a814 a0bc abc8 1cba 57b9 77bc
00000210: 34e1 8c3c 658f 13bc 3dfc b6bb e0e2 89bc
00000220: fd81 70bc 3798 3f3c 493f 853c 0b31 3c3c
00000230: c54c 9a3c 27d6 5bbc 39db 863b 2110 1bbb
00000240: 8129 52bc 5d17 9b3c 2f82 813c 235e 49bc
00000250: 59fc 363c e670 8dbc b0d1 70bc 07e0 22ba
00000260: 7d34 27bc 6c84 7fbc 0126 243c 1b42 ee3a
00000270: a2a0 56bc 30f4 e23b 0c98 093c b33c 563c
00000280: 131a d03b 5858 523c 84e3 35bc bb03 ca3b
00000290: a076 65bc 3245 b2bc fcde a0bc a2de f0bb
000002a0: adf7 023c 3c5a ff3b 9c7b 803c 32f2 53bc
000002b0: 3ddf 57ba 61fc 973c f9d8 8f3c 26c7 ae3b
000002c0: 0e2b fb3b 3ee0 02bb e8fd a7bb e0cb 9cbb
000002d0: ed8a a13c 597a 3a3c d4a5 9abc 4fe2 4ebc
000002e0: 80f6 a73c 79d2 99bc 32b1 a43c d539 07bc
000002f0: f97d 6bbc ba74 64bc 4f95 683c f4e5 a2bc
00000300: 2a68 b43b e311 013c f992 ee3b 84d8 afbc
00000310: 3328 913c 785d 1ebc 943f 863c 2e62 75bc
00000320: 62f7 773a d967 543c ee35 3e3c 33aa a5bc
00000330: 149a 0b3c 4079 89bc 53b0 5d3c b174 023c
00000340: c138 5bbc e14d 3abc f43a 613b 33df 12bb
00000350: ee59 8bbc cddd 81bc 0020 c63b 19cc 273c
00000360: 4193 7b3c 93e8 90bb ecdc 87bc e0ba 913c
00000370: a198 d03b ead4 8c3c fca8 cb3c 2e40 5eba
00000380: b514 7c3c 37be cebb d711 5b3c d637 6ebc
00000390: 7a19 c9bc 9056 6d3c 8862 96bc 3caf 9c3c
000003a0: 8824 863c 1e59 6cbb 5871 343c 7a45 5abc
000003b0: 1b04 64bc 6638 49bc 5a64 aa3c 65b5 513c
000003c0: b5a4 923c 8b96 46bc 4c60 283c 53ad 43bc
000003d0: c2c9 fbbb ed6b 6e3c 0981 d93b 2212 0d3c
000003e0: cac9 a73a 453e 7cbc 516e 7a3c 8ce3 253c
000003f0: 9611 47bb 2a20 2e3c ff76 c3bb eb65 d73b

model/a_stream/W f4 [3, 256]
-0.015046945 0.012191939 -0.044554066 0.017374972 -0.006578639 -0.023292435 0.019576637 -0.011144646
0.017767066 0.0036584155 0.010728199 -0.025609527 -0.010540757 -0.043534935 -0.0076989215 -0.0026374913
0.020852372 -0.026127407 0.01160149 -0.007774901 0.009870016 0.0041812495 0.015444485 0.0053198813
0.035487402 -0.04800424 0.017381724 -0.040616944 0.05123695 -0.017457383 0.010998804 -0.0007595345
-0.038688064 0.009192434 -0.015577641 -0.014740395 0.021364082 -0.02914441 0.0028902548 -0.033455584
-0.013199046 0.024819165 0.036867578 -0.002768104 0.034695905 0.011061185 0.011649895 0.034978025
0.026000835 -0.017672446 0.0066880155 0.011561578 0.0017397196 0.031304076 -0.01984476 0.009529516
0.02514608 0.015487695 0.04055265 -0.015550987 -0.012700438 0.01448584 -0.006771599 -0.011060137
-0.016576745 -0.022723313 0.005397044 -0.0015958761 -0.0020620856 0.010923146 0.011634884 -0.0058254693
0.01714982 0.0032651788 -0.039577663 -0.038898457 0.021508884 -0.019520259 -0.04389634 0.020736167
0.029950965 0.041605145 -0.031793866 -0.018778583 0.032420088 0.0006707539 0.035017096 0.018995075
0.0049076057 0.00893064 0.038497265 -0.0005292273 -0.0025261915 -0.041475814 9.74157e-05 -0.0076125073
0.00958444 0.018345725 -0.004020069 -0.00930047 -0.00463494 -0.020797841 0.017587626 0.02320157
-0.032419138 -0.021663163 0.009016733 0.032325257 -0.02100868 0.0044405875 -0.016975708 0.02709705
0.0050958386 0.02893973 -0.0007900533 0.009419952 0.015814789 0.004283744 -0.031654805 -0.0068194093
-0.031062094 -0.038098097 -0.023273021 0.01746181 0.021685869 0.007100682 0.0017522958 0.023273543
-0.04209058 0.013584878 -0.041017704 -0.012411752 -0.0038074625 -0.014010767 0.022973316 0.0016213178
0.0060585584 0.015245012 0.007880564 -0.0024127427 -0.0011857464 0.010643784 -0.020302322 0.026444692
0.011337793 -0.01731943 -0.014644778 0.012186483 0.023503818 0.008345781 0.0029496113 -0.002859916
-0.042674884 0.014883167 0.021796342 -0.01915081 0.016121488 0.030152436 0.03866096 -0.024150785
0.040861502 -0.022584816 -0.010488953 0.011841429 0.019093756 0.010441546 0.0030196216 -0.020569347
-0.009486604 0.03291354 0.007859807 0.016742153 0.018514384 -0.005250606 -0.0065276516 -0.007383333
0.037962295 -0.020597477 -0.033239815 -0.014276655 -0.019171307 -0.00944095 0.006483022 0.014430841
0.00064726156 -0.0022408236 0.0010804967 -0.04040892 0.020257168 -0.006096772 -0.015723223 -0.0008137024
0.037861556 0.024364505 0.027515324 -0.06895207 -0.019216182 0.01167468 -0.02491083 0.0039790124
-0.033691 -0.004718707 -0.019572869 0.023594324 0.05641459 -0.00071224396 -0.022661751 0.025696704
0.018494748 -0.019721003 0.04472068 -0.025144808 0.00509754 0.0017520456 0.029298037 -0.011336692
-0.003232252 -0.03815771 -0.0017639028 -0.00944885 0.02844362 -0.010023384 -0.005673908 0.048061777
-0.008342846 -0.043885987 0.012228853 0.01686363 0.0029448434 -0.012128019 0.00963091 -0.006411625
-0.0042808773 0.016772673 0.055437706 -0.006290531 0.020167738 -0.0012222556 -0.012043165 0.01841189
-0.009729519 -0.012816202 -0.013738541 0.024971997 -0.041130785 -0.010083889 0.044291615 0.044469196
-0.026169464 0.0038669305 -0.024435468 0.019595 -0.024347965 0.022121739 -0.041370172 0.022474075
00000000: 7687 76bc b3c0 473c 537e 36bd f555 8e3c
00000010: a091 d7bb c7cf bebc 2f5f a03c 0998 36bc
00000020: 3d8c 913c 07c2 6f3b 54c5 2f3c 12cb d1bc
00000030: 24b3 2cbc b051 32bd 3c47 fcbb c3d9 2cbb
00000040: 98d2 aa3c 2509 d6bc 2d14 3e3c 99c4 febb
00000050: d9b5 213c dd02 893b dd0a 7d3c 6652 ae3b
00000060: 3d5b 113d 18a0 44bd 1e64 8e3c f45d 26bd
00000070: d6dd 513d c902 8fbc 5434 343c 7f1b 47ba
00000080: 6077 1ebd dd9b 163c 5d39 7fbc b381 71bc
00000090: ba03 af3c 42c0 eebc 6e6a 3d3b b908 09bd
000000a0: d040 58bc 9051 cb3c 7502 173d 1469 35bb
000000b0: 4b1d 0e3d f939 353c 34df 3e3c 1e45 0f3d
000000c0: b4ff d43c cec5 90bc 2427 db3b c66c 3d3c
000000d0: 4e07 e43a b438 003d 7a91 a2bc b021 1c3c
000000e0: 27ff cd3c 1ac0 7d3c 891a 263d 91c9 7ebc
000000f0: 7f15 50bc 0456 6d3c 4ae4 ddbb 9435 35bc
00000100: f4cb 87bc 3e26 babc b0d9 b03b b72c d1ba
00000110: 0e24 07bb fff6 323c 3ea0 3e3c 94e3 bebb
00000120: c87d 8c3c 9cfc 553b 301c 22bd fd53 1fbd
00000130: 6633 b03c f3e8 9fbc a6cc 33bd e5de a93c
00000140: ba5b f53c 286a 2a3d 493a 02bd 8bd5 99bc
00000150: edca 043d 88d5 2f3a 166e 0f3d 8f9b 9b3c
00000160: fbcf a03b d251 123c 4faf 1d3d d8bb 0aba
00000170: 768e 25bb 8be2 29bd a84b cc38 5772 f9bb
00000180: 0e08 1d3c c649 963c c8ba 83bb 0061 18bc
00000190: b2e0 97bb 3c60 aabc ed13 903c 3811 be3c
000001a0: eec9 04bd f276 b1bc ebba 133c 7d67 043d
000001b0: 651a acbc 5982 913b a410 8bbc a2fa dd3c
000001c0: fefa a63b 0313 ed3c 941b 4fba 2456 1a3c
000001d0: 048e 813c a65e 8c3b 78a8 01bd 5a75 dfbb
000001e0: ef75 febc c00c 1cbd 10a7 bebc 120c 8f3c
000001f0: 90a6 b13c d6ac e83b 4aad e53a 28a8 be3c
00000200: 2c67 2cbd 1c93 5e3c 2e02 28bd a95a 4bbc
00000210: 9f86 79bb 6b8d 65bc 8932 bc3c 6682 d43a
00000220: df86 c63b 37c6 793c 7b1d 013c 1b1f 1ebb
00000230: 0c6b 9bba 4463 2e3c 0e51 a6bc 8aa2 d83c
00000240: 27c2 393c 7ae1 8dbc a7f0 6fbc d0a9 473c
00000250: 148b c03c bebc 083c 444e 413b 6e6d 3bbb
00000260: dccb 2ebd 87d8 733c 3e8e b23c 29e2 9cbc
00000270: 3611 843c 3e02 f73c f45a 1e3d ded7 c5bc
00000280: 645e 273d cb03 b9bc dcd9 2bbc 8e02 423c
00000290: 826a 9c3c 0513 2b3c d8e4 453b 0c81 a8bc
000002a0: b36d 1bbc 59d0 063d 6cc6 003c d726 893c
000002b0: 7aab 973c 470d acbb e9e5 d5bb e3ef f1bb
000002c0: 5a7e 1b3d 0abc a8bc 7926 08bd a2e8 69bc
000002d0: 250d 9dbc 37ae 1abc 886f d43b 566f 6c3c
000002e0: fdac 293a c8da 12bb 749f 8d3a d383 25bd
000002f0: 5cf2 a53c 6ec7 c7bb fdcd 80bc a54e 55ba
00000300: b814 1b3d 1298 c73c d167 e13c be36 8dbd
00000310: 416b 9dbc 2847 3f3c cc11 ccbc 6062 823b
00000320: 93ff 09bd 629f 9abb 4857 a0bc e248 c13c
00000330: fc12 673d e2b5 3aba 23a5 b9bc e581 d23c
00000340: 4c82 973c f18d a1bc 082d 373d 7cfc cdbc
00000350: 4409 a73b e5a4 e53a 7002 f03c 88bd 39bc
00000360: 31d4 53bb 424b 1cbd c232 e7ba 59cf 1abc
00000370: 9802 e93c 1f39 24bc 31ec b9bb 6ddc 443d
00000380: 6fb0 08bc cbc1 33bd 875b 483c 9825 8a3c
00000390: 46fe 403b 99b4 46bc f7ca 1d3c 9c18 d2bb
000003a0: 9a46 8cbb d866 893c a612 633d cc20 cebb
000003b0: d036 a53c 1834 a0ba b250 45bc 88d4 963c
000003c0: 8f68 1fbc 0cfb 51bc 9e17 61bc 1392 cc3c
000003d0: c178 28bd e536 25bc 206b 353d 5525 363d
000003e0: 5861 d6bc 546c 7d3b e42c c8bc b285 a03c
000003f0: 6275 c7bc a638 b53c c573 29bd 8d1b b83c

model/hidden/mid_rec_layer/upward/W f4 [80, 86]
0.021864919 0.002690839 -0.018261602 0.009640763 0.036762293 -0.0043391306 -0.01982689 0.0013207466
-0.0031727233 0.01 0.015083665 0.01 0.070733026 0.06592373 0.01 0.008247624
0.091253996 0.01 -0.028491959 0.03647459 0.01 0.025799952 0.07584282 0.01
-0.06532095 0.009095855 0.01 0.08352648 0.10472582 0.01 -0.007628946 0.012109783
0.01 -0.036408037 -0.042523287 0.01 -0.0027004099 0.0050967378 0.01 -0.08588877
-0.008462598 0.01 -0.0118490495 0.032097176 0.01 -0.030526195 -0.007166013 0.07873669
-0.019947492 -0.046814773 -0.00795462 -0.0021275342 -0.005856705 0.063181914 -0.0074624857 -0.009931785
0.01 0.05058748 0.053744093 0.01 0.05586455 -0.020362109 -0.014104255 0.023780165
-0.06888518 0.07812862 0.100122854 -0.06050873 -0.018943584 0.012097191 -0.019441418 0.01
-0.08780393 0.014521803 0.01 -0.048276234 -0.032909326 0.065622635 0.024287794 -0.04048755
-0.025053287 0.022230096 -0.046486877 -0.022819536 0.014560742 0.0011405699 -0.070532165 -0.16685462
-0.13706377 -0.104747355 -0.11032216 -0.10356168 -0.086461216 -0.09853548 -0.44284144 0.01
-0.11362862 0.01 -0.102631256 -0.04867022 0.01 0.029831544 -0.024930164 0.01
0.06429432 -0.07566158 0.01 0.010553081 -0.083564706 0.01 0.13556741 -0.027142793
0.01 -0.0050799893 -0.039066363 0.01 0.015797151 -0.114154145 0.01 0.052166007
-0.06216971 0.01 0.014926879 0.005058729 0.01 0.120429136 -0.026726367 0.01
0.013104249 -0.10100526 0.01 0.019913908 -0.18783987 -0.09252707 0.08632733 -0.20030198
-0.11577377 -0.16469716 -0.20010652 -0.07730892 0.066373184 -0.052467357 0.01 -0.0056764544
-0.0071533616 0.01 -0.027764212 0.026421793 -0.011439942 -0.15016952 -0.0655846 -0.1651967
-0.17947134 0.06431482 0.0006377242 -0.0068124775 -0.0077097015 0.01 0.123881206 -0.001440093
0.01 -0.0292271 0.026004327 -0.14988993 -0.08746978 0.0017963962 -0.001199154 -0.2270239
0.045282416 -0.020444596 -0.1584646 -0.004511794 -0.13851151 -0.19331264 -0.18502146 -0.049663782
-0.14628327 -0.10226146 -0.08878958 -0.14350118 -0.3867667 0.01 -0.09924485 0.01
-0.100205615 -0.056857385 0.01 -0.047488388 -0.049271375 0.01 0.03176642 -0.053460166
0.01 0.00575506 -0.06317687 0.01 0.14454608 -0.03811717 0.01 -0.17053127
-0.07579407 0.01 -0.018140387 -0.13221619 0.01 -0.030230863 -0.14841981 0.01
-0.05999388 -0.03453702 0.01 0.07407416 -0.044366255 0.01 0.008361367 -0.100593634
0.01 -0.03589988 -0.1757337 -0.114214614 0.042704806 -0.18848315 -0.14204842 -0.116384864
-0.12388251 -0.106203996 0.06368289 -0.022288978 0.01 -0.05493291 -0.026045538 0.01
-0.026267458 -0.02105312 -0.024429793 -0.09319316 -0.10818818 -0.2024036 -0.18287025 -0.032287568
-0.009619068 -0.03138843 -0.028692493 0.01 0.119554885 -0.04901308 0.01 0.04016093
0.0011262961 -0.15944909 -0.09519917 -0.07202235 0.013973915 -0.20624156 0.028206106 -0.007900898
00000000: 0f1e b33c ca58 303b 5b99 95bc 4af4 1d3c
00000010: 0f94 163d 442f 8ebb 016c a2bc e71c ad3a
00000020: 77ed 4fbb 0ad7 233c 7a21 773c 0ad7 233c
00000030: 7adc 903d 0503 873d 0ad7 233c 0b21 073c
00000040: 60e3 ba3d 0ad7 233c f867 e9bc 6166 153d
00000050: 0ad7 233c 6c5a d33c 7b53 9b3d 0ad7 233c
00000060: fdc6 85bd c806 153c 0ad7 233c ee0f ab3d
00000070: 7e7a d63d 0ad7 233c 3dfc f9bb 1c68 463c
00000080: 0ad7 233c 9820 15bd e62c 2ebd 0ad7 233c
00000090: 5cf9 30bb 8902 a73b 0ad7 233c 74e6 afbd
000000a0: b5a6 0abc 0ad7 233c 8422 42bc 5478 033d
000000b0: 0ad7 233c 1212 fabc e0d0 eabb b440 a13d
000000c0: ec68 a3bc d9c0 3fbd 1854 02bc 1a6e 0bbb
000000d0: 9ae9 bfbb 8565 813d de87 f4bb edb8 22bc
000000e0: 0ad7 233c d134 4f3d c422 5c3d 0ad7 233c
000000f0: 3ad2 643d 70ce a6bc 8815 67bc 9fce c23c
00000100: ac13 8dbd e601 a03d 360d cd3d 01d8 77bd
00000110: 932f 9bbc 4c33 463c 9c43 9fbc 0ad7 233c
00000120: 8cd2 b3bd dbec 6d3c 0ad7 233c 4dbd 45bd
00000130: eecb 06bd 2965 863d 32f7 c63c 46d6 25bd
00000140: 8d3c cdbc e41b b63c 0669 3ebd 09f0 babc
00000150: 2e90 6e3c 2d7f 953a 2b73 90bd f0db 2abe
00000160: 725a 0cbe c885 d6bd 96f0 e1bd 2518 d4bd
00000170: 9412 b1bd f8cc c9bd 1dbc e2be 0ad7 233c
00000180: 1fb6 e8bd 0ad7 233c 5630 d2bd 6d5a 47bd
00000190: 0ad7 233c 4861 f43c 583a ccbc 0ad7 233c
000001a0: beac 833d 75f4 9abd 0ad7 233c d4e6 2c3c
000001b0: f923 abbd 0ad7 233c 2fd2 0a3e 905a debc
000001c0: 0ad7 233c 0a76 a6bb 0d04 20bd 0ad7 233c
000001d0: 0769 813c a6c9 e9bd 0ad7 233c 06ac 553d
000001e0: aaa5 7ebd 0ad7 233c de8f 743c b2c3 a53b
000001f0: 0ad7 233c 8da3 f63d 41f1 dabc 0ad7 233c
00000200: 34b3 563c d9db cebd 0ad7 233c 7e22 a33c
00000210: 1859 40be d57e bdbd 62cc b03d f61b 4dbe
00000220: cc1a edbd 5fa6 28be b9e8 4cbe 2454 9ebd
00000230: aaee 873d 03e8 56bd 0ad7 233c 8d01 babb
00000240: bf66 eabb 0ad7 233c c671 e3bc 8472 d83c
00000250: 986e 3bbc 0ac6 19be 3851 86bd 5329 29be
00000260: 56c7 37be 7db7 833d f22c 273a 343b dfbb
00000270: aaa1 fcbb 0ad7 233c 6eb5 fd3d 81c1 bcba
00000280: 0ad7 233c ac6d efbc 0707 d53c bf7c 19be
00000290: 5b23 b3bd 0e75 eb3a ee2c 9dba f478 68be
000002a0: 0e7a 393d 6d7b a7bc 8b44 22be acd7 93bb
000002b0: f6d5 0dbe c0f3 45be 4476 3dbe 406c 4bbd
000002c0: 48cb 15be 756e d1bd 50d7 b5bd f9f1 12be
000002d0: 4906 c6be 0ad7 233c e240 cbbd 0ad7 233c
000002e0: 9a38 cdbd 4ae3 68bd 0ad7 233c 2f83 42bd
000002f0: c8d0 49bd 0ad7 233c 811d 023d 0cf9 5abd
00000300: 0ad7 233c f194 bc3b e062 81bd 0ad7 233c
00000310: e303 143e c020 1cbd 0ad7 233c c09f 2ebe
00000320: ec39 9bbd 0ad7 233c 269b 94bc ae63 07be
00000330: 0ad7 233c b7a6 f7bc 5dfb 17be 0ad7 233c
00000340: 25bc 75bd b176 0dbd 0ad7 233c 31b4 973d
00000350: 64b9 35bd 0ad7 233c 1dfe 083c 0904 cebd
00000360: 0ad7 233c c10b 13bd 89f3 33be 5ae9 e9bd
00000370: 3ceb 2e3d ba01 41be 2475 11be 305b eebd
00000380: 1db6 fdbd 7b81 d9bd 2d6c 823d 6097 b6bc
00000390: 0ad7 233c 5501 61bd 745d d5bc 0ad7 233c
000003a0: da2e d7bc 9877 acbc fd20 c8bc 0edc bebd
000003b0: c491 ddbd e442 4fbe 5742 3bbe f83f 04bd
000003c0: 4c99 1dbc 2891 00bd 850c ebbc 0ad7 233c
000003d0: 31d9 f43d f0c1 48bd 0ad7 233c ca7f 243d
000003e0: 3aa0 933a 9f46 23be c8f7 c2bd 7480 93bd
000003f0: d9f2 643c fd30 53be 7e10 e73c c572 01bc

model/hidden/mid_layer/W f4 [256, 256]
0.013696782 -0.0006005894 0.00089157594 -0.0100909555 -0.0061166254 -0.015342656 -0.0121600805 -0.010249338
0.0015477211 -0.003545156 -0.011607561 -0.014292051 -0.025796058 -0.01523766 -0.018049007 -0.021238131
-0.02134621 -0.019092787 -0.022576615 0.0075251055 -0.036030304 -0.0025514483 -0.006792 -0.014441538
-0.034507006 -0.008369901 0.011524855 0.00014805677 -0.006187177 -0.00470532 -0.018434873 0.0050874725
-0.010803026 -0.00207116 0.0065631224 -0.029964644 -0.008727781 -0.0025987471 -0.0045398846 -0.01942681
-0.019328065 -0.020962622 -0.005025155 -0.01934776 0.008523119 -0.0006467984 -0.0091720745 0.010158535
0.041287027 0.004424811 -0.0121463705 0.002870803 -0.0090593025 -0.0012885305 -0.0068006865 -0.026161542
0.0022069218 -0.008993203 -0.01731341 0.011143737 -0.014249938 0.0037778916 -0.011728091 -0.01496132
-0.008433336 -0.015165032 -0.0048070913 0.0054591177 -0.008564673 -0.0077901664 -0.017942311 -0.01120365
0.0022547941 -0.016568989 -0.01343146 -0.029931147 -0.013704639 -0.00264751 -0.02080847 -0.011066872
0.0022533024 -0.0042658886 -0.0016555638 -0.0029835936 -0.0106676 -0.0026102774 -0.008206492 -0.004612318
-0.01214909 -0.013630825 -0.023932878 -0.00350056 0.00010947405 -0.015407715 -0.017685153 0.020663131
-0.003043013 -0.042603653 -0.011645404 -0.01733962 -0.014825706 -0.03052583 -0.00067825743 -0.0082108285
-0.017682591 -0.04524896 0.022442134 -0.03486569 -0.02100224 -0.028465258 0.0012643288 -0.01298415
-0.023735765 -0.011540997 0.019906953 -0.012601471 -0.005720238 -0.017851414 -0.0007247423 -0.0019613768
0.02081815 0.002707128 -0.009665779 -0.01425663 -0.010381599 -0.038579293 -4.6138553e-05 -0.0058807256
-0.012365847 -0.0131855 -0.013310041 0.0069091315 -0.027228594 -0.014244264 -0.021904891 -0.001148457
-0.021328127 -0.0044804383 0.0026012359 -0.0058327336 0.0017630112 -0.009876458 0.010542885 0.006949575
-0.013239892 -0.013944497 -0.013454016 -0.001823456 -0.0034147648 -0.0003733624 -0.010036879 -0.0036147137
-0.00600157 -0.026548577 0.017947363 -0.031382684 -0.026143959 0.010018339 -0.0019420122 -0.0086436365
0.00092112017 -0.015279739 0.0049804 0.017003966 0.00038051937 -0.006426377 0.011233626 0.0169938
-0.0075295875 -0.023924388 0.01934721 -0.010688079 0.0031764857 0.00041441008 -0.013992436 0.008011174
-0.011665139 -0.0016050086 0.00043460028 -0.03243994 -0.0045025344 -0.021804895 -0.00941175 -0.013534653
-0.00535556 -0.020672694 -0.007891869 -0.018066823 -0.035228495 -0.025745569 -0.024193859 0.0042723073
0.020363443 0.003174297 -0.000364798 -0.011012631 -0.009546079 0.009801769 -0.039340194 0.018871624
-0.0085527785 -0.0053849355 -0.011318992 -0.036239546 0.012230221 -0.0006636416 -0.020449638 -0.01247479
-0.003616167 -0.009873369 -0.01739568 -0.022994379 -0.018324163 -0.0030299136 -0.024630671 -0.025065742
-0.020839283 -0.012121363 -0.010844092 -0.022132972 -0.0057173297 -0.004746069 -0.031647537 -0.0014337008
0.006630275 -0.008892102 -0.0172129 0.0014365495 0.00139138 -0.009190313 -0.0041993847 -0.003689595
-0.0023665077 -0.031994484 -0.013207874 -0.0053772186 0.001632814 -0.010379104 0.005247315 -0.029676374
-0.013132998 -0.015730824 0.0014598854 -0.035026122 -0.0155491 -0.004023227 -0.012996157 -0.03414784
-0.019748706 -0.008434458 -0.0025716168 -0.014835327 -0.0143955415 -0.007513457 -0.026056426 0.0077090976
00000000: 7868 603c df70 1dba a6b8 693a 8954 25bc
00000010: f96d c8bb c35f 7bbc 133b 47bc d7ec 27bc
00000020: e7dc ca3a d955 68bb a42d 3ebc 3529 6abc
00000030: 4152 d3bc 61a7 79bc 83db 93bc 97fb adbc
00000040: 3fde aebc 7a68 9cbc 98f2 b8bc 2995 f63b
00000050: 8394 13bd 3336 27bb 6d8f debb 339c 6cbc
00000060: 3857 0dbd e921 09bc bfd2 3c3c b03f 1b39
00000070: cdbd cabb 162f 9abb bb04 97bc d0b4 a63b
00000080: 2dff 30bc 4cbc 07bb 760f d73b 6a78 f5bc
00000090: f7fe 0ebc be4f 2abb 50c3 94bb f924 9fbc
000000a0: e455 9ebc ceb9 abbc 0eaa a4bb 327f 9ebc
000000b0: 8da4 0b3c e88d 29ba 7846 16bc fc6f 263c
000000c0: 961c 293d 01fe 903b 9201 47bc 1524 3c3b
000000d0: 786d 14bc e9e3 a8ba 4bd8 debb bb50 d6bc
000000e0: 01a2 103b 3a58 13bc dad4 8dbc 3894 363c
000000f0: 9278 69bc 8196 773b 2e27 40bc 5320 75bc
00000100: fa2b 0abc c176 78bc ce84 9dbb 66e2 b23b
00000110: d852 0cbc a744 ffbb c1fb 92bc 848f 37bc
00000120: 2bc5 133b b0bb 87bc a00f 5cbc 2a32 f5bc
00000130: 6c89 60bc d981 2dbb 8676 aabc d351 35bc
00000140: 24ac 133b dec8 8bbb 81ff d8ba 6588 43bb
00000150: 28c7 2ebc 3011 2bbb 8674 06bc ed22 97bb
00000160: fa0c 47bc d353 5fbc e20e c4bc a769 65bb
00000170: 6f95 e538 a470 7cbc 74e0 90bc ba45 a93c
00000180: 496d 47bb 2b81 2ebd 5dcc 3ebc d20b 8ebc
00000190: 85e7 72bc 4e11 fabc 16cd 31ba b686 06bc
000001a0: 15db 90bc f956 39bd 91d8 b73c 53cf 0ebd
000001b0: e40c acbc f92f e9bc d6b7 a53a 79bb 54bc
000001c0: 8271 c2bc 7316 3dbc e813 a33c 6676 4ebc
000001d0: d670 bbbb 213d 92bc a2fc 3dba 718a 00bb
000001e0: d38a aa3c 126a 313b 375d 1ebc a494 69bc
000001f0: 9517 2abc 5205 1ebd e584 41b8 1ab3 c0bb
00000200: 1f9a 4abc ff07 58bc 5c12 5abc ff65 e23b
00000210: 800e dfbc c660 69bc e371 b3bc d387 96ba
00000220: 53b8 aebc a4d0 92bb 7f79 2a3b 8420 bfbb
00000230: d714 e73a ded0 21bc 11bc 2c3c 43b9 e33b
00000240: 22ec 58bc 7677 64bc 3c6e 5cbc 0801 efba
00000250: 3fca 5fbb dabf c3b9 b971 24bc d5e4 6cbb
00000260: d1a8 c4bb 677c d9bc 5906 933c 218b 00bd
00000270: db2b d6bc f623 243c 1e8b feba 0a9e 0dbc
00000280: 5477 713a df57 7abc a032 a33b e74b 8b3c
00000290: 7280 c739 5c94 d2bb 3e0d 383c 9536 8b3c
000002a0: c2ba f6bb 14fd c3bc 0a7e 9e3c 0d1d 2fbc
000002b0: 962c 503b 2e45 d939 8840 65bc 4d41 033c
000002c0: 241f 3fbc 275f d2ba 10db e339 bedf 04bd
000002d0: ff89 93bb 2ea0 b2bc be33 1abc 73c0 5dbc
000002e0: b27d afbb c859 a9bc e64c 01bc e000 94bc
000002f0: c14b 10bd 5fe8 d2bc 3332 c6bc b6fe 8b3b
00000300: 3cd1 a63c de07 503b 5c42 bfb9 526e 34bc
00000310: 2867 1cbc 9997 203c 2f23 21bd aa98 9a3c
00000320: f420 0cbc 1d74 b0bb 4b73 39bc eb6f 14bd
00000330: 4461 483c 3cf8 2dba 0086 a7bc 1063 4cbc
00000340: 37fd 6cbb e9c3 21bc 6381 8ebc b55e bcbc
00000350: 8e1c 96bc 8491 46bb 43c6 c9bc ac56 cdbc
00000360: 25b7 aabc ae98 46bc 6bab 31bc 3550 b5bc
00000370: 7058 bbbb ea84 9bbb d9a0 01bd 04eb bbba
00000380: c742 d93b 2eb0 11bc 1102 8dbc 9a4a bc3a
00000390: f75e b63a f792 16bc fe9a 89bb 22cd 71bb
000003a0: 6917 1bbb a60c 03bd d765 58bc 6133 b0bb
000003b0: 2504 d63a 1e0d 2abc abf1 ab3b de1b f3bc
000003c0: c92b 57bc eedd 80bc a059 bf3a 8d77 0fbd
000003d0: a7c1 7ebc 46d5 83bb d5ed 54bc 9bde 0bbd
000003e0: 0ac8 a1bc ae30 0abc 9288 28bb df0f 73bc
000003f0: 47db 6bbc 7233 f6bb 4974 d5bc 999c fc3b

model/a_stream/b f4 [3]
0.017902302 -0.007102504 -0.0005495652
00000000: d9a7 923c 1fbc e8bb b210 10ba

model/hidden/mid_rec_layer/upward/b f4 [80]
-0.0034217758 -0.14424819 0.8403473 -0.14432889 -0.005990482 -0.10115057 0.8817159 -0.10332841
0.016592415 -0.123303846 0.943471 -0.12633458 -0.0028019182 -0.15391797 0.8303326 -0.15339817
-0.008199784 -0.13934782 0.8742043 -0.13900083 -0.004071534 -0.15385489 0.8462776 -0.1544141
-0.0063060517 -0.18663803 0.83182395 -0.18569766 0.016372388 -0.12489277 0.944876 -0.12886995
0.002433967 -0.17313501 0.8812551 -0.17481373 -0.0023420309 -0.18149413 0.85039395 -0.18166393
-0.008773039 -0.14502987 0.8664177 -0.14453433 -0.0053651906 -0.12825334 0.8629584 -0.13041627
0.0008666945 -0.121812604 0.87125504 -0.123950616 -0.005054286 -0.10113481 0.86967033 -0.10369372
-0.005363422 -0.15439993 0.84660095 -0.15510158 -0.005071189 -0.15346645 0.8559247 -0.1546311
-0.023750361 -0.12318854 0.94080687 -0.124425456 -0.003090923 -0.1513047 0.83182746 -0.14996508
-0.00269878 -0.13208784 0.8291562 -0.13277495 -0.008201949 -0.10339051 0.89278346 -0.105576046
00000000: df3f 60bb ccb5 13be 0021 573f f4ca 13be
00000010: ce4b c4bb 0828 cfbd 22b8 613f d89d d3bd
00000020: d1ec 873c ba86 fcbd 5187 713f da5d 01be
00000030: 63a0 37bb ac9c 1dbe ad90 543f 6914 1dbe
00000040: 6358 06bc 32b1 0ebe dacb 5f3f 3c56 0ebe
00000050: 816a 85bb 238c 1dbe a6a5 583f bb1e 1ebe
00000060: ffa2 cebb 0a1e 3fbe 6af2 543f 8727 3ebe
00000070: 631f 863c c8c7 ffbd 65e3 713f 7cf6 03be
00000080: 3183 1f3b 4e4a 31be ef99 613f 5f02 33be
00000090: c27c 19bb 99d9 39be 6bb3 593f 1c06 3abe
000000a0: cbbc 0fbc b682 14be 8dcd 5d3f cf00 14be
000000b0: 7bce afbb d854 03be d7ea 5c3f d88b 05be
000000c0: e232 633a e378 f9bd 920a 5f3f d2d9 fdbd
000000d0: 6d9e a5bb c41f cfbd b7a2 5e3f 605d d4bd
000000e0: a5bf afbb 041b 1ebe d7ba 583f f3d2 1ebe
000000f0: 372c a6bb 4f26 1dbe e21d 5b3f 9d57 1ebe
00000100: 1e90 c2bc 464a fcbd b8d8 703f c6d2 febd
00000110: 1591 4abb 9fef 1abe a5f2 543f 7290 19be
00000120: 04de 30bb 0942 07be 9543 543f 28f6 07be
00000130: 7861 06bc 67be d3bd 758d 643f 4138 d8bd

model/hidden/input_layer/W f4 [256, 86]
0.019910011 -0.0656211 0.001924287 -0.08095063 -0.038997427 0.011407921 0.011358658 0.011654996
-0.117435746 8.190248e-05 -0.12029312 0.014166198 -0.0799664 -0.120349705 -0.010991663 0.13259245
0.014643835 -0.006627273 0.03714032 -0.14464049 0.005135362 0.119943865 0.038012967 -0.011829387
-0.05403385 -0.028702691 0.0051539177 -0.017032094 -0.15238631 0.018995447 -0.13204233 -0.02185472
0.027475143 -0.043375332 -0.033119928 -0.0027270517 -0.0637378 0.13591586 0.0016487414 -0.014547733
0.0039185164 -0.010188899 0.020841928 0.116507754 0.0077699013 0.08637638 0.10852635 -0.07886992
0.023601724 0.021583753 0.06715355 -0.09078906 0.028932871 -0.13347049 0.06024365 0.022451079
-0.00035942733 -0.02739302 -0.058954343 0.0012099606 0.0060300087 0.036856227 -0.040239166 0.019882014
0.010756067 -0.069918014 -0.111772805 0.0012665065 0.0040059984 -0.080467895 0.0064991964 -0.0103506595
0.050258085 -0.06799525 0.0067355926 -0.0019435429 -0.0927435 -0.09013249 -0.041995317 -0.015512516
0.012395342 -0.01599487 -0.052321132 -0.004366007 -0.033600755 -0.0029908854 -0.02052686 -0.019013442
-0.0033152106 -0.019527333 -0.019959988 -0.013581703 -0.02143745 -0.0371625 -0.009129573 -0.003498866
-0.031451005 0.006368161 -0.012337685 -0.0142547535 -0.012464417 -0.0034957447 -0.01957237 0.008605945
-0.0062712156 0.016651701 -0.0016981554 -0.00720109 -0.019491943 0.004136337 -0.008233212 -0.04144765
-0.0052018454 -0.0036706151 0.015529189 -0.0059059258 -0.017577508 -0.0063085184 -0.007351405 -0.006265678
-0.026250973 -0.0061941845 -0.01321158 0.008379917 0.0072386567 0.0035277014 -0.023329627 -0.0054451353
0.003484912 -0.02067262 0.0035269933 -0.0120451385 -0.018614411 -0.028996702 0.007546893 -0.024883484
-0.020664973 0.01678674 -0.0057784556 -0.006239039 -0.011981409 -0.024425551 0.015943239 0.011707544
-0.02370302 0.014790792 0.0076964106 0.013067894 -0.018510215 0.0070696007 -0.017871153 0.008665866
0.009902064 0.0020337133 -0.013631342 -0.015564572 -0.007775041 -0.00422417 -0.0086316075 -0.020805927
0.0028877654 -0.019407466 0.0008562622 0.01144454 -0.026451312 -0.028017715 -0.028145323 0.010643627
-0.016587619 -0.029870253 -0.016075363 -0.030258251 -0.01238693 -0.022478478 -0.026754936 -0.012203988
-0.01960192 -0.01968517 -0.07616479 0.009840894 -0.128898 0.0022413484 -0.00669167 -0.012870155
0.09910495 0.06471818 0.0094359005 -0.07132839 0.058615446 0.020757526 -0.06811584 -0.06165287
-0.0016162957 -0.09162919 0.019105783 -0.010146331 0.029193453 -0.084211275 -0.0018390701 0.10609276
-0.1747782 -0.018155117 -0.032551423 -0.055600088 0.0031910301 0.038418707 0.0020445394 0.009538693
-0.08951521 -0.032380246 0.015969293 -0.020356266 -0.008117881 -0.0004006788 -0.0047513493 0.049975935
-0.005034875 -0.048785824 -0.05979882 -0.022026543 -0.0133052245 -0.14444715 0.057377677 -0.048916973
-0.0028177921 -0.0072332574 -0.033963222 -0.115149535 -0.0028239002 0.09269632 -0.14754929 0.011575697
0.03453011 -0.023539333 -0.0026282123 0.014182176 0.0022888773 -0.07734098 -0.084435344 0.00022942212
-0.11473462 0.11887112 0.03343434 0.009241431 0.066178404 0.06561238 -0.006984622 -0.021684539
0.071186334 -0.04452569 -0.06061802 0.005722205 0.06757107 -0.084196605 -0.010165399 -0.03392611
00000000: 521a a33c 5b64 86bd 5b38 fc3a 72c9 a5bd
00000010: c4bb 1fbd 4ae8 3a3c aa19 3a3c 99f4 3e3c
00000020: 2782 f0bd 0fc3 ab38 3d5c f6bd 5719 683c
00000030: 6dc5 a3bd e879 f6bd 6016 34bc 51c6 073e
00000040: b2ec 6f3c 9829 d9bb 7320 183d a31c 14be
00000050: 8a46 a83b 21a5 f53d 7cb3 1b3d 0cd0 41bc
00000060: 9952 5dbd e821 ebbc 32e2 a83b e486 8bbc
00000070: 280b 1cbe 579c 9b3c 1b36 07be ab08 b3bc
00000080: 8d13 e13c 55aa 31bd c3a8 07bd 56b8 32bb
00000090: f788 82bd 872d 0b3e 951a d83a 9d59 6ebc
000000a0: e666 803b 57ef 26bc b1bc aa3c 9e9b ee3d
000000b0: a89a fe3b 19e6 b03d 1043 de3d 8d86 a1bd
000000c0: 6758 c13c 69d0 b03c cd87 893d 9def b9bd
000000d0: a104 ed3c 7dac 08be 0cc2 763d 53eb b73c
000000e0: 8571 bcb9 5467 e0bc 1c7a 71bd 8a97 9e3a
000000f0: 6197 c53b 8ef6 163d d3d1 24bd 9bdf a23c
00000100: 373a 303c 2d31 8fbd 24e9 e4bd e800 a63a
00000110: c044 833b 5acc a4bd 36f7 d43b d095 29bc
00000120: 6cdb 4d3d 1841 8bbd 3fb6 dc3b 7abe feba
00000130: 4ef0 bdbd 6297 b8bd 4803 2cbd 3528 7ebc
00000140: d515 4b3c ac07 83bc af4e 56bd b910 8fbb
00000150: f2a0 09bd bb02 44bb f227 a8bc 14c2 9bbc
00000160: 0144 59bb c9f7 9fbc 2183 a3bc cb85 5ebc
00000170: 979d afbc b537 18bd 3494 15bc 3b4d 65bb
00000180: c5d2 00bd 02ac d03b 0024 4abc c58c 69bc
00000190: 8e37 4cbc dd18 65bb 3c56 a0bc f3ff 0c3c
000001a0: c57e cdbb 2669 883c a494 deba 1ff7 ebbb
000001b0: 91ad 9fbc 1c8a 873b 98e4 06bc 03c5 29bd
000001c0: 3e74 aabb b48e 70bb 246e 7e3c 7f86 c1bb
000001d0: b5fe 8fbc b0b7 cebb 0ee4 f0bb 5150 cdbb
000001e0: 480c d7bc 96f8 cabb 6275 58bc eb4b 093c
000001f0: 4132 ed3b 0231 673b c61d bfbc 1b6d b2bb
00000200: 1f63 643b a059 a9bc 2125 673b f958 45bc
00000210: 407d 98bc 7e8a edbc ed4b f73b 73d8 cbbc
00000220: 9749 a9bc 5884 893c 3359 bdbb da70 ccbb
00000230: ac4d 44bc 1818 c8bc 659b 823c 00d1 3f3c
00000240: d62c c2bc 1455 723c 2c32 fc3b b81a 563c
00000250: bca2 97bc 1ca8 e73b 8666 92bc 47fb 0d3c
00000260: 443c 223c 0c48 053b fe55 5fbc 8c02 7fbc
00000270: c5c5 febb e86a 8abb 966b 0dbc 3171 aabc
00000280: aa40 3d3b 68fc 9ebc c976 603a e181 3b3c
00000290: 6cb0 d8bc 6885 e5bc 0591 e6bc 9b62 2e3c
000002a0: c2e2 87bc 76b2 f4bc 7bb0 83bc 27e0 f7bc
000002b0: 8df2 4abc c924 b8bc 2b2d dbbc 3cf3 47bc
000002c0: 3594 a0bc cb42 a1bc 49fc 9bbd b33b 213c
000002d0: d6fd 03be 96e3 123b cc45 dbbb 58dd 52bc
000002e0: 89f7 ca3d f78a 843d 0999 1a3c 9e14 92bd
000002f0: c016 703d b00b aa3c 5180 8bbd b887 7cbd
00000300: e2d9 d3ba 16a8 bbbd bb83 9c3c cc3c 26bc
00000310: 1c27 ef3c f676 acbd f40c f1ba 2947 d93d
00000320: 0ef9 32be 0aba 94bc a454 05bd ebbc 63bd
00000330: 9a20 513b ef5c 1d3d aefd 053b 2e48 1c3c
00000340: c053 b7bd 26a1 04bd 09d2 823c 2fc2 a6bc
00000350: dc00 05bc 3312 d2b9 35b1 9bbb 91b3 4c3d
00000360: 98fb a4bb a5d3 47bd 9cef 74bd 0271 b4bc
00000370: 28fe 59bc f4e9 13be db04 6b3d 2a5d 48bd
00000380: b5aa 38bb f604 edbb 051d 0bbd 85d3 ebbd
00000390: 2f11 39bb 91d7 bd3d 2917 17be fea7 3d3c
000003a0: 726f 0d3d 8fd5 c0bc 163e 2cbb 5c5c 683c
000003b0: fd00 163b f364 9ebd 70ec acbd 0891 7039
000003c0: fcf9 eabd b472 f33d 72f2 083d 5f69 173c
000003d0: 8b88 873d c95f 863d 42df e4bb c6a3 b1bc
000003e0: 24ca 913d 9260 36bd 9a4a 78bd 5681 bb3b
000003f0: b362 8a3d 456f acbd c68c 26bc 1bf6 0abd

model/v_stream/W f4 [1, 256]
-0.03883048 0.055008598 0.042025395 0.016065871 -0.0055489535 -0.060659137 -0.021061065 -0.052986607
-0.0025026344 -0.02570159 0.026027424 0.021339176 -0.031313825 0.0376891 -0.03762586 -0.06117189
-0.0127938865 0.06360325 0.03293592 -0.06336126 0.0038294282 0.062227435 -0.024380773 0.011471088
-0.07106196 0.040780887 0.045031596 0.0659147 -0.041500043 -0.03160911 0.044928093 0.03261284
0.06108456 0.00621551 -0.049066953 0.012217306 0.06435653 0.018749224 -0.04869929 0.026023211
-0.061663974 -0.014376558 -0.045394197 -0.046019986 -0.0069924756 0.06261385 0.044645622 -0.035240114
0.011576373 -0.017494792 0.06694026 0.00935614 0.029254187 -0.034786534 0.026218113 -0.004599995
0.019995283 0.012959374 -0.027718237 0.019728262 0.018884355 -0.041493 -0.015501409 0.06835556
-0.056645107 -0.042637292 0.055369258 0.06774613 0.05845809 0.020953095 0.053385854 -0.062586345
0.007523946 0.041115995 0.038919415 0.037420306 0.04046368 0.00601296 0.0438582 -0.021628495
-0.057980083 -0.016935159 0.032761313 -0.021100663 -0.027099226 0.047662895 -0.03855965 -0.06501202
0.026102016 0.049650412 -0.012745 -0.07725372 -0.061418526 0.029921062 0.043979418 -0.047231343
0.06968401 -0.009099076 -0.07199624 0.058370322 -0.0069301534 0.023121048 0.037078906 -0.013278592
0.049956135 -0.034939528 0.055526376 -0.025795627 0.0061655175 -0.002907303 -0.03792596 -0.022260917
0.039360646 -0.021738306 0.06821654 0.06928695 0.049120672 0.044413313 0.01996044 -0.0015630873
0.052484788 0.032456324 -0.043524437 -0.021255825 0.025239795 -0.068260975 -0.06620142 -0.030741846
0.0416598 0.040068172 0.030570649 0.06228352 -0.05392527 0.05037524 0.011873814 0.06448365
0.07092517 -0.069401726 -0.06346802 -0.03954605 -0.05668388 0.0688303 0.0037108662 -0.017568672
0.0049493825 -0.043417275 -0.053361595 0.054765545 -0.030698884 0.038349286 0.061948493 -3.4051744e-05
0.032917317 0.065168165 -0.04960442 0.0029670615 0.059644047 -0.06352311 -0.051423572 -0.018654611
-0.04018752 -0.058138218 0.06382188 -0.0026526405 0.058601044 0.026981892 0.028379897 0.022075944
-0.009151689 -0.009061066 -0.07337049 0.01400358 -0.0068753525 -0.055923346 -0.008779917 -0.0010060555
-0.0619239 0.017345376 0.049773715 0.006034685 -0.030589571 0.0004987558 0.052363247 0.041530225
-0.05222686 0.03418802 -0.016337078 0.04244077 0.042890377 0.06946676 -0.051780425 0.029731771
-0.060982432 -0.021163346 -0.061652895 -0.029413093 -0.041900653 0.037594657 -0.039038885 0.06977831
0.023796894 -0.04908641 -0.013845275 0.022241365 0.0044093872 0.062612705 -0.04269741 -0.03459911
0.017104566 0.04988232 -0.048782527 0.020752685 0.06091273 0.06410755 -0.018374873 -0.043714803
-0.06359818 0.032058667 0.0635879 -0.03980552 -0.063552275 -0.05609318 -0.035165757 -0.026796743
-0.068166144 0.06089657 -0.05488308 0.046619203 0.03124476 -0.047407135 0.055785526 -0.056780048
-0.055038437 -0.015153096 0.002894957 0.047404606 0.04034295 0.035441257 -0.039730985 -0.0521173
-0.057142273 0.061966497 0.003408486 0.047857076 0.032576706 -0.06742622 -0.05537444 -0.054128084
0.015820716 0.059364263 -0.04253353 -0.013842184 0.054535713 -0.061632376 0.039741773 -0.017397214
00000000: b60c 1fbd b250 613d d222 2c3d 939c 833c
00000010: ffd3 b5bb b775 78bd 4188 acbc 7c08 59bd
00000020: 3d03 24bb 248c d2bc 7737 d53c 7fcf ae3c
00000030: ed42 00bd e35f 1a3d 931d 1abd 608f 7abd
00000040: 739d 51bc 6c42 823d d1e7 063d 8cc3 81bd
00000050: 25f7 7a3b 32e2 7e3d 30ba c7bc 3bf1 3b3c
00000060: ef88 91bd dc09 273d 0d73 383d 49fe 863d
00000070: f3fb 29bd 8e78 01bd 8506 383d 0b95 053d
00000080: ce33 7a3d 7aab cb3b 6efa 48bd 182b 483c
00000090: 5bcd 833d f997 993c e878 47bd a12e d53c
000000a0: 5d93 7cbd a88b 6bbc 44ef 39bd 747f 3cbd
000000b0: 2321 e5bb b13b 803d 54de 363d f057 10bd
000000c0: d4aa 3d3c 3d51 8fbc fa17 893d 7f4a 193c
000000d0: 7aa6 ef3c 537c 0ebd 5ec7 d63c 8ebb 96bb
000000e0: 26cd a33c 8e53 543c 5b11 e3bc 2a9d a13c
000000f0: 5db3 9a3c 90f4 29bd 9ff9 7dbc 00fe 8b3d
00000100: b304 68bd 71a4 2ebd e0ca 623d 7cbe 8a3d
00000110: c071 6f3d d3a5 ab3c 20ab 5a3d 452d 80bd
00000120: 6f8b f63b 3f69 283d f769 1f3d 0946 193d
00000130: 3ebd 253d 5d08 c53b a8a4 333d 3e2e b1bc
00000140: 867c 6dbd 9abb 8abc ba30 063d 4cdb acbc
00000150: 32ff ddbc 2b3a 433d b9f0 1dbd 0625 85bd
00000160: e5d3 d53c 3b5e 4b3d 68d0 50bc 3337 9ebd
00000170: fe91 7bbd 041d f53c c323 343d a775 41bd
00000180: 7eb6 8e3d 4a14 15bc c472 93bd b815 6f3d
00000190: 5716 e3bb 5a68 bd3c 0de0 173d 748e 59bc
000001a0: ce9e 4c3d c01c 0fbd a06f 633d 5a51 d3bc
000001b0: 1c08 ca3b 7388 3ebb 4058 1bbd 875c b6bc
000001c0: a138 213d 8814 b2bc 1db5 8b3d 51e6 8d3d
000001d0: c232 493d bcea 353d 1484 a33c 82e0 ccba
000001e0: 4afa 563d ecf0 043d ae46 32bd b220 aebc
000001f0: b0c3 ce3c 69cc 8bbd 9c94 87bd 53d6 fbbc
00000200: 77a3 2a3d 861e 243d 4c6f fa3c 011d 7f3d
00000210: bee0 5cbd 4556 4e3d 638a 423c 0110 843d
00000220: 3741 913d 7e22 8ebd 85fb 81bd 0afb 21bd
00000230: 5b2d 68bd e6f6 8c3d 0132 733b 2dec 8fbc
00000240: 6e2e a23b 50d6 31bd b091 5abd d651 603d
00000250: 3a7c fbbc 2414 1d3d b4bd 7d3d c8d2 0eb8
00000260: 4fd4 063d e376 853d 012e 4bbd 0873 423b
00000270: 514d 743d 6718 82bd 86a1 52bd 8ed1 98bc
00000280: ab9b 24bd 5722 6ebd 0cb5 823d ecd7 2dbb
00000290: a607 703d 2109 dd3c f57c e83c 9cd8 b43c
000002a0: f7f0 15bc de74 14bc 4443 96bd 466f 653c
000002b0: a34a e1bb e10f 65bd a4d9 0fbc 9fdd 83ba
000002c0: eaa3 7dbd e417 8e3c 86df 4b3d 9bbe c53b
000002d0: fb96 fabc efbe 023a d87a 563d 991b 2a3d
000002e0: d5eb 55bd bd08 0c3d 56d5 85bc 5fd6 2d3d
000002f0: d2ad 2f3d 9744 8e3d b617 54bd 0b90 f33c
00000300: b7c8 79bd c15e adbc bf87 7cbd baf3 f0bc
00000310: 05a0 2bbd dbfc 193d 3de7 1fbd eee7 8e3d
00000320: b4f1 c23c d50e 49bd 4bd7 62bc 8633 b63c
00000330: 9f7c 903b 173b 803d 7be3 2ebd ccb7 0dbd
00000340: e01e 8c3c 6751 4c3d 30d0 47bd 8901 aa3c
00000350: a07f 793d d24a 833d e786 96bc 4b0e 33bd
00000360: c33f 82bd f34f 033d 5f3a 823d 1d0b 23bd
00000370: b227 82bd f6c1 65bd f809 10bd d884 dbbc
00000380: b19a 8bbd af6e 793d 15cd 60bd c7f3 3e3d
00000390: 03f5 ff3c fc2d 42bd 5d7f 643d 3292 68bd
000003a0: fc6f 61bd b144 78bc 52b9 3d3b 552b 423d
000003b0: a63e 253d da2a 113d f5bc 22bd f378 55bd
000003c0: 040e 6abd 95d0 7d3d e860 5f3b c805 443d
000003d0: 276f 053d c216 8abd 4fd0 62bd 69b5 5dbd
000003e0: 729a 813c f127 733d a437 2ebd 54ca 62bc
000003f0: d760 5f3d 3b72 7cbd 45c8 223d 9a84 8ebc
