ai_challenge/results/simulation_DoubleDQN_DuelingRecNN_2017-05-20T11:17:03.15/80013/model.npz (npz, 611267 bytes, 12 tensors)

model/hidden/input_layer/b f4 [256]
0	0x3c271e39	0.010200077
1	0xbcd2d562	-0.025736514
2	0xbb13da9a	-0.0022560717
3	0x3c59241d	0.013253239
4	0xbbfe185d	-0.007754369
5	0x39a3d0a8	0.00031245244
6	0xbcfbffe1	-0.030761661
7	0xba0c85c5	-0.00053605094
8	0x3ba62c82	0.0050712237
9	0xbb6ad402	-0.0035831933
10	0x3c1d5f60	0.009605259
11	0x3bcb2022	0.006198899
12	0x3c88a4b2	0.016680095
13	0x3b40c27c	0.0029412797
14	0xbc910d53	-0.017706549
15	0x3bb1e351	0.0054287096
16	0x3bf9a167	0.0076181176
17	0x3c5ccf9b	0.013477231
18	0x3c88ad7d	0.016684288
19	0xbc062abc	-0.0081889
20	0xbc2937a7	-0.01032821
21	0xbc4db709	-0.012555846
22	0x3c056b12	0.008143203
23	0x381a6928	3.6814396e-05
24	0x3b8c743a	0.004286316
25	0xbcd1cc6a	-0.025610168
26	0xbc64178d	-0.013921631
27	0xbc3862d4	-0.011254031
28	0x3bbc1ab9	0.0057404903
29	0xbbfd0d23	-0.0077225133
30	0xbc56c53b	-0.013108547
31	0x3be7a49e	0.0070691844
32	0xbb9c1f89	-0.0047645015
33	0xbc258a96	-0.010103842
34	0xbca353bc	-0.019937389
35	0xbc3a16f6	-0.011358013
36	0xbc1f022f	-0.00970511
37	0x3c0564b8	0.008141689
38	0xbcba7131	-0.022759052
39	0xbbe8b1ac	-0.0071012583
40	0x3ca53455	0.020166555
41	0x3cc9bae2	0.024625245
42	0xbc03b404	-0.008038525
43	0xbd07922f	-0.033098396
44	0xbb8e12b8	-0.0043357275
45	0xbbb66436	-0.0055661453
46	0xbb82863c	-0.003983287
47	0x3c899239	0.016793357
48	0xbb02acc0	-0.0019939393
49	0x3a139f53	0.0005631346
50	0x3d170fba	0.036880232
51	0xbcd92918	-0.026508853
52	0xbab844e2	-0.0014058615
53	0x3ba73a02	0.0051033506
54	0xbc823ddc	-0.015898637
55	0xbbb3c6a9	-0.0054863286
56	0xbb1e225d	-0.0024129369
57	0x3cf02ba1	0.029317679
58	0xbbc41a75	-0.0059845992
59	0x3a76e82f	0.00094187533
60	0xbc8f4fef	-0.01749417
61	0xba926dce	-0.001117164
62	0x3c879f89	0.016555564
63	0xbbedee9d	-0.007261111
64	0x3c4f9e76	0.012672057
65	0xbbfbf09e	-0.007688596
66	0xbcb9cf0b	-0.022681734
67	0xbbda36da	-0.006659371
68	0xbbd2ae14	-0.006429443
69	0xbc2ca29c	-0.010536816
70	0xbd09e41e	-0.033664815
71	0x3b96b444	0.004599126
72	0xbcfdbeb9	-0.030974733
73	0xbbf1a7c7	-0.007374737
74	0x3c6c5efe	0.014426945
75	0xbbb23865	-0.0054388517
76	0xbcf2b3ef	-0.029626815
77	0xba5d962e	-0.00084528595
78	0x3c418c10	0.011813179
79	0xbbefff02	-0.0073241005
80	0xbc91edb3	-0.01781354
81	0x3c4ee5bb	0.012628014
82	0xbcb748a5	-0.022373507
83	0x3bf02458	0.0073285513
84	0xbb9a578e	-0.0047101444
85	0xbca7923f	-0.020455478
86	0x3c3633fd	0.011120793
87	0xbccf3f3c	-0.025298707
88	0xbbc51089	-0.006013934
89	0x3bcbec5e	0.0062232455
90	0x39936680	0.00028114393
91	0x3cf004a2	0.029299084
92	0x3c1fe5de	0.009759394
93	0x3d29bab1	0.04143781
94	0x3c93acd7	0.018026752
95	0x3c89c74b	0.016818663
96	0xbc0c84f0	-0.008576617
97	0xbc865b8c	-0.016401075
98	0xbc6a70d7	-0.01430913
99	0x3c396e48	0.011317797
100	0xbc43bf2e	-0.011947436
101	0x3c952706	0.018207084
102	0xbc7d7161	-0.015468926
103	0x3b92c333	0.004478836
104	0xbbc210fd	-0.0059224353
105	0xbb9885a9	-0.0046546054
106	0xbc881444	-0.016611226
107	0x3b8c2723	0.0042771264
108	0x3d0da904	0.034585014
109	0xbc98cf5e	-0.018653568
110	0xbb99a583	-0.00468892
111	0xbc305394	-0.010762114
112	0xbb90c3b6	-0.004417862
113	0xbcab73bb	-0.020929208
114	0x3b8f2c3e	0.0043692878
115	0xbca22414	-0.019792594
116	0x3bf7e471	0.007565074
117	0xbca159da	-0.019696165
118	0xbc1e6c0d	-0.009669316
119	0xbb2dafca	-0.0026502484
120	0xbc1fe9d0	-0.009760335
121	0xbbf31465	-0.0074182027
122	0xbc917746	-0.01775707
123	0xbc855183	-0.01627422
124	0xbbf0cc32	-0.0073485607
125	0xbcbd6aff	-0.023122309
126	0xba5a3711	-0.00083242456
127	0xbcaf10eb	-0.021370372
128	0xbc82991e	-0.015942153
129	0x3bfba47e	0.007679521
130	0xbc0f687e	-0.00875294
131	0x3b870c6d	0.0041213543
132	0x3d0c6e80	0.03428507
133	0xbb2f91d4	-0.0026789801
134	0xbc967c6e	-0.01836988
135	0x3cc706bc	0.024295203
136	0xbc2bfa9e	-0.0104967635
137	0xbc671274	-0.014103521
138	0xbcbc6fef	-0.023002593
139	0xba4d9502	-0.0007842333
140	0xbcb408ea	-0.021976907
141	0xbb0dcd9e	-0.002163745
142	0x3b5d0133	0.0033722639
143	0xbbf52a77	-0.007481869
144	0xbbe265e9	-0.0069091213
145	0xbc9fdc7f	-0.01951432
146	0xbc030d35	-0.007998754
147	0xbb61ea7c	-0.003447204
148	0x3cf1682d	0.02946862
149	0xbcbb5fb0	-0.022872776
150	0xbc05a652	-0.00815733
151	0x3d6084f4	0.054814294
152	0xbcb2d0cb	-0.021828076
153	0x39f8d9b8	0.0004746446
154	0xbccbf806	-0.02489854
155	0x3bbdce21	0.0057923947
156	0x3ce16e87	0.027518524
157	0x3810be88	3.450972e-05
158	0x3b8ebbe0	0.0043558925
159	0xbb693e34	-0.0035590054
160	0xbcb34699	-0.02188425
161	0xbc7d8000	-0.015472412
162	0xbcb42b25	-0.02199323
163	0x3b3c2f39	0.002871467
164	0x3d6a2726	0.05716624
165	0x3c34b02c	0.011028331
166	0xbbf6eaba	-0.007535306
167	0xbc5bb349	-0.013409444
168	0xbb1a63de	-0.002355806
169	0x3c4121cb	0.011787842
170	0x3c4e8b14	0.012606401
171	0xbb3dc888	-0.0028958637
172	0xbc824c4d	-0.015905524
173	0xbc2fda02	-0.010733129
174	0xbc78c1d8	-0.015182935
175	0xbb7ddbf1	-0.0038735832
176	0xbd27b8a9	-0.04094759
177	0x3d1eeced	0.03880017
178	0x3c4c05f9	0.012452596
179	0x3bf11f7b	0.007358489
180	0x3b8c3ef4	0.0042799655
181	0xbbed16ad	-0.007235369
182	0x3b96fd60	0.0046078414
183	0x3bd73d4e	0.0065685874
184	0x3cde00bb	0.027099958
185	0xbcc5e34a	-0.024156231
186	0xbc36e926	-0.011163985
187	0xbcd56a7f	-0.026051758
188	0x39862f2e	0.00025593623
189	0xbc6e3ff7	-0.014541618
190	0x3b93a3fc	0.0045056324
191	0xbb678bb7	-0.003533108
192	0xbb95981b	-0.0045652515
193	0xbc12afff	-0.008953094
194	0x3b41c736	0.0029568202
195	0x3c438a76	0.011934867
196	0xbbaec0f5	-0.005333061
197	0x3cc10a34	0.023564436
198	0x3c747d3a	0.014922434
199	0xbc13d99d	-0.009024051
200	0xbb44c226	-0.0030022948
201	0xbc10c0bc	-0.008835014
202	0xbb10ec92	-0.0022113663
203	0x3cef7438	0.029230222
204	0xbc801cd5	-0.015638748
205	0x3c016287	0.007897026
206	0xbb821015	-0.0039692023
207	0xbbbc4901	-0.0057460074
208	0x3baaf0fe	0.005216717
209	0x3b9aa49a	0.004719329
210	0xbb3fa647	-0.0029243396
211	0x3cc587f2	0.024112675
212	0x3bb8f7d4	0.005644778
213	0xbc75df99	-0.015006923
214	0xbc675a6d	-0.01412068
215	0xbc079af9	-0.008276694
216	0x3d5c0458	0.05371508
217	0xbcb8b4c8	-0.02254714
218	0xbc04d0f3	-0.008106458
219	0x3bfc67d7	0.0077028084
220	0xbbfc8f78	-0.0077075325
221	0xbc841aad	-0.016126001
222	0xbaba2f73	-0.0014204815
223	0xbbbcd2d3	-0.005762437
224	0x3c4fd3df	0.012684791
225	0xbc980d59	-0.018561052
226	0xbcbf5ee0	-0.02336067
227	0x3b771f81	0.0037707987
228	0x3d75fad9	0.06005368
229	0xbc78d46c	-0.015187364
230	0xbc80c515	-0.015718976
231	0x3c1ecb46	0.009692019
232	0xbcc82fce	-0.024436858
233	0x3c7a6cb3	0.015284705
234	0xbcbc6b81	-0.02300048
235	0xbb4b446f	-0.0031016131
236	0x3c33664b	0.0109496815
237	0x3b1c5830	0.0023856275
238	0xbc1f278e	-0.00971402
239	0xbbaa375b	-0.005194587
240	0xbc98cc3c	-0.018652074
241	0x3cae0f39	0.021247493
242	0xbc7980cd	-0.015228462
243	0xbb8aa081	-0.0042305593
244	0xbcb0419a	-0.021515656
245	0x3cf695bc	0.030100696
246	0xba95fa4e	-0.0011442394
247	0xbbfae2c6	-0.007656428
248	0x3cb9f1c9	0.0226983
249	0x3a009916	0.0004905624
250	0xbb09dcb1	-0.0021036083
251	0x3bfb628e	0.0076716607
252	0xbaf7a9ac	-0.0018895171
253	0xbbbb784c	-0.0057211276
254	0x3c1d1859	0.009588324
255	0xbb669363	-0.0035183064

model/hidden/output_layer/b f4 [256]
0	0x3b663709	0.0035128018
1	0xbc284a8c	-0.01027168
2	0x3c4d1e59	0.0125194425
3	0xbc04f9b8	-0.008116178
4	0xbbb763d6	-0.005596618
5	0xbba125b0	-0.004917823
6	0x3bcdfc92	0.0062862122
7	0xba5e0e9a	-0.0008470804
8	0x3aa046ae	0.0012228095
9	0x3bca8b02	0.006181122
10	0xba138657	-0.0005627623
11	0x39a58235	0.00031568264
12	0xb999102a	-0.00029194477
13	0x3beebf59	0.007285994
14	0x3bb2dd07	0.0054584774
15	0x38611a74	5.3668817e-05
16	0x39dffb65	0.00042721178
17	0xbb94d90e	-0.0045424765
18	0xb9e2f3a7	-0.00043287614
19	0xb94f07e8	-0.00019744004
20	0x3bdc7356	0.0067276163
21	0x393a56dd	0.00017770701
22	0x3a524560	0.0008021202
23	0xbb8fc923	-0.004387991
24	0x3ba35ce1	0.0049854373
25	0xbc05ee55	-0.008174499
26	0x3ace5dae	0.0015744471
27	0x3b4fae50	0.0031689592
28	0x3a2feae7	0.00067107234
29	0xbac78096	-0.0015220817
30	0xb9ccf1a9	-0.00039089963
31	0x3b701d30	0.003663849
32	0xbb373136	-0.0027952916
33	0x3b74ed2f	0.0037372818
34	0xbb97064a	-0.004608904
35	0xbb312146	-0.002702789
36	0x3a307a2a	0.0006732071
37	0xbbe4baae	-0.0069802618
38	0xbc4fcc7e	-0.012683032
39	0x3bd12a19	0.0063831923
40	0x3a505994	0.00079479185
41	0xbbe7dcee	-0.0070758974
42	0xbb9ff9b7	-0.0048820633
43	0xbbd6a591	-0.006550499
44	0xbad5d2f4	-0.0016313479
45	0xbae08257	-0.0017128688
46	0x3bd3d1bb	0.006464211
47	0x3b8e3780	0.004340112
48	0x3a9c915a	0.0011945174
49	0xb9fc85df	-0.00048164927
50	0xbbb2dab0	-0.0054581985
51	0x3b52f078	0.0032186788
52	0x3b487098	0.003058469
53	0x3b55a926	0.003260204
54	0x3bb7945f	0.005602404
55	0xb8e95d39	-0.0001112767
56	0xbb44c5ba	-0.003002508
57	0x3b991dbd	0.0046727345
58	0xbb0c7d93	-0.0021437153
59	0x3b9401e5	0.0045168274
60	0xbcc53e64	-0.024077602
61	0xbab58ad7	-0.0013850582
62	0x3c30a304	0.010781053
63	0xbb8d9877	-0.0043211537
64	0xbb455ea7	-0.0030116232
65	0x3befde21	0.007320181
66	0xbb06d90f	-0.0020576154
67	0x3bc10b3a	0.005891231
68	0xbbf58304	-0.007492425
69	0x3b0bd78d	0.0021338195
70	0x3b53746f	0.0032265445
71	0x3c033c5d	0.008009997
72	0xbbac0c70	-0.005250506
73	0x3bd1ce90	0.006402798
74	0xbb0196cf	-0.0019773727
75	0x3c22a302	0.009926559
76	0xbc701d3c	-0.0146554075
77	0xbcb07caf	-0.021543829
78	0x3b91ac7a	0.0044456096
79	0xba1dddc2	-0.0006022119
80	0x3bae19de	0.005313142
81	0x3c5dc5c3	0.01353592
82	0xbac08b60	-0.0014689974
83	0xba03e154	-0.000503083
84	0x39aac38c	0.0003257062
85	0xbb0f6b84	-0.0021884153
86	0xbadb4255	-0.0016728143
87	0xbb275a79	-0.0025536104
88	0xbb3d8526	-0.0028918474
89	0x3c025a00	0.007956028
90	0xba524eb0	-0.00080225896
91	0x3bc28568	0.0059363134
92	0x3bebe850	0.0071993247
93	0x3ab5d9aa	0.0013874073
94	0x3bca60e8	0.006176103
95	0x3c0154cb	0.007893751
96	0xbb5871bd	-0.0033026778
97	0xbb09e37b	-0.002104013
98	0x3c50421c	0.012711074
99	0xb989e562	-0.0002630158
100	0xba8720bd	-0.0010309439
101	0x3b0192c0	0.0019771308
102	0x3bb572d1	0.005537369
103	0x3c19424a	0.009354183
104	0xbc023882	-0.007948043
105	0x38403278	4.582337e-05
106	0xbbc7ce4c	-0.0060975906
107	0xbb240ee5	-0.0025033292
108	0xbbeb66ec	-0.0071839
109	0x3b8b3160	0.0042478293
110	0xbbbc8910	-0.005753644
111	0xbc612fb1	-0.013744281
112	0xbaf250e1	-0.0018487239
113	0xbbedcf24	-0.007257359
114	0xbc64ca4d	-0.013964248
115	0x3c0fb3e2	0.008770915
116	0x3bb079af	0.0053855996
117	0xbb256b32	-0.0025240895
118	0x3c59188d	0.013250482
119	0x390fd586	0.00013717086
120	0xbba22bc5	-0.0049490654
121	0xbbd60536	-0.006531383
122	0x3bdfdedc	0.006831987
123	0xbc024f74	-0.007953513
124	0x3adc6bdd	0.0016816814
125	0x3c01a73f	0.00791341
126	0x3c47d86b	0.012197594
127	0xbabf11fd	-0.0014577504
128	0xba6e9d61	-0.0009102431
129	0xbc2100d9	-0.009826862
130	0x3be2a1d6	0.006916265
131	0xb9382a37	-0.00017563334
132	0xbbc580c8	-0.006027315
133	0x3ba85183	0.00513667
134	0x3a8edfc4	0.0010900428
135	0xbbc879f5	-0.006118054
136	0x3b90cd0e	0.0044189757
137	0x3b606b18	0.003424352
138	0x3b8ab826	0.004233378
139	0x3c1e840e	0.009675039
140	0x3bd45d8d	0.0064808787
141	0x3bb6998f	0.005572505
142	0xbbc497c6	-0.005999538
143	0x3a71e524	0.0009227565
144	0x3c171ec7	0.0092236465
145	0x3bcf775b	0.006331367
146	0x3af6a591	0.0018817653
147	0x3b58f5ab	0.0033105414
148	0x3b9fa4f1	0.0048719575
149	0xbba2def8	-0.0049704276
150	0x3b4f54ab	0.003163616
151	0x3c361eaa	0.011115709
152	0xbc1718f1	-0.009222255
153	0x3be391c8	0.0069448687
154	0x3baed7d3	0.005335787
155	0xbcc8337f	-0.024438618
156	0x3814811e	3.54062e-05
157	0x3bbeb866	0.005820322
158	0x3bc18c19	0.0059065935
159	0x3b094f9d	0.0020951994
160	0xbab5976d	-0.0013854333
161	0x3a20e8b2	0.000613819
162	0xbaededc7	-0.0018152528
163	0x3c481acb	0.012213419
164	0x3abf6a50	0.0014603827
165	0xbbb24faa	-0.0054416256
166	0xba73587b	-0.0009282899
167	0x3b08ada3	0.0020855449
168	0x3cc72322	0.024308745
169	0xbbc06374	-0.0058712307
170	0x3bcece87	0.006311241
171	0xbb5b56bd	-0.0033468448
172	0xbb3e9876	-0.0029082573
173	0x3a425139	0.0007412616
174	0xbb61ccd1	-0.0034454355
175	0xba009f8a	-0.00049065857
176	0xbbb4bef9	-0.00551593
177	0xbb96262a	-0.004582186
178	0x3b8a5d3d	0.0042225407
179	0x3ad91082	0.0016560706
180	0x3aefa0a8	0.0018282132
181	0xba0eda96	-0.0005449442
182	0x3b817d1d	0.0039516822
183	0xbbc1aca7	-0.0059104743
184	0x3bf922fe	0.0076030483
185	0x3c4986d1	0.012300209
186	0xbc088bad	-0.008334083
187	0xbb803073	-0.0039120256
188	0x3a39ec62	0.0007092414
189	0x39b6ea02	0.00034888095
190	0xbb8381e4	-0.004013287
191	0xbb87fba6	-0.004149872
192	0x3be2eebd	0.0069254325
193	0xbbb39cbb	-0.00548133
194	0x3c0c8cb0	0.008578464
195	0x3aae942c	0.0013319305
196	0x3c5b74dc	0.013394561
197	0x3b891229	0.004183073
198	0x3b4dc3ea	0.0031397291
199	0x38bbd6d8	8.9568726e-05
200	0x3b1c27a5	0.002382734
201	0x3b53f75e	0.0032343487
202	0xbbe86fc0	-0.0070933998
203	0xbbfff2e6	-0.007810938
204	0xbaa975df	-0.0012928805
205	0x3b803388	0.003912393
206	0xbbd26486	-0.0064206747
207	0x3c173ef2	0.009231316
208	0x3b93efed	0.0045146854
209	0x3bb095ed	0.0053889663
210	0x3b8d5006	0.004312518
211	0xba0ae39e	-0.00052982
212	0x3992bb53	0.00027986857
213	0xb998c586	-0.00029138866
214	0xbac7e227	-0.0015249894
215	0xbb91d1e5	-0.00445007
216	0x3b136b3e	0.0022494341
217	0xbb1f9b52	-0.0024354053
218	0xbadbb159	-0.0016761228
219	0x3bf76d7c	0.0075508934
220	0xbb76942f	-0.0037624945
221	0x3b48bfef	0.003063198
222	0xba0b7ee0	-0.0005321335
223	0x3bf2e96b	0.0074130795
224	0xbb98e558	-0.004666012
225	0xbabbde01	-0.001433313
226	0xbaa478fd	-0.0012548264
227	0xbbdc15f9	-0.0067164865
228	0xbbbb70f9	-0.0057202545
229	0x3beaeadf	0.007169112
230	0xbb8c1309	-0.00427473
231	0x3b1bd6c8	0.0023779143
232	0xbc36ee60	-0.0111652315
233	0xba9b5186	-0.0011849857
234	0xbb0c4d5b	-0.0021408412
235	0xbaf19e29	-0.0018433976
236	0xbb950d8c	-0.004548734
237	0x3c07f9df	0.00829932
238	0xbbfdaa3f	-0.007741242
239	0xbabcef99	-0.0014414667
240	0x3b3f5b0a	0.002919855
241	0xbbbbba40	-0.00572899
242	0x3c1c954b	0.009557079
243	0x3c537599	0.012906455
244	0x3ac05860	0.0014674775
245	0xbbc38e7b	-0.0059679127
246	0xbac2ffa7	-0.0014877216
247	0x3baf5a9a	0.0053513767
248	0xbac35e5a	-0.0014905438
249	0x3b0282cb	0.0019914384
250	0xbaed98df	-0.0018127224
251	0xbc88c173	-0.016693806
252	0x3b914d72	0.004434281
253	0xbac56d15	-0.0015062416
254	0x3bc715e2	0.0060756067
255	0x3badba9e	0.0053017875

model/a_stream/W f4 [3, 256]
0	0x3d36c015	0.044616777
1	0xbd4845c9	-0.048894677
2	0xbc0baf77	-0.008525721
3	0x3c86af0e	0.016440894
4	0x3d63d690	0.055624545
5	0x3ac1d4e8	0.0014788182
6	0x388b8c03	6.654116e-05
7	0x3d3c2869	0.045936976
8	0x3d785b69	0.06063405
9	0x3cb953a6	0.022622894
10	0xbd26dc2a	-0.04073731
11	0x3bd13d9d	0.0063855187
12	0x3af2f8d1	0.0018537288
13	0xbc349b6a	-0.011023382
14	0xbdcfe706	-0.10151486
15	0xbd9d0f63	-0.076689504
16	0x3d044603	0.03229333
17	0x3ddd800e	0.1081544
18	0x3c2ad0cd	0.010425759
19	0x3d0c65e5	0.03427686
20	0x3d3699e8	0.04458037
21	0xbda2ea9f	-0.07954907
22	0xbe6224eb	-0.22084396
23	0x3da0f32c	0.07858881
24	0xbbc121c5	-0.005893918
25	0x3d180ab0	0.037119567
26	0x3cc79712	0.024364028
27	0x3cd2d44d	0.025735999
28	0xbcd4b9ee	-0.025967564
29	0xbd9f31f1	-0.077731974
30	0xbdb5f9b6	-0.08885519
31	0x3c73ef48	0.014888592
32	0xbda40645	-0.08009008
33	0xba9f4d28	-0.0012153732
34	0x3d36c3d7	0.04462036
35	0x3d39e5b0	0.045385063
36	0xbd445d41	-0.047940496
37	0xbc20940c	-0.009800922
38	0x3cb8e05d	0.022567922
39	0x39a94aab	0.00032289824
40	0x3a8da839	0.001080758
41	0xbcf44c83	-0.02982164
42	0xbc7d2357	-0.01545032
43	0x3d426f91	0.04746968
44	0x3ddcca6e	0.10780798
45	0xbd96764b	-0.07346781
46	0x3c7d1631	0.015447185
47	0x3e0db99d	0.13840337
48	0xbb7b6e59	-0.0038365333
49	0x3d4d1583	0.050069343
50	0x3d532cbb	0.05155633
51	0x3c4b4ee9	0.01240895
52	0x3e0c5ab2	0.13706473
53	0x3cc97910	0.02459386
54	0x3c1b2811	0.009470002
55	0x3c97fff6	0.018554669
56	0x3db115ec	0.086467594
57	0xbdd62c0e	-0.104576215
58	0x3badff17	0.00530995
59	0xbbf5d05c	-0.007501645
60	0x3d9606a1	0.07325483
61	0x3ae2b0d7	0.0017295134
62	0x3b80cb83	0.0039305105
63	0xbd7293ed	-0.059223104
64	0x3c732493	0.014840263
65	0x3cdfdabf	0.027325986
66	0x3d467864	0.048454657
67	0xbd393705	-0.045218486
68	0xbc2feb50	-0.010737255
69	0x3d0b859d	0.03406297
70	0xbc97a7dc	-0.018512659
71	0xb901a0e9	-0.00012362342
72	0x3ca216cb	0.01978626
73	0xbcb2073a	-0.021731962
74	0x3cd721cf	0.026261238
75	0x3c9400f4	0.01806686
76	0xbd02ec2f	-0.031963523
77	0x3d95e7e3	0.073196195
78	0x3d7c442a	0.061588444
79	0xbbf7d148	-0.00756279
80	0xbc6e60d5	-0.014549454
81	0xbe01dcee	-0.12681934
82	0xbcfe20e9	-0.031021552
83	0xb931c3d6	-0.0001695299
84	0xbbb9c2e1	-0.0056689833
85	0xbcf58bf6	-0.029973965
86	0x3d0c05b9	0.034185145
87	0xbae1e2b7	-0.0017233704
88	0x3e0cf4b9	0.1376523
89	0x3dd7b489	0.10532481
90	0xbda24a3c	-0.07924315
91	0xbd8c7f27	-0.0686019
92	0x3b747ab2	0.0037304577
93	0xb9729fb0	-0.00023138407
94	0xbd57727a	-0.052599408
95	0xbc63ead3	-0.013910967
96	0x3e633e2e	0.22191688
97	0x3d465595	0.04842146
98	0xbb645d53	-0.0034845665
99	0x3cc64934	0.024204828
100	0xbd434854	-0.0476764
101	0x3caff152	0.021477375
102	0x3c9eb686	0.019374143
103	0xbd10ae0b	-0.03532223
104	0x3cf0cf9b	0.029395869
105	0xbc1c7ef7	-0.009551755
106	0xbe380da3	-0.17973952
107	0xbddb9a9b	-0.10722848
108	0xbd104e8c	-0.035231158
109	0xbc538ae5	-0.012911533
110	0xbc806f5b	-0.015678098
111	0xbc6a5b4a	-0.014303992
112	0x3bde91cc	0.0067922827
113	0x3c6316dc	0.013860431
114	0x3cf82505	0.03029109
115	0xbd6ab2fc	-0.0572996
116	0xbdc79970	-0.09746063
117	0x3d0cd3d2	0.034381695
118	0xbd32ed2b	-0.043683212
119	0xbda99b9c	-0.08281633
120	0xbcf88be8	-0.03034015
121	0x3caddfc2	0.02122486
122	0x3ca59f00	0.020217419
123	0x3cf602e9	0.030030685
124	0x3db1b403	0.08676913
125	0xbd4ff524	-0.050770894
126	0xbd70c6ed	-0.05878346
127	0xbc9a2541	-0.018816592
128	0xbd733ed7	-0.0593861
129	0xbc970a8c	-0.018437646
130	0xbe145f19	-0.14489402
131	0x3dc9ae4f	0.098477
132	0x3d8b8261	0.06811977
133	0xbb0f74a8	-0.00218896
134	0x3cbb5ede	0.022872385
135	0x3d3350d7	0.043778267
136	0x3d34cd78	0.044141263
137	0xbd9697c9	-0.073531695
138	0x3d9c03a8	0.07617885
139	0x3d14d064	0.03633155
140	0xbd9c274d	-0.076246835
141	0xbd799ac8	-0.060938627
142	0xbd78c6e0	-0.060736537
143	0xba93b3a6	-0.0011268749
144	0xbc6a9561	-0.014317841
145	0x3d5dffae	0.054198913
146	0xbd3c3137	-0.045945372
147	0x3c73e7d4	0.014886815
148	0x3cbd0b74	0.02307675
149	0x3d83f045	0.06442312
150	0xbd47e21a	-0.04879961
151	0xbdebe217	-0.115177326
152	0x3d52efe8	0.051498324
153	0xbd7e72d7	-0.06212124
154	0xbb72b440	-0.0037033707
155	0x3d8dc644	0.06922582
156	0x3c6405d8	0.013917409
157	0x3b17e5fb	0.002317785
158	0x3d00e219	0.031465624
159	0xbc4a5213	-0.01234867
160	0xbc23f7a4	-0.010007773
161	0xbd026faa	-0.031844772
162	0xbd4d20e3	-0.05008019
163	0xbd52a82f	-0.051429924
164	0x3c1ed6ea	0.009694794
165	0xbd1e6ef5	-0.038680036
166	0xbd783700	-0.060599327
167	0xbc4de932	-0.012567805
168	0xbd0e1a3e	-0.034692995
169	0x3d8a397a	0.06749244
170	0x3b85eae4	0.004086839
171	0x3ba59362	0.00505297
172	0xbc86546d	-0.01639768
173	0xbc97a0e7	-0.018509341
174	0xbd5c4b42	-0.05378271
175	0xbdb04da4	-0.08608559
176	0x3d4e9bca	0.05044154
177	0x3b834c61	0.004006908
178	0xbda31de5	-0.07964686
179	0xbd803af2	-0.06261243
180	0x3d3f562a	0.04671303
181	0xbe07a205	-0.132454
182	0x3d9d6317	0.076849155
183	0x3da7c949	0.08192689
184	0xbcb1abb6	-0.021688323
185	0x3da237c6	0.07920794
186	0xbcaa6585	-0.020800361
187	0xbd368b68	-0.044566542
188	0xbdb29c27	-0.0872119
189	0xbc404e51	-0.011737422
190	0xbd8324e6	-0.06403522
191	0x3deaf4ce	0.11472474
192	0xbcd88a43	-0.026433116
193	0xbd3a64e7	-0.045506384
194	0x3ca7c2af	0.020478575
195	0xbb5e1f8b	-0.0033893313
196	0xbbce08ef	-0.006287686
197	0xbdc469e4	-0.095905095
198	0x3d038e94	0.032118395
199	0x3e1439b2	0.14475134
200	0xbb7820a6	-0.0037861257
201	0x3bd1117d	0.0063802586
202	0xbd4b30fb	-0.04960726
203	0xbcbffc24	-0.02343566
204	0x3d97b2d6	0.07407157
205	0x3d7b416d	0.06134169
206	0x3cd34fcb	0.025794884
207	0xbdb695f4	-0.0891532
208	0x3d1538e2	0.0364312
209	0xbbdefa7c	-0.0068047624
210	0xbbae3587	-0.0053164396
211	0x3d1acd5c	0.037793502
212	0x3e00c246	0.1257411
213	0xbdcae46f	-0.099068515
214	0x3d061c83	0.032742035
215	0x3ccab709	0.024745481
216	0x3dade581	0.0849104
217	0xbd41789b	-0.04723416
218	0x3ded00d8	0.115724266
219	0x3d822609	0.06354911
220	0xbc83bdeb	-0.01608177
221	0xbbea7717	-0.00715531
222	0x3d1794d3	0.037007164
223	0xbbdedfd0	-0.006801583
224	0x3d2767a8	0.04087034
225	0xbde59805	-0.11210636
226	0x3bc8a7bb	0.0061235107
227	0xbda392aa	-0.07986958
228	0x3b9415ff	0.0045192237
229	0xbce7d71d	-0.028300816
230	0x3c3c503a	0.011493737
231	0xbe292b1a	-0.16520348
232	0x3c330d81	0.010928513
233	0xbcf413f9	-0.02979468
234	0x3b1ea484	0.0024206946
235	0xbd20934d	-0.039202977
236	0xbcc83546	-0.024439465
237	0xbd136f27	-0.035994675
238	0x3c468dc7	0.012118763
239	0x3dbf5888	0.09343058
240	0x3d9f6447	0.07782798
241	0x3c8f5b33	0.017499542
242	0x3c0f57e3	0.008748981
243	0xbd366b3a	-0.044535853
244	0xbdc3b436	-0.09555857
245	0x3dbac23f	0.09119081
246	0x3bcdb574	0.0062777344
247	0xbce977d0	-0.028499514
248	0xbcc86112	-0.02446035
249	0x3da1e948	0.07905823
250	0x3d8d0320	0.06885362
251	0x3bb1d25c	0.005426688
252	0xbd99f211	-0.07516874
253	0xbd4af944	-0.049554124
254	0xbce6a1ac	-0.028153263
255	0xbd8df9ef	-0.06932437

model/hidden/mid_rec_layer/upward/W f4 [80, 86]
0	0x3f7bdc3d	0.9838293
1	0x3f7c3a36	0.9852632
2	0x3f7d30a9	0.98902375
3	0x3f7c8d27	0.9865288
4	0x3f7b874d	0.9825333
5	0x3f7c93c4	0.9866297
6	0x3f7d1ad8	0.98869085
7	0x3f7c98b0	0.9867048
8	0x3f800000	1.0
9	0x3f800000	1.0
10	0x3f7eeaff	0.99577326
11	0x3f800000	1.0
12	0x3f7f3db5	0.9970353
13	0x3f7f8ac6	0.99821126
14	0x3f800000	1.0
15	0x3f7f5a8d	0.99747545
16	0x3f7f4c50	0.9972582
17	0x3f800000	1.0
18	0x3f7f888b	0.99817723
19	0x3f7f7f11	0.9980326
20	0x3f800000	1.0
21	0x3f7f4a9c	0.9972322
22	0x3f7f69e5	0.9977096
23	0x3f800000	1.0
24	0x3f7f536b	0.9973666
25	0x3f7fbedb	0.999006
26	0x3f800000	1.0
27	0x3f7f306c	0.9968326
28	0x3f7f5b19	0.9974838
29	0x3f800000	1.0
30	0x3f7f9f36	0.9985231
31	0x3f7f9f9f	0.9985294
32	0x3f800000	1.0
33	0x3f7f7eca	0.9980284
34	0x3f7fc74e	0.9991349
35	0x3f800000	1.0
36	0x3f7f78d1	0.99793726
37	0x3f7f5778	0.9974284
38	0x3f800000	1.0
39	0x3f7f6604	0.9976504
40	0x3f7f4449	0.9971357
41	0x3f800000	1.0
42	0x3f7f2dce	0.9967927
43	0x3f7f2621	0.99667555
44	0x3f800000	1.0
45	0x3f7f9947	0.9984326
46	0x3f7f5ed9	0.997541
47	0x3f7f20e2	0.9965955
48	0x3f7f0761	0.99620634
49	0x3f7f84e0	0.99812126
50	0x3f7f2ddf	0.9967937
51	0x3f7fb138	0.9987979
52	0x3f7fdcb7	0.9994616
53	0x3f7f5b49	0.99748665
54	0x3f7f189b	0.9964692
55	0x3f7ec608	0.9952092
56	0x3f800000	1.0
57	0x3f7f483d	0.997196
58	0x3f7f3c18	0.9970107
59	0x3f800000	1.0
60	0x3f7f8411	0.9981089
61	0x3f7f8e5b	0.9982659
62	0x3f7ee402	0.9956666
63	0x3f7f3c04	0.9970095
64	0x3f7f62ab	0.9975993
65	0x3f7def6a	0.9919344
66	0x3f7faed3	0.99876136
67	0x3f7f998a	0.99843657
68	0x3f7dabd3	0.9909031
69	0x3f7fbe9b	0.99900216
70	0x3f7eb9ec	0.99502444
71	0x3f800000	1.0
72	0x3f7f3b2d	0.9969967
73	0x3f7f990d	0.9984291
74	0x3f800000	1.0
75	0x3f7fcf8e	0.9992608
76	0x3f7f3937	0.9969668
77	0x3f7d5bfd	0.9896849
78	0x3f7f2c6c	0.9967716
79	0x3f7f8553	0.9981281
80	0x3f7dd45c	0.9915216
81	0x3f7f3055	0.99683124
82	0x3f7f30fd	0.99684125
83	0x3f7dd0bf	0.99146646
84	0x3f7f3f50	0.9970598
85	0x3f7f1132	0.9963561
86	0x3f552f0b	0.83274907
87	0x3f5ffc67	0.8749451
88	0x3f631be8	0.88714457
89	0x3f60e8b0	0.8785505
90	0x3f5a1945	0.8519481
91	0x3f5b5c31	0.8568755
92	0x3f6157ef	0.880248
93	0x3f60b83c	0.8778112
94	0x3f800000	1.0
95	0x3f800000	1.0
96	0x3f6459bd	0.8919943
97	0x3f800000	1.0
98	0x3f6ef7d8	0.9334693
99	0x3f76a444	0.963444
100	0x3f800000	1.0
101	0x3f70ec35	0.94110423
102	0x3f6c93cf	0.9241304
103	0x3f800000	1.0
104	0x3f7239e0	0.9461956
105	0x3f70b051	0.9401904
106	0x3f800000	1.0
107	0x3f6de274	0.92923665
108	0x3f6e6005	0.93115264
109	0x3f800000	1.0
110	0x3f701260	0.9377804
111	0x3f787c1c	0.97064376
112	0x3f800000	1.0
113	0x3f6f7936	0.9354433
114	0x3f6fcf8a	0.93676054
115	0x3f800000	1.0
116	0x3f778b83	0.96697253
117	0x3f761ad8	0.9613471
118	0x3f800000	1.0
119	0x3f759bdb	0.9594094
120	0x3f798ac5	0.9747737
121	0x3f800000	1.0
122	0x3f6e76b3	0.9314987
123	0x3f744281	0.95413977
124	0x3f800000	1.0
125	0x3f6ed111	0.9328776
126	0x3f6ca0d0	0.9243288
127	0x3f800000	1.0
128	0x3f6e3c81	0.9306107
129	0x3f7215c4	0.9456446
130	0x3f800000	1.0
131	0x3f7430ad	0.95386773
132	0x3f728608	0.94735765
133	0x3f6d7b6e	0.92766464
134	0x3f6b2574	0.91854024
135	0x3f761ccd	0.96137697
136	0x3f701f29	0.93797547
137	0x3f760e4e	0.9611558
138	0x3f7a87dd	0.9786356
139	0x3f731ce2	0.94965947
140	0x3f704ffc	0.93872046
141	0x3f642344	0.8911631
142	0x3f800000	1.0
143	0x3f70d773	0.9407875
144	0x3f6f5053	0.9348194
145	0x3f800000	1.0
146	0x3f73d174	0.95241475
147	0x3f72a009	0.94775444
148	0x3f701fa6	0.9379829
149	0x3f701ec9	0.93796974
150	0x3f708e9d	0.9396761
151	0x3f6871db	0.9079873
152	0x3f7650fc	0.9621732
153	0x3f75e9ca	0.9605986
154	0x3f5d6919	0.8648849
155	0x3f792a87	0.97330517
156	0x3f626ea0	0.8845005
157	0x3f800000	1.0
158	0x3f6dc392	0.9287654
159	0x3f75d721	0.96031386
160	0x3f800000	1.0
161	0x3f7a6b2a	0.9781977
162	0x3f6f11c4	0.93386483
163	0x3f618f62	0.8810941
164	0x3f70e420	0.9409809
165	0x3f74ad71	0.9557715
166	0x3f62ca03	0.88589495
167	0x3f6bb88e	0.92078483
168	0x3f6c8a85	0.92398864
169	0x3f5d195b	0.86366814
170	0x3f6e02a9	0.9297281
171	0x3f71a8c9	0.9439817
172	0x3f800000	1.0
173	0x3f800000	1.0
174	0x3f800000	1.0
175	0x3f800000	1.0
176	0x3f800000	1.0
177	0x3f800000	1.0
178	0x3f800000	1.0
179	0x3f800000	1.0
180	0x3f800000	1.0
181	0x3f800000	1.0
182	0x3f800000	1.0
183	0x3f800000	1.0
184	0x3f800000	1.0
185	0x3f800000	1.0
186	0x3f800000	1.0
187	0x3f800000	1.0
188	0x3f800000	1.0
189	0x3f800000	1.0
190	0x3f800000	1.0
191	0x3f800000	1.0
192	0x3f800000	1.0
193	0x3f800000	1.0
194	0x3f800000	1.0
195	0x3f800000	1.0
196	0x3f800000	1.0
197	0x3f800000	1.0
198	0x3f800000	1.0
199	0x3f800000	1.0
200	0x3f800000	1.0
201	0x3f800000	1.0
202	0x3f800000	1.0
203	0x3f800000	1.0
204	0x3f800000	1.0
205	0x3f800000	1.0
206	0x3f800000	1.0
207	0x3f800000	1.0
208	0x3f800000	1.0
209	0x3f800000	1.0
210	0x3f800000	1.0
211	0x3f800000	1.0
212	0x3f800000	1.0
213	0x3f800000	1.0
214	0x3f800000	1.0
215	0x3f800000	1.0
216	0x3f800000	1.0
217	0x3f800000	1.0
218	0x3f800000	1.0
219	0x3f800000	1.0
220	0x3f800000	1.0
221	0x3f800000	1.0
222	0x3f800000	1.0
223	0x3f800000	1.0
224	0x3f800000	1.0
225	0x3f800000	1.0
226	0x3f800000	1.0
227	0x3f800000	1.0
228	0x3f800000	1.0
229	0x3f800000	1.0
230	0x3f800000	1.0
231	0x3f800000	1.0
232	0x3f800000	1.0
233	0x3f800000	1.0
234	0x3f800000	1.0
235	0x3f800000	1.0
236	0x3f800000	1.0
237	0x3f800000	1.0
238	0x3f800000	1.0
239	0x3f800000	1.0
240	0x3f800000	1.0
241	0x3f800000	1.0
242	0x3f800000	1.0
243	0x3f800000	1.0
244	0x3f800000	1.0
245	0x3f800000	1.0
246	0x3f800000	1.0
247	0x3f800000	1.0
248	0x3f800000	1.0
249	0x3f800000	1.0
250	0x3f800000	1.0
251	0x3f800000	1.0
252	0x3f800000	1.0
253	0x3f800000	1.0
254	0x3f800000	1.0
255	0x3f800000	1.0

model/hidden/mid_layer/W f4 [256, 256]
0	0x3d3d38f6	0.0461969
1	0xbd481470	-0.048847616
2	0xbe2d20ee	-0.16907093
3	0x3c207bae	0.009795113
4	0x3cd34f0f	0.025794534
5	0xbd9732c5	-0.073827304
6	0x3c5dee11	0.013545529
7	0xbc8294de	-0.015940126
8	0xbd9249ba	-0.071429685
9	0xbd9e25f4	-0.07722083
10	0xbcafd0bd	-0.021461839
11	0xbdb1bb61	-0.08678318
12	0xbc7cf65f	-0.015439599
13	0xbae1d56a	-0.001722974
14	0xbb3e6594	-0.0029052244
15	0xbd0102b3	-0.031496715
16	0xbda8f53a	-0.08249898
17	0xbd675dd6	-0.056485973
18	0x3cd7031c	0.0262466
19	0x3d5e00c2	0.05419994
20	0xbca4d296	-0.020119946
21	0xbd4c29a1	-0.049844388
22	0xbdadb012	-0.08480848
23	0x3d3f058d	0.046636153
24	0xbd7d08e8	-0.06177607
25	0xbd7a6c39	-0.061138365
26	0xbdbe9b7c	-0.09307
27	0xbd80692a	-0.062700585
28	0xbd2aca76	-0.041696988
29	0x3d982494	0.07428852
30	0xbd791f66	-0.06082096
31	0x3d247b9a	0.040156938
32	0x3cb299e5	0.021801898
33	0x3d19eee1	0.03758133
34	0x3b159886	0.0022826507
35	0x3ce5a9dc	0.028035097
36	0x3b3a017c	0.0028382232
37	0x3d65a233	0.05606289
38	0xbc67a67e	-0.014138816
39	0x3da40116	0.080080196
40	0x3da23ff8	0.07922357
41	0xbce9800b	-0.028503438
42	0xbe15e888	-0.14639485
43	0xbdaa9d58	-0.08330792
44	0x3bdba4d1	0.0067029973
45	0x3ddd7949	0.10814149
46	0x3cc0a368	0.023515418
47	0xbd0af0e0	-0.033921123
48	0x3e03b10f	0.12860511
49	0x3da99e0c	0.08282098
50	0xbda12b55	-0.07869593
51	0x3d16dc5b	0.03683124
52	0x3d10bc61	0.035335902
53	0x3cf05be5	0.029340694
54	0x3baf8e96	0.0053575737
55	0xbd583cdb	-0.05279241
56	0x3e081533	0.13289337
57	0x3cc5e51c	0.0241571
58	0xbd77923b	-0.06044219
59	0xbc2f8a3c	-0.01071411
60	0x3d062e64	0.032759085
61	0xbc8f2f24	-0.017478533
62	0x3e4e656c	0.20155877
63	0xbc33726c	-0.010952573
64	0x3e11cf5f	0.14239262
65	0x3d73f26e	0.05955737
66	0xbdb242df	-0.08704161
67	0xbc441af7	-0.01196932
68	0x3d52448f	0.051334914
69	0x3c8dae5f	0.01729506
70	0x3c663475	0.014050593
71	0xbe320c24	-0.17387444
72	0x3c65221b	0.013985182
73	0xbd27ed2e	-0.040997677
74	0xbd965030	-0.07339513
75	0x3de33142	0.110933796
76	0x3c34cb08	0.011034735
77	0xbd00fb72	-0.031489797
78	0x3cc3bb8b	0.023893138
79	0x3df75cfd	0.12078283
80	0x3c77aa8d	0.015116346
81	0xbcd8355c	-0.026392631
82	0xbd475dd8	-0.04867348
83	0x3d6f8b21	0.058482293
84	0xbc0a1199	-0.008427047
85	0x3be54847	0.0069971415
86	0xbdddd0ce	-0.10830842
87	0x3caa8db9	0.020819532
88	0xbd8a91ae	-0.067660674
89	0xbca68b5c	-0.020330124
90	0x3db2ed91	0.087367184
91	0xbcde4264	-0.027131267
92	0xbb3c228d	-0.0028707117
93	0x3d11ef45	0.035628576
94	0xbd0f6f11	-0.03501803
95	0xbd82afa3	-0.06381156
96	0x3929a70e	0.00016179329
97	0xbe14c70d	-0.14529057
98	0xbd208916	-0.039193235
99	0xbd78cfd8	-0.06074509
100	0x3d048c1c	0.03236018
101	0xbd2005dc	-0.039068088
102	0x3d0d44e8	0.034489542
103	0x38cd3a61	9.786036e-05
104	0x3d2fdc0a	0.042934455
105	0x3d778882	0.06043292
106	0x3d11c651	0.03558952
107	0xbd54cb3e	-0.05195164
108	0x3ddcc762	0.10780217
109	0x3dd40ca1	0.10353971
110	0xbcd78c46	-0.026312005
111	0x3c4c53df	0.012471168
112	0xbd75c8a5	-0.060005803
113	0xbd213039	-0.03935263
114	0xbd0b9b23	-0.034083497
115	0xbcf6d474	-0.030130602
116	0xbd7ee042	-0.062225588
117	0x3dc32db3	0.09530201
118	0xbd01fe44	-0.031736627
119	0x3d7943ef	0.060855802
120	0x3b68436d	0.003544058
121	0x3ccfdaf7	0.025372965
122	0xbb72a008	-0.0037021656
123	0xbc060e89	-0.008182176
124	0xbd191fd3	-0.037383866
125	0x3d6d9dab	0.058011692
126	0xbd35413c	-0.044251665
127	0xbd892a7e	-0.06697558
128	0x3d436dfd	0.047712315
129	0x3d369840	0.04457879
130	0x3cb86da9	0.022513228
131	0x3c801058	0.015632793
132	0xbc9680a2	-0.018371884
133	0x3ccf7403	0.025323873
134	0xbd670e30	-0.056410015
135	0xbaa33d41	-0.0012454168
136	0xbc6c49d5	-0.0144219
137	0x3d05f93c	0.03270839
138	0x3d1c4048	0.03814724
139	0xbdb7ea93	-0.08980288
140	0x3d00bd73	0.031430673
141	0x3d37a58a	0.044835605
142	0xbd663f13	-0.056212496
143	0xbcdec27d	-0.027192349
144	0xbca5783c	-0.020198934
145	0x3b0b0874	0.0021214755
146	0x3cd7ec38	0.026357755
147	0xbd09c764	-0.03363742
148	0xbbe933a0	-0.00711675
149	0x3d602aa0	0.05472815
150	0xbd65632f	-0.056002792
151	0x3c19e07a	0.009391898
152	0xbdd3f08c	-0.10348615
153	0x3cdc4510	0.0268884
154	0x3c6c49fb	0.014421935
155	0xbc0261d8	-0.007957898
156	0xbd0ff581	-0.03514624
157	0xbc2a1d49	-0.010382959
158	0xbcb933fd	-0.022607798
159	0x3d20af33	0.039229583
160	0x3c10feb4	0.008849788
161	0xbde51dea	-0.11187346
162	0x3c88c81c	0.016696982
163	0xbb357983	-0.0027690835
164	0x3d4a2ddd	0.049360145
165	0xbd64fb20	-0.055903554
166	0xbd7b47a9	-0.061347637
167	0xbdbe6a4b	-0.092976175
168	0x3ce18bef	0.027532546
169	0x3d542ca1	0.051800374
170	0xbd80937d	-0.06278131
171	0x3d981643	0.07426121
172	0x3ddc9f5b	0.10772582
173	0x3ce4dd17	0.027937455
174	0xbb42046a	-0.0029604682
175	0x3cffa7a9	0.031207876
176	0x3cdba523	0.026812142
177	0xbd453f23	-0.048155915
178	0xbd48bc0a	-0.049007453
179	0xbd302e35	-0.043012816
180	0xbddc07da	-0.10743685
181	0xbddd4d7b	-0.10805794
182	0xbce644c9	-0.028108971
183	0x3c5b3458	0.013379179
184	0x3d9e61c4	0.07733491
185	0xbdcdf8ed	-0.100572444
186	0x3d3a25be	0.04544615
187	0x3dd76a38	0.105183065
188	0x3d6ce7e7	0.057838347
189	0x3d395859	0.04525027
190	0x3d1d58d5	0.038414795
191	0x3d443a81	0.047907356
192	0x3d0abc81	0.033871178
193	0x3cc800d2	0.024414454
194	0x3c30ae94	0.01078381
195	0x3cc725c7	0.024310006
196	0xbdc4a051	-0.096008904
197	0xbd983323	-0.074316286
198	0x3c3953eb	0.0113115115
199	0xbc0aa980	-0.0084632635
200	0x3abdc517	0.0014478293
201	0xbdcf1c6a	-0.101128414
202	0x3c72de05	0.014823441
203	0xbcb6dbe0	-0.022321641
204	0x3d2cfb5e	0.04223191
205	0xbc4959da	-0.012289489
206	0x3c94b5ba	0.01815306
207	0x3d1a4677	0.037664857
208	0xbcb43278	-0.021996722
209	0xbdcbec09	-0.099571295
210	0xbde8d310	-0.11368382
211	0x3c8e7fb7	0.017394884
212	0xbd9ae522	-0.07563235
213	0xbde1beb0	-0.11022699
214	0x3ca316d2	0.019908343
215	0x3db587c0	0.08863783
216	0xbc524d95	-0.01283588
217	0x3e12de71	0.14342667
218	0xbd6e0f16	-0.058119856
219	0xba4837a9	-0.00076376885
220	0xbd1b89df	-0.03797328
221	0x3d2d3fd2	0.042297192
222	0x3c499baf	0.012305184
223	0xbc6bc779	-0.01439082
224	0xbc19e92c	-0.009393971
225	0xbd28a581	-0.04117346
226	0x3dc76103	0.097353004
227	0xbd789947	-0.06069305
228	0x3ccc3db4	0.024931766
229	0x3cd192be	0.025582667
230	0xbdcfd426	-0.10147886
231	0xbd7ebd8f	-0.062192496
232	0xbd8a2e1c	-0.06747076
233	0xbcb6a57e	-0.02229571
234	0x3d9026c0	0.07038641
235	0x3d3ec341	0.046572927
236	0xbdb4c81d	-0.08827231
237	0xbd346c2a	-0.044048466
238	0xbc24b768	-0.010053493
239	0x3d52c5c3	0.05145813
240	0x3de8a8ea	0.11360343
241	0xbd388c54	-0.045055702
242	0x3d725f51	0.059172932
243	0xbd79a1f5	-0.06094547
244	0xbd39c08f	-0.045349654
245	0xbcd3bece	-0.025847819
246	0x3c86843c	0.016420476
247	0x3cd1863a	0.0255767
248	0x3d072b1b	0.033000093
249	0xbd7f685b	-0.06235538
250	0x3dd35e9a	0.10320778
251	0xbc3751ad	-0.011188907
252	0xbdbe2d9f	-0.09286045
253	0xbceb0613	-0.02868942
254	0x3cde065e	0.027102645
255	0x3d7baf18	0.06144628

model/a_stream/b f4 [3]
0	0xba729b79	-0.00092547346
1	0x3b6ef5f7	0.0036462524
2	0xba80b34e	-0.0009819062

model/hidden/mid_rec_layer/upward/b f4 [80]
0	0xbd3445a1	-0.044011716
1	0xbe2c4d74	-0.16826421
2	0x3f800000	1.0
3	0xbe3f5f75	-0.18688758
4	0xbd4d1d55	-0.0500768
5	0xbe1d7a41	-0.15378667
6	0x3f800000	1.0
7	0xbe3b8e41	-0.18315984
8	0x3dad7cfb	0.08471104
9	0x3e00e216	0.12586245
10	0x3f800000	1.0
11	0x3e17b853	0.14816408
12	0x3da05abb	0.078298055
13	0x3e000648	0.12502396
14	0x3f800000	1.0
15	0x3e19ec5a	0.15031567
16	0x3df21965	0.1182125
17	0x3e1d1aa2	0.15342191
18	0x3f800000	1.0
19	0x3e3528bc	0.1769132
20	0xbd85c01e	-0.06530784
21	0xbe44d90c	-0.19223422
22	0x3f800000	1.0
23	0xbe6a1346	-0.22858915
24	0x3dbe5468	0.09293443
25	0x3e0b3d57	0.13597618
26	0x3f800000	1.0
27	0x3e2517a7	0.16122304
28	0x3d2107e0	0.03931415
29	0x3dcb4417	0.099250965
30	0x3f800000	1.0
31	0x3e04054c	0.12892646
32	0x3da7208d	0.081605054
33	0x3df203b4	0.118171126
34	0x3f800000	1.0
35	0x3e0d66bb	0.1380872
36	0xbdaf29d0	-0.08552897
37	0xbe2af081	-0.16693307
38	0x3f800000	1.0
39	0xbe5a4299	-0.21314467
40	0xbdecf9ce	-0.11571084
41	0xbe47b005	-0.1950074
42	0x3f800000	1.0
43	0xbe82a5c3	-0.2551709
44	0xbd9f3c20	-0.0777514
45	0xbe712bb0	-0.23551822
46	0x3f800000	1.0
47	0xbe838193	-0.25684795
48	0x3da09a2f	0.07841908
49	0x3e113d00	0.14183426
50	0x3f800000	1.0
51	0x3e2a09ba	0.16605273
52	0x3d8d180e	0.06889354
53	0x3e0e386c	0.1388871
54	0x3f800000	1.0
55	0x3e2bad24	0.16765267
56	0xbd0817c4	-0.03322579
57	0xbdc8adc9	-0.09798772
58	0x3f800000	1.0
59	0xbdc54840	-0.09632921
60	0x3c3f6670	0.011682138
61	0x3c8436ff	0.016139505
62	0x3f800000	1.0
63	0x3cdacd3e	0.026709195
64	0xbd7a38c0	-0.061089277
65	0xbe5e50cb	-0.21710508
66	0x3f800000	1.0
67	0xbe8701f9	-0.26368693
68	0xba7b5893	-0.0009588089
69	0xbb40f491	-0.0029442648
70	0x3f800000	1.0
71	0x3c3a86ff	0.011384725
72	0x3dbb50d0	0.09146273
73	0x3e16731f	0.14692353
74	0x3f800000	1.0
75	0x3e328b47	0.17435943
76	0xbc685775	-0.014181008
77	0xbd1b0cdb	-0.037854057
78	0x3f800000	1.0
79	0xbd034ead	-0.032057453

model/hidden/input_layer/W f4 [256, 86]
0	0xbd300265	-0.042971034
1	0x3cc944ae	0.024568882
2	0xbd8defbe	-0.06930493
3	0xbcbdee8f	-0.023185043
4	0xbbae35cf	-0.005316473
5	0xbd04edc0	-0.0324533
6	0xbc46411d	-0.012100485
7	0xbdd2c96a	-0.10292323
8	0x3cadadc5	0.021201024
9	0x3e58b0da	0.21161214
10	0x3d9aae20	0.07552743
11	0xbe3e9db2	-0.18614843
12	0x3ca34abb	0.019933095
13	0xbb7762d6	-0.003774812
14	0xbb380f21	-0.002808519
15	0xbd84ae34	-0.06478539
16	0x3d0f9a47	0.03505924
17	0xbd23f2cb	-0.040026467
18	0x3c7be7e7	0.015375114
19	0x3d147f3b	0.03625415
20	0x3d0be7dd	0.03415667
21	0x3d98bcd2	0.074578896
22	0x3d7d634e	0.061862282
23	0x3e121dca	0.14269176
24	0x3dbb7810	0.091537595
25	0xbb89552b	-0.004191061
26	0xbd63e71f	-0.055640336
27	0x3db3fe95	0.08788792
28	0x3d2cdd1f	0.042203065
29	0xbc075ef3	-0.008262384
30	0x3def8c41	0.11696673
31	0x3c41e65b	0.011834706
32	0x3dbc9744	0.09208539
33	0xbcd10ab9	-0.025517808
34	0x3e15eedc	0.14641899
35	0xbbd38d32	-0.006456041
36	0x3ddc0abf	0.10744237
37	0xbcb8cfde	-0.022560056
38	0x3d04d7cc	0.032432362
39	0x3d24aa24	0.04020132
40	0x3e0e2ee0	0.13885069
41	0xbc121304	-0.0089156665
42	0xbdd47054	-0.103729874
43	0xbda76732	-0.0817398
44	0xbde36312	-0.111028805
45	0xbdfbb79c	-0.1229088
46	0x3d81ee28	0.06344253
47	0xbc0c44d7	-0.008561335
48	0xbce7ebe8	-0.028310731
49	0xbd248eb5	-0.04017516
50	0x3d4b90c4	0.049698606
51	0x3c85f710	0.01635316
52	0xbd80f520	-0.06296754
53	0xbd5ced3a	-0.053937174
54	0xbd40740d	-0.046985675
55	0xbdf98a78	-0.12184614
56	0xbdcc3a12	-0.099720135
57	0xbd2fa6dd	-0.042883743
58	0x3e285a98	0.16440809
59	0x3d399f7e	0.04531812
60	0xbca46f8c	-0.020072721
61	0xbe492518	-0.19643056
62	0x3e2a4b80	0.16630363
63	0x3d19687a	0.037453152
64	0x3bdce61c	0.0067412984
65	0xbd8b082f	-0.0678867
66	0x3e223cb2	0.15843466
67	0xbd70a6e3	-0.058752906
68	0xbe5153dd	-0.20442148
69	0x3e46acc7	0.19401847
70	0x3e8d3cd3	0.27585468
71	0xbe61a422	-0.22035268
72	0xbcbe3832	-0.023220155
73	0xbe27dc2b	-0.16392581
74	0xbb4ff79a	-0.0031733275
75	0xbd84aa72	-0.06477822
76	0xbe4efe33	-0.20214157
77	0x3d96e51a	0.073679164
78	0xbe48da68	-0.19614565
79	0x3e4a6ce7	0.19768105
80	0x3bcde3cc	0.006283259
81	0x3e507aa1	0.20359279
82	0x3e37a3c6	0.17933568
83	0x3bdb4cd6	0.006692509
84	0x3dd6ea6b	0.104939304
85	0x3d37e6b6	0.044897757
86	0xbb0a319c	-0.0021086698
87	0x3c1299e0	0.0089478195
88	0xbe073f31	-0.132077
89	0xbd752247	-0.059847143
90	0xbdf42d45	-0.11922697
91	0xbda635e2	-0.08115746
92	0x3cf33f7f	0.029693363
93	0xbe5e86e9	-0.21731152
94	0x3ecf25dc	0.40458572
95	0xbe04bbf2	-0.1296232
96	0xbde7486b	-0.112931095
97	0x3e09a605	0.13442238
98	0x3d7704ef	0.06030744
99	0x3e2580e0	0.16162443
100	0xbdcdc48d	-0.10047255
101	0x3b4a6770	0.0030884407
102	0x3e07e188	0.13269627
103	0xbd385539	-0.04500315
104	0xbd8557cf	-0.06510889
105	0xbd3403e3	-0.04394902
106	0x3e49215b	0.1964163
107	0x3c9e9eb1	0.01936278
108	0x3db0126d	0.085972644
109	0x3e08972e	0.1333892
110	0xbe049a99	-0.129496
111	0xbc83494e	-0.016026165
112	0xbb4031c0	-0.0029326528
113	0xbdddf6ad	-0.10838065
114	0x3dd14071	0.10217369
115	0x3dac7de8	0.08422452
116	0xbd98c4c6	-0.074594066
117	0xbd90d97b	-0.07072731
118	0xbdb53468	-0.08847886
119	0x3d7165b1	0.05893487
120	0xbdf92ee5	-0.121671475
121	0xbe6981a8	-0.22803366
122	0x3e161b55	0.14658864
123	0x3e1e7a40	0.15476322
124	0xbe30c080	-0.17260933
125	0x3d1e2d97	0.038617697
126	0xbd498aaf	-0.049204525
127	0xbd4cdcf2	-0.050015397
128	0x3c1af288	0.009457238
129	0xbdec3c8e	-0.115349874
130	0x3ac1c858	0.0014784439
131	0xbd4333cc	-0.04765682
132	0xbda59180	-0.080843925
133	0x3eab82b5	0.3349816
134	0xbd3f84e6	-0.0467576
135	0x3ddaefa4	0.10690239
136	0x3c5ba57e	0.013406156
137	0x3dddbdd6	0.10827224
138	0xbe1c2c71	-0.15251328
139	0xbca5cc16	-0.020238917
140	0xbc6847a9	-0.014177241
141	0x3d4437a7	0.047904637
142	0xbe742957	-0.23843895
143	0xbd8a16e2	-0.06742646
144	0x3d8e5782	0.069502845
145	0x3e110cd3	0.14165048
146	0x3e05b4a4	0.1305719
147	0xbe9491bb	-0.29017434
148	0x3e45c165	0.19312055
149	0x3c5ac5e7	0.013352848
150	0x3d5043a2	0.05084575
151	0xbd2c0815	-0.041999895
152	0x3e18d28e	0.1492407
153	0x3c2b5038	0.010456137
154	0x3de422e1	0.11139465
155	0x3d6b45ed	0.057439733
156	0xbda801b5	-0.082034506
157	0xbe05f942	-0.13083366
158	0x3cb332d4	0.021874823
159	0xbc55baac	-0.013044994
160	0x3ba4c669	0.005028535
161	0xbdae77b4	-0.08518925
162	0xbd17f6ee	-0.037100725
163	0x3e35a13e	0.1773729
164	0xbdd88c06	-0.10573582
165	0x3ca9b423	0.020715779
166	0xbd89017f	-0.066897385
167	0x3e82b48d	0.25528374
168	0xbc32196b	-0.010870318
169	0xbca07ce9	-0.019590812
170	0xbd14fb85	-0.03637268
171	0xbd890ac0	-0.066915035
172	0xbb52ff2d	-0.0032195554
173	0x3e4d2c3d	0.20036407
174	0x3d94f347	0.07272964
175	0xbd644fc3	-0.05574013
176	0x3e3e14d0	0.18562627
177	0x3d4110b6	0.047135077
178	0xbe0f3563	-0.13985209
179	0x3d977c2a	0.07396729
180	0xbd8ae582	-0.067820564
181	0xbba566cb	-0.0050476543
182	0xbe6b4f93	-0.22979574
183	0xbbfe2416	-0.0077557666
184	0xbe02c117	-0.1276897
185	0x3d37ef9b	0.04490624
186	0xbe135267	-0.14386903
187	0xbd3e2ac4	-0.046427503
188	0xbd94f8bd	-0.072740056
189	0x3d993427	0.074806504
190	0xbe5ee1e4	-0.21765858
191	0xbe616eb5	-0.22014888
192	0x3ddd4cc8	0.108056605
193	0x3df6b831	0.120468505
194	0xbd617bcd	-0.055049706
195	0xbcffe031	-0.031234832
196	0x3e7afe9d	0.2451119
197	0xbd1aa924	-0.03775896
198	0x3dbdd3b6	0.09268896
199	0x3da05dc5	0.07830385
200	0x3e6e7bf7	0.23289476
201	0x3d2be006	0.041961692
202	0xbe572217	-0.21009098
203	0xbda68996	-0.08131711
204	0xbd234a82	-0.039865978
205	0xbdc290df	-0.09500288
206	0xbd043cf1	-0.03228468
207	0xbd925122	-0.07144381
208	0x3e47a0d3	0.19494943
209	0x3ce88fc7	0.02838887
210	0xbcb0f867	-0.021602822
211	0x3ddd46ec	0.10804543
212	0x3dff87e3	0.1247709
213	0xbde31c68	-0.110894024
214	0xbe325bb2	-0.17417791
215	0x3c2ea325	0.010659014
216	0x3dec2573	0.1153058
217	0xbdfc86d2	-0.123304024
218	0xbe6d796d	-0.23190852
219	0x3bb155f2	0.005411857
220	0x3c6ffc70	0.014647588
221	0x3d23fefc	0.040038094
222	0x3cc7b232	0.024376962
223	0x3def5a1d	0.116871096
224	0xbd3a1800	-0.045433044
225	0xbdf00f7d	-0.11721704
226	0x3d9fc346	0.07800917
227	0xbcf1f1a7	-0.029534174
228	0x3d99a1ed	0.07501588
229	0xbe03c653	-0.12868623
230	0xbd3a2229	-0.045442734
231	0xbd7718c9	-0.06032637
232	0xbd9a7762	-0.07542302
233	0xbe43cf87	-0.19122134
234	0xbdaa215d	-0.08307145
235	0x3dbaa791	0.09113992
236	0x3d238b1f	0.039927598
237	0x3c9753e6	0.018472623
238	0x3951bf31	0.00020003018
239	0xbd565057	-0.05232271
240	0xbcd23671	-0.025660725
241	0x3d0e4ba3	0.0347401
242	0xbd497938	-0.04918787
243	0xbc86fe5a	-0.016478706
244	0xbe01fde2	-0.12694505
245	0x3c281d8b	0.01026095
246	0xbde12595	-0.10993496
247	0x3e09b722	0.13448766
248	0xbd8332c8	-0.0640617
249	0xbd56e76b	-0.05246679
250	0x3cc4e122	0.024033133
251	0xbd56d4a8	-0.0524489
252	0x3dca4689	0.09876735
253	0x3dd61c15	0.10454575
254	0xbdc2e23b	-0.09515806
255	0x3da6af12	0.08138861

model/v_stream/W f4 [1, 256]
0	0xbcc65bb0	-0.024213642
1	0xbb999e61	-0.0046880697
2	0xba93a1b7	-0.0011263405
3	0x3c2ca00b	0.010536204
4	0x3be1f537	0.006895687
5	0x3dc89ebc	0.09795901
6	0xbd8a408e	-0.06750594
7	0x3d3c42d3	0.045962166
8	0x3b73dfc6	0.0037212237
9	0xbb6d9bf6	-0.003625629
10	0xbb9aa4d1	-0.0047193547
11	0x3c2f1a23	0.010687384
12	0x3d89dc8d	0.0673152
13	0xbbbc07b7	-0.0057382244
14	0xbc99bc71	-0.018766614
15	0x3d99ccf7	0.07509797
16	0x3b490eee	0.0030679065
17	0xbbcd425b	-0.0062640137
18	0x3d4eeeb3	0.05052061
19	0xbd52d93e	-0.05147671
20	0x3ced4074	0.028961398
21	0x3c90948c	0.017648958
22	0xbd08717f	-0.033311363
23	0x3da7f4ef	0.08201014
24	0x3c942d92	0.018088136
25	0xbc1ddd28	-0.009635247
26	0x3cb10542	0.021608952
27	0xbd0b9c9b	-0.034084897
28	0xbba8c4b0	-0.0051504
29	0xbd8d676b	-0.06904491
30	0xbcba7895	-0.022762576
31	0x3cbf8340	0.023378015
32	0xbd32e501	-0.043675426
33	0x3c4a758f	0.01235713
34	0x3ab30ac5	0.0013659826
35	0x3e3ec85a	0.18631116
36	0xbc1eae50	-0.009685114
37	0xbbeb71d6	-0.007185201
38	0x3ba0eaeb	0.004910817
39	0x3bdf93d4	0.0068230424
40	0xbdd7b038	-0.10531658
41	0x3c844b57	0.016149206
42	0xbb459bad	-0.0030152604
43	0x3d0d89c6	0.03455522
44	0xbd18cfc6	-0.037307523
45	0xbd60cc5d	-0.054882396
46	0x3c3d9327	0.011570728
47	0xbc3e862d	-0.01162867
48	0x3d404a34	0.046945766
49	0x3c342214	0.010994453
50	0xbb783953	-0.0037875965
51	0xbb10eafc	-0.0022112718
52	0xbc81112b	-0.015755257
53	0x3aa69d3c	0.0012711654
54	0x3d09c921	0.033639077
55	0xba94cb5a	-0.0011352107
56	0xbcc39908	-0.023876682
57	0xbc0c271d	-0.008554247
58	0x3bae5a8c	0.0053208526
59	0xbc54669e	-0.012963919
60	0x3aa5e068	0.0012655379
61	0xbb89eb66	-0.00420897
62	0x3c60e8bd	0.013727364
63	0x3b70f746	0.003676848
64	0xbc9cfea6	-0.019164395
65	0x3c54f44e	0.0129977
66	0x3b10ddb0	0.0022104792
67	0xbd6bc739	-0.05756304
68	0xbbc97758	-0.00614826
69	0x3d767884	0.060173526
70	0x3d1b1d65	0.03786983
71	0x3be44175	0.006965811
72	0xbcdf85f1	-0.027285548
73	0xbcd95aba	-0.02653252
74	0x3d29cfbf	0.041457888
75	0x3b13ec69	0.0022571331
76	0xbc1484aa	-0.009064833
77	0x3bc6bdea	0.00606512
78	0xbae520f4	-0.0017481134
79	0x3dc447d1	0.095840104
80	0xbd8b23d2	-0.067939416
81	0xbc3b5dee	-0.011435969
82	0xbb6d8585	-0.0036242914
83	0xbe068b80	-0.13139153
84	0xbd72532f	-0.05916136
85	0xbd10b328	-0.035327107
86	0xbcac9cbe	-0.021070834
87	0x3b2fb6e2	0.0026811888
88	0xbd8d9d48	-0.06914765
89	0x3bf0d2a8	0.007349331
90	0xbc0f22a2	-0.008736284
91	0xbd16705e	-0.036728255
92	0x3ca1c7bd	0.019748563
93	0x3b5a4b61	0.003330909
94	0xbd3f4f0a	-0.046706237
95	0xbb8b9bfd	-0.0042605386
96	0x3cef18cd	0.02918663
97	0xbd163f0b	-0.036681216
98	0xbcae0729	-0.021243649
99	0x3c385fd1	0.011253313
100	0x3e02ea06	0.12784585
101	0xbc89e4c9	-0.016832726
102	0xbd85baaa	-0.06529744
103	0x3b9fa3da	0.0048718276
104	0x3ae96488	0.001780645
105	0x3cc133e9	0.023584323
106	0xbbcb185f	-0.0061979736
107	0xbbd5c17e	-0.00652331
108	0x3cf8d001	0.030372621
109	0xbda62549	-0.0811258
110	0x3c8f8723	0.017520493
111	0x3a5f7089	0.0008523544
112	0xbaf2e8d7	-0.0018532526
113	0xbba542f7	-0.005043383
114	0xba5886cb	-0.0008259832
115	0xbc358065	-0.011077975
116	0xbbaeeaff	-0.0053380723
117	0xbb055f06	-0.0020350828
118	0x3c212ed6	0.009837827
119	0x3d81da53	0.0634047
120	0x3c4e444a	0.012589524
121	0x3be4c45d	0.006981416
122	0xbd318179	-0.043336365
123	0x39c5f4d4	0.0003775718
124	0x3d85fefe	0.065427765
125	0x3c5d4275	0.013504614
126	0xbbba7818	-0.005690586
127	0xba797f8c	-0.0009517602
128	0xbcc95116	-0.024574798
129	0x3b94f5c6	0.0045459
130	0xbd0c3b18	-0.034236044
131	0x3decc4f7	0.115610056
132	0x3d731a86	0.059351467
133	0xbcd14fda	-0.025550772
134	0xbcaacf7a	-0.020850886
135	0x3bb0638a	0.0053829597
136	0x3d257224	0.040392056
137	0xbd9af1ef	-0.075656764
138	0xbd30ed61	-0.043195132
139	0x3c24074f	0.010011508
140	0xbb8f9a5a	-0.004382414
141	0xbc3cdff4	-0.011528004
142	0xbad6daf4	-0.0016392157
143	0xbbda0ee2	-0.006654606
144	0xbc467720	-0.012113363
145	0xbd8df33f	-0.06931161
146	0x3d21366d	0.039358545
147	0xbbb0850a	-0.0053869532
148	0xbd82d282	-0.063878074
149	0xbd21c516	-0.039494596
150	0x3cac8fbe	0.021064635
151	0xbbe0f901	-0.006865621
152	0x3d06ff3d	0.032958258
153	0xbcb50669	-0.022097783
154	0xbc85c527	-0.016329361
155	0x3b15bda0	0.002284862
156	0x3d7caec0	0.061690092
157	0xbd5774a0	-0.052601457
158	0xbcda90ba	-0.02668034
159	0x3cda9aed	0.026685202
160	0xbdb59d0c	-0.08867845
161	0x3bf4f25a	0.0074751796
162	0xbcb488f7	-0.022037966
163	0xbaa389ca	-0.0012476977
164	0x3d303686	0.043020748
165	0x3cf8b90c	0.030361675
166	0xbce89a0b	-0.028393766
167	0xb8af6ee6	-8.365307e-05
168	0x3a88ffcf	0.0010452213
169	0xbb5e77c7	-0.0033945905
170	0x3c312d46	0.010814017
171	0xbd5827b4	-0.05277224
172	0x3baae59e	0.005215361
173	0xbd74d0fc	-0.059769616
174	0xbc0cee74	-0.0086017735
175	0xbd381481	-0.04494143
176	0x3d7a0b05	0.061045665
177	0x3d643705	0.055716533
178	0x3bdb885b	0.0066996044
179	0xbced8f25	-0.02899892
180	0xbc843f9e	-0.016143616
181	0xbc6ad758	-0.0143335685
182	0x3acd88c2	0.0015681016
183	0x3da0192e	0.07817303
184	0xbcf7d8a3	-0.030254668
185	0xb9bc1e68	-0.0003588081
186	0xbc15cba2	-0.009142788
187	0x3d953e72	0.07287301
188	0xbbfdb3b2	-0.0077423686
189	0xbc88f54a	-0.016718525
190	0xbaec75df	-0.0018040499
191	0x3d896613	0.06708922
192	0x3c8f79c1	0.017514111
193	0x3d6c9e27	0.057768013
194	0xbb1b827f	-0.0023728905
195	0xbe027289	-0.12739004
196	0xbba95eb8	-0.005168762
197	0xbc9c0fff	-0.019050596
198	0xbcb2ca5c	-0.021825008
199	0xbdd23ca8	-0.102654755
200	0xbb3bdd4e	-0.0028665843
201	0x3ad6343f	0.0016342475
202	0x3d292486	0.041294597
203	0x3baf0106	0.005340698
204	0x3cf715c0	0.030161738
205	0x3cebeb95	0.028798858
206	0xbca3c335	-0.019990543
207	0xbc5e2bd7	-0.013560257
208	0x3c8b2534	0.016985513
209	0xbc0013f8	-0.007817261
210	0xbd2a2031	-0.041534606
211	0x3daf857e	0.085703835
212	0xbda61e94	-0.08111301
213	0x3d819308	0.06326872
214	0xbd9792eb	-0.07401069
215	0xbd570a80	-0.052500248
216	0x3d42390a	0.047417678
217	0xbc19f5da	-0.0093969945
218	0xbdc57bc1	-0.09642745
219	0xbc83f0e3	-0.016106075
220	0xbc97f133	-0.01854763
221	0x3d144e11	0.036207262
222	0x3cd73b8f	0.026273517
223	0x3bd8691a	0.006604326
224	0x3d138624	0.0360166
225	0xbae582db	-0.0017510311
226	0x3c15ab02	0.00913501
227	0x3cc39579	0.023874985
228	0xbbbe8ee1	-0.0058153723
229	0xb9edde79	-0.00045369918
230	0x3c88893e	0.016667005
231	0xbc86fb50	-0.016477257
232	0xba9ba361	-0.0011874252
233	0xbdb4fc0c	-0.088371366
234	0xbb4f05b3	-0.003158909
235	0x3b8baa70	0.004262261
236	0x3dd3c4da	0.10340281
237	0xbbcd2a95	-0.0062611797
238	0x3bbd0eb5	0.0057695755
239	0x3a3f5c9b	0.0007299871
240	0xba88d741	-0.0010440127
241	0x3d2196e9	0.03945056
242	0xbc07b93b	-0.0082839085
243	0xbca79a3f	-0.020459292
244	0x3de2b919	0.11070461
245	0x3c7b0bf5	0.015322675
246	0xbd646327	-0.05575862
247	0x3d28569d	0.041098226
248	0xbd15145c	-0.03639637
249	0xbd268cc7	-0.0406616
250	0x3cd7f6b9	0.026362764
251	0x3be7ce9a	0.0070741894
252	0xbdb05261	-0.086094625
253	0x3c82b758	0.015956566
254	0xbd2555d2	-0.040365048
255	0xbb52ade6	-0.0032147109
