ai_challenge/results/simulation_DoubleDQN_DuelingRecNN_2017-05-20T11:17:03.15/80013/target_model.npz (npz, 611191 bytes, 12 tensors)

model/hidden/input_layer/b f4 [256]
00000000: 319b 2b3c 617b d6bc 2e2f 0abb 3cbb 5a3c
00000010: 98fb f9bb 30f4 6938 1d15 fbbc edea 88ba
00000020: 1457 9b3b 8483 5fbb b9cd 233c cfc9 ba3b
00000030: a439 8b3c 5689 3d3b d205 91bc 03b6 ac3b
00000040: f843 f53b 97fb 5c3c 93fa 883c 6105 03bc
00000050: 27df 27bc 29ea 4dbc ae84 093c ce0c 9d39
00000060: 2dec 6f3b 630d d5bc 7fc9 66bc 4c72 36bc
00000070: f5db ab3b 2eaf febb b067 58bc 291c fe3b
00000080: 0d3b 99bb 25ad 22bc d505 a3bc 2906 39bc
00000090: cc7d 21bc b4c8 083c 4c20 b8bc 8b3e ebbb
000000a0: daa6 a73c 3424 cd3c ac74 09bc aaea 08bd
000000b0: a735 87bb 41d1 b6bb 5db1 71bb 1753 883c
000000c0: 27a5 f0ba bc90 573a 1fb0 193d 829f d9bc
000000d0: eb2f 9eba 6dec a33b 5549 81bc 3775 b2bb
000000e0: b6e5 12bb 2d2a f03c bf69 bbbb f587 8e3a
000000f0: e2f9 8ebc 5bbf 87ba 6e73 883c cb6e fbbb
00000100: 5691 553c b6f4 f4bb 7c3d babc c8ec e5bb
00000110: 53e3 d3bb e260 23bc 4ae6 09bd 5c3f 9f3b
00000120: 9b27 01bd 3e05 edbb 158e 7a3c 22e4 b2bb
00000130: 5d38 efbc 0c22 4bba 4f15 403c 9c29 efbb
00000140: f85f 90bc 8148 533c aeca b6bc 780a f93b
00000150: a3fd 94bb bb1f a5bc 6a29 3b3c 37cb cebc
00000160: 77cf bbbb 079a c23b e61a 5b3a 2d98 f33c
00000170: 06a1 213c 667f 2b3d 1e15 973c bff6 883c
00000180: 95f7 0bbc 2bcb 87bc 3a53 6bbc 0886 303c
00000190: ff46 46bc 3028 993c afb6 7abc 926a 8d3b
000001a0: c17b cfbb 4cdb 98bb d5aa 89bc 8a8f 8f3b
000001b0: d887 0e3d 6a8c 97bc ad24 9abb 03db 28bc
000001c0: a56a 90bb 887b adbc ed8b 903b 7625 a2bc
000001d0: 0dd0 f43b a97d a0bc 76a3 19bc 5194 21bb
000001e0: 3de2 22bc 1f7e ebbb 866d 91bc 14f6 88bc
000001f0: 90c4 edbb 285c bcbc e26c 1aba ec51 adbc
00000200: f0cb 83bc 7541 f03b 9e0d 10bc a1c1 853b
00000210: 0cb8 0c3d ae5a 23bb 2fac 93bc 6f64 ca3c
00000220: b845 36bc 4ba0 6ebc 7161 bcbc ae0d 1dba
00000230: f3fb b4bc 3507 15bb ef9b 503b d07d f3bb
00000240: 088a e1bb b458 a3bc 5fca 03bc e1eb 39bb
00000250: ff0e f63c a1d6 bbbc ad34 fbbb ecb1 633d
00000260: baa7 b2bc 4278 023a 8a7f ccbc e6bb ae3b
00000270: abcc de3c 2842 cab9 4279 923b b090 6abb
00000280: 0f53 b1bc e5c5 78bc 0b74 b4bc d1dc 6a3b
00000290: f5bd 6c3d 810f 293c d6ca 00bc fde7 61bc
000002a0: 8c3d 1abb 4965 453c e75b 4f3c 223e 19bb
000002b0: ce98 81bc c4ce 2ebc 7c93 7cbc 159c 85bb
000002c0: b533 28bd 64a5 203d 1df5 4a3c 055c 003c
000002d0: 5862 913b 6f43 efbb aae5 943b 60c8 d63b
000002e0: 56bc e03c d4e1 c7bc c8a0 36bc 270d d6bc
000002f0: d1ca a939 4890 6ebc 0250 993b 5f07 76bb
00000300: 9c76 98bb be42 16bc 1b61 273b 753f 433c
00000310: e160 b1bb c583 c43c d072 6b3c b5c6 17bc
00000320: 388d 48bb e188 13bc f584 1cbb 2963 f43c
00000330: 0f9c 80bc 2668 ff3b 4999 6dbb 9655 babb
00000340: 2235 9d3b cfea 913b f01e 43bb 5675 ce3c
00000350: 8063 c13b b86e 73bc a310 62bc 0030 09bc
00000360: ecfc 5b3d 87fd b9bc f778 05bc a068 ea3b
00000370: 7332 f8bb 18c7 83bc f57b baba 498f bbbb
00000380: 6e94 453c 7e10 95bc ba29 c2bc 2eb7 713b
00000390: 2012 7b3d 4025 76bc 682e 81bc 4bb3 273c
000003a0: f900 c8bc 4a37 813c 8803 c0bc c485 35bb
000003b0: 852e 393c d674 1b3b d787 1fbc e3b9 a5bb
000003c0: 475f 95bc b49d ad3c 4b59 78bc 316d 87bb
000003d0: abcb b1bc dedd f33c 46be f5ba 11e2 fdbb
000003e0: 730c c03c 8c06 023a e3bf 0fbb 8b03 fe3b
000003f0: 9cf1 15bb 696f bebb b0ff 213c 49ff 57bb
0.010474012 -0.026181879 -0.002108525 0.013350304 -0.0076288693 5.5778946e-05 -0.030649716 -0.001044599
0.004740605 -0.003410549 0.009997779 0.005700327 0.016995259 0.002892097 -0.01770297 0.005270721
0.007484909 0.013487718 0.016721046 -0.007996888 -0.010246075 -0.012568035 0.00839345 0.00029954914
0.0036609278 -0.02600736 -0.014086126 -0.011135649 0.005244727 -0.007772348 -0.013208315 0.007754822
-0.004676229 -0.009928976 -0.019900242 -0.011292973 -0.0098566525 0.008348633 -0.022476338 -0.0071790866
0.020465303 0.025041677 -0.008389633 -0.033426918 -0.004126269 -0.005579144 -0.0036879398 0.016641183
-0.0018359766 0.0008223166 0.037521478 -0.026565317 -0.0012068724 0.0050025494 -0.015782038 -0.005446102
-0.002241475 0.029316986 -0.005719393 0.0010874259 -0.017453138 -0.0010356711 0.016656604 -0.0076731197
0.013035139 -0.007475461 -0.022734396 -0.007016752 -0.006466308 -0.009971829 -0.033666886 0.004859848
-0.03153191 -0.007233291 0.015292664 -0.0054593245 -0.02920168 -0.0007748909 0.01172383 -0.0072986614
-0.017623886 0.012895704 -0.022313442 0.007600125 -0.0045468374 -0.020156732 0.011423448 -0.025243385
-0.005731519 0.0059387716 0.0008358195 0.029735649 0.009865051 0.041869543 0.018442687 0.01671922
-0.008542915 -0.01657637 -0.0143631045 0.010774143 -0.012101888 0.01869592 -0.015302344 0.0043156827
-0.0063318913 -0.004664814 -0.016805092 0.004381125 0.03479752 -0.018499572 -0.004704079 -0.010306123
-0.0044072443 -0.021177068 0.0044112117 -0.019793253 0.0074710906 -0.01959117 -0.009377351 -0.0024655054
-0.009941635 -0.0071866657 -0.01775242 -0.016718902 -0.007256098 -0.022993162 -0.00058908586 -0.021157227
-0.016088456 0.007332022 -0.008792309 0.0040819203 0.03435521 -0.0024925875 -0.01802644 0.024706094
-0.011125021 -0.014564584 -0.022995682 -0.0005991113 -0.022092795 -0.0022739891 0.0031831225 -0.0074307695
-0.0068829097 -0.019939758 -0.0080438545 -0.0028369355 0.030036448 -0.022929491 -0.0076661916 0.0555896
-0.021808494 0.0004977026 -0.02496316 0.005332458 0.027197203 -0.00038577733 0.0044700215 -0.0035791807
-0.02164605 -0.0151839005 -0.02202799 0.0035837183 0.057798345 0.010318638 -0.00786086 -0.0137882205
-0.002353522 0.012048074 0.012656189 -0.0023382981 -0.015819933 -0.010669414 -0.015416022 -0.0040774443
-0.041064937 0.03922023 0.012387541 0.007834439 0.0044367723 -0.00730174 0.0045439797 0.0065546483
0.027433556 -0.024399675 -0.011146732 -0.026129318 0.00032385302 -0.0145607665 0.004678727 -0.0037541015
-0.004652811 -0.009171186 0.0025540057 0.011916985 -0.00541316 0.023988614 0.014370635 -0.009263684
-0.003060175 -0.009004802 -0.002388296 0.02983244 -0.015699415 0.007794398 -0.0036254695 -0.005686472
0.0047975937 0.00445304 -0.002977308 0.025202435 0.005901754 -0.01485794 -0.013797912 -0.0083732605
0.053708002 -0.0227039 -0.008146516 0.0071535856 -0.0075743734 -0.016086146 -0.0014227616 -0.005723868
0.012059314 -0.01819634 -0.023701537 0.0036882865 0.061296582 -0.0150235295 -0.015769199 0.010235618
-0.024414526 0.015773434 -0.023439184 -0.0027698139 0.011302595 0.0023720763 -0.009736977 -0.00505756
-0.018233908 0.021193363 -0.015158008 -0.0041328897 -0.021703562 0.02976888 -0.0018748723 -0.0077478965
0.023443436 0.0004960082 -0.0021934442 0.007751887 -0.0022879606 -0.005811621 0.009887621 -0.0032958558

model/hidden/output_layer/b f4 [256]
00000000: 86df 663b 7293 27bc a273 4d3c 0530 06bc
00000010: 48da b7bb 7d76 a2bb 6a65 cf3b 955c 6aba
00000020: 477e 9c3a fc18 ca3b 628e 12ba e189 8339
00000030: e81c adb9 5b46 ef3b 86f0 b43b 5b1b 8a37
00000040: 86f4 d439 c096 94bb 9d9c f2b9 c86d 25b9
00000050: be56 db3b 03d8 2939 110f 613a 1b18 91bb
00000060: e516 a23b 05d2 05bc 4e40 ca3a e17e 503b
00000070: a3c6 373a 5fd7 c1ba 8cc6 bcb9 fd4e 6d3b
00000080: 0d0a 35bb ecff 733b 80eb 97bb acfc 33bb
00000090: 5f97 443a 2c45 e4bb 485b 50bc 3ead d03b
000000a0: dc7c 5a3a 7aff e7bb 2779 9fbb 7ba5 d7bb
000000b0: 56dd d1ba 99f3 daba 564c d23b 8d99 8e3b
000000c0: 13d7 973a 5fc2 06ba 5b22 b3bb 67a7 533b
000000d0: eba6 473b 8a48 533b 8c22 b63b e070 cab8
000000e0: 535e 43bb eb54 993b fd71 0fbb 9320 943b
000000f0: e23a c5bc f2b5 b3ba 5e06 303c bb14 8ebb
00000100: 91f7 42bb 1fa0 ef3b ddf9 05bb b431 c23b
00000110: 0106 f4bb dc45 093b b5fd 513b 152a 033c
00000120: 2066 abbb d960 d23b e3bd 02bb 9d57 223c
00000130: 55a5 6fbc bbe3 b0bc 7717 913b 83ae 28ba
00000140: ca41 af3b 937c 5e3c c975 bcba 069a f2b9
00000150: f6ea bc39 9997 0cbb ec22 d8ba 34e5 28bb
00000160: f976 3bbb 5f52 023c d582 45ba 55bb c33b
00000170: 9721 eb3b 8c79 b23a 106b cb3b 30f3 013c
00000180: 9a5a 5bbb 4fc9 07bb 4cf3 503c 0e44 b0b9
00000190: c49b 8cba 837d 023b 5ca3 b63b ae49 193c
000001a0: 284c 02bc 4182 bb37 cf46 c6bb cf31 23bb
000001b0: 3975 ecbb 2799 8c3b 193e bdbb dd85 61bc
000001c0: 5f12 f3ba 7425 eebb 68e3 64bc 883c 103c
000001d0: 2a1d b13b d17a 26bb 174b 593c b6e6 d238
000001e0: e5d8 a1bb da53 d7bb a2f8 e03b 4b7d 02bc
000001f0: d37e d73a 71c1 013c 2b9e 473c fe01 bdba
00000200: 128b 66ba 7048 21bc 3c01 e43b 5887 5ab9
00000210: fae5 c6bb b248 a93b 8a4b 8f3a 037b cabb
00000220: bb79 8f3b ea80 623b c2ab 8b3b 0e0f 1e3c
00000230: 73d1 d43b 454c b83b 6618 c5bb 809b 733a
00000240: a177 173c 92cc d03b cbb8 f23a 1be5 593b
00000250: 1bb5 a03b 871f a2bb ba49 4e3b 1edd 363c
00000260: 0dcd 17bc be9a e43b b0cc ae3b a599 c8bc
00000270: 2827 3b36 fb11 c03b f868 c23b e833 083b
00000280: 90d4 afba 722b 173a 47d5 e8ba 56c6 483c
00000290: 0b87 bd3a ac07 b3bb 18de 68ba 4499 083b
000002a0: 275e c73c 984e c0bb 6ec6 cd3b 6550 59bb
000002b0: 5638 3ebb c39d 493a bd65 60bb 8da9 edb9
000002c0: f504 b6bb 513f 97bb 5feb 893b c720 dd3a
000002d0: 333f f03a af29 08ba fd4a 803b 9b13 c3bb
000002e0: 4353 fa3b a4dd 483c ec74 08bc 0b47 81bb
000002f0: cacd 403a 7bbd bd39 ed46 82bb 8a5f 89bb
00000300: 4403 e23b 96e7 b4bb 2a3e 0c3c 0bda b33a
00000310: c3d3 5b3c 35be 893b e1db 4e3b 3f3e 0439
00000320: 466e 1d3b 6c4d 533b 75b2 e9bb 7a8c ffbb
00000330: 8556 acba 20bd 7e3b 2d03 d2bb 9bcd 173c
00000340: 3fff 923b f094 b03b 0703 8e3b af25 16ba
00000350: 5787 a639 a98b a9b9 b20a c3ba a7c9 90bb
00000360: f3da 103b 4107 1ebb 6c57 d6ba 5be5 f73b
00000370: b987 75bb 2fae 463b acce 12ba 8176 f23b
00000380: 9ab6 99bb 9be2 bbba 12ab aaba 11cf dcbb
00000390: 3c7b bbbb 4adb ea3b 3c8c 8cbb f6f2 1c3b
000003a0: d11b 37bc e9ad 96ba 824d 0bbb b97d f0ba
000003b0: a73c 96bb 12cf 083c ee67 ffbb 428f beba
000003c0: 7fe2 3f3b 87ed bcbb 0e86 1d3c 9e20 543c
000003d0: 506e bb3a 70eb c3bb 78e5 bcba e964 ae3b
000003e0: 5e6d beba 81e8 033b 303e f0ba 2eea 88bc
000003f0: f17a 923b 292d c6ba 3808 c83b 53b0 ae3b
0.0035228445 -0.010228025 0.012539776 -0.00819016 -0.005610738 -0.0049579726 0.006329228 -0.00089401874
0.0011939489 0.006167529 -0.00055906747 0.00025088995 -0.00033018668 0.007302088 0.0055218367 1.646362e-05
0.00040617975 -0.0045345724 -0.00046274523 -0.00015776523 0.00669369 0.00016197567 0.0008585314 -0.0044279224
0.004946577 -0.008167748 0.0015430541 0.0031813907 0.0007010495 -0.0014788917 -0.00036006083 0.003621041
-0.00276244 0.0037231399 -0.004636228 -0.0027463837 0.00074993627 -0.0069662537 -0.012717076 0.0063683083
0.00083346455 -0.0070800157 -0.0048667374 -0.006581006 -0.0016011398 -0.0016704678 0.0064177914 0.004351801
0.0011584483 -0.0005140658 -0.005466742 0.0032295824 0.003046448 0.0032239282 0.0055583175 -9.653135e-05
-0.002981086 0.0046793125 -0.002188801 0.0045204847 -0.02407593 -0.001371084 0.010743706 -0.0043359674
-0.0029749612 0.007312789 -0.002044312 0.005926335 -0.007447005 0.002094618 0.003204209 0.008005639
-0.00523068 0.0064202365 -0.0019949607 0.009908584 -0.014626821 -0.021592965 0.004427846 -0.00064346957
0.005348419 0.0135795055 -0.0014378364 -0.00046272593 0.00036033214 -0.0021452664 -0.00164899 -0.0025771381
-0.0028604849 0.007954209 -0.0007534449 0.0059732595 0.007175635 0.0013616546 0.006207831 0.007931516
-0.003347075 -0.0020719355 0.012753319 -0.0003362004 -0.0010727574 0.0019911237 0.005573673 0.0093559455
-0.007952727 2.2352791e-05 -0.0060509215 -0.0024901514 -0.0072161225 0.004290718 -0.005775225 -0.013764826
-0.0018544904 -0.0072676484 -0.0139702335 0.008803494 0.005405088 -0.0025402794 0.013262532 0.000100565536
-0.004939186 -0.006571275 0.006865577 -0.0079644425 0.0016440995 0.007919655 0.012183706 -0.0014420149
-0.0008794527 -0.009843931 0.006958155 -0.0002084052 -0.006069896 0.0051661367 0.0010932547 -0.006179215
0.004378525 0.0034561702 0.0042624185 0.009647144 0.006494695 0.0056243264 -0.0060148714 0.00092928857
0.00924483 0.006372043 0.0018518207 0.003324813 0.004904402 -0.004947606 0.003147705 0.011161117
-0.0092651965 0.0069764545 0.0053344592 -0.024487326 2.7887963e-06 0.0058615184 0.0059329234 0.0020782892
-0.0013414789 0.0005766667 -0.0017763757 0.012254318 0.0014459802 -0.005463561 -0.0008883192 0.0020843307
0.024336888 -0.005868744 0.006279758 -0.003315949 -0.0029025278 0.000769105 -0.0034240328 -0.00045330488
-0.00555479 -0.004615702 0.0042089666 0.001687073 0.0018329382 -0.00051941996 0.0039151893 -0.005953265
0.00763932 0.0122598745 -0.008328658 -0.0039452366 0.0007354884 0.00036190063 -0.00397574 -0.0041922973
0.006897362 -0.0055207713 0.008559743 0.0013721598 0.013417187 0.0042035826 0.0031564164 0.0001261169
0.0024022027 0.0032242192 -0.0071318694 -0.0077987285 -0.0013148343 0.0038870052 -0.00640907 0.009265329
0.004485994 0.0053888485 0.004333857 -0.0005727661 0.00031762823 -0.00032338247 -0.0014880507 -0.00441857
0.002210316 -0.002411321 -0.0016352958 0.007565183 -0.003746493 0.0030316224 -0.00056002545 0.0073993807
-0.0046909573 -0.0014334501 -0.0013020954 -0.0067385514 -0.005721478 0.0071672546 -0.004289178 0.0023948527
-0.011176066 -0.0011495921 -0.0021255915 -0.0018348015 -0.004584867 0.008350151 -0.007794372 -0.0014538544
0.002927929 -0.00576562 0.009614481 0.01294723 0.0014299843 -0.005978994 -0.0014411649 0.005322088
-0.0014528444 0.0020127597 -0.001832908 -0.016713228 0.004470222 -0.001511966 0.0061044954 0.005331078

model/a_stream/W f4 [3, 256]
00000000: 16d2 363d 1546 48bd 63a9 0bbc bc09 863c
00000010: 88ff 633d 1e3f c13a e352 9a38 9a2d 3c3d
00000020: ed46 783d e351 b93c fdd5 26bd 9645 d13b
00000030: 5eb1 f43a 2864 34bc 47cc cfbd 0f06 9dbd
00000040: ec3e 043d f073 dd3d b561 2b3c 9e58 0c3d
00000050: f995 363d efd1 a2bd 1a27 62be b4e9 a03d
00000060: d911 c1bb a325 183d 7779 c73c 1ed3 d23c
00000070: ee60 d4bc b732 9fbd 62f0 b5bd 4133 743c
00000080: 6a07 a4bd ea2c a0ba a5b6 363d a0d8 393d
00000090: 053c 44bd d892 20bc 8c1a b93c 53d1 a039
000000a0: cc02 8b3a 776c f4bc 857b 7cbc 5a69 423d
000000b0: 78c1 dc3d 9976 96bd b314 7d3c febb 0d3e
000000c0: d843 7bbb 652b 4d3d c625 533d 6866 4b3c
000000d0: 475d 0c3e 4c8f c93c 6b47 1b3c a6de 973c
000000e0: 930b b13d c425 d6bd 42a3 ac3b cced f4bb
000000f0: 8f01 963d 84c2 db3a 7023 813b 478d 72bd
00000100: 91fb 723c 6ecb df3c 7082 463d 712e 39bd
00000110: b6df 2fbc 838e 0b3d 10a2 97bc c521 0fb9
00000120: 86ff a13c aaf3 b1bc 8aef d63c 0404 943c
00000130: f2e3 02bd 6ddf 953d 6539 7c3d f075 f7bb
00000140: 2634 6ebc 13dd 01be 0376 febc 0607 48b9
00000150: 21e8 babb 76aa f5bc b6e4 0b3d 7ad9 e4ba
00000160: d9f2 0c3e 99aa d73d 4151 a2bd a976 8cbd
00000170: 2782 743b e6a7 89b9 8c53 57bd aca8 64bc
00000180: 7934 633e d143 463d 00a8 63bb a037 c63c
00000190: 1132 43bd 4067 b03c 7bcd 9e3c 97a7 10bd
000001a0: cab5 f03c 2e38 1dbc 1f09 38be ef7f dbbd
000001b0: db53 10bd b958 53bc d27e 80bc 2c7f 6abc
000001c0: 8103 dd3b 8c23 633c 1c30 f83c 70ab 6abd
000001d0: ba84 c7bd 53de 0c3d b1dc 32bd 9f92 a9bd
000001e0: a898 f8bc 1213 ae3c 8aae a53c 9f66 f63c
000001f0: faa9 b13d 1ae6 4fbd ecc0 70bd 9371 99bc
00000200: b528 73bd 6c0e 97bc 345a 14be 6ab0 c93d
00000210: 5e7e 8b3d 62ca 0ebb 6266 bb3c 9f61 333d
00000220: e2d8 343d b297 96bd 0d01 9c3d 4ebc 143d
00000230: 842c 9cbd a690 79bd f5be 78bd 47c8 8dba
00000240: 076f 6abc 5211 5e3d aa1c 3cbd f69b 733c
00000250: b900 bd3c cfee 833d ffdd 47bd 05cc ebbd
00000260: 5ae3 523d e256 7ebd 4a4a 72bb 8ac3 8d3d
00000270: a991 643c fd3e 183b bbda 003d 0662 4abc
00000280: 331b 24bc 6ea0 02bd 3b2f 4dbd cca9 52bd
00000290: 8b88 1d3c 176a 1ebd fe33 78bd 4f5d 4ebc
000002a0: 8a15 0ebd 9333 8a3d 5600 863b 5c48 a53b
000002b0: fbe2 85bc 05a6 97bc 260d 5cbd b850 b0bd
000002c0: ca97 4e3d 4090 833b c913 a3bd 6418 80bd
000002d0: d165 3f3d 9b8e 07be 9251 9d3d 07c5 a73d
000002e0: 11a3 b1bc af34 a23d 4970 aabc b087 36bd
000002f0: 3f89 b2bd 92ad 40bc 7b2b 83bd 06eb ea3d
00000300: 896f d8bc b06c 3abd e4b6 a73c cd69 5fbb
00000310: 3379 cdbb a750 c4bd 45bc 033d 6537 143e
00000320: 41fb 78bb c8ac d23b 7b36 4bbd 701e c0bc
00000330: 5bc0 973d 0344 7b3d bb6c d33c 8393 b6bd
00000340: 7023 153d 21a7 debb 2680 aebb 5ad7 1a3d
00000350: 8cc0 003e 93db cabd c315 063d 18ac ca3c
00000360: 1de5 ad3d b860 41bd 83f9 ec3d b92a 823d
00000370: 91c1 83bc 18e4 eabb dd87 173d 6953 debb
00000380: ee60 273d 688b e5bd 7752 c93b 9b94 a3bd
00000390: cdb4 933b 43e0 e7bc b15a 3c3c cf21 29be
000003a0: 77d1 323c 25dd f3bc 4264 1e3b a18d 20bd
000003b0: 3a30 c8bc f16f 13bd c92a 463c 805e bf3d
000003c0: 9857 9f3d 4258 8f3c 4988 0e3c b663 36bd
000003d0: 3aae c3bd 33bd ba3d e289 cd3b 1468 e9bc
000003e0: 3e6b c8bc c4dd a13d 50e3 8c3d 4260 b13b
000003f0: fff1 99bd 400b 4bbd 777b e6bc 06e7 8dbd
0.044633947 -0.04889496 -0.008524272 0.016362064 0.055663615 0.0014743542 7.358731e-05 0.045941927
0.060614515 0.022622054 -0.04073142 0.006386469 0.0018668582 -0.011010207 -0.10146385 -0.07667171
0.03228657 0.10813129 0.010460307 0.0342642 0.04457662 -0.07950198 -0.22085229 0.07857075
-0.00589202 0.03714527 0.024349911 0.025735434 -0.025925126 -0.07773345 -0.0888374 0.014904798
-0.080092266 -0.0012220417 0.044607777 0.045372605 -0.0479088 -0.009800635 0.022595666 0.00030673537
0.0010605692 -0.029836876 -0.015410309 0.047463752 0.10779089 -0.073468395 0.01544683 0.13841245
-0.0038339999 0.050090212 0.051549695 0.012414552 0.13707457 0.024604462 0.009477477 0.018538784
0.08644786 -0.10456422 0.0052684853 -0.0074746367 0.07324516 0.0016766344 0.003940992 -0.059216764
0.014830486 0.027318683 0.04846424 -0.045210306 -0.010734489 0.034071457 -0.018509895 -0.00013650123
0.019775163 -0.021722633 0.026237268 0.018068321 -0.031955667 0.07318006 0.061578173 -0.007551901
-0.0145388 -0.1268199 -0.031062132 -0.00019076103 -0.0057039415 -0.029988509 0.034153663 -0.0017459833
0.13764514 0.10530586 -0.07925654 -0.0685857 0.0037309022 -0.0002625577 -0.05256991 -0.01395623
0.22187985 0.04840452 -0.0034737587 0.024196446 -0.04765517 0.021533608 0.01938509 -0.035316076
0.029383559 -0.009595914 -0.1797223 -0.10717761 -0.03523622 -0.012899571 -0.015685473 -0.014312547
0.0067448025 0.0138634555 0.030296378 -0.0572924 -0.097421125 0.034391712 -0.0436675 -0.08279919
-0.03034623 0.021249328 0.020224828 0.03007823 0.086749986 -0.05075655 -0.058777735 -0.018730914
-0.059364993 -0.018439494 -0.14487535 0.098481014 0.06811212 -0.002178811 0.022875968 0.04379427
0.044152148 -0.07353152 0.07617388 0.036312394 -0.07625678 -0.060928963 -0.060728986 -0.0010817134
-0.014308698 0.054215737 -0.045925774 0.014868727 0.023071634 0.064420335 -0.048795696 -0.11513523
0.05148635 -0.062094577 -0.003697055 0.06922062 0.013950744 0.0023230903 0.031458598 -0.012352472
-0.01001625 -0.03189128 -0.05009387 -0.051431462 0.009615074 -0.038675394 -0.06059646 -0.012595489
-0.03468851 0.06748118 0.0040893955 0.0050440263 -0.016343584 -0.018511781 -0.053723477 -0.08609146
0.050437726 0.0040149987 -0.07962758 -0.06254652 0.04672796 -0.13237993 0.07681574 0.08191877
-0.021684201 0.07920205 -0.020805495 -0.044562995 -0.08717584 -0.011760132 -0.064047776 0.114706084
-0.026420372 -0.04551381 0.020472951 -0.0034090162 -0.0062705516 -0.09585696 0.03216197 0.14474256
-0.0037991556 0.0064292885 -0.049612503 -0.023452014 0.07409736 0.061344158 0.025808683 -0.089148544
0.03641075 -0.0067948257 -0.005325335 0.03780303 0.12573451 -0.09905162 0.032735597 0.024740264
0.084909655 -0.04721138 0.11571028 0.06355805 -0.01608351 -0.007168304 0.036994804 -0.0067848456
0.040863924 -0.1120823 0.006143864 -0.079873286 0.004507637 -0.028305179 0.011496232 -0.16516803
0.010914198 -0.029768536 0.0024168645 -0.039197568 -0.024437059 -0.035995428 0.012095162 0.09344196
0.07780379 0.01749814 0.008699485 -0.044528686 -0.095547155 0.09118118 0.0062725404 -0.028492011
-0.0244652 0.079036266 0.06879294 0.005413086 -0.0751686 -0.049571276 -0.028135045 -0.0692883

model/hidden/mid_rec_layer/upward/W f4 [80, 86]
00000000: fedc 7b3f 1e3b 7c3f 9130 7d3f 3d8e 7c3f
00000010: c887 7b3f bd93 7c3f d11b 7d3f ee99 7c3f
00000020: 0000 803f 0000 803f 2aeb 7e3f 0000 803f
00000030: a53d 7f3f e78a 7f3f 0000 803f bd5a 7f3f
00000040: 3f4c 7f3f 0000 803f b888 7f3f 047f 7f3f
00000050: 0000 803f 0a4b 7f3f 166a 7f3f 0000 803f
00000060: ea53 7f3f 83be 7f3f 0000 803f 3130 7f3f
00000070: 8f5b 7f3f 0000 803f 7e9f 7f3f 179f 7f3f
00000080: 0000 803f 357f 7f3f bcc6 7f3f 0000 803f
00000090: 4c79 7f3f bd57 7f3f 0000 803f 3c66 7f3f
000000a0: 5b44 7f3f 0000 803f d92d 7f3f 5126 7f3f
000000b0: 0000 803f 1899 7f3f d65e 7f3f 2a21 7f3f
000000c0: 5207 7f3f 5d84 7f3f 492e 7f3f 03b1 7f3f
000000d0: 1ddd 7f3f 825a 7f3f c818 7f3f b1c6 7e3f
000000e0: 0000 803f 0548 7f3f aa3c 7f3f 0000 803f
000000f0: ef83 7f3f 7e8e 7f3f 11e4 7e3f 723c 7f3f
00000100: 5962 7f3f 43f0 7d3f 31af 7f3f 9a99 7f3f
00000110: 8fab 7d3f 2fbe 7f3f 29ba 7e3f 0000 803f
00000120: 8d3b 7f3f 4399 7f3f 0000 803f 0cd0 7f3f
00000130: 5239 7f3f d05c 7d3f db2c 7f3f 9f85 7f3f
00000140: 11d5 7d3f 3930 7f3f 7b31 7f3f 69d1 7d3f
00000150: d23e 7f3f fa11 7f3f af3b 553f 0c03 603f
00000160: a61d 633f 49f2 603f 471b 5a3f cd5c 5b3f
00000170: 0263 613f 67c9 603f 0000 803f 0000 803f
00000180: f15f 643f 0000 803f 8cf6 6e3f c2a7 763f
00000190: 0000 803f e1f0 703f 4693 6c3f 0000 803f
000001a0: 883f 723f 80ae 703f 0000 803f 7bee 6d3f
000001b0: 8a66 6e3f 0000 803f f620 703f 4972 783f
000001c0: 0000 803f c16f 6f3f cadb 6f3f 0000 803f
000001d0: 7d94 773f 760b 763f 0000 803f c9a3 753f
000001e0: f27c 793f 0000 803f d180 6e3f 7b48 743f
000001f0: 0000 803f 89d7 6e3f 73a1 6c3f 0000 803f
00000200: 443e 6e3f b015 723f 0000 803f 352d 743f
00000210: 4984 723f 1f82 6d3f 7723 6b3f 240f 763f
00000220: 8727 703f 010d 763f 0990 7a3f 550b 733f
00000230: 3d55 703f c93c 643f 0000 803f f8d1 703f
00000240: 045f 6f3f 0000 803f 66ce 733f 2aa4 723f
00000250: 9221 703f 9028 703f 5e87 703f c47e 683f
00000260: bf5f 763f f2eb 753f 666a 5d3f 7921 793f
00000270: c674 623f 0000 803f 86cc 6d3f e1de 753f
00000280: 0000 803f 5977 7a3f 0115 6f3f 379b 613f
00000290: 3ff3 703f 52b3 743f 8bcf 623f acb4 6b3f
000002a0: b295 6c3f 2323 5d3f 82f6 6d3f 9fb8 713f
000002b0: 0000 803f 0000 803f 0000 803f 0000 803f
000002c0: 0000 803f 0000 803f 0000 803f 0000 803f
000002d0: 0000 803f 0000 803f 0000 803f 0000 803f
000002e0: 0000 803f 0000 803f 0000 803f 0000 803f
000002f0: 0000 803f 0000 803f 0000 803f 0000 803f
00000300: 0000 803f 0000 803f 0000 803f 0000 803f
00000310: 0000 803f 0000 803f 0000 803f 0000 803f
00000320: 0000 803f 0000 803f 0000 803f 0000 803f
00000330: 0000 803f 0000 803f 0000 803f 0000 803f
00000340: 0000 803f 0000 803f 0000 803f 0000 803f
00000350: 0000 803f 0000 803f 0000 803f 0000 803f
00000360: 0000 803f 0000 803f 0000 803f 0000 803f
00000370: 0000 803f 0000 803f 0000 803f 0000 803f
00000380: 0000 803f 0000 803f 0000 803f 0000 803f
00000390: 0000 803f 0000 803f 0000 803f 0000 803f
000003a0: 0000 803f 0000 803f 0000 803f 0000 803f
000003b0: 0000 803f 0000 803f 0000 803f 0000 803f
000003c0: 0000 803f 0000 803f 0000 803f 0000 803f
000003d0: 0000 803f 0000 803f 0000 803f 0000 803f
000003e0: 0000 803f 0000 803f 0000 803f 0000 803f
000003f0: 0000 803f 0000 803f 0000 803f 0000 803f
0.9838408 0.98527706 0.9890223 0.9865454 0.9825406 0.9866293 0.9887057 0.9867238
1.0 1.0 0.9957758 1.0 0.9970344 0.99821323 1.0 0.9974783
0.9972572 1.0 0.9981799 0.99803185 1.0 0.99723876 0.9977125 1.0
0.9973742 0.9990007 1.0 0.9968291 0.9974908 1.0 0.9985274 0.99852127
1.0 0.9980348 0.9991262 1.0 0.9979446 0.99743253 1.0 0.9976537
0.9971368 1.0 0.9967933 0.9966784 1.0 0.9984298 0.99754083 0.9965998
0.99620545 0.99811345 0.9968 0.99879473 0.9994677 0.9974748 0.9964719 0.9952193
1.0 0.9971927 0.9970194 1.0 0.9981069 0.998268 0.9956675 0.9970161
0.9975944 0.99194735 0.99876696 0.9984375 0.990899 0.9989957 0.9950281 1.0
0.9970024 0.99843234 1.0 0.9992683 0.9969684 0.98969746 0.9967782 0.99813265
0.9915324 0.99682957 0.99684876 0.9914766 0.9970523 0.99636805 0.83294195 0.8750465
0.88717115 0.878697 0.8519787 0.8568848 0.880417 0.87807316 1.0 1.0
0.89208895 1.0 0.9334495 0.9634973 1.0 0.9411755 0.9241222 1.0
0.9462819 0.94016266 1.0 0.9294202 0.9312521 1.0 0.93800294 0.97049385
1.0 0.935299 0.93694746 1.0 0.9671095 0.9611124 1.0 0.9595304
0.97456276 1.0 0.9316531 0.95423096 1.0 0.9329763 0.9243385 1.0
0.9306376 0.9456434 1.0 0.9538148 0.947331 0.92776674 0.9185099 0.9611685
0.93810314 0.9611359 0.9787603 0.94939166 0.93880063 0.8915525 1.0 0.94070387
0.9350436 1.0 0.95236814 0.94781744 0.93801224 0.93811893 0.93956554 0.9081843
0.96239847 0.9606315 0.86490476 0.973167 0.8845943 1.0 0.92890203 0.9604321
1.0 0.9783836 0.93391424 0.88127464 0.94121164 0.9558612 0.88597935 0.9207256
0.92415917 0.8638174 0.92954266 0.94422334 1.0 1.0 1.0 1.0
1.0 1.0 1.0 1.0 1.0 1.0 1.0 1.0
1.0 1.0 1.0 1.0 1.0 1.0 1.0 1.0
1.0 1.0 1.0 1.0 1.0 1.0 1.0 1.0
1.0 1.0 1.0 1.0 1.0 1.0 1.0 1.0
1.0 1.0 1.0 1.0 1.0 1.0 1.0 1.0
1.0 1.0 1.0 1.0 1.0 1.0 1.0 1.0
1.0 1.0 1.0 1.0 1.0 1.0 1.0 1.0
1.0 1.0 1.0 1.0 1.0 1.0 1.0 1.0
1.0 1.0 1.0 1.0 1.0 1.0 1.0 1.0
1.0 1.0 1.0 1.0 1.0 1.0 1.0 1.0

model/hidden/mid_layer/W f4 [256, 256]
00000000: 9030 3d3d 5315 48bd b723 2dbe db0d 1f3c
00000010: 5353 d33c 6b38 97bd ebec 5d3c 61b6 82bc
00000020: f04a 92bd b71d 9ebd a50b b0bc 77d2 b1bd
00000030: 2b84 7dbc 0fb0 e4ba 27dc 3dbb effb 00bd
00000040: 5cf9 a8bd d075 67bd 22a8 d63c 1ded 5d3d
00000050: 09d2 a4bc 0342 4cbd 91cb adbd 3508 3f3d
00000060: 3d24 7dbd 2975 7abd fd9c bebd 286e 80bd
00000070: 40ba 2abd 9418 983d ba29 79bd 077b 243d
00000080: 6782 b23c 2bf3 193d 2939 163b 3882 e53c
00000090: c606 393b 549b 653d abb7 67bc 39f5 a33d
000000a0: b036 a23d 46ac e9bc 05e2 15be d2a5 aabd
000000b0: 2eb9 da3b be6e dd3d d8b0 c03c 69fd 0abd
000000c0: e7b3 033e 2d90 a93d b110 a1bd 39e7 163d
000000d0: 7cc4 103d 1f58 f03c 3423 af3b cb38 58bd
000000e0: f91a 083e 16c5 c53c 41a1 77bd 6eaa 2fbc
000000f0: 8c43 063d bc49 8fbc 1162 4e3e bb97 33bc
00000100: 4ec0 113e 1ceb 733d dd44 b2bd 7d36 44bc
00000110: e238 523d 80ae 8d3c 6d50 663c 360e 32be
00000120: 14e5 643c 95e9 27bd d650 96bd 0d35 e33d
00000130: 84d5 343c a1e5 00bd ffe3 c33c 7348 f73d
00000140: 5e87 773c d80e d8bc 8e66 47bd d292 6f3d
00000150: 9239 0abc 1db4 e43b edd8 ddbd 108a aa3c
00000160: 788c 8abd adf3 a6bc aef0 b23d 5caf debc
00000170: 63c1 3bbb dcee 113d cfb0 0fbd fcba 82bd
00000180: 079e 3339 72cb 14be 1d86 20bd e0df 78bd
00000190: be85 043d 5b03 20bd d250 0d3d 8337 cd38
000001a0: 72ea 2f3d b67f 773d b7c4 113d 3ad6 54bd
000001b0: f1b9 dc3d 7a0d d43d 1991 d7bc 770f 4c3c
000001c0: fbd7 75bd 5536 21bd 7aa5 0bbd 19dd f6bc
000001d0: d8cf 7ebd 581e c33d 0b0a 02bd a33d 793d
000001e0: b586 673b addd cf3c ac90 71bb 2ae2 05bc
000001f0: 7e3d 19bd d299 6d3d a443 35bd dc23 89bd
00000200: f97c 433d 9579 363d b27d b83c bb05 803c
00000210: b88a 96bc 5bc6 cf3c 8018 67bd bc02 a7ba
00000220: 7c64 6cbc bcf6 053d e140 1c3d 0eec b7bd
00000230: f7ba 003d 1c95 373d a53c 66bd 49cf debc
00000240: a15c a5bc 04e5 0a3b 18cd d73c 20d0 09bd
00000250: 2c75 e9bb 0028 603d 0e6e 65bd 2886 193c
00000260: 02e9 d3bd 576c dc3c 06e9 6b3c 4562 02bc
00000270: 1608 10bd 7e06 2abc 4d5a b9bc 94ae 203d
00000280: 54f7 103c 9c20 e5bd 7cbf 883c fb56 36bb
00000290: e89e 493d 7cf9 64bd fc4c 7bbd c46a bebd
000002a0: e480 e13c 5513 543d aa99 80bd e319 983d
000002b0: d48b dc3d 9fb7 e43c da91 42bb 6e93 ff3c
000002c0: 7bab db3c b54f 45bd 21bf 48bd d060 30bd
000002d0: d412 dcbd 164f ddbd ed71 e6bc d205 5b3c
000002e0: 6155 9e3d 3efe cdbd 8935 3a3d f061 d73d
000002f0: aedf 6c3d f34c 393d 7a52 1d3d 6216 443d
00000300: 60aa 0a3d 23f3 c73c 8c7a 303c e623 c73c
00000310: daa9 c4bd 042b 98bd c97e 393c 55d1 0abc
00000320: dba0 ba3a f615 cfbd aae3 723c ea0c b7bc
00000330: a0f4 2c3d 7776 49bc 0ee2 943c 7c3b 1a3d
00000340: 6c5b b4bc 63f3 cbbd 2dd4 e8bd a05f 8e3c
00000350: eaf9 9abd 85ba e1bd b20a a33c a389 b53d
00000360: 61b3 53bc 4ade 123e 5124 6ebd 4702 41ba
00000370: efa4 1bbd 9434 2d3d 188b 493c cfb8 6bbc
00000380: 723d 1abc 15c9 28bd 0456 c73d c87a 78bd
00000390: 6a18 ca3c 1e87 d13c 61d0 cfbd 58b0 7ebd
000003a0: 9f2c 8abd 97f8 b6bc 4327 903d 43c9 3e3d
000003b0: 2ebf b4bd 1278 34bd f3e4 24bc 52d8 523d
000003c0: d3a4 e83d b4f6 38bd f960 723d 1cb2 79bd
000003d0: 53ca 39bd 4b1f d4bc 9e55 863c e684 d13c
000003e0: fb1e 073d 1c66 7fbd b95a d33d b796 37bc
000003f0: 2c21 bebd 9000 ebbc 6ce0 dd3c a190 7b3d
0.04618889 -0.04884846 -0.16908155 0.009707893 0.025796568 -0.07383808 0.013545255 -0.015956106
-0.071431994 -0.077205114 -0.021489928 -0.08682721 -0.015473406 -0.0017447489 -0.0028970332 -0.031490263
-0.082506865 -0.05650884 0.026203219 0.054181207 -0.020119684 -0.04986764 -0.08486093 0.046638686
-0.061802138 -0.06114689 -0.09307287 -0.06271011 -0.041681528 0.07426563 -0.06083081 0.04015639
0.021790696 0.03758542 0.0022922254 0.028016195 0.0028232797 0.056056336 -0.014142911 0.08005757
0.07920587 -0.02852453 -0.14637001 -0.08332409 0.006674907 0.10812138 0.023521826 -0.033933077
0.12861596 0.082794525 -0.07864512 0.036841605 0.035343632 0.029338894 0.0053447727 -0.052788537
0.13291539 0.02414183 -0.060456518 -0.010721786 0.03277926 -0.017491214 0.20154597 -0.010961468
0.14233515 0.05955039 -0.08704541 -0.011975882 0.05132378 0.017295122 0.014057261 -0.17388234
0.013970632 -0.040994246 -0.07339637 0.11094103 0.011037234 -0.03146899 0.023912428 0.120743655
0.015107958 -0.026374266 -0.04868179 0.058489628 -0.008436577 0.006979479 -0.10832391 0.020817786
-0.067650735 -0.020379866 0.08737312 -0.027183227 -0.0028649203 0.035628185 -0.035080727 -0.06383321
0.0001712964 -0.14530733 -0.0391904 -0.06076038 0.03235411 -0.0390657 0.034500904 9.7855016e-05
0.042948194 0.06042453 0.035587993 -0.051962115 0.10777653 0.10354133 -0.026314305 0.012454859
-0.06002043 -0.039358456 -0.034093358 -0.030134724 -0.062209934 0.09527272 -0.03174786 0.060849797
0.0035328094 0.025374258 -0.0036859913 -0.0081715975 -0.03741216 0.058008023 -0.04425396 -0.06696293
0.047726605 0.044549543 0.022520874 0.015627733 -0.018376693 0.025363138 -0.05641985 -0.0012741904
-0.014428254 0.032706007 0.03814781 -0.08980571 0.031428304 0.044819936 -0.05621018 -0.02719845
-0.02018577 0.0021193633 0.026342914 -0.03364575 -0.0071245637 0.054725647 -0.05601316 0.009370364
-0.10347177 0.02690713 0.014398819 -0.007958 -0.03516396 -0.010377524 -0.022626067 0.03922899
0.00884803 -0.1118786 0.01669287 -0.002782284 0.04922381 -0.05590199 -0.061352715 -0.09297708
0.02752728 0.05177625 -0.06279309 0.074268125 0.107688576 0.027919589 -0.0029688985 0.03119823
0.026815167 -0.048171718 -0.0490104 -0.043061078 -0.10745779 -0.108061 -0.028130496 0.013368087
0.077311285 -0.100582585 0.04546121 0.10516727 0.057830505 0.0452394 0.038408734 0.04787291
0.03385389 0.024407929 0.010771405 0.02430911 -0.09602709 -0.074300796 0.011321732 -0.00847276
0.0014238612 -0.101116106 0.014824787 -0.022345025 0.04222548 -0.012296311 0.018174198 0.037654385
-0.02201625 -0.09958532 -0.11368594 0.017379582 -0.075671986 -0.11021904 0.01990256 0.08864143
-0.012921185 0.14342609 -0.058140103 -0.0007362705 -0.03799909 0.04228647 0.012301229 -0.0143873235
-0.009414064 -0.04120739 0.09733203 -0.06066397 0.024669845 0.025577124 -0.10147167 -0.062179893
-0.06746792 -0.022335334 0.070387386 0.046578657 -0.08825527 -0.04405982 -0.010064351 0.05147583
0.11359563 -0.04515715 0.05917451 -0.060960874 -0.045358967 -0.025893828 0.016398247 0.025576066
0.03298853 -0.06235324 0.10320038 -0.011205367 -0.09283671 -0.028686792 0.027084552 0.061417226

model/a_stream/b f4 [3]
00000000: f858 75ba ce40 713b 76b6 82ba
-0.00093592657 0.0036812308 -0.000997259

model/hidden/mid_rec_layer/upward/b f4 [80]
00000000: 5223 34bd 0025 2cbe 0000 803f 5423 3fbe
00000010: 04f1 4cbd 7850 1dbe 0000 803f 494e 3bbe
00000020: a761 ad3d 63d0 003e 0000 803f 7ca2 173e
00000030: 7f3b a03d 08e1 ff3d 0000 803f 4fd1 193e
00000040: 41f4 f13d 7604 1d3e 0000 803f 7b0d 353e
00000050: a19d 85bd b997 44be 0000 803f 79b1 69be
00000060: 912f be3d 5b25 0b3e 0000 803f d0f9 243e
00000070: 9cda 203d 8f10 cb3d 0000 803f 27e5 033e
00000080: 310a a73d f8e5 f13d 0000 803f 4c54 0d3e
00000090: 1cf4 aebd 84b7 2abe 0000 803f 07e9 59be
000000a0: 5fc3 ecbd 6176 47be 0000 803f bf74 82be
000000b0: 4805 9fbd 07cb 70be 0000 803f 8741 83be
000000c0: 7b84 a03d 262a 113e 0000 803f dcf2 293e
000000d0: 08ee 8c3d 3d0f 0e3e 0000 803f 5b7b 2b3e
000000e0: 36fc 07bd 4f7a c8bd 0000 803f 5804 c5bd
000000f0: c072 3f3c b839 843c 0000 803f fdce da3c
00000100: e202 7abd 0e10 5ebe 0000 803f 74cc 86be
00000110: c0a1 7cba 52b1 41bb 0000 803f 0044 3a3c
00000120: 622d bb3d 3e5a 163e 0000 803f 966c 323e
00000130: ac81 67bc 689c 1abd 0000 803f 34bb 02bd
-0.043978997 -0.1681099 1.0 -0.1866582 -0.050034538 -0.15362728 1.0 -0.18291582
0.08465891 0.12579493 1.0 0.14808077 0.07823848 0.12494093 1.0 0.15021251
0.11814166 0.15333733 1.0 0.17680924 -0.06524206 -0.19198503 1.0 -0.22821607
0.09286416 0.13588469 1.0 0.16110921 0.039270982 0.09915268 1.0 0.12880383
0.08156241 0.11811441 1.0 0.13801688 -0.08542654 -0.16671568 1.0 -0.21280299
-0.115607016 -0.19478752 1.0 -0.25479695 -0.07764679 -0.23514949 1.0 -0.2563593
0.07837769 0.14176235 1.0 0.1659655 0.06881338 0.13873 1.0 0.16746275
-0.03319951 -0.097889535 1.0 -0.09619969 0.011685073 0.016140804 1.0 0.026710028
-0.061037906 -0.21685812 1.0 -0.2632786 -0.000963714 -0.0029555154 1.0 0.0113687515
0.091395155 0.14682862 1.0 0.17424235 -0.014130037 -0.037746817 1.0 -0.031916812

model/hidden/input_layer/W f4 [256, 86]
00000000: dc18 2ebd 055f cc3c 42e8 8dbd d02c bdbc
00000010: 1ff5 9fbb c01a 04bd 12a9 44bc a3ab d2bd
00000020: 25e5 b03c dab0 583e 7ab9 9b3d b29d 3ebe
00000030: 34ce a33c 22fb 75bb 210f 38bb c2c9 84bd
00000040: 913f 113d cbf2 23bd 7afc 753c 6aff 143d
00000050: dde7 0b3d 06f8 983d ba18 7e3d ca1d 123e
00000060: 382e bb3d dade 77bb 1fe7 63bd f883 b63d
00000070: 3400 2e3d f35e 07bc ddda ef3d 383d 443c
00000080: 4497 bc3d 08f0 d3bc fb0f 163e 328d d3bb
00000090: 1dc8 dd3d 9d06 babc ccd7 043d 0747 233d
000000a0: ccaa 0d3e 0413 12bc 962b d4bd 55d0 a6bd
000000b0: 1263 e3bd 5011 f9bd 9025 823d b392 12bc
000000c0: 11b4 e8bc 78b8 21bd 1b7d 4a3d 42ff 823c
000000d0: 26e1 80bd 8d60 5cbd 1078 3fbd c0d6 f7bd
000000e0: 123a ccbd 7207 30bd 1162 283e 7e9f 393d
000000f0: 04ae 9abc 916b 48be 933e 2a3e e2d9 193d
00000100: 69b0 de3b c5e1 8abd d99a 223e d7c7 70bd
00000110: a142 51be aafb 463e 7863 8d3e 22a4 61be
00000120: 31f2 bdbc 77fa 26be 9af7 4fbb 1c90 85bd
00000130: 8d6f 4ebe f2e2 973d f5f5 47be 4a79 4a3e
00000140: 636b dc3b e6e9 503e d035 373e fbd0 e33b
00000150: d980 d63d 7c19 373d aafc 24bb 69fb 133c
00000160: 8f8f 07be 02c7 77bd be88 f4bd aff6 a6bd
00000170: a8de f13c 7e20 5fbe 5dc4 ce3e f2bb 04be
00000180: d273 e8bd 05a6 093e c4a3 743d ac90 253e
00000190: 8dc4 cdbd b5eb 3f3b c002 073e 3955 38bd
000001a0: 1e98 85bd d5ee 33bd 5b21 493e 4ce1 9e3c
000001b0: dc5f ae3d 2e97 083e 56c1 04be bbc9 86bc
000001c0: c031 40bb 0b03 debd 3dab d03d e87d ac3d
000001d0: 0c5b 98bd 5ee7 90bd 6834 b5bd 5e79 733d
000001e0: d483 f7bd a881 69be 59ab 153e 6138 1e3e
000001f0: 80c0 30be 35f9 1e3d e604 49bd f2dc 4cbd
00000200: d125 1d3c 7c4e edbd 58c8 c13a 6cc6 43bd
00000210: 15e0 a5bd cda1 ab3e 1dce 3ebd 3532 d93d
00000220: a72d 543c 6109 de3d 091f 1cbe 9ddc a4bc
00000230: 21ec 6cbc 901b 473d 5729 74be 8b24 8abd
00000240: d8e9 8d3d d30c 113e cf0b 053e 57ae 94be
00000250: 52be 453e 141a 583c a756 4e3d 52bb 2bbd
00000260: 77b5 183e 9afa 2e3c 2274 e33d e826 693d
00000270: 4440 a8bd 42f9 05be 9c1e af3c 6c72 59bc
00000280: 69c6 a43b 1002 b0bd eb87 1bbd e5f7 343e
00000290: 199f d9bd 44ae a83c 9945 8abd e9a3 823e
000002a0: 13a6 38bc 7c75 a4bc 090d 17bd 8930 88bd
000002b0: a9cb 5abb 7d75 4d3e 6f33 953d 3884 63bd
000002c0: 5021 3e3e 0668 413d 8a1d 0fbe 7321 983d
000002d0: eb9f 8abd cb66 a5bb be2f 6bbe 1624 febb
000002e0: a2d9 02be 5f09 383d 6752 13be 57d0 3dbd
000002f0: 5cd3 94bd 2734 993d 4db0 5ebe d436 60be
00000300: c84c dd3d d203 f63d 17cd 5fbd 31e0 ffbc
00000310: 2d00 7b3e 7799 1abd b6d3 bd3d 3fbd a13d
00000320: 1d95 6e3e 06e0 2b3d 7921 57be 3deb a6bd
00000330: 824a 23bd 5e2c c2bd 3bef 01bd 2251 92bd
00000340: 432f 483e 4aeb e83c 67f8 b0bc 64ee dd3d
00000350: 0e2c ff3d 681c e3bd 5253 32be a111 2f3c
00000360: 7325 ec3d e235 fcbd 4b86 6dbe aa63 b33b
00000370: 34f0 693c 1084 243d ea52 c83c 255e ef3d
00000380: 77e2 39bd 2354 f0bd ee16 a03d 20bf f2bc
00000390: eda1 993d f370 04be 12c6 39bd c918 77bd
000003a0: f0bf 9abd 2dd1 43be 8ca2 aabd b3a2 ba3d
000003b0: 8853 233d 8fb9 973c abfe ca39 2237 56bd
000003c0: 62ee d1bc f5d1 0e3d 238b 49bd 5afe 86bc
000003d0: 2207 02be a97e 293c 9525 e1bd 9906 0a3e
000003e0: 3f38 83bd 1775 56bd 4a86 c73c c85b 54bd
000003f0: 3af6 ca3d b5a2 d63d 05fd c2bd d986 a73d
-0.042504176 0.024947653 -0.06929065 -0.023092657 -0.0048815156 -0.032252073 -0.0120032 -0.10286643
0.02159364 0.21161214 0.07603736 -0.18614843 0.019995786 -0.003753372 -0.002808519 -0.06483795
0.035461012 -0.040026467 0.015013808 0.036376394 0.03415667 0.07469182 0.0620353 0.14269176
0.09139675 -0.003782204 -0.055640336 0.0891189 0.042480662 -0.008262384 0.11711667 0.011977486
0.09208539 -0.025871292 0.14654534 -0.006456041 0.10829184 -0.022708232 0.032432362 0.03986266
0.13834685 -0.0089156665 -0.10359876 -0.08145205 -0.111028805 -0.12161505 0.06354821 -0.008946109
-0.028406175 -0.039482564 0.049435716 0.015990857 -0.06292944 -0.053803016 -0.04674536 -0.12101507
-0.099720135 -0.04297585 0.1644366 0.04531812 -0.018881805 -0.19572283 0.16625433 0.037561305
0.006795932 -0.06781343 0.15879382 -0.058784332 -0.20435573 0.1943194 0.2761495 -0.22035268
-0.023186775 -0.16306482 -0.0031733275 -0.06521627 -0.20159741 0.07416333 -0.19527419 0.1977283
0.0067266687 0.20401725 0.17891622 0.0069524026 0.104737945 0.04470204 -0.0025175014 0.009032109
-0.13238357 -0.060492523 -0.11940144 -0.0815252 0.029525116 -0.21789739 0.40384188 -0.1296232
-0.11350216 0.13442238 0.05972649 0.16168469 -0.10047255 0.002928478 0.13184643 -0.04500315
-0.06523155 -0.04392894 0.1964163 0.01939454 0.085143775 0.1333892 -0.12964377 -0.016453614
-0.0029326528 -0.10840424 0.10188911 0.08422452 -0.07439241 -0.0707538 -0.08847886 0.059441917
-0.12085691 -0.22803366 0.14616145 0.15451194 -0.17260933 0.03881188 -0.049076937 -0.050015397
0.009591536 -0.11587235 0.0014784439 -0.04779665 -0.08099381 0.33521882 -0.046583284 0.10605279
0.0129503375 0.10841633 -0.15246214 -0.020124728 -0.014460594 0.04861027 -0.23843895 -0.06745251
0.06929368 0.14165048 0.12992786 -0.2903926 0.19310883 0.013189811 0.050375607 -0.04192669
0.14912973 0.010679865 0.11106135 0.05692187 -0.08215383 -0.13083366 0.0213769 -0.013271909
0.005028535 -0.085941434 -0.03797142 0.1767269 -0.106260486 0.020590909 -0.06751556 0.2551568
-0.011270064 -0.020075552 -0.036877666 -0.06649882 -0.003338555 0.2006435 0.07285201 -0.055546016
0.18567395 0.047218345 -0.13976112 0.07428255 -0.06768783 -0.0050476543 -0.22967431 -0.0077557666
-0.12778333 0.044930812 -0.14386903 -0.046341266 -0.07266876 0.074806504 -0.21746941 -0.21895915
0.108056605 0.120124474 -0.05463895 -0.031234832 0.24511786 -0.03774401 0.09268896 0.07897424
0.2329907 0.041961692 -0.21008863 -0.08150337 -0.039865978 -0.094811186 -0.03172229 -0.07144381
0.19549279 0.028432507 -0.021602822 0.10836485 0.12459575 -0.110894024 -0.17414597 0.010685355
0.1153058 -0.12314965 -0.2319576 0.0054745274 0.01427846 0.040165007 0.024453599 0.116878785
-0.04538199 -0.11734798 0.078168735 -0.029632151 0.07501588 -0.12933712 -0.04535491 -0.06032637
-0.075561404 -0.19122763 -0.083317846 0.09113064 0.039874583 0.018521098 0.00038718185 -0.052298672
-0.025626365 0.0348682 -0.049204957 -0.016478706 -0.12698033 0.01034514 -0.10993496 0.1347908
-0.064072125 -0.05235776 0.024356026 -0.051845342 0.09910245 0.10480253 -0.09520916 0.08180017

model/v_stream/W f4 [1, 256]
00000000: 8828 c6bc ae1e 99bb 746b 93ba 4642 2c3c
00000010: dd31 e23b e68e c83d e52a 8abd 585f 3c3d
00000020: 576b 733b 6b5d 6cbb 7dc3 9abb a8a3 2f3c
00000030: 76f5 893d bddd bbbb c288 9abc 66e6 993d
00000040: e1db 463b e281 cdbb 7c10 4f3d f90d 53bd
00000050: e178 ed3c cde2 903c 7d98 08bd c7dc a73d
00000060: 7970 943c 8b1f 1ebc a706 b13c 69a3 0bbd
00000070: d785 a6bb 8778 8dbd 2f96 babc 0adf bf3c
00000080: 2bfc 32bd a85d 4a3c c188 b53a a9bb 3e3e
00000090: 0a67 1fbc 569d ebbb e09f a13b e267 df3b
000000a0: 22c5 d7bd 0b03 843c cdec 45bb ca7b 0d3d
000000b0: 7af4 18bd f1f2 60bd b9fc 3d3c f6fb 3dbc
000000c0: b36b 403d 7f82 353c 25f2 79bb 2f75 10bb
000000d0: 4dc5 80bc ef29 a93a 22f2 093d 9086 96ba
000000e0: abe3 c3bc 9ffa 0bbc 4e9a ae3b d9fe 53bc
000000f0: 63c0 a63a a761 89bb c86e 613c 9882 6e3b
00000100: 5555 9dbc e157 553c 40e2 113b c4a5 6bbd
00000110: 344b cabb 68a5 763d 2c3a 1b3d 01a9 e43b
00000120: e5ca dfbc e40d d9bc 2e8e 293d 6193 143b
00000130: 71f5 14bc cfe7 c53b 6ebc e2ba 695e c43d
00000140: 090e 8bbd a246 3bbc a371 6dbb 6f96 06be
00000150: f97e 72bd 5fd7 10bd f2e7 acbc b51c 2f3b
00000160: 2eb0 8dbd eb3c f13b f364 0fbc 8151 16bd
00000170: a0f2 a13c d7b7 593b e42d 3fbd 6a6c 8cbb
00000180: 0826 ef3c 5e6a 16bd bfbf adbc 4f94 383c
00000190: d7f7 023e 99e2 88bc 21a3 85bd f09d 9f3b
000001a0: da96 e63a 0269 c13c 4917 cbbb 97d7 d4bb
000001b0: 5e87 f83c 020f a6bd d12e 8f3c 1e87 5c3a
000001c0: de42 ecba 6547 a6bb 29b3 59ba 8a2e 35bc
000001d0: dbf1 afbb 6c4f 02bb c3a6 213c ddeb 813d
000001e0: 2aee 4d3c 9c48 e43b 6955 31bd cd4f d639
000001f0: dd12 863d 5b59 5d3c f1e1 b9bb 02bf 72ba
00000200: 7e7c c9bc 15e4 933b 8914 0cbd 12d6 ec3d
00000210: 20eb 723d 0e1f d1bc afcf aabc 734c b03b
00000220: 4f99 253d 6de0 9abd 31c6 30bd 3374 243c
00000230: 5ef0 8fbb cbc2 3dbc e763 dbba 43ac d9bb
00000240: 5ec4 45bc 68dc 8dbd 3162 213d 94d4 afbb
00000250: e3c9 82bd 48df 21bd a0c3 ac3c fb02 e0bb
00000260: 31d7 063d 3c19 b5bc ed8e 85bc c225 153b
00000270: 85e2 7c3d 2842 57bd 0d4a dabc d988 da3c
00000280: 66b4 b5bd e6ff f23b 92db b4bc d5f7 a5ba
00000290: 7f52 303d 0a89 f83c acc5 e8bc b609 bcb8
000002a0: 14d8 893a 3401 60bb 207c 313c 4653 58bd
000002b0: 2fe0 ac3b b1e7 74bd 26f6 0bbc 8731 38bd
000002c0: e8e2 793d 9d25 643d d089 dc3b e82e edbc
000002d0: 3cfd 83bc ab2b 6bbc 379f ce3a f700 a03d
000002e0: bc8d f7bc 195c b1b9 cc42 16bc d62f 953d
000002f0: 6838 00bc 3b0e 89bc 017c eaba 204f 893d
00000300: 6ac1 8f3c 8173 6c3d ed8c 1cbb 4f7b 02be
00000310: 581b a9bb c520 9cbc 0fb4 b2bc 6e56 d2bd
00000320: bb00 3fbb 8798 d33a b7f6 283d fce2 ad3b
00000330: fc3c f73c 3331 ec3c 4ece a3bc a62c 5ebc
00000340: 7d56 8b3c d11c ffbb 3c1c 2abd 8e99 af3d
00000350: 1a31 a6bd 80a1 813d 61a6 97bd 3739 57bd
00000360: 1b5d 423d 8789 19bc 9d93 c5bd 269f 83bc
00000370: 700e 98bc 0750 143d 0734 d73c 7a9a d93b
00000380: 4161 133d a9d0 e5ba f1af 163c 1c35 c33c
00000390: e563 bebb c075 f9b9 9d66 883c 7fa7 86bc
000003a0: 7cc1 9fba 7d0b b5bd e49b 4ebb b664 8b3b
000003b0: d6bc d33d 59ac ccbb 2244 bc3b feb1 3f3a
000003c0: 0720 87ba eb73 213d aecb 07bc ce53 a7bc
000003d0: 6cd0 e23d 1a83 7a3c 1291 64bd ee7d 283d
000003e0: ff3a 15bd d483 26bd 4aac d73c 4fd2 e63b
000003f0: bf39 b0bd e097 823c 402a 25bd 371f 53bb
-0.024189249 -0.0046728468 -0.0011247233 0.010513848 0.006902917 0.09792881 -0.06746463 0.045989364
0.0037142837 -0.0036066424 -0.004723011 0.010720171 0.06736271 -0.0057332204 -0.01886404 0.07514648
0.003034346 -0.0062715868 0.05055283 -0.051526997 0.028988304 0.017686272 -0.03334855 0.08196407
0.018120037 -0.009651075 0.021609617 -0.034091387 -0.005081873 -0.069077544 -0.022776691 0.023421783
-0.043697517 0.012351431 0.001384996 0.18626274 -0.009729156 -0.0071903868 0.0049323887 0.0068178037
-0.10535647 0.016114732 -0.0030200959 0.034541883 -0.037342526 -0.054919187 0.011595898 -0.011595717
0.04697771 0.011078476 -0.0038138714 -0.0022042503 -0.01571908 0.0012906174 0.03367818 -0.0011484195
-0.023912271 -0.008543639 0.005328453 -0.012939178 0.0012722131 -0.0041925493 0.013759322 0.0036393758
-0.019205729 0.01302144 0.00222601 -0.057531133 -0.0061735157 0.060216337 0.037897274 0.0069781546
-0.027318427 -0.026495881 0.04139536 0.0022670852 -0.009091721 0.0060395966 -0.0017298588 0.0958832
-0.06789786 -0.011430414 -0.0036231063 -0.13143323 -0.05920312 -0.035361644 -0.021106694 0.0026719992
-0.06918369 0.0073619983 -0.0087520955 -0.036698822 0.019769013 0.003322115 -0.046674624 -0.004285385
0.02919294 -0.036722533 -0.021209596 0.011265828 0.12789856 -0.016709613 -0.06525255 0.0048711225
0.0017592565 0.023609642 -0.006197844 -0.006495427 0.030337986 -0.08108331 0.017478378 0.0008412468
-0.0018025299 -0.005074429 -0.000830459 -0.011058459 -0.0053694076 -0.0019883765 0.009866419 0.063438155
0.01256899 0.0069666635 -0.043294344 0.00040876717 0.06546567 0.013510074 -0.0056726863 -0.000926003
-0.024595495 0.0045132735 -0.03419927 0.11564268 0.059306264 -0.025527503 -0.020850984 0.005380207
0.04042941 -0.07562337 -0.04315776 0.01003747 -0.0043926677 -0.011582087 -0.0016738147 -0.0066428497
-0.012070743 -0.06926805 0.039400283 -0.0053659175 -0.06386163 -0.03951958 0.021089375 -0.006836293
0.032920066 -0.02210676 -0.016303504 0.00227581 0.061739463 -0.052553326 -0.026646638 0.026676582
-0.08872299 0.0074157594 -0.022077356 -0.0012662361 0.043047424 0.030338783 -0.02841457 -8.9663474e-05
0.0010516667 -0.0034180405 0.010832816 -0.05281379 0.005275748 -0.05979127 -0.008542573 -0.044969108
0.06100741 0.055699933 0.0067302957 -0.02895303 -0.016111962 -0.014353673 0.0015764002 0.07812684
-0.030218951 -0.0003382869 -0.009171199 0.072845146 -0.007825948 -0.016730418 -0.0017889739 0.06704545
0.017548282 0.05772734 -0.002388771 -0.12742351 -0.0051607303 -0.019058594 -0.021814374 -0.102703914
-0.0029144723 0.0016143479 0.04125091 0.0053065997 0.030180447 0.028832054 -0.019995835 -0.01356045
0.017009014 -0.0077854176 -0.041530833 0.0857421 -0.08114834 0.06329632 -0.07404781 -0.0525448
0.047452074 -0.009371168 -0.096472956 -0.016067099 -0.018561572 0.036209133 0.026269926 0.0066407295
0.03598142 -0.0017533499 0.009197221 0.023829035 -0.005810248 -0.00047580712 0.016650492 -0.01643729
-0.00121884 -0.08840082 -0.0031526024 0.004253949 0.10338752 -0.0062461314 0.0057454268 0.00073125947
-0.0010309228 0.03941719 -0.008288307 -0.020425703 0.110749096 0.015290046 -0.055802412 0.04113572
-0.036433216 -0.040653065 0.026327271 0.0070441137 -0.08604764 0.01594156 -0.040323496 -0.003221465
